ckpt/rnn_RK2_h32_dis10/best.pth (torch_old, 61168 bytes, 30 tensors)

rnn.weight_ih_l0 f4 [32, 7]
-0.07659612 0.006319728 0.11306824 -0.06532394 -0.09205748 0.153265 -0.18157388 -0.05440925
0.021332787 -0.21431361 0.047523327 -0.118752494 -0.02185802 -0.03732613 -0.11478326 0.04857088
-0.09278493 0.112320185 0.006561114 0.22330661 -0.11741682 0.08855111 -0.06535766 0.09435015
0.0560788 -0.13389292 0.1095561 -0.057318844 -0.05318034 -0.05836924 -0.08877519 0.040580936
-0.042360887 -0.097649164 0.15957846 0.05305928 -0.15376575 -0.12186515 0.12739451 -0.015685078
0.20259446 -0.13071142 0.08097112 0.03802035 0.08014241 0.20432855 -0.006289123 -0.0979866
-0.029020213 0.120997116 0.028744988 0.046156574 0.009043709 0.07735516 0.1779904 0.18235542
0.06090826 -0.018406441 0.12911986 0.004808612 0.115682326 0.040050317 0.010252433 0.13602155
0.21742871 -0.091054745 0.104381375 0.11554596 -0.07359242 0.11522101 0.048555877 -0.13417903
-0.068525575 0.16679211 0.054086983 0.024608804 0.09790227 0.029859139 -0.04051327 -0.10584157
0.12504771 -0.016672848 -0.1659881 0.12637123 -0.06980596 -0.14983736 -0.06714676 -0.016123414
-0.16816843 -0.09984825 0.2246781 0.023648724 0.10758011 -0.06946119 -0.178447 0.10787524
-0.080563925 -0.2224732 -0.017263252 0.025655441 -0.042399198 0.0073422 0.08193321 -0.04813284
0.13900922 0.13017286 -0.14651583 0.09405448 0.101162724 -0.10802008 -0.07928339 -0.082397796
0.024372846 -0.12745646 0.121930026 0.09047506 0.12531771 -0.18922141 0.02914502 0.15467398
-0.0020993974 -0.0027220454 -0.02810166 0.13642658 -0.067590676 0.08211343 0.115534276 0.06325686
-0.14328367 0.13185231 0.12553968 -0.034797803 -0.10156688 0.17130518 -0.15276788 0.0692909
-0.10350751 -0.08313485 0.06270509 -0.23502345 0.07986317 0.09235473 -0.062282473 0.14642666
0.12324153 -0.18904254 -0.0009971405 -0.049800303 0.1473127 0.12328684 0.014153108 -0.09420248
0.083853535 0.098158404 -0.08872387 -0.055923495 0.056545593 0.12506072 0.000805152 0.034370944
-0.10449019 -0.1583018 -0.09084024 0.1317376 0.070344016 -0.02361496 -0.05756566 0.10589567
0.15160322 -0.052755404 -0.11973739 -0.0007272971 0.07713051 -0.04502146 0.10991727 0.022184815
0.07319669 0.016452122 0.079040326 0.0901902 0.10777246 -0.016163174 0.14960109 0.0039822855
0.13549122 0.010205154 0.05906641 0.18196715 0.23826261 0.15172248 -0.18805578 -0.019455334
-0.10845338 0.107362054 -0.012417811 -0.17824438 -0.1684214 0.053009946 0.0053235083 -0.12932111
-0.014621868 -0.04529482 -0.076587126 0.032461736 0.08431917 0.099567406 0.16309565 -0.049453154
0.19190373 0.063901484 0.15177782 -0.034401957 0.108538724 -0.030220516 -0.050841518 0.0027575628
-0.19272466 -0.11304663 -0.099994525 0.14150524 0.031185953 0.07108299 0.088522084 -0.1640127
00000000: 6dde 9cbd b915 cf3b 5290 e73d 8fc8 85bd
00000010: a288 bcbd 80f1 1c3e 81ee 39be 3cdc 5ebd
00000020: 19c2 ae3c 0775 5bbe d2a7 423d 8234 f3bd
00000030: 970f b3bc 49e3 18bd 7c13 ebbd 42f2 463d
00000040: 0606 bebd 2008 e63d 9dfe d63b 7daa 643e
00000050: 3b78 f0bd 495a b53d 3dda 85bd a73a c13d
00000060: e2b2 653d 3a1b 09be f35e e03d 2ac7 6abd
00000070: a1d3 59bd 9614 6fbd c4cf b5bd 3238 263d
00000080: 9c82 2dbd 49fc c7bd 8968 233e b054 593d
00000090: c574 1dbe 7094 f9bd b573 023e fe7d 80bc
000000a0: ec74 4f3e 37d9 05be 30d4 a53d 3abb 1b3d
000000b0: b421 a43d 813b 513e fd14 cebb 33ad c8bd
000000c0: ccbb edbc 56cd f73d 9c7a eb3c ad0e 3d3d
000000d0: 112c 143c 626c 9e3d 1e43 363e 61bb 3a3e
000000e0: f17a 793d 1bc9 96bc ff37 043e 9091 9d3b
000000f0: dbea ec3d cd0b 243d d2f9 273c 3c49 0b3e
00000100: a2a5 5e3e e97a babd e7c5 d53d 5ca3 ec3d
00000110: 9fb7 96bd fef8 eb3d 87e2 463d 3a66 09be
00000120: 2357 8cbd 8dcb 2a3e 508a 5d3d 6798 c93c
00000130: fc80 c83d 279b f43c 3ef1 25bd 77c3 d8bd
00000140: 820c 003e 7f95 88bc c9f8 29be 7667 013e
00000150: 6df6 8ebd f76e 19be 3e84 89bd 4015 84bc
00000160: 5834 2cbe 3d7d ccbd 0412 663e f8ba c13c
00000170: f652 dc3d ab41 8ebd cfba 36be b2ed dc3d
00000180: b3fe a4bd 04d0 63be aa6b 8dbc 5c2b d23c
00000190: c8aa 2dbd d696 f03b 99cc a73d f126 45bd
000001a0: 6f58 0e3e 094c 053e 3f08 16be a39f c03d
000001b0: 672e cf3d a239 ddbd 545f a2bd 2dc0 a8bd
000001c0: 90a9 c73c f283 02be 73b6 f93d fd4a b93d
000001d0: 4953 003e 42c3 41be 89c1 ee3c db62 1e3e
000001e0: 0b96 09bb 5864 32bb 7435 e6bc 69b3 0b3e
000001f0: fb6c 8abd 162b a83d 3c9d ec3d d08c 813d
00000200: f4b8 12be 4b04 073e 798d 003e 2488 0ebd
00000210: 4c02 d0bd a06a 2f3e 2f6f 1cbe 63e8 8d3d
00000220: bffb d3bd 9b42 aabd 876b 803d fda9 70be
00000230: 4d8f a33d 7a24 bd3d e81b 7fbd dff0 153e
00000240: 0e66 fc3d 5e94 41be 7cb2 82ba 67fb 4bbd
00000250: 24d9 163e d07d fc3d 70e2 673c 3bed c0bd
00000260: 67bb ab3d 4607 c93d dcb4 b5bd 0910 65bd
00000270: 5a9c 673d eb0f 003e d610 533a 8cc8 0c3d
00000280: f4fe d5bd de19 22be 730a babd 39e6 063e
00000290: 8610 903d 2974 c1bc f8c9 6bbd d4df d83d
000002a0: e03d 1b3e 0d16 58bd e038 f5bd 15a8 3eba
000002b0: 9af6 9d3d 6c68 38bd 4e1c e13d eebc b53c
000002c0: 25e8 953d 9ac6 863c e5df a13d a4b5 b83d
000002d0: cfb7 dc3d a268 84bc 0731 193e d57d 823b
000002e0: 36be 0a3e 8533 273c 9fef 713d 9955 3a3e
000002f0: 1dfb 733e 235d 1b3e b291 40be cb60 9fbc
00000300: ce1c debd a3e0 db3d 1374 4bbc b285 36be
00000310: a976 2cbe f520 593d d370 ae3b c16c 04be
00000320: 8f90 6fbc 1087 39bd b6d9 9cbd 99f6 043d
00000330: 87af ac3d ffe9 cb3d 8c02 273e 648f 4abd
00000340: 6982 443e c8de 823d a56b 1b3e 11e9 0cbd
00000350: 8d49 de3d 0491 f7bc 323f 50bd 3ab8 343b
00000360: 9d59 45be fe84 e7bd eec9 ccbd c0e6 103e
00000370: af79 ff3c f593 913d 114b b53d f2f2 27be

rnn.weight_hh_l0 f4 [32, 32]
-0.099281445 0.1376487 -0.16857322 0.11404516 -0.08413291 0.13120697 -0.1189527 0.11665224
-0.038061913 0.08452315 0.0011681791 0.047517184 0.12088506 -0.09979315 -0.018430198 -0.012730333
-0.089761965 -0.057230406 0.048229642 -0.0701865 -0.015376365 -0.15842251 0.14235619 0.0034876994
-0.19875513 0.11952381 0.048027474 0.08924191 0.17823263 0.105497904 0.03947756 -0.13833883
-0.025802445 -0.06692735 -0.05036453 -0.1503297 -0.0389033 0.123506285 -0.02751149 -0.19215629
-0.11208833 0.18363452 -0.08523807 0.064994 0.10736547 0.24314535 -0.04368209 0.046242576
0.107251175 -0.011528874 0.06415846 0.15106043 0.15536334 -0.10524366 -0.06197431 -0.20194806
-0.1565479 0.15095642 -0.12880677 0.13742389 0.08089914 -0.16331859 0.120361656 0.10904729
-0.048616 0.047932453 0.03663232 0.15692852 0.1590631 -0.074545294 0.11528475 -0.042777922
-0.08621235 0.055799108 -0.03404311 -0.12227406 0.12482058 0.07362521 0.09410626 -0.19226062
-0.1410423 0.014181224 -0.19672146 -0.11045119 -0.044803917 0.027862139 -0.0889196 0.17488733
-0.007301291 -0.052999362 -0.13153198 0.15348268 -0.07148238 0.10699748 0.12957254 -0.025199328
0.04007423 -0.23656234 -0.115142904 -0.0199128 -0.097557 -0.2314846 0.09140176 0.18899287
0.1501448 0.10475846 -0.032555275 -0.10706296 -0.093827054 -0.06916673 0.102054685 -0.112501696
-0.03744226 -0.013053731 -0.11351324 -0.25018236 0.05741236 -0.030285094 -0.26444995 0.108040266
0.06267881 -0.11518017 0.082359314 0.037336744 -0.16067038 0.20472993 -0.1547952 0.18690912
-0.06478829 0.01401638 -0.09010372 -0.07747652 0.065961294 -0.2111193 -0.07086814 0.06997526
0.1355819 -0.13140887 0.1210917 0.16363117 -0.07611112 0.13626419 -0.118206576 0.07119351
-0.09330826 -0.067902416 -0.077152744 -0.10321571 0.09077869 -0.16754444 0.015804911 -0.10636191
0.1294068 -0.04210604 0.13714077 -0.1647455 -0.08622242 0.1274529 -0.08847507 -0.11016351
0.18045205 0.13008517 -0.07248745 0.1403473 -0.15874998 0.10305114 -0.16186006 -0.012463508
-0.13962719 0.025982032 0.030709743 -0.15351564 -0.16029277 -0.17972551 0.042342145 0.035410773
-0.0640438 0.13364789 -0.09916295 -0.15442178 0.08019521 -0.100362524 -0.12614648 -0.17312938
-0.11770188 -0.11356117 0.047518972 -0.07974455 -0.028425226 -0.1413003 -0.11549425 -0.14350541
0.061890952 -0.064002365 -0.062176105 0.18538561 -0.14603946 0.08490663 0.15515755 -0.077904016
0.0719058 0.076626405 0.12519976 -0.044099472 -0.10945771 -0.030953834 -0.16805741 0.1139972
-0.09604979 -0.17598478 -0.09730213 -0.0979999 0.11144165 0.007144623 0.1958014 0.060766358
-0.20284097 0.051485397 0.03073402 -0.084039226 0.06660449 -0.14282045 0.06508671 -0.015219714
-0.15011764 -0.010901856 0.15951207 -0.059830576 0.16245545 -0.10611317 0.04555872 -0.13191107
0.0924879 -0.20535949 0.17759201 0.020656755 0.15050006 0.17760248 -0.19566062 -0.12566146
0.14861588 -0.1704014 -0.16423619 0.043923084 -0.120207496 0.13188568 0.21776277 0.08713576
-0.11574912 -0.082491204 0.06512745 0.14598948 -0.082551785 0.0777078 -0.067117505 -0.1312732
00000000: 1254 cbbd c8f3 0c3e 759e 2cbe 8290 e93d
00000010: e04d acbd 1f5b 063e 799d f3bd 5fe7 ee3d
00000020: cfe6 1bbd 791a ad3d 961d 993a 61a1 423d
00000030: 9692 f73d 5a60 ccbd edfa 96bc e392 50bc
00000040: 1fd5 b7bd 6e6a 6abd 728c 453d f1bd 8fbd
00000050: 26ed 7bbc 8339 22be d2c5 113e e391 643b
00000060: 7786 4bbe e6c8 f43d 75b8 443d 76c4 b63d
00000070: 9d82 363e 490f d83d 39b3 213d b2a8 0dbe
00000080: a65f d3bc 3511 89bd 0a4b 4ebd 07f0 19be
00000090: 1159 1fbd ddf0 fc3d c75f e1bc 9ec4 44be
000000a0: 918e e5bd b00a 3c3e 4c91 aebd 931b 853d
000000b0: 6de2 db3d 18fb 783e feeb 32bd db68 3d3d
000000c0: 81a6 db3d 9ae3 3cbc 8365 833d 96af 1a3e
000000d0: 9117 1f3e fd89 d7bd c6d8 7dbd 79cb 4ebe
000000e0: 184e 20be 5294 1a3e ece5 03be d9b8 0c3e
000000f0: 73ae a53d fd3c 27be 2c80 f63d 3054 df3d
00000100: 9221 47bd d254 443d c60b 163d dfb1 203e
00000110: 70e1 223e 34ab 98bd 691a ec3d e737 2fbd
00000120: 1a90 b0bd 9b8d 643d ca70 0bbd d36a fabd
00000130: efa1 ff3d d0c8 963d c8ba c03d f8df 44be
00000140: 656d 10be 5d58 683c 5a71 49be 3c34 e2bd
00000150: 5084 37bd 243f e43c 7b1b b6bd aa15 333e
00000160: ab3f efbb dc15 59bd 52b0 06be 902a 1d3e
00000170: 5b65 92bd 7f21 db3d aaae 043e d26e cebc
00000180: e024 243d 663d 72be 0bd0 ebbd 2b20 a3bc
00000190: f7cb c7bd 4d0a 6dbe d930 bb3d 5987 413e
000001a0: 8fbf 193e 9a8b d63d ae58 05bd d343 dbbd
000001b0: 6628 c0bd 49a7 8dbd 0c02 d13d 4a67 e6bd
000001c0: 0e5d 19bd 51df 55bc a179 e8bd e717 80be
000001d0: 3929 6b3d 7218 f8bc fc65 87be 3744 dd3d
000001e0: bf5d 803d 95e3 ebbd 00ac a83d 6aee 183d
000001f0: c786 24be b9a4 513e a282 1ebe 1b65 3f3e
00000200: b9af 84bd f5a4 653c 4d88 b8bd 02ac 9ebd
00000210: b716 873d a82f 58be 5123 91bd 304f 8f3d
00000220: fbd5 0a3e 0c90 06be edfe f73d ee8e 273e
00000230: 26e0 9bbd d788 0b3e 4a16 f2bd e7cd 913d
00000240: 6718 bfbd 6c10 8bbd 4202 9ebd c262 d3bd
00000250: 2eea b93d c590 2bbe 4d79 813c 46d4 d9bd
00000260: 3783 043e 6277 2cbd a16e 0c3e 0bb3 28be
00000270: 6195 b0bd 0383 023e 6b32 b5bd 689d e1bd
00000280: 6cc8 383e 0c35 053e 4d74 94bd 34b7 0f3e
00000290: 5b8f 22be 7a0c d33d a5be 25be be33 4cbc
000002a0: 6efa 0ebe 45d8 d43c 0093 fb3c 3433 1dbe
000002b0: ca23 24be f709 38be f56e 2d3d e30a 113d
000002c0: 6529 83bd feda 083e f215 cbbd be20 1ebe
000002d0: 633d a43d de8a cdbd 8b2c 01be d448 31be
000002e0: af0d f1bd c292 e8bd 41a3 423d 1c51 a3bd
000002f0: 05dc e8bc 07b1 10be 4088 ecbd 15f3 12be
00000300: 5e81 7d3d ac13 83bd 5fac 7ebd bad5 3d3e
00000310: 5e8b 15be 87e3 ad3d 9fe1 1e3e 248c 9fbd
00000320: 5943 933d 4eee 9c3d 5e34 003e a6a1 34bd
00000330: 5d2b e0bd e592 fdbc 3e17 2cbe 5d77 e93d
00000340: c1b5 c4bd 5b35 34be 5746 c7bd 2cb4 c8bd
00000350: 853b e43d 711d ea3b 2a80 483e 25e6 783d
00000360: 8bb5 4fbe 5ae2 523d e9c5 fb3c c21c acbd
00000370: ef67 883d 863f 12be 2e4c 853d 1b5c 79bc
00000380: 70b8 19be b39d 32bc 2257 233e e810 75bd
00000390: b95a 263e dd51 d9bd c89b 3a3d b213 07be
000003a0: 4c6a bd3d c249 52be aeda 353e 5b38 a93c
000003b0: b01c 1a3e 6ddd 353e 425b 48be 66ad 00be
000003c0: c32e 183e b47d 2ebe 882d 28be b1e8 333d
000003d0: 592f f6bd 0a0d 073e 34fd 5e3e 3c74 b23d
000003e0: e00d edbd 26f1 a8bd 8a61 853d 447e 153e
000003f0: e910 a9bd 4425 9f3d e774 89bd 7b6c 06be

rnn.bias_ih_l0 f4 [32]
0.024496544 -0.12066252 0.105971165 0.06353713 0.0045418967 -0.0021822203 0.015817564 -0.120493054
0.035830036 -0.025086222 0.14472866 0.09256747 -0.1585828 0.07343334 -0.028247193 0.16652904
-0.09556047 0.1254432 -0.016072704 0.127817 0.013931349 -0.15986302 -0.0024968074 -0.08252097
0.08520122 0.0053238086 0.112707265 -0.16150643 -0.06007925 0.022991914 0.16877536 0.024477266
00000000: faac c83c e91d f7bd 6907 d93d c11f 823d
00000010: 31d4 943b 9503 0fbb d693 813c 10c5 f6bd
00000020: 84c2 123d 9f81 cdbc c033 143e 0494 bd3d
00000030: 8863 22be 3864 963d a866 e7bc 9786 2a3e
00000040: 35b5 c3bd 2f74 003e e7aa 83bc 76e2 023e
00000050: 5040 643c 22b3 23be 7aa1 23bb c100 a9bd
00000060: fa7d ae3d 5873 ae3b 11d3 e63d f161 25be
00000070: a915 76bd 8a59 bc3c 73d3 2c3e 8c84 c83c

rnn.bias_hh_l0 f4 [32]
-0.15780357 0.08120043 -0.04288604 -0.16087645 0.05427251 -0.067623295 -0.05981764 -0.06859132
-0.18906166 0.07231796 0.2349277 -0.1328511 0.10920375 -0.010209533 -0.12942113 -0.059645828
0.18797088 0.1847977 -0.1441953 -0.12132472 0.14217035 0.1294504 -0.06831582 -0.16854729
0.1718366 0.19079429 -0.02113836 0.07009039 -0.12017248 0.16429567 0.011851304 -0.09148409
00000000: 4297 21be 694c a63d 46a9 2fbd ccbc 24be
00000010: da4c 5e3d 157e 8abd 5703 75bd 9b79 8cbd
00000020: 6199 41be 701b 943d e390 703e 1e0a 08be
00000030: 37a6 df3d e345 27bc f986 04be 2f4f 74bd
00000040: 707b 403e 9c3b 3d3e efa7 13be 1879 f8bd
00000050: 1b95 113e a58e 043e 2ae9 8bbd a997 2cbe
00000060: eff5 2f3e 945f 433e 5b2a adbc 8d8b 8f3d
00000070: fd1c f6bd 203d 283e f92b 423c 035c bbbd

fc.0.weight f4 [32, 32]
-0.2387683 0.098679855 -0.16002908 -0.34183824 0.21069562 0.066126846 0.10648566 -0.07692082
-0.020154255 0.037255004 0.054305114 0.11533793 -0.026438903 -0.08756304 0.25708932 -0.04174395
0.19737414 -0.14820635 -0.16245629 -0.053326387 0.20787914 -0.14482026 -0.17214692 -0.10511463
-0.16020088 0.48101264 0.20735005 0.23401266 -0.35131916 -0.060863946 0.19013378 0.17625302
-0.13509777 -0.18051355 -0.22051004 -0.17431891 -0.0069806683 0.0418528 0.1335208 -0.20800143
0.44287688 -0.14434266 -0.011626657 0.0062545957 -0.033728614 0.13253054 0.041530564 0.20654823
-0.1570317 -0.049415063 0.41636187 -0.10527573 -0.11458669 0.24011245 0.043549526 0.013197231
-0.19643183 -0.07704029 0.23547387 -0.13568957 -0.20039697 -0.1509251 -0.15078402 -0.121572755
-0.05396253 0.005335069 0.13028361 0.31638867 -0.040277794 0.061275277 -0.052072152 0.13449793
0.15355124 0.011223605 0.19046126 -0.16446552 -0.469069 0.087878905 -0.07657624 -0.19669339
0.07894309 0.15585418 0.12900682 -0.14827693 -0.086667106 0.11530317 -0.1169225 -0.04899378
-0.15282159 0.37955388 -0.24101306 0.046929378 -0.16963968 0.35773993 -0.09406846 -0.17571656
0.4058523 0.01868008 -0.29250953 -0.1425182 0.41869953 -0.10681053 -0.26021585 0.26818535
0.06312998 0.06449064 0.031639148 9.765805e-06 0.040608577 -0.16680989 0.051331554 -0.09282663
0.19528186 0.074728906 0.11675663 -0.14337817 0.04564241 -0.05056792 0.12922524 -0.28691047
0.045640487 -0.1839751 -0.06662058 -0.28510383 -0.24618693 -0.0085678985 -0.10745639 -0.31437522
-0.06724172 0.042850483 -0.1855702 0.43367714 0.06365155 -0.09197731 -0.11790205 -0.15191709
-0.215109 0.010526987 -0.034068763 0.21372463 0.14680174 -0.06414742 0.006549399 -0.1584793
-0.2428033 0.017981835 -0.033491123 -0.13226667 -0.19480449 -0.14106669 -0.24189499 -0.05851792
-0.20931835 -0.1061758 -0.08417702 0.11674297 -0.10818634 -0.3185235 -0.39239419 -0.11950735
-0.12395562 -0.081413075 -0.09389643 0.09336011 0.0051335664 0.34530094 -0.3298241 -0.02989034
0.1700751 -0.09368378 0.16026798 -0.06616605 0.30817637 -0.45867053 -0.070151635 0.00275583
0.025304465 0.017881053 0.1773371 0.313606 0.035949223 -0.1871305 -0.058661126 0.16946194
-0.019641714 0.14774929 0.100222096 0.2123434 0.18919878 0.2466586 -0.2085211 -0.17020872
0.06998163 0.45143712 0.24284188 0.066163406 0.009183713 -0.16419755 0.16158737 0.18569496
0.18524465 0.04765026 0.2280783 0.06737964 0.40660074 -0.06268206 0.07175708 -0.2084871
0.11032918 -0.08752166 0.17078725 -0.105863415 0.30476817 0.12764467 -0.1751107 0.31993684
-0.060083587 -0.061766554 0.049883768 -0.04659841 -0.1570512 -0.105356544 -0.050909925 -0.026743282
0.35725468 -0.1085433 -0.21255043 0.088778235 -0.095518015 0.33739182 0.12238049 -0.22178788
0.15683512 0.103037484 -0.14647919 0.18541798 -0.09021966 -0.16949593 0.4176974 -0.1354155
0.23590519 0.1700783 0.04190625 0.14073265 0.09910765 0.16896375 -0.2975958 0.059747413
0.062051672 -0.03543301 -0.030950611 -0.15850885 0.1236835 -0.20158382 -0.023184434 0.17375565
00000000: ad7f 74be aa18 ca3d aade 23be 6c05 afbe
00000010: 98c0 573e 836d 873d 2715 da3d aa88 9dbd
00000020: 891a a5bc b498 183d 0a6f 5e3d 4b36 ec3d
00000030: 6696 d8bc 4054 b3bd 36a1 833e b4fb 2abd
00000040: 721c 4a3e 68c3 17be f15a 26be c56c 5abd
00000050: 45de 543e c34b 14be 4847 30be 5746 d7bd
00000060: b30b 24be 4a47 f63e 9253 543e 04a1 6f3e
00000070: 1be0 b3be 794c 79bd 6eb2 423e ac7b 343e
00000080: 1257 0abe 8bd8 38be 62cd 61be a880 32be
00000090: 17be e4bb d76d 2b3d adb9 083e 54fe 54be
000000a0: c2c0 e23e 90ce 13be bc7d 3ebc 5af3 cc3b
000000b0: 0427 0abd 16b6 073e f41b 2a3d 6181 533e
000000c0: ebcc 20be 7367 4abd 622d d53e cd9a d7bd
000000d0: 6dac eabd 0ae0 753e fd60 323d 3339 583c
000000e0: 6d25 49be 4dc7 9dbd 1020 713e 35f2 0abe
000000f0: dd34 4dbe 1c8c 1abe 2067 1abe 23fb f8bd
00000100: d007 5dbd cdd1 ae3b 1169 053e b2fd a13e
00000110: 54fa 24bd c9fb 7a3d 9c49 55bd d3b9 093e
00000120: 893c 1d3e 36e3 373c 4708 433e a669 28be
00000130: d029 f0be dbf9 b33d 01d4 9cbd fe69 49be
00000140: eaac a13d 3d98 1f3e 5d1a 043e e8d5 17be
00000150: 867e b1bd 1224 ec3d 1075 efbd b4ad 48bd
00000160: 437d 1cbe e354 c23e 21cc 76be 0539 403d
00000170: 06b6 2dbe b029 b73e f7a6 c0bd 0bef 33be
00000180: dfcb cf3e f806 993c cfc3 95be 4bf0 11be
00000190: c95f d63e 7bbf dabd 033b 85be 974f 893e
000001a0: 4a4a 813d ab13 843d 0d98 013d d0d7 2337
000001b0: 2e55 263d 36d0 2abe 0941 523d e31b bebd
000001c0: f8f7 473e 780b 993d 1a1e ef3d bad1 12be
000001d0: 89f3 3a3d 4f20 4fbd 9f53 043e eee5 92be
000001e0: 85f1 3a3d f863 3cbe 5f70 88bd 21f9 91be
000001f0: 6d18 7cbe 5f60 0cbc 1912 dcbd caf5 a0be
00000200: 07b6 89bd fd83 2f3d 1d06 3ebe ee0a de3e
00000210: be5b 823d 9a5e bcbd a176 f1bd 2790 1bbe
00000220: 8945 5cbe 6279 2c3c b08b 0bbd a1da 5a3e
00000230: 3253 163e b95f 83bd 579c d63b 6648 22be
00000240: 6ea1 78be a44e 933c fd2d 09bd ea70 07be
00000250: d47a 47be c973 10be 52b3 77be 7db0 6fbd
00000260: 8d57 56be b372 d9bd 0065 acbd f016 ef3d
00000270: cd90 ddbd 8315 a3be e4e7 c8be 45c0 f4bd
00000280: 72dc fdbd e6bb a6bd c64c c0bd 9633 bf3d
00000290: 7a37 a83b 49cb b03e b4de a8be 96dc f4bc
000002a0: 2b28 2e3e 48dd bfbd 4a1d 243e 1182 87bd
000002b0: 4bc9 9d3e ddd6 eabe a9ab 8fbd 289b 343b
000002c0: 4f4b cf3c 497b 923c db97 353e f790 a03e
000002d0: 7e3f 133d 239f 3fbe a646 70bd 6e87 2d3e
000002e0: a9e7 a0bc 974b 173e 3e41 cd3d 8c70 593e
000002f0: 53bd 413e 1294 7c3e 8e86 55be 324b 2ebe
00000300: 8752 8f3d c422 e73e 8bab 783e ae80 873d
00000310: 4977 163c 6723 28be 2977 253e d226 3e3e
00000320: c6b0 3d3e eb2c 433d 5c8d 693e 56fe 893d
00000330: f92d d03e 745f 80bd 60f5 923d a47d 55be
00000340: 44f4 e13d 8e3e b3bd dae2 2e3e ebce d8bd
00000350: 930a 9c3e 49b5 023e 3850 33be c3ce a33e
00000360: 351a 76bd edfe 7cbd ec52 4c3d f9dd 3ebd
00000370: 08d2 20be 2cc5 d7bd ed86 50bd ba14 dbbc
00000380: 16ea b63e f34b debd d2a6 59be 5dd1 b53d
00000390: f39e c3bd 9fbe ac3e 9fa2 fa3d 5d1c 63be
000003a0: 6399 203e 5105 d33d a4fe 15be 36de 3d3e
000003b0: 16c5 b8bd 5790 2dbe 6fdc d53e 5caa 0abe
000003c0: 2191 713e 0229 2e3e e3a5 2b3d 381c 103e
000003d0: f4f8 ca3d d504 2d3e 7a5e 98be b4b9 743d
000003e0: e529 7e3d 3422 11bd 238c fdbc 2550 22be
000003f0: c64d fd3d fd6b 4ebe 48ed bdbc 00ed 313e

fc.2.weight f4 [2, 32]
-0.27345815 0.23844711 0.22401786 -0.13763165 -0.368598 0.07947311 -0.21840958 -0.095956534
-0.046781525 -0.01493292 -0.16365108 0.059410263 -0.16852856 0.26990932 0.25652206 0.2843153
-0.1677902 -0.20146324 -0.3000865 0.19071686 0.39537236 -0.19017348 0.24519463 0.053032678
0.098183796 0.052970264 0.033238478 -0.1853539 -0.33044523 -0.12690073 0.10512083 -0.09583171
-0.14609548 0.5073953 -0.025365844 0.12946773 0.43879995 0.20721623 0.2774982 0.14992335
0.33709526 0.18710318 -0.06632933 -0.023604065 -0.24188688 0.048100155 0.16025732 0.07658653
-0.120615095 -0.20752022 0.10201553 -0.17112666 0.046594784 -0.09971001 0.20322561 -0.07670353
-0.19274116 0.2688169 -0.2770829 0.02467017 0.17936985 0.20482558 0.111421585 -0.15673965
00000000: b502 8cbe 7b2b 743e f064 653e 50ef 0cbe
00000010: e1b8 bcbe ccc2 a23d c3a6 5fbe dc84 c4bd
00000020: fc9d 3fbd 35a9 74bc 2694 27be 2d58 733d
00000030: c092 2cbe 8e31 8a3e dc56 833e c691 913e
00000040: 32d1 2bbe 614c 4ebe f0a4 99be 484b 433e
00000050: 3f6e ca3e d6bc 42be 4d14 7b3e cb38 593d
00000060: 9614 c93d 59f7 583d 1225 083d 6acd 3dbe
00000070: 1e30 a9be 44f2 01be 9749 d73d 6a43 c4bd
00000080: 0e9a 15be a9e4 013f 08cc cfbc 3093 043e
00000090: 63aa e03e 7e30 543e 3e14 8e3e 8285 193e
000000a0: c097 ac3e fa97 3f3e acd7 87bd 505d c1bc
000000b0: 32b1 77be ab04 453d 7f1a 243e 66d9 9c3d
000000c0: 0c05 f7bd 2e80 54be 85ed d03d d43b 2fbe
000000d0: 2cda 3e3d c334 ccbd 601a 503e be16 9dbd
000000e0: f05d 45be 5ea2 893e cfdd 8dbe 1919 ca3c
000000f0: bbac 373e ccbd 513e 0031 e43d 5c80 20be

grad_module.0.weight f4 [32, 37]
-0.08183496 -0.08617436 -0.1089789 -0.17610769 -0.14189668 0.13311608 -0.04483489 0.15010901
-0.11445661 0.051199432 0.14175168 -0.053349216 -0.051380675 0.07818571 0.12059509 -0.014907613
0.064402275 -0.114490025 0.06941711 0.09865471 -0.088968694 -0.017679103 0.028352227 -0.10093856
-0.026986618 -0.0606269 -0.19435036 0.04857449 0.11558318 0.009007387 -0.04107377 -0.15285566
-0.13152377 0.03908486 0.12953377 0.11211611 0.048157543 -0.190765 0.050980903 0.15121776
-0.109943174 0.025804447 -0.03121425 0.140709 0.015284219 -0.00400484 0.14882697 -0.11138839
-0.0025977092 0.005466238 -0.15933259 0.06762217 -0.066465296 0.08867867 -0.061326243 -0.033366002
-0.086354494 0.030731281 0.16385771 0.17325242 -0.18522045 0.039307486 0.12800096 0.024615493
-0.08756886 0.040824335 0.09428145 -0.016596725 -0.03838516 0.1620344 -0.09945789 0.10834249
0.08180785 -0.006763538 -0.08136078 0.15304819 0.13414223 -0.015189135 0.12347609 -0.12347246
0.011201353 -0.11635535 0.08780877 -0.06712976 0.07325272 -0.09478059 0.10200123 -0.02864219
0.039245058 0.19895649 0.12373569 -0.16317613 0.011033863 -0.1427686 -0.1632043 0.024438681
-0.03575794 0.038355157 -0.13447237 -0.1952506 -0.00126179 -0.106949896 0.108511396 0.013752165
-0.15321238 -0.109646775 0.011328641 0.145537 0.10500525 -0.17395765 0.027339548 0.059508
0.0061328304 0.022415254 -0.0528809 0.018616728 0.008551918 -0.019443663 0.05971411 -0.011123671
-0.064571045 0.13995008 -0.13626118 0.117405534 -0.18162702 -0.114895895 0.052661415 -0.09987567
-0.029999351 0.16809906 -0.10890363 -0.14580299 -0.11944724 0.024439234 -0.08540234 -0.07000863
0.046138585 -0.08429547 -0.068749934 -0.15064275 -0.03972445 0.020522377 -0.00789707 -0.13690245
0.14934021 0.08641706 0.22498913 -0.17537585 0.13159744 0.08022277 0.06856239 0.09454748
-0.048165306 -0.026018653 0.14490998 -0.13514405 0.13273151 0.04227139 0.030811362 -0.027292479
-0.17514564 -0.03263818 -0.122145705 -0.05856416 -0.0035725096 0.09785281 0.012129448 -0.015676137
0.053554833 0.09279484 0.030065995 0.058819003 -0.13527179 -0.16186869 -0.13622336 0.082960926
0.117537856 0.032172915 -0.09106614 -0.0030588089 0.1724024 -0.055924784 -0.15701798 0.022832952
-0.04173482 0.057393905 -0.072870456 0.093516596 -0.18119328 0.14828552 -0.14499092 -0.09387769
0.085855596 -0.038135465 -0.04142157 -0.04421979 0.07840459 0.023656165 0.020799335 0.18829551
-0.10079453 -0.016362356 0.15189643 -0.055002633 0.14240415 -0.10840128 0.02479303 -0.040132366
-0.06105533 0.04937562 -0.045533437 -0.0552873 0.013587262 0.13594806 -0.11096303 0.0029837603
0.0643095 0.08478487 -0.086427584 -0.16102885 -0.049238782 -0.15478201 -0.11504474 0.104287386
-0.09908074 0.007316155 0.009126656 -0.13548194 -0.16072342 0.16778193 0.10213848 -0.10492687
-0.08332622 -0.11231448 -0.043180536 -0.15553896 0.11065128 0.0034468442 0.14063083 0.010956197
0.056395844 0.12801698 0.12390319 -0.13572505 0.11040883 -0.030875074 0.1022143 -0.07990335
-0.0576941 -0.120653175 0.07353516 -0.067084484 -0.11634886 -0.11630354 0.17466462 -0.140802
00000000: 1699 a7bd 2f7c b0bd 5430 dfbd 9355 34be
00000010: 5d4d 11be 954f 083e caa4 37bd 2db6 193e
00000020: 3a68 eabd 7fb6 513d 5a27 113e b584 5abd
00000030: 8b74 52bd d41f a03d 8ffa f63d 103f 74bc
00000040: 57e5 833d bf79 eabd 8f2a 8e3d 7b0b ca3d
00000050: 3835 b6bd c4d3 90bc ee42 e83c e0b8 cebd
00000060: 0a13 ddbc ea53 78bd c803 47be 0bf6 463d
00000070: e0b6 ec3d b893 133c f83c 28bd 3286 1cbe
00000080: 2bae 06be 7217 203d 80a4 043e 229d e53d
00000090: d840 453d e657 43be 5ad1 503d d4d8 1a3e
000000a0: e329 e1bd d963 d33c 07b5 ffbc 0516 103e
000000b0: a96a 7a3c 083b 83bb 1966 183e 991f e4bd
000000c0: 543e 2abb 211e b33b 1528 23be 7e7d 8a3d
000000d0: f51e 88bd 2a9d b53d 3a31 7bbd caaa 08bd
000000e0: a0da b0bd 2bc0 fb3c 51ca 273e 1569 313e
000000f0: 6eaa 3dbe e300 213d af12 033e 6ea6 c93c
00000100: 4d57 b3bd 6b37 273d a216 c13d dbf5 87bc
00000110: c239 1dbd 59ec 253e 94b0 cbbd abe2 dd3d
00000120: e08a a73d aba0 ddbb 7ba0 a6bd aab8 1c3e
00000130: 955c 093e dadb 78bc 08e1 fc3d 21df fcbd
00000140: e185 373c b74b eebd 16d5 b33d 547b 89bd
00000150: 8605 963d 531c c2bd 05e6 d03d 07a3 eabc
00000160: 6dbf 203d 40bb 4b3e 2369 fd3d a517 27be
00000170: 60c7 343c ef31 12be 071f 27be a133 c83c
00000180: eb76 12bd 4c1a 1d3d 20b3 09be c6ef 47be
00000190: a662 a5ba 8c08 dbbd 393b de3d c350 613c
000001a0: b5e3 1cbe 7d8e e0bd c49b 393c a707 153e
000001b0: fe0c d73d f421 32be 30f7 df3c a9be 733d
000001c0: e9f5 c83b 32a0 b73c a599 58bd 1c82 983c
000001d0: 581d 0c3c 5148 9fbc c896 743d 0f40 36bc
000001e0: d33d 84bd 134f 0f3e 0d88 0bbe 5072 f03d
000001f0: 6ffc 39be 8a4e ebbd 7fb3 573d 9e8b ccbd
00000200: 33c1 f5bc 2922 2c3e de08 dfbd 614d 15be
00000210: c1a0 f4bd ca34 c83c 6ce7 aebd af60 8fbd
00000220: d0fb 3c3d 1aa3 acbd c4cc 8cbd 1842 1abe
00000230: 1bb6 22bd 8b1e a83c b662 01bc 2830 0cbe
00000240: a4ec 183e 6dfb b03d 8d63 663e ba95 33be
00000250: 7bc1 063e d64b a43d 706a 8c3d 1ca2 c13d
00000260: fc48 45bd 1225 d5bc 4863 143e 3463 0abe
00000270: c5ea 073e c424 2d3d 1c68 fc3c 7a94 dfbc
00000280: 6159 33be 9daf 05bd 8727 fabd f9e0 6fbd
00000290: c420 6abb 0e67 c83d 98ba 463c 3e6b 80bc
000002a0: 505c 5b3d 390b be3d f64c f63c 32ec 703d
000002b0: b084 0abe e8c0 25be 237e 0bbe 6be7 a93d
000002c0: b0b7 f03d bfc7 033d e280 babd 4c76 48bb
000002d0: 418a 303e 6311 65bd 52c9 20be 2c0c bb3c
000002e0: 21f2 2abd df15 6b3d 1b3d 95bd a185 bf3d
000002f0: bb8a 39be 29d8 173e 8078 14be f242 c0bd
00000300: 0fd5 af3d ef33 1cbd aaa9 29bd cf1f 35bd
00000310: 9692 a03d 93ca c13c 5e63 aa3c 8ad0 403e
00000320: 5d6d cebd 590a 86bc bd8a 1b3e 714a 61bd
00000330: 65d2 113e 7e01 debd c11a cb3c d661 24bd
00000340: 2715 7abd 173e 4a3d 4581 3abd f074 62bd
00000350: 1b9d 5e3c f835 0b3e 9640 e3bd 318b 433b
00000360: b3b4 833d b1a3 ad3d f200 b1bd bfe4 24be
00000370: 9bae 49bd 2d7f 1ebe 949c ebbd a094 d53d
00000380: d8ea cabd 5bbc ef3b f887 153c c7bb 0abe
00000390: ae94 24be 07cf 2b3e fb2d d13d e6e3 d6bd
000003a0: f0a6 aabd 2205 e6bd 13de 30bd 9b45 1fbe
000003b0: 239d e23d 73e4 613b 8701 103e 9f81 333c
000003c0: 54ff 663d e216 033e f5c0 fd3d 82fb 0abe
000003d0: 061e e23d b9ed fcbc bb55 d13d 5ea4 a3bd
000003e0: a650 6cbd 0319 f7bd 9a99 963d 9763 89bd
000003f0: 5048 eebd 8d30 eebd 48db 323e 662e 10be

grad_module.0.bias f4 [32]
0.14101578 0.055170327 0.14144485 -0.13859048 -0.09888824 0.09211912 0.055591337 0.15373816
-0.1384273 0.13379937 -0.03418117 0.11856898 0.10930633 0.06500682 0.11032784 -0.14407627
0.089808166 0.0017129825 -0.06981851 0.08314353 0.07535433 -0.02217576 0.002586844 0.09412477
-0.0052234586 0.18307042 0.09833939 -0.15576158 0.014403286 0.09926201 0.11187232 0.1896813
00000000: 7166 103e 48fa 613d ebd6 103e aaea 0dbe
00000010: eb85 cabd f3a8 bc3d beb3 633d 896d 1d3e
00000020: e3bf 0dbe b402 093e 8e01 0cbd 4bd4 f23d
00000030: ffdb df3d 4c22 853d 90f3 e13d bb88 13be
00000040: 58ed b73d 2886 e03a 02fd 8ebd 2847 aa3d
00000050: 5f53 9a3d f0a9 b5bc 0a88 293b 7dc4 c03d
00000060: 8c29 abbb d076 3b3e 2966 c93d f77f 1fbe
00000070: c3fb 6b3c e149 cb3d 511d e53d d13b 423e

grad_module.2.weight f4 [32, 32]
0.03147877 -0.013411391 0.12992674 -0.1852766 -0.13316469 0.09509427 0.09477929 -0.07823738
0.08534196 0.01692451 0.1457256 -0.15372896 0.13302445 0.005808174 0.16553612 0.13401355
0.027486304 0.1370079 0.09491837 -0.052902304 0.12075152 0.08726393 -0.04984414 0.08580936
-0.006128009 -0.13282308 0.10605138 -0.18824434 0.0325745 0.030329425 0.035538316 0.11211081
0.11489359 -0.033628426 -0.051478084 0.025699995 -0.13256969 -0.1557012 -0.11348898 0.08190565
-0.16546477 -0.12866008 -0.13685301 0.088049635 0.12401914 -0.08064971 -0.01600932 0.09382129
-0.048435323 0.12512848 0.08514083 -0.13337603 -0.023346284 0.13358922 -0.11569724 0.123762615
0.07303244 -0.05073794 0.0013258592 0.13070211 -0.07776177 -0.11603351 0.060379375 -0.043351144
0.0729171 -0.025085906 -0.122751065 0.10284598 0.067728154 -0.17663658 -0.079151414 0.046951573
-0.021694088 0.17029397 -0.11328999 -0.10335261 -0.08030561 0.023706023 0.17739473 -0.0721467
-0.038477853 0.02474893 0.18488398 -0.04953023 0.0017071044 -0.10384232 -0.10774718 -0.15745167
0.034878317 0.1531329 -0.08990466 0.0897174 0.15689202 0.0848238 0.12681593 -0.01535984
0.22685298 -0.17261136 0.0093811015 -0.0067313425 -0.073130205 0.1042901 -0.12627138 0.15387292
-0.060215265 0.13279828 -0.052255858 0.1668303 -0.15872025 -0.116951205 -0.029904975 0.0135683725
0.038024873 -0.12009655 -0.12232775 -0.07327687 -0.024867438 -0.12938209 -0.026062557 0.11899565
-0.0052316356 0.04254751 0.066633575 0.14663576 0.077141285 -0.06849266 -0.11525945 0.13360924
-0.0035811928 -0.13734093 0.003091667 0.05044385 0.12531433 0.011204488 -0.026986536 -0.17168382
-0.16084823 0.06827076 -0.10375562 -0.074851185 0.05130307 0.002618456 -0.0672354 0.10540443
-0.0038769837 0.07478634 0.004463301 0.1406175 -0.124933414 0.041521717 -0.19462304 0.01987033
-0.08531228 -0.006925484 0.09287684 -0.10764803 0.11952932 -0.015153585 0.05647269 -0.03539549
-0.14240773 0.17127003 0.15038796 0.051783934 -0.16669066 0.00045960877 0.122244455 0.024838177
-0.07596154 -0.004771793 -0.081956364 0.10399767 0.1351357 -0.021476801 0.19111913 0.052969314
0.09549862 0.043754134 0.041300315 -0.1619771 -0.03264081 0.13417268 0.17580895 -0.09656718
-0.055974994 -0.037246328 0.06851518 -0.04329604 -0.023259819 -0.023131853 0.097317524 -0.16745591
-0.06870334 -0.15326762 0.114141025 0.17505047 -0.1448493 -0.018247247 0.03134408 0.14149421
-0.14735195 0.069370255 -0.015781334 -0.14488441 -0.037753217 0.12694536 -0.14751913 -0.0093377065
-0.040589124 0.016538102 -0.0059811953 -0.08989199 0.035014167 -0.012132012 -0.1980731 -0.033278853
0.09811851 0.07454578 0.08575716 0.16747147 0.09401494 0.032898262 0.15119128 0.026482861
-0.1974187 0.014345381 0.124904886 -0.19025375 0.1453187 0.06303008 -0.039225124 -0.0667634
-0.14665568 0.071527936 0.026010364 -0.11818447 -0.12039991 0.09144114 -0.08680014 -0.031300593
0.09741546 -0.12000272 -0.0707578 -0.049811613 -0.05442813 -0.15625198 -0.09879331 0.018988192
-0.06407873 -0.079646036 -0.15539962 -0.049345173 -0.14913411 -0.1403066 0.09303925 -0.0011848344
00000000: e2ef 003d 73bb 5bbc 840b 053e 26b9 3dbe
00000010: 535c 08be c9c0 c23d a51b c23d eb3a a0bd
00000020: c4c7 ae3d 45a5 8a3c 1739 153e 206b 1dbe
00000030: 9037 083e 7f52 be3b 4d82 293e d93a 093e
00000040: f52a e13c cd4b 0c3e 9064 c23d 16b0 58bd
00000050: 934c f73d 6eb7 b23d 5e29 4cbd d1bc af3d
00000060: 77cd c8bb c602 08be 7731 d93d 20c3 40be
00000070: d76c 053d 6a75 f83c a090 113d 5a9a e53d
00000080: 554d eb3d f6bd 09bd afda 52bd cc88 d23c
00000090: 59c0 07be 2370 1fbe e96c e8bd 26be a73d
000000a0: 996f 29be 78bf 03be 3223 0cbe 5e53 b43d
000000b0: bffd fd3d ad2b a5bd fa25 83bc 6025 c03d
000000c0: 1e64 46bd ae21 003e 515e ae3d ba93 08be
000000d0: b540 bfbc 9dcb 083e adf2 ecbd 4177 fd3d
000000e0: 0892 953d 96d2 4fbd 74c8 ad3a c6d6 053e
000000f0: 9041 9fbd faa2 edbd 5d50 773d f890 31bd
00000100: 8f55 953d f580 cdbc e964 fbbd eaa0 d23d
00000110: 0fb5 8a3d 38e0 34be 231a a2bd 4b50 403d
00000120: cdb7 b1bc 8b61 2e3e 9504 e8bd 88aa d3bd
00000130: 4577 a4bd 2233 c23c f7a6 353e a6c1 93bd
00000140: f49a 1dbd 45be ca3c 3a52 3d3e 36e0 4abd
00000150: ebc0 df3a 48ab d4bd 8eaa dcbd 033b 21be
00000160: 91dc 0e3d dfce 1c3e ef1f b8bd c2bd b73d
00000170: 4da8 203e 1ab8 ad3d 09dc 013e d7a7 7bbc
00000180: 264c 683e 08c1 30be 31b3 193c 9892 dcbb
00000190: 4ac5 95bd 0c96 d53d 494d 01be dd90 1d3e
000001a0: 48a4 76bd 46fc 073e 3d0a 56bd 90d5 2a3e
000001b0: 9087 22be 1d84 efbd 47fb f4bc e14d 5e3c
000001c0: f8bf 1b3d 2ef5 f5bd f986 fabd 2f12 96bd
000001d0: ccb6 cbbc bd7c 04be 2581 d5bc feb3 f33d
000001e0: 246e abbb 4c46 2e3d 2f77 883d af27 163e
000001f0: 40fc 9d3d e145 8cbd 260d ecbd dcd0 083e
00000200: 72b2 6abb 1aa3 0cbe 919d 4a3b 369e 4e3d
00000210: 6652 003e 0793 373c de12 ddbc e2cd 2fbe
00000220: 66b5 24be 8ad1 8b3d d47d d4bd 944b 99bd
00000230: 2b23 523d 679a 2b3b b7b2 89bd 47de d73d
00000240: fe14 7ebb 9529 993d e240 923b 09fe 0f3e
00000250: 17dd ffbd ad12 2a3d 434b 47be 1ac7 a23c
00000260: 34b8 aebd 2cef e2bb 3636 be3d 9276 dcbd
00000270: cacb f43d be46 78bc e84f 673d dcfa 10bd
00000280: 55d3 11be 6961 2f3e 4dff 193e 641b 543d
00000290: f5b0 2abe a5f7 f039 4d5b fa3d 6f79 cb3c
000002a0: b991 9bbd b35c 9cbb bdd8 a7bd bbfc d43d
000002b0: 0361 0a3e 1ef0 afbc bcb4 433e 5af6 583d
000002c0: c894 c33d 8937 333d 852a 293d 53dd 25be
000002d0: 5fb2 05bd 9064 093e 4307 343e 03c5 c5bd
000002e0: 0946 65bd 9b8f 18bd b051 8c3d 3057 31bd
000002f0: 608b bebc 037f bdbc 694e c73d 9079 2bbe
00000300: 56b4 8cbd 30f2 1cbe c5c2 e93d 6e40 333e
00000310: 6053 14be 407b 95bc a662 003d dce3 103e
00000320: 6ee3 16be fe11 8e3d db47 81bc 945c 14be
00000330: 1ea3 1abd f7fd 013e 410f 17be 2efd 18bc
00000340: c840 26bd ea7a 873c e7fd c3bb 4b19 b8bd
00000350: 046b 0f3d 59c5 46bc add3 4abe 684f 08bd
00000360: 5bf2 c83d 75ab 983d 73a1 af3d a47d 2b3e
00000370: e88a c03d 54c0 063d e3d1 1a3e 96f2 d83c
00000380: 2128 4abe e408 6b3c 22ce ff3d e1d1 42be
00000390: 6dce 143e ea15 813d 86aa 20bd 40bb 88bd
000003a0: e82c 16be 3d7d 923d b013 d53c b30a f2bd
000003b0: 3a94 f6bd 7e45 bb3d 46c4 b1bd 0d35 00bd
000003c0: c281 c73d fcc3 f5bd 77e9 90bd 4307 4cbd
000003d0: 08f0 5ebd 8500 20be 2654 cabd 208d 9b3c
000003e0: b63b 83bd 761d a3bd 1421 1fbe 2a1e 4abd
000003f0: 9db6 18be 89ac 0fbe 5d8b be3d 724c 9bba

grad_module.2.bias f4 [32]
-0.12637258 0.12421853 0.03710553 0.023883846 0.087843165 0.19059971 0.08637453 -0.17578815
0.009344364 -0.14106579 0.030384876 -0.033435564 0.13573602 -0.13157742 -0.14830014 -0.04654724
0.11564787 -0.0012641703 -0.16121663 -0.07144033 0.029687207 -0.072626285 -0.021192508 0.01022257
-0.18763407 0.12173977 -0.08050521 -0.11435531 0.06948851 0.104889594 -0.015807591 0.038477432
00000000: d067 01be 4966 fe3d f8fb 173d 0ea8 c33c
00000010: 1ee7 b33d 922c 433e 21e5 b03d cf01 34be
00000020: 1a19 193c 8d73 10be b4e9 f83c bbf3 08bd
00000030: 62fe 0a3e 3bbc 06be fedb 17be 52a8 3ebd
00000040: cad8 ec3d 84b2 a5ba f915 25be 4f4f 92bd
00000050: 9632 f33c 17bd 94bd e99b adbc 917c 273c
00000060: 2523 40be b352 f93d eadf a4bd 1e33 eabd
00000070: fe4f 8e3d 5bd0 d63d ec7e 81bc 839a 1d3d

exp_avg f4 [32, 7]
-0.0025253228 0.0020782123 0.00022499722 -0.0026326296 -0.0059693544 0.0006840888 -0.001232018 0.0024688675
-0.0017450604 -0.004027813 0.0068072714 -0.0043083453 0.014177519 -0.0012665045 -0.019640975 0.0048658233
0.007890802 -0.0066077714 -0.014891895 0.0008832936 -0.0018997304 -0.00062688894 0.0017045566 0.0023699265
-0.008007494 -0.00073032046 -0.0067304317 0.002381425 -0.007774879 0.008385721 0.0022265038 -7.821801e-05
0.01018094 -0.0148920715 0.0002630181 -0.010791686 -0.0013407096 -0.0010803111 0.0029892724 -0.018938022
0.013161651 -0.008707488 0.015961474 -0.005914836 -0.008863413 0.0029129833 0.012844202 0.0038522494
0.0053399755 -0.011181834 0.0049797553 0.0031646192 -0.003194559 -0.0012305422 -0.0024673697 -0.0039367434
-0.00059770216 0.0051786485 0.0051350878 -0.004128522 0.0053057126 -0.0038599079 0.0040842188 0.0007436294
-0.0061402586 -0.0070691756 0.011812552 -0.0010824845 0.009793018 -0.006885063 0.00025793645 -0.00047727517
0.0026406206 4.4001572e-05 -0.0022547508 -0.0045286184 0.0030754243 0.029535653 0.0058745076 -0.01323933
-0.008876325 0.03643119 -0.021318804 0.010291139 -0.0047941 0.0009211361 -0.00370236 0.005437185
0.002271176 0.00640449 -0.00041618897 0.009246943 0.01580361 -0.004341563 -0.0055673826 0.01858993
-0.016878681 0.00023898868 -0.012497058 0.00398307 0.0028605093 0.0016264061 -0.009962932 -0.0054717427
-0.005101333 0.030093106 0.0031780892 -0.015146576 -0.007462996 0.03324246 -0.017927632 0.010462535
0.012211156 -0.0017318261 -0.0019754781 -0.0034060995 0.008986396 -0.00817365 0.00334489 0.0039084186
-0.011276626 -0.005947475 0.010670392 0.0012812353 0.015345818 -0.0056821164 0.025231466 -0.003075212
-0.0145728905 0.002327822 0.021894636 0.0003044332 0.0054056738 -0.0061530825 -0.00079834636 0.0039990013
0.00122076 -0.009183862 0.004501301 -0.002616234 0.014794415 -0.0043604616 -0.010665519 0.0058485507
0.011924973 0.007793563 -0.0038108323 -0.0023730511 -0.0033759694 -0.0037048613 0.0028271698 0.002983361
0.002653966 0.0039361115 -0.0009964427 0.0030793028 0.0012396834 0.00032916645 -0.0004684956 0.0058763037
-0.0008429313 -0.003815657 0.011751871 0.00071669125 -0.009571169 0.0043959324 -0.013770824 0.00094040576
-0.0074423435 -0.0017009993 0.0042749094 -0.0019656487 -0.0033358936 -0.0035259807 -0.0009427211 -0.008142873
-0.0046581514 -0.0022005816 0.008859422 -0.012050747 0.010237751 -0.005535779 -0.016308768 0.002255979
0.0013684798 -0.0002047986 -0.0057353815 -0.0009128792 -0.0011749851 -0.0054644453 0.0015220866 0.0053330427
-0.0004313965 -0.0078408765 0.008574178 -0.00071128155 0.016880494 -0.0010248746 -0.0057717618 -0.001282248
0.014770647 -0.007534625 0.0029147055 -0.014653712 0.006283881 0.00834195 -0.011477951 -0.0052615325
-0.016108595 0.0005303767 0.008701974 0.0022727225 -0.003801763 -0.0055502555 0.0074397023 -0.008811186
0.007206417 -0.009308351 0.004861023 0.010908374 -0.013555986 -0.0100748185 -0.015867775 0.0079630455
00000000: e37f 25bb 9e32 083b 3bed 6b39 3288 2cbb
00000010: 939a c3bb 6c54 333a aa7b a1ba b9cc 213b
00000020: 83ba e4ba bffb 83bb 880f df3b 052d 8dbb
00000030: d348 683c d700 a6ba 1ce6 a0bc 7c71 9f3b
00000040: 6c48 013c 0186 d8bb 23fd 73bc d48c 673a
00000050: 6000 f9ba ce55 24ba 6e6b df3a c550 1b3b
00000060: dd31 03bc fa72 3fba f48a dcbb ae11 1c3b
00000070: 6ac4 febb 4364 093c 89ea 113b f908 a4b8
00000080: f5cd 263c e0fd 73bc b1e5 8939 9dcf 30bc
00000090: c0ba afba 3a99 8dba abe7 433b e923 9bbc
000000a0: f7a3 573c daa9 0ebc a3c1 823c 3ed1 c1bb
000000b0: d937 11bc c0e7 3e3b 7d70 523c 0576 7c3b
000000c0: f6fa ae3b 0334 37bc 372d a33b 8065 4f3b
000000d0: ce5b 51bb 254a a1ba 98b3 21bb ccff 80bb
000000e0: 1daf 1cba a7b1 a93b 3d44 a83b 8d48 87bb
000000f0: 8bdb ad3b 82f6 7cbb e9d4 853b 20f0 423a
00000100: 3934 c9bb 8ba4 e7bb 6f89 413c 27e2 8dba
00000110: e572 203c 189c e1bb a53b 8739 ca3a fab9
00000120: 430e 2d3b 548e 3838 71c4 13bb ce64 94bb
00000130: 0f8d 493b c1f4 f13c f17e c03b c6e9 58bc
00000140: 016e 11bc df38 153d c6a4 aebc 2a9c 283c
00000150: d317 9dbb 6678 713a 4ba3 72bb 6a2a b23b
00000160: 03d8 143b c2dc d13b f033 dab9 7d80 173c
00000170: 9376 813c ac43 8ebb 976e b6bb e949 983c
00000180: 2945 8abc 0999 7a39 76c0 4cbc 6a84 823b
00000190: 6277 3b3b 222d d53a 913b 23bc 4e4c b3bb
000001a0: 1529 a7bb d185 f63c 7d47 503b 5829 78bc
000001b0: 268c f4bb 3f29 083d f8dc 92bc 0d6b 2b3c
000001c0: 4d11 483c 71fe e2ba 0677 01bb de38 5fbb
000001d0: ad3b 133c c6ea 05bc f135 5b3b 3112 803b
000001e0: 99c1 38bc 09e3 c2bb ded2 2e3c 1fef a73a
000001f0: 076d 7b3c 0c31 babb 38b2 ce3c 7f89 49bb
00000200: 22c3 6ebc 5f8e 183b 615c b33c 559c 9f39
00000210: 1422 b13b cc9f c9bb 1e48 51ba 0e0a 833b
00000220: e901 a03a e977 16bc a67f 933b 1f75 2bbb
00000230: 4664 723c 34e2 8ebb 6ebe 2ebc 33a5 bf3b
00000240: f660 433c 2561 ff3b 28bf 79bb 3185 1bbb
00000250: 5e3f 5dbb 42cd 72bb 0a48 393b 7e84 433b
00000260: 29ee 2d3b 7ffa 803b 129b 82ba 21ce 493b
00000270: df7c a23a f993 ac39 6aa0 f5b9 028e c03b
00000280: 29f8 5cba 1a10 7abb eb8a 403c 56e0 3b3a
00000290: 64d0 1cbc c10b 903b 069f 61bc 9085 763a
000002a0: e7de f3bb 11f4 deba 8a14 8c3b 1dd2 00bb
000002b0: 029f 5abb 2414 67bb f120 77ba af69 05bc
000002c0: 68a3 98bb a237 10bb 1c27 113c 7f70 45bc
000002d0: 3dbc 273c 7b65 b5bb f799 85bc 0cd9 133b
000002e0: 905e b33a 35bf 56b9 deef bbbb 494e 6fba
000002f0: f501 9aba 170f b3bb c080 c73a cec0 ae3b
00000300: 0f2d e2b9 0577 00bc b67a 0c3c 4c75 3aba
00000310: f648 8a3c 1655 86ba 0c21 bdbb 1a11 a8ba
00000320: 9500 723c 04e5 f6bb a504 3f3b 1f16 70bc
00000330: 04e9 cd3b adac 083c 040e 3cbc ef68 acbb
00000340: 2cf6 83bc fa08 0b3a b992 0e3c f5f1 143b
00000350: 0027 79bb ebde b5bb bfc8 f33b cb5c 10bc
00000360: cf23 ec3b 0e82 18bc 3749 9f3b 09b9 323c
00000370: ed19 5ebc da10 25bc 23fd 81bc 6f77 023c

exp_avg_sq f4 [32, 7]
0.00038650486 0.0007965159 0.00042549398 0.00054188847 0.0004696116 0.0012125642 0.00028895354 0.00045044257
0.00050393236 0.00026393362 0.0005399569 0.0004922036 0.0013895351 0.0002460819 0.0008715605 0.0010354875
0.001045124 0.00077657885 0.0007460769 0.0008022656 0.0005891794 0.00027211706 0.00028858465 0.0001564811
0.00035602276 0.00031873552 0.000686727 0.00012678877 0.0017943374 0.0021144547 0.0021077534 0.001553702
0.0015092462 0.002556425 0.0015233688 0.0013886574 0.0015731888 0.0008697201 0.0014094578 0.0015416231
0.0023897393 0.0012069659 0.00048353933 0.0003087349 0.0004869887 0.00029524355 0.00041220908 0.00040297126
0.00036620843 0.0006380347 0.00097644667 0.0008194463 0.0006464175 0.0006145968 0.0012243013 0.0005878362
0.00025052732 0.00029325386 0.00027839778 0.0002297074 0.00029939547 0.00025298173 0.00030373933 0.00041864076
0.00042396615 0.00041181518 0.00044511273 0.0004892064 0.0006558575 0.00037135734 0.00012698567 0.0002707771
9.709945e-05 0.00021663537 0.00016085686 0.0004935689 9.45134e-05 0.004634984 0.002865076 0.0031274355
0.0037634412 0.004355135 0.006051496 0.0023829644 0.0008389144 0.0012118766 0.0010289245 0.0010069644
0.0007904782 0.0015062569 0.00058656087 0.0012841756 0.0011942832 0.0013772291 0.0011215316 0.00113523
0.0021030137 0.00046474094 0.0003990771 0.0003905634 0.000315081 0.00043498471 0.00039669417 0.00057772256
0.00020379107 0.0028813747 0.001610909 0.0018703836 0.0022193175 0.002736667 0.003284101 0.0014099785
0.0006653576 0.0007364013 0.0005096582 0.0006585159 0.000638701 0.0014649379 0.0004934911 0.00060813903
0.00092423765 0.0004842722 0.0008882469 0.0007978716 0.0021864746 0.00050115 0.0016401627 0.0014698637
0.0014961126 0.001298683 0.001526828 0.0018166713 0.0012630223 0.00048972777 0.00032708305 0.00048487954
0.0004135543 0.00038546877 0.00075919257 0.00025453654 0.00068867096 0.0011367784 0.0010476076 0.0006155667
0.0007548248 0.0010101517 0.0010251784 0.00021035453 0.0002570533 0.00025085133 0.00025827187 0.00023990282
0.0004614658 0.00014516358 7.538406e-05 0.00016030697 9.246009e-05 0.0001357109 9.603782e-05 0.0003846411
4.0554725e-05 0.00071084674 0.0009427451 0.0007917907 0.0008720447 0.00081096205 0.0014801563 0.00060885376
0.0001574294 0.0002224566 0.00015368377 0.00016323727 0.00016989323 0.00029135327 0.00023343203 0.00059205637
0.0005983092 0.00035570384 0.00061747606 0.00066464324 0.0014400773 0.00046238673 0.0011450363 0.0014450434
0.00139667 0.0011800606 0.0010689596 0.0018615839 0.0007395501 0.00042084596 0.0003372722 0.0003553979
0.0003605951 0.00039739124 0.0007306874 0.00022120426 0.00088870485 0.0007820537 0.0008579022 0.00069741975
0.00081211823 0.0009717462 0.0006027079 0.0009931552 0.0012304873 0.0010799759 0.000987142 0.0009756466
0.0014441183 0.0013524588 0.00076681987 0.000529569 0.0006020549 0.00074570614 0.0007018047 0.0013098324
0.000431192 0.00070675515 0.0007692404 0.0006869097 0.00097649306 0.00082670525 0.0016929989 0.0008265615
00000000: cea3 ca39 47cd 503a d614 df39 850d 0e3a
00000010: 3436 f639 e7ee 9e3a b07e 9739 6129 ec39
00000020: 541a 043a 9260 8a39 e58b 0d3a 3907 013a
00000030: 1021 b63a 8e04 8139 6f79 643a 32b9 873a
00000040: 8bfc 883a 5393 4b3a 6094 433a 224f 523a
00000050: 2973 1a3a efaa 8e39 2d4d 9739 1315 2439
00000060: 91a8 ba39 f51b a739 7805 343a 9af2 0439
00000070: f92f eb3a aa92 0a3b 3c22 0a3b 97a5 cb3a
00000080: e6d1 c53a b289 273b c6ab c73a 9c03 b63a
00000090: 7533 ce3a eefd 633a 8ebd b83a 4a10 ca3a
000000a0: 2c9d 1c3b 0e33 9e3a 8d83 fd39 b2dd a139
000000b0: 8452 ff39 ebca 9a39 c41d d839 e345 d339
000000c0: aaff bf39 c941 273a 3af8 7f3a 1cd0 563a
000000d0: 5874 293a e51c 213a bc78 a03a 0519 1a3a
000000e0: 3559 8339 debf 9939 ebf5 9139 9cdd 7039
000000f0: 2ef8 9c39 a2a2 8439 343f 9f39 037d db39
00000100: c647 de39 e6e8 d739 055e e939 163e 003a
00000110: daed 2b3a bdb2 c239 7527 0539 16f7 8d39
00000120: dfa1 cb38 9d28 6339 afab 2839 d962 013a
00000130: 7f35 c638 10e1 973b 00c4 3b3b a9f5 4c3b
00000140: 11a4 763b 85b5 8e3b a14b c63b 822b 1c3b
00000150: 98ea 5b3a d5d7 9e3a fadc 863a 1efc 833a
00000160: 1838 4f3a 986d c53a 6fc3 193a c851 a83a
00000170: 7f89 9c3a 2484 b43a 5b00 933a ffcb 943a
00000180: b7d2 093b 79a8 f339 393b d139 88c4 cc39
00000190: 7531 a539 a90e e439 64fb cf39 4e72 173a
000001a0: c0b0 5539 72d5 3c3b 2325 d33a a927 f53a
000001b0: f871 113b a759 333b 123a 573b 07cf b83a
000001c0: 656b 2e3a 0e0b 413a 959a 053a 41a0 2c3a
000001d0: 806e 273a 2903 c03a a15d 013a 856b 1f3a
000001e0: 8a48 723a eae5 fd39 3ed9 683a 4228 513a
000001f0: f54a 0f3b 9b5f 033a bafa d63a 71a8 c03a
00000200: 3519 c43a 9238 aa3a d91f c83a 601d ee3a
00000210: ff8b a53a 1361 003a 587c ab39 6e37 fe39
00000220: 52d2 d839 be18 ca39 8d04 473a 5173 8539
00000230: ed87 343a f4ff 943a e14f 893a fb5d 213a
00000240: 6fdf 453a 1167 843a 475f 863a 9d92 5c39
00000250: 1cc5 8639 b284 8339 aa68 8739 6c8e 7b39
00000260: e4f0 f139 0d37 1839 8217 9e38 1318 2839
00000270: 22e7 c138 9e4d 0e39 e967 c938 a8a9 c939
00000280: 4e19 2a38 1e58 3a3a 8d22 773a 2d90 4f3a
00000290: ee99 643a be96 543a ce01 c23a 7c9b 1f3a
000002a0: a213 2539 3d43 6939 2c26 2139 ac2a 2b39
000002b0: 5e25 3239 c6c0 9839 6fc5 7439 3b34 1b3a
000002c0: dad7 1c3a c37d ba39 1ede 213a 743b 2e3a
000002d0: fac0 bc3a 7f6c f239 0b15 963a 9c67 bd3a
000002e0: 7810 b73a 43ac 9a3a 551c 8c3a 6400 f43a
000002f0: 5ede 413a fda4 dc39 e9d3 b039 b354 ba39
00000300: 410e bd39 f358 d039 9a8b 3f3a 11f3 6739
00000310: f9f7 683a bc02 4d3a d8e4 603a 0cd3 363a
00000320: 55e4 543a c9bc 7e3a 0bff 1d3a c22c 823a
00000330: 4d48 a13a fa8d 8d3a fd62 813a 89c2 7f3a
00000340: 9248 bd3a fd44 b13a 6904 493a c6d2 0a3a
00000350: 38d3 1d3a 7e7b 433a 51f9 373a afae ab3a
00000360: 9c11 e239 8945 393a d9a6 493a bb11 343a
00000370: 57fb 7f3a 40b7 583a 9ee7 dd3a 9aad 583a
