ckpt/rnn_RK4_h16_dis10/best.pth (torch_old, 20811 bytes, 30 tensors)

rnn.weight_ih_l0 f4 [16, 7]
000000 b1 93 bb bd 3f 52 70 3c 6e 08 b1 3d f9 31 0e be
       -0.09159029 0.0146680465 0.08644186 -0.1388625
000010 45 7a 10 be 8b f2 88 3e 27 2c bb bd 8a 2d c3 bd
       -0.14109142 0.26747546 -0.09139281 -0.0953017
000020 ab 92 1b bc a0 9e 28 be 8f 37 19 bd bb ba 00 be
       -0.009495418 -0.1646676 -0.0374065 -0.12571232
000030 1d 27 05 3e 08 a6 08 3e 12 c7 28 be c0 dc 4d 3e
       0.13003202 0.13344586 -0.1648219 0.2010374
000040 90 9d e1 bd 44 3a a8 3d 93 67 78 3d a3 19 bf 3e
       -0.11016381 0.08214238 0.06064565 0.37324247
000050 9f 53 c8 bd 9e 71 03 3e 94 9a d3 bc 24 77 9c 3d
       -0.097815745 0.1283631 -0.025830545 0.07639912
000060 7a ad 35 3e ec 5d dd bd 59 33 b2 3e 68 b9 e8 bd
       0.17741957 -0.1080893 0.348048 -0.113634884
000070 ea 6c c8 bd 46 da a6 bd da d5 3b be a8 7e eb 3d
       -0.09786399 -0.08147101 -0.18343297 0.11498767
000080 bc 1d 85 bc ca ec 2e be e2 0f 56 bb e9 4f 0a 3e
       -0.01624953 -0.17082515 -0.0032663275 0.13507046
000090 75 c8 5a be 49 96 a0 bd 85 9e 3e 3e 41 eb a6 ba
       -0.21365531 -0.078411646 0.18615158 -0.0012734906
0000a0 69 49 82 3e 81 b9 5f bd e9 76 d6 3d 53 84 81 3d
       0.25446633 -0.05462027 0.10471899 0.06324067
0000b0 76 ac 3a 3e 82 05 81 3d 87 8a 9c bc a4 fd ab bc
       0.18229851 0.06299879 -0.019109024 -0.020994969
0000c0 89 73 80 3e ac 95 02 3e 23 11 44 3d cd c1 c1 3d
       0.25088146 0.12752408 0.047867905 0.09460793
0000d0 3c 8b 3c bd fd 7b c2 3d 42 1e 30 3e f4 bb 7b 3e
       -0.04603122 0.09496305 0.17199042 0.24583417
0000e0 7f ad da 3d b3 fe c5 bb b1 10 fa 3d b3 5e f0 3c
       0.10677623 -0.0060423254 0.12210215 0.029342031
0000f0 dc 28 9c 3d fc ae 20 3d 23 70 b1 bd 66 75 f2 3c
       0.07624981 0.039229378 -0.086639665 0.029596996
000100 d8 69 40 3e 69 2a d2 bd b6 a6 4b 3e 23 47 20 3e
       0.18790376 -0.10261995 0.19887814 0.15652137
000110 05 62 fa bc 0d a6 16 3e df 19 53 3d b0 b5 b8 be
       -0.030564317 0.14711781 0.051538344 -0.36076117
000120 a5 4c 61 be b1 5a 1c 3e cc 19 7d 3e 97 28 70 3e
       -0.22001894 0.15268971 0.24716872 0.23452984
000130 6f 7e 34 3e c5 57 e1 bc 20 8a 31 bd 83 e4 01 be
       0.17626356 -0.027507672 -0.043344617 -0.12684827
000140 7f 81 ea 3d c2 14 ed bd 20 6c 62 be 69 46 b3 3e
       0.11450481 -0.11576225 -0.22111559 0.35014656
000150 19 6d 00 be e2 66 2c be 7d 7b 13 bd 85 72 15 bc
       -0.12541617 -0.16836122 -0.03600644 -0.009121542
000160 40 d6 4d be 09 6e 8c bd d8 f8 d1 3e 79 77 88 bc
       -0.20101261 -0.06856925 0.41010165 -0.016658532
000170 a7 5e 55 3e c5 57 06 be 43 d2 63 be 6e 07 d8 3c
       0.20836888 -0.13119419 -0.22248177 0.02637073
000180 0f a5 54 3c 01 7f 89 be 91 1a 77 bd 94 49 8e bd
       0.012978806 -0.2685471 -0.06032807 -0.06947628
000190 f8 9b b1 bd 8a 61 20 3e d9 b0 08 3e bd 4f 8e bb
       -0.08672327 0.15662208 0.13348712 -0.0043430016
0001a0 d6 34 d2 3d 16 c1 20 3e b2 c7 4f be b4 70 be 3d
       0.10263984 0.15698656 -0.20291021 0.0929884
0001b0 2b 4c 7e 3e 54 78 bf bd 4d 6b 08 be 5a 1a 30 be
       0.24833743 -0.09349123 -0.13322182 -0.17197552

rnn.weight_hh_l0 f4 [16, 16]
000000 78 b0 36 3d e7 35 42 be aa 92 99 3e 85 ba d1 3d
       0.044601887 -0.18965875 0.29994708 0.10240654
000010 bf 26 8c 3e 95 da cd bd 2b 96 1a 3e 97 5f 89 3e
       0.2737331 -0.10051457 0.15096347 0.26830742
000020 2f cc 10 3e 6a 6b 97 bd 53 1d f7 3d 03 69 70 3e
       0.1414039 -0.073935345 0.1206614 0.23477559
000030 5f df 2c be b2 2f 01 bd fe f8 ef 3d 8a b4 18 be
       -0.16882084 -0.031539626 0.11717413 -0.1491262
000040 27 26 72 be 5e 9a c5 3e 69 31 67 3e 3b 89 0e 3c
       -0.23647366 0.38594335 0.22577442 0.0086997105
000050 a7 b6 92 be 06 0b 7b 3e 56 71 87 bd 2b a3 90 3e
       -0.28654978 0.24515924 -0.06613414 0.28249487
000060 3c ae 07 be 69 f7 97 be a2 e5 df 3d dc 47 83 be
       -0.13250059 -0.29680946 0.10932471 -0.25640762
000070 4c d5 99 3d eb e0 4c 3e 80 0f 32 be 2c 91 c5 bc
       0.07511386 0.20007674 -0.17388725 -0.024117075
000080 71 0a 86 3e d0 10 01 be ef a8 98 3e 9c ff 46 be
       0.2617984 -0.1260407 0.29816386 -0.19433445
000090 c8 65 80 3e 77 f0 25 3e bd 48 98 3d 3b 23 ca bd
       0.25077653 0.16205011 0.07435749 -0.09870001
0000a0 77 9e 45 3e a3 41 f8 bc 4b a9 40 3c 68 83 32 bd
       0.19298731 -0.030304736 0.011759113 -0.04358235
0000b0 71 86 a9 3d 11 df 1d 3e aa ea 4a bd 12 0c 32 be
       0.08277596 0.15417124 -0.0495402 -0.17387417
0000c0 48 b8 f4 bd 47 2e a4 bd 61 0c b5 bd 57 4e 33 3e
       -0.11949211 -0.08016639 -0.08840252 0.17510353
0000d0 8d f8 24 3e 40 a2 ff bc 35 43 3d 3d 32 f6 52 3e
       0.1611044 -0.031205297 0.04620667 0.20601729
0000e0 16 a9 31 3e 54 0d 5e 3d 05 41 dc bc 27 8b 63 3c
       0.17349657 0.05421193 -0.026886472 0.013888157
0000f0 5b 91 56 3e 67 c9 5b be 5a af 88 3d 1d 16 60 3b
       0.20953886 -0.21463548 0.06674071 0.0034192868
000100 7b 51 0a 3e c8 99 17 be ff 27 1d 3e be a9 e8 ba
       0.13507645 -0.14804757 0.15347289 -0.0017750782
000110 75 f0 54 3e d6 f3 4e 3d 2b 4c 33 3e 82 c8 84 bd
       0.20794852 0.05052551 0.17509525 -0.06483556
000120 5a 55 3d 3e fd 8e 86 3d 6e fb af 3d 8a 2f 63 3e
       0.1848959 0.065702416 0.08592878 0.22186103
000130 27 ab 2a 3e e5 95 89 3e 53 69 2e be be dd a2 3d
       0.16666852 0.26872173 -0.17032366 0.0795245
000140 f9 d8 04 be 8c c5 89 3e c3 93 39 3d 01 b8 35 be
       -0.12973393 0.2690853 0.045306932 -0.17745973
000150 8c 6e 98 be a6 31 56 3d b1 a0 ae 3d 55 65 9d bd
       -0.2977184 0.052293442 0.08526743 -0.07685343
000160 b9 41 0f 3d ce 44 c6 bd 19 be 86 3d d4 1c 6a 3d
       0.034974787 -0.09681092 0.06579227 0.0571564
000170 09 15 36 3e 86 79 36 3e a6 09 5a 3e 64 f5 4b be
       0.17781462 0.17819795 0.21292743 -0.19917828
000180 07 c8 60 3e a7 83 ee 3d 60 f0 f9 3d 92 79 3c be
       0.21951304 0.116462044 0.12204051 -0.1840575
000190 74 6b 70 3e 54 15 18 be 9c 0a a0 bd 53 f4 ad 3d
       0.2347849 -0.14851886 -0.078145236 0.08493867
0001a0 0c 97 c0 bd c1 77 2a be e7 17 91 bd 4e a9 04 3e
       -0.0940381 -0.16647245 -0.07084637 0.1295521
0001b0 68 22 0a 3e 3e fc 95 3c ff c3 8b bd 04 76 a2 be
       0.13489687 0.018308755 -0.06824493 -0.31730664
0001c0 e4 e8 2d be f9 40 70 3e 31 f7 76 be 6f c1 c5 3d
       -0.16983372 0.23462285 -0.24117734 0.09656035
0001d0 3b 0e e6 bd 26 1c 25 3e ed 45 31 be 1c 7f c1 3d
       -0.11233183 0.16124019 -0.17311831 0.09448072
0001e0 f5 73 3e be ca 24 38 3d 35 7f fe 3d 2b 2f 2f bc
       -0.18598922 0.04495696 0.124266066 -0.010692398
0001f0 02 b2 13 3e ae 34 3a be 35 c6 9c bc 9d db f5 bc
       0.14423373 -0.18184158 -0.019137481 -0.030011946
000200 25 2c 9b bd d7 b5 5e 3b b0 28 9a 3d b5 79 03 bc
       -0.07576779 0.0033982897 0.07527292 -0.008024623
000210 70 3a d5 bc 5b 6e d1 bd eb 97 63 3e ed 4d 26 3e
       -0.026028842 -0.10226127 0.22225921 0.16240664
000220 a8 5c 98 be 7b 5c d7 3d 02 a8 19 3e e3 77 ed 3d
       -0.2975819 0.10515686 0.15005496 0.11595132
000230 5a 22 78 3e b2 39 07 3e a4 1f b9 3b ee 38 8e be
       0.24231854 0.13205603 0.005649524 -0.2777781
000240 d8 a9 87 bd af 5a 02 be 6f e4 48 be f8 08 28 bd
       -0.06624192 -0.12729906 -0.1961839 -0.04102418
000250 fa 5d 82 bd ec 5c 97 3d 29 46 13 bd 84 69 b4 bd
       -0.06365581 0.0739077 -0.03595558 -0.08809188
000260 30 2d 80 be ed d4 95 3e 27 e1 d6 bd 46 29 fb 3d
       -0.25034475 0.29264012 -0.10492163 0.12263732
000270 e7 6d b0 3e 14 09 89 3e 0f 41 01 bd f7 d4 52 bb
       0.3445885 0.2676474 -0.031556185 -0.0032170394
000280 86 89 ab 3d 4a 08 c6 3c 48 f7 c4 3d 43 2b cb 3d
       0.0837584 0.024173874 0.09617478 0.09920361
000290 0f 06 6e 3e 2b b4 3e bc 0d c0 81 bd 48 93 25 be
       0.23244499 -0.011639635 -0.06335459 -0.16169465
0002a0 11 39 2b be 94 ff 4b 3e 42 1c 16 3e f7 8e e0 3d
       -0.16720988 0.19921714 0.14659217 0.109647684
0002b0 e7 84 35 3c 4a 01 87 be 3e 26 a1 3e 44 70 26 3e
       0.01107905 -0.2636817 0.3147449 0.16253763
0002c0 07 66 d7 bd 2e 8c 5e bd c3 00 32 3b 6e 89 7c 3e
       -0.10517507 -0.054332905 0.0027161099 0.246618
0002d0 ae 51 42 3e fe 7d 7a be 70 d6 73 3e f5 24 a0 bd
       0.18976471 -0.24462125 0.2381227 -0.07819549
0002e0 2b 65 15 be 8c cb 4f 3e 7f 27 cc bd 9b 78 d2 bd
       -0.14589374 0.2029249 -0.09968471 -0.1027691
0002f0 41 52 14 3e 6a bc 03 3e 88 55 4b 3e 82 0d 26 be
       0.14484502 0.12864843 0.19856846 -0.1621609
000300 bd 21 89 be c5 3d 1b 3d e8 99 a3 be 15 d6 b4 bd
       -0.26783553 0.037900705 -0.3195336 -0.088298954
000310 8b 73 10 be ef 1f 07 38 2c 96 01 be 89 3d b6 3e
       -0.14106576 3.221625e-05 -0.12654942 0.35593823
000320 be 97 22 3d 5d 28 4c bd a4 53 3c bd 4e 19 26 3e
       0.039695494 -0.04984318 -0.045978203 0.1622059
000330 19 ab c7 bd e1 96 04 3e a2 25 47 3e ce a5 2a be
       -0.09749431 0.1294818 0.1944795 -0.16664812
000340 3a 0f 65 3e af 40 0c be e2 b1 01 be 4f d5 e0 3d
       0.2236909 -0.1369655 -0.12665513 0.109781854
000350 a7 8e a7 be 99 60 4b be 34 e1 47 3e c1 89 83 3e
       -0.32726023 -0.19861068 0.19519502 0.25691035
000360 ec 2a 9e 3d 70 75 a4 3d 4b 83 5c be 08 b5 b3 be
       0.077230304 0.08030212 -0.2153446 -0.35099053
000370 21 f7 20 be ce 43 93 3d 11 00 df bd e8 ad 0b be
       -0.15719272 0.07190667 -0.108886845 -0.13640559
000380 4c 54 54 be 28 69 12 3c f9 a0 12 be 04 9c 26 be
       -0.20735282 0.008936204 -0.14319219 -0.16270453
000390 1d 48 89 3d bf b3 63 bc 92 9a 80 be 6c c5 e5 3d
       0.06703208 -0.013897835 -0.25117928 0.11219296
0003a0 e2 b9 28 3b 57 ee 09 be 6e 50 57 3e cf 1b d6 3d
       0.002574556 -0.13469826 0.21026775 0.10454523
0003b0 c3 3b 76 be 41 13 0b 3e 27 93 2f be 78 25 35 3e
       -0.24046235 0.13581564 -0.17145978 0.17690074
0003c0 68 fc a9 bd ca 31 74 bd 12 58 9b bd 1f d5 c2 bd
       -0.08300096 -0.059617795 -0.075851575 -0.09513306
0003d0 8a 92 99 3d bf 00 73 be 80 13 0e be 5d ab 4e 3c
       0.07498653 -0.23730753 -0.13874626 0.012614098
0003e0 83 2b 5e 3e d9 97 89 bd 8f 8d d3 3d 6f 5d 88 3e
       0.21696286 -0.06718416 0.103297345 0.26633784
0003f0 87 5c 07 be a4 64 1e 3e f0 b6 a8 bd 8e 4f 4d 3e
       -0.1321889 0.15468079 -0.082380176 0.20049879

rnn.bias_ih_l0 f4 [16]
000000 e5 92 8c be 07 8d 8c bb 2d 65 74 bd a6 b1 f6 bd
       -0.27455822 -0.0042892727 -0.0596668 -0.120456025
000010 b4 29 8f 3d 8d 6a 55 be 37 43 82 3d f7 69 f1 bd
       0.06990376 -0.20841427 0.063604765 -0.11787789
000020 1c 80 e6 3d 2f 93 8b 3d 0a 2b 26 3e 08 7d fc bd
       0.11254904 0.068151824 0.16227356 -0.12328535
000030 64 6a 6e bd 5a 25 6a 3e 11 4f 4a be 8e a7 36 be
       -0.05820693 0.22865811 -0.19756724 -0.17837355

rnn.bias_hh_l0 f4 [16]
000000 b1 f1 bd 3d 32 5c 90 3e 5f cf 3e be 24 19 5a 3e
       0.092746146 0.2819534 -0.18633793 0.21298653
000010 58 b1 50 be 64 6a 8c 3d 19 7e 3a be 63 67 eb 3d
       -0.20380151 0.0685623 -0.18212165 0.11494329
000020 04 4d 82 be 5c 40 cb 3d 4e 51 d2 3c 23 d0 05 be
       -0.25449383 0.09924385 0.025673535 -0.13067679
000030 b8 4d de bd a3 e4 bc bd 65 6b a5 3c a0 d7 1b 3d
       -0.108546674 -0.092232965 0.020192811 0.038047433

fc.0.weight f4 [16, 16]
000000 b5 1a 11 bd 08 f8 b0 be 24 15 78 be 41 f2 54 bd
       -0.03542586 -0.34564233 -0.24226815 -0.051988844
000010 51 97 8c 3e 8e 17 c1 be 7d 36 96 bd c8 c2 39 3e
       0.27459195 -0.37713283 -0.073346116 0.1814071
000020 5f 5b 0c bf 35 42 05 3c f8 d2 c7 3d fd 23 a3 be
       -0.5482692 0.008133461 0.09757036 -0.31863394
000030 1b 57 17 bd 9d 2c c4 be 29 99 62 3d 46 af 04 3e
       -0.036948305 -0.38315287 0.055321846 0.12957487
000040 64 f6 99 bd 7d 52 9c be 73 63 43 3e 2a 45 24 3e
       -0.075176984 -0.30531684 0.19080906 0.16042009
000050 78 0e 1c bd 5d f0 37 bb 6d 37 79 bd 16 4a 83 3a
       -0.038099736 -0.0028066852 -0.060843874 0.0010016586
000060 0e 82 59 bd 36 72 fa 3e 81 f2 a7 3e f6 85 9d 3e
       -0.053102545 0.4891526 0.32802203 0.30766267
000070 d9 9f 88 3e 8c 76 9b 3c 9c 08 8f 3e 2c c2 ae 3d
       0.26684454 0.018977426 0.27936256 0.08533129
000080 94 f9 e4 be aa 1b b3 be 6c 41 7b be b7 3c ff be
       -0.44721663 -0.34982044 -0.24536675 -0.4985101
000090 98 82 1a 3e da ed b0 3e cd 5e cc bc 06 88 b2 be
       0.1508888 0.34556466 -0.024947548 -0.34869403
0000a0 1c cc 04 3c 41 54 c3 be c4 ce 2c 3e 1c 90 84 bb
       0.008105304 -0.38150218 0.1687575 -0.0040454995
0000b0 2a 9b 8d be 5d 7b bb 3c 9f a7 4c 3e a0 9b 6d be
       -0.27657443 0.022885973 0.19985817 -0.23203897
0000c0 b0 0b de 3e 47 f0 66 be 55 74 03 bd fe 44 dc bd
       0.43368292 -0.22552596 -0.032093365 -0.10755347
0000d0 84 55 95 bc 5d ae 2c 3e 61 b2 83 3e 9d 85 e6 bd
       -0.018229254 0.1686339 0.2572203 -0.112559535
0000e0 96 72 9e 3e 65 fb 4b be 16 71 32 be 71 aa 09 bf
       0.30946797 -0.19920118 -0.17425951 -0.537757
0000f0 37 6a 14 3f e4 09 27 be 62 ad d1 3e cd cc e1 be
       0.5797457 -0.16312367 0.40952593 -0.44101563
000100 de 09 b3 3d e8 00 7e 3e 1e 6c 87 3e 68 df 16 3d
       0.087421164 0.24805033 0.26449674 0.03683415
000110 f4 e4 7c be 40 86 81 be 56 eb 1b bd 56 01 76 be
       -0.24696714 -0.25297737 -0.03806623 -0.24023947
000120 2d e6 1f 3d e6 20 09 bf 22 73 d1 3e 5d 19 b7 be
       0.039037872 -0.53565824 0.40908152 -0.35761538
000130 6b 9d 8f bd f4 6d 18 be 31 53 d6 3e f3 96 f3 bd
       -0.07012447 -0.14885694 0.41860345 -0.11894026
000140 fa 56 f0 be 8b a1 24 3e 91 2f 65 3e 05 4b 5e 3e
       -0.46941358 0.16077249 0.22381426 0.21708305
000150 2e 3d 54 3e c1 a9 62 3e 34 42 4f bd 58 74 7f 3e
       0.20726463 0.22135068 -0.050600246 0.24946725
000160 19 52 38 bd 0f e9 33 be 81 68 8f 3d 2e 90 88 be
       -0.04500017 -0.17569374 0.070023544 -0.266725
000170 59 d7 42 3e 0a 82 a1 3e a2 cf 54 3e 94 91 db 3e
       0.19027461 0.31544524 0.2078233 0.42884505
000180 aa bf 0e bd e5 ed f3 be 72 5f 98 3e 5f ef 43 3d
       -0.034850754 -0.47642437 0.2976032 0.047835704
000190 bc 75 1d bc 88 04 04 bf 35 ea 68 3d 97 00 b2 3d
       -0.00961059 -0.51569414 0.056863982 0.08691519
0001a0 dd cf b9 bb 96 a9 50 bd 4d 19 a8 bc c8 e3 a2 3d
       -0.005670531 -0.05094298 -0.020519877 0.07953602
0001b0 20 33 31 3e 87 1c ca 3e 6d fa 82 bd 5c 25 ec be
       0.17304659 0.3947489 -0.06395421 -0.46122253
0001c0 19 18 40 bd 6d 4d fb bd 4c e5 9e 3e 9e 24 94 3e
       -0.04689798 -0.12270627 0.31034315 0.28934187
0001d0 f3 27 d1 3c de 2c 04 3e eb 64 ab 3e 4d 15 ab 3d
       0.025531745 0.1290774 0.33475432 0.08353672
0001e0 92 56 9c 3e 34 9e a5 3e 81 9c 76 3e 87 3f f7 be
       0.30534798 0.32347262 0.24083139 -0.48290655
0001f0 dc e4 4a be 0c 81 3b be 2f e7 4d be 26 fc 4e be
       -0.19813865 -0.18310946 -0.20107721 -0.20213374
000200 42 7f d6 bc 49 98 92 3e 16 71 bd 3c ef 9c af be
       -0.026183728 0.2863181 0.023125213 -0.34299418
000210 df fa f7 3e 0e 4c b5 be fe ab e5 be ea db 33 be
       0.48433587 -0.35409588 -0.44857782 -0.1756436
000220 7c 30 82 3e eb c4 59 3e f6 ad 17 be 56 53 ac bc
       0.25427616 0.21266524 -0.14812455 -0.021035831
000230 0a fd b0 be 3f 20 90 bd 2b 2f 28 3e fa e5 6a 3e
       -0.34568053 -0.070374005 0.16424243 0.22939292
000240 a5 f7 a0 3e 61 6b b0 be 16 25 94 3e b4 58 3c be
       0.31438938 -0.34456924 0.28934544 -0.18393213
000250 ae e9 a1 3d 57 f7 d5 3d 70 1c db be 03 b7 c0 be
       0.07905899 0.10447567 -0.42795134 -0.37639627
000260 3b 37 00 be 83 1c 62 be 18 95 a1 3e 5c 2e 61 be
       -0.12521069 -0.22081189 0.31559062 -0.21990341
000270 d7 65 c6 bd 37 e4 47 3e ee 10 e8 be 89 b0 07 3f
       -0.09687393 0.19520651 -0.45325416 0.53003746
000280 aa 30 c7 bc b2 52 f6 3e 82 50 0f 3e 69 dd 08 3e
       -0.024315197 0.48109967 0.13995555 0.13365711
000290 3f dd 84 3e 1e 96 9b 3d 11 fa d3 3d 5f c5 e4 be
       0.25950047 0.07596992 0.10350431 -0.44681832
0002a0 56 71 f0 be 5a 86 32 3e 66 59 92 be d5 be 8a be
       -0.46961468 0.17434064 -0.2858383 -0.27098718
0002b0 49 88 40 bd 45 c1 a2 3e cf 47 96 bd c6 ab 63 be
       -0.04700497 0.31788078 -0.07337915 -0.22233495
0002c0 10 dd 89 bc bc 60 96 3e cc e7 1e be 9d 36 a3 be
       -0.016829044 0.29370677 -0.15518111 -0.31877604
0002d0 ac 78 24 3e 61 0a 7a be ab 0a 78 3e a5 3e 59 bd
       0.16061658 -0.24418022 0.2422282 -0.053038258
0002e0 aa a3 b0 3d 7c c8 90 3e d0 7b 9d 3e 70 c7 b6 3e
       0.086249664 0.28277957 0.30758524 0.35699034
0002f0 7f 93 df 3e 89 7e 15 3e b8 75 a7 be 3f 34 b7 be
       0.43667218 0.1459905 -0.32707 -0.35782048
000300 bb 65 1e 3a 86 4f 5f 3e 13 bf b9 be 8e a1 92 3e
       0.00060423807 0.2180768 -0.3627859 0.2863888
000310 40 d4 1e be a4 2c ee 3d f8 95 2a bf e0 08 0a 3d
       -0.15510654 0.11629608 -0.66635084 0.03369987
000320 63 5e 52 3e 3f 59 2b 3e 4c 56 e0 bc 1e 63 e3 be
       0.20543818 0.16733263 -0.0273849 -0.44411558
000330 3e 91 21 3d df f9 8a 3e d3 2b ff bd 10 9b 73 be
       0.039445154 0.27143762 -0.12459531 -0.2378962
000340 81 f8 a7 be 8b 0a da 3d 79 f8 df be 63 c8 c1 3e
       -0.3280678 0.10646542 -0.43744257 0.37848195
000350 9f 9f 07 3d 58 ca 71 be 1d d7 54 3d 47 51 06 bf
       0.03311121 -0.23612344 0.05196296 -0.5246777
000360 6c 66 22 3c 89 34 ba 3e 6e d7 e5 bd df 1e 2c bd
       0.009912115 0.36368206 -0.112227306 -0.04202163
000370 e6 43 f5 3d f8 2a 4a 3e 6e 16 b4 be 58 45 f2 3e
       0.11975841 0.19742954 -0.35173362 0.4731853
000380 85 e5 56 3e 24 81 a9 be d5 8a 21 3f f9 64 50 3f
       0.20985992 -0.3310634 0.63102466 0.8140407
000390 b2 4b c2 3e cd f1 ab 3e 1f 44 40 3c 45 49 22 3e
       0.37948376 0.33582917 0.011734991 0.15848263
0003a0 a3 7f e1 3d 4d 8b 02 bf 29 02 d1 3d fb ef 20 3d
       0.11010673 -0.50993806 0.1020549 0.039291363
0003b0 54 81 45 bd 8c 60 83 be cb 84 33 be 3d 47 ec be
       -0.04821904 -0.25659597 -0.17531125 -0.461481
0003c0 83 a9 f6 3e c9 3d 2e 3d f0 bb c3 be 34 83 4f 3e
       0.48176202 0.04253939 -0.38229322 0.20264894
0003d0 36 d1 74 bd d9 2a ff bd 9b 0c 11 3e 67 51 96 bc
       -0.05976983 -0.124593444 0.14164965 -0.018349363
0003e0 0b 9e 1f be e8 39 17 3e bd 77 30 3e b2 ac b9 3d
       -0.15587632 0.14768183 0.17233177 0.09066142
0003f0 ec ef 26 bf 58 4c ee 3e f9 71 8e 3d 9c 03 5b 3e
       -0.6520984 0.4654262 0.06955332 0.21388096

fc.2.weight f4 [2, 16]
000000 a0 02 b6 be 1e ad 4f bd d6 11 41 bf a2 fc 8c 3e
       -0.35548878 -0.050702207 -0.7541784 0.27536494
000010 a8 bc 10 3f ce e3 20 38 6a 29 37 3d 74 82 ac 3e
       0.56537867 3.8359132e-05 0.04471723 0.33693278
000020 58 c8 a4 be ae 33 b4 3c 69 a2 a6 3e 5b 96 54 be
       -0.321841 0.021997299 0.32545784 -0.20760481
000030 26 93 48 3e 9f f8 46 be 41 69 0e 3e 68 9d b8 3e
       0.19587383 -0.19430779 0.13907339 0.3605759
000040 01 03 12 bd b5 b1 5e 3e 21 45 81 be 73 1c 3b 3e
       -0.035647396 0.21747477 -0.25248054 0.18272571
000050 93 11 15 bf b6 e3 87 be 52 6e 8d 3e 07 5f 96 3e
       -0.5822994 -0.26540917 0.2762323 0.29369375
000060 24 a5 b4 be 41 52 f2 be c2 ed d5 be 19 e7 dd 3e
       -0.35282242 -0.4732838 -0.41782957 0.43340376
000070 d4 ca e9 be b4 12 dd be d5 50 18 3e d4 de 42 be
       -0.45662558 -0.43178332 0.14874585 -0.19030315

grad_module.0.weight f4 [16, 21]
000000 c0 4d 02 3e 0d f0 32 3c 4d 12 ff 3d c6 47 0d be
       0.12724972 0.01092149 0.124546625 -0.1379691
000010 01 f7 14 bd de 70 50 bc 38 3f 1a 3e 09 77 04 bb
       -0.036368374 -0.012722222 0.15063179 -0.0020212552
000020 da 31 40 bc f0 1b 7a be b5 74 4a be a8 29 33 be
       -0.011730636 -0.2442472 -0.19771083 -0.1749636
000030 48 a4 43 be a0 90 ae bc 44 95 e8 bb d2 45 a0 bd
       -0.19105637 -0.021309197 -0.007097872 -0.07825817
000040 26 c9 07 be 79 25 0d 3d 88 e0 81 be 06 0c 82 3e
       -0.13260326 0.034459565 -0.25366616 0.25399798
000050 74 e0 8a bd 55 89 3c 3d 76 58 27 3e 35 d9 ee bc
       -0.06781092 0.046029408 0.16342339 -0.029156307
000060 3b ff 8c bd 9b 9f 63 bd f8 ae e0 3d 22 fd 40 3e
       -0.06884619 -0.055572134 0.10970873 0.18846563
000070 54 fd 2d 3e 82 5d 5b bd 40 3c 4e be cd de e0 3c
       0.16991168 -0.053555973 -0.20140171 0.02744999
000080 8c 97 93 3e 37 4d 0e 3e 9b 81 39 be ae 59 c7 bd
       0.2882656 0.13896643 -0.18115847 -0.09733902
000090 1a ab d6 bd 25 5a df 3d 5d 3d af bd c4 ff e2 bc
       -0.10481854 0.109058656 -0.08556626 -0.02770985
0000a0 93 8d cc 3c b3 e1 e1 bd fc d7 39 3c b5 d7 28 3e
       0.024969852 -0.11029377 0.011342999 0.16488536
0000b0 74 57 65 3d e4 93 e0 bb 3f 88 9c bd cd b5 c6 bd
       0.055991605 -0.0068535674 -0.076431744 -0.097026445
0000c0 b8 2e 88 3c dd bb b3 3d fd f7 0c be e0 0e f2 bb
       0.01662384 0.087760665 -0.13766475 -0.007387027
0000d0 a2 41 76 be 89 84 e7 3d 4c 2d 5b be 79 ed 3e be
       -0.24048474 0.11304576 -0.21403998 -0.18645276
0000e0 a9 14 00 be 92 2f 20 3e a8 d0 dc bd 35 24 f3 bd
       -0.12507881 0.15643147 -0.107819855 -0.1187214
0000f0 35 8e ae bc 01 17 fa bd 6d cd 37 3e 6b 50 4f bd
       -0.021308044 -0.12211419 0.17949457 -0.050613802
000100 69 2a c3 3d 16 19 b4 bd 67 62 96 3d 05 17 0c be
       0.095295735 -0.08793847 0.073429875 -0.13680656
000110 9d 5a 42 3d b2 e9 20 be ab fb c1 3c 64 19 01 3e
       0.047449697 -0.15714148 0.023679575 0.12607342
000120 4b a3 8e bd d3 0a 8f 3c 8d f1 84 be 87 51 03 3d
       -0.069647394 0.017461216 -0.2596554 0.032060172
000130 03 5c 22 3e 18 21 00 3b 58 4d e8 3d 63 07 14 be
       0.15855412 0.0019550975 0.11342877 -0.14455943
000140 47 9c 42 be 3f 8e 5f be 5f cd fd 3b dc e8 aa bd
       -0.19004928 -0.21831606 0.0077454294 -0.08345196
000150 d8 da 14 3e 00 5f f8 bd 88 55 23 bc 1a bb 1d bd
       0.14536607 -0.12127495 -0.009969123 -0.038508512
000160 d5 61 5c 3d 5a 09 40 3e ce 98 68 be d1 9c 09 3e
       0.053804237 0.18753567 -0.2271454 0.13438727
000170 26 ee 88 bd 5e b8 f6 3c 1a 14 03 be 1f 6c 84 3d
       -0.06686048 0.03011721 -0.12800637 0.06465935
000180 bc 0e cf bd 2d e5 f5 bd ba 9d f4 bd 9c 3c 4a 3e
       -0.10110232 -0.120066024 -0.119441465 0.19749683
000190 90 fa 61 3d da 65 d8 bd 52 12 ef bc 92 83 5a be
       0.055170596 -0.10566302 -0.02918354 -0.21339253
0001a0 5e 61 a3 bd d2 60 c9 3d 01 90 3d bd 55 c9 b5 3d
       -0.07977556 0.0983292 -0.04627991 0.08876292
0001b0 90 71 d1 bd 4e 1b 02 3e 4e 9e 1e be 2f 5e 23 be
       -0.102267385 0.12705728 -0.15490076 -0.15953897
0001c0 cd 39 8b 3b da 0e 22 bd 71 25 1b 3e 1c 04 2f 3e
       0.0042488337 -0.039564945 0.15151002 0.17091411
0001d0 31 98 53 3d fb 54 c4 3d 7f a6 05 3e 38 94 5f 3a
       0.051658813 0.09586521 0.13051794 0.0008528861
0001e0 4b 37 1f 3e b1 51 1e be 47 73 73 3d 2b 02 a1 bd
       0.15548436 -0.1546085 0.05943611 -0.07861742
0001f0 c0 5d 88 3e 80 fb 72 be da 11 b8 3c 79 80 42 be
       0.26634026 -0.23728752 0.02246945 -0.18994321
000200 0e 0d 82 be 42 86 82 3d d9 d8 3e bd e3 7f 74 3e
       -0.25400585 0.06373264 -0.04659352 0.2387691
000210 c7 0c f6 3d 4f e2 01 be b9 98 e0 bd 55 56 cd 3d
       0.12014156 -0.12683986 -0.109666295 0.10026232
000220 33 9d bd bd 69 3e 41 be 14 ed b7 3d 1d e9 6a 3d
       -0.09258499 -0.18871464 0.08980766 0.05735122
000230 2e 7d df 3d d1 0e f4 3c 51 99 b5 3c 2a a8 03 be
       0.10912548 0.029792221 0.022167834 -0.12857118
000240 f1 3e 8c 3c 4b a0 d2 3d 0c 94 3c be fd 96 d6 3d
       0.017119857 0.1028448 -0.1841585 0.104780175
000250 b5 fc 9c 3d 1a b9 ec bd 8a 21 a8 3e 70 2f 8c bd
       0.076653875 -0.11558743 0.32838088 -0.068449855
000260 fb e8 76 3d 84 0d e3 bd b3 59 6d bd a5 ad e5 3c
       0.06028078 -0.11086562 -0.057946872 0.028036902
000270 3c bf aa 3d 38 04 8c 3e 1f 87 b7 bd ff 39 1c 3e
       0.08337256 0.2734697 -0.08961319 0.15256499
000280 aa 22 f1 bd bb 15 39 3d 04 5e b9 bd 41 cf 7a ba
       -0.1177419 0.04518674 -0.09051135 -0.00095676264
000290 36 85 aa 3d da ba 4a bd d1 9c e1 bd f1 2f 38 3e
       0.08326189 -0.0494946 -0.110162385 0.17987038
0002a0 54 d7 fe bc 17 c3 b9 bd f5 ef 60 be 85 a5 91 3c
       -0.031108536 -0.090704136 -0.21966536 0.017779121
0002b0 a1 3b 29 be 41 4c 0e be 88 fc d8 bd 77 d8 a7 bd
       -0.16526653 -0.13896276 -0.105950415 -0.08195584
0002c0 ca 72 93 3d 22 74 82 bd c6 0a 73 bd 29 d0 5a 3e
       0.07199629 -0.06369807 -0.059336446 0.2136847
0002d0 68 a3 91 3c 91 3b 85 be 46 f9 eb bd c6 3b 68 3d
       0.017778113 -0.26022008 -0.115221545 0.05669763
0002e0 78 83 bf 3d 2d 7b 80 3e 27 f5 08 be 89 d6 25 be
       0.093512475 0.25093976 -0.13374768 -0.1619512
0002f0 22 ea b3 3d ae b8 84 be 88 e2 3d bd 2b 6c 21 bb
       0.08784892 -0.2592215 -0.046358615 -0.0024631124
000300 0a 43 7e bd d9 a9 b4 bd 26 eb aa bc ab 28 70 3d
       -0.062075652 -0.08821458 -0.02086408 0.058632534
000310 67 83 32 be 00 90 c5 3d a1 b1 f0 3d 61 8e 81 3d
       -0.17432939 0.096466064 0.1175263 0.06325985
000320 d9 14 51 be 8a 3e fd 3d 38 3e 1c 3e 5b 6a 2a be
       -0.20418109 0.12365444 0.1525811 -0.16642134
000330 9f 87 05 3e 4c 2d 9f 3e 27 29 25 3d 3b e7 21 3d
       0.13040017 0.31089246 0.04032245 0.03952716
000340 06 b8 21 3e 58 c6 69 3d 87 c5 90 bd 13 64 5e bc
       0.15792856 0.05707392 -0.07068925 -0.013573664
000350 d3 b2 eb 3d 7b 0d d8 bd 5d 48 12 3e 0b 36 c8 3b
       0.115087174 -0.10549446 0.14285417 0.006109958
000360 0d b5 13 3d a9 eb d6 bc be 5a ef bd 5b 9b 14 3e
       0.036061335 -0.026235418 -0.116872296 0.14512388
000370 18 60 35 be 95 46 b5 ba fc 10 b9 3d 2f 3b 68 3e
       -0.17712438 -0.0013830239 0.09036443 0.22678827
000380 9f 2b 14 bd 98 b4 13 be 7a 81 13 3e f0 f8 85 bd
       -0.036174413 -0.1442436 0.1440486 -0.06541622
000390 57 79 dc bd 81 f8 3b be d6 f0 cd 3c 22 8a 42 3d
       -0.10765331 -0.18356515 0.025139254 0.047495015
0003a0 bc 26 60 bb ae 34 61 3b 80 f8 0a be 71 aa 6f be
       -0.0034202775 0.0034363675 -0.13571358 -0.23404862
0003b0 8b 1c 09 be cd 14 a6 bd 54 b4 75 3e 6b aa 35 3e
       -0.13389795 -0.08109436 0.23994571 0.1774079
0003c0 44 4b 6b 3e c4 36 b8 bc c5 ae 7c 3d d7 38 9e 3d
       0.2297793 -0.022487052 0.06169011 0.07725685
0003d0 71 0d 17 be 52 f3 15 be 39 7e 4d be 12 64 ac bd
       -0.14751221 -0.146436 -0.20067681 -0.084175244
0003e0 ab 8f 07 3e 03 47 78 be 53 93 33 3e bc 4c 0c 3c
       0.13238399 -0.24245839 0.17536668 0.008563217
0003f0 52 0d c2 3d 59 13 cd bd 76 97 13 3e 42 53 38 bd
       0.09475197 -0.10013456 0.14413247 -0.045001276

grad_module.0.bias f4 [16]
000000 1a af 73 bd c3 1b 81 3e a2 84 1f be 1e 70 ee bc
       -0.05949316 0.25216493 -0.15577939 -0.029106196
000010 b8 ca ae bd 70 7b 8d 3e 8c 26 02 3e f6 68 80 3e
       -0.08534759 0.27633238 0.12710017 0.2508008
000020 70 80 14 be 55 18 15 3e 52 d4 3c be 6c bb de bd
       -0.1450212 0.14560063 -0.18440369 -0.10875592
000030 e7 20 02 be cd fb 42 3d e8 fb 92 bd 95 fd cd 3d
       -0.12707864 0.047603417 -0.071769536 0.100581326

grad_module.2.weight f4 [16, 16]
000000 08 61 0f 3e 40 31 08 3d 5a 7c 70 3e ad 2c 53 3e
       0.14001858 0.033250093 0.23484936 0.20622511
000010 16 95 c8 bd f2 b2 d1 bd ed 6a 09 3e 90 8e 52 bd
       -0.09794061 -0.10239209 0.13419695 -0.05140549
000020 2e 89 83 be 04 bb e8 3b dd ce 68 3d 37 22 53 3e
       -0.25690597 0.007102372 0.056837905 0.2061852
000030 7a 70 46 3e bf f8 13 3e cd 83 fa 3d 66 29 5b 3e
       0.19378844 0.14450358 0.1223217 0.21402511
000040 28 70 40 3e cc 27 1f 3e 1e cc f2 3c 42 e2 66 be
       0.18792784 0.15542525 0.029638346 -0.22547248
000050 70 8b bc bb a4 0e 49 3d 64 a8 47 bd d2 77 d3 3d
       -0.005753927 0.049086228 -0.048744574 0.10325588
000060 f1 ed 35 3c 8b 67 88 3e 2b 45 85 3d e3 87 1c be
       0.011104093 0.26641497 0.06507333 -0.15286212
000070 f5 83 4f be ea 16 a2 3d fc e0 01 3e 43 0d b3 3d
       -0.20265181 0.07914527 0.12683481 0.08742764
000080 bc 72 53 b9 1e 7a 32 3e 11 96 5a be ec 37 31 be
       -0.0002016527 0.17429397 -0.21346308 -0.17306489
000090 d0 f2 5c 3e db ed f5 bd e4 44 64 3e 6d f5 41 be
       0.21577 -0.12008258 0.22291905 -0.18941279
0000a0 7c 85 6f 3d 2c 6d 87 bc 59 fb b6 3b 4e 46 ef 3c
       0.05847691 -0.01653155 0.005584162 0.029208329
0000b0 a8 5b 47 3e 80 c1 17 be 10 d3 00 be dc dc 11 3c
       0.19468558 -0.14819908 -0.12580514 0.008902755
0000c0 8f c9 7f 3e 74 2c 18 3e 54 f2 8c bc 84 0b 06 3e
       0.24979232 0.14860708 -0.017205395 0.1309033
0000d0 d1 8a d9 b9 e7 26 a5 bc f3 54 7b be c0 3f a9 3d
       -0.00041492892 -0.020160152 -0.24544124 0.082641125
0000e0 42 3e 3f 3c 15 2d 7c 3e fc 05 9e be 0f 36 25 3e
       0.011672558 0.24626572 -0.3086394 0.16133903
0000f0 8b 3f c3 bd cf 59 35 bd cd 1c 7a be 76 41 87 3d
       -0.09533604 -0.0442751 -0.24425049 0.066042826
000100 3e ce 77 3e 51 0f 3f 3e 4b a3 f2 3a 9d 84 2f be
       0.24199769 0.18658186 0.00185118 -0.17140432
000110 af be 34 bd 66 c3 ea 3d e1 4c 78 3d af 7d ac bc
       -0.044127163 0.114630505 0.060620192 -0.021056024
000120 8f fe e8 bd 78 0b 61 3e 6c d9 a3 3a ed 25 96 3d
       -0.11376678 0.21977031 0.001250071 0.073314525
000130 77 c5 88 be 4a ff c2 bd bb a3 2b 3e fb ad 17 be
       -0.26713154 -0.09521349 0.16761677 -0.14812462
000140 5e 59 01 3e 06 89 d1 bb e6 41 cb bd 77 b4 fc bc
       0.12631747 -0.0063945083 -0.099246785 -0.030847771
000150 1c 4a da bd 99 cc 05 be 53 eb 31 be 2b cf a4 3d
       -0.106586665 -0.13066329 -0.17374925 0.08047327
000160 87 da 4c 3e a4 55 5f be c9 ca ff bd 85 d2 1c bd
       0.20005237 -0.21810013 -0.1248985 -0.038286705
000170 7a f6 83 be 8c 00 7c 3e f7 99 fe 3d 3f 34 5a be
       -0.25773984 0.24609584 0.1243171 -0.21308993
000180 35 e7 ce 3b d6 8c 32 3e d8 17 d1 bd 30 69 55 bd
       0.006314183 0.17436537 -0.10209626 -0.052102268
000190 1a 0f 6c bd c1 ab 46 be 84 38 6a be 25 fa 3a 3e
       -0.05763159 -0.19401456 -0.22873122 0.18259485
0001a0 d1 23 7f be 2a ab 83 be 45 4c 2c 3a da 1b 32 3c
       -0.24916007 -0.25716525 0.00065726443 0.010870898
0001b0 4f 5b 34 3e 89 44 85 3c 3d c9 a7 bc 1b 1f 2e be
       0.17612956 0.016268032 -0.0204817 -0.17004053
0001c0 d3 4d cb bd 4c a4 4d 3e a1 9b 77 be 8e a6 7b be
       -0.09926953 0.20082206 -0.24180461 -0.24575254
0001d0 9f 02 4d 3d ee 38 6a 3e 5b 32 94 3d c8 74 3d 3e
       0.050051328 0.2287328 0.07236167 0.1850158
0001e0 83 cf 0d 3c 48 d2 7a bd 67 44 1a 3d 45 ea 5e 3e
       0.008655432 -0.061235696 0.03766289 0.21769054
0001f0 af df d9 bd 69 9c ae bd 6a 78 e4 3d 9c 3c 97 3d
       -0.106383674 -0.085259266 0.1115578 0.07384607
000200 13 f1 ec bd 67 bc c6 3d 4f 57 67 be bd bc de bd
       -0.11569419 0.09703904 -0.225919 -0.10875843
000210 81 a7 e7 bd 41 81 5f be 22 fd 27 be ad fd 56 3d
       -0.11311246 -0.2182665 -0.16405156 0.052488018
000220 72 bf 7e 3e 43 e0 8f 3d 6c 89 69 3e 92 2c e9 3d
       0.24877718 0.070251964 0.22806329 0.11385454
000230 1d 7b 5f be 23 61 96 3c 8b d9 ff bd 31 4a 37 be
       -0.21824308 0.018356865 -0.12492665 -0.17899396
000240 23 9e 35 3e 66 33 51 3e 7d d6 3c be bb 87 7d bd
       0.17736106 0.20429763 -0.18441196 -0.06189702
000250 b2 94 6d be bf 60 97 3d 1b 17 37 3e 5e 56 db 3d
       -0.23201254 0.073915 0.17879908 0.107098326
000260 20 f9 6a 39 d1 e0 fd 3d 3d 82 81 be 96 31 d9 bd
       0.00022408785 0.12396396 -0.25294676 -0.10605161
000270 67 b5 84 3c 23 10 f3 3d fa aa 06 3d 68 d4 0e bd
       0.01619978 0.11868312 0.0328779 -0.034870535
000280 06 c2 0f 3e b7 99 19 3e 73 cc 37 bc 3c c1 de bd
       0.14038858 0.15000044 -0.011218178 -0.108767
000290 88 36 e4 3c 16 75 8a 3d b4 c1 29 3e 02 90 3b be
       0.027858034 0.067606136 0.16577798 -0.18316653
0002a0 c5 5c 52 3c b2 60 8e 3d e9 90 e1 bd 05 fa a8 bd
       0.012839501 0.06952037 -0.110139675 -0.082508124
0002b0 4d c9 ef bd 34 bb 67 bd 24 0a 2d 3d 0f 85 4d be
       -0.11708317 -0.056575015 0.042246 -0.20070289
0002c0 6c 39 92 be f6 88 81 bd f3 94 ff 3d ba 01 c6 3d
       -0.28559434 -0.06324951 0.12479582 0.09668298
0002d0 17 54 6f 3c 03 18 3c 3e a3 f0 d9 bd e6 a8 51 bd
       0.014607451 0.18368535 -0.10641601 -0.051186465
0002e0 ff 99 e3 bb 6d 26 42 bd 79 d8 57 3d 26 55 40 3b
       -0.006945848 -0.047399927 0.05269668 0.0029347627
0002f0 cc c1 34 3e 76 8f 52 3c f8 ac c2 3c 88 af 00 3e
       0.17652053 0.012851587 0.023764119 0.1256696
000300 32 f6 c1 3d 45 42 65 3e b3 37 49 be 62 4e 8c bd
       0.09470786 0.22388561 -0.19650154 -0.06850888
000310 4b e3 28 be c9 46 64 be 43 d4 9e bd c9 dc 14 3e
       -0.16492955 -0.22292627 -0.077553295 0.14537348
000320 3e 60 10 3d ee 00 20 bd e2 09 81 3b dc d9 5a be
       0.035248034 -0.039063387 0.0039379457 -0.2137217
000330 be ab 9a 3c 58 91 c8 bd 07 32 11 3e a8 52 48 3d
       0.018880721 -0.09793347 0.1417924 0.048906952
000340 be 28 49 3e 23 8b 3d 3e 5b c9 79 bd dd 5a 29 be
       0.19644448 0.18510108 -0.060983043 -0.16538568
000350 a7 2b 94 be bb e5 b5 3d 4a 0c 21 3e 05 fc 8f bb
       -0.28939554 0.08881708 0.15727344 -0.0043940567
000360 6a 78 01 3e c3 24 2d be 99 21 1c be 4a 7d 3e 3e
       0.1264359 -0.16908555 -0.15247191 0.18602481
000370 98 db 05 3e ac ae 2c bd 08 5b 9d 3d ad 95 19 3e
       0.1307205 -0.042158768 0.076833785 0.14998503
000380 d0 64 13 3e 21 3e 84 bd 06 ae 3a be fc 28 59 3e
       0.14393926 -0.06457163 -0.18230447 0.2120704
000390 c8 90 86 3e 13 ef 88 be 3e ab 8d 3d 4a fa 83 bd
       0.26282334 -0.267449 0.069174275 -0.06444223
0003a0 e5 ba 39 bd 90 7c c5 3d c5 14 8d 3d 95 30 06 be
       -0.045344252 0.09642899 0.06888727 -0.1310447
0003b0 89 83 1a be cf 9b a6 be 32 da 1d 3d f6 b5 a6 3a
       -0.15089239 -0.32540748 0.038538165 0.0012719024
0003c0 95 8b cd 3d f1 09 19 3e 42 4d 27 be 72 c6 35 bd
       0.10036389 0.14945199 -0.16338065 -0.044378705
0003d0 c6 b4 4f 3e dc de 8c 3d 03 a9 21 3e 42 f2 de 3d
       0.20283803 0.068784446 0.15787129 0.10886051
0003e0 b0 44 09 be a4 fa 08 3e e7 d1 02 be a5 45 0f 3e
       -0.13405108 0.13376862 -0.12775384 0.13991411
0003f0 77 9a 14 3e 17 67 6e bd 44 55 a2 3d df 7e 4e bd
       0.14512049 -0.058203783 0.079264194 -0.050413962

grad_module.2.bias f4 [16]
000000 8a 92 87 bd 24 e0 8a 3e 24 53 0b bd d3 d1 01 be
       -0.06619747 0.2712413 -0.034014836 -0.12677698
000010 4a 49 19 be 31 68 68 be f3 dd 84 3e 8b 5b 22 be
       -0.14969364 -0.22695996 0.25950584 -0.15855233
000020 b7 cb 6e 3d 9d 1f 74 3e c8 60 5a be 0d dc 3d 3e
       0.058299746 0.23840185 -0.21325982 0.18540974
000030 39 c0 06 be 7c f3 15 3d 1f 47 91 be 60 ec 25 3e
       -0.13159265 0.036609158 -0.28374574 0.16203451

exp_avg f4 [16, 7]
000000 b3 66 c6 bb 20 dc af b9 2e ad 85 3a 92 d4 e3 3a
       -0.006054723 -0.00033542607 0.0010198706 0.0017382076
000010 02 4d dd bb 38 d4 99 bb 3d fa 54 3b 76 bb 9e 3c
       -0.006753565 -0.004694488 0.0032497786 0.019376498
000020 4e 29 05 bb 79 a2 b8 bc b3 03 46 3c 17 b7 e4 3c
       -0.002031881 -0.02253841 0.012085843 0.027919335
000030 97 b6 45 3c 54 eb ea bc a3 3f ae bb 55 fa 96 3b
       0.012067459 -0.028676666 -0.0053176447 0.0046074786
000040 db 13 43 bc 0a 30 74 3b a7 35 3d 3b a3 2f b3 bb
       -0.011906589 0.0037260079 0.002887109 -0.005468325
000050 21 7f aa bc 6b 29 2e 3b ea e7 7a 3a 4e e8 0c 3b
       -0.020812573 0.002657498 0.0009571301 0.002150077
000060 85 8d 2b bb 60 f4 37 bb 30 21 f3 bb c6 7c ea ba
       -0.0026176882 -0.0028069243 -0.0074197277 -0.0017889969
000070 c1 82 21 bc 70 82 e1 3b f2 5a 64 3b 9c 77 51 bb
       -0.009857834 0.0068820044 0.0034844247 -0.0031962162
000080 36 81 68 bc 3f c0 76 bb 81 e2 53 3c 0e 9b d2 39
       -0.014190963 -0.0037651209 0.012932421 0.00040169846
000090 04 dd d4 ba 2b ad 1f bc 1c 44 f1 39 75 e5 ad 3b
       -0.0016240184 -0.009745876 0.00046017847 0.0053068944
0000a0 1e 74 2e 3b db 3d 8c bc 5e 20 13 bb a2 9f 88 3a
       0.0026619504 -0.017119339 -0.0022449712 0.0010423551
0000b0 a3 67 f7 ba bd 89 0f 3c 90 0b 73 bb 35 d0 37 3c
       -0.0018875491 0.008760867 -0.003708575 0.011219074
0000c0 9c ac 87 3b c4 71 ba 3b df 46 43 3a 71 50 b6 bb
       0.0041404497 0.0056898315 0.000744922 -0.0055637886
0000d0 7f 85 c0 3b 54 49 86 3b 71 3b 23 3c 90 99 d1 3a
       0.005875289 0.004098097 0.009962902 0.00159912
0000e0 c9 74 9e bb 74 ad d7 3a 81 c2 ab 3b 5f 03 b3 bb
       -0.004835699 0.0016454891 0.0052416925 -0.0054630484
0000f0 d3 b1 b2 bb 8d 64 1c bc 84 b5 a3 ba 8f e1 ba bb
       -0.005453327 -0.009545458 -0.0012490009 -0.005703158
000100 0e 33 ee bb cd 52 29 3b d7 2d 3a bb 6e a1 39 bc
       -0.00726927 0.0025836707 -0.002840867 -0.011329992
000110 77 61 13 bb 2a 83 8c 3c 5a 8d 78 3b a6 e4 90 3b
       -0.0022488513 0.017152388 0.003792605 0.0044217883
000120 01 be 02 bc 35 9b 98 ba 69 de d4 3b a9 52 8c bb
       -0.007979871 -0.0011642935 0.00649624 -0.004282315
000130 c3 cf 3c bc df e4 a0 ba de 0c 2b 3c 5f dc 14 3b
       -0.011524144 -0.001227524 0.0104400795 0.002271436
000140 44 b9 68 ba 12 09 c6 bb 72 51 ee 3b 9c cf 3d 3c
       -0.00088777044 -0.0060435617 0.0072728926 0.011585142
000150 48 05 58 3a eb b1 ed 39 ee 06 14 bb e8 0f 8a 3a
       0.0008240533 0.00045336722 -0.0022587138 0.0010533305
000160 e1 3b 35 bb 34 c1 ed 3b 7c 09 42 3b 32 6c 29 bb
       -0.0027654099 0.0072556976 0.0029607704 -0.0025851843
000170 74 d4 7e bb 5a 5f fc 3a 25 ec 6b 3b 85 95 df ba
       -0.0038883956 0.0019254491 0.0035998907 -0.001705811
000180 7f 1e e1 3b 13 c9 03 3c f7 e5 a5 3a 01 ae 66 3b
       0.0068700905 0.008043545 0.0012657036 0.003519893
000190 5b 6e 2f ba 1c 7b 60 3b 60 d0 45 3a 93 fc 6d 3b
       -0.00066921645 0.0034253066 0.0007546004 0.0036313876
0001a0 ea be b2 3b a1 a2 45 bb 63 4f b3 bb 7e 62 3a 3c
       0.0054548876 -0.0030156749 -0.00547211 0.011376021
0001b0 05 26 48 bc dd 2a e5 bb 14 e7 89 bc 99 a3 0c 3c
       -0.012216096 -0.006993635 -0.01683382 0.008583927

exp_avg_sq f4 [16, 7]
000000 f3 a1 c4 39 68 00 df 39 0c 16 c2 39 39 e4 c1 39
       0.00037504695 0.00042534177 0.0003701899 0.00036981868
000010 e5 f8 d9 39 5d 63 0d 3a 25 0b 8a 39 22 01 f9 3b
       0.00041574906 0.00053935294 0.00026329714 0.007599012
000020 14 18 b0 3b bf 39 ba 3b e8 36 a3 3b bf 7d 01 3c
       0.005373964 0.0056831534 0.0049809106 0.007903515
000030 f6 6b db 3b 22 3a 9b 3b 4e 15 cd 3a 67 05 df 3a
       0.0066962196 0.0047371546 0.0015646608 0.001701516
000040 36 fd e5 3a a0 55 b9 3a 26 c2 c1 3a d0 9b bf 3a
       0.0017546776 0.0014139898 0.0014782592 0.0014618579
000050 19 e1 b0 3a 8a 8b b1 39 05 7d e3 39 ac 0f e7 39
       0.0013494819 0.00033864036 0.0004338996 0.0004407143
000060 7f c4 ad 39 b6 cd c9 39 fc 9f 0b 3a 74 8d c3 39
       0.00033143532 0.00038490974 0.0005326269 0.0003729869
000070 4e f6 29 3b 77 2c 16 3b 4b 83 33 3b 95 ce 03 3b
       0.0025934163 0.0022914687 0.002739149 0.0020112146
000080 34 af 2e 3b c2 74 49 3b ad de cc 3a 94 2d 10 3b
       0.0026654722 0.003073976 0.0015630327 0.0021999823
000090 73 aa d6 3a 2f 4a fb 3a a1 b2 be 3a 01 fc 10 3b
       0.0016377702 0.0019171889 0.0014549085 0.0022122862
0000a0 22 cb 95 3a 01 b0 aa 3a d9 d5 18 3a 3f 41 0d 3a
       0.0011428336 0.0013022424 0.00058302056 0.00053884456
0000b0 c6 63 0c 3a ee 3a 3f 3a 44 1d 09 3a 90 d9 c9 3a
       0.00053554436 0.0007294853 0.0005230496 0.0015399922
0000c0 09 03 a2 39 dc da 2c 3a 7b 9f 2b 3a bd aa 3d 3a
       0.0003090131 0.0006593892 0.0006546897 0.000723522
0000d0 f9 72 30 3a 19 16 31 3a 38 b2 4e 3a 0b ee 30 3a
       0.00067309994 0.0006755307 0.0007884833 0.00067493384
0000e0 a1 9a b9 39 db d5 aa 39 22 c3 8e 39 5e b8 c2 39
       0.00035401157 0.00032584261 0.00027229736 0.00037139928
0000f0 b4 14 c5 39 10 82 1a 3a b4 ad 61 39 0e 58 ec 3a
       0.00037590193 0.00058940146 0.00021522382 0.0018031613
000100 56 fd 38 3b 51 7a 26 3b 50 2e cb 3a 59 f3 07 3b
       0.0028227172 0.0025402496 0.0015501473 0.0020744412
000110 d9 e3 2d 3b 2a f2 b3 3a 11 80 5a 3a 31 58 29 3a
       0.0026533513 0.0013728787 0.00083351234 0.000645998
000120 a3 33 e2 39 d2 22 2f 3a 71 91 72 3a 7c c5 68 3a
       0.0004314455 0.0006680909 0.000925324 0.0008879525
000130 98 08 fc 39 89 f6 03 3b 88 bd 01 3b 43 ba 0e 3b
       0.00048071588 0.002013596 0.0019796807 0.00217785
000140 84 93 00 3b a6 51 0b 3b 4c 3e 1c 3b 83 06 a6 3a
       0.0019619176 0.0021258383 0.0023840843 0.0012666736
000150 93 5a 53 3a 0a 47 90 3a 08 44 76 3a 1f 04 6b 3a
       0.0008062508 0.0011007499 0.0009394293 0.00089651527
000160 05 13 4f 3a d5 92 08 3b f4 d8 75 3a 27 8b 46 3a
       0.00078992575 0.0020839472 0.0009378337 0.0007573836
000170 f2 4e 68 3a 53 51 6a 3a da ff 43 3a 9c 7b 54 3a
       0.00088618614 0.000893851 0.00074767845 0.00081055774
000180 62 11 89 3a 01 2d d4 39 38 89 3b 39 64 71 47 39
       0.0010457451 0.00040469322 0.00017884828 0.0001902036
000190 88 9f 66 39 5f de 5b 39 bf 00 51 39 1e 3f 66 39
       0.0002199394 0.00020968307 0.00019932071 0.00021958022
0001a0 ca 56 15 39 87 c0 06 3b 5c 8f df 3a 48 59 1b 3b
       0.00014242079 0.0020561533 0.0017056274 0.0023704339
0001b0 7c d7 e5 3a 49 48 e1 3a b4 6b de 3a d9 69 0d 3b
       0.0017535533 0.001718768 0.0016969354 0.0021577983

exp_avg f4 [16, 16]
000000 de c6 4b bb 8e 64 3a 3b 94 86 66 bb a1 cc 15 3b
       -0.0031093876 0.0028441283 -0.003517543 0.0022857564
000010 9d c3 b2 b9 47 76 0f bb 5b c6 28 ba e7 9a a4 3a
       -0.0003409655 -0.0021890567 -0.00064382487 0.0012558372
000020 fc 03 7e b9 1f 3a 49 3b d7 11 94 b9 47 df 40 3b
       -0.00024224812 0.003070481 -0.00028242051 0.0029429959
000030 00 ed 69 3b ab 9c c7 ba 77 8d 89 ba 9e 36 ba b9
       0.0035694242 -0.0015229186 -0.001049443 -0.00035517378
000040 47 c7 83 3c 14 9a 3a bc 40 26 ce 3c cf 9d 50 bc
       0.016086234 -0.011389274 0.025164723 -0.012732937
000050 55 23 f9 3b d7 d2 3c 3c 69 18 69 b9 28 45 36 bc
       0.007603089 0.0115248775 -0.00022229705 -0.011124887
000060 46 66 88 bb bf 9a a3 bc 57 f6 87 3c 04 aa 49 bc
       -0.0041625826 -0.01997125 0.016596956 -0.012308601
000070 20 04 c1 bc 24 86 8a bb 68 30 74 3c 0d 0b 0c 3c
       -0.023561537 -0.0042274166 0.014904119 0.008547557
000080 35 fe 9e 3a a8 79 2c bb 46 53 d6 3b 98 6b 00 bc
       0.0012130203 -0.002631763 0.0065406887 -0.007838152
000090 4e 6c 80 3b 4e 2c bf 38 2d a8 57 bb 86 06 14 bc
       0.003919161 9.115842e-05 -0.0032906637 -0.009034758
0000a0 dc 0e 99 bb 01 dc 90 bb 23 f9 33 3b be e5 43 bb
       -0.004670961 -0.0044207578 0.002746173 -0.0029891576
0000b0 cc 34 1a bc c2 d2 19 3a 26 12 b5 3b aa 7e b6 3b
       -0.009412002 0.0005867892 0.005525845 0.0055692988
0000c0 b1 02 4b bb d7 6b e9 ba 7c 53 86 bb 80 4a 51 ba
       -0.0030976946 -0.0017808628 -0.0040993076 -0.00079838187
0000d0 dc 19 d8 b9 ec 84 43 bb 63 a3 f4 b9 fd b4 f8 b9
       -0.00041217997 -0.0029833866 -0.0004666104 -0.00047437093
0000e0 e8 79 db b9 f2 08 15 3b b7 fd 5a bb 9e 15 bb 3a
       -0.00041861762 0.0022740928 -0.0033415386 0.001427341
0000f0 3e f6 51 3a 8b a5 ab 3a cf 88 b0 ba f0 1b 0f 3b
       0.000800941 0.00130956 -0.0013468507 0.002183672
000100 62 2a 0b bc 8a 8c 15 3c 52 43 31 bc 36 89 b8 3b
       -0.008493992 0.009127745 -0.010819273 0.005631591
000110 e7 86 6b bb 34 5a 8f bb 7f 49 56 3a ba 95 b5 3b
       -0.0035938562 -0.0043747667 0.0008174404 0.0055415304
000120 fc 0b 1b 3b e1 2e 53 3c 4c f0 f6 bb 74 5a d3 3b
       0.0023658266 0.012889595 -0.00753597 0.006449992
000130 ac 46 31 3c d0 bc 81 3b 78 50 f7 bb 73 ed d4 bb
       0.010820072 0.003959276 -0.0075474344 -0.0064980327
000140 61 7b e1 3b ce ab bc bb fd 58 2a 3c 19 a6 01 bc
       0.006881163 -0.0057577854 0.010397193 -0.007913136
000150 81 15 a3 3b f4 12 2d 3b 92 e0 90 ba 30 6b 0e bc
       0.0049769287 0.0026409002 -0.0011053255 -0.008692548
000160 e4 de 7b bb 06 5c 1e bc 9d 35 94 3b 9c 12 9c bb
       -0.0038432414 -0.009665495 0.0045229928 -0.0047629606
000170 76 13 2a bc 68 d1 b9 b9 8b 34 b1 3b bb 6b 8e 3b
       -0.010380616 -0.0003544197 0.005407875 0.0043463386
000180 54 af 76 3b c7 e1 3f 3b 2e b3 95 3b e4 e5 86 3b
       0.0037641125 0.002927886 0.004568479 0.0041167606
000190 8b 12 6d 3a e3 10 1b 3b 01 c7 02 3b a5 c2 01 3b
       0.00090435956 0.0023661188 0.0019955041 0.0019799855
0001a0 20 70 bc 3a 58 aa f9 ba 9d 6c 90 3b d1 99 a4 3a
       0.0014376678 -0.0019047959 0.004407479 0.0012558048
0001b0 3e b6 2c 3a 4a 38 72 bb 46 b2 54 3a ce 55 c4 ba
       0.00065884355 -0.003695982 0.0008113723 -0.0014979185
0001c0 77 67 90 3b 2d 2f fa 3a 76 d5 c0 3b 27 42 2c 3b
       0.004406865 0.0019087546 0.0058848215 0.0026284547
0001d0 72 64 13 3b 5c f1 a8 3b dc a1 29 3b e4 62 f5 3a
       0.002249029 0.0051557254 0.002588383 0.0018721488
0001e0 bb 59 e7 3a d8 8c 14 bb bd d0 bc 3b ca 74 d0 39
       0.0017650643 -0.0022666957 0.005762188 0.00039759866
0001f0 1e a2 f5 ba 98 55 5e bb 85 08 13 3b 60 66 93 ba
       -0.0018740331 -0.003392553 0.0022435498 -0.001124572
000200 3a 4d bc bb 59 ee d8 b9 6a 40 d4 bb 34 69 0b b9
       -0.005746511 -0.00041376313 -0.0064774053 -0.00013295264
000210 56 9b 6b ba 6f 72 87 bb 46 b7 ee ba 54 f8 9c ba
       -0.00089876854 -0.0041335146 -0.0018212579 -0.0011975863
000220 6b f5 4e ba 2b d7 a6 3b c8 f8 b5 bb ed fa 0d 3b
       -0.00078948465 0.005091568 -0.0055533387 0.0021664456
000230 83 48 31 3b 2f 75 05 3b 05 40 0a bb c9 8e ee 3a
       0.0027051277 0.0020364036 -0.0021095288 0.0018200512
000240 50 ea 8e bb 8b bf d8 3b 62 2f 20 bc ac 56 e6 3b
       -0.0043614283 0.0066146306 -0.009776922 0.007029375
000250 94 a1 db ba c3 03 f3 ba 7a 63 a6 3a cb ee 00 3c
       -0.0016756528 -0.001854055 0.0012694441 0.007869433
000260 e8 9f 10 3b bb 14 c1 3b 62 47 f1 b9 ff 2b cf 3b
       0.0022067968 0.005892364 -0.00046020286 0.0063223834
000270 5b 27 40 3c ad 5a 49 bb 2f 1a 7e bb ff c9 8e bb
       0.011728133 -0.0030724213 -0.003877293 -0.004357576
000280 63 73 0f 3a bb 32 96 bb 2c 1e 8c 3b 7e 16 c2 bb
       0.0005472211 -0.0045836843 0.0042760577 -0.0059230914
000290 d6 f0 37 3b 36 f7 53 b9 3a ef 96 ba 99 75 bb bb
       0.0028067133 -0.00020214621 -0.0011515387 -0.005720806
0002a0 7e ed 10 bb 77 ad 96 ba 4f ae 1d 3a 3b 65 e2 ba
       -0.0022114213 -0.0011495788 0.0006015049 -0.0017272601
0002b0 1a aa dd bb 72 43 13 3b 08 d8 4b 3b 1b 81 7c 3b
       -0.0067646625 0.002247062 0.0031104106 0.0038529101
0002c0 cd 22 62 bb 7d c5 de 3b bc e0 57 bb bb a7 d8 3b
       -0.0034505606 0.006798445 -0.0032940349 0.006611792
0002d0 dc f5 cf ba 30 6e c1 b9 71 d0 51 3b 44 17 a9 3b
       -0.0015866118 -0.00036893925 0.003201511 0.005160244
0002e0 b4 ea 83 3b bd 5b 1e 3c ca 66 a7 bb b4 60 b2 3b
       0.0040257815 0.009665427 -0.005108689 0.005443657
0002f0 73 b5 c4 3b 89 0f 2e 3b 41 ce b8 bb 6f b3 b1 bb
       0.0060030757 0.0026559553 -0.0056398218 -0.0054230015
000300 fa ce 0f 3b 39 ac bf 3a f7 74 11 3b 34 36 10 3b
       0.0021943436 0.001462347 0.002219496 0.0022004964
000310 60 4f d8 3a e5 8d 08 3b 91 12 38 3b 77 f3 99 3a
       0.0016503148 0.002083653 0.0028087238 0.0011745532
000320 54 00 c4 3a 9b b7 47 39 d7 28 9b 3a f9 88 ff 3a
       0.0014953711 0.00019046517 0.0011837733 0.0019495777
000330 2e 61 42 3a 33 19 9f ba 0a c6 35 ba 41 57 9a ba
       0.00074149936 -0.0012138247 -0.0006934112 -0.0011775271
000340 b6 b2 ea ba f7 ea 02 3c 3a 91 2b bb bc de bf 3b
       -0.0017906043 0.00799059 -0.002617909 0.0058554094
000350 5f 5a 69 bb 3a ff 5a 3b fb 22 9b 39 2a 20 dd 3b
       -0.0035606844 0.0033416287 0.00029589966 0.006748219
000360 aa 8a 26 3b e8 f8 16 3b 6b aa 21 3b bf e9 9a b8
       0.002541224 0.0023036543 0.0024668227 -7.386831e-05
000370 1d d6 ad 3b a5 6b 94 ba b3 4d b1 ba ba f8 a5 bb
       0.0053050653 -0.0011323584 -0.0013527184 -0.005065051
000380 5d 4e ee 39 a9 48 1b 3b 80 46 64 3a 31 1d 17 3b
       0.00045453283 0.0023694432 0.0008708015 0.002305817
000390 c6 c6 6f 38 07 96 b1 3a 96 4e f1 3a ce 21 1f 3b
       5.7167163e-05 0.001354874 0.0018410261 0.0024281624
0003a0 11 8f ef 3a 14 56 ee 3a b0 09 60 3a 57 3f aa 3a
       0.001827689 0.0018183612 0.00085463654 0.0012988847
0003b0 79 c1 a6 3a da 7c b2 b7 6a 7c 2f ba bd 9c 29 bb
       0.0012722454 -2.1277392e-05 -0.00066942594 -0.0025880777
0003c0 77 4e 22 bc c3 10 14 ba 5d fa 6a bc de ce 68 3a
       -0.009906403 -0.00056482496 -0.014341918 0.0008880923
0003d0 7d 00 80 bb 41 bd dd bb e9 13 47 bb e2 b1 35 3b
       -0.003906308 -0.0067669456 -0.0030376858 0.0027724435
0003e0 78 21 89 b9 57 96 09 3c a4 07 0a bc 0b 26 33 3b
       -0.00026155612 0.00839766 -0.008424673 0.0027335908
0003f0 87 cf 18 3c 5f f6 44 3b f6 be a4 bb 8a b3 35 b9
       0.009326822 0.0030054075 -0.005027647 -0.00017328389
