ckpt/GRU_ode_3_4_h32_cubic_dopri5/best.pth (torch_old, 96839 bytes, 38 tensors)

rnn.weight_ih_l0 f4 [96, 7]
000000 05 94 ed bc fb 7a 85 3d e0 53 2b 3d 2c bc 96 bd
       -0.029001245 0.06517597 0.041828036 -0.0736011
000010 41 3e 10 be 18 be 33 3d 91 1e 5c be d7 5c 09 bd
       -0.14086248 0.04388246 -0.21496035 -0.033535805
000020 b7 01 af 3d b2 3c 1a be 70 50 19 3d 0c a0 4f be
       0.08545249 -0.15062216 0.037430227 -0.20275897
000030 3d 31 71 3d 5d 46 b6 3d 62 89 bb bd 50 85 ae 3d
       0.058884848 0.089001395 -0.09157063 0.08521521
000040 63 ed cd bd a9 c1 66 3e 02 f9 dc bd f3 72 f9 3d
       -0.100550435 0.22534813 -0.10789682 0.12180128
000050 6d 9e fa bd 44 4c 17 3e 4b ef e5 bd 09 52 a8 3c
       -0.122372486 0.14775187 -0.11227282 0.02054693
000060 86 d8 cc bc b5 e0 e2 bd ca 56 7d 3c 0f 79 59 be
       -0.02500559 -0.11078016 0.015462587 -0.21237586
000070 4a bb 98 bd c0 59 bd bd 0d 14 27 be 8a 1e fc 3c
       -0.074575976 -0.09245634 -0.16316243 0.03077628
000080 02 8a 7e bd e2 dd cf bd 97 df 8d bd 0b 05 b6 3d
       -0.062143333 -0.10149743 -0.06927412 0.088876806
000090 d3 09 51 be 01 e8 4f be f7 6b 34 3e 74 87 f6 bd
       -0.20413904 -0.20303346 0.1761931 -0.120375544
0000a0 f9 95 67 3d 6a 05 3a be 93 eb 26 3e 9c 6c 57 3d
       0.05653951 -0.18166128 0.16300802 0.052593812
0000b0 3b 37 47 3d 45 d2 94 3d 3e b6 ae 3d 46 d3 23 be
       0.048636656 0.07266668 0.08530854 -0.15998563
0000c0 0a d2 5e 3d f8 5d 29 3e 10 1d 36 3d 5e 3a 70 3d
       0.054399528 0.16539752 0.04446131 0.058649413
0000d0 54 1f ef 3c 3c a5 5c 3d 3b 30 9f 3d bb f0 ea 3d
       0.029189743 0.053868517 0.07772871 0.11471697
0000e0 2f 30 1b 3e 23 74 77 3c ec 9c c5 3d 4c 7c 8d bd
       0.151551 0.015103373 0.09649071 -0.06908473
0000f0 a6 9d 54 3e c2 34 5e be 27 42 13 be 6b 44 29 bd
       0.20763263 -0.21699813 -0.14380704 -0.041325014
000100 a8 81 9f 3d c8 cd 2e be 3a d9 20 3c 53 60 0e 3e
       0.07788402 -0.17070687 0.009817416 0.13903932
000110 c5 41 62 3a 7b c3 88 bd c4 a0 d3 3c 02 53 8b be
       0.0008631016 -0.0667791 0.025833495 -0.27211767
000120 ad 6c 0c be 0f 7f e3 3c 16 30 79 3d bd 77 ff 3d
       -0.13713332 0.027770547 0.060836874 0.1247401
000130 e7 98 23 3e 7b 2e cc bd f6 37 d6 bc e2 23 64 bd
       0.15976296 -0.09969803 -0.026149731 -0.055698283
000140 2d e3 6c 3e d0 a1 82 bd 0c db 49 be e6 f0 b4 3d
       0.23133536 -0.063785195 -0.19712466 0.0883501
000150 44 04 33 be 02 d4 2b be 40 b9 0c be 64 43 71 3d
       -0.17482096 -0.16780093 -0.13742542 0.05890216
000160 dc 10 9e be 94 bf eb bd ce 6c d2 3b 52 45 28 3d
       -0.30872238 -0.1151115 0.006421662 0.041081734
000170 42 d7 bf 3d 0c d8 5e bd 1a 00 ca bd 1a 4b 83 3d
       0.09367229 -0.054405257 -0.098633006 0.06410809
000180 3a 40 d5 bd 39 1f 5b be df 0a af bd 30 00 da bd
       -0.10412641 -0.21398629 -0.08546995 -0.10644567
000190 ab 3a 3d bd fb 71 e9 3d db b6 5d 3d 4d cb b8 bd
       -0.04619853 0.11398693 0.054129463 -0.090231515
0001a0 ec 77 08 3c d4 fd bc bb ab 47 83 be 7d e4 45 3d
       0.008329373 -0.0057675634 -0.25640616 0.048313607
0001b0 5e 03 55 3e 07 b9 81 be a5 a4 96 bc c9 f5 5d be
       0.20802066 -0.25336477 -0.018389056 -0.21675791
0001c0 ad d2 a6 bd 9b b3 70 be 55 04 51 bd 7a 3c 55 3d
       -0.08145652 -0.23506014 -0.051029522 0.052059628
0001d0 a8 fa 16 3e 46 53 07 be 35 75 95 bd 46 78 e6 3d
       0.14744055 -0.1321536 -0.07297746 0.11253409
0001e0 5b 5f c0 3d 4b 02 35 3d b7 81 17 3d 6f 9f 02 3e
       0.093931876 0.04419164 0.03698894 0.12756132
0001f0 68 05 e6 bd 1d 32 aa ba 08 ea 7d 3d 44 d5 61 bd
       -0.112315 -0.0012984906 0.061990768 -0.055135027
000200 f6 2a 23 be 08 4f 1e 3e 09 ff 05 3e 86 0a 55 bd
       -0.15934357 0.15459836 0.1308557 -0.05201199
000210 2e d8 88 be f1 a1 13 3d c1 bc f9 bd d4 c1 0e 3e
       -0.26727432 0.03604311 -0.12194205 0.13941127
000220 c7 67 71 be ed db 7a be dc be 0c 3d ed b7 f7 bd
       -0.23574744 -0.24497958 0.034361705 -0.12095628
000230 0f 33 79 3b f1 79 06 3d e2 73 f9 bd f6 7d cf 3d
       0.0038024818 0.032831136 -0.12180306 0.10131447
000240 ed 9d c8 3d b8 01 18 be 3b 30 c8 3d 4c 12 c2 bd
       0.09795747 -0.14844406 0.09774824 -0.09476146
000250 64 5d a0 3d 09 87 91 bc 4b 4e a4 bd c6 d2 0b be
       0.07830313 -0.017764585 -0.08022746 -0.13654622
000260 08 47 90 bd fe 44 41 3d dc 89 8e bc 92 93 8d bd
       -0.07044798 0.047184937 -0.01739972 -0.069129124
000270 d2 25 7d 3d d2 25 a1 3d be 6a 9f 3d 4f 2d 9e bd
       0.061803646 0.07868542 0.07784031 -0.07723486
000280 08 1b 5b 3c 07 f1 23 be e5 b8 49 be f9 2a 81 3d
       0.013373144 -0.16009913 -0.19699438 0.063070245
000290 1b b9 14 3d 7c 62 9a bd b5 56 f9 bd da 25 21 3d
       0.036309343 -0.07538316 -0.12174741 0.03934274
0002a0 09 55 50 3e 42 f2 b1 bd d4 2d 0d be 36 f5 bf bd
       0.20344938 -0.08688785 -0.13787013 -0.09372942
0002b0 d8 3a 8a 3e b9 af d4 bd 6c f3 bf 3d 85 93 85 bb
       0.2699802 -0.10385079 0.09372601 -0.0040764236
0002c0 82 8e 86 3d 45 bf c2 bb e5 ba c4 3c 4f 80 0e 3c
       0.0657015 -0.0059432113 0.0240149 0.008697583
0002d0 ae 19 ba 3d cd dd c3 3c 82 b0 28 3d fd c3 b9 3b
       0.09086929 0.023909474 0.041183956 0.0056691156
0002e0 f8 67 34 3e fd b9 1a be 48 46 81 3d 66 98 a9 3d
       0.17617786 -0.15110011 0.06312233 0.08281021
0002f0 fb 34 93 3e fe 0a 21 3e 4a 6f 17 be 85 4b 72 bd
       0.28751358 0.1572685 -0.14788547 -0.059154052
000300 c6 9e c9 bd 20 72 c7 3d 1d 9c 80 bc d9 2e 29 be
       -0.09844737 0.097385645 -0.01569944 -0.16521777
000310 32 5a 19 be 33 46 95 3c 37 74 13 be 12 b6 07 be
       -0.14975813 0.01822195 -0.14399801 -0.13253048
000320 f1 4f 01 3b 8d 7e ad bc e7 5b 12 be 47 6d cb 3d
       0.0019731487 -0.021178508 -0.1429287 0.099329524
000330 22 d7 e1 3d bb 5c b4 3d c6 37 52 3e b4 af f5 bd
       0.110273615 0.088067494 0.20529088 -0.11996403
000340 24 38 cf 3d 58 4c 33 bd ed 0b c6 3b 6f 7f 3e be
       0.1011813 -0.04377398 0.006043902 -0.186033
000350 91 c5 00 3e 1f 80 51 be f7 a4 34 be 5d 64 9d bc
       0.12575366 -0.2045903 -0.17641054 -0.019212896
000360 8f ff 0d be 95 b8 38 be c3 94 f7 bd 6b b5 02 3e
       -0.13867019 -0.18039162 -0.12088921 0.12764518
000370 73 85 76 bc 47 cc 5a bd 37 1c 84 bc fb 46 42 be
       -0.015046465 -0.05341747 -0.016126735 -0.1897239
000380 8b d2 62 bd de b1 34 3e 99 df 40 be 6e 3b d5 3d
       -0.05537657 0.17645976 -0.18835296 0.10411726
000390 4c 04 e8 3d e1 86 0c 3c 00 d2 c3 bd c1 c2 3c 3e
       0.113289446 0.0085770795 -0.09561539 0.18433668
0003a0 86 09 b6 3c 12 a3 d9 3d 56 c6 b0 3b 9c 9c bb 3b
       0.022221338 0.10626806 0.0053947372 0.0057254564
0003b0 6b 8b e4 3d f2 91 0e be 77 3e 07 3d ba d9 07 3d
       0.11159404 -0.13922861 0.033018555 0.033166625
0003c0 1a 3f e8 3a 64 66 2c be ba fa a3 bc 8a 7a 82 bd
       0.0017719001 -0.16835934 -0.020017017 -0.06371029
0003d0 5e ee 92 3d fa a9 e9 bd 3b 05 24 3e 2b 64 40 3d
       0.07174371 -0.114093736 0.1601762 0.046970528
0003e0 3b 38 01 be ab 1b f0 3d 27 f7 ab bd b2 33 8a 3d
       -0.12619106 0.11724027 -0.0839675 0.06748141
0003f0 1d 90 13 3e 88 37 07 3e c1 6b 3f 3d 38 6b 69 be
       0.14410444 0.13204777 0.04673362 -0.22794807

rnn.weight_hh_l0 f4 [96, 32]
000000 43 32 2a bd ed 22 8d bd bc c1 84 bd 6f 58 61 bd
       -0.04155184 -0.06891427 -0.064822644 -0.055015977
000010 be ff 93 3c ed e3 25 3e 79 2f 58 be 72 ae de 3d
       0.018066283 0.16200228 -0.2111186 0.108731166
000020 1f a0 06 be 27 d5 f5 3c 99 43 6f bd 06 25 ff bc
       -0.13147019 0.030008866 -0.058414076 -0.031145584
000030 65 ae 19 bd 9e ce 41 3e be 8c 7c bd 92 0a a7 bc
       -0.03751983 0.18926474 -0.06165766 -0.020390783
000040 e3 87 4d 3e 9c e4 79 bd d2 6d 88 bc fb 41 6f be
       0.20071368 -0.061009035 -0.016653929 -0.23365013
000050 98 e9 86 bd f3 99 11 3d 04 f8 2a be 05 1a e0 3d
       -0.06587523 0.035547208 -0.16696173 0.10942463
000060 fb 5a ec 3d cc 07 00 3b 96 27 e8 bc eb 4d 39 be
       0.11540791 0.0019535897 -0.028339189 -0.1809613
000070 75 3f 04 3e 10 4f 04 3d 41 5e 75 3d 1d a7 9f 3d
       0.12914832 0.032301962 0.05990434 0.07795546
000080 e6 e2 1d 3d 0a 79 87 bd 2c ca b8 bc 0c 0f 8d 3c
       0.038546465 -0.06614883 -0.02255734 0.017219089
000090 1b 66 c7 bd cf 89 89 bd 10 1d 86 bc 35 8e 1e be
       -0.09736272 -0.06715738 -0.01637128 -0.15483935
0000a0 15 cb 96 3d 9c 71 ae bc d1 17 01 be de d7 21 3e
       0.073629536 -0.021294408 -0.12606741 0.15805003
0000b0 b5 fe af bd 76 fb 8f 3d 1c 40 69 3d 76 6e 95 3d
       -0.085935034 0.07030384 0.056945905 0.072964594
0000c0 eb 1a c9 3c 1d 4f 05 3e 77 e6 37 3e e0 4b 61 3d
       0.024548968 0.1301846 0.17959009 0.055004
0000d0 62 29 c2 3c 60 aa 51 3d 4a 20 39 be cd 2b 67 3d
       0.023701373 0.051187873 -0.18078724 0.056438256
0000e0 ea 91 86 3c 96 57 e1 3d 51 76 e2 bd 55 56 b5 bd
       0.016427 0.11003034 -0.11057723 -0.08854357
0000f0 b7 c8 26 3e ea 6c 6a 3e a9 fc c6 3d 3d 62 75 bd
       0.16287504 0.2289311 0.0971616 -0.05990814
000100 70 6d e4 3d 2e 55 f4 bd d4 da 0f bd db ac c8 bd
       0.11153686 -0.11930309 -0.0351208 -0.097985946
000110 ce 1d 25 3e 4d 47 24 be 1f fd 16 be ca 24 28 be
       0.16124651 -0.16042824 -0.14744996 -0.16420284
000120 bd 37 c5 bd 95 b1 92 3d 33 a0 14 bd 28 65 e2 3d
       -0.09629772 0.07162777 -0.03628559 0.1105445
000130 49 cf 24 bd 88 d3 e7 3d c6 89 c6 bc a1 ef b3 3b
       -0.040236745 0.11319643 -0.024235617 0.0054912125
000140 d5 f7 18 be a2 30 89 bc ce e8 3a be f0 74 9c bd
       -0.1493829 -0.016746823 -0.1825287 -0.076394916
000150 35 cd da 3d 0e f4 2b bd 1f 74 04 be ff 03 3d 3c
       0.106836714 -0.041980796 -0.12934922 0.011536597
000160 37 33 0d be e6 30 65 be 0e b5 74 3e 30 3b d1 bd
       -0.13789068 -0.22381935 0.23897192 -0.10216367
000170 83 50 be 3d 78 b3 c8 bd df c9 ad bc a3 66 dd 3d
       0.092927 -0.09799856 -0.021214424 0.10810592
000180 7d 6e a0 3d 85 75 44 be 3b 42 d5 3d 85 0c 96 bd
       0.07833574 -0.19185455 0.10413023 -0.07326607
000190 0c 88 13 3e 0c b8 fa ba 15 22 e7 3d e9 91 71 3e
       0.14407367 -0.0019128337 0.112857975 0.23590817
0001a0 25 24 d4 3c 74 c4 dc 3d f3 99 c7 bd 00 2f 6a 3d
       0.025896141 0.10779658 -0.0974616 0.05717373
0001b0 4f 38 4f 3e 86 2d 36 bd 1c 80 0e be 90 98 31 be
       0.20236324 -0.04447701 -0.13916057 -0.17343354
0001c0 7b 56 1e 3e 36 6d f9 3d f7 8e 4b 3e e0 57 ff bd
       0.15462677 0.121790335 0.19878756 -0.12467933
0001d0 0c d9 30 bd 98 81 02 3d f7 ee 99 3d a9 3a 09 3d
       -0.043175742 0.03186187 0.07516282 0.03350321
0001e0 9f 16 03 3e e2 41 e9 3b 74 0a 5b 3d e4 f6 d9 bd
       0.12801598 0.0071184495 0.053476766 -0.10642794
0001f0 e6 78 84 bc 4e 74 33 bd 36 50 98 bd 18 9a 90 be
       -0.01617093 -0.04381209 -0.07437174 -0.28242564
000200 65 c7 4a 3d 47 a3 0e be ce a8 46 3e f3 f8 98 3d
       0.049506564 -0.13929473 0.19400331 0.07469358
000210 f9 c2 8d 3c 4c 71 3d 3d 38 81 00 be 5e 09 2b 3e
       0.017304884 0.046250626 -0.12549293 0.16702792
000220 81 6a ac bd 47 33 54 bc 1f 8b d6 bd e3 6a 88 3c
       -0.084187515 -0.012951679 -0.10475754 0.01665253
000230 df a2 38 3e 27 ee a4 bb a8 cd b0 bd 15 0c 33 3d
       0.1803088 -0.005033273 -0.08632976 0.043712694
000240 59 2a 3b 3e fa ea 91 bd f6 e4 ff bd e8 08 9c 3c
       0.18277873 -0.07124896 -0.12494843 0.019047216
000250 84 a6 86 3d ff 8a f8 3d ae da 16 bd 2f 7c 30 be
       0.06574729 0.121358864 -0.036829643 -0.17234872
000260 10 90 17 be da 05 89 be bf 72 e9 bd 35 75 ff 3c
       -0.14801049 -0.26762277 -0.11398839 0.031183818
000270 66 38 38 3e b1 d4 16 bd 6c bb 53 bd 66 4a 63 3c
       0.17990264 -0.036823932 -0.05169241 0.013872718
000280 f2 3d bd bc 2a 2f f4 bd 23 a5 e0 3d dd 56 e7 bd
       -0.023100827 -0.11923058 0.10968997 -0.11295865
000290 af 17 ae bc e1 fc f1 3c fe 81 82 3d 65 50 4b 3c
       -0.021251528 0.029539527 0.0637245 0.012409304
0002a0 c3 dd 06 3e d4 d7 d3 3d 03 cd f5 bd fe 9a db bc
       0.13170533 0.103439 -0.120019935 -0.026807304
0002b0 84 ab 69 3d b4 7a 49 3e 15 14 e6 3d 5e 90 13 bd
       0.057048336 0.19675714 0.11234299 -0.03602635
0002c0 6c 76 ed 3c 53 25 ee 3d 2b c5 3b be 7b 85 c1 3d
       0.028987132 0.11628213 -0.18336932 0.094492875
0002d0 fa 98 99 3d d5 86 0b be 52 b2 d1 bd 22 c5 18 3e
       0.07499881 -0.13625653 -0.1023909 0.1491895
0002e0 e5 d6 f4 3c 50 42 4d be 09 9f 9e bc 61 e7 0b 3e
       0.029887626 -0.20044827 -0.019362943 0.13662483
0002f0 e6 b8 39 be 75 0c 80 3c c1 e6 3f be 9d e4 ad 3d
       -0.1813694 0.01563094 -0.1874037 0.0849087
000300 fc 04 ac bc 44 94 4c bd df 91 b6 3d d2 4d fd bd
       -0.02099847 -0.049946085 0.089145415 -0.12368359
000310 20 85 3a 3d 03 3b a6 3d 36 f7 18 bd 08 94 dc bd
       0.045537114 0.08116724 -0.037345134 -0.10770422
000320 9f 83 53 bd 4b 59 91 bd f3 68 c2 3b 30 5b 91 bc
       -0.051639196 -0.070971094 0.005932921 -0.017743677
000330 ee a7 49 3e 8d c3 c4 bd 61 0f ed bd 0c 19 0f be
       0.19692966 -0.09607611 -0.11575199 -0.13974398
000340 42 6a bf bd 0e d0 b4 bd 04 7f ef 3d b4 6a f8 bd
       -0.09346439 -0.08828746 0.11694148 -0.12129727
000350 48 8f 8e be 0d 26 c0 bd 5f 5d 58 be 4a d6 ae bc
       -0.2784369 -0.093822576 -0.21129368 -0.021342415
000360 86 cd 1c bd 96 1e 17 3e 72 c6 54 bd d2 82 98 bd
       -0.03828194 0.14757761 -0.051947065 -0.07446827
000370 9f c1 10 be f6 93 26 be 19 02 65 bd 5a 52 e6 bc
       -0.1413636 -0.1626738 -0.055910204 -0.02811544
000380 49 b7 20 bd 1f c1 ff bc 05 f1 4e 3d 01 4a 90 3d
       -0.039237294 -0.031220017 0.050522823 0.07045365
000390 a7 3e 90 bc ee 77 ad 3d a4 05 b2 3d 55 86 0e 3e
       -0.017608 0.084701404 0.08692482 0.13918431
0003a0 73 a7 37 bc 57 cc d2 3d 94 e5 b1 3d d9 d7 35 be
       -0.011209357 0.10292881 0.08686367 -0.1775812
0003b0 26 19 44 3e cb 2b 38 bd 13 46 56 3e 42 db 87 bd
       0.19150218 -0.04496364 0.20925169 -0.06633617
0003c0 c8 b2 68 bd 0f 16 2f 3e 1a 98 a7 3c 62 51 1b 3e
       -0.056811124 0.17098258 0.02045827 0.15167764
0003d0 b8 1a b8 3c af 6a 61 be b3 99 15 be 4f c9 a7 3c
       0.022473678 -0.22013353 -0.14609413 0.020481734
0003e0 66 a7 aa 3d 0c a4 75 3d 66 ff 20 3e cf 8e 41 3e
       0.0833271 0.0599709 0.15722427 0.18902133
0003f0 67 8f 2a be bf 88 47 be d6 7b a9 3d 21 68 dc bd
       -0.16656266 -0.19485758 0.08275573 -0.107620485

rnn.bias_ih_l0 f4 [96]
000000 4a d2 ad 3d 60 65 be 3d 3b 29 11 3d 9b 7b b8 3d
       0.08487375 0.092966795 0.03543971 0.09007951
000010 e5 46 98 3d 4d b6 a9 3d 02 7a 8e 3c 11 24 77 bc
       0.07435397 0.08286724 0.017392162 -0.0150842825
000020 ee 35 da bd 64 6e da 3d 1e c2 31 bd c6 7f ba bc
       -0.106548175 0.106655866 -0.043398015 -0.022766005
000030 d1 7f 24 3e 45 e1 3f 3d 09 51 86 bc c0 f0 cf bd
       0.16064383 0.046845693 -0.016396062 -0.10153341
000040 fd c9 a8 bd 4c a5 1b be 49 41 43 bc b6 f9 86 3d
       -0.08241651 -0.15199775 -0.011917421 0.06590597
000050 4b 97 8c 3e 64 ec 29 3e 24 a0 45 bd 19 19 10 be
       0.27459177 0.16594082 -0.048248425 -0.14072074
000060 fe b6 d4 3c a9 3d fa 3d 1d 7d b5 bd 76 fd 12 3d
       0.025966164 0.12218792 -0.08861754 0.03588625
000070 18 25 44 3e d9 a2 2c 3e 88 2f 29 3e 58 30 2f be
       0.19154775 0.16858996 0.16522038 -0.17108285
000080 74 74 2b 3d 02 29 49 be 8c ef 38 bd 52 23 84 be
       0.041859105 -0.1964455 -0.045150325 -0.25808197
000090 b4 dc 09 be ac 4d 61 be a5 95 ee 3d a9 cd 37 be
       -0.13463098 -0.22002286 0.11649636 -0.17949547
0000a0 49 fe 48 be c3 96 39 be 50 bc e0 bc b1 91 77 bd
       -0.19628252 -0.18123917 -0.027433544 -0.060441677
0000b0 26 5f a2 bd ca 1b e9 bd 26 44 b9 3d 52 d0 d4 bd
       -0.079283044 -0.113822535 0.090462014 -0.103912964
0000c0 4f bd 85 bd 1e 2d e4 bd fe 88 88 bb c8 e0 19 bd
       -0.065302484 -0.11141418 -0.0041667214 -0.037567884
0000d0 31 86 9f bd db 6a 85 3e c5 59 02 3d 53 c1 9c 3d
       -0.07789267 0.26058087 0.031823892 0.07654061
0000e0 d8 50 ae bc 8f 98 a5 3d 07 9f 56 bc f0 51 8b 3b
       -0.021278784 0.08085739 -0.0130994385 0.004251711
0000f0 ff 7f 9b be 54 a6 1c be 65 78 0f be 98 ae ff 3d
       -0.3037109 -0.15297824 -0.1401077 0.12484473
000100 21 26 d3 bd 3d 0b a4 bd a9 b2 b5 bd dc dc 77 bd
       -0.10310007 -0.08009956 -0.08871967 -0.060513362
000110 67 e8 73 3d 73 91 10 bd d0 04 bb bd d9 23 82 bd
       0.059547808 -0.03529496 -0.09131777 -0.06354494
000120 8b d4 94 3d 54 1d c4 3d f6 be e1 bd c9 3b e3 3d
       0.07267102 0.095759064 -0.11022751 0.110953875
000130 7d 7d 8b 3d e5 6e 29 bd 58 5c b7 bc b5 22 ac 3c
       0.06811044 -0.041365523 -0.0223829 0.021012643
000140 ee 78 fe 3d 3c 7b 41 bd 07 6b 87 3d 16 c6 aa bd
       0.12425409 -0.047236666 0.06612211 -0.08338563
000150 f9 4f b8 bd e9 e3 ed bd e7 5d 06 bd 17 55 c4 bd
       -0.089996286 -0.11615736 -0.032804396 -0.09586542
000160 6c 42 7d bd 27 3c 9b 3d 95 c8 20 3e ea 6e 8f 3d
       -0.061830923 0.075798325 0.15701516 0.07003577
000170 0e 83 c4 bc 71 c9 de bd 3f 1f 39 3e 19 f1 c9 3d
       -0.023988273 -0.10878266 0.18078326 0.09860439

rnn.bias_hh_l0 f4 [96]
000000 96 e7 fe bc 73 51 aa bd 9e 87 26 3e a8 8f c4 bd
       -0.031116288 -0.083163165 0.16262671 -0.09597713
000010 f2 0a d7 3d c3 83 4d 3d 19 78 41 3e 4b 3b 40 3e
       0.105001345 0.050174486 0.1889347 0.18772618
000020 52 66 5e 3d 15 81 2e 3e c1 9b 23 3e 21 1b c1 3b
       0.0542968 0.17041428 0.15977384 0.0058931266
000030 7f 5a 19 3e e2 58 11 be c7 d6 28 3e a5 07 04 3b
       0.14975928 -0.14194062 0.16488181 0.0020146158
000040 85 89 0f be 02 d8 5a bd 4f 9c 32 be e9 ec 82 3e
       -0.14017303 -0.053428657 -0.1744244 0.25571373
000050 76 ed 94 3d 60 ed e9 3d c4 6e a7 bd c6 bc 15 3e
       0.072718546 0.11422229 -0.08175424 0.14622793
000060 c6 7e 33 be e0 13 a8 bd a2 da fa bd e9 00 0e bd
       -0.17528829 -0.08206916 -0.12248732 -0.034668837
000070 c4 24 51 3d 18 e6 0f 3e a0 37 3e bd ec b9 ad ba
       0.051060453 0.14052618 -0.046439767 -0.0013254262
000080 18 5b 21 3d a2 41 ce 3c b3 9a 4a 3d aa ab 28 be
       0.039393514 0.02517778 0.04946394 -0.16471735
000090 b9 33 a6 bd c4 d5 34 bd 29 91 41 3d bc d9 ac 3c
       -0.08115334 -0.044149175 0.047257576 0.021099918
0000a0 00 f9 7c be 7f 72 a4 3c 9e cf 31 bd b1 4e bc bd
       -0.24704361 0.020074127 -0.04341089 -0.09194697
0000b0 9a e5 22 be 64 63 78 be ae 74 fd bd 72 e4 c1 bc
       -0.15907899 -0.24256665 -0.123757705 -0.023668502
0000c0 4a 75 ba bb 74 a6 ce 3b 4f cc 95 bc d9 7e 56 ba
       -0.0056902515 0.006306464 -0.018285898 -0.0008182354
0000d0 d3 fd f4 bd 6a f9 3c 3e d8 50 dd bc a6 7a 0a bc
       -0.11962476 0.18454519 -0.027016088 -0.008452093
0000e0 bb 9a 8a be 9b fa 45 3e 4a 52 11 3e 39 c6 68 3c
       -0.27071175 0.1933388 0.14191547 0.014207416
0000f0 44 03 42 3c 7b aa 96 3d 96 40 67 be 94 4e 46 3d
       0.011841599 0.07356735 -0.22583231 0.04841478
000100 43 f4 c5 3d 70 5c a0 bd d0 23 0c be b8 f0 7a bd
       0.0966573 -0.07830131 -0.13685536 -0.061264724
000110 71 e0 e8 3d f7 7f cf bc 9b d6 f5 bd 74 54 e7 bc
       0.11370934 -0.025329573 -0.12003823 -0.028238513
000120 73 11 cb 3d 25 c4 0e bd ea a8 13 bc d4 44 3b bc
       0.099154375 -0.034855027 -0.00901244 -0.011429984
000130 9c 3f 1f 3e b9 b5 0f be cc 98 f0 3d c1 da d6 bd
       0.15551609 -0.14034165 0.11747894 -0.10490943
000140 90 4a d1 bd 37 f6 4a bd c2 c7 26 be b3 df 48 bd
       -0.102193 -0.049551215 -0.16287139 -0.04904146
000150 c9 a2 b5 3d 42 a2 10 be 51 f0 86 3d d0 34 e5 bd
       0.088689394 -0.14124396 0.065888055 -0.11191714
000160 40 8c 95 3d ae d9 84 3d 50 ae 30 be 3b 49 51 3d
       0.07302141 0.064868316 -0.17253995 0.05109523
000170 e8 6b 65 bc 73 b3 8c bd e8 f6 d3 3c 09 cb 3c 3d
       -0.014002778 -0.06870165 0.02587457 0.046092067

fc.0.weight f4 [32, 32]
000000 cb 27 2e be a4 01 03 3e b6 58 84 bd 59 b7 3a 3c
       -0.17007367 0.12793595 -0.06462233 0.011396253
000010 09 cf 62 3e d1 76 d8 3d e2 0c 9a bd 96 6a ae be
       0.2214929 0.105695374 -0.075219885 -0.34065694
000020 7c d4 a9 bd 49 ac 3e 3e 2c d8 d2 3d 2f 81 44 be
       -0.08292481 0.18620409 0.10295138 -0.19189905
000030 93 ee 8d 3e 9b 05 2d 3e 3e 64 47 3e 2d bc 2e 3e
       0.2772108 0.1689667 0.19471833 0.17063971
000040 f2 e4 79 bd fe ad 36 be 33 e5 ac 3d e1 a2 40 be
       -0.061009355 -0.1783981 0.08442154 -0.18812133
000050 bd 8e 5f 3e 10 50 be 3d 31 b7 96 3e c1 e8 60 be
       0.21831794 0.092926145 0.2943664 -0.21963789
000060 3e 0b 4e 3e 85 71 ef 3c 83 3f 85 3d 47 51 0e 3e
       0.20121476 0.029228935 0.065062545 0.13898192
000070 96 08 41 be 8f bb 5b 3e 47 25 ea 3c 0e e2 b3 be
       -0.18850932 0.21458267 0.028582228 -0.35133404
000080 de b4 9d bc ef 6b 1b 3e 4b f0 08 be a4 91 1c be
       -0.019251283 0.15177892 -0.13372914 -0.15289932
000090 a8 69 b2 3d bb 89 28 be 88 74 37 be db 2e 7e bd
       0.087115586 -0.1645879 -0.17915547 -0.062056404
0000a0 cb 6f da 3d 4c f0 f0 3a 1b 05 95 be d9 53 a5 3d
       0.10665854 0.0018382161 -0.29105458 0.08072633
0000b0 3b 8a 70 be 7a 1f 9e 3d 96 75 d1 3d 38 24 e3 bb
       -0.2349023 0.077208474 0.10227506 -0.006931808
0000c0 d1 07 8b be dc 93 0f 3e 95 29 8c 3e 32 1b c8 bd
       -0.271544 0.14021248 0.27375475 -0.09770812
0000d0 e7 a8 2f be 74 2d 2f 3e 91 1e 39 3e 20 96 cd 3d
       -0.17154275 0.17107183 0.18078066 0.100384
0000e0 e4 2e b3 3e af 56 cf 3e 76 1a 17 be b1 d1 07 be
       0.34996712 0.40495822 -0.14756188 -0.13263585
0000f0 d2 b3 92 bd a5 89 ad be 6f d2 9f be 65 09 ad bd
       -0.07163204 -0.33894077 -0.31215236 -0.084490575
000100 a1 f4 97 be 57 99 8f bd 44 33 95 3e 41 8f 59 3e
       -0.29678825 -0.07011669 0.29140675 0.21246053
000110 f6 6c 6b 3e 96 d8 03 be 60 75 5a 3b 56 99 23 3e
       0.22990784 -0.1287559 0.003333412 0.15976462
000120 91 4f f6 3d 77 bf 52 be 83 61 30 bd d2 66 cd 3e
       0.12026895 -0.2058085 -0.043061744 0.40117508
000130 a2 2c 7c 3d a9 68 86 be 22 70 b5 3e 35 2b 33 3e
       0.061566003 -0.26251724 0.35437113 0.17496951
000140 16 0b 28 be 1a b8 91 bc a0 81 ad bd 5c bd 32 be
       -0.16410479 -0.017787982 -0.0847199 -0.17455047
000150 c0 51 89 be 8f 94 ea 3d 58 a2 91 3d f4 83 47 be
       -0.26820183 0.114541166 0.07111043 -0.1948393
000160 05 84 8c 3c 75 8d 76 be 27 30 fa 3d 9b cd 74 3d
       0.017152796 -0.24077399 0.122162156 0.059766393
000170 02 5b 5e 3e 7f 28 ea 3c c3 19 e9 3d 58 cf b1 bd
       0.21714404 0.028583763 0.11381867 -0.08682126
000180 42 f6 1e bc d3 7e a6 3d 6e 36 45 3e 84 30 9e 3d
       -0.009702267 0.081296586 0.19259045 0.07724097
000190 7b 7b 89 be 14 2d 87 be 9d 2f 2c bc 72 53 9d be
       -0.2685202 -0.2640158 -0.010509399 -0.30727726
0001a0 69 0f 81 be 5b 01 95 bd 60 85 7f bd 1f f5 89 be
       -0.2520707 -0.07275649 -0.062383056 -0.26944825
0001b0 7b f7 48 be 4b dc c3 bd d8 a5 aa 3e 5e 2b 36 be
       -0.19625656 -0.09563502 0.33329654 -0.17789981
0001c0 9d 05 23 bd bc 82 e4 3d 60 a4 95 bd 63 64 58 be
       -0.039800275 0.11157748 -0.07306743 -0.21132044
0001d0 f0 65 c9 bd 0c 72 71 3e 98 6c 8f 3e ce 27 49 3e
       -0.09833896 0.23578662 0.28012538 0.1964409
0001e0 4d 55 89 be 12 79 c6 bd b4 0c 4a bd 0d 5e a3 3e
       -0.26822892 -0.09691061 -0.04932852 0.31907693
0001f0 3c 3a 41 be 19 a4 24 bc f8 2d ab 3d 20 9b f8 3d
       -0.18869871 -0.01004889 0.08358377 0.12138963
000200 45 13 22 be 8d d5 70 bd dc a4 16 bd 44 48 d0 3c
       -0.15827663 -0.058797408 -0.036778316 0.025425084
000210 63 70 4a 3e 1f a7 66 be f3 f4 b6 3c c2 73 88 bd
       0.19769435 -0.22524689 0.022333598 -0.06662704
000220 63 28 f4 3d 57 e0 81 be 4d 1a 19 bc 12 8b 87 bd
       0.11921766 -0.2536647 -0.0093446495 -0.066183224
000230 41 50 86 be 15 49 21 bd 8f 8c 3b 3d e2 e3 56 bd
       -0.26233104 -0.039376337 0.045788344 -0.05246342
000240 10 8b f0 3d a2 a9 a0 3c b6 5e b8 be ad b5 9c 3d
       0.11745274 0.019612137 -0.3600976 0.076518394
000250 1a 4f c7 3c 8e e3 44 be 40 ad d2 3d 96 3d 54 be
       0.02432971 -0.1922743 0.10286951 -0.20726618
000260 da 5c 17 be 6d db 80 3e 19 b9 ad be c2 77 9e be
       -0.14781514 0.2516741 -0.3393028 -0.30950743
000270 15 0b 2b be 6d 01 29 3e b6 1d d9 3c fd 75 c0 be
       -0.16703446 0.1650445 0.026503425 -0.37590018
000280 64 c4 d4 bd bc e8 58 3e bf ed 65 bd c1 6c e3 3e
       -0.10389021 0.21182531 -0.056134935 0.4441891
000290 f7 5e 8d 3d 0f 97 81 3e dd b0 26 3d 5c dd 0d bc
       0.06902879 0.2531056 0.040696014 -0.008658733
0002a0 c3 a6 88 3d 61 41 60 be 99 e4 ca bd 36 95 89 3c
       0.06672432 -0.2189994 -0.09906883 0.016794782
0002b0 d1 c0 49 bd e7 04 3b be b1 62 36 3e e9 36 25 be
       -0.04925615 -0.18263589 0.17811085 -0.16134228
0002c0 1b 38 89 3d 50 5e 03 bd 1d 58 7b bd 0b 3f 0b 3e
       0.067001544 -0.032072365 -0.06136333 0.13598268
0002d0 8a 16 f0 3e 26 9c e7 3d 6b 77 71 bd 87 d4 27 be
       0.46892196 0.1130908 -0.058951776 -0.16389666
0002e0 28 e3 2a 3e 07 4d 1a 3e 1f 55 37 be f0 85 83 3e
       0.16688216 0.15068446 -0.17903565 0.25688124
0002f0 3c e5 47 bd 43 00 90 bd 37 b9 96 bd 20 f3 93 3e
       -0.0488026 -0.070313 -0.07359546 0.28896427
000300 92 7a ad 3e d3 f3 ed 3d b0 43 ec bd 91 98 57 be
       0.33882576 0.116187714 -0.11536348 -0.21054293
000310 c4 d5 81 bd c2 07 40 3e 0f 0e dc 3d 7a fd 11 3e
       -0.06339601 0.1875296 0.10744869 0.1425685
000320 8c c3 d2 bc 94 16 8d bc 4f 8e 00 be d4 5d d9 bd
       -0.02572801 -0.01722268 -0.12554286 -0.106135994
000330 3c 85 99 3e 93 6e bc bd 60 e4 6e 3e 6b 7a 0f bd
       0.29984462 -0.09200778 0.23329306 -0.035028856
000340 9c b6 42 3d 8f bf 9b be d9 d8 ba be 6b 10 b0 3d
       0.04753743 -0.30419585 -0.36493567 0.085968815
000350 e8 6a fd bd 43 cb 83 bd 8a 0f 65 bc d6 01 44 3d
       -0.123739064 -0.064352535 -0.013980756 0.047853313
000360 1e 49 20 3d ca da c8 bd d8 82 ce bd 70 b6 dc 3d
       0.03913223 -0.09807356 -0.1008355 0.10776985
000370 10 9f c9 bd 9a c0 f4 be 67 c0 17 3e 22 8f 89 be
       -0.09844792 -0.47803193 0.1481949 -0.26867014
000380 c9 0b 3c bd fa fb 44 3e 5e 6e 8a bd c3 7e fc bd
       -0.045909677 0.19236746 -0.06759332 -0.123288654
000390 c8 44 e3 bd 5b ce fc bc 21 7f 54 bb 4e b5 96 bb
       -0.11097103 -0.030860117 -0.0032424408 -0.00459925
0003a0 3b 42 08 3e dd 67 07 3e 85 a8 b6 be f1 6c 9d be
       0.13306515 0.13223214 -0.35675445 -0.30747178
0003b0 51 27 83 3e db bd 85 be f8 98 79 3d 3f a8 8d 3e
       0.25615934 -0.2612141 0.060936898 0.27667424
0003c0 b7 19 3d be 47 a4 8c 3e c4 87 11 be a5 9b 23 bd
       -0.1846684 0.27469084 -0.14211947 -0.039943356
0003d0 71 df 7b 3e 84 e7 9e 3e ae df 97 bd cc 45 df ba
       0.24596955 0.31036007 -0.074157104 -0.0017034351
0003e0 b3 23 09 be e8 71 39 be 5c 4a 46 be 49 90 44 be
       -0.13392524 -0.18109858 -0.19364303 -0.19195665
0003f0 e5 e7 48 3e 26 76 8d 3e 06 9c fb bd 8f 1d 63 3c
       0.1961971 0.27629203 -0.122856185 0.013862028

fc.2.weight f4 [2, 32]
000000 7e 1d 64 3c 3a 08 0e be 13 fa 61 3e ba 65 89 3e
       0.013923047 -0.13870326 0.22068052 0.26835424
000010 30 64 94 bd 0e 35 de 3e c4 13 53 bd 97 32 19 3e
       -0.07245672 0.43399853 -0.05153252 0.14960705
000020 93 b3 00 3d c6 00 70 bd 4c 99 31 be af cb 05 3e
       0.031421255 -0.058594488 -0.17343634 0.1306598
000030 09 57 d9 bd f1 8f 4a 3e 6b 20 22 be e1 13 17 be
       -0.10612304 0.19781472 -0.15832679 -0.14753677
000040 c2 d5 b2 be 08 77 20 be f7 ef 83 be 18 e7 4f be
       -0.3492871 -0.15670407 -0.25769016 -0.20302999
000050 a1 10 28 3d 75 b6 a0 bd e1 bf 46 3e be 01 ab 3e
       0.041031484 -0.07847301 0.19409133 0.33399767
000060 55 22 7e be 0a 36 a4 bb 06 ec 9e 3e 98 1e dc bd
       -0.24817784 -0.005011325 0.31039447 -0.10748023
000070 b3 4d 10 be 5d b2 bc 3d 27 a8 88 be f2 dc 8f bd
       -0.1409214 0.092137076 -0.2669079 -0.07024564
000080 0b c1 fa 3d ea 01 a1 3d c1 89 9b 3d f7 f3 34 3e
       0.12243851 0.07861693 0.07594634 0.1767119
000090 ec 7f e8 3d 7f 02 42 3e 4e df d8 bd 09 a4 3f 3e
       0.11352524 0.18946265 -0.10589467 0.18714918
0000a0 69 b4 75 3d b1 47 49 be e9 70 3e be c1 ca e0 3c
       0.059986506 -0.19656254 -0.1859776 0.02744043
0000b0 e4 5b 81 3e e8 c5 1d 3d 60 4c 87 3e 2c 51 88 3e
       0.2526542 0.038518816 0.26425457 0.2662443
0000c0 9c 68 9f 3e 36 f9 07 be 91 db 87 3c 46 7c de 3d
       0.31134498 -0.1327866 0.01658419 0.10863547
0000d0 97 21 0f 3e 74 12 52 be e3 65 bb be af cc 28 3e
       0.13977657 -0.20514852 -0.3660117 0.1648433
0000e0 49 a1 8c be 2f f9 44 3e 39 11 24 3e 8c 01 88 be
       -0.274668 0.19235681 0.16022195 -0.2656368
0000f0 65 74 54 3e 2c e7 24 bd 71 2d b6 3e a8 25 0c 3e
       0.20747526 -0.040259525 0.35581544 0.1368624

ode_net.grad_module.0.weight f4 [32, 37]
000000 d2 5d 89 39 5b b0 27 3e a8 f4 38 3c ac ed bb bd
       0.00026200578 0.16375868 0.011288799 -0.09176192
000010 52 10 ee bd 9c 5c 1a be f3 0c ff 3d 7a 35 0e be
       -0.116242066 -0.1507439 0.12453642 -0.13887587
000020 09 6c 21 be c0 7a 03 be 07 28 34 3e 09 e1 0d 3e
       -0.15763868 -0.12839794 0.17593394 0.13855375
000030 af 94 31 3d c6 d8 09 be 28 9b aa bd 5a f6 1b 3e
       0.043354686 -0.13461599 -0.08330375 0.15230694
000040 43 8e 14 be 13 5c 6e 3d c0 de ee 3c 2d 43 e9 bd
       -0.14507394 0.058193278 0.02915895 -0.11389766
000050 35 4e dd bc cb f0 03 be a8 83 0b 3e 34 09 da bd
       -0.027014831 -0.12884824 0.13624442 -0.106462866
000060 0b 4d f3 bd 25 18 b0 3d 63 a7 f8 bc 13 58 13 be
       -0.11879929 0.08598355 -0.030353254 -0.14389066
000070 a7 c2 c9 3d 5b 8a 18 be b5 5b ab bc b3 16 10 be
       0.0985158 -0.14896528 -0.020917753 -0.14071159
000080 ab d4 84 3d 14 61 b9 bd 80 07 11 be a0 f9 33 be
       0.06485876 -0.09051719 -0.14163017 -0.17575693
000090 7b 05 ec bd 7c 7a b2 bc ed b3 e3 3c 03 0c df 3d
       -0.11524483 -0.02178692 0.027795756 0.10890963
0000a0 d1 d8 1b bc fd 9c ca 3d f7 14 13 bd ca 90 d5 3d
       -0.009512142 0.098932244 -0.035908666 0.10428007
0000b0 15 53 1c 3d c8 69 6b 3c b0 6d 80 bb 05 b3 21 be
       0.03816517 0.014368482 -0.003919326 -0.15790947
0000c0 6e 2f a9 3d a6 26 ed 3d 42 c2 01 be 57 5a a3 3c
       0.082609996 0.11579637 -0.1267176 0.019940538
0000d0 93 8f 1e 3e 6f db df bc 35 8a 41 bd 5f 71 cf 3d
       0.15484457 -0.027326314 -0.047250945 0.10129046
0000e0 e0 e7 1d 3b 27 4a 04 be 19 b0 83 bd a0 9e 88 bd
       0.0024094507 -0.12918912 -0.06430072 -0.0667088
0000f0 cd 39 88 3d 56 7c 29 3d 2e 16 47 3d 64 7f ab bd
       0.066516496 0.04137834 0.048605137 -0.08373907
000100 b6 f6 d9 3d 60 63 78 bd 1f 15 28 be 69 c1 0d be
       0.106427595 -0.060641646 -0.16414307 -0.13843311
000110 12 b2 28 3c 92 83 d8 bd 9f ef 96 bd e3 0e 1c bd
       0.0102963615 -0.1057197 -0.07369923 -0.038100135
000120 c3 72 00 3e f3 4f 95 3d 73 6c fd 3d 6d f4 fa bd
       0.12543778 0.0729064 0.12374201 -0.12253652
000130 5c aa 54 bd 6b 7a c0 3d 14 c5 87 bd aa 05 13 be
       -0.05192028 0.093983494 -0.066293865 -0.1435763
000140 c2 6d 5f bd c5 bb 14 bd c8 c1 e8 3d 47 a1 07 be
       -0.054548033 -0.036311883 0.11365086 -0.13245116
000150 f1 a0 26 3e 47 4c dc bd d6 dc 90 3d 1a cd 24 be
       0.16272332 -0.10756736 0.07073371 -0.16093865
000160 49 cf 44 be a0 95 0d 3e 99 17 02 3b 52 c0 10 3e
       -0.19219698 0.13826609 0.001985049 0.14135864
000170 15 86 3d bd da 04 2f 3c da c1 f2 bc d4 b5 ea bd
       -0.04627045 0.010682309 -0.029633451 -0.11460462
000180 b5 07 39 3e c5 6a e6 3d d2 5f aa bd f1 96 a0 3b
       0.18069346 0.112508334 -0.083190575 0.004900806
000190 d3 d7 93 bc ba 14 52 bd 8c e4 12 be 22 3d f5 bc
       -0.018047249 -0.051289298 -0.14344996 -0.029936377
0001a0 15 3f da 3d 10 4f c0 3b 92 76 07 bc 94 26 15 3e
       0.10656563 0.0058688 -0.008268015 0.14565498
0001b0 81 3e a5 3c df ef 06 bd 9b 87 8f 3c 33 3c 08 bd
       0.020171406 -0.032943603 0.017520716 -0.033260535
0001c0 8d df 72 bd e9 aa 08 be f9 dd 45 3d 3e 66 d8 3d
       -0.059295226 -0.13346447 0.048307393 0.10566376
0001d0 96 8b a0 bd 85 37 76 3c fb 00 04 bd 6d 66 4d bd
       -0.07839124 0.015027885 -0.032227498 -0.05014651
0001e0 42 18 a4 3d f7 db dc bd 94 fb 11 3e ea bd 93 3c
       0.08012439 -0.107841425 0.14256126 0.018034894
0001f0 1b 6f e5 3d f5 8d fa bd 5b 63 e5 bd 48 b7 83 3d
       0.11202832 -0.122341074 -0.11200591 0.064314425
000200 f6 2f 1b be 5e d0 23 3e ff d7 8c bd 6f 50 1d be
       -0.15155014 0.15997455 -0.068771355 -0.15362714
000210 aa 1d 39 bd c6 d1 14 3e 29 1e 10 3e 98 3d 30 be
       -0.045194305 0.14533147 0.14074005 -0.17210996
000220 fd 7d c7 3b 1a f0 1b 3c 3e a2 15 3e 47 be dc 3d
       0.006088017 0.009517694 0.14612672 0.1077848
000230 2a 1e c7 3d 17 e2 83 bc 0f 17 1c 3d 2d c9 f4 bd
       0.0972255 -0.016099019 0.038107928 -0.11952434
000240 49 74 eb bd aa d0 ef 3b 9e 6e 9b 3d 22 fa 18 bc
       -0.11496789 0.007318576 0.07589458 -0.00933698
000250 24 b6 fb 3b 9f 69 00 be 68 e6 18 be 2b b8 f7 3d
       0.007681625 -0.12540291 -0.14931643 0.12095674
000260 22 0b d0 bc 95 94 8e bd c1 2b ae 3d 23 eb ce bd
       -0.025395934 -0.069619335 0.08504439 -0.101034425
000270 ea 04 27 3d d2 eb 6f 3d 5d 9c 2c 3d 83 20 b7 3c
       0.04077617 0.058574505 0.042141307 0.02235437
000280 c6 45 04 bd d5 ce 13 be c1 5f d8 bd 54 c3 de bd
       -0.032293104 -0.14434369 -0.105651386 -0.108771
000290 f5 41 8d 3d 3c c2 cc 3d 19 01 1b be b7 c1 17 be
       0.06897346 0.09997985 -0.15137137 -0.1481999
0002a0 4b dd 64 3d 3b 81 a1 bd e2 f0 db bd b1 be 01 be
       0.055875104 -0.07885977 -0.10739304 -0.12670399
0002b0 1a d4 57 3d 8a 7a 56 ba b3 17 00 3e 98 7f 9e 3c
       0.05269251 -0.0008181712 0.1250904 0.01934795
0002c0 31 96 df 3d 62 d5 b1 3d 6d 54 05 3d 14 10 cc 3d
       0.109173186 0.08683278 0.032551218 0.09964004
0002d0 49 be 12 3e 08 0b cb bd dc 3a 26 3e dd 74 5e bb
       0.143304 -0.099142134 0.1623339 -0.0033944168
0002e0 10 1d 3d bc 9c 81 1f 3e 0d 92 a3 3d 44 39 3d bd
       -0.011542574 0.15576786 0.07986841 -0.04619719
0002f0 fe 40 0e bb af a1 ba bd c3 92 14 3e 3d cf 52 3d
       -0.0021706219 -0.0911287 0.1450911 0.05146717
000300 24 9f d2 3b 6f 79 10 3e e1 30 c4 3d 52 a5 70 3d
       0.0064276624 0.14108823 0.095796354 0.05875141
000310 c4 49 f5 bd 8e 0a e4 bd 9c 50 64 3b f5 3e 21 3d
       -0.1197696 -0.11134826 0.0034838086 0.03936668
000320 83 05 59 bc be 95 cb 3d 21 f0 0e 3e 16 ec 0b 3e
       -0.013245943 0.099406704 0.1395879 0.13664278
000330 d0 d7 0c 3e 22 81 11 bd 4a 84 f1 bd 48 42 aa bd
       0.13754201 -0.03552354 -0.1179281 -0.083134234
000340 aa 96 89 3d 7e 7d 46 bc 2c 40 48 bd 9b 68 04 be
       0.0671819 -0.012114881 -0.048889324 -0.12930529
000350 47 42 80 bd 4d 9e 88 3c 90 10 f7 bd 63 4c 51 bd
       -0.062626414 0.016677046 -0.12063706 -0.05109824
000360 f9 3f 1a 3e d2 5e 38 3e 55 06 32 3e d8 62 1c be
       0.15063466 0.18004921 0.17385228 -0.15272081
000370 c3 0a ae 3c 32 49 c0 bd 17 c3 6c bc 39 4e 8b bd
       0.021245366 -0.09388961 -0.01445081 -0.06802029
000380 93 51 09 3e 0e 21 cf 3d ba 9b 00 3e b5 2d 10 bd
       0.13410024 0.101137266 0.12559405 -0.03519984
000390 6d 42 8d 3c c2 6e 8c 3d a6 bd b2 bd a6 1b e8 bd
       0.017243588 0.06857063 -0.08727579 -0.113333985
0003a0 a1 02 1b 3e 36 0d 84 3a c8 80 14 be d1 6e 83 bd
       0.15137722 0.0010074738 -0.14502251 -0.06417621
0003b0 9f bf ce bc 41 97 4b 3d 53 16 04 be 39 1a b6 bc
       -0.025237856 0.049704794 -0.12899141 -0.0222293
0003c0 d7 81 95 3d 3b 39 04 be 7f ea e5 3b 7c 7a 6b 3d
       0.073001556 -0.12912457 0.0070164795 0.057489857
0003d0 7f 8d 44 bd 6a e1 31 3d 67 78 70 bd 3f 99 af 3d
       -0.047986504 0.043427862 -0.058708575 0.08574151
0003e0 6c 82 f1 bd f9 f2 6b 3d 85 c6 28 be 3a 61 b9 3d
       -0.11792454 0.057604764 -0.16481979 0.090517476
0003f0 73 7b 77 bb 19 a6 fb bc 0b 89 22 3d b0 1d b0 3d
       -0.003776279 -0.03071885 0.039681476 0.085994124

ode_net.grad_module.0.bias f4 [32]
000000 9d 80 b6 bc f8 37 0e be 66 26 01 bd 4f 8d 85 bd
       -0.022278124 -0.13888538 -0.03153076 -0.06521093
000010 7f 1b 04 be 8d e3 41 3c 2d 71 cc 3d bf e8 0b 3e
       -0.12901114 0.0118340375 0.09982524 0.13663004
000020 31 fe fe bd a0 13 2a bd 5c d4 4b 3d 0a ee 64 bd
       -0.12450827 -0.041522622 0.04976307 -0.055891074
000030 6d ef 04 3e d0 7d 1c 3e 5e f9 b3 3d 35 a9 af 3d
       0.12981959 0.15282369 0.087877974 0.085771956
000040 2e 3e 07 3d 9d 38 45 3d ad 38 07 3d e0 5e ee 3d
       0.033018284 0.048149694 0.033013035 0.1163919
000050 73 24 d4 bd be 16 44 bd 88 f2 14 be 8c 91 0b bd
       -0.10358515 -0.04787325 -0.14545643 -0.03407435
000060 78 9e e3 bd 1c 3a bd 3d 92 01 c8 ba 87 22 0f be
       -0.1111421 0.09239599 -0.0015259257 -0.13978015
000070 d8 77 08 bc ab 0a 6d bc c4 12 33 3e 07 39 1a 3e
       -0.008329354 -0.0144678755 0.17487627 0.15060817

ode_net.grad_module.2.weight f4 [32, 32]
000000 0a c3 b4 3c ce b3 f1 3d a7 2b 22 3c 4d 45 46 3c
       0.022065658 0.11801873 0.009898103 0.0121014835
000010 9e 36 6f bd 52 01 f7 3d 4e 09 8f bd a6 bc 96 bb
       -0.058401696 0.12060799 -0.069841966 -0.0046001254
000020 dd ea 8e 3d 34 5c 21 3e 5c e1 cd bc 75 7f c1 bd
       0.0697839 0.15757829 -0.025131874 -0.094481386
000030 f9 85 a3 3d 68 75 20 3e de e3 da bd 6b 40 1b be
       0.07984538 0.15669787 -0.106879935 -0.15161292
000040 c9 85 a3 bd 54 c9 cd 3a b8 4b 30 3e fc d8 ec 3d
       -0.07984502 0.0015700259 0.17216384 0.11564824
000050 b8 af 2b be 16 64 01 be 7d de fd bd 8b 43 e6 3b
       -0.1676625 -0.12635836 -0.12395952 0.0070270947
000060 f9 85 c6 3d f5 47 6d bd 89 33 97 bd 22 d4 2a bc
       0.09693522 -0.05792995 -0.073828764 -0.010426553
000070 a8 34 3a bd 45 b2 ae bc d4 bd c8 bd 58 6b 3c 3d
       -0.045460373 -0.02132524 -0.09801832 0.04600081
000080 17 f6 1b 3d 88 01 1a be c3 13 df bd 84 94 df bd
       0.038076486 -0.15039647 -0.10892441 -0.10916999
000090 09 83 0d 3d 01 1c 82 3d 5d f3 15 bd b9 d0 1f 3e
       0.034548793 0.063529976 -0.036609042 0.15606965
0000a0 b9 34 9c 3d f0 21 26 bd d6 b5 39 be 90 71 13 bd
       0.076272435 -0.04055971 -0.18135771 -0.035996974
0000b0 83 19 9b 3d 6e b0 22 3e 76 00 94 3c 3e 8e 01 3e
       0.07573225 0.15887615 0.018066626 0.12651917
0000c0 43 44 0a be 8c ac 30 bd 5b 60 60 3d 46 0e a4 bd
       -0.13502602 -0.043133304 0.05477939 -0.08010535
0000d0 8e 67 e9 bd 71 b7 df 3d 64 b8 72 bd 67 ff 37 3e
       -0.113967046 0.109236605 -0.05925788 0.17968522
0000e0 0b bb 00 3e 07 20 a0 3d 97 79 af 3d 7c 60 6a 3d
       0.12571351 0.07818609 0.08568113 0.05722092
0000f0 1e d2 8e 3d cb a6 0a 3b 38 78 d3 bb 72 14 7e bd
       0.069736704 0.0021156545 -0.00645354 -0.062031217
000100 db a0 2f be 1a 0b 01 be c2 ef af bd 72 40 8c bd
       -0.17151205 -0.12601891 -0.08590652 -0.068482295
000110 cd ed 1d 3c 1f 79 b0 bc a9 49 b0 3d df 8a a7 bd
       0.009639216 -0.02154213 0.086077996 -0.081807844
000120 57 66 dc bc d1 84 21 be 46 ce f4 bc 78 01 0d be
       -0.026904268 -0.15773322 -0.029883515 -0.13770092
000130 fb 26 30 be 92 90 27 3e 30 60 b0 3d 0a 28 4b 3e
       -0.1720237 0.16363743 0.08612096 0.19839492
000140 9c 13 9a bd ce 5a 65 3d ec dc 8e 3d 60 d9 67 3c
       -0.075232714 0.0559948 0.06975731 0.014150947
000150 66 23 11 be cc e2 c8 bd 5b 7c 37 3c fd 83 39 be
       -0.1417366 -0.09808883 0.011199082 -0.18116756
000160 f0 06 34 3e dc 5a d4 3d 30 50 b1 3c 4c 10 35 3e
       0.17580771 0.103688926 0.021644682 0.17681998
000170 23 41 37 be 41 51 be 3b e4 37 26 bd 47 71 ea 3d
       -0.17895941 0.005808026 -0.040580645 0.11447387
000180 0e 93 c7 3d 41 0d 17 be 0d 79 c5 3c 2d cb 12 3d
       0.09744845 -0.1475115 0.024105573 0.035838295
000190 9d 02 2a 3e 56 78 14 be d7 5a d5 bc 9f 14 24 be
       0.1660256 -0.1449903 -0.026044292 -0.16023491
0001a0 fd ba 09 3e 27 bd a6 bd dd ba 0c 3e 36 83 13 3e
       0.13450237 -0.08141547 0.13743158 0.14405522
0001b0 fd b7 29 3e e8 3f 09 be 2f db cf bd 65 15 d8 3c
       0.16574092 -0.13403285 -0.10149228 0.02637739
0001c0 26 59 92 bc 95 03 0f 3e 67 a2 b2 3d f4 a2 e7 3d
       -0.017864775 0.1396621 0.08722382 0.11310378
0001d0 5e af f7 3d 7f b4 04 3e 8c 84 29 3e 7c 18 ad bd
       0.120939955 0.12959479 0.16554469 -0.08451936
0001e0 9c df dc 3d b4 2e 01 be 7b ca 06 3c b3 d9 fb bb
       0.107848376 -0.12615472 0.008226986 -0.007685864
0001f0 6f 70 cc 3d 9f 7b cc 3d d9 f5 25 3e 09 81 22 bd
       0.099823825 0.09984516 0.16207065 -0.03967384
000200 37 fe 76 3d ee 97 00 be a6 11 a8 3d ea 58 20 3e
       0.060301032 -0.12557957 0.08206491 0.15658918
000210 58 12 0f be 54 ed 28 3d 36 1d e7 bd 01 f8 ce 3d
       -0.13971841 0.04124196 -0.112848684 0.10105897
000220 2b 69 19 3e 2a 36 cf bd 4b c4 26 bc e5 85 2d be
       0.14981525 -0.10117753 -0.010178636 -0.16945608
000230 99 e6 24 3e ed b2 79 bd e0 ef f8 bd 96 5e 1e 3d
       0.16103591 -0.060961653 -0.121551275 0.038664423
000240 f6 35 f9 bd 50 6a 97 bc 39 20 b0 3d c9 47 31 3d
       -0.12168495 -0.018483311 0.08599896 0.04328135
000250 fd c3 b8 bd 4e 0a 86 3d 9d 54 6d 3d f4 0e 38 be
       -0.09021757 0.06544934 0.05794202 -0.17974454
000260 fd 82 7d 3d 86 44 32 3e 62 d1 eb 3d c1 a0 f5 bd
       0.0618925 0.17408952 0.11514546 -0.11993552
000270 79 aa 95 bd 5a 6a 41 3d f6 7b a4 bd 46 e0 94 3d
       -0.07307906 0.047220565 -0.08031456 0.07269339
000280 5f c5 37 3e 5d 03 17 bd 10 25 e2 bd ce c6 8c bb
       0.17946385 -0.03686844 -0.11042225 -0.0042961603
000290 7d f3 50 3d 78 cc e4 bc 98 81 35 bd 16 d0 31 3d
       0.05101346 -0.02792953 -0.044313043 0.043411337
0002a0 1c b5 cb 3c 7b ca 39 3e 2c ec 46 3d 5e 65 07 bd
       0.024866633 0.18143646 0.048565075 -0.033055656
0002b0 bb 93 bc 3d 7e 3c 1e 3d 03 51 bc bd f8 14 13 3e
       0.09207865 0.03863191 -0.09195139 0.14363468
0002c0 36 38 0c 3e a1 4b 89 bc b6 54 3c 3e 2c 09 65 bd
       0.13693318 -0.016759695 0.1839169 -0.05591695
0002d0 26 f1 5f bc b5 aa 09 be 54 89 b1 3d 81 bd 3a 3c
       -0.013668334 -0.13444026 0.086687714 0.01139772
0002e0 bb 55 23 bd 0a d4 1e 3e 2d 58 de 3c 9b 70 38 be
       -0.03987668 0.15510574 0.027141655 -0.18011706
0002f0 a9 ad 27 3e 0f 40 6c 3d 17 ff 9e 3d e3 9b bd 3d
       0.1637484 0.05767828 0.07763498 0.09258249
000300 2e af 0b 3e f7 7f 67 bd 71 a5 1b 3e 60 63 cb 3d
       0.13641044 -0.05651852 0.1519983 0.09931064
000310 81 bd 83 bd e8 df 0d bd 4a 57 df bd cc 10 ab bd
       -0.064326294 -0.03463736 -0.10905321 -0.08352813
000320 e9 67 53 bb a2 27 2b be 71 1d a5 bc ad ee 37 bd
       -0.003225798 -0.16714337 -0.02015564 -0.044905353
000330 2c 8f be ba 2b 83 e8 3d 91 5b 48 be 76 4e 6b bd
       -0.0014538518 0.11353143 -0.1956618 -0.057447873
000340 3b 1e 1f 3e 6f ba af bd 1b 78 46 3d c7 df cd bd
       0.15538876 -0.08580481 0.048454385 -0.10052448
000350 88 0c 0b 3c aa 9f 09 3e 68 74 d6 bd bf 1d 10 3e
       0.008486874 0.13439813 -0.104714215 0.14073847
000360 c6 ba 12 3d d0 91 be bd a7 95 02 be 47 e5 95 3d
       0.035822652 -0.09305155 -0.127524 0.07319122
000370 6d a5 5f 3c ba b9 2d be 14 c6 0f 3e f0 40 2a be
       0.01365028 -0.1696538 0.14040405 -0.16626334
000380 1b 0d 55 bd ea 75 06 3e 69 6a af bb e4 d5 89 3d
       -0.05201445 0.13130918 -0.0053532613 0.067302495
000390 e7 f9 df 3d f8 e5 0f be 55 10 38 be d2 4d ac bc
       0.10936337 -0.1405257 -0.1797498 -0.021033201
0003a0 80 8c 1b 3d f4 0e 41 3e 56 4a a0 3d aa 5e 05 be
       0.037975788 0.1885336 0.078266785 -0.13024393
0003b0 9a cd 21 3e 03 cc 1a be 03 66 fe bc 54 5a df bd
       0.15801087 -0.15116887 -0.031054502 -0.109059006
0003c0 b6 ca 16 3e 04 f6 36 be a1 33 ad 3d 15 a6 b7 bd
       0.14725766 -0.17867285 0.08457113 -0.089672245
0003d0 7a fe 07 be 1e 05 d2 bd 90 77 2e 3e df ca cc bd
       -0.13280669 -0.10254882 0.17037797 -0.09999632
0003e0 cd 5c 3a 3d 88 3d fe bd da f6 89 3d 54 21 11 3d
       0.045498658 -0.1241408 0.06736536 0.035432175
0003f0 39 4c 4f bd 98 26 8f 3c 79 76 33 3e fa e8 0c be
       -0.0506098 0.017474458 0.17525662 -0.13760749

ode_net.grad_module.2.bias f4 [32]
000000 99 00 10 be c3 3e fa bd 98 38 bf 3d d7 ed c5 bc
       -0.14062728 -0.12219002 0.09336966 -0.024161262
000010 a8 45 98 3c b6 56 b1 bd fe 45 fa 3d 03 6e 83 bd
       0.018587902 -0.08659117 0.12220381 -0.064174674
000020 0c c2 69 3b 87 9f 24 bd 5a 0d f0 3d 2e 01 9b bc
       0.003566864 -0.0401912 0.117212966 -0.018921461
000030 61 1d b3 3c 92 2d c7 3d 9a fd 81 bd cb a8 c4 3d
       0.021864595 0.09725489 -0.06347199 0.09602507
000040 b5 38 11 3e af 7c a9 3d 16 44 15 3d f0 c4 16 3e
       0.14181788 0.08275735 0.036441885 0.14723563
000050 f3 39 be 3d fd b8 c7 ba fb 04 8f bc 2d 2b 9f bd
       0.09288397 -0.0015237626 -0.01745843 -0.07771907
000060 9a 56 27 be 72 be 95 bd 69 5c 12 be 29 8e 92 bd
       -0.1634163 -0.07311715 -0.14293064 -0.07156021
000070 6e 79 f2 3c 64 e4 17 3e 1d 27 22 be 5c 3c ad bd
       0.029598918 0.14833218 -0.15835233 -0.08458778
