ckpt/asrnn_nodiff_h16/best.pth (torch_old, 19464 bytes, 28 tensors)

rnn.weight_ih_l0 f4 [16, 7]
-0.07014753 -0.045943476 0.03035592 -0.029270602 -0.24571864 0.2676342 -0.08477936 -0.020857625
-0.013422051 -0.19673093 0.058089525 -0.15590279 0.14979744 -0.008112226 -0.01712103 0.06986013
-0.06776888 0.011857484 -0.033863917 0.29322204 0.08110286 0.06457605 0.016844023 -0.010392157
0.106762946 -0.14448966 0.11549525 -0.3914255 -0.052746028 -0.03257535 -0.15453924 0.0898367
-0.025054792 -0.19715303 -0.08315059 0.11623356 -0.13337867 -0.055909734 0.09181894 -0.03882936
0.36358252 0.14104371 0.28548673 -0.07972773 0.15234287 0.05049395 0.0030313751 -0.05756134
0.34986734 0.127896 0.015079974 0.12180391 0.027066775 0.08605253 0.300907 0.24860224
0.053852156 -0.03447394 0.22111127 0.062394906 0.10295151 0.15403849 -0.26545012 -0.072042055
0.14380632 -0.08588106 0.06213272 0.16509277 -0.18212497 0.11441712 0.16043742 -0.17172538
-0.0814937 0.11105286 0.23273285 0.314076 0.34802103 -0.06007461 -0.015623638 -0.040214695
0.0492345 -0.0845461 -0.4163795 0.12591644 -0.13320829 -0.08212997 0.12885956 -0.14437407
-0.21949165 -0.18903756 0.17256632 -0.10722185 0.13204275 -0.113324225 -0.18819618 -0.013719698
0.07250752 -0.45081958 -0.18817554 -0.09427462 -0.026509328 0.11061002 0.0010173611 0.060967747
-0.19438717 0.06243078 -0.1689326 0.042855963 0.008404323 -0.16505598 -0.31919608 0.03415608
00000000: 82a9 8fbd 3a2f 3cbd faac f83c e7c8 efbc
00000010: ab9d 7bbe 5a07 893e cda0 adbd 9cdd aabc
00000020: 2ae8 5bbc d573 49be 48ef 6d3d fba4 1fbe
00000030: 8064 193e 24e9 04bc 6741 8cbc d412 8f3d
00000040: 69ca 8abd e445 423c e4b4 0abd 3321 963e
00000050: 4219 a63d 7340 843d 7afc 893c de43 2abc
00000060: 88a6 da3d 19f5 13be c688 ec3d ec68 c8be
00000070: 380c 58bd bb6d 05bd 893f 1ebe 4efc b73d
00000080: b53f cdbc 7ce2 49be db4a aabd dc0b ee3d
00000090: 6b94 08be 9b01 65bd 920b bc3d 890b 1fbd
000000a0: 7d27 ba3e c36d 103e 512b 923e 4b48 a3bd
000000b0: c5ff 1b3e bed2 4e3d 09aa 463b 71c5 6bbd
000000c0: d021 b33e 2bf7 023e ff11 773c 5474 f93d
000000d0: 24bb dd3c 4f3c b03d 7b10 9a3e 9691 7e3e
000000e0: 1494 5c3d 8c34 0dbd fe6a 623e cd91 7f3d
000000f0: 3ed8 d23d 44bc 1d3e 14e9 87be c98a 93bd
00000100: f741 133e 69e2 afbd e17e 7e3d 140e 293e
00000110: f87e 3abe 8653 ea3d b549 243e c7d8 2fbe
00000120: 2be6 a6bd af6f e33d 8551 6e3e 92ce a03e
00000130: d02f b23e cb10 76bd 4afa 7fbc 2ab8 24bd
00000140: 1daa 493d 8126 adbd b22f d5be 3df0 003e
00000150: c167 08be c233 a8bd c3f3 033e ccd6 13be
00000160: 6bc2 60be 1093 41be 3ab5 303e 2197 dbbd
00000170: 3736 073e 8816 e8bd 80b6 40be 96c8 60bc
00000180: d37e 943d d3d1 e6be 17b1 40be 0d13 c1bd
00000190: 172a d9bc 8287 e23d f958 853a 51b9 793d
000001a0: 6e0d 47be 6bb7 7f3d abfc 2cbe bc89 2f3d
000001b0: 49b2 093c 6f04 29be ab6d a3be 3fe7 0b3d

rnn.weight_hh_l0 f4 [16, 16]
0.022747979 -0.058544304 0.09820052 0.13489604 0.16546758 -0.14071018 -0.064866506 0.35541296
-0.011939024 -0.06723261 0.09219272 0.12741469 -0.16591446 0.0061251195 0.1503963 -0.089866996
-0.16107327 0.1643567 0.10984371 0.21176471 -0.23632646 0.06527902 -0.2272938 0.32345477
-0.26229388 -0.13959943 0.07262538 -0.051328104 0.12508228 0.19805346 -0.051878266 0.22436191
0.15442325 -0.12369901 0.119211465 -0.3994583 0.11113452 0.11512304 0.18441042 0.021604137
-0.07403301 0.06338791 0.1624109 0.015229957 0.28845683 -0.08757282 -0.23178254 0.061002888
-0.17043336 -0.18460505 -0.03970837 0.38294348 0.08760452 -0.06204589 -0.19295214 -0.07149264
0.21879046 -0.02736636 -0.34839493 -0.07236503 0.14553495 -0.06863682 0.10988585 0.18747996
0.062662974 -0.062183335 0.11555354 0.017593144 0.2883535 0.16956775 0.17088833 -0.12511772
0.31254095 0.020954307 0.03525286 0.0048084892 0.08428168 0.36308694 -0.23141195 -0.024545817
-0.07016579 0.29913735 0.22063862 -0.52329296 -0.4088686 0.2707602 0.2696728 0.093607545
0.06447833 -0.10957566 0.20201267 -0.06426799 0.184231 0.122752324 0.06635402 -0.2743591
0.10841208 0.07067403 0.22659889 -0.49205104 0.1439615 0.015376382 0.18753804 0.29353854
-0.21903749 -0.08980662 0.08856325 0.14389239 0.21599719 -0.20261307 -0.3135425 -0.17798671
0.08142387 0.26829326 -0.33448946 0.26309925 -0.063318126 0.069632545 -0.2451747 0.3921668
-0.11855306 0.011834594 0.08246882 0.0041488586 0.22931305 -0.07645654 0.04841293 -0.22697017
0.05651159 0.1108169 0.28059223 -0.11946655 0.023367828 0.07266117 0.15488502 0.038619205
-0.16501182 -0.07233489 0.12606975 -0.1256066 0.15939955 0.18830906 0.018383326 -0.3722119
-0.051011622 -0.12060703 -0.16522743 -0.23180293 0.0043744193 0.052649923 0.01461614 -0.101801455
-0.26978976 0.23093131 -0.07149943 0.2295619 0.34382635 0.19127622 -0.07244427 -0.0014297473
0.23316482 0.014014912 0.20043655 -0.105594635 0.024761226 0.0021905764 0.20361905 -0.01473339
-0.29604685 0.252479 0.09973926 -0.04655066 0.064691916 -0.22904827 -0.036225997 0.107680775
-0.09457092 -0.10436686 -0.16184795 0.29543287 0.29715946 -0.41334683 0.14346428 -0.11523181
-0.07942287 0.23750609 -0.2782046 0.05082055 0.2736869 0.25314882 0.23963399 -0.2294834
-0.126829 -0.051487546 -0.40379393 -0.20524105 0.00061005406 -0.092585266 -0.08828653 0.35247728
0.13641183 -0.13969548 -0.2992731 0.17142656 -0.035576798 0.3424875 0.095622756 -0.29895228
0.2682918 -0.10369364 0.028069025 0.16117567 -0.17242016 -0.06428708 0.018463453 0.15897502
0.24588971 0.05545084 -0.20426613 -0.34710538 -0.24103642 0.15141824 0.06080462 -0.26934952
0.06091779 0.08390658 -0.16201094 0.08997521 0.056893088 -0.10381228 -0.5112128 0.14408743
0.10628262 -0.23396735 -0.028607566 0.065460965 -0.25889504 0.35587555 -0.073450446 -0.031781547
-0.3538334 -0.073323674 0.009267858 -0.36234757 0.056449693 -0.17584227 0.12107595 -0.09879999
0.020637143 0.07168406 0.24940746 0.42308974 0.079737775 -0.14561494 -0.38608053 0.46639737
00000000: f859 ba3c 27cc 6fbd 5b1d c93d 3022 0a3e
00000010: 5570 293e 5416 10be bbd8 84bd b0f8 b53e
00000020: e59b 43bc 40b1 89bd 89cf bc3d ff78 023e
00000030: 7be5 29be 3ab5 c83b 7d01 1a3e 300c b8bd
00000040: 64f0 24be 1f4d 283e bdf5 e03d d9d8 583e
00000050: 90ff 71be 02b1 853d b5bf 68be dd9b a53e
00000060: 624b 86be 27f3 0ebe 9dbc 943d 6b3d 52bd
00000070: 9215 003e 87ce 4a3e 4e7e 54bd 21bf 653e
00000080: 2121 1e3e e855 fdbd 2425 f43d cc85 ccbe
00000090: 7f9a e33d a1c5 eb3d 16d6 3c3e 29fb b03c
000000a0: 9e9e 97bd 85d1 813d 0b4f 263e 1287 793c
000000b0: 9db0 933e 6159 b3bd 6758 6dbe 2ade 793d
000000c0: 1586 2ebe 1b09 3dbe 3ea5 22bd 2b11 c43e
000000d0: 006a b33d d523 7ebd 3f95 45be bc6a 92bd
000000e0: 9b0a 603e 6b2f e0bc d260 b2be 1e34 94bd
000000f0: 1d07 153e 7691 8cbd d50b e13d bffa 3f3e
00000100: 7255 803d f4b3 7ebd 56a7 ec3d 7f1f 903c
00000110: 12a3 933e 2ba3 2d3e 5afd 2e3e dc1e 00be
00000120: 5e05 a03e 5ea8 ab3c 4e65 103d 8890 9d3b
00000130: e09b ac3d 88e6 b93e 41f7 6cbe 4f14 c9bc
00000140: 15b3 8fbd 8828 993e 17ef 613e 87f6 05bf
00000150: 3a57 d1be 15a1 8a3e 8e12 8a3e 50b5 bf3d
00000160: 370d 843d 3469 e0bd 69dc 4e3e f09e 83bd
00000170: 0da7 3c3e 9265 fb3d 9ee4 873d cc78 8cbe
00000180: 2707 de3d 8cbd 903d 8a09 683e 1dee fbbe
00000190: a56a 133e 38ed 7b3c f909 403e af4a 963e
000001a0: 5d4b 60be 88ec b7bd a660 b53d 8758 133e
000001b0: 5e2e 5d3e cd79 4fbe a488 a0be 2642 36be
000001c0: 8fc1 a63d bc5d 893e 3442 abbe f2b4 863e
000001d0: efac 81bd 829b 8e3d 140f 7bbe 16ca c83e
000001e0: f2cb f2bd e3e5 413c 6ae5 a83d 26f3 873b
000001f0: 0ad1 6a3e 3f95 9cbd a34c 463d de6a 68be
00000200: b278 673d f9f3 e23d c9a9 8f3e e1aa f4bd
00000210: e36d bf3c 61cf 943d 2e9a 1e3e 2c2f 1e3d
00000220: dcf8 28be 5124 94bd 6e18 013e 049f 00be
00000230: a339 233e 17d4 403e a198 963c 8f92 bebe
00000240: 90f1 50bd d200 f7bd 6131 29be bf5d 6dbe
00000250: 4a57 8f3b 72a7 573d 8978 6f3c 487d d0bd
00000260: e221 8abe 4279 6c3e 4b6e 92bd 4612 6b3e
00000270: 020a b03e eadd 433e a95d 94bd 5c66 bbba
00000280: c2c2 6e3e cd9e 653c 3d3f 4d3e 0042 d8bd
00000290: 0ed8 ca3c c68f 0f3b 8381 503e 5164 71bc
000002a0: 7493 97be ed44 813e 1944 cc3d e8ab 3ebd
000002b0: 327d 843d a18b 6abe b661 14bd bd87 dc3d
000002c0: 66ae c1bd 4bbe d5bd 78bb 25be fa42 973e
000002d0: 4925 983e 32a2 d3be 4de8 123e a8fe ebbd
000002e0: 75a8 a2bd cc34 733e d570 8ebe 3629 503d
000002f0: b020 8c3e b99c 813e 9d62 753e b2fd 6abe
00000300: 76df 01be 9be4 52bd 14be cebe b62a 52be
00000310: 09ec 1f3a 589d bdbd 91cf b4bd e777 b43e
00000320: 8baf 0b3e 550c 0fbe 533a 99be 728a 2f3e
00000330: fab8 11bd 865a af3e ddd5 c33d 4610 99be
00000340: 8b5d 893e 555d d4bd 03f1 e53c 3c0b 253e
00000350: e98e 30be f2a8 83bd ab40 973c 59ca 223e
00000360: 83ca 7b3e 6c20 633d 242b 51be ccb7 b1be
00000370: 40d2 76be 620d 1b3e 440e 793d 2ee8 89be
00000380: ef84 793d 37d7 ab3d 32e6 25be ec44 b83d
00000390: ba08 693d 889b d4bd d8de 02bf a88b 133e
000003a0: b4aa d93d 2395 6fbe 6a5a eabc 6610 863d
000003b0: e48d 84be 5235 b63e 306d 96bd 5e2d 02bd
000003c0: a729 b5be b92a 96bd 37d8 173c 9f85 b9be
000003d0: cb37 673d ff0f 34be abf6 f73d a657 cabd
000003e0: 3a0f a93c 18cf 923d ab64 7f3e 389f d83e
000003f0: 8f4d a33d 151c 15be 59ac c5be a3cb ee3e

rnn.bias_ih_l0 f4 [16]
-0.09936934 -0.08274514 -0.019118108 -0.32457379 0.24990284 -0.22843085 0.015491765 -0.08589103
0.13436618 -0.011309261 0.25507605 -0.040004566 0.06340267 0.19604741 -0.09675113 -0.27152407
00000000: 2782 cbbd 4976 a9bd 949d 9cbc 892e a6be
00000010: 88e6 7f3e c7e9 69be 2cd1 7d3c a3e7 afbd
00000020: 4a97 093e 7b4a 39bc 5499 823e d4db 23bd
00000030: 42d9 813d a7c0 483e 7525 c6bd 3405 8bbe

rnn.bias_hh_l0 f4 [16]
0.26793537 0.2034989 -0.14578904 0.008868832 -0.0238018 0.048545245 -0.2302352 0.14693026
-0.23267782 0.019782817 0.11847611 -0.047396623 0.013063216 -0.124844335 0.121009216 -0.055103473
00000000: d32e 893e 0462 503e b949 15be 944e 113c
00000010: fefb c2bc 61d7 463d c7c2 6bbe e374 163e
00000020: 1843 6ebe 930f a23c 9aa3 f23d f622 42bd
00000030: 1907 563c 63ae ffbd aed3 f73d 2eb4 61bd

fc.0.weight f4 [16, 16]
-0.06715939 -0.24894892 -0.40687707 0.1534906 0.32244962 -0.37458253 0.007946616 0.28053984
-0.62386495 0.033678498 0.046196003 -0.32521147 0.056852102 -0.4635574 -0.107536115 0.07012768
-0.025157485 -0.13879678 0.28859296 -0.0072744396 -0.24955395 0.2189623 -0.38560116 -0.17933172
-0.32244682 0.44180426 0.41534 0.16695435 0.049398128 -0.1852349 0.3643482 0.13361396
-0.53632027 -0.2838487 -0.43455598 -0.3329589 0.26885468 0.25086865 0.027219264 -0.25593624
-0.054935597 -0.13930841 0.18091074 0.035500947 -0.14393583 0.05342094 0.11579438 -0.20589626
0.32316026 -0.24054824 0.025240384 -0.349608 -0.0118619455 0.07791334 0.11465616 -0.09346282
0.2603804 -0.047758836 -0.10953568 -0.23970307 0.52976716 -0.014806385 0.3717483 -0.10940745
0.018509662 0.26552737 0.17879026 0.066558965 -0.23379348 -0.47091246 0.12367193 -0.26058608
0.20203248 -0.46403584 0.41852975 -0.23429576 -0.0015719759 0.0058334135 0.4042699 -0.2921787
-0.41951108 0.04531296 0.01822745 0.26719666 0.4116472 -0.047630012 0.06002144 0.36266932
0.035702605 -0.11415247 0.111435294 -0.1896936 0.25809747 0.57371974 0.27043876 0.35150182
-0.102316186 -0.42194855 0.4478597 -0.17274319 -0.25965685 -0.5057291 -0.094497345 -0.054177955
0.027279353 -0.024380269 -0.13197389 -0.05165413 -0.12111517 0.46780834 -0.038327854 -0.26384482
-0.11594033 -0.13016713 0.47955075 0.038001172 -0.12368479 0.23857014 0.30817592 0.061383933
0.40010396 0.36222917 0.23139662 -0.5132075 -0.26130694 -0.15813635 -0.107357524 -0.20378454
-0.00022975139 0.1650734 -0.10175665 -0.17156346 0.7167772 -0.43432155 -0.34483734 -0.09466527
0.3202837 0.250176 -0.092530824 0.015533219 -0.23243037 -0.113854736 0.15481064 0.18463151
0.2853073 -0.2357194 0.09744528 -0.13143577 0.16629279 0.046674043 -0.17510688 -0.3393945
-0.07829225 -0.12956832 0.25559965 -0.24746118 0.11824273 0.17186564 -0.45906764 0.34230673
-0.114797026 0.36873567 -0.15137665 0.23356993 0.34469184 -0.0828394 0.1561786 -0.541924
-0.3751912 0.19743633 -0.38154918 -0.20749676 0.067665234 0.3114718 -0.010875243 -0.2475825
0.03537862 0.24628873 0.016547969 -0.15224591 0.26609585 -0.047722585 0.13192965 0.12709056
-0.123210005 0.26027548 0.49375048 0.3968353 0.39069852 -0.028799742 -0.42204672 -0.25017014
0.008719531 0.06713998 -0.5505751 0.31725594 -0.009701942 -0.06323641 -0.55324817 0.0975844
0.2680407 0.10186013 0.047497664 -0.38091 0.103989385 0.35764268 -0.050056566 -0.38601208
-0.3760203 -0.09782578 -0.6522148 0.5038002 0.1702544 -0.38771033 0.120182976 -0.4788826
0.24891485 0.061834227 -0.017627833 0.12525503 0.18487558 0.009771897 -0.23083211 0.3515956
0.029287705 -0.31502414 0.015361177 0.7029381 0.62970924 0.08339893 -0.15651852 -0.103690274
0.032159504 -0.2489795 -0.07876014 0.28098798 0.069473684 -0.10007878 -0.032936204 -0.25587073
0.45656416 -0.16560201 -0.34373996 0.13960268 0.11119467 -0.119033165 0.32030404 0.0037035649
0.096172415 0.0063352333 0.27822086 0.018071787 -0.50047755 0.5233714 0.28991574 -0.034696866
00000000: dd8a 89bd 77ec 7ebe 3152 d0be a42c 1d3e
00000010: 1e18 a53e 48c9 bfbe 8632 023c eba2 8f3e
00000020: 9db5 1fbf 77f2 093d 0538 3d3d 1e82 a6be
00000030: c0dd 683d 6557 edbe e53b dcbd 1a9f 8f3d
00000040: 1217 cebc be20 0ebe 75c2 933e 6c5e eebb
00000050: 128b 7fbe a737 603e 846d c5be bca2 37be
00000060: c017 a5be 2b34 e23e 72a7 d43e 15f6 2a3e
00000070: b155 4a3d 38ae 3dbe d98b ba3e 19d2 083e
00000080: 494c 09bf 9e54 91be 1f7e debe 9779 aabe
00000090: 52a7 893e db71 803e effa de3c 130a 83be
000000a0: 2604 61bd dda6 0ebe aa40 393e 7169 113d
000000b0: ea63 13be eacf 5a3d 9b25 ed3d 78d6 52be
000000c0: 4375 a53e 4752 76be ecc4 ce3c d2ff b2be
000000d0: 9b58 42bc 0791 9f3d d9d0 ea3d 6f69 bfbd
000000e0: 9450 853e c59e 43bd 3e54 e0bd b974 75be
000000f0: d29e 073f 7b96 72bc cb55 be3e 0311 e0bd
00000100: 93a1 973c 34f3 873e cb14 373e 1150 883d
00000110: 8f67 6fbe 701b f1be b547 fd3d 8a6b 85be
00000120: 9ae1 4e3e 1b96 edbe 8849 d63e 3aeb 6fbe
00000130: c20a ceba 3826 bf3b 77fc ce3e 7298 95be
00000140: 28ca d6be 159a 393d bc51 953c 00ce 883e
00000150: 6cc3 d23e b017 43bd 0bd9 753d cbaf b93e
00000160: e53c 123d c5c8 e9bd 3038 e43d 0a3f 42be
00000170: 5a25 843e 4cdf 123f f376 8a3e 0cf8 b33e
00000180: 268b d1bd a409 d8be de4d e53e 97e3 30be
00000190: bef1 84be 7677 01bf d387 c1bd b4e9 5dbd
000001a0: f378 df3c 21b9 c7bc 2a24 07be 4893 53bd
000001b0: 3b0b f8bd 9384 ef3e abfd 1cbd ab16 87be
000001c0: 2072 edbd 884a 05be ad87 f53e 1ea7 1b3d
000001d0: 744e fdbd bb4b 743e 3cc9 9d3e b86d 7b3d
000001e0: 6dda cc3e 1a76 b93e 3cf3 6c3e 9161 03bf
000001f0: 06ca 85be 7fee 21be 43de dbbd e5ac 50be
00000200: 6be9 70b9 0009 293e ca65 d0bd 55ae 2fbe
00000210: b67e 373f 655f debe 858e b0be dddf c1bd
00000220: 3afc a33e 1217 803e cd80 bdbd 0b7f 7e3c
00000230: 3a02 6ebe ac2c e9bd ae86 1e3e 0b10 3d3e
00000240: cc13 923e 6d60 71be 6491 c73d 1997 06be
00000250: a848 2a3e 482d 3f3d 384f 33be 1ec5 adbe
00000260: b057 a0bd 8fad 04be f5dd 823e 7766 7dbe
00000270: 3f29 f23d 8cfd 2f3e ea0a ebbe d442 af3e
00000280: b41a ebbd ecca bc3e 7b02 1bbe f52c 6f3e
00000290: 737b b03e b4a7 a9bd 48ed 1f3e 88bb 0abf
000002a0: 1019 c0be c02c 4a3e 6a5a c3be 087a 54be
000002b0: 1294 8a3d 3b79 9f3e 132e 32bc 4486 7dbe
000002c0: 2ce9 103d 1d33 7c3e 9b8f 873c 5ae6 1bbe
000002d0: b73d 883e c278 43bd 9118 073e 0724 023e
000002e0: 8755 fcbd d442 853e ddcc fc3e ff2d cb3e
000002f0: a309 c83e 70ed ebbc 8216 d8be 4d16 80be
00000300: 5ddc 0e3c b080 893d 7df2 0cbf 5f6f a23e
00000310: e5f4 1ebc 1782 81bd aca1 0dbf 54da c73d
00000320: a13c 893e 0b9c d03d e98c 423d a306 c3be
00000330: 63f8 d43d f11c b73e 1d08 4dbd 60a3 c5be
00000340: bc85 c0be e258 c8bd 8df7 26bf 0df9 003f
00000350: 2b57 2e3e f881 c6be 7e22 f63d 1a30 f5be
00000360: 89e3 7e3e e345 7d3d 3f68 90bc db42 003e
00000370: 0650 3d3e 4f1a 203c 415f 6cbe 5704 b43e
00000380: c5ec ef3c d84a a1be 72ad 7b3c c0f3 333f
00000390: a034 213f 0fcd aa3d 6446 20be 915b d4bd
000003a0: afb9 033d 7bf4 7ebe ff4c a1bd a8dd 8f3e
000003b0: 3848 8e3d 1af6 ccbd 1de8 06bd 7d01 83be
000003c0: c7c2 e93e 9393 29be affe afbe 01f4 0e3e
000003d0: 08ba e33d a9c7 f3bd e4fe a33e 82b7 723b
000003e0: 0bf6 c43d ca97 cf3b f772 8e3e 490b 943c
000003f0: 4c1f 00bf abfb 053f d66f 943e 4d1e 0ebd

fc.2.weight f4 [2, 16]
-0.4671597 0.042667214 -0.5144413 0.19548485 0.69217134 0.0046879626 0.16142644 0.3999631
-0.23679437 -0.020172317 0.0774727 -0.24604166 0.035412725 -0.22679894 -0.10533497 0.20190345
-0.10663909 0.2988975 -0.31793863 0.078530766 -0.53279525 -0.41638392 0.060490444 0.28310502
-0.36640316 -0.048426736 -0.36295322 0.24861756 -0.47510096 -0.49792916 -0.1031581 -0.2592206
00000000: 8e2f efbe d1c3 2e3d 6db2 03bf 2e2d 483e
00000010: 2432 313f 7b9d 993b f94c 253e f7c7 cc3e
00000020: 397a 72be 6a40 a5bc 02aa 9e3d 58f2 7bbe
00000030: ef0c 113d fb3d 68be dcb9 d7bd c7bf 4e3e
00000040: 9865 dabd 1809 993e dac8 a2be bdd4 a03d
00000050: 4565 08bf 4630 d5be d4c4 773d 24f3 903e
00000060: 3299 bbbe 1d5b 46bd 01d5 b9be 9a95 7e3e
00000070: 6f40 f3be 92f0 febe 8e44 d3bd 90b8 84be

hidden_rnn.Lx.weight f4 [32, 5]
0.26408833 -0.11816136 0.23706786 -0.36741057 -0.09818335 -0.047859475 0.3923977 0.19579677
0.0052265967 -0.3940842 -0.41745082 -0.527126 -0.43199295 -0.28866106 0.15073678 -0.08819006
0.13344783 -0.13430102 -0.60389936 0.56745046 0.09382438 0.29682902 0.16358012 0.112998374
0.014050311 -0.23542342 0.29371575 0.2562988 0.62606674 -0.22706397 -0.45505327 0.005505686
0.35550082 0.016857887 -0.3405343 0.06645415 -0.23635934 0.05431143 0.32314393 0.1468116
-0.24751346 -0.666412 0.15248369 0.27735713 0.0003237018 0.117656976 0.004026357 -0.20953234
-0.12004995 0.35902408 -0.44886774 -0.16339006 -0.2850607 0.31708834 -0.27878758 -0.47751817
-0.4875322 0.20640011 0.14055818 -0.50847787 -0.09596273 -0.07283993 0.18042308 -0.09787728
0.2945883 -0.0924024 0.19622418 -0.067983255 -0.25594833 -0.57941496 0.015467933 -0.010229054
-0.17483357 0.1091047 -0.5485311 0.3207622 0.31970724 0.102236666 0.060087785 -0.19338535
-0.35038185 -0.3382643 0.37505564 -0.08328498 0.24089243 -0.095485665 -0.06409762 -0.0017058275
0.2542173 0.31947726 -0.35638452 0.35072294 -0.12772991 -0.048060916 -0.27678716 0.31892058
-0.049953688 -0.34465724 -0.23447753 0.4976437 0.1869912 -0.17970382 0.065911755 -0.2062051
-0.08424618 0.3294076 -0.08347016 0.17511025 -0.074798286 0.30500424 -0.36418432 -0.29615635
-0.069659784 -0.039206572 0.29885435 0.3191188 0.12425359 0.17389731 0.15447593 -0.07263898
0.34893575 -0.18328086 0.32568136 -0.200017 0.31002468 -0.46348393 -0.08024761 -0.22990502
-0.54683185 -0.0050854725 0.0071912385 0.37927932 0.37280017 -0.32269716 -0.21058446 0.3059561
-0.20557147 -0.37120304 0.38522446 0.07521132 0.089316115 0.06626372 -0.084261574 -0.08286504
0.18333668 0.28527752 -0.36336297 0.07306332 0.29088944 -0.37520394 0.5175891 -0.16422653
-0.010491578 -0.39586344 -0.20152085 0.1084494 0.49840885 0.48660347 -0.15905134 0.1519719
00000000: 9636 873e 95fe f1bd ebc1 723e 3d1d bcbe
00000010: 5a14 c9bd 4c08 44bd 5ae8 c83e f37e 483e
00000020: df43 ab3b 67c5 c9be 1dbc d5be bbf1 06bf
00000030: 2e2e ddbe 62cb 93be be5a 1a3e fd9c b4bd
00000040: 8ca6 083e 3586 09be 2699 1abf 6f44 113f
00000050: ff26 c03d f9f9 973e 8c81 273e b16b e73d
00000060: 4733 663c d612 71be e961 963e 9939 833e
00000070: e945 203f 7583 68be befc e8be 0b69 b43b
00000080: 3404 b63e 8d19 8a3c 835a aebe 1d19 883d
00000090: 2f08 72be a975 5e3d 1f73 a53e c855 163e
000000a0: 2b74 7dbe fa99 2abf af24 1c3e c101 8e3e
000000b0: 85b6 a939 24f6 f03d 88ef 833b a58f 56be
000000c0: c0dc f5bd 01d2 b73e fed1 e5be b94f 27be
000000d0: 7af3 91be 6759 a23e 3fbd 8ebe 437d f4be
000000e0: d29d f9be 8d5a 533e 7cee 0f3e 9b2b 02bf
000000f0: 1c88 c4bd 1a2d 95bd d4c0 383e e273 c8bd
00000100: 47d4 963e 783d bdbd feee 483e ce3a 8bbd
00000110: a90b 83be 8a54 14bf 376d 7d3c c397 27bc
00000120: 9207 33be 4972 df3d 896c 0cbf f13a a43e
00000130: abb0 a33e 7561 d13d 9c1e 763d cf06 46be
00000140: 4065 b3be fa30 adbe 4b07 c03e 5191 aabd
00000150: 81ac 763e fd8d c3bd 9d45 83bd 1396 dfba
00000160: c528 823e 8692 a33e 0878 b6be f591 b33e
00000170: a1cb 02be 86db 44bd 0cb7 8dbe 8f49 a33e
00000180: 3d9c 4cbd ea76 b0be e11a 70be 28cb fe3e
00000190: 9f7a 3f3e 4704 38be befc 863d 6e27 53be
000001a0: 4389 acbd 1da8 a83e 67f2 aabd 1a50 333e
000001b0: d82f 99bd 8429 9c3e 5e76 babe cea1 97be
000001c0: caa9 8ebd 1297 20bd 7003 993e 8a63 a33e
000001d0: ab78 fe3d 2312 323e f02e 1e3e bfc3 94bd
000001e0: b5a7 b23e faad 3bbe b5bf a63e 42d1 4cbe
000001f0: 8ebb 9e3e c44d edbe dc58 a4bd 396c 6bbe
00000200: 2cfd 0bbf 09a4 a6bb 7ba4 eb3b e630 c23e
00000210: aadf be3e 9038 a5be 74a3 57be 47a6 9c3e
00000220: 5481 52be 530e bebe 243c c53e 6408 9a3d
00000230: 5eeb b63d 46b5 873d 5591 acbd 25b5 a9bd
00000240: 9cbc 3b3e e50f 923e b60a babe 39a2 953d
00000250: 76ef 943e bb1a c0be b880 043f 002b 28be
00000260: dee4 2bbc 9dae cabe 7b5b 4ebe b81a de3d
00000270: 722f ff3e 1724 f93e 5bde 22be 869e 1b3e

hidden_rnn.Lx.bias f4 [32]
-0.10272822 0.009670278 0.18992896 -0.27649873 0.35776418 -0.14691804 -0.4765326 0.30091387
-0.02828416 -0.26371133 -0.36733803 0.005144788 -0.26420832 -0.12794265 -0.19648132 -0.103345804
-0.059283014 -0.19105603 -0.13880242 0.338283 0.17745236 -0.5246248 -0.14344583 -0.095543586
0.06921697 0.07853566 -0.43635187 -0.20959543 0.20971796 -0.22503515 -0.1828103 -0.036973517
00000000: 2c63 d2bd 1670 1e3c bd7c 423e 3e91 8dbe
00000010: de2c b73e af71 16be 15fc f3be 6211 9a3e
00000020: 2fb4 e7bc 2c05 87be bb13 bcbe 9c95 a83b
00000030: 5046 87be 6603 03be 6632 49be f7a6 d3bd
00000040: bfd2 72bd 31a4 43be 3922 0ebe 6e33 ad3e
00000050: 12b6 353e d04d 06bf 77e3 12be 5bac c3bd
00000060: a0c1 8d3d 4ed7 a03d 8369 dfbe 2fa0 56be
00000070: 4ec0 563e 9d6f 66be a032 3bbe 8b71 17bd

hidden_rnn.Lh.weight f4 [16, 16]
-0.13633445 -0.009246892 -0.16183516 0.11338699 -0.20778187 0.2501051 0.113219686 0.08917452
-0.23299824 0.063384585 0.21218245 -0.20628664 0.11726862 0.2808432 -0.025041357 0.092669755
0.047113918 -0.03318587 -0.04442071 -0.08223208 0.19956775 -0.16679916 0.1845605 -0.03169589
0.09953136 -0.021724327 -0.33293954 0.019567315 -0.14072527 0.086983986 0.10244683 0.13658626
-0.028712228 -0.22289605 0.14605317 -0.03621724 -0.09965202 0.0420319 -0.049902495 0.11009483
0.10833155 -0.027031053 -0.06281615 -0.20400363 -0.20272072 -0.16411698 0.18736462 0.12653117
0.1716715 0.02347959 0.23195966 0.060361534 -0.28435007 -0.10303794 -0.04614869 -0.0039068023
0.15131369 -0.1499869 0.07002987 0.19325055 0.20596851 -0.100069344 0.24650064 0.0056774393
0.25194559 -0.17425187 -0.21896313 0.1856552 0.03907883 0.031389903 -0.16662294 0.10274728
-0.085632116 0.28955835 0.14255299 0.053519685 0.16021621 0.18663196 0.023123123 0.22795264
-0.13952543 -0.064342596 0.02218972 0.02216485 0.08010562 0.004881114 -0.11974717 -0.18214463
-0.14991923 -0.3201787 -0.06727515 0.3203013 -0.21463297 0.27519786 -0.106432356 0.25387162
-0.1646629 0.106106125 0.018276041 0.11572101 -0.0115061635 -0.044763308 0.019438863 -0.09427094
0.028160112 -0.026876733 0.1791174 -0.21648385 -0.11926717 -0.07645307 0.2640804 -0.011650518
-0.23264477 0.19075672 -0.047933392 -0.29867852 0.05681809 -0.081260085 -0.08294499 -0.102338105
-0.2777176 0.07446515 0.3313289 -0.07959575 0.15514731 -0.02094778 -0.26870987 -0.12299074
0.26708466 0.17125417 -0.2801849 -0.18802609 0.22750707 0.47803128 0.018985568 -0.1487669
0.24331102 0.2400308 0.041296676 0.16673882 -0.13954172 0.17359655 -0.026782002 -0.18026786
-0.03427441 0.2423195 -0.23416531 -0.04848646 -0.089395 0.4775169 0.17643169 0.24318907
-0.1511227 0.08916739 -0.18819945 -0.19408023 -0.15448813 0.08176409 -0.008953329 0.040981956
0.08950588 0.0861294 0.15230457 0.20776239 -0.09279484 -0.061999794 0.045466483 -0.14242193
-0.26178327 -0.09653425 0.094870925 0.19736461 0.21972235 0.16949025 0.117223814 -0.041484803
0.19111274 0.24567145 0.10097606 -0.36103183 -0.009031552 -0.14868344 -0.13209383 -0.06851506
-0.014192695 0.2416822 0.040643033 -0.15131932 -0.28877148 0.20364884 0.0985405 0.18894371
0.062128853 0.15565859 -0.21880989 -0.22687972 0.12292496 -0.11386439 0.18968143 -0.12612967
-0.008232981 0.10210379 -0.14519827 -0.010326718 0.18010607 -0.05233222 -0.05983728 0.2536221
0.16412264 -0.0075429482 0.042993534 0.22489507 0.010994004 -0.20277122 -0.172953 0.04912832
0.1190372 0.12261142 -0.2390522 0.008619896 -0.18526192 -0.08526465 -0.1954405 0.0915311
0.07961035 0.15739319 -0.04529696 -0.25764328 -0.0045728283 0.15313543 0.066416 0.06894396
-0.10357931 0.058812086 -0.0256239 0.101510026 -0.27252632 -0.06716047 0.1412085 -0.19726878
0.24767631 0.021598233 -0.084286585 0.036837272 -0.19248864 -0.20658289 -0.08316821 0.12500194
0.17512432 -0.13186422 0.076783046 -0.1622799 -0.4040955 0.2479829 0.17898755 -0.16439399
00000000: 429b 0bbe 4780 17bc 1eb8 25be 7037 e83d
00000010: c5c4 54be c70d 803e b9df e73d 21a1 b63d
00000020: 1797 6ebe c7cf 813d 5b46 593e ce3c 53be
00000030: 882a f03d aeca 8f3e 8823 cdbc a4c9 bd3d
00000040: 86fa 403d e8ed 07bd 7ef2 35bd 4b69 a8bd
00000050: 7d5b 4c3e 66cd 2abe 6dfd 3c3e 8dd3 01bd
00000060: 19d7 cb3d 37f7 b1bc 0d77 aabe a24b a03c
00000070: 491a 10be a924 b23d a5cf d13d 45dd 0b3e
00000080: e835 ebbc dd3e 64be f68e 153e 8758 14bd
00000090: 5c16 ccbd a429 2c3d 8f66 4cbd 6679 e13d
000000a0: efdc dd3d 3a70 ddbc c1a5 80bd 54e6 50be
000000b0: 0596 4fbe 480e 28be 83dc 3f3e 6391 013e
000000c0: a7ca 2f3e 4558 c03c d586 6d3e a83d 773d
000000d0: 5596 91be 8e05 d3bd 6906 3dbd a204 80bb
000000e0: faf1 1a3e 2a96 19be d26b 8f3d 79e3 453e
000000f0: 69e9 523e 28f1 ccbd aa6a 7c3e d009 ba3b
00000100: 03ff 803e 156f 32be df37 60be 661c 3e3e
00000110: 2011 203d b392 003d 349f 2abe 2a6d d23d
00000120: e45f afbd fe40 943e 69f9 113e 7537 5b3d
00000130: b80f 243e 731c 3f3e b46c bd3c 6b6c 693e
00000140: c1df 0ebe 0dc6 83bd 37c7 b53c 0f93 b53c
00000150: 6a0e a43d c0f1 9f3b 013e f5bd 1f84 3abe
00000160: 6d84 19be 76ee a3be 8ec7 89bd 88fe a33e
00000170: bfc8 5bbe bce6 8c3e 35f9 d9bd 76fb 813e
00000180: 649d 28be 2b4e d93d a3b7 953c 23ff ec3d
00000190: 5984 3cbc bb59 37bd 403e 9f3c 1f11 c1bd
000001a0: 09b0 e63c 982c dcbc 8d6a 373e f1ad 5dbe
000001b0: 5942 f4bd 6d93 9cbd 8c35 873e d0e1 3ebc
000001c0: 6e3a 6ebe bb55 433e ce55 44bd 64ec 98be
000001d0: 16ba 683d b06b a6bd 10df a9bd a496 d1bd
000001e0: 0031 8ebe 2f81 983d f1a3 a93e 1903 a3bd
000001f0: f0de 1e3e ae9a abbc 5794 89be 92e2 fbbd
00000200: 52bf 883e 415d 2f3e 6574 8fbe e989 40be
00000210: 9df7 683e 84c0 f43e 9f87 9b3c 5a56 18be
00000220: 8626 793e a2ca 753e b426 293d 95bd 2a3e
00000230: 06e4 0ebe 4bc3 313e ee65 dbbc 2398 38be
00000240: 5363 0cbd 9a22 783e 08c9 6fbe bd99 46bd
00000250: ba14 b7bd 187d f43e 82aa 343e 8e06 793e
00000260: e9bf 1abe 649d b63d 5bb7 40be f8bc 46be
00000270: 2332 1ebe ee73 a73d fcb0 12bc b2dc 273d
00000280: dc4e b73d 9c64 b03d bbf5 1b3e aabf 543e
00000290: 390b bebd 7ff3 7dbd 103b 3a3d 0ed7 11be
000002a0: 7508 86be c0b3 c5bd b04b c23d f319 4a3e
000002b0: e5fe 603e da8e 2d3e 0a13 f03d f8eb 29bd
000002c0: 0fb3 433e 4c91 7b3e 89cc ce3d 2ad9 b8be
000002d0: 13f9 13bc 7940 18be 9b43 07be a051 8cbd
000002e0: 7a88 68bc 8a7b 773e 4f79 263d 74f3 1abe
000002f0: dbd9 93be 5289 503e 9acf c93d 767a 413e
00000300: d37a 7e3d f764 1f3e b30f 60be 2853 68be
00000310: 15c0 fb3d bc31 e9bd d93b 423e 2328 01be
00000320: a0e3 06bc cb1b d13d dbae 14be 6531 29bc
00000330: ba6d 383e 4f5a 56bd f017 75bd c2da 813e
00000340: c40f 283e d62a f7bb fd19 303d e54a 663e
00000350: 3220 343c 42a3 4fbe 971a 31be c73a 493d
00000360: c7c9 f33d b21b fb3d 1aca 74be 773a 0d3c
00000370: 4db5 3dbe 3c9f aebd 8e21 48be a874 bb3d
00000380: c00a a33d ae2b 213e 4e89 39bd d2e9 83be
00000390: aad7 95bb 89cf 1c3e 1d05 883d 7e32 8d3d
000003a0: 6421 d4bd f1e4 703d 37e9 d1bc 7de4 cf3d
000003b0: 9288 8bbe 6e8b 89bd f698 103e d400 4abe
000003c0: dc9e 7d3e c7ee b03c 729e acbd aee2 163d
000003d0: be1b 45be 778a 53be 1854 aabd 8200 003e
000003e0: ca53 333e 6a07 07be 6e40 9d3d b42c 26be
000003f0: 9be5 cebe 3bef 7d3e 8348 373e e656 28be

hidden_rnn.Lh.diff f4 [16, 16]
0.01 0.0 0.0 0.0 0.0 0.0 0.0 0.0
0.0 0.0 0.0 0.0 0.0 0.0 0.0 0.0
0.0 0.01 0.0 0.0 0.0 0.0 0.0 0.0
0.0 0.0 0.0 0.0 0.0 0.0 0.0 0.0
0.0 0.0 0.01 0.0 0.0 0.0 0.0 0.0
0.0 0.0 0.0 0.0 0.0 0.0 0.0 0.0
0.0 0.0 0.0 0.01 0.0 0.0 0.0 0.0
0.0 0.0 0.0 0.0 0.0 0.0 0.0 0.0
0.0 0.0 0.0 0.0 0.01 0.0 0.0 0.0
0.0 0.0 0.0 0.0 0.0 0.0 0.0 0.0
0.0 0.0 0.0 0.0 0.0 0.01 0.0 0.0
0.0 0.0 0.0 0.0 0.0 0.0 0.0 0.0
0.0 0.0 0.0 0.0 0.0 0.0 0.01 0.0
0.0 0.0 0.0 0.0 0.0 0.0 0.0 0.0
0.0 0.0 0.0 0.0 0.0 0.0 0.0 0.01
0.0 0.0 0.0 0.0 0.0 0.0 0.0 0.0
0.0 0.0 0.0 0.0 0.0 0.0 0.0 0.0
0.01 0.0 0.0 0.0 0.0 0.0 0.0 0.0
0.0 0.0 0.0 0.0 0.0 0.0 0.0 0.0
0.0 0.01 0.0 0.0 0.0 0.0 0.0 0.0
0.0 0.0 0.0 0.0 0.0 0.0 0.0 0.0
0.0 0.0 0.01 0.0 0.0 0.0 0.0 0.0
0.0 0.0 0.0 0.0 0.0 0.0 0.0 0.0
0.0 0.0 0.0 0.01 0.0 0.0 0.0 0.0
0.0 0.0 0.0 0.0 0.0 0.0 0.0 0.0
0.0 0.0 0.0 0.0 0.01 0.0 0.0 0.0
0.0 0.0 0.0 0.0 0.0 0.0 0.0 0.0
0.0 0.0 0.0 0.0 0.0 0.01 0.0 0.0
0.0 0.0 0.0 0.0 0.0 0.0 0.0 0.0
0.0 0.0 0.0 0.0 0.0 0.0 0.01 0.0
0.0 0.0 0.0 0.0 0.0 0.0 0.0 0.0
0.0 0.0 0.0 0.0 0.0 0.0 0.0 0.01
00000000: 0ad7 233c 0000 0000 0000 0000 0000 0000
00000010: 0000 0000 0000 0000 0000 0000 0000 0000
00000020: 0000 0000 0000 0000 0000 0000 0000 0000
00000030: 0000 0000 0000 0000 0000 0000 0000 0000
00000040: 0000 0000 0ad7 233c 0000 0000 0000 0000
00000050: 0000 0000 0000 0000 0000 0000 0000 0000
00000060: 0000 0000 0000 0000 0000 0000 0000 0000
00000070: 0000 0000 0000 0000 0000 0000 0000 0000
00000080: 0000 0000 0000 0000 0ad7 233c 0000 0000
00000090: 0000 0000 0000 0000 0000 0000 0000 0000
000000a0: 0000 0000 0000 0000 0000 0000 0000 0000
000000b0: 0000 0000 0000 0000 0000 0000 0000 0000
000000c0: 0000 0000 0000 0000 0000 0000 0ad7 233c
000000d0: 0000 0000 0000 0000 0000 0000 0000 0000
000000e0: 0000 0000 0000 0000 0000 0000 0000 0000
000000f0: 0000 0000 0000 0000 0000 0000 0000 0000
00000100: 0000 0000 0000 0000 0000 0000 0000 0000
00000110: 0ad7 233c 0000 0000 0000 0000 0000 0000
00000120: 0000 0000 0000 0000 0000 0000 0000 0000
00000130: 0000 0000 0000 0000 0000 0000 0000 0000
00000140: 0000 0000 0000 0000 0000 0000 0000 0000
00000150: 0000 0000 0ad7 233c 0000 0000 0000 0000
00000160: 0000 0000 0000 0000 0000 0000 0000 0000
00000170: 0000 0000 0000 0000 0000 0000 0000 0000
00000180: 0000 0000 0000 0000 0000 0000 0000 0000
00000190: 0000 0000 0000 0000 0ad7 233c 0000 0000
000001a0: 0000 0000 0000 0000 0000 0000 0000 0000
000001b0: 0000 0000 0000 0000 0000 0000 0000 0000
000001c0: 0000 0000 0000 0000 0000 0000 0000 0000
000001d0: 0000 0000 0000 0000 0000 0000 0ad7 233c
000001e0: 0000 0000 0000 0000 0000 0000 0000 0000
000001f0: 0000 0000 0000 0000 0000 0000 0000 0000
00000200: 0000 0000 0000 0000 0000 0000 0000 0000
00000210: 0000 0000 0000 0000 0000 0000 0000 0000
00000220: 0ad7 233c 0000 0000 0000 0000 0000 0000
00000230: 0000 0000 0000 0000 0000 0000 0000 0000
00000240: 0000 0000 0000 0000 0000 0000 0000 0000
00000250: 0000 0000 0000 0000 0000 0000 0000 0000
00000260: 0000 0000 0ad7 233c 0000 0000 0000 0000
00000270: 0000 0000 0000 0000 0000 0000 0000 0000
00000280: 0000 0000 0000 0000 0000 0000 0000 0000
00000290: 0000 0000 0000 0000 0000 0000 0000 0000
000002a0: 0000 0000 0000 0000 0ad7 233c 0000 0000
000002b0: 0000 0000 0000 0000 0000 0000 0000 0000
000002c0: 0000 0000 0000 0000 0000 0000 0000 0000
000002d0: 0000 0000 0000 0000 0000 0000 0000 0000
000002e0: 0000 0000 0000 0000 0000 0000 0ad7 233c
000002f0: 0000 0000 0000 0000 0000 0000 0000 0000
00000300: 0000 0000 0000 0000 0000 0000 0000 0000
00000310: 0000 0000 0000 0000 0000 0000 0000 0000
00000320: 0000 0000 0000 0000 0000 0000 0000 0000
00000330: 0ad7 233c 0000 0000 0000 0000 0000 0000
00000340: 0000 0000 0000 0000 0000 0000 0000 0000
00000350: 0000 0000 0000 0000 0000 0000 0000 0000
00000360: 0000 0000 0000 0000 0000 0000 0000 0000
00000370: 0000 0000 0ad7 233c 0000 0000 0000 0000
00000380: 0000 0000 0000 0000 0000 0000 0000 0000
00000390: 0000 0000 0000 0000 0000 0000 0000 0000
000003a0: 0000 0000 0000 0000 0000 0000 0000 0000
000003b0: 0000 0000 0000 0000 0ad7 233c 0000 0000
000003c0: 0000 0000 0000 0000 0000 0000 0000 0000
000003d0: 0000 0000 0000 0000 0000 0000 0000 0000
000003e0: 0000 0000 0000 0000 0000 0000 0000 0000
000003f0: 0000 0000 0000 0000 0000 0000 0ad7 233c

exp_avg f4 [16, 7]
0.00065676443 0.0020098465 -0.00031030204 0.00120071 0.0009587883 -0.00013964083 -0.00046090133 0.00023518011
0.0009665848 -0.00018018256 0.0006572896 0.0004920489 -0.00018479895 -5.9359132e-05 -0.00048978766 -0.0012668619
0.00047031738 -0.00096383976 -0.0011879231 0.0013173925 0.0011364708 -0.0003833096 -0.0015925677 0.0006451901
-0.0018911264 0.0003751407 0.0016763973 -0.00068481197 -0.0011426664 -0.0026084732 0.00038997136 -0.0018008512
-0.0016640587 0.0012207692 -8.053041e-06 0.0022185883 0.0046433513 -0.0020247332 0.0039155963 0.0027158093
-0.0034062348 -0.0013346788 0.001277911 0.0018762032 -0.00084722904 0.002086382 0.0009944763 -0.002099066
0.0012711954 0.0004888562 0.0016092063 -0.00062945357 0.0010317527 0.0008996114 -0.0006248797 -0.00025359416
-0.0004623995 -0.00076300086 0.00013535623 -0.00062979525 -0.0006805771 0.0047333986 0.006181145 0.0018171428
0.0040615583 -0.0018676961 0.003070209 0.0022836511 0.00189768 0.004598323 -0.00018507347 -0.00014393278
-7.6106655e-05 0.00035264136 -0.00048612725 0.0002116846 -7.242583e-05 -0.0003016648 -0.00072897907 0.00029221314
-0.0010361656 -0.0005189166 0.00061598036 0.0004018758 -5.559039e-06 -0.00017572807 -0.00029766696 3.803894e-05
-5.174018e-05 9.4666204e-05 0.00028830802 0.00031882763 0.0009633211 -8.4804065e-05 0.0006666621 0.00066635094
-0.0002398865 -0.0009995555 0.00010773928 0.0011515105 -8.0122754e-07 0.00039847722 0.00062450423 0.00031856724
-0.00022498019 -0.0014766912 -0.00218376 0.0013914268 -0.0021413197 -0.0018338375 -0.0016551571 -0.0034518251
00000000: b72a 2c3a a1b7 033b 09b0 a2b9 2461 9d3a
00000010: 3257 7b3a 8d6c 12b9 21a5 f1b9 ae9a 7639
00000020: 6862 7d3a 63ef 3cb9 f54d 2c3a d8fc 003a
00000030: 97c6 41b9 62f8 78b8 1865 00ba d50c a6ba
00000040: ee94 f639 31aa 7cba 16b4 9bba 5bac ac3a
00000050: a2f5 943a f2f6 c8b9 b4bd d0ba fa21 293a
00000060: acdf f7ba 88ae c439 8fba db3a f484 33ba
00000070: 86c5 95ba ebf2 2abb 1275 cc39 8a0a ecba
00000080: 8b1c daba 3802 a03a 8c1b 07b7 bc65 113b
00000090: 4127 983b 63b1 04bb 674e 803b b8fb 313b
000000a0: 233b 5fbb 64f0 aeba 947f a73a efea f53a
000000b0: 9418 5eba aebb 083b 1659 823a 7c90 09bb
000000c0: 3d9e a63a 9626 003a 01ec d23a ea01 25ba
000000d0: e03b 873a e6d3 6b3a f8ce 23ba d5f4 84b9
000000e0: 366e f2b9 1f04 48ba 69ee 0d39 d818 25ba
000000f0: c268 32ba a01a 9b3b 348b ca3b 322d ee3a
00000100: d216 853b 7bcd f4ba 8f35 493b 4fa9 153b
00000110: 93bb f83a 87ad 963b 4810 42b9 a9ec 16b9
00000120: 739b 9fb8 b9e2 b839 e5de feb9 a7f7 5d39
00000130: 52e3 97b8 c428 9eb9 f518 3fba 2f34 9939
00000140: f3cf 87ba e707 08ba be79 213a dbb2 d239
00000150: c887 bab6 a543 38b9 2f10 9cb9 008c 1f38
00000160: 9803 59b8 8887 c638 0c28 9739 5228 a739
00000170: 6287 7c3a d6d8 b1b8 f0c2 2e3a 0eae 2e3a
00000180: 0b8a 7bb9 8403 83ba 16f2 e138 48ee 963a
00000190: f013 57b5 b5ea d039 c5b5 233a 5f05 a739
000001a0: a9e8 6bb9 898d c1ba 6a1d 0fbb 8960 b63a
000001b0: 6255 0cbb 605d f0ba dbf1 d8ba 0438 62bb

exp_avg_sq f4 [16, 7]
1.6820297e-05 5.9798953e-05 1.8217273e-05 3.588606e-05 2.2791446e-05 8.576757e-05 7.171357e-06 1.2701814e-05
4.7586826e-05 1.1089447e-05 3.00502e-05 1.860203e-05 0.00010248667 3.0454291e-06 3.0875064e-05 0.00011121846
2.8039356e-05 6.9642694e-05 4.2651594e-05 0.00020273526 1.2652504e-05 5.3132226e-05 0.00019041079 4.3147844e-05
0.00011966741 8.023298e-05 0.00041164013 2.2484279e-05 0.0001805859 0.0006979847 0.00010065933 0.0004356005
0.00029128956 0.0017267634 5.3335523e-05 0.00016138793 0.0006156044 8.889647e-05 0.0003853587 0.00025651237
0.0010284279 5.195933e-05 0.00027581485 0.001051589 0.00016092641 0.0006616022 0.0004400207 0.001896149
8.54981e-05 7.57064e-05 0.00028946594 4.0852676e-05 0.00018091613 0.000120819124 0.00070210936 1.7933156e-05
6.0577833e-05 0.00023048659 3.594964e-05 0.00014254241 9.6143274e-05 0.00033617686 4.3944176e-05 8.058367e-05
0.00030466472 4.640335e-05 0.0001864774 0.00012576133 0.0005254462 5.554881e-05 3.978513e-06 9.871737e-06
5.633768e-06 7.0042506e-06 3.833842e-06 1.5971766e-05 1.5106979e-06 1.340969e-05 4.9233142e-05 2.0042948e-05
3.1106447e-05 1.7148024e-05 7.050082e-05 4.1582716e-06 3.96001e-06 1.3710147e-05 1.0073461e-05 9.027015e-06
4.073068e-06 3.0351714e-05 1.3260467e-06 0.00011523897 0.0004414749 6.458446e-05 0.0002758499 0.00018379146
0.00090087013 3.4458182e-05 1.5462509e-05 5.444149e-05 3.350106e-05 3.4984376e-05 1.6054699e-05 8.0528785e-05
5.7326592e-06 3.762724e-06 1.1785203e-05 2.8405923e-06 7.5052994e-06 5.4173906e-06 8.562071e-06 8.6236905e-06
00000000: 5019 8d37 a3d0 7a38 4cd1 9837 5d84 1638
00000010: 4230 bf37 1dde b338 7da1 f036 e019 5537
00000020: f797 4738 d00c 3a37 5014 fc37 8e0b 9c37
00000030: 1dee d638 1360 4c36 d97f 0138 f53d e938
00000040: 0f36 eb37 230d 9238 cde4 3238 5595 5439
00000050: 1746 5437 4bda 5e38 02a9 4739 a5f9 3438
00000060: f4f5 fa38 c142 a838 67d1 d739 9f9c bc37
00000070: a95b 3d39 f6f8 363a 1119 d338 4f61 e439
00000080: 39b8 9839 9154 e23a 95b4 5f38 3e3a 2939
00000090: 8360 213a ee6d ba38 f809 ca39 827c 8639
000000a0: 50cc 863a e8ee 5938 3e9b 9039 79d5 893a
000000b0: 5bbe 2839 5f6f 2d3a 94b2 e639 3488 f83a
000000c0: 714d b338 90c4 9e38 76c3 9739 3a59 2b38
000000d0: 4eb4 3d39 4660 fd38 c30d 383a 296f 9637
000000e0: f414 7e38 c6ae 7139 a2c8 1638 7077 1539
000000f0: 87a0 c938 e540 b039 b350 3838 07ff a838
00000100: 68bb 9f39 38a1 4238 2589 4339 cdde 0339
00000110: 19be 093a 15fd 6838 2b7f 8536 ca9e 2537
00000120: b309 bd36 0e06 eb36 74a4 8036 1bfb 8537
00000130: 2fc3 ca35 2efa 6037 af7f 4e38 e721 a837
00000140: 4b78 0238 1ad9 8f37 d7d9 9338 4887 8b36
00000150: 3ae0 8436 a204 6637 3001 2937 bc72 1737
00000160: 63ab 8836 cf9b fe37 9efa b135 73ac f138
00000170: c275 e739 8571 8738 f29f 9039 25b8 4039
00000180: 5f28 6c3a 3187 1038 7cb5 8137 1b58 6438
00000190: 7d83 0c38 30bc 1238 34ad 8637 90e1 a838
000001a0: 2b5b c036 1b83 7c36 10b9 4537 01a1 3e36
000001b0: 08d6 fb36 08c7 b536 d1a5 0f37 78ae 1037

exp_avg f4 [16, 16]
-0.00051591074 0.00059449667 -0.00010150824 0.0006796034 -0.00077534595 -9.1079935e-05 -0.0002853284 0.0006907867
-7.3659234e-05 -0.00015076467 -0.0008110011 0.0005975751 -0.000772748 0.00046362792 -0.0006456788 -5.9379876e-05
-0.00038830595 0.00032920254 -7.095174e-05 0.0003578148 -0.0004652778 -0.00019874005 7.059122e-05 0.0003215012
-0.00026645986 -3.8309423e-05 -0.00041859507 0.00034290637 -0.00046186268 0.000104863044 -0.0004408784 0.00015651
0.00061313156 -0.0009641486 0.00039402934 -0.0008683878 0.0005848341 0.0008335541 0.0001494736 -0.0008660887
0.00075903424 8.461177e-05 0.0010305834 -0.0009752045 0.0006210206 -0.00048063672 0.00055475323 -0.00064220093
0.0001652462 -0.00046417097 0.0005449313 -2.894202e-05 0.00080648053 0.00014710218 -0.00015726025 -0.0003142612
0.00091201696 -0.00080218684 0.0004192036 -0.0005667944 0.00038102592 0.00011721728 0.0002424121 -0.0005922731
0.000807157 -0.0011589308 0.00042033236 -0.00061297783 0.001031569 0.0007783606 -0.00044556553 -0.0008333904
0.0006642039 -0.000106571184 0.0012084435 -0.0012558863 0.0009379032 -5.3907672e-05 0.0009446365 -0.00073417556
-0.001901894 0.0022197678 -0.0008327104 0.0022428366 -0.0021101858 -0.0011725354 0.0004808815 0.002118684
-0.0012448017 4.940269e-05 -0.0025492853 0.00243729 -0.002332691 0.00065188046 -0.0022329155 0.00089760876
-0.0011484077 0.00057076785 -0.00047166506 0.00053818553 -0.0010765755 -0.0005115344 0.0010191211 0.00024239636
-0.0009588754 0.00042926788 -0.00073226914 0.00073508424 -0.0011178129 -0.00067876646 -0.0011690325 0.0011998493
-0.00045756114 0.00057238684 -0.00026974152 0.00048885314 -0.0006424105 -0.0005431654 -6.0664508e-05 0.0006526434
-0.0005306411 0.00013992633 -0.00057809294 0.0007559318 -0.0006004792 0.00023526764 -0.0005310744 0.0002470953
-2.1345302e-05 -0.002693 0.0017821124 -0.0023391142 0.0004739297 0.0024167942 0.00074705645 -0.0026109884
0.0015761603 0.00013741797 0.0027559784 -0.0026889313 6.313976e-05 -0.0014136184 8.5713255e-05 -0.00014433815
-0.0018831498 -0.00035872086 0.00084372103 -0.00028820924 -0.0016068871 0.0007869114 0.0007216911 -0.00021024658
0.00016150651 0.00029470367 0.00028522435 -0.00030130072 -0.0020765755 -0.0005209166 -0.0019298521 0.0012167767
0.00032504066 4.3542113e-05 -8.3131e-05 -4.5870733e-05 -3.6807844e-05 5.8167265e-05 -0.00019469188 6.535402e-05
7.086785e-06 0.00011834696 -1.8379182e-05 0.0001560904 0.0001687567 0.00017081363 0.00033856483 -0.00016306761
0.0002964178 -0.00043832723 0.00018414529 -0.00053511513 0.00042729056 9.27495e-05 -0.0001161899 -0.0003773063
0.00014882584 6.264593e-05 0.0006180475 -0.0006042988 0.00045060803 -0.00026944882 0.00034461194 1.9462957e-05
-0.00017635014 -0.00031367663 0.00013820658 -7.5527474e-05 3.5499135e-05 0.00010299679 -9.7654665e-06 -0.00021745742
5.0218918e-05 -5.0545846e-06 0.0003276684 -0.00020657766 -0.000114514434 -0.00015443684 -0.00017439207 3.3695054e-05
-0.00057931955 0.00058186037 -1.2303849e-05 0.00089068874 -0.00056659605 -0.00017744284 -0.00014915138 0.0006674571
-0.00020627135 -0.0005069731 -0.0008019648 0.00043955585 -0.00061723083 0.00053315196 -0.0005965087 0.00035191208
-0.00035405616 0.00026460705 0.000101245125 0.00043580943 -0.0004761185 -1.3325255e-06 -0.00015705852 0.00027952917
-7.3987026e-06 -0.00023359197 -0.00043403197 0.00023644498 -0.0004595214 0.00025961763 -0.00041669147 -8.247206e-05
0.0014893302 0.000655648 -0.0008484151 6.518223e-06 0.001037886 -0.0011313078 -0.00079286523 0.0004753012
-0.00048281858 8.5921696e-05 -0.00048598065 0.00061957416 0.0017331755 0.0006036068 0.0016318127 -0.00059005764
00000000: 2f3e 07ba ffd7 1b3a d2e0 d4b8 6a27 323a
00000010: 9640 4bba 2b02 bfb8 2198 95b9 e915 353a
00000020: 8079 9ab8 9516 1eb9 5d99 54ba 96a6 1c3a
00000030: 3e92 4aba 1613 f339 c542 29ba a80e 79b8
00000040: 8b95 cbb9 d198 ac39 edcb 94b8 1799 bb39
00000050: 87f0 f3b9 e064 50b9 5f0a 9438 298f a839
00000060: a3b3 8bb9 6eae 20b8 e176 dbb9 1dc8 b339
00000070: 2926 f2b9 ebe9 db38 b225 e7b9 d51c 2439
00000080: 90ba 203a ebbe 7cba b995 ce39 85a4 63ba
00000090: 8d4f 193a de82 5a3a 04bc 1c39 3b0a 63ba
000000a0: edf9 463a 9971 b138 a414 873a dea4 7fba
000000b0: fdcb 223a f8fd fbb9 dc6c 113a 6059 28ba
000000c0: f045 2d39 f95b f3b9 b8d9 0e3a 84c8 f2b7
000000d0: fe69 533a 713f 1a39 3ae6 24b9 6dc3 a4b9
000000e0: 6c14 6f3a d949 52ba 8ec8 db39 ee94 14ba
000000f0: 6fc4 c739 8cd2 f538 0130 7e39 c642 1bba
00000100: 6497 533a 44e7 97ba 0e60 dc39 3fb0 20ba
00000110: b635 873a e50a 4c3a cb9a e9b9 e277 5aba
00000120: f81d 2e3a f87e dfb8 a364 9e3a 8d9c a4ba
00000130: 9edd 753a ec1a 62b8 7ba1 773a b075 40ba
00000140: f948 f9ba 8679 113b 404a 5aba 8efc 123b
00000150: 0b4b 0abb c2af 99ba d31e fc39 9ed9 0a3b
00000160: 9d28 a3ba bc35 4f38 e911 27bb f1ba 1f3b
00000170: 10e0 18bb f5e2 2a3a 1b56 12bb 814d 6b3a
00000180: 2b86 96ba 959f 153a d049 f7b9 0515 0d3a
00000190: e11b 8dba 7e18 06ba 0894 853a c72b 7e39
000001a0: 0a5d 7bba 5c0f e139 c0f5 3fba abb2 403a
000001b0: 9483 92ba 3fef 31ba 393a 99ba 4344 9d3a
000001c0: d1e4 efb9 3b0c 163a 186c 8db9 6126 003a
000001d0: 7067 28ba 3763 0eba 0572 7eb8 2816 2b3a
000001e0: b91a 0bba 30b9 1239 298b 17ba b929 463a
000001f0: 7a69 1dba 2db2 7639 cd37 0bba 928c 8139
00000200: b00e b3b7 0b7d 30bb c595 e93a d34b 19bb
00000210: c479 f839 1463 1e3b 1cd6 433a 1e1d 2bbb
00000220: 2a97 ce3a db17 1039 a59d 343b c838 30bb
00000230: e769 8438 2a49 b9ba f4c0 b338 7a59 17b9
00000240: 06d4 f6ba b312 bcb9 292d 5d3a ca1a 97b9
00000250: 2f9e d2ba bb48 4e3a df2f 3d3a a375 5cb9
00000260: 135a 2939 7582 9a39 2a8a 9539 e6f7 9db9
00000270: 2817 08bb 1f8e 08ba 17f3 fcba 407c 9f3a
00000280: 386a aa39 fda0 3638 9e56 aeb8 5365 40b8
00000290: 1f62 1ab8 a0f8 7338 3426 4cb9 ac0e 8938
000002a0: 05cb ed36 0a31 f838 fe2c 9ab7 33ac 2339
000002b0: 48f4 3039 6f1c 3339 6781 b139 21fd 2ab9
000002c0: 8668 9b39 49cf e5b9 2017 4139 f846 0cba
000002d0: f805 e039 8282 c238 faaa f3b8 32d1 c5b9
000002e0: 220e 1c39 c760 8338 7704 223a ce69 1eba
000002f0: 963f ec39 cf44 8db9 08ad b439 6244 a337
00000300: a1ea 38b9 f774 a4b9 8ceb 1039 8164 9eb8
00000310: e8e4 1438 fbff d738 5cd6 23b7 4805 64b9
00000320: 27a2 5238 8d9a a9b6 e8ca ab39 c59c 58b9
00000330: 7827 f0b8 53f0 21b9 04dd 36b9 ca53 0d38
00000340: 7add 17ba fd87 183a a16c 4eb7 1c7d 693a
00000350: 9e87 14ba f30f 3ab9 8565 1cb9 4af8 2e3a
00000360: 8b4a 58b9 64e6 04ba f23a 52ba 3074 e639
00000370: a9cd 21ba 39c3 0b3a 055f 1cba d780 b839
00000380: 9da0 b9b9 f5ba 8a39 9053 d438 5a7d e439
00000390: 8b9f f9b9 3ad9 b2b5 13b0 24b9 c58d 9239
000003a0: 5f42 f8b6 5ef0 74b9 c98e e3b9 37ee 7739
000003b0: ebeb f0b9 4a1d 8839 6277 dab9 daf4 acb8
000003c0: a135 c33a cbdf 2b3a 2c68 5eba 1cb7 da36
000003d0: ad09 883a 6448 94ba 49d8 4fba d931 f939
000003e0: d022 fdb9 dc30 b438 38cb feb9 eb6a 223a
000003f0: b82b e33a 5e3b 1e3a 8ce2 d53a 19ae 1aba
