ckpt/rnn_ode_affine_3_4_cubic_transform/best.pth (torch_old, 46894 bytes, 58 tensors)

rnn.weight_ih_l0 f4 [16, 7]
00000000: 37dc b4bd 72fb 5bbc 9ad3 3d3e 4f54 97bd
00000010: 83d8 4dbe e6a2 763e de54 d0bd 5f21 a1bd
00000020: 6bfe be3d 83bd 97be eac6 943d 65d4 0cbe
00000030: 74d9 ff3d a35b 1bbd b3bf cabd b227 223e
00000040: 8b65 07be 39cf 0b3e ffa0 d7bc c237 a43e
00000050: c7db f3bd db26 553e 6013 91bd c9f4 493d
00000060: 0b28 ca3d a133 44be b32d 913e a8f9 5cbe
00000070: d8aa bcbd 2031 e4bd bc3a 23be 5ad4 a23d
00000080: 8ad9 6bbc 0d05 d8bd 9302 723d 7159 063e
00000090: 63b5 2bbe 21a0 1cbe b4cc 673e 2d44 2ebd
000000a0: a1e1 063e 664a 41be 1a48 003e 3b13 6a3d
000000b0: 9a5e 043e fab9 2b3e f309 5a3c 6ab7 00be
000000c0: 550d 4a3e 3ab7 1a3e 0863 253e 8101 d43d
000000d0: df41 9e3b 4a59 163e 8011 933e 49f9 923e
000000e0: c26c 013e 7749 843c bedf 4f3e 6355 cc3c
000000f0: 1abf 4e3e cd38 26bb c8db 36be 6873 7a3c
00000100: 3a50 3d3e 2037 f3bd 03b1 653e 6d60 3c3e
00000110: 4971 b5bd 5dc7 4d3d fdc4 053e b080 3dbe
00000120: db05 1bbe 75d7 563e a54c 523e dcc3 823e
00000130: 8e51 213e 0d4c 11bd 663d 02be ac18 30be
00000140: 4e23 fe3d 417d fabc af2b 6abe 25a6 993e
00000150: 4cd7 42be 9883 50be dc0f 9dbd fed4 f93b
00000160: ee62 67be 4599 b5bd 2ac0 923e 1caa 6e3d
00000170: 53a3 0f3e 606a d2bd 4c64 61be bc72 c63d
00000180: 3c7d fbbd 8410 30be 26fc 16bd af41 5bbd
00000190: 9d9c 92bd cccf 053e 297d ec3d 0752 c3bd
000001a0: 4a92 b63d 0432 053e 1c58 4bbe ca50 063e
000001b0: 5464 033e 64f3 05be b514 86bd 92be 67be
-0.08831065 -0.013426648 0.18537751 -0.073891275 -0.20102124 0.24085578 -0.10172437 -0.07867693
0.0932587 -0.29636773 0.07264502 -0.13752897 0.12492648 -0.03792919 -0.09899845 0.15835455
-0.1322233 0.13653268 -0.026321886 0.3207379 -0.119071536 0.20815603 -0.070837736 0.04930571
0.09870919 -0.1916032 0.28355178 -0.21579611 -0.09212273 -0.11142182 -0.15940374 0.07950659
-0.014395127 -0.10547838 0.059084486 0.13120057 -0.16768412 -0.1529546 0.22636682 -0.042545486
0.13172008 -0.18876037 0.12527505 0.057147246 0.12926713 0.16770163 0.013308036 -0.12569967
0.19731648 0.15108958 0.16151059 0.10351849 0.00482963 0.14682499 0.2872429 0.28705814
0.12639144 0.016148312 0.20300195 0.02494306 0.20190087 -0.0025363446 -0.17857277 0.015286304
0.18487635 -0.11875749 0.22430806 0.18396159 -0.08859498 0.050238956 0.13063426 -0.18506122
-0.15138952 0.20980628 0.2053705 0.25540054 0.15753767 -0.03547292 -0.12718734 -0.17196912
0.124090776 -0.030577304 -0.22868226 0.3000957 -0.19027442 -0.20362699 -0.076690406 0.0076242676
-0.22596332 -0.088671245 0.28662235 0.058267698 0.14027147 -0.10274196 -0.22010916 0.096898526
-0.12279746 -0.171938 -0.03686156 -0.053529438 -0.07158778 0.1306755 0.1154731 -0.0953713
0.08914621 0.1300736 -0.1985783 0.13116756 0.12831241 -0.13081127 -0.06546918 -0.2263129

rnn.weight_hh_l0 f4 [16, 16]
00000000: fb0d 963c e551 39be 1518 d43d 62d6 fa3d
00000010: 6088 493e 3557 6bbe 807e 4b3d f8da 903e
00000020: 414b cc3c 05f8 b7bd 5e29 753d e093 3c3e
00000030: d455 03be 70c7 b9bc b56a ba3d 3ec1 0cbc
00000040: d43f 7dbe 0892 a03e 340f a53e 555c 0b3d
00000050: a632 7fbe c11c a33e 4713 36be 3414 383e
00000060: 2189 5dbe 81dd 34be 0c17 963d 00e8 7abe
00000070: d019 3dbc ae2b 403e 0d41 bfbd 5bdf 1e3e
00000080: 2549 843e 9b9c 26be 8eb4 103e a644 14be
00000090: 41ab 6e3e 3361 ff3d a70a 09bd 9bd4 91bd
000000a0: f2c6 813d 75ea e5bc 9bfc 29bc 2719 3bbd
000000b0: d965 183e 8712 df3d a73c d7bc a764 6d3c
000000c0: 9e8c 043c 1c56 debd 8b74 88bd 1f5d 5d3e
000000d0: f87e ee3d 8d1b 7dbd 912a 41bd 1f3b 6e3e
000000e0: e90e 3b3e 6e0f aabd f666 b7bd ee22 f3bd
000000f0: 1f9e 3d3e a6d5 ccbd 38e4 643c 77c5 5fbc
00000100: 64bb ad3d fcb7 633c 52e2 e63d 0c9b aebb
00000110: 69cc 173e ed18 053e f05d 4d3e 91d9 9e3c
00000120: a2ac 5c3e e487 133d d48d eb3d f486 383e
00000130: af76 563e 65c4 823e 8f59 55be b645 12bd
00000140: 8bf5 48be 8819 473e 1584 583c 659f 6dbe
00000150: d668 83be 42cb 303d 46de 433c a6f5 64be
00000160: 9440 24bb a99c 013c 6556 85bd 338b dc3d
00000170: 7149 303e b790 553e c777 883e 0d00 1cbd
00000180: 89d7 713e 2ea0 4a3d 5162 073e dc75 2fbe
00000190: a168 693e f1a8 43be 415c 10be b3d0 d33d
000001a0: 5127 34be 717e e1bd 32da 01be f38c 153e
000001b0: f5e4 213e 0254 c2ba c60e f6bc a5b2 8dbe
000001c0: 47ce d3bd 7c26 603e 77ae 73be 3d2e dd3d
000001d0: ba54 c6bd e233 c53d af55 c7bd d4d6 963e
000001e0: 14f9 eabd 8798 ab3d 5fb0 833d ed3a 153d
000001f0: 7dbd 593e d88d 28be 5f8c 4fbd bb3f 2abe
00000200: e62e d2bd ba72 02bc e36a cc3d ffce b6bd
00000210: 580b c5bc 3850 33be 4b9a 383e c2a2 b03d
00000220: d704 85be 7207 cb3d ac77 db3d 4983 753d
00000230: 1d62 3a3e fc40 2d3e 0368 533b 3406 70be
00000240: 0888 8fbd 20d1 0dbe c507 0fbe 93fb 53be
00000250: e493 d33c 62a5 c13d 69ab a5bb b47d 78be
00000260: aed7 56be 6979 7d3e 6d74 a8bd c48f 423e
00000270: fdff 883e 665f 6d3e 3f7a bbbb 1819 a23d
00000280: 9ed5 553e 1dad 0fbd 4651 de3d 5404 633e
00000290: 6d80 233e 13ec f6bd be2b 05bd 988d f4bd
000002a0: 2e3c 62be 913d 3a3e 1fec 2fbe 4a4c 7c3d
000002b0: ddac 083d ac20 f5bd 0f56 3c3e a2cf 293e
000002c0: d8b4 04be 3f9c 2d3d b6a6 c4bc c6a6 363e
000002d0: 0235 803e 112a 45be 587c 753e 29c6 c0bc
000002e0: 15c0 01be d44b 163e db70 adbd 6dd7 a7bd
000002f0: c838 533e e755 e83d af50 3b3e f507 9dbe
00000300: 0839 37be a10b ae3d 56d1 8ebe 8205 4dbe
00000310: 3c54 9ebc 6c2a 06bd d74b c2bd 470b a43e
00000320: 306c adbb 96f4 f5bd 166c c2bd 2cfb 553e
00000330: d2ab 28bd 816e 063e 05ca 293e 4d58 48be
00000340: bf79 ec3d 0f13 4bbe c6a0 fdbd d83d 9a39
00000350: e940 69be e892 53be 9bb6 5b3e 6f79 873e
00000360: ca5d 613e 09dd 003e b644 4bbd 7ca2 81be
00000370: 4fe4 60be 1c67 2fbd 4d19 b23b a0d9 e7bd
00000380: fbd4 3abe fa7b 4abb b0a0 60be 2991 03be
00000390: dbfd 943d 0035 e7bd 5ee5 49be d7ee f53d
000003a0: 7f94 9b3d 9f7b f1bd c5ec e13d 6584 043e
000003b0: e5a8 7fbe 60c5 563e 9673 4dbe 6c55 3a3e
000003c0: b1da d6bd 28ab 143d 5ce8 81bd 25be aabd
000003d0: e57d 213c 264f 20be bc7d 3abe 36f5 1dbd
000003e0: 8ff1 7d3e 5fec 0dbe 8c6f ac3d b1a8 323e
000003f0: 7f7f 3fbe da30 3e3e ca55 3ebe b12a 333e
0.018317213 -0.18097647 0.10356156 0.122479215 0.19680929 -0.22982486 0.049681187 0.2829206
0.024938228 -0.08982853 0.059853904 0.18415785 -0.1282571 -0.022678107 0.09102384 -0.008590994
-0.2473138 0.31361413 0.32238162 0.0340236 -0.24921665 0.31857875 -0.17780791 0.17976457
-0.21634342 -0.17662622 0.073286146 -0.24502563 -0.011541799 0.18766662 -0.09338579 0.15514891
0.25837055 -0.16270678 0.14131376 -0.14479312 0.23307516 0.12469711 -0.033457424 -0.071206294
0.06336774 -0.0280659 -0.010375167 -0.045678284 0.14882602 0.10892206 -0.026274038 0.014489329
0.008090166 -0.10856268 -0.06662854 0.21617554 0.11645311 -0.061793853 -0.047159735 0.2326474
0.18267407 -0.08303724 -0.08955185 -0.11871897 0.1851735 -0.10001688 0.013970427 -0.013657919
0.084830076 0.013898846 0.11273636 -0.0053285416 0.1482407 0.1299779 0.20055366 0.019390853
0.21550229 0.036018267 0.11501661 0.1802023 0.20943712 0.25540462 -0.20834945 -0.035711013
-0.19624917 0.19443333 0.013215085 -0.23205335 -0.2566592 0.04316259 0.01195485 -0.22359332
-0.0025062906 0.007910886 -0.06510619 0.10768738 0.17215516 0.20855986 0.26653883 -0.038085986
0.23617376 0.049469166 0.13221098 -0.17134804 0.22793819 -0.19107415 -0.14097692 0.103425406
-0.17593123 -0.11010445 -0.12680891 0.14604549 0.15809996 -0.0014826062 -0.030036341 -0.27675357
-0.10342079 0.2188968 -0.23797022 0.10799835 -0.09684129 0.096290365 -0.0973314 0.29460776
-0.11473289 0.08378702 0.064301245 0.03643315 0.2126369 -0.16460359 -0.050670978 -0.16625874
-0.102628514 -0.007961923 0.099813245 -0.089262 -0.02405326 -0.1751107 0.18027608 0.086247936
-0.25980255 0.099135295 0.10716185 0.059939656 0.1820149 0.16919321 0.003225804 -0.23439866
-0.07008368 -0.13849306 -0.13967808 -0.20701437 0.025827356 0.094553724 -0.005055834 -0.24266702
-0.20980713 0.24753346 -0.082253315 0.19000155 0.26757804 0.23180923 -0.00572136 0.079149425
0.2088227 -0.035077203 0.108553454 0.2216962 0.1596696 -0.12056746 -0.03251242 -0.11941069
-0.22093269 0.18187548 -0.17179917 0.061596192 0.03336798 -0.11969122 0.18392204 0.16583112
-0.12959611 0.042385336 -0.024005275 0.17837057 0.25040442 -0.19254328 0.23973215 -0.02353199
-0.1267093 0.14677364 -0.08468791 -0.08195386 0.20627129 0.113445096 0.18292497 -0.30670133
-0.1789285 0.08498312 -0.27894086 -0.20021632 -0.019327275 -0.0327553 -0.094871216 0.32039854
-0.005292438 -0.12009542 -0.09493272 0.20896596 -0.041179486 0.13128091 0.1658097 -0.19564934
0.11546659 -0.19831489 -0.12384181 0.00029419246 -0.22778668 -0.20661509 0.21456377 0.26459834
0.22008434 0.12584318 -0.049626075 -0.25319278 -0.21962093 -0.042822942 0.005435145 -0.113208055
-0.18245308 -0.003089665 -0.21936297 -0.12848343 0.072749816 -0.11289406 -0.19716403 0.12008446
0.07596683 -0.11791157 0.11031488 0.1294113 -0.24966772 0.2097373 -0.20063624 0.18196648
-0.10490931 0.03629604 -0.06343147 -0.083370484 0.009856676 -0.15655193 -0.18212026 -0.03856393
0.24799179 -0.138597 0.084197134 0.17447163 -0.1870098 0.18573323 -0.18587413 0.17496754

rnn.bias_ih_l0 f4 [16]
00000000: 002c 01be cc7b 01be a2ef 65bd a69c 00be
00000010: 7851 bb3d 0618 67be ad07 933d 7b20 2dbe
00000020: 42dd ed3d ca37 9cbc fc6d fa3d b825 ffbd
00000030: 4c35 8ebd 0a55 153e b752 dabd 486a 36be
-0.12614441 -0.12644881 -0.056136735 -0.12559757 0.09146398 -0.22567758 0.071791984 -0.16906922
0.11614467 -0.019069571 0.12228009 -0.12458366 -0.06943759 0.14583221 -0.10660308 -0.1781398

rnn.bias_hh_l0 f4 [16]
00000000: baf2 763e 63a1 233e e331 3bbe 5ed5 543e
00000010: 519d 3abe 2c1f 523d f91b 32be c190 823d
00000020: d175 80be f7f9 443c e89d 6abc 9e24 07be
00000030: a64d f5bd d442 33be 6ca6 e33d c0cc 1c3d
0.2411603 0.15979533 -0.18280749 0.20784518 -0.18224074 0.05129926 -0.17393483 0.06375266
-0.25089887 0.012022487 -0.014319874 -0.13197562 -0.11977701 -0.17505962 0.11115727 0.038281202

fc.0.weight f4 [16, 16]
00000000: 5a8e 2dbd 2185 a6be 6aae 58be 2a41 e3bc
00000010: c08e 343e 28d7 b1be 828a 0d3d 9600 823e
00000020: b900 04bf f356 70bc 81bc bbbb 0ab3 c6be
00000030: ad0b 253d 3f7c c6be ca2b d2bc a47d 08bd
00000040: 9583 a3bd a00e 5fbe 7d1a 873d edc1 463e
00000050: 79a5 9fbd aab5 2fbc 8029 aebe acd0 babd
00000060: f1d8 a1be 3355 f13e 8035 da3e 090d 5b3e
00000070: 2806 193e d5f6 b4bd d69d c03e 8a71 263e
00000080: 73f7 f5be e688 a3be 67f4 84be 7a17 e2be
00000090: 6b43 1b3e d63f 9a3e 2ae5 cabb a23a a6be
000000a0: 4c2e 943c bef8 8fbd 1daa 133e b000 bfbc
000000b0: 8bf3 51be cbf8 ee3c 7d03 063e e7f8 92be
000000c0: f06f c83e 42b9 82be 3195 0abe 08bc 69be
000000d0: 8040 003e ea48 ca3c 6180 433e 12f6 f5bc
000000e0: 174d 8c3e c6d3 68bd fb0a ecbd 01d0 65be
000000f0: 01f3 2c3f d9ab ff3c 8834 a13e b635 9dbd
00000100: fb2a 8c3d 5afe a23e 5770 7f3e f311 ba3d
00000110: 797f 46be 1b19 aabe 8d94 5e3d 2e0c 59be
00000120: 6bc5 9b3d 6bb1 dabe 8fa4 f13e 68d1 7bbe
00000130: 8788 0fbc fd02 f7bd 509a 7e3e 579d 03be
00000140: 4784 c9be 59b3 113e 5899 673e 6b8e 503e
00000150: b4c0 993e 0ec7 073e ee66 113d 2260 9c3e
00000160: 1b4f ebbd c995 93bd 7edc c23d 8581 49be
00000170: bd2c 1b3e 537f cd3e bf38 3c3e 8816 ce3e
00000180: 00d2 3cbe 4be7 eabe 6342 5e3e 9d86 0bbd
00000190: e562 3abe 7085 2dbf 2497 b6bd 76c7 d53c
000001a0: e61f a3bd 8314 b9bb aa99 fabd e99c 213d
000001b0: e025 80bc a6e1 fb3e 4362 01bd 8988 4cbe
000001c0: c35d 06bd f305 3bbd f9ab af3e 8816 603e
000001d0: 1332 cb3c 0824 223e db33 b63e 3cfd 1b3e
000001e0: 80f8 9e3e d56e ab3e dddf 673e edf8 ebbe
000001f0: 6cfc 50be 9e79 1dbe ad91 74be 7592 0cbe
00000200: 73da 7fbc e426 4b3e d2ea d13d 9609 b3be
00000210: fc35 ff3e 5e96 95be 67bc d4be 32ef c6bd
00000220: edd2 a33e adcb 5a3e d97a 0abe 88a0 70bc
00000230: 0b16 a2be 5e9c 2cbe cd1b 1e3e 4ef1 183e
00000240: be1d 1d3e 0dbc 1abe 063e 803e e8c2 9bbe
00000250: aca9 193c ba76 683e c94b 6fbe 4cfd f0be
00000260: 5d54 ffbd 2dee 60bd 5280 403e b607 8ebe
00000270: dd44 5bbc 88c7 0a3e c131 f9be d933 e03e
00000280: e704 fabc 7a2b ce3e 50b9 c43d 121e 923d
00000290: bd2f 883e 7467 d03d c6b0 bc3d e1f0 07bf
000002a0: 61d7 e4be c15f 6a3e 9934 aabe 8cbd 62be
000002b0: 0e29 e4bc 6022 3a3e 88c2 7dbd 2699 10be
000002c0: 9897 1cbb 66ba 613e 17e3 73bd cc37 0ebe
000002d0: bbb3 863e 5d4d 6abe d37f 173e 3ac9 253e
000002e0: 50db 44bd a58a 793e 9278 f23e a380 a53e
000002f0: bc2a d73e 7d71 103e a472 a8be bb58 90be
00000300: d127 803d c70a c73d 670d afbe 45cc 8f3e
00000310: 1207 4bbd 7c7b 173e 3ed7 18bf 839e 423d
00000320: 6dc0 6f3e bf4a 163e 64b7 9b3d 4ac9 d8be
00000330: e514 d03c 27fc 313e 87af 3dbe 08fa 66be
00000340: 77ab c0be f403 c1bd 32d3 c7be ba62 a03e
00000350: 033e deba 1dc3 54be c960 9c3c e6b7 fdbe
00000360: a37a 783e e65f c13d 044d 94bd 1b1f ab3d
00000370: fc8f c03d 5a07 c4bd 56da 88be 72a4 ce3e
00000380: e83a bd3d e9a5 85be 2508 363e 4136 163f
00000390: 77e3 d43e 24a1 893d 307d 043d 84de 2b3e
000003a0: 476f 993d 005a ebbe 0e08 e13d de82 383e
000003b0: 3469 a23d 7a9f 80bd 11ae 7d3c ff1d 07bf
000003c0: 3031 193f 3299 0dbe 82cd 66be a25c 713e
000003d0: f6b2 273e 6844 cd3c 80d0 893e bec3 81bc
000003e0: 3d88 2cbd b119 a13d 6064 973e b453 a83b
000003f0: c08e ddbe 6c82 ae3e 5024 823d 2d16 f73d
-0.042372085 -0.32523444 -0.21160284 -0.027741034 0.1763258 -0.34734464 0.03455592 0.25391072
-0.515636 -0.014669168 -0.0057292585 -0.3880847 0.040294338 -0.38766667 -0.025655646 -0.033322945
-0.07984082 -0.21782923 0.06596849 0.19409914 -0.07795233 -0.010724464 -0.34016037 -0.09121832
-0.31610826 0.47135314 0.42618942 0.21391691 0.14943755 -0.08836142 0.3762042 0.16254249
-0.4804035 -0.31940383 -0.25967714 -0.44158536 0.15162437 0.30126828 -0.0061918693 -0.32466608
0.018088482 -0.07029866 0.14420362 -0.023315758 -0.2050306 0.029171368 0.13087268 -0.28705522
0.39147902 -0.25531965 -0.13533475 -0.22825634 0.12524605 0.024692971 0.19091941 -0.030024562
0.27402565 -0.056842588 -0.11525532 -0.22442628 0.67558295 0.031209873 0.3148539 -0.0767626
0.068441354 0.3183468 0.24945198 0.09085455 -0.19384564 -0.3322228 0.054340888 -0.21196052
0.07606014 -0.42713484 0.4719586 -0.24591601 -0.008760578 -0.12061117 0.24863553 -0.12852989
-0.39358732 0.14228572 0.2261709 0.20366828 0.30029833 0.13259527 0.035498552 0.30542094
-0.114896975 -0.072063036 0.09514712 -0.19678314 0.15153785 0.40136203 0.18381022 0.40251565
-0.18439484 -0.45879588 0.21705012 -0.034063924 -0.18201788 -0.67781734 -0.089155465 0.026096087
-0.079650685 -0.005648197 -0.1223634 0.03945628 -0.01564306 0.49195594 -0.03158785 -0.19973959
-0.032804262 -0.04565997 0.34310892 0.21883595 0.02480415 0.15834057 0.35586438 0.1523332
0.31048965 0.33482996 0.22643991 -0.46088353 -0.20408791 -0.15378425 -0.23883696 -0.13727744
-0.015616047 0.19839054 0.102498665 -0.3496825 0.49845874 -0.29216284 -0.4154999 -0.09713592
0.3199686 0.21366759 -0.13523425 -0.014686711 -0.31657442 -0.16856524 0.15440293 0.149358
0.15343377 -0.15110798 0.2504732 -0.3042214 0.009378832 0.2270154 -0.23368753 -0.4706825
-0.12467263 -0.054914642 0.1879895 -0.27740258 -0.0133831175 0.13552678 -0.48670772 0.43789557
-0.030519916 0.40267545 0.09605658 0.07134642 0.2659892 0.10175982 0.09213404 -0.5310193
-0.4469557 0.2288809 -0.33243254 -0.22142619 -0.027851608 0.18177176 -0.061953098 -0.14120921
-0.0023894068 0.22043762 -0.05954274 -0.13888472 0.26308998 -0.22881074 0.14794855 0.16190043
-0.048060715 0.24369295 0.47357613 0.32324705 0.4202479 0.14105792 -0.32899964 -0.28192696
0.062575944 0.097188525 -0.34189913 0.28085533 -0.04956729 0.147932 -0.59703434 0.04751445
0.23413248 0.14676951 0.07603338 -0.4234107 0.025400588 0.17381345 -0.1852399 -0.22556317
-0.37630817 -0.09424582 -0.39028317 0.31325322 -0.0016955737 -0.20777555 0.01908912 -0.49554366
0.24265532 0.09442119 -0.07241252 0.08355542 0.09402463 -0.09571715 -0.26729077 0.40359837
0.09239751 -0.26103142 0.17776544 0.58676535 0.41579792 0.06720188 0.03234595 0.16784102
0.074919276 -0.45967102 0.109878644 0.18018672 0.07930222 -0.06280418 0.015483395 -0.52780145
0.5984068 -0.1382797 -0.22539333 0.23570493 0.16376862 0.025057033 0.26916885 -0.015840407
-0.042122114 0.07866228 0.29568768 0.0051369313 -0.43272972 0.3408388 0.06354582 0.120647766

fc.2.weight f4 [2, 16]
00000000: a159 b1be eaf9 a7bb d34e 0fbf 642e d13d
00000010: ccc2 d03e 0be3 2d3e f92f 303d c0f6 aa3e
00000020: 886f 9dbe b65b acbd a392 b73d d187 ecbd
00000030: 72d1 d33d 3119 0dbe 0e30 a53d 281f 513e
00000040: 20d0 a23d d75a 5e3e 6fed a0be affa 3d3e
00000050: 3f7b bfbe 372c 91be 3558 213e 481c 2a3e
00000060: 2dc7 8dbe 219e 1cbe a244 c5be d586 a63e
00000070: 0f70 81be 3fd1 b1be c2ae ec3d 159f dcbd
-0.34638694 -0.0051262276 -0.5597965 0.102139264 0.40773618 0.16981141 0.0430145 0.3339138
-0.30749154 -0.0841593 0.089635156 -0.115493424 0.10342683 -0.13779141 0.08065806 0.20422041
0.07949853 0.2171434 -0.31431147 0.1855266 -0.37398717 -0.28354046 0.15756305 0.16612351
-0.27691022 -0.15294696 -0.38528925 0.32524744 -0.25280806 -0.34729955 0.1155677 -0.1077253

f.0.weight f4 [16, 16]
00000000: f411 353e 5a66 4ebd 3080 883d 1fc6 99bd
00000010: 8ec5 d5bc 2cc4 343c 7ec0 2b3e 3792 913d
00000020: a44d 493d d2dc 56be fa83 6abe 4e73 4bbe
00000030: 1c48 54be 8330 12bc 5e3f 4d3d 31ce 28be
00000040: add8 bcbb cf46 1ebd f4cf 61be d67e 2f3e
00000050: 0777 8cbd f283 233e 2714 193e 6e36 873d
00000060: 6b01 53bd 65e0 31be 4127 3f3e dd54 103e
00000070: 4616 443e 9faa 41bd f4c6 82be 3741 323c
00000080: 6868 683e 566f e83d 1cc6 5ebe 8f67 c0bb
00000090: f829 f1bd 42f8 c13d 064b 9fbc bbfc 3abc
000000a0: f087 dfbc 0a42 64be 8410 9b3d cf91 163e
000000b0: 9e6a 993d 4455 893d 2c7e 213d 559e 0abe
000000c0: 5a8f c93c 95d9 513e 2dcf 4bbe 2edf 09bc
000000d0: 7e86 5ebe 6632 833e 4f4d 1fbe f332 4cbe
000000e0: 3615 24be f968 b03d 4d98 dc3c bf5b 5cbe
000000f0: 0661 8abd 777a 89bd 203f 0a3e 9203 a3bd
00000100: b0cb a43d abc9 32bc 5915 3b3e 04bf 2abe
00000110: 7eb1 993d 77f9 5abe 9e24 6cbd 9e6b 1e3e
00000120: 85b2 26be 8cda cd3c 51f8 4cbe bafd a43d
00000130: f632 3b3e 895d bb3b 9414 283e 5c0a e6bd
00000140: a14a 69be 30ee 76be d7a8 3a3e eff0 04be
00000150: b7dd bf3d 4a45 05bd 36db 8abd ad01 56ba
00000160: e06b ea3d 1f64 3b3e 90db 36be 1371 153e
00000170: 55b1 85bd aca9 86bc eed2 e9bd b3a2 253e
00000180: 3d6c 14bd 0abb 37be a6eb 5abe 9cfb 5d3e
00000190: 606d 3c3d 4cde 80bd 806d ecbc 2128 efbd
000001a0: 2092 fbbd 2d48 e93d 8f5d f9bd a6c9 173e
000001b0: 2e75 25be ea8b 313e 4eb7 16be 7b0e 66be
000001c0: 4ebb 24bc 51f9 04bd e92b 0c3e 2f57 473e
000001d0: b754 3a3d d930 e13d f93d b43d b34e d3bd
000001e0: 1513 303e 6891 5ebd 2a08 a03d 2074 9dbd
000001f0: 3dcd 353e 8a34 64be d56d 033d c211 03be
00000200: 2207 4cbe 4e4c 003d edc3 ae3d fb33 773e
00000210: 3cdc 423e c555 ccbd 2389 c1bd 43c2 6d3e
00000220: d61d dbbd db95 49be 0911 573e 3acc 8d3c
00000230: f804 f7bb 2ca0 89bd 806c e6bd 735c d8bd
00000240: b105 0e3d 6499 ad3d f263 55be 981e 8a3d
00000250: a2f5 a03d 7c2f 0bbe 1bf8 553e d880 0ebe
00000260: 29fe 9cbc f57c 82be 61e4 9fbd a153 c23d
00000270: 62fa 683e fdcb 043e 2a94 e0bd 479a 1d3d
00000280: e920 31bd 562b 523d d49e b33d fb2a 35be
00000290: e795 023e 048f 2abe f583 39be 263b 713e
000002a0: 5877 053d d561 69be 7a34 23be 3365 a13c
000002b0: ce35 36be 7f8e 1ebe 133b 31be 2313 28bd
000002c0: 8752 d93c 899c a0bd bff3 96bd 7272 803e
000002d0: 9c96 9e3d 23f4 71be e38a 14bd 1ecc 303d
000002e0: 77dd 363d 3795 e33d d518 28be 987a ebbd
000002f0: 0433 2b3e 07a5 25be dec7 02bc eb51 afbc
00000300: 564e 21be 7074 efbc d58c 0cbe 8fb3 cf3d
00000310: c914 64be 8a7e 533d 7665 0f3e fd82 953d
00000320: 4130 45be 9170 c43d 975b 003e 3fd1 3ebe
00000330: 45f5 f83d 6eb4 6a3e b21d 96bd decd 463e
00000340: 7834 003e e5d4 5fbd 10e4 d3bc 0601 b1bc
00000350: 9839 413e 445f 85bd a9af 3f3e 859f b33d
00000360: 40d3 c73d 49bf 103d c054 5ebe 7bd5 3f3d
00000370: 524f c1bd 706f 1abd cf79 0fbc c50d 373e
00000380: 5a75 41bd d163 7dbe 3840 263e 43d9 d43d
00000390: 3856 c4bd 3230 a9bd aa56 38bd 7816 d33d
000003a0: d573 403d 898e a93b c5e1 ccbd b9b2 51be
000003b0: 5c41 60be 0037 b1bd e57a 283e c9ef 863e
000003c0: 0ef9 473e c33d 92bd a6c4 443e 37ef da3d
000003d0: 9dae 37be 52ea 3abe fd61 46be e4a0 efbd
000003e0: 68e7 af3d a040 47be c050 ca3d 608e 173d
000003f0: 34b0 483e ad32 69bd 1f20 493e c23e 05bd
0.1768263 -0.05039058 0.06665075 -0.07508492 -0.026095178 0.011033099 0.16772649 0.071079664
0.04914631 -0.20982674 -0.22901908 -0.19868204 -0.20730633 -0.008922699 0.05010926 -0.16484906
-0.0057631345 -0.038641747 -0.22051984 0.17138228 -0.0685864 0.15968302 0.14949094 0.066021785
-0.051515024 -0.17370756 0.18667318 0.14094873 0.19149122 -0.047281858 -0.25542414 0.010879806
0.22696078 0.11349361 -0.2175526 -0.00587172 -0.11775583 0.094711795 -0.019444954 -0.011412795
-0.0272865 -0.22290817 0.075715095 0.14704059 0.07491039 0.06705716 0.039426968 -0.13536961
0.024604488 0.20493157 -0.1990325 -0.008415027 -0.21730992 0.25624388 -0.15556835 -0.1994131
-0.16023716 0.08613772 0.026928091 -0.21519373 -0.06756787 -0.067128114 0.13500643 -0.07959665
0.08046663 -0.010912339 0.18269862 -0.16674429 0.07504557 -0.21384226 -0.05765211 0.1547074
-0.16279037 0.025128625 -0.200166 0.08056207 0.18281159 0.0057179374 0.164141 -0.11232445
-0.22782375 -0.24114299 0.1822847 -0.12982534 0.093684606 -0.032536782 -0.067800924 -0.0008163702
0.11446357 0.18299912 -0.17857194 0.14593916 -0.06527964 -0.016438328 -0.11417185 0.16175346
-0.036236037 -0.17942443 -0.21378955 0.21678013 0.046002746 -0.062924 -0.028860807 -0.11677576
-0.122837305 0.113907196 -0.12176048 0.14823017 -0.16157982 0.17338529 -0.14718363 -0.22466461
-0.010054423 -0.03246433 0.13688625 0.19466852 0.045490947 0.10995645 0.08800883 -0.10317745
0.17194779 -0.05433789 0.07814057 -0.07688165 0.17754073 -0.22285667 0.032087166 -0.12799743
-0.19924596 0.03132277 0.085334636 0.24140923 0.19029325 -0.09977297 -0.09449985 0.23218636
-0.1069905 -0.19686072 0.21002592 0.017309297 -0.007538434 -0.067200035 -0.112511635 -0.10564508
0.034673396 0.084765226 -0.20838907 0.067441165 0.07859351 -0.13592333 0.20895426 -0.13916337
-0.019164162 -0.2548596 -0.07807232 0.09488607 0.22751763 0.1296844 -0.1096576 0.03847721
-0.043244276 0.05131086 0.087705284 -0.17692177 0.12752496 -0.16656119 -0.18116744 0.2355772
0.03258452 -0.22791226 -0.15937987 0.019701576 -0.17793962 -0.15484045 -0.17307691 -0.041033875
0.02652861 -0.07842357 -0.0737071 0.25087315 0.0774357 -0.23628287 -0.036265265 0.04316341
0.0446448 0.11112445 -0.16415723 -0.11497992 0.1671868 -0.16176234 -0.007982222 -0.021401366
-0.15752539 -0.029230326 -0.13725598 0.1014167 -0.22273554 0.05163435 0.14003548 0.07300375
-0.19256689 0.09591783 0.12534939 -0.18634509 0.121561565 0.22920391 -0.07329883 0.1941447
0.12520015 -0.05464639 -0.025865585 -0.021606933 0.18869627 -0.06512311 0.18719353 0.0877066
0.097570896 0.035338674 -0.21712017 0.04683445 -0.09438957 -0.03770393 -0.008757069 0.17876346
-0.047231056 -0.24745108 0.16235435 0.10393002 -0.095867574 -0.08261146 -0.045004524 0.1030702
0.046985466 0.005174462 -0.100039996 -0.20478334 -0.21899933 -0.086530685 0.1645313 0.26354817
0.195286 -0.07140686 0.1921564 0.10690158 -0.17937703 -0.18253449 -0.19373317 -0.11700609
0.08589059 -0.19458246 0.09878683 0.037001014 0.19598466 -0.056933094 0.1964116 -0.032530554

f.0.bias f4 [16]
00000000: ad68 963e 71b6 3dbe cc2c 12be 4e40 bd3d
00000010: 3582 2f3d b199 ea3d 1ef0 42be 1f32 833d
00000020: ed8b 98bd 58c8 833e c416 183e 2e13 a43d
00000030: 2e2e e73d e5da 1f3e 1377 2c3d 8594 833e
0.29376736 -0.18526627 -0.14274901 0.09240781 0.042848784 0.114550956 -0.1903691 0.06406044
-0.07448564 0.25738788 0.14852434 0.08011471 0.11288105 0.15610845 0.042105746 0.2569925

f.2.weight f4 [16, 16]
00000000: 7d9e 6b3d 1f3e 16be 1968 223e e425 d63d
00000010: 18a0 3e3b e77c bcbc b6eb 7dbc 7ea6 12be
00000020: 23cf 103e 2a41 d4bc 224b 303e 75e9 263e
00000030: d3b7 2ebe 9cc0 253e aad7 a3bd eae3 813e
00000040: 4bec 2bbe 231e 263e b2b0 16bd 2b68 703e
00000050: 011d c7bc 6022 32be bf87 a7bc d7d3 a8bd
00000060: 0806 033e e456 b6bd 18a1 613e 6fb0 6ebe
00000070: d648 ecbd 1d22 c7bc acad 853e e582 95bc
00000080: 137f 53be 90d0 373e 2b3c 3cbd bebf 8bbe
00000090: 5181 a53d 6b5b cabd c835 f7bd 3c84 b7bd
000000a0: 3e09 41be f978 0d3e 186d 833e 6d5a 2dbe
000000b0: dc5a 413e d418 aa3d 8646 77be 9d63 ebbd
000000c0: d7fc 693e 157a 7c3e 6775 49be ca73 ddbd
000000d0: 0639 3a3e a7d2 693e d28f eabd 5a9f 4cbe
000000e0: 7ac5 663e 4220 453e 5f82 11bc 3f49 e03d
000000f0: d38d 4dbe e8dd 273e c035 69ba 06bb 4abe
00000100: 6a1e d3bd c124 f33d ba3e 88be a1df bd3c
00000110: 67ac 47bd 0209 873e 7f09 433e 2bd9 4c3e
00000120: 0558 70be 739d a33c 8746 81be 74b5 43be
00000130: cd46 08be 920b 19bd 2d33 b4bd 6843 673d
00000140: d483 393e ee7a c5bb 742c 683e 9308 333e
00000150: bc23 0bbe 9e27 6ebe fb56 9b3d e573 e6bc
00000160: 6f3b 36be 0a2d 51bc 473f e53d afd5 043e
00000170: c68c 163e 6a14 3e3e 45d4 083e 5d75 6d3e
00000180: fefe 533e 2965 5c3e a9f4 c93d a024 71be
00000190: 7717 ef3b ae7b 0e3c 7f4a 1fbe 75bf ec3c
000001a0: 3224 2bbc 52b0 663e ea55 033e 3aee 0abe
000001b0: 63e3 8bbe 083c 1a3e d698 943d 0374 ce3d
000001c0: 017e af3d c49a 0c3e 528a 2abe 7088 54be
000001d0: e692 563e 50f3 36be 4573 2b3e c8f4 2dbe
000001e0: 53b2 9a3d b1e4 f23d 060d 90bd 173f 91bd
000001f0: 7225 293e bd87 1fbd 1ecd eabd 49fa 9f3d
00000200: c193 6b3e a004 9b3d 2e9b 3ebd 9a3f 2d3e
00000210: a586 343d bf71 51bd d448 88be e02a 493b
00000220: be65 df3d 704c 4c3e af54 30be 521a 9d3d
00000230: 530a 2bbe 349d bbbd 2df5 62be ffc3 de3d
00000240: 9d14 e43d 5310 253e ba91 cf3b 567d 2dbe
00000250: 6d1e 9bbc 8fce d43d 5f53 b53d afdb 20bd
00000260: ac37 f9bd deb2 563e 41bc 0abd 02a9 663d
00000270: fd60 5cbe cc82 a3bd 2836 083e 7c41 52be
00000280: 37ce 2e3e 9f06 c2bc 31e7 55be fd31 60bd
00000290: 3245 09be acf0 12be 3d9f e8bc 4172 c43d
000002a0: 2cbb 2d3e 354d 04be ecbc 32be a4d5 9cbc
000002b0: 4a9f 86be 7527 8f3e 2eb6 603e 6b31 50be
000002c0: 3628 513c fdd2 cc3d c57c 43be 48a7 6fbd
000002d0: 53cd 9dbd c52a 70be ac97 69be a198 283e
000002e0: 4e0f 53be 9c68 78be 1c1c 453d 927f 29bd
000002f0: d8ea 093e b9f9 ef3d 3bff 94bc ab6f 19be
00000300: 7d54 bb3c 4120 333e be2d 65be 9e20 52be
00000310: 533f f43d 4f34 403e 4bb4 e3bc e10b 023e
00000320: 6e65 de3d 3ae1 eebd e5ea 1e3e 37e5 6a3e
00000330: bcee bdbd 4df0 2ebe b84f 2c3e 1d0e 89bb
00000340: 6cf1 5ebe d49e 033e c118 80be 21af 09be
00000350: d225 5abe 4ebe d7bd 9aad 47be bd14 be3d
00000360: 1e4d 5c3e 0a4e ec3d 6e92 693d a24a ea3d
00000370: 205d 4dbe f324 88bc 0a99 1f3b 2c73 47be
00000380: db2f 283e 3ae2 1b3e 40ad e5bd 4e9e 91bd
00000390: 64ae 73be 2125 9f3d bacf 523e c9a3 5a3e
000003a0: f6fd 8d3d 45eb 453d b410 1dbe 3de1 51bd
000003b0: 07d6 483c 6bf9 bd3b e971 d63c 80f7 b7bc
000003c0: c91b 5c3e 248f 393e 4464 20be a2d1 13be
000003d0: 53cd 7bbd 96b3 2a3e c0dc 143e 9628 5ebe
000003e0: 608f c4bd 6a97 153d a4e3 013d 23d6 0fbe
000003f0: 30e1 afbd e824 ca3b ec30 52bd a496 15be
0.057524193 -0.14672135 0.15860023 0.10456446 0.0029087123 -0.023008777 -0.015498092 -0.14321324
0.14141516 -0.025909979 0.17216161 0.16299994 -0.17062311 0.16186756 -0.08000119 0.25369197
-0.16789357 0.16222434 -0.036789604 0.23477237 -0.024305822 -0.17395926 -0.020450471 -0.0824353
0.1279527 -0.08903292 0.22034109 -0.23309492 -0.1153733 -0.024308259 0.26109064 -0.018250892
-0.20653944 0.17950654 -0.04595582 -0.27294725 0.08081306 -0.09880718 -0.12070805 -0.089607686
-0.18851182 0.13815679 0.2566917 -0.16929026 0.18882316 0.08305517 -0.24147996 -0.11493609
0.22850357 0.24655946 -0.19673692 -0.10813101 0.18185815 0.22834264 -0.11453213 -0.19982663
0.22536269 0.19250587 -0.008881181 0.109514706 -0.20073633 0.16393244 -0.0008896254 -0.19797906
-0.103085354 0.118722446 -0.26610357 0.023177924 -0.0487484 0.2637406 0.19046591 0.20004718
-0.23471077 0.019972539 -0.2524912 -0.19112188 -0.13308258 -0.03736455 -0.087988235 0.056460768
0.18116695 -0.0060266173 0.22673208 0.1748374 -0.1358785 -0.232573 0.075849496 -0.028131435
-0.1779611 -0.012767086 0.1119371 0.12972139 0.14702138 0.18562475 0.13362224 0.23189302
0.2070274 0.21522965 0.09861118 -0.23549128 0.0072964984 0.00869648 -0.15555762 0.028899888
-0.010445641 0.22528198 0.12825742 -0.13567439 -0.2732192 0.15061963 0.07255714 0.10080721
0.08568955 0.13730913 -0.16654328 -0.20755172 0.20954475 -0.17866254 0.1674319 -0.16987908
0.07553544 0.11860026 -0.07033734 -0.070921116 0.1651819 -0.03894781 -0.11464904 0.0781141
0.23005582 0.075692415 -0.04653471 0.16918793 0.04407372 -0.051133867 -0.26618063 0.0030695722
0.10908078 0.19951034 -0.17219804 0.07671036 -0.16703157 -0.091608435 -0.2216384 0.10877227
0.11136744 0.16119508 0.0063345106 -0.16942343 -0.018935407 0.103909604 0.088537924 -0.039272007
-0.12168822 0.2096667 -0.03387094 0.056313522 -0.21521373 -0.07983932 0.13301909 -0.20532793
0.17070852 -0.023684798 -0.20888974 -0.054735173 -0.13405302 -0.14349622 -0.028396243 0.09592105
0.16965932 -0.12920077 -0.1745488 -0.01914484 -0.26293403 0.2795979 0.21944496 -0.20331351
0.012765935 0.1000118 -0.19090565 -0.05850914 -0.07705178 -0.23453815 -0.22811764 0.16464473
-0.20611307 -0.24258655 0.04812251 -0.041381426 0.13468492 0.11717553 -0.01818811 -0.14984004
0.022867436 0.17492773 -0.2238073 -0.20520255 0.11926141 0.18769954 -0.027795931 0.12699844
0.1085919 -0.11664052 0.15519293 0.22939001 -0.092740506 -0.17083855 0.16827285 -0.0041825906
-0.21771783 0.12853557 -0.25018886 -0.13445713 -0.2130349 -0.105343446 -0.19499817 0.09281299
0.21513793 0.11538322 0.05702441 0.11440016 -0.20055056 -0.016619181 0.0024352693 -0.19477528
0.16424505 0.15223017 -0.112146854 -0.07110272 -0.23796993 0.07770754 0.20587054 0.21351542
0.06933205 0.048320074 -0.15338403 -0.051240195 0.012258059 0.005797555 0.026177363 -0.022456884
0.21494974 0.1812101 -0.15663248 -0.14435437 -0.06147511 0.16670069 0.14537334 -0.2169517
-0.09597659 0.036521353 0.031711236 -0.1404653 -0.08587873 0.0061689503 -0.051316187 -0.14608246

f.2.bias f4 [16]
00000000: 3329 5cbe 8c1c c9bd fabf 083e 31a4 fc3d
00000010: 0ef6 163d ae48 793e 236d f9bd d770 12bd
00000020: 4189 323d 4970 60bd b657 463d 0194 16bd
00000030: 593d 593e be46 b5bd dce0 673d 2869 893d
-0.21500091 -0.09819898 0.13354483 0.123360045 0.03685575 0.24344131 -0.12179019 -0.035752144
0.043587927 -0.054794583 0.04842349 -0.03676224 0.21214809 -0.088513836 0.056610927 0.0670951

g.0.weight f4 [16, 16]
00000000: 143f 8a3d 4a55 543e ac99 36be b462 40bc
00000010: 2e17 16be 76d5 6bbd aac2 15bd a076 1d3e
00000020: a386 a53a 3a11 c8bc 2424 6fbd 68b6 43be
00000030: 8b24 da3c cf09 e1bd bf4d 543e 15ce f53c
00000040: cb90 193e 7ae2 2e3e a7a2 c1bc 1fba 46be
00000050: d7f2 80be 9716 9f3d e815 f63d 8c67 f8bc
00000060: d7d7 023e 804b 61be e3b8 93bd e8ee 263e
00000070: 69c7 193e ac43 86bd 6b6c ae3d a9f8 303e
00000080: f368 453e 3bbf 52bd 35ae 60be 6739 373e
00000090: 53a5 2b3e 7d1d 61be 01f9 d13d d32f 80bd
000000a0: 0032 58bd 9ea1 6d3e 6400 9bbb 71fa 16be
000000b0: 63d4 c5bd bb7f 7fbe 972a 4b3d d5d9 d43d
000000c0: 09e3 603d eef9 bb3d c727 12be aae4 cabd
000000d0: be38 4e3e bd1e 6c3d 40ab ce3d a6b0 763d
000000e0: 05c9 1abe 6546 6b3e 5375 3fbe 62df 033e
000000f0: d6f6 2b3e af5e 2ebe 0d01 b03d 9952 7dbd
00000100: c738 dabd 3c18 6f3e 9238 493c 4bd3 03be
00000110: eacd 3fbe ab41 27be 890e 853e 0797 6abe
00000120: 1c47 c13d 1f89 243e 9e6c 54be 1af2 0e3e
00000130: 050a 9abd 8f8b 1d3c f9cb 72be 15be e63d
00000140: a11b 9e3d 8c3c b83d 630c aa3c 1358 6d3d
00000150: 8933 09be 9957 403d 1497 07bd 6ed8 1d3c
00000160: 7667 043d 03f5 833e 3f0b efbd 03f3 ee3c
00000170: d851 5a3e 1f2b eabd cbd0 1cbe 30d1 17be
00000180: 3406 8abd 5df2 6cbe a01c e9bd 8bb6 45be
00000190: cc3b 4dbe 744a 0c3e 2655 e1bd 97a3 cabd
000001a0: a37a 273e a36c a4bd 20c1 563e 091b 47be
000001b0: 61ae 1e3e 2b3c aebd d94b 2bbe 1dc0 a73d
000001c0: 0657 063d 65bd bbbb d9a4 7d3e df3c 5c3e
000001d0: 30c2 3f3c 0c98 48bd 8f23 483e c327 7cbb
000001e0: 43f8 97bc f804 653e f88c 123d 174a 02bd
000001f0: 1d84 b3bd 95cb 66be 0a6d 0b3d 7f08 923d
00000200: 194a 35bd a15a 6fbc d22e 83be 0763 cebd
00000210: 1fbb 97bc 0660 bb3d 4c24 a23c 68d3 813d
00000220: d3cb 93bd 62bd 30be d921 d03d 1bf4 793e
00000230: 243b e83c 60a1 babd b048 ef3d 6a53 2cbe
00000240: a8a7 453c 2aa7 bb3b ead2 163e c965 4f3d
00000250: bc75 3fbd c322 163e dac4 e23c c999 77be
00000260: acd7 483e 0c10 a93d 214e 79bd afee eebd
00000270: b66d 0abc a3ba 5fbe 5edc ca3d c208 943d
00000280: cb74 02be 4a73 863c 6428 7a3d 42a4 ec3c
00000290: 655e e0bc 170b 75be 6b08 c83d 58ee 99bd
000002a0: 2fb7 aa3c ad07 60bd fca2 193e 065c 32be
000002b0: 6802 08be 5953 2c3e 2e16 e83d 89c6 fdbd
000002c0: fb87 103e 952d 80bd 1753 223e 5c45 b43d
000002d0: 8959 873d 8f20 713d 09ac 023d f093 85bc
000002e0: 39c2 323c d0f7 3d3e 7b5a 013e bf78 8b3e
000002f0: bc47 723d 279a 76be 917e 553e 12ee 133e
00000300: 549b b0bd c519 b83d 6ca3 f7bc 9226 063e
00000310: 3064 68be 2dae d13c bfff 54be fcb0 a4bd
00000320: 37d7 2c3e 2498 993d c4a6 7dbe 3a27 83bd
00000330: ce9e 16bc 9d8f 86bb 88dd 0bbe d531 45be
00000340: 44b2 0e3e e322 fe3d 84c5 6a3e 88ea 98bd
00000350: 00ba 8a3c 607d 2c3e cacb d93d 7fc8 7ebe
00000360: 2890 36be 9d41 103e b6b3 183b d7d9 03bc
00000370: 454a 6fbe d2b5 6f3e 838f 683e 6225 0cbd
00000380: 19ea 333d d9c1 6dbe 9d39 58be dc41 273e
00000390: 2559 79bd 8275 993d a21b b5bd 13d3 623e
000003a0: 2fc1 14bd f48d bd3d 1eec 10be 9cb2 4e3e
000003b0: d345 31be f5c5 6a3e 11c5 69be de9d 4d3d
000003c0: 5528 163d a1af 64bd ddbd 90bd afa3 493e
000003d0: 12a6 463e 16a8 ddbd 9c0e edbd 583f 03be
000003e0: 7580 22bd 5761 603e 61d9 a83d 279b 763e
000003f0: c973 d0bd d76e 6d3e 0edf 213e f059 2ebe
0.067503124 0.2073566 -0.17832059 -0.011742283 -0.1465728 -0.05757662 -0.0365626 0.15377283
0.0012628626 -0.024422277 -0.058384076 -0.19112551 0.026628753 -0.10988199 0.20732783 0.030005494
0.1499664 0.17078581 -0.023637129 -0.19406937 -0.25185272 0.077679805 0.12015897 -0.030322812
0.12777649 -0.22001457 -0.07212999 0.16302073 0.15017475 -0.06555876 0.08516773 0.17282356
0.19278316 -0.051451903 -0.21941455 0.17892991 0.16762285 -0.21983905 0.10252572 -0.06259122
-0.05278206 0.23206183 -0.004730271 -0.14743973 -0.0965965 -0.24951069 0.049601164 0.10393111
0.054904018 0.0917853 -0.14272986 -0.099068955 0.20138833 0.0576465 0.10091257 0.06022706
-0.15115745 0.22976072 -0.186971 0.12878183 0.16793379 -0.17028306 0.085939504 -0.06184635
-0.10655361 0.23349088 0.012281554 -0.1287357 -0.18730894 -0.16333644 0.25987652 -0.22909175
0.09437391 0.16067933 -0.20744559 0.13959542 -0.07521442 0.009615793 -0.23710622 0.11266724
0.077201135 0.089959234 0.02075786 0.057945322 -0.13398565 0.04695854 -0.033103064 0.00963412
0.03232523 0.25772867 -0.11672067 0.029168611 0.21320283 -0.11434006 -0.15314023 -0.14825892
-0.067394644 -0.23139329 -0.11382413 -0.19307916 -0.20042342 0.13700277 -0.11002569 -0.098944835
0.16355376 -0.08028533 0.20972109 -0.19443907 0.15496208 -0.0850757 -0.16728152 0.081909396
0.032797836 -0.0057293647 0.24769916 0.21507595 0.011704013 -0.04897313 0.19544815 -0.0038475848
-0.018550998 0.22365177 0.03577897 -0.03180894 -0.08765433 -0.22538598 0.034039535 0.07130527
-0.04426012 -0.01460901 -0.2562166 -0.10077482 -0.018521843 0.091491744 0.019792698 0.06339151
-0.07216611 -0.17259744 0.10162706 0.24409525 0.028348513 -0.09112811 0.11683786 -0.16828695
0.012063898 0.0057267146 0.14728895 0.05063418 -0.04674314 0.14661698 0.027681757 -0.24179758
0.19613522 0.08255014 -0.060865525 -0.11666619 -0.008449009 -0.2184854 0.09905313 0.07228233
-0.12739865 0.016412396 0.061073676 0.028886918 -0.02738876 -0.23930012 0.097672306 -0.075161636
0.020839302 -0.05469482 0.1500358 -0.17417917 -0.13282168 0.1682867 0.113323554 -0.12391383
0.14114372 -0.06258694 0.15852009 0.08802292 0.06608874 0.05886894 0.031902347 -0.016305894
0.010910564 0.18551564 0.12632172 0.2724056 0.059150442 -0.24082242 0.20849063 0.14446285
-0.086233765 0.0898929 -0.030229293 0.13100651 -0.22694468 0.025595749 -0.20800684 -0.080415696
0.16878973 0.07499722 -0.24770647 -0.06403966 -0.009193135 -0.0041064755 -0.13658726 -0.1925729
0.1393519 0.12408998 0.22926909 -0.07466608 0.016934395 0.16844702 0.10634573 -0.2488117
-0.17828429 0.1408753 0.0023300475 -0.008047543 -0.23368175 0.23409203 0.22710995 -0.03421534
0.043924425 -0.23218478 -0.21115728 0.16333717 -0.06087603 0.07493116 -0.08843161 0.22150831
-0.036317047 0.09255591 -0.14152572 0.20185322 -0.17311792 0.22927077 -0.22829081 0.050199382
0.036659557 -0.055831555 -0.070674635 0.19691347 0.19399288 -0.108230755 -0.11575052 -0.12817132
-0.039673287 0.21912132 0.08244587 0.24082623 -0.10178334 0.23186813 0.15807745 -0.17026496

g.0.bias f4 [16]
00000000: bf6b 6bbe dd27 9b3d 4add 0ebe 8e5a 883d
00000010: 7c6a 543e ec8f 59bd 026d 063c d4fe c5bd
00000020: 96dc 63be 2be1 6fbe 4f1c e13d fe5e 353d
00000030: 0dff 2d3e 76f4 69be a956 33be c147 0cbe
-0.2299032 0.07575963 -0.13951603 0.06657897 0.20743746 -0.05311577 0.0082047 -0.09667745
-0.22252116 -0.23425739 0.109917276 0.044280045 0.16991825 -0.2284716 -0.17513527 -0.13699247

g.2.weight f4 [80, 16]
00000000: 4865 483c b8cd c6bd 50d2 8f3d c7fb 7b3e
00000010: e17f 31be aebe b8bd e4e0 71be c0ab 1dbd
00000020: 09fa babd e9df 1dbe e9e4 cfbd d82c 9ebd
00000030: 1f5c 193e 8786 bdbd ff22 d6bd e910 bc3d
00000040: db96 20be bff7 edbb 2920 b8bc ea1e 22be
00000050: df4b 633d d540 a63d eeea 38bd df8f fa3c
00000060: a041 19bd adba bdbd e45e 82be 7737 2dbd
00000070: 7c19 6e3e 441b 1dbd d081 653e fbd4 eabd
00000080: 96cc 453e e50f 703e 493d b73d 5b4f 58be
00000090: f97f 8bbe b6e7 36be 3961 2a3e 7e1a 133e
000000a0: 2f92 0bbe 1b2e 293e 74a1 123e fa98 17be
000000b0: fb14 9b3d 59ba 003d 4776 123e 267e 1cbe
000000c0: dca6 cc3b b30f 25be 11b5 b43d e9f0 6e3e
000000d0: e01d 1bbb 596a 953d b1e3 153e aa7a 093e
000000e0: 97e1 063e ea38 023e f87e ad3c 5907 053e
000000f0: ce3f 3b3e 3ab7 213e 8a63 603e 1148 843e
00000100: 0ecf 913e 9d7e a9bd 65f8 f4bd fd2f 40bc
00000110: 2af0 38be 8d65 633e fe76 b7bd 2c2c 2cbd
00000120: 174e 303e b106 31be 08fe 5d3e 5717 33be
00000130: d29c cdbd 361f abbd 4aa9 793e d080 5abe
00000140: 4231 a43c 002f 463e 859d e43c 42b7 333e
00000150: 9c4f 47bd 2bb9 313e 6ce3 e93d 4d40 10be
00000160: 10c7 683d fbc0 473e 3550 39be 8ef2 853d
00000170: d06f 003e 6d6d 803e 4a7d fb3d 0b2a 8abb
00000180: 4743 b5bd 5a3b b33d 71b7 31be c0d2 373d
00000190: 0cbe 57be 1e07 bc3d 3b3d 8d3d 22a6 70be
000001a0: d79e 133e db63 c23d f5fe 003e 4087 06bd
000001b0: 47db 26be 435b 55be fda5 f1bd 6d1d b1bc
000001c0: e2a7 733d 2617 c23b 2eb4 803c 80aa 2bbe
000001d0: f4e7 a4bd 46cd 393e aed8 b63d cab7 753e
000001e0: b3a0 53be 516d 603e 0e31 2a3e 1e46 bb3b
000001f0: 327d 80be 7c04 37be c60b d3bd e8cf 323e
00000200: c8d5 bbbd 595d e1bd ea4a 5a3e 9024 81bd
00000210: 6cc0 aebd b22e 203e da03 8f3e 2242 aebd
00000220: bda5 403e 3db4 4d3e ec1d 5fbd 9b7f ae3d
00000230: 96bc 1fbe 624e 043d 74d2 163e e8eb ebbd
00000240: 947a bfbd f1a1 173d 6cea 4d3e 04c0 6ebc
00000250: 3bac 053e be39 09be 7ad8 4d3e da64 2ebe
00000260: dff7 42be 54d0 7ebe 35c5 9cbd 2a36 8dbe
00000270: ea1d afbd d5f4 49be 48dc 8a3b 6174 1ebd
00000280: b8ad 05be 3f8c ca3d 30a7 1dbe 7755 5e3e
00000290: 85d7 34bd a973 7fbe 50bc 8abb e330 33be
000002a0: 2b42 8d3d 29e2 a23c 5e3a e6bd 841b a9bd
000002b0: 686c a2bd 28f1 5c3e eb49 9d3c 626b d63d
000002c0: 3080 fdbd f1d8 213d ea6f 7ebe 9b6c fd3b
000002d0: 9096 223e 2683 a7bd 817f fa3d 1c4c 493e
000002e0: 6ebc 4abe 0332 403e eaf0 b33c d4c9 29be
000002f0: 4699 6c3d 51db 0dbe cf18 d93d 9a6d 75be
00000300: d617 503e dd46 c13d c3b5 2dbe 3f51 d1bd
00000310: 3664 0c3d 3c21 17bd 8a9b d13d d6c2 1abd
00000320: 6ca7 343e d094 3b3e 05fe 40be 1720 1d3e
00000330: 0b86 0f3e 52ad 90bd a412 d2bd 9ee3 a33d
00000340: 980f 0b3e a676 9d3b c642 2cbe df92 923d
00000350: 88f5 423e 7954 743d bb6b e73d 0766 633e
00000360: 3f6d 8a3d 6502 6a3e 475a 34be 232a 8f3e
00000370: 8484 6ebc 8687 53be d229 c33b f7f8 cbbc
00000380: ceb2 713a 4c75 43be 7a99 093b ad84 1f3e
00000390: 883b f73d c4df 303c 6018 6f3e 7c69 8e3e
000003a0: 4861 1dbe 3b0d 17be 3313 533d de65 b6bd
000003b0: a5bf b1bd 3582 b83d 8246 313e 207e 193e
000003c0: f252 2abe 9e01 ed3d e31a 573d ac67 a3bd
000003d0: 0b3a ba3d 6ae4 6ebd 5972 93bd 74c4 e0bd
000003e0: b3a8 1e3e f6a2 8fbd 7eb0 553d de09 6dbe
000003f0: 728f 1bbe b3c4 0abe f8c3 22be 5320 f83d
0.012231179 -0.097072065 0.07022536 0.24607764 -0.17333938 -0.09020744 -0.23620945 -0.03849387
-0.09129722 -0.15417446 -0.10151083 -0.07723397 0.14976548 -0.09254175 -0.10455894 0.09182913
-0.15682547 -0.0072621997 -0.022476273 -0.15832105 0.05549228 0.081178345 -0.04514592 0.030586181
-0.0374161 -0.09264121 -0.2546302 -0.042289224 0.23251909 -0.03835608 0.22412801 -0.11466404
0.19316325 0.23443563 0.08947236 -0.21124022 -0.27246073 -0.17861828 0.1663865 0.14365575
-0.13629983 0.16521494 0.14319402 -0.1480445 0.07572361 0.031427715 0.14302932 -0.15282497
0.006245477 -0.1611927 0.08823598 0.23334087 -0.002366893 0.07295675 0.14637639 0.13425699
0.13171993 0.12717023 0.021178707 0.12991084 0.18286058 0.15792552 0.21912971 0.25836232
0.28478283 -0.08276103 -0.1196144 -0.011730191 -0.18060365 0.22206707 -0.08958243 -0.042034313
0.17217289 -0.17287709 0.21678936 -0.17489372 -0.10039677 -0.083555624 0.24380985 -0.213382
0.02004302 0.19353867 0.027907142 0.17550376 -0.048659906 0.17355792 0.114203304 -0.14087029
0.056830466 0.1950721 -0.18097003 0.06540404 0.12542653 0.25083485 0.12279756 -0.0042164377
-0.08850723 0.08751555 -0.17355134 0.04487872 -0.21068591 0.09181045 0.068964444 -0.23500875
0.14416061 0.09491702 0.12597258 -0.03284383 -0.16294585 -0.20835595 -0.11799238 -0.021620477
0.059486277 0.0059231697 0.015710916 -0.1676426 -0.08052054 0.18144712 0.08928047 0.23995891
-0.2066677 0.21916701 0.16620275 0.0057151457 -0.25095516 -0.17872804 -0.1030498 0.17462122
-0.09171635 -0.11004133 0.2131764 -0.06305802 -0.08532795 0.15642813 0.27932626 -0.085087076
0.18813224 0.20088287 -0.054471895 0.085204326 -0.15599284 0.032301314 0.14728719 -0.11519605
-0.09349552 0.037019674 0.20108956 -0.014572147 0.13053982 -0.13400933 0.2010211 -0.1703066
-0.19039868 -0.24884158 -0.07654802 -0.27580386 -0.085506275 -0.19722302 0.0042376854 -0.038685206
-0.1305455 0.09890031 -0.15395808 0.2171229 -0.044150848 -0.24946465 -0.0042338744 -0.17499118
0.06897386 0.019883232 -0.112416014 -0.08257201 -0.07930833 0.21576369 0.019200286 0.104697004
-0.123779655 0.039513532 -0.2484738 0.007733894 0.15877748 -0.081793115 0.12231351 0.1965794
-0.19798443 0.18769078 0.021965463 -0.16580898 0.05776336 -0.13853194 0.10600435 -0.23967591
0.20321593 0.09437344 -0.16963868 -0.102205746 0.034275256 -0.03689693 0.10234745 -0.037783466
0.17641991 0.18318486 -0.18846901 0.15344273 0.14015977 -0.07064308 -0.10257462 0.08002399
0.13580167 0.0048054038 -0.16822347 0.0715692 0.19038975 0.059650872 0.11299845 0.22206889
0.06759118 0.22852476 -0.17612563 0.27961835 -0.014557961 -0.20657167 0.005955913 -0.02489899
0.00092200644 -0.19087714 0.002099602 0.15577956 0.120719016 0.010795537 0.23349142 0.27814853
-0.15369141 -0.14751141 0.05153198 -0.089061484 -0.086791314 0.0900921 0.17312053 0.14989519
-0.16633204 0.11572574 0.052515876 -0.07978758 0.09093102 -0.0583233 -0.071995445 -0.109749705
0.15494041 -0.07013504 0.05217027 -0.23148295 -0.15191439 -0.13551597 -0.15895069 0.1211554

g.2.bias f4 [80]
00000000: ee5c 673c 1a66 4f3b a30c 953e ceff e83d
00000010: a934 dabc 28fe 0e3d 2ad6 22be b5c2 22be
00000020: 7dd0 0cbe 5666 dd3d 3418 e2bc 4e79 07be
00000030: 5076 4fbd 9de7 ccbd 1973 923d 6447 5a3e
00000040: 2421 46be 826e 49be 7394 6b3e 29d6 833d
00000050: a40b 603e f751 80bd 2e8d 853d 67e7 283e
00000060: fa61 b9bc 1203 473d 1160 c63d 1f21 3dbe
00000070: 59ee 4ebd 5552 34be 86be 33be a9cf d63d
00000080: e4cd 8b3e db72 123c cb50 463e 7e93 143e
00000090: 1567 233e 9e50 edbc 2492 63be 92da b3bc
000000a0: 2b65 d5bd f160 2e3e f7be 0f3e 556c 53be
000000b0: a241 173d c4ba 83bd 2dc6 a8bd 6ccb 5abe
000000c0: fafd 143e bc30 96bd 20f6 b43c adeb 21bd
000000d0: 8815 863e ea9a e9bd f4dd 7b3d 3e6f 3e3e
000000e0: 15ba 3e3e be3c 953c 3296 cebd ec04 773e
000000f0: 8b55 003e 8fe8 d4bd 455c 2bbe 7a1f e8bd
00000100: 8022 73bd 63a3 363c ad00 72be c1e1 40bd
00000110: da81 da3d 21e4 e5bd 2806 363d 2261 17be
00000120: 2c16 49bd 979b 58bc 87b2 2b3e 23af 57be
00000130: 0b40 713e 737a 72bc ed05 603d 4b65 25be
0.014121277 0.003164655 0.29111204 0.11376916 -0.026636438 0.03491035 -0.1590201 -0.15894587
-0.13751407 0.10810535 -0.027599432 -0.13229868 -0.05064994 -0.10005114 0.071508594 0.21316296
-0.1934858 -0.19671062 0.23005848 0.06437332 0.2187944 -0.062656336 0.065210685 0.16494523
-0.022629727 0.048586912 0.09686292 -0.18469666 -0.050520275 -0.17609532 -0.17553148 0.10488827
0.2730552 0.0089385165 0.19366758 0.14509389 0.15957291 -0.028969105 -0.22223717 -0.021954808
-0.10419687 0.17029168 0.14037691 -0.20646794 0.036927827 -0.06432107 -0.08240924 -0.21366662
0.1455001 -0.07333514 0.022090018 -0.0395314 0.26188302 -0.11406501 0.061490968 0.18597123
0.18625672 0.01821744 -0.10087241 0.24122971 0.12532632 -0.103959195 -0.16734417 -0.11334129
-0.059359074 0.011147353 -0.2363307 -0.047090296 0.106692985 -0.11225153 0.044439465 -0.14783147
-0.04909341 -0.013220689 0.16767322 -0.21062903 0.23559587 -0.014799702 0.05469315 -0.16151921
