ckpt/rnn_RK1_h32_dis10/best.pth (torch_old, 61172 bytes, 30 tensors)

rnn.weight_ih_l0 f4 [32, 7]
-0.016787002 -0.007218279 0.106824756 -0.056435853 -0.08497936 0.20155221 -0.18525939 -0.09958166
0.011208713 -0.18976012 0.054311294 -0.120821305 -0.0435879 -0.056087956 -0.1259121 0.05399054
-0.07374222 0.09140924 -0.0039304434 0.2401112 -0.13672163 0.07757362 -0.08698509 0.09769953
0.07250471 -0.1366781 0.12581645 -0.03704338 -0.038986105 -0.06722945 -0.09407776 0.050815996
-0.060146097 -0.09082366 0.19432846 0.05489134 -0.13694051 -0.12624444 0.12688182 -0.028582884
0.22402433 -0.1494523 0.100455455 0.056066994 0.08627273 0.19427331 0.0029769083 -0.12527087
-0.054742195 0.09676731 0.01464999 0.035327792 -0.0003978233 0.051834594 0.20698315 0.21105905
0.037788756 -0.023862462 0.17703706 -0.07929951 0.098545 0.038229004 -0.042148806 0.10500828
0.20428826 -0.14482154 0.08937028 0.1658605 -0.068991624 0.15657806 0.12368334 -0.15849753
-0.054335564 0.27700478 0.104402475 0.031092562 0.06774953 0.03189341 -0.045093935 -0.09313737
0.10806045 -0.033299197 -0.18097821 0.13350488 -0.04825748 -0.13154487 -0.07176797 -0.048545312
-0.16195735 -0.12314023 0.23633689 0.037348412 0.112609565 -0.06479597 -0.2086083 0.06823742
-0.12987761 -0.17632341 -0.010896702 -0.01295908 -0.021310123 0.0092755025 0.045405716 -0.054128893
0.16753344 0.13565995 -0.15642963 0.0883707 0.10663178 -0.09651003 -0.07998226 -0.093195975
0.011702607 -0.117319874 0.105478905 0.1182183 0.1530828 -0.19616234 0.020847458 0.19005293
0.022111747 0.037939858 0.022076713 0.17134155 -0.016806975 0.07621224 0.13185656 0.07316283
-0.13064745 0.14327742 0.11645961 -0.0350169 -0.091431566 0.18998766 -0.13545096 0.035660125
-0.0841385 -0.09989619 0.12226579 -0.2672833 0.041488662 0.114968754 -0.09126535 0.14881964
0.10488282 -0.2050051 0.022541262 -0.05352671 0.17765635 0.13820843 -0.02249559 -0.07257435
0.016709216 0.09947133 -0.043431748 -0.056762453 0.061177205 0.09087636 -0.0011067935 0.009314782
-0.14158863 -0.11884318 -0.06066097 0.1468935 0.04476512 -0.027888445 -0.11763189 0.04486738
0.121579155 -0.055386182 -0.13328607 -0.045963127 0.08096501 -0.06613685 0.04177275 0.04138703
0.06668683 0.027232843 0.056309875 0.07467121 0.111022174 -0.046196964 0.11846605 -0.00044759244
0.14145304 -0.031972226 0.052199602 0.16607517 0.2590453 0.1222659 -0.18291089 -0.01999679
-0.14826877 0.102138415 -0.024675764 -0.2161358 -0.14693184 0.03610615 0.007548725 -0.12654129
-0.018349787 -0.031698246 -0.11528046 0.01862951 0.066690065 0.07803088 0.13854617 -0.053019915
0.1867492 0.07736093 0.14348099 -0.023807375 0.10947058 -0.08196265 -0.028963372 -0.03538221
-0.21634905 -0.11802716 -0.060532313 0.16328119 0.055364937 0.11195773 0.08586062 -0.16381614
00000000: e584 89bc 5087 ecbb f0c6 da3d 4829 67bd
00000010: a909 aebd b463 4e3e a3b4 3dbe 78f1 cbbd
00000020: c0a4 373c 7a50 42be 8575 5e3d 2971 f7bd
00000030: 3a89 32bd 7cbc 65bd 1aef 00be 2f25 5d3d
00000040: 2906 97bd c534 bb3d f3ca 80bb b6df 753e
00000050: c100 0cbe ebde 9e3d 3d25 b2bd b116 c83d
00000060: 597d 943d 58f5 0bbe 07d6 003e cdba 17bd
00000070: e5af 1fbd 98af 89bd d7ab c0bd 6f24 503d
00000080: c15b 76bd c101 babd 0afe 463e bed5 603d
00000090: 223a 0cbe 3946 01be 4fed 013e a726 eabc
000000a0: a266 653e 060a 19be 97bb cd3d 81a6 653d
000000b0: c2af b03d 95ef 463e 3c18 433b 0247 00be
000000c0: 5a39 60bd f02d c63d 8306 703c e0b3 103d
000000d0: f192 d0b9 8350 543d 64f3 533e dd1f 583e
000000e0: 62c8 1a3d 367b c3bc 3449 353e c867 a2bd
000000f0: f6d1 c93d 0496 1c3d 3aa4 2cbd 950e d73d
00000100: f130 513e 194c 14be c407 b73d 56d7 293e
00000110: 7b4b 8dbd 0056 203e b14d fd3d 2d4d 22be
00000120: f88e 5ebd 92d3 8d3e f7d0 d53d d4b5 fe3c
00000130: 44c0 8a3d aaa2 023d 6bb4 38bd cebe bebd
00000140: cc4e dd3d bd64 08bd 5a52 39be 81b5 083e
00000150: a3a9 45bd b3b3 06be 16fb 92bd 73d7 46bd
00000160: 26d8 25be f230 fcbd 4c02 723e a6fa 183d
00000170: d89f e63d c0b3 84bd 6a9d 55be 0fc0 8b3d
00000180: a3fe 04be 208e 34be 1588 32bc 5252 54bc
00000190: 9192 aebc 47f8 173c 58fb 393d 42b6 5dbd
000001a0: e38d 2b3e 71ea 0a3e 172f 20be b3fb b43d
000001b0: c361 da3d 0da7 c5bd bdcd a3bd 88dd bebd
000001c0: 4bbc 3f3c 6745 f0bd 5305 d83d 701c f23d
000001d0: bdc1 1c3e c8de 48be 4ac8 aa3c 3c9d 423e
000001e0: b223 b53c d366 1b3d 39da b43c 2974 2f3e
000001f0: c8ae 89bc 2a15 9c3d 6805 073e 65d6 953d
00000200: 72c8 05be 51b7 123e 6082 ee3d e26d 0fbd
00000210: 7940 bbbd 208c 423e a8b3 0abe 5a10 123d
00000220: ce50 acbd 6096 ccbd 7d66 fa3d 5bd9 88be
00000230: 04f0 293d bd74 eb3d 54e9 babd 2d64 183e
00000240: cecc d63d dbec 51be 74a8 b83c d33e 5bbd
00000250: 8ceb 353e 8386 0d3e ac48 b8bc dca1 94bd
00000260: c4e1 883c a0b7 cb3d 7de5 31bd bf7f 68bd
00000270: f394 7a3d 631d ba3d d411 91ba 079d 183c
00000280: 9cfc 10be 0e64 f3bd a377 78bd 406b 163e
00000290: a15b 373d 4f76 e4bc fde8 f0bd dcc6 373d
000002a0: 7efe f83d 9fdc 62bd 257c 08be d543 3cbd
000002b0: fcd0 a53d c272 87bd e719 2b3d 7285 293d
000002c0: 1b93 883d 6917 df3c 2fa5 663d 38ed 983d
000002d0: 985f e33d 0739 3dbd 549e f23d d7aa eab9
000002e0: 11d9 103e 4ff5 02bd 40cf 553d 9c0f 2a3e
000002f0: 96a1 843e 8b66 fa3d fe4c 3bbe 4fd0 a3bc
00000300: c5d3 17be f22d d13d d424 cabc b452 5dbe
00000310: 4d75 16be 0be4 133d 4c5b f73b 0a94 01be
00000320: 4b52 96bc 05d6 01bd 2918 ecbd ea9c 983c
00000330: cd94 883d a7ce 9f3d 0cdf 0d3e 692b 59bd
00000340: 2f3b 3f3e 686f 9e3d aeec 123e af07 c3bc
00000350: 1d32 e03d 09dc a7bd 9844 edbc f0ec 10bd
00000360: 9b8a 5dbe 39b8 f1bd bbf0 77bd 2f33 273e
00000370: 58c6 623d 184a e53d b1d7 af3d 6bbf 27be

rnn.weight_hh_l0 f4 [32, 32]
-0.10877829 0.1265626 -0.20398127 0.13655148 -0.110648975 0.14115962 -0.10266094 0.11928562
-0.012391573 0.12497949 0.009147548 0.054813273 0.11655835 -0.11124302 -0.016351137 0.006705344
-0.10210351 -0.030949133 0.070842825 -0.036602452 -0.037476655 -0.13538888 0.1448768 0.005667073
-0.15715648 0.10120816 0.059024185 0.124531835 0.15545455 0.0916404 0.04199414 -0.15767159
-0.03506206 -0.069840334 -0.039769206 -0.13901588 -0.033321016 0.100268796 -0.06295497 -0.21498568
-0.094749495 0.19772005 -0.14380917 0.042216655 0.12657592 0.25868917 0.0058463146 0.04642649
0.12467141 -0.018633073 0.025109531 0.13767532 0.1282369 -0.09521531 -0.06385924 -0.18350181
-0.18408115 0.12055077 -0.12308491 0.09482746 0.09240588 -0.15740551 0.12161677 0.11953119
-0.061767295 0.025828606 0.02490079 0.18846658 0.12754872 -0.08319725 0.10284244 -0.064907506
-0.04100989 0.07136959 -0.071487255 -0.10379335 0.11404553 0.07349183 0.1161149 -0.17357415
-0.1311668 0.03881238 -0.18784931 -0.121429965 -0.06965212 0.029300343 -0.12604803 0.17673443
-0.009156926 -0.081133716 -0.13133477 0.14536004 -0.05716088 0.12253052 0.13807313 0.009161779
0.040202823 -0.21125525 -0.12560935 -0.0023501874 -0.07708954 -0.21401401 0.083200656 0.1700021
0.15391915 0.09479003 -0.05038028 -0.07152334 -0.0784151 -0.059000064 0.112149216 -0.09314
-0.027393395 -0.02177588 -0.11521257 -0.2635061 0.06371194 -0.022154931 -0.26841354 0.121781334
0.009834353 -0.13204676 0.07877031 0.015670005 -0.15099323 0.1870184 -0.13331465 0.20129673
-0.083528414 0.015377363 -0.12202895 -0.07096254 0.09608861 -0.20840031 -0.057119567 0.063328005
0.119564205 -0.14781636 0.13655993 0.19183731 -0.050516833 0.10018896 -0.10080394 0.08895598
-0.07952911 -0.06598575 -0.06476668 -0.13832785 0.10520894 -0.15185553 -0.009916423 -0.11156241
0.12656441 -0.041844055 0.13355193 -0.17731783 -0.07911469 0.1125421 -0.093179576 -0.11606743
0.17953078 0.13441366 -0.059149496 0.15388049 -0.1844313 0.14438348 -0.14938544 -0.031069355
-0.14842118 0.0694221 0.035084885 -0.14918976 -0.1665315 -0.2008658 0.066417724 0.033006407
-0.054938287 0.15747547 -0.055993628 -0.15133978 0.083789 -0.107769996 -0.11626536 -0.17973937
-0.11799388 -0.1209036 0.027815083 -0.092783235 -0.04512963 -0.14528391 -0.15120296 -0.14012137
0.04851601 -0.06473235 -0.01849113 0.18026353 -0.16251808 0.07755039 0.15964502 -0.06871963
0.103582665 0.08759493 0.123730764 -0.06669838 -0.13619083 -0.012027536 -0.18373626 0.10730228
-0.1015139 -0.16400497 -0.07595189 -0.07832912 0.10930993 0.0029902852 0.2170304 0.07911705
-0.1851689 0.05850481 0.030011792 -0.064608596 0.06369108 -0.13081035 0.06590492 -0.017577123
-0.17513032 -0.001673774 0.13314912 -0.06282148 0.17373279 -0.11440182 0.031755757 -0.15189105
0.06745263 -0.21821529 0.20063084 0.03391278 0.17576368 0.15320815 -0.19724312 -0.119308084
0.16184814 -0.16492409 -0.18367569 0.041315183 -0.12644993 0.14737327 0.19343819 0.102806725
-0.09068076 -0.08245324 0.045935474 0.1298064 -0.06939556 0.059317164 -0.07722256 -0.14073652
00000000: 27c7 debd a099 013e 77e0 50be 27d4 0b3e
00000010: ee9b e2bd 268c 103e e63f d2bd 054c f43d
00000020: 0606 4bbc 3ff5 ff3d 99df 153c e283 603d
00000030: 25b6 ee3d 61d3 e3bd d2f2 85bc 81b8 db3b
00000040: a51b d1bd 0989 fdbc 0b16 913d 74ec 15bd
00000050: 1f81 19bd 62a3 0abe 955a 143e dbb2 b93b
00000060: a1ed 20be 3946 cf3d 58c3 713d 8c0a ff3d
00000070: 7a2f 1f3e f6ad bb3d 0c02 2c3d a974 21be
00000080: 3c9d 0fbd 7308 8fbd 09e5 22bd 2e5a 0ebe
00000090: 9e7b 08bd ba59 cd3d 89ee 80bd 3525 5cbe
000000a0: 060c c2bd 2077 4a3e b642 13be 5feb 2c3d
000000b0: 1e9d 013e e872 843e 7192 bf3b b429 3e3d
000000c0: b953 ff3d 63a4 98bc 81b2 cd3c c2fa 0c3e
000000d0: 8950 033e 3f00 c3bd a2c8 82bd e6e7 3bbe
000000e0: c57f 3cbe 52e3 f63d f113 fcbd e634 c23d
000000f0: 4b3f bd3d e92e 21be 3712 f93d c5cc f43d
00000100: b4ff 7cbd 8396 d33c befc cb3c 62fd 403e
00000110: 229c 023e 5263 aabd 0f9f d23d 3aee 84bd
00000120: fdf9 27bd 382a 923d e967 92bd 9c91 d4bd
00000130: b490 e93d e282 963d a6cd ed3d 6cbd 31be
00000140: 9750 06be bbf9 1e3d 925b 40be 46b0 f8bd
00000150: c5a5 8ebd 4607 f03c bc12 01be dff9 343e
00000160: ee06 16bc 6f29 a6bd 9f7c 06be 43d9 143e
00000170: 8721 6abd 48f1 fa3d 0b63 0d3e 491b 163c
00000180: b7ab 243d 4c53 58be bd9f 00be 9a05 1abb
00000190: 1fe1 9dbd 7d26 5bbe 1b65 aa3d 0815 2e3e
000001a0: fb9c 1d3e 4621 c23d 8d5b 4ebd d47a 92bd
000001b0: 1998 a0bd 0daa 71bd 7dae e53d 2fc0 bebd
000001c0: 1d68 e0bc 5563 b2bc 91f4 ebbd 46ea 86be
000001d0: 687b 823d 427e b5bc 806d 89be 7e68 f93d
000001e0: 4420 213c 4437 07be 5452 a13d 625e 803c
000001f0: f89d 1abe c081 3f3e a383 08be bb20 4e3e
00000200: f210 abbd 56f1 7b3c 50ea f9bd cf54 91bd
00000210: 1bca c43d e466 55be 35f6 69bd 1db2 813d
00000220: 14de f43d 2c5d 17be 5ed6 0b3e 0071 443e
00000230: bdea 4ebd df2f cd3d 4c72 cebd 8e2e b63d
00000240: 28e0 a2bd 8923 87bd 65a4 84bd d1a5 0dbe
00000250: c977 d73d 0480 1bbe 7e78 22bc d57a e4bd
00000260: 1a9a 013e ac64 2bbd d6c1 083e ce92 35be
00000270: e206 a2bd 797c e63d efd4 bebd c3b4 edbd
00000280: ebd6 373e bca3 093e be46 72bd d992 1d3e
00000290: 8fdb 3cbe 43d9 133e 7ff8 18be 2985 febc
000002a0: b9fb 17be 2d2d 8e3d 2bb5 0f3d 33c5 18be
000002b0: 3c87 2abe c4af 4dbe 0406 883d ba31 073d
000002c0: f806 61bd 4041 213e 9359 65bd d1f8 1abe
000002d0: 9199 ab3d 84b6 dcbd 881c eebd 990d 38be
000002e0: c6a6 f1bd 4e9c f7bd 75dc e33c 2305 bebd
000002f0: d9d9 38bd 4ec5 14be f3d4 1abe fa7b 0fbe
00000300: b9b8 463d 6592 84bd b67a 97bc 0197 383e
00000310: 246b 26be bdd2 9e3d fc79 233e e1bc 8cbd
00000320: 2623 d43d f864 b33d 8e66 fd3d 2999 88bd
00000330: 9c75 0bbe 240f 45bc 5c25 3cbe 4cc1 db3d
00000340: 85e6 cfbd ebf0 27be aa8c 9bbd 056b a0bd
00000350: e2dd df3d a9f8 433b 383d 5e3e 1f08 a23d
00000360: eb9c 3dbe bda2 6f3d 4adb f53c 8351 84bd
00000370: 7870 823d 26f3 05be 29f9 863d e6fd 8fbc
00000380: 5d55 33be 8962 dbba 3e58 083e 8ca8 80bd
00000390: 02e7 313e 804b eabd 5312 023d 5489 1bbe
000003a0: 9b24 8a3d d473 5fbe 2c72 4d3e 21e8 0a3d
000003b0: 65fb 333e 99e2 1c3e 1afa 49be cc57 f4bd
000003c0: 85bb 253e dce1 28be 7b15 3cbe 1c3a 293d
000003d0: 177c 01be 05e9 163e a914 463e 558c d23d
000003e0: d6b6 b9bd 3fdd a8bd d626 3c3d f8eb 043e
000003f0: 421f 8ebd 8ef6 723d dd26 9ebd 3c1d 10be

rnn.bias_ih_l0 f4 [32]
0.006621294 -0.0981689 0.1066729 0.06848213 0.009647972 -0.02186231 0.011104251 -0.10349218
0.069394894 -0.0016223039 0.088518195 0.108826935 -0.14913003 0.091299385 -0.033306323 0.16484834
-0.09907628 0.08168078 -0.028313393 0.12893623 0.052639056 -0.13428736 -0.0006690877 -0.052868895
0.08325543 0.011697304 0.13106827 -0.13959594 -0.049120776 0.05281833 0.19822125 0.036548685
00000000: 71f7 d83b c70c c9bd 5277 da3d 5c40 8c3d
00000010: 8712 1e3c 9618 b3bc 9bee 353c b5f3 d3bd
00000020: e91e 8e3d 7ca3 d4ba 0749 b53d a8e0 de3d
00000030: 8bb5 18be 2cfb ba3d 366c 08bd 01ce 283e
00000040: 81e8 cabd 4148 a73d 7df1 e7bc dc07 043e
00000050: 0d9c 573d a082 09be b765 2fba 0e8d 58bd
00000060: d381 aa3d 0da6 3f3c c336 063e 3df2 0ebe
00000070: de32 49bd 0858 583d 83fa 4a3e 13b4 153d

rnn.bias_hh_l0 f4 [32]
-0.17567906 0.103693895 -0.04218424 -0.15593106 0.059378456 -0.08730344 -0.06453078 -0.051590603
-0.15549728 0.09578214 0.17871703 -0.11659154 0.11865725 0.0076568765 -0.13448085 -0.06132715
0.18445565 0.14103538 -0.15643589 -0.1202047 0.1808777 0.15502594 -0.066488296 -0.13889463
0.16989137 0.19716875 -0.0027773546 0.09200046 -0.1092142 0.19412208 0.04129722 -0.07941298
00000000: 36e5 33be 775d d43d 62c9 2cbd 64ac 1fbe
00000010: d336 733d 25cc b2bd b728 84bd ab50 53bd
00000020: ae3a 1fbe 6d29 c43d 9901 373e 8cc7 eebd
00000030: 9302 f33d 89e6 fa3b 59b5 09be 2d32 7bbd
00000040: f1e1 3c3e 946b 103e bb30 20be e22d f6bd
00000050: 0138 393e 1fbf 1e3e 042b 88bd 653a 0ebe
00000060: 01f8 2d3e 9be6 493e 4704 36bb bd6a bc3d
00000070: b2ab dfbd f0c7 463e 4627 293d 46a3 a2bd

fc.0.weight f4 [32, 32]
-0.2561498 0.09536029 -0.1610903 -0.29603237 0.124764785 0.008548549 0.12215922 -0.10716142
0.052284084 0.06273638 0.06892825 0.0972877 -0.050530963 -0.013582613 0.27890083 -0.06670143
0.16394044 -0.08597676 -0.17891036 -0.058381457 0.070121415 -0.13251425 -0.14676136 -0.11802942
-0.13671967 0.5056379 0.24252829 0.23893501 -0.39653602 -0.104972646 0.2162057 0.1572711
-0.17513084 -0.16193093 -0.2333647 -0.15474938 0.00012349768 0.03528216 0.16672191 -0.17620526
0.40756536 -0.12788707 -0.000863963 -0.008881913 -0.011624964 0.12980296 0.03317802 0.15792762
-0.15738657 0.027734362 0.44194463 -0.09296936 -0.090888225 0.2614511 0.041844465 0.0023355163
-0.21604666 -0.058027104 0.22276957 -0.11892019 -0.22994988 -0.13425964 -0.110750675 -0.14580683
0.057802252 -0.0624414 0.19229941 0.28087205 -0.035921443 0.0052717873 -0.086965635 0.13277669
0.22211865 0.057566185 0.23498167 -0.10189182 -0.60542244 0.06672203 -0.005113813 -0.18607806
0.1665941 0.07636557 0.16152444 -0.073545 -0.042208005 0.12177706 -0.24600181 -0.091759354
-0.10224178 0.40376183 -0.20021369 0.1315675 -0.137862 0.3628196 -0.22492036 -0.16156861
0.3285531 0.07222895 -0.30304596 -0.2087091 0.39073318 -0.06997846 -0.31749398 0.18119147
0.13965823 0.09618105 0.10861133 -0.053225383 0.0605916 -0.2588259 0.08385453 -0.09436872
0.20411493 -0.056790885 0.104940474 -0.13500765 0.13397588 -0.025445113 0.071050055 -0.33423755
0.065061025 -0.09766913 -0.040980168 -0.2977177 -0.13720578 -0.11647414 -0.116746426 -0.2615573
-0.015892217 -0.003184192 -0.1990684 0.4351787 0.07049713 -0.11108478 -0.10584364 -0.09988336
-0.19952404 -0.0070404042 -0.18685071 0.21132632 0.13535091 -0.018494042 0.044794615 -0.119003154
-0.25613263 0.027533196 -0.037723176 -0.12285142 -0.19504489 -0.16658492 -0.20455985 -0.036218405
-0.27933413 -0.14723264 -0.09081154 0.09415856 -0.162926 -0.3163211 -0.41119912 -0.0675232
-0.07983876 -0.09087591 -0.12555249 -0.02191383 -0.019748468 0.35013345 -0.3323643 -0.064790994
0.18144622 -0.10929021 0.21100445 -0.050394557 0.30736798 -0.51563334 -0.030769521 -0.0053587407
0.11385115 0.06655424 0.124779575 0.3238171 0.11149872 -0.17042328 -0.0036280788 0.15228064
0.023857437 0.17884469 0.10861118 0.1622975 0.11269656 0.2724204 -0.16869006 -0.10684706
0.029231368 0.46313107 0.24566597 0.05326737 -0.049492776 -0.15720052 0.15971251 0.11394623
0.22634317 0.08572714 0.30765578 0.049468625 0.40316784 -0.13010283 0.07994425 -0.21031034
0.1313554 -0.090667196 0.14274682 -0.10443169 0.32243678 0.14589311 -0.23948188 0.28861773
-0.044106793 -0.026735289 0.063277476 -0.06710875 -0.11630877 -0.08931505 -0.1399256 0.00409287
0.36999837 -0.13583526 -0.15389806 0.1283549 -0.109728105 0.25089225 0.083260015 -0.1833142
0.18629856 0.1081144 -0.13565774 0.19805668 -0.17768402 -0.08510495 0.44055837 -0.24301507
0.15396509 0.16543251 0.021652887 0.12088892 0.117759034 0.24758436 -0.32929504 0.023305245
0.1112861 -0.07738781 0.0027875726 -0.10157479 0.17170416 -0.17649572 0.0014323663 0.20797716
00000000: 1126 83be 414c c33d dbf4 24be 8e91 97be
00000010: ae84 ff3d 370f 0c3c 9d2e fa3d 7277 dbbd
00000020: d627 563d ee7b 803d 412a 8d3d c63e c73d
00000030: 8ef9 4ebd 9c89 5ebc 17cc 8e3e c29a 88bd
00000040: 01e0 273e 9514 b0bd 4734 37be 6521 6fbd
00000050: d19b 8f3d d1b1 07be 9c48 16be 69b9 f1bd
00000060: 3e00 0cbe 7c71 013f 5659 783e 61ab 743e
00000070: c506 cbbe e6fb d6bd 0765 5d3e ad0b 213e
00000080: 8055 33be 39d1 25be 28f7 6ebe 9f76 1ebe
00000090: 287f 0139 0784 103d 26b9 2a3e 276f 34be
000000a0: 68ac d03e d4f4 02be 937b 62ba 7185 11bc
000000b0: a276 3ebc 11eb 043e ade5 073d c7b7 213e
000000c0: f229 21be 2c33 e33c 9146 e23e b866 bebd
000000d0: 9b23 babd ebdc 853e 1a65 2b3d 760f 193b
000000e0: 563b 5dbe d4ad 6dbd b51d 643e 6e8c f3bd
000000f0: fb77 6bbe 5c7b 09be 40d1 e2bd 634e 15be
00000100: 0ec2 6c3d 8ec2 7fbd 23ea 443e 76ce 8f3e
00000110: 5d22 13bd f5be ac3b 0a1b b2bd 9df6 073e
00000120: 1273 633e 85ca 6b3d 099f 703e a9ac d0bd
00000130: f7fc 1abf 8fa5 883d c691 a7bb 3f8b 3ebe
00000140: a597 2a3e 8d65 9c3d aa66 253e c39e 96bd
00000150: 4de2 2cbd 4066 f93d e6e7 7bbe 54ec bbbd
00000160: 2364 d1bd dfb9 ce3e d104 4dbe a1b9 063e
00000170: b22b 0dbe 7ec3 b93e 8651 66be 3e72 25be
00000180: 1d38 a83e c6ec 933d d728 9bbe d7b7 55be
00000190: 2e0e c83e de50 8fbd 928e a2be 428a 393e
000001a0: 9102 0f3e 92fa c43d 9e6f de3d dc02 5abd
000001b0: e62e 783d d484 84be ecbb ab3d 6344 c1bd
000001c0: 8103 513e 8f9d 68bd 08eb d63d 723f 0abe
000001d0: f930 093e 4572 d0bc b182 913d 2f21 abbe
000001e0: b73e 853d c106 c8bd d2da 27bd 746e 98be
000001f0: ac7f 0cbe fe89 eebd c018 efbd d7ea 85be
00000200: 6530 82bc e1ad 50bb 96d8 4bbe becf de3e
00000210: cd60 903d 6b80 e3bd 8dc4 d8bd a68f ccbd
00000220: 0850 4cbe 31b3 e6bb cb55 3fbe ed65 583e
00000230: 6e99 0a3e d180 97bc 8f7a 373d edb7 f3bd
00000240: d123 83be 4c8d e13c 9e83 1abd 8699 fbbd
00000250: d9b9 47be 3d95 2abe 2378 51be c059 14bd
00000260: e204 8fbe 27c4 16be 67fb b9bd 34d6 c03d
00000270: 13d6 26be d7f4 a1be b188 d2be 9a49 8abd
00000280: 8182 a3bd 261d babd d590 00be a284 b3bc
00000290: 8ac7 a1bc b144 b33e a72b aabe 24b1 84bd
000002a0: 0acd 393e 8cd3 dfbd 8d11 583e 866a 4ebd
000002b0: 565f 9d3e 8c00 04bf 5d10 fcbc 6098 afbb
000002c0: cb2a e93d 974d 883d 6f8c ff3d 5bcb a53e
000002d0: 7159 e43d 7183 2ebe 10c5 6dbb 75ef 1b3e
000002e0: ac70 c33c 1023 373e 8a6f de3d 5131 263e
000002f0: 74cd e63d b07a 8b3e 16bd 2cbe a2d2 dabd
00000300: 9f76 ef3c 841f ed3e dc8f 7b3e e32e 5a3d
00000310: f0b8 4abd 2cf9 20be ad8b 233e a45c e93d
00000320: 81c6 673e b691 af3d 0f85 9d3e 9d9f 4a3d
00000330: 046c ce3e ad39 05be d0b9 a33d 985b 57be
00000340: 0882 063e b9af b9bd 392c 123e 48e0 d5bd
00000350: 6f16 a53e 0165 153e bd3a 75be b4c5 933e
00000360: 53a9 34bd f703 dbbc 9f97 813d 5070 89bd
00000370: 4b33 eebd cfea b6bd a848 0fbe 7b1d 863b
00000380: 6d70 bd3e 6618 0bbe 7497 1dbe 786f 033e
00000390: 21b9 e0bd f374 803e 3a84 aa3d b8b6 3bbe
000003a0: 0dc5 3e3e 156b dd3d dde9 0abe 5fcf 4a3e
000003b0: cdf2 35be 814b aebd de90 e13e f1d8 78be
000003c0: 06a9 1d3e 2467 293e 6561 b13c 9c94 f73d
000003d0: a62b f13d c186 7d3e 5c99 a8be a4ea be3c
000003e0: f7e9 e33d 807d 9ebd b5af 363b 7206 d0bd
000003f0: 37d3 2f3e 4bbb 34be 3dbe bb3a f7f7 543e

fc.2.weight f4 [2, 32]
-0.28276795 0.21038434 0.3187592 -0.16782136 -0.3721906 0.07781598 -0.2282412 -0.057169497
-0.035661913 -0.036945052 -0.18522446 0.09920212 -0.18584712 0.29306033 0.27023813 0.3329238
-0.19479455 -0.19361876 -0.3325874 0.32118917 0.3419043 -0.2491013 0.28433838 0.122814
0.12719868 0.026173923 0.091618456 -0.25785455 -0.30772868 -0.19566211 0.19156797 -0.2135036
-0.12109675 0.44159144 -0.044289757 0.19292693 0.4690328 0.23954882 0.20536295 0.15991807
0.31896088 0.24242663 -0.13995282 -0.085888766 -0.22940312 0.15929765 0.055983335 0.07343681
-0.077489965 -0.24673253 0.08198226 -0.20799634 0.088893555 -0.08361485 0.1815693 -0.042072833
-0.21487035 0.2813419 -0.25754347 0.07978337 0.1700836 0.19725238 0.061999686 -0.03537704
00000000: f6c6 90be fe6e 573e 6834 a33e 5dd9 2bbe
00000010: c48f bebe fc5d 9f3d 10b8 69be 902a 6abd
00000020: 3a12 12bd b253 17bd 7bab 3dbe 7b2a cb3d
00000030: b54e 3ebe 010c 963e a75c 8a3e fd74 aa3e
00000040: 3978 47be ff43 46be e548 aabe e872 a43e
00000050: 150e af3e 6914 7fbe cd94 913e e885 fb3d
00000060: 5f40 023e b26a d63c 75a2 bb3d 8305 84be
00000070: 9d8e 9dbe a65b 48be 652a 443e b0a0 5abe
00000080: 9301 f8bd 4618 e23e 2d69 35bd a38e 453e
00000090: 1125 f03e 494c 753e aa4a 523e 90c1 233e
000000a0: d74e a33e b03e 783e cb4f 0fbe 73e6 afbd
000000b0: a7e8 6abe ec1e 233e c84e 653d 0a66 963d
000000c0: 0fb3 9ebd 74a7 7cbe 51e6 a73d fefc 54be
000000d0: d30d b63d 433e abbd 4ded 393e 9054 2cbd
000000e0: f906 5cbe 0c0c 903e bddc 83be 7765 a33d
000000f0: 652a 2e3e 87fc 493e 62f3 7d3d 84e7 10bd

grad_module.0.weight f4 [32, 37]
-0.030014222 -0.13692711 -0.10342859 -0.18350206 -0.15405436 0.19702871 -0.029102255 0.15676464
-0.0684418 0.05793702 0.12678336 -0.014976534 -0.076568276 0.09493851 0.13157174 -0.031079601
-0.003799762 -0.13624682 0.08326801 0.115354955 -0.11040826 -0.005908134 0.050170437 -0.14941227
-0.032121867 -0.13686508 -0.15313573 -0.0031059152 0.046847157 0.029449029 -0.09898681 -0.110003985
-0.11774008 -0.061998148 0.20459022 0.00581966 0.065087765 -0.1931552 0.078959055 0.11639866
-0.09474849 0.055486463 -0.0036104147 0.19114554 0.01842166 -0.033177096 0.09168445 -0.11342287
0.014118482 0.018967545 -0.10720259 -0.014937216 -0.09559979 0.12310218 0.013770198 -0.09067271
-0.09808106 0.054329798 0.1587832 0.20245641 -0.14949425 0.07115797 0.16548216 -0.028731722
-0.09166619 0.047325566 0.11257727 0.04258717 -0.04658568 0.1850453 -0.043864597 0.13075082
0.22406675 -0.042849515 -0.117698684 0.11976219 0.09250052 0.01816 0.21281575 -0.17641063
-0.0464095 -0.1408296 0.14438486 -0.07747878 0.09431022 -0.108682975 0.11057405 0.0062423255
0.012391495 0.11535918 0.12867707 -0.14668734 0.014310348 -0.17554286 -0.07767181 0.03849187
-0.08995855 -0.0065340973 -0.14806579 -0.1738063 -0.029107137 -0.0808389 0.12115818 -0.03986298
-0.21233168 -0.117748015 0.028055925 0.17842801 0.044396106 -0.18609932 0.0653106 0.07521555
-0.021059198 0.05982563 -0.026105506 -0.0079248445 0.022765327 -0.0051480317 0.11457804 -0.0063447705
-0.06690869 0.17129569 -0.12433047 0.12834959 -0.22527018 -0.09366332 0.041009177 -0.111365974
-0.021574248 0.15276791 -0.14715704 -0.14243622 -0.092901565 0.0055092196 -0.11477481 -0.13227916
-0.014581713 -0.08994812 -0.07339579 -0.16231886 0.042391203 0.023073466 -0.0034899672 -0.120603345
0.13813111 0.1762761 0.3309379 -0.16870669 0.13124903 0.08473268 0.045614336 0.12372285
-0.07401671 0.004934063 0.14125855 -0.14472416 0.13307844 0.019732166 -0.0014076815 -0.03820499
-0.16950312 -0.066491716 -0.12900314 -0.027849989 -0.015839376 0.08896105 -0.0021970607 -0.036601353
0.03428372 0.051130176 0.061594874 0.025101291 -0.14791599 -0.1367794 -0.1444474 0.05769438
0.08915954 0.044292934 -0.102597676 -0.031065436 0.1780873 -0.09380894 -0.19589151 0.022924649
-0.02308998 0.111569054 -0.12300291 0.11977762 -0.18396968 0.10650359 -0.14772324 -0.05855732
0.06367084 -0.07913989 -0.04853233 -0.009010413 0.078722455 -0.027504947 0.012304101 0.1290378
-0.10736489 -0.04856078 0.17756198 -0.09307748 0.19911568 -0.071384124 -0.022930134 -0.025474902
-0.11225623 0.057069145 -0.0136092445 -0.11772491 0.016781852 0.0840783 -0.039955128 -0.031740174
0.04087375 0.14357524 -0.1655186 -0.1360599 -0.07835038 -0.14984076 -0.11863367 0.1433812
-0.057782676 0.023473483 0.0073523796 -0.10931208 -0.16229525 0.218711 0.0975299 -0.100067794
-0.052697994 -0.03261842 -0.02240043 -0.20430993 0.12998904 -0.023210816 0.16399339 0.04074936
0.06174997 0.101736896 0.09691074 -0.09458045 0.10110934 -0.027290791 0.040721364 -0.12595141
-0.0056423373 -0.12603438 0.07475394 -0.016701581 -0.14313397 -0.11554623 0.20607343 -0.15913548
00000000: 63e0 f5bc 9f36 0cbe 5ed2 d3bd f7e7 3bbe
00000010: 6dc0 1dbe e5c1 493e da67 eebc e986 203e
00000020: 372b 8cbd 5e4f 6d3d 7fd3 013e 2360 75bc
00000030: d4cf 9cbd 1f6f c23d beba 063e a69a febc
00000040: 6e05 79bb 4984 0bbe 6b88 aa3d 383f ec3d
00000050: ba1d e2bd 0599 c1bb 847f 4d3d 88ff 18be
00000060: 3892 03bd 5c26 0cbe 9dcf 1cbe 9c8c 4bbb
00000070: cee2 3f3d 173f f13c 99b9 cabd c549 e1bd
00000080: b621 f1bd c5f1 7dbd 1980 513e d9b2 be3b
00000090: bc4c 853d 7aca 45be 49b5 a13d 6c62 ee3d
000000a0: 7f0b c2bd c645 633d b59c 6cbb a8bb 433e
000000b0: 05e9 963c b5e4 07bd 0fc5 bb3d 404a e8bd
000000c0: 3551 673c d361 9b3c 088d dbbd 3abb 74bc
000000d0: d3c9 c3bd ff1c fc3d 669c 613c 9db2 b9bd
000000e0: b9de c8bd ec88 5e3d 1098 223e bc50 4f3e
000000f0: 0515 19be 45bb 913d 2874 293e ca5e ebbc
00000100: 7cbb bbbd 74d8 413d e98e e63d e26f 2e3d
00000110: a0d0 3ebd 847c 3d3e 5dab 33bd 8be3 053e
00000120: c171 653e f982 2fbd 020c f1bd e145 f53d
00000130: ea70 bd3d 48c4 943c 5fec 593e fda4 34be
00000140: e317 3ebd a235 10be a0d9 133e 32ad 9ebd
00000150: b725 c13d 2e95 debd a674 e23d 6c8c cc3b
00000160: b205 4b3c 6f41 ec3d ecc3 033e 3535 16be
00000170: f375 6a3c 82c1 33be 6612 9fbd a7a9 1d3d
00000180: 303c b8bd fb1b d6bb 8f9e 17be 47fa 31be
00000190: 1772 eebc dd8e a5bd c821 f83d 5d47 23bd
000001a0: 7a6d 59be df25 f1bd 8ad5 e53c d5b5 363e
000001b0: b1d8 353d d290 3ebe 90c1 853d 9c0a 9a3d
000001c0: 5784 acbc b80b 753d 37db d5bc 35d7 01bc
000001d0: 5a7e ba3c d2b0 a8bb e4a7 ea3d cbe7 cfbb
000001e0: 6c07 89bd 2368 2f3e f9a0 febd 136e 033e
000001f0: 3aad 66be 8ed2 bfbd 3df9 273d d813 e4bd
00000200: 7abc b0bc 316f 1c3e 56b0 16be cdda 11be
00000210: 2d43 bebd af86 b43b 0e0f ebbd 3074 07be
00000220: 23e8 6ebc b836 b8bd 8850 96bd ea36 26be
00000230: 66a2 2d3d 9104 bd3c efb7 64bb e3fe f6bd
00000240: 3e72 0d3e b981 343e b170 a93e 72c1 2cbe
00000250: 2566 063e 5488 ad3d 19d6 3a3d 6862 fd3d
00000260: 1396 97bd ecad a13b 15a6 103e 9232 14be
00000270: b745 083e 5aa5 a13c f481 b8ba d67c 1cbd
00000280: 3a92 2dbe cf2c 88bd 6619 04be a925 e4bc
00000290: 94c1 81bc 3631 b63d 90fc 0fbb 4deb 15bd
000002a0: 166d 0c3d e06d 513d e84a 7c3d 39a1 cd3c
000002b0: 4a77 17be e60f 0cbe 05ea 13be f150 6c3d
000002c0: 4799 b63d 826c 353d bb1e d2bd f17c febc
000002d0: 845c 363e e71e c0bd c997 48be 79cc bb3c
000002e0: 3327 bdbc 517e e43d f3e8 fbbd f84d f53d
000002f0: 8c62 3cbe 8e1e da3d c344 17be cdd9 6fbd
00000300: db65 823d 1814 a2bd d6c9 46bd 69a0 13bc
00000310: 3d39 a13d 0e52 e1bc 2497 493c 7c22 043e
00000320: 20e2 dbbd abe7 46bd cfd2 353e 689f bebd
00000330: fbe4 4b3e d731 92bd fad7 bbbc beb0 d0bc
00000340: 98e6 e5bd 56c1 693d 4ff9 5ebc c219 f1bd
00000350: 187a 893c 3e31 ac3d fda7 23bd fc01 02bd
00000360: 3c6b 273d 6305 133e b57d 29be 4953 0bbe
00000370: 2a76 a0bd db6f 19be 36f6 f2bd 85d2 123e
00000380: 87ad 6cbd 764b c03c 3bec f03b 03df dfbd
00000390: ba30 26be c7f5 5f3e c2bd c73d 58f0 ccbd
000003a0: dad9 57bd e49a 05bd 1b81 b7bc 9f36 51be
000003b0: d91b 053e 9c24 bebc e2ed 273e cde8 263d
000003c0: 89ed 7c3d 6f5b d03d 2379 c63d 65b3 c1bd
000003d0: 6a12 cf3d f090 dfbc 72cb 263d 68f9 00be
000003e0: 5be3 b8bb 280f 01be 9818 993d c1d1 88bc
000003f0: b691 12be 80a3 ecbd ea04 533e 69f4 22be

grad_module.0.bias f4 [32]
0.092256926 0.08303812 0.15277351 -0.16134933 -0.06594146 0.07148739 0.054687846 0.14789483
-0.10628147 0.15292819 -0.06323155 0.052801993 0.06754923 -0.0009601214 0.09658593 -0.17054439
0.14185065 -0.006985287 -0.07900834 0.10093595 0.06979931 -0.041704133 0.006503004 0.059027452
0.011591696 0.15571688 0.10238344 -0.19110478 -0.0046467646 0.06588055 0.12298469 0.14612956
00000000: 33f1 bc3d e40f aa3d a970 1c3e c238 25be
00000010: 510c 87bd fb67 923d 5d00 603d be71 173e
00000020: 19aa d9bd 3599 1c3e 8b7f 81bd e746 583d
00000030: 4057 8a3d a8b0 7bba d8ce c53d 30a3 2ebe
00000040: 4c41 113e d6e4 e4bb 20cf a1bd 82b7 ce3d
00000050: f1f2 8e3d f4d1 2abd 2717 d53b c5c6 713d
00000060: 19eb 3d3c 3f74 1f3e 69ae d13d f9b0 43be
00000070: e343 98bb 62ec 863d 66df fb3d fda2 153e

grad_module.2.weight f4 [32, 32]
0.017133404 -0.008927631 0.15148988 -0.17602763 -0.1392974 0.08292959 0.14242388 -0.11473988
0.13712677 -0.026278483 0.11529844 -0.16784076 0.1486544 -0.0051121237 0.1737913 0.14194347
0.012346887 0.100887276 0.13914984 -0.033526525 0.09706515 0.13157174 -0.059062876 0.05294087
0.0067887786 -0.1266626 0.059836585 -0.1594351 -0.023690749 0.04412614 0.048265737 0.09990929
0.12948896 -0.04507589 -0.0059071644 0.0124895135 -0.11878108 -0.15450278 -0.12349817 0.015912343
-0.124514416 -0.079136774 -0.09358867 0.115843154 0.13909815 -0.09425838 0.014718031 0.13989623
-0.028150138 0.14784496 0.041836653 -0.13080066 0.007968164 0.105964564 -0.15657069 0.16068327
0.0972715 -0.07226527 -0.021631286 0.133181 -0.057289477 -0.07500965 -0.006850888 -0.055471003
0.073357634 -0.07889272 -0.09876829 0.079986595 0.1079475 -0.1711695 -0.12793644 -0.009582457
0.015976664 0.19742286 -0.13624224 -0.078279674 -0.052424386 0.027103154 0.19363022 -0.013755254
-0.054173943 0.028387567 0.15978245 -0.055642884 0.051185563 -0.106188074 -0.12744375 -0.16479726
0.05588439 0.14052938 -0.13315894 0.097345054 0.14751635 0.11922562 0.11063283 0.012656006
0.25834122 -0.17946649 -0.027096098 0.0020069606 -0.099959165 0.13623773 -0.07337278 0.15171234
-0.1292966 0.14817144 -0.039460693 0.15700892 -0.1379358 -0.044044558 -0.038253605 0.05366995
-0.025675775 -0.17725915 -0.015503647 -0.06277629 -0.030086933 -0.106717445 -0.038091943 0.15763678
0.038433857 0.06673858 0.048470885 0.14938647 0.073381685 -0.045884863 -0.15221941 0.09905372
-0.027292244 -0.13849498 -0.024159264 0.099342324 0.12744825 0.01638202 0.0054297205 -0.1818531
-0.10527386 0.061924756 -0.124175526 -0.05695092 0.048959937 -0.022930153 -0.075472094 0.08928703
-0.025052736 0.1075015 0.028065193 0.146193 -0.10234129 0.029202059 -0.19202094 -0.02652058
-0.062636025 -0.010386633 0.06746387 -0.0822977 0.13459527 -0.057779316 0.013135399 -0.085346825
-0.20476478 0.14153838 0.1689745 0.073693834 -0.19552395 -0.017132085 0.08028429 0.036910404
-0.06840074 0.0058110896 -0.12423695 0.116343044 0.087965615 -0.0026444285 0.16045722 0.07176602
0.08243822 0.062189814 0.004959544 -0.21891607 -0.032439142 0.14721504 0.20270829 -0.1106059
-0.013869387 0.0020395038 0.0786058 -0.06084694 -0.00807651 -0.07060398 0.12790744 -0.18309222
-0.082975216 -0.13177878 0.12647559 0.16019204 -0.095720276 0.011298888 0.04914038 0.12866998
-0.08868985 0.049564365 -0.08288072 -0.17899191 -0.061966635 0.115927264 -0.14603372 -0.037301417
-0.04540567 0.03322649 -0.043552145 -0.118016765 0.014910254 -0.0015137368 -0.2540662 -0.010254502
0.111531086 0.0901603 0.08519638 0.16540498 0.015730647 -0.016659267 0.16032161 0.0039511705
-0.16780958 0.0013997388 0.1836052 -0.20980977 0.10744967 0.041350152 -0.032526784 -0.097303845
-0.16514046 0.09741375 0.068458274 -0.07504297 -0.09089701 0.08783514 -0.11514325 0.01422169
0.075583905 -0.17903772 -0.09623558 -0.028759606 -0.012810585 -0.1505647 -0.08868254 0.03500519
-0.06165147 -0.10536066 -0.16641967 -0.04667638 -0.15100724 -0.11331926 0.07903493 5.980822e-05
00000000: 5a5b 8c3c 3345 12bc 2a20 1b3e 9640 34be
00000010: faa3 0ebe fdd6 a93d 91d7 113e befc eabd
00000020: f66a 0c3e f945 d7bc 9721 ec3d 73de 2bbe
00000030: dc38 183e 9a83 a7bb 59f6 313e a159 113e
00000040: 994a 4a3c fd9d ce3d 4c7d 0e3e 1c53 09bd
00000050: 18ca c63d beba 063e eaeb 71bd 87d8 583d
00000060: 6774 de3b d7b3 01be 3517 753d f442 23be
00000070: 1a13 c2bc 9dbd 343d 4bb2 453d 3e9d cc3d
00000080: c198 043e 7fa1 38bd e390 c1bb d1a0 4c3c
00000090: 7f43 f3bd fa35 1ebe 9cec fcbd 9a5a 823c
000000a0: 6a01 ffbd 7612 a2bd 6bab bfbd 2d3f ed3d
000000b0: bf6f 0e3e 8a0a c1bd e523 713c f540 0f3e
000000c0: 1e9b e6bc ab64 173e e95c 2b3d 9cf0 05be
000000d0: e78c 023c f303 d93d 1154 20be 288a 243e
000000e0: 4836 c73d d0ff 93bd 1834 b1bc 9a60 083e
000000f0: 5fa8 6abd a99e 99bd 6a7d e0bb 9035 63bd
00000100: 873c 963d 8292 a1bd 0747 cabd 03d0 a33d
00000110: 9413 dd3d 0f47 2fbe c501 03be bdff 1cbc
00000120: 7ee1 823c 3829 4a3e 1683 0bbe 1851 a0bd
00000130: f4ba 56bd 6f07 de3c 0047 463e b85d 61bc
00000140: 7fe5 5dbd 0b8d e83c 039e 233e cbe9 63bd
00000150: f4a7 513d 2279 d9bd 9d80 02be 9dc0 28be
00000160: 08e7 643d efe6 0f3e d15a 08be d85c c73d
00000170: 870e 173e 902c f43d 7793 e23d 235b 4f3c
00000180: 4d45 843e 10c6 37be a3f8 ddbc 3687 033b
00000190: 64b7 ccbd e781 0b3e 7844 96bd 7b5a 1b3e
000001a0: 5466 04be 41ba 173e 89a1 21bd f2c6 203e
000001b0: 0b3f 0dbe 1168 34bd d0af 1cbd 06d5 5b3d
000001c0: 0156 d2bc 6c83 35be 0203 7ebc db90 80bd
000001d0: df78 f6bc ad8e dabd 4c06 1cbd 896b 213e
000001e0: d26c 1d3d 3dae 883d 6889 463d c4f8 183e
000001f0: 2349 963d c4f1 3bbd 68df 1bbe addc ca3d
00000200: fc93 dfbc a1d1 0dbe a6e9 c5bc fd73 cb3d
00000210: cb81 023e 9633 863c cceb b13b b337 3abe
00000220: d299 d7bd d0a4 7d3d bd4f febd 5e45 69bd
00000230: 378a 483d 04d8 bbbc 1d91 9abd 1edc b63d
00000240: 653b cdbc bf29 dc3d fae8 e53c 9eb3 153e
00000250: 4f98 d1bd 2839 ef3c 23a1 44be b041 d9bc
00000260: 5147 80bd b22c 2abc 7f2a 8a3d b28b a8bd
00000270: 58d3 093e 01aa 6cbd db35 573c 51ca aebd
00000280: dcad 51be 70ef 103e a707 2d3e cbec 963d
00000290: 6e37 48be 9658 8cbc 176c a43d 5d2f 173d
000002a0: b015 8cbd f46a be3b f16f febd 4345 ee3d
000002b0: 5127 b43d 264e 2dbb e64e 243e 10fa 923d
000002c0: 5fd5 a83d bfba 7e3d ac83 a23b 892b 60be
000002d0: e8de 04bd 8abf 163e c392 4f3e 5985 e2bd
000002e0: 6d3c 63bc 32a9 053b 14fc a03d a43a 79bd
000002f0: 5753 04bc d298 90bd 2bfa 023e 877c 3bbe
00000300: e9ee a9bd 04f1 06be d182 013e 6209 243e
00000310: fe08 c4bd f91e 393c 6c47 493d 10c2 033e
00000320: 06a3 b5bd 0104 4b3d 5ebd a9bd a849 37be
00000330: bad0 7dbd 466b ed3d dd89 15be 5fc9 18bd
00000340: 4cfb 39bd 8018 083d bc63 32bd c6b2 f1bd
00000350: 234a 743c 9468 c6ba f714 82be 8002 28bc
00000360: 696a e43d f7a5 b83d 717b ae3d ec5f 293e
00000370: 8fdd 803c 0479 88bc 592b 243e d278 813b
00000380: 46d6 2bbe 7177 b73a 0003 3c3e 5fd8 56be
00000390: 930e dc3d c75e 293d ce3a 05bd 3d47 c7bd
000003a0: 951a 29be dc80 c73d da33 8c3d 21b0 99bd
000003b0: 3628 babd e9e2 b33d 39d0 ebbd 1702 693c
000003c0: bccb 9a3d aa55 37be 2917 c5bd 4499 ebbc
000003d0: 7de3 51bc a22d 1abe 319f b5bd 9a61 0f3d
000003e0: 4086 7cbd 54c7 d7bd eb69 2abe bb2f 3fbd
000003f0: a4a1 1abe ee13 e8bd 11dd a13d 96da 7a38

grad_module.2.bias f4 [32]
-0.1074519 0.13623765 0.043566585 -0.021408001 0.07062184 0.16200761 0.11041504 -0.16691305
0.008520682 -0.12530977 0.03445651 -0.015834337 0.160468 -0.16333802 -0.15714827 -0.06968831
0.101366915 -0.0009615341 -0.1703557 -0.058607318 0.047152 -0.033537667 0.017381474 0.038753305
-0.16623592 0.13065195 -0.069988124 -0.15054989 0.12076502 0.11675427 0.021446811 0.0016044452
00000000: be0f dcbd e281 0b3e e072 323d d55f afbc
00000010: 2fa2 903d 53e5 253e 4821 e23d 41eb 2abe
00000020: 559a 0b3c 3451 00be 4522 0d3d 03b7 81bc
00000030: b951 243e 1542 27be 7aeb 20be bfb8 8ebd
00000040: 7599 cf3d 760f 7cba ba71 2ebe 3a0e 70bd
00000050: 7522 413d cb5e 09bd 9863 8e3c c9bb 1e3d
00000060: c039 2abe a0c9 053e ef55 8fbd c029 1abe
00000070: a753 f73d dd1c ef3d 39b1 af3c 3f4c d23a

exp_avg f4 [32, 7]
-0.003371595 0.00029210068 0.0052920035 -0.00605725 -0.0019107317 0.0067717875 0.0064375564 0.0018314043
-0.0018030225 -0.007437468 -0.003959965 -0.0016094461 0.004517908 0.0073401886 -0.00092887745 0.0024845253
0.0046811877 0.0061091916 0.0021440927 0.0054641375 -2.5670985e-05 -0.0050931987 -0.00012969553 0.0035281854
-0.0001334112 -0.004430634 0.00011310918 0.0020076013 0.0049871025 0.006325146 -0.007645136 0.01039387
0.007523634 -0.017614946 -0.0086568 -0.005962092 -0.0060201897 0.007255975 -0.009246747 -0.008045944
0.021835212 0.0061581796 -0.0037459657 -0.003321296 0.004010117 -0.005810491 -0.0006371453 0.00253996
0.004697554 0.0021275145 0.001614021 0.0010440146 0.0031157245 8.77092e-05 -0.0010411737 -0.00641043
-0.010457864 0.0011303233 0.0042676553 0.006005247 -0.008253634 0.0032769945 0.0014945907 0.0050780415
0.0023763853 0.00068739604 0.0035129657 0.003468746 0.0033679355 -0.0003068611 -0.00023134357 -0.00826932
0.003693754 -0.009560616 -0.002026526 -0.00019982849 -0.005452017 -3.697115e-05 -0.0011222482 -0.006193746
-0.006138924 0.0025666377 -0.013506431 -0.0019281718 0.01046681 0.004794733 -0.006452991 0.0075041936
0.0058507365 0.00408686 0.0038039165 -0.0047146566 0.00381341 -0.0075759967 0.0031710672 0.0017546632
-0.016179381 0.0035979303 -0.00013530893 -0.0011292868 -0.00072078605 0.0023940087 0.00035298997 -0.0024021303
-0.0025013722 -0.0008998239 -0.00025258705 -0.006574641 -0.004877808 0.0019667381 -0.013965128 0.0031495697
0.0010034253 -0.0040311143 -0.0039629196 -0.0016683846 -0.00092463556 -0.010565345 -0.006669767 0.0034783396
-0.0021151376 0.0020025298 -0.00379784 0.00017695286 0.015896907 0.0005303778 -0.0025198944 -0.006814017
-0.0030531888 -0.008958026 -0.002808532 0.0007036095 0.005197941 0.00071688765 0.0038561586 0.0036308838
-0.0008315244 0.00048699102 0.005192854 0.0008788845 0.0058959336 -0.0036966961 -0.005610808 -0.004571944
0.0033371944 -0.0016188532 0.001182563 0.0022461973 -0.0032985038 0.0012101945 0.0024986689 0.0022619686
0.008075976 -0.0022202064 0.0028360581 0.003179783 0.0004953844 -0.001724259 0.00018424183 0.004600026
0.004528779 -0.0049557793 0.005520678 0.00012599079 0.0031389373 -0.00014148346 -0.008921912 -0.0014538498
0.00070323603 0.0040641297 0.0014132604 0.003156594 0.00093568716 -0.0023625658 -0.0029046354 0.0017953234
-0.00111762 0.0026788977 4.9029913e-05 0.0022554365 0.014182156 0.0032704126 0.0047711264 0.007842206
6.0941817e-05 0.015278151 0.005054877 0.0026457713 -0.0056873597 -0.00019498565 0.0049525993 0.00012468456
0.0033859143 -0.0011201173 0.00731101 0.006053898 -0.0066106883 -0.0012341792 -0.0013811927 -0.0058838907
-0.0036885804 -0.0065415935 0.0077565457 0.006769993 0.002517923 0.002736214 0.012358461 0.008368827
0.0024519435 -0.0044141426 -0.006166659 -0.00202012 -0.0033956817 -0.0011850268 -0.0023054215 -0.008915629
0.0017742052 -0.00011106437 -0.0014620669 0.0011564515 0.0067482903 0.0016047949 0.0006518404 -0.0034221266
00000000: faf5 5cbb 1725 9939 8b68 ad3b e57b c6bb
00000010: 8471 faba dfe5 dd3b 23f2 d23b bb0b f03a
00000020: 6553 ecba 01b6 f3bb 98c2 81bb 0df4 d2ba
00000030: f60a 943b f785 f03b e97f 73ba 6bd3 223b
00000040: a664 993b 9d2f c83b e883 0c3b 820c b33b
00000050: 0558 d7b7 d9e4 a6bb e1fe 07b9 2139 673b
00000060: 4ce4 0bb9 da2e 91bb 0735 ed38 f691 033b
00000070: d96a a33b 2c43 cf3b 0d84 fabb 0d4b 2a3c
00000080: d188 f63b 384d 90bc 40d5 0dbc a75d c3bb
00000090: 0345 c5bb 88c3 ed3b ab7f 17bc 23d3 03bc
000000a0: c2df b23c 8eca c93b e07e 75bb 1aaa 59bb
000000b0: 4d67 833b ee65 bebb 1906 27ba 7575 263b
000000c0: f0ed 993b c56d 0b3b 8f8d d33a 51d7 883a
000000d0: 2f31 4c3b 85f0 b738 fe77 88ba 960e d2bb
000000e0: 7657 2bbc 5b27 943a b0d7 8b3b aac7 c43b
000000f0: 403a 07bc d8c2 563b 24e6 c33a b365 a63b
00000100: 21bd 1b3b 5e32 343a c939 663b e753 633b
00000110: 95b8 5c3b 33e2 a0b9 d194 72b9 0b7c 07bc
00000120: e912 723b 21a4 1cbc 77cf 04bb 0d89 51b9
00000130: d5a6 b2bb 7811 1bb8 6718 93ba e8f4 cabb
00000140: 0729 c9bb 0935 283b 144a 5dbc b6ba fcba
00000150: fc7c 2b3c 231d 9d3b 9d73 d3bb bde5 f53b
00000160: 89b7 bf3b 11eb 853b 214b 793b 687d 9abb
00000170: 67ea 793b 1140 f8bb aed1 4f3b bafc e53a
00000180: 9f8a 84bc 41cb 6b3b b7e1 0db9 9404 94ba
00000190: 22f3 3cba cde4 1c3b 8311 b939 0f6d 1dbb
000001a0: 10ee 23bb 29e2 6bba a96d 84b9 1670 d7bb
000001b0: 05d6 9fbb 64e4 003b fecd 64bc 0369 4e3b
000001c0: 5e85 833a 7017 84bb 61db 81bb b3ad daba
000001d0: 3e63 72ba 451a 2dbc 108e dabb dbf4 633b
000001e0: 1f9e 0abb e03c 033b 2fe5 78bb 6c8c 3939
000001f0: 3b3a 823c 0d09 0b3a d024 25bb 1e48 dfbb
00000200: 0218 48bb afc4 12bc 590f 38bb 6f72 383a
00000210: 7d53 aa3b 84ed 3b3a 9bb7 7c3b 1ff4 6d3b
00000220: a8fa 59ba d452 ff39 d128 aa3b f164 663a
00000230: ad32 c13b 4544 72bb deda b7bb 3fd0 95bb
00000240: d5b4 5a3b b32f d4ba 3b00 9b3a f034 133b
00000250: b62b 58bb 649f 9e3a b5c0 233b 893d 143b
00000260: 1951 043c e280 11bb 29dd 393b e863 503b
00000270: afdc 013a 8800 e2ba 0a31 4139 d1bb 963b
00000280: 2766 943b 1764 a2bb cee6 b43b 651c 0439
00000290: a1b6 4d3b 2d5b 14b9 362d 12bc 1b8f beba
000002a0: 5f59 383a 642c 853b 263d b93a dcde 4e3b
000002b0: e748 753a 47d5 1abb b25b 3ebb 0f51 eb3a
000002c0: 1b7d 92ba 7290 2f3b 78a5 4d38 f2cf 133b
000002d0: 465c 683c 6b54 563b 1c57 9c3b 997c 003c
000002e0: c79b 7f38 3651 7a3c 62a3 a53b ad64 2d3b
000002f0: 085d babb 1075 4cb9 6a49 a23b c2bd 0239
00000300: 37e6 5d3b e6d0 92ba 3291 ef3b c75f c63b
00000310: 799e d8bb 2fc4 a1ba 2309 b5ba a7cd c0bb
00000320: 1cbc 71bb dd5a d6bb 9f2a fe3b d1d6 dd3b
00000330: bd03 253b 0e52 333b 247b 4a3c 681d 093c
00000340: c9b0 203b 83a4 90bb af11 cabb fd63 04bb
00000350: 168a 5ebb e752 9bba 8e16 17bb dc12 12bc
00000360: 738c e83a 3beb e8b8 d3a2 bfba 1394 973a
00000370: c320 dd3b fb57 d23a 45e0 2a3a c245 60bb

exp_avg_sq f4 [32, 7]
0.00070044666 0.0017282678 0.00073698617 0.0011529472 0.00083483045 0.0042527155 0.00033029114 0.000443939
0.00041046354 0.00029694056 0.00039290678 0.00048582972 0.0005501341 0.00036417527 0.00035321177 0.0005105709
0.00032238232 0.00042084497 0.00037149547 0.0009612987 0.0002509576 0.00032116877 0.00020027634 9.803094e-05
0.00031594746 0.00036654016 0.0003970489 0.00016476389 0.0030127454 0.0088396715 0.0022746585 0.0057300674
0.00410805 0.024561021 0.0012833744 0.0045012305 0.015987905 0.0035019137 0.009988536 0.006707668
0.045726627 0.0015863715 0.0003420693 0.0002376229 0.00030108698 0.00023313424 0.00036276953 0.0003306
0.00020368426 0.000343415 0.00051903597 0.00029237062 0.00037556677 0.00039861703 0.0008457778 0.00026794695
0.0011031377 0.0010125412 0.00096591417 0.0010571083 0.0012900432 0.0008948925 0.0007590842 0.00027400893
0.00026005192 0.0002243665 0.00019977099 0.00036947717 0.0003375514 0.00021680135 0.00042443673 0.00090207485
0.0009184949 0.0005825752 0.00046123294 0.0011543399 0.00039273305 0.0012636079 0.0021950346 0.00096399226
0.0016179198 0.0014738187 0.005745275 0.00057605753 0.0009151391 0.0014080531 0.0008256283 0.0012691417
0.0010953987 0.00207617 0.0005249019 0.004209576 0.013974491 0.0030114471 0.008896672 0.006246583
0.041058075 0.0013763786 0.00018754788 0.00022921164 0.00025151533 0.00021108106 0.00018715333 0.00036911643
9.3251896e-05 0.0016640647 0.0039558723 0.001111531 0.0026374315 0.0021053797 0.011082985 0.0005566845
0.00091596507 0.0025789652 0.000693898 0.0016695441 0.001183079 0.0072059557 0.0003908955 0.0024230017
0.007554925 0.0014983759 0.0048865895 0.0037871276 0.022878008 0.0008492208 0.00067243626 0.000462554
0.0005000449 0.00044279345 0.0007586129 0.00067037565 0.00044704837 0.00039721435 0.0011251998 0.0003292007
0.00073355593 0.0005283467 0.0029447246 0.00015321771 0.0006668339 0.00044993006 0.0004047486 0.00058032695
0.00076180365 0.00055986654 0.00046177828 0.0006597924 0.0019817927 0.00043681648 0.0013102754 0.0009816152
0.005931612 0.0002674836 0.00022709629 0.00045757208 0.0002440691 0.0002956373 0.00024968438 0.0011625891
0.00010292524 0.0008402428 0.0020515833 0.0006551903 0.0014170546 0.0011166382 0.0055525317 0.00038147188
0.00015283574 0.00024981506 0.000119089855 0.00018938801 0.0001753526 0.0006334771 0.00011218985 0.0015958933
0.0053797546 0.0010173927 0.0034779639 0.0024505388 0.016240679 0.0004944927 0.00074614066 0.00080434984
0.00078827766 0.0006641733 0.0007532224 0.0010032745 0.00055028015 0.0004032923 0.0005651523 0.00043747493
0.00041310836 0.0004325161 0.0011277318 0.00025427857 0.00056638743 0.0010309796 0.00051581714 0.0007438163
0.00064492377 0.0023816987 0.0003256137 0.0006122818 0.00089030433 0.0006644291 0.0006326221 0.0006683046
0.0010766579 0.0011500671 0.0016280852 0.004185444 0.0015785806 0.0027852121 0.0019796086 0.010949269
0.00067948905 0.000435445 0.00047910464 0.00026408085 0.0006113581 0.0005249859 0.0014037832 0.00047155944
00000000: 2e9e 373a 0b87 e23a 4e32 413a 7d1e 973a
00000010: 86d8 5a3a 5d5a 8b3b ed2a ad39 7cc0 e839
00000020: 7c33 d739 b0ae 9b39 0eff cd39 f6b6 fe39
00000030: e036 103a c7ee be39 482f b939 d5d7 053a
00000040: 6c05 a939 dba4 dc39 47c5 c239 aaff 7b3a
00000050: f592 8339 8b62 a839 4501 5239 f695 cd38
00000060: c0a5 a539 302c c039 002b d039 78c4 2c39
00000070: 7b71 453b 45d4 103c 7012 153b 4ac3 bb3b
00000080: d29c 863b 3234 c93c e636 a83a 0f7f 933b
00000090: 11f9 823c 5d80 653b f5a6 233c ffcb db3b
000000a0: d84b 3b3d cbed cf3a c457 b339 692a 7939
000000b0: 36db 9d39 7f75 7439 1a32 be39 6254 ad39
000000c0: 1494 5539 620c b439 ea0f 083a 5249 9939
000000d0: b8e7 c439 79fd d039 30b7 5d3a 3b7b 8c39
000000e0: 2997 903a 3fb7 843a 6735 7d3a ab8e 8a3a
000000f0: ab16 a93a 3897 6a3a 47fd 463a dba8 8f39
00000100: 9457 8839 ec43 6b39 9e79 5139 63b6 c139
00000110: 62f9 b039 2b55 6339 ef86 de39 3879 6c3a
00000120: 26c7 703a f6b7 183a a3d1 f139 384d 973a
00000130: bde7 cd39 a59f a53a 92da 0f3b 6db4 7c3a
00000140: 6110 d43a 262d c13a dc42 bc3b 9102 173a
00000150: f2e5 6f3a 6c8e b83a fa6e 583a 5459 a63a
00000160: 7b93 8f3a 5a10 083b 9299 093a 7cf0 893b
00000170: 43f5 643c b35b 453b 59c3 113c 23b0 cc3b
00000180: 832c 283d 9a67 b43a 80a8 4439 8858 7039
00000190: d1dd 8339 a455 5d39 973e 4439 f885 c139
000001a0: 3b90 c338 bf1c da3a 43a0 813b cbb0 913a
000001b0: c2d8 2c3b 69fa 093b 6995 353c 77ee 113a
000001c0: 601d 703a db03 293b b5e6 353a 9bd4 da3a
000001d0: 8b11 9b3a f01f ec3b 1bf1 cc39 39cb 1e3b
000001e0: 4e8f f73b 2765 c43a af1f a03b 7531 783b
000001f0: a96a bb3c 3e9e 5e3a 6f46 303a f282 f239
00000200: 7215 033a bb26 e839 a6dd 463a 26bc 2f3a
00000210: d161 ea39 3541 d039 717b 933a 9298 ac39
00000220: 1b4c 403a bf80 0a3a 48fc 403b 11a9 2039
00000230: 77ce 2e3a 97e4 eb39 7034 d439 1521 183a
00000240: c7b3 473a 02c4 123a d51a f239 ebf5 2c3a
00000250: f7e0 013b 8404 e539 8cbd ab3a 8aa9 803a
00000260: f85d c23b 0b3d 8c39 b220 6e39 49e6 ef39
00000270: cdec 7f39 c4ff 9a39 12e8 8239 0462 983a
00000280: 91d9 d738 bd43 5c3a db73 063b 14c1 2b3a
00000290: 76bc b93a 295c 923a 03f2 b53b 4a00 c839
000002a0: 8842 2039 9cf9 8239 e1bf f938 7596 4639
000002b0: dbde 3739 ee0f 263a 7847 eb38 4b2d d13a
000002c0: a748 b03b 095a 853a 8dee 633b 3899 203b
000002d0: 2c0b 853c d8a0 013a a798 433a 01db 523a
000002e0: 6ba4 4e3a ea1b 2e3a e673 453a 4e80 833a
000002f0: ad40 103a fa70 d339 bb26 143a e45c e539
00000300: 7796 d839 54c3 e239 66d0 933a b150 8539
00000310: 9e79 143a ef21 873a e737 073a abfc 423a
00000320: 1a10 293a 4616 1c3b 22b7 aa39 8981 203a
00000330: 5063 693a 152d 2e3a 8dd6 253a 2a31 2f3a
00000340: a51e 8d3a d9bd 963a 7965 d53a 0d26 893b
00000350: 60e8 ce3a 1b88 363b 52bc 013b 9064 333c
00000360: bd1f 323a 704c e439 5630 fb39 5574 8a39
00000370: 8c43 203a 359f 093a 26ff b73a a33b f739
