ckpt/GRU_diff_h16/best.pth (torch_old, 26518 bytes, 30 tensors)

rnn.weight_ih_l0 f4 [16, 7]
000000 89 29 b0 bd 2c 39 5c 3c 60 5d 06 3e 75 97 2b bd
       -0.08601672 0.013441365 0.13121557 -0.041892488
000010 9a c1 4f be 29 b0 43 3e 3f 81 ad bd d2 2b ed bd
       -0.20288697 0.19110169 -0.08471917 -0.11580624
000020 c5 5e ae 3c d0 17 73 be da ae 74 bc fd cc 19 be
       0.021285424 -0.23739552 -0.014934266 -0.15019603
000030 2e f7 bd 3d a9 db 20 bc 80 20 be bd 52 82 36 3e
       0.092756614 -0.009817996 -0.09283543 0.17823151
000040 83 9b 1d be 84 d3 8f 3d 17 ae f7 bc fe 0d 99 3e
       -0.15391354 0.07022765 -0.03023438 0.29893488
000050 65 4a 03 be 53 81 31 3e 3d ca 1e be 33 e3 7d 3d
       -0.12821348 0.1733449 -0.15506835 0.061984252
000060 a1 4f 65 3d 51 c6 eb bd 61 85 8b 3e 32 cf 57 be
       0.055984143 -0.11512435 0.27250198 -0.21075132
000070 8a 5a 6d bd 9c 3f 12 be c2 16 22 be 53 80 c1 3d
       -0.057947673 -0.14282078 -0.15828994 0.09448304
000080 b4 2b ad bc f8 fb ee bd 19 ca 3e 3c 1b 1d 20 3e
       -0.021139003 -0.11669153 0.0116448635 0.15636103
000090 6e 3e 40 be 6b 4e 00 be 1b 32 29 3e 24 1a 61 bc
       -0.18773815 -0.12529914 0.1652302 -0.013739143
0000a0 8e 4a 2f 3e 50 59 20 be 03 02 67 3e ab 2b ba 3d
       0.17118284 -0.1565907 0.22559361 0.0909036
0000b0 94 b2 09 3e 70 4a 4a 3e 65 ef 06 3c f9 5d 28 be
       0.13447028 0.19754958 0.008235787 -0.16442098
0000c0 f6 93 4e 3e 90 22 32 3e ee 50 ac 3d 61 f5 1c 3e
       0.2017363 0.17395997 0.084138736 0.1532798
0000d0 7b 42 6e bc 3b 40 04 3e 63 50 72 3e b8 de 77 3e
       -0.014542217 0.12915127 0.23663478 0.24206054
0000e0 8d ee 26 3e d4 87 54 bd e8 7c 29 3e 69 9e 17 bd
       0.16301937 -0.05188735 0.16551554 -0.037016306
0000f0 13 56 44 3e 95 65 90 bd ce b4 72 be d5 ce 00 3d
       0.1917346 -0.07050625 -0.23701784 0.03144725
000100 2c f5 4e 3e 3a 8d d4 bd 8b 96 12 3e 27 0d 5e 3e
       0.20210713 -0.10378499 0.1431524 0.21684705
000110 3f 71 0d bd 93 03 3f 3d 67 0c 6e 3d cc 54 72 be
       -0.034531828 0.046634268 0.058117297 -0.2366516
000120 38 5e 1f be c9 a6 6c 3e a7 84 d6 3d f8 11 80 3e
       -0.15563285 0.23110498 0.1047452 0.2501371
000130 f3 f3 e3 3d b9 02 5b bc 17 70 f2 bd a1 7d 23 be
       0.11130514 -0.013367348 -0.11837786 -0.15965892
000140 8a 71 07 3e c8 b7 8e bd 24 b5 86 be 94 32 87 3e
       0.13226905 -0.06968647 -0.26310074 0.26405776
000150 9b 3c 0f be d9 73 5a be 6e 7b b4 bd 0e b5 80 bd
       -0.13987963 -0.21333255 -0.08812605 -0.062845334
000160 a3 a4 3c be 35 ee ea bd cc cb 88 3e 7b 1e d0 3d
       -0.18422179 -0.11471216 0.26717985 0.10162064
000170 14 1b b3 3d 67 08 85 bd 3d da 45 be 87 67 13 3e
       0.08745399 -0.06495743 -0.19321533 0.14394961
000180 8b bf c9 bd 26 19 a3 be 7d 3c dd bd f7 6e 4b bd
       -0.09850987 -0.31855124 -0.10802553 -0.04966637
000190 cc 4e a1 bd 62 47 fe 3d f8 ca 82 3d 46 ed b3 3b
       -0.078763574 0.12415959 0.063863695 0.0054909317
0001a0 e8 d1 eb 3d 65 73 ff 3d e2 81 55 be cb 5b c3 3d
       0.11514646 0.12473182 -0.20850328 0.095389925
0001b0 66 51 d2 3d 20 66 22 be bf b8 ca bd 6b e3 81 be
       0.10269432 -0.1585927 -0.09898519 -0.2536882

rnn.weight_hh_l0 f4 [16, 16]
000000 f8 7b e0 3c 45 b1 36 be 0a 56 40 3e 00 7b 9e 3d
       0.027402863 -0.1784106 0.18782821 0.07738304
000010 2d bb 8a 3e 22 a0 3f be a6 11 e6 3d d1 54 93 3e
       0.2709593 -0.1871343 0.11233835 0.28775647
000020 21 e4 b9 3c 51 f7 1c bd 02 01 b6 3d 81 4c 84 3e
       0.022691788 -0.038321797 0.08886911 0.25839618
000030 25 4b ea bd ac dc cf bd 68 ea db 3d 47 b1 81 bc
       -0.11440114 -0.10149512 0.10738069 -0.015831603
000040 61 f5 54 be 60 8b 74 3e ab 06 88 3e 3b 89 cb 3c
       -0.2079673 0.23881292 0.26567587 0.02484571
000050 80 bd 54 be ba 85 80 3e 3a 1a 20 be 62 aa 28 3e
       -0.20775414 0.25102025 -0.15635005 0.16471246
000060 26 f0 67 be b1 9d 84 be 17 bb 89 3d 49 2a 53 be
       -0.22650203 -0.2590156 0.06725138 -0.206216
000070 c9 fb 81 3d 6f 5f 37 3e c1 96 02 be cc c9 20 3e
       0.06346852 0.17907499 -0.1275282 0.1570198
000080 d6 14 84 3e 7c db 07 be b7 98 0e 3e 93 1e ed bd
       0.25797147 -0.1326732 0.13925444 -0.11578097
000090 31 35 69 3e e5 ca ed 3d 11 07 33 bd 52 eb 7a bd
       0.22774197 0.11610965 -0.04370791 -0.061259575
0000a0 af cb 54 3d 39 32 bf bc 1e fa 12 bd 79 9e 5a bd
       0.05195206 -0.023339378 -0.03588306 -0.053373788
0000b0 f2 60 1b 3e 05 5e ca 3d f6 12 9f bd 58 1c e3 bc
       0.151737 0.09881214 -0.077672884 -0.027723476
0000c0 76 c4 36 3b f2 dc 17 be c1 ea 6a bd b6 3e 62 3e
       0.0027888096 -0.14830378 -0.057352785 0.22094235
0000d0 84 85 0e 3e ca 3a ae bc 19 05 72 bd 3b 57 60 3e
       0.1391812 -0.021268267 -0.059086893 0.21908276
0000e0 c5 cc 52 3e 5e 9c 9f bd ec 27 28 bd 85 bd d0 bd
       0.20585926 -0.077934965 -0.041053697 -0.10192398
0000f0 39 15 64 3e d4 4b e9 bd 1d 73 57 3d 0d 5d 68 bc
       0.22273721 -0.11391416 0.052600015 -0.014182341
000100 f5 7a f7 3d d2 53 05 b9 a9 82 fe 3d 56 9b b8 3d
       0.12083999 -0.00012715094 0.12427265 0.09014003
000110 a5 3e 55 3e b1 67 07 3e 05 11 43 3e f7 56 3c 3c
       0.20824678 0.13223149 0.19049461 0.011495343
000120 42 c1 7a 3e 04 17 8c 3c 90 6f b3 3d d5 14 47 3e
       0.24487785 0.017100818 0.08761513 0.1944154
000130 a5 53 56 3e 7c e9 90 3e 07 f9 7b be 53 3a 43 3d
       0.20930345 0.28303134 -0.24606715 0.047663044
000140 83 5d 2a be dc 39 5f 3e c9 8f db 3c 94 7c 39 be
       -0.16637234 0.21799415 0.02680196 -0.18113929
000150 28 73 84 be 0b 5e 44 3d ed 25 ef 3c 5c 78 0e be
       -0.25869107 0.04794125 0.02919289 -0.13913101
000160 34 a3 63 3c 29 79 f7 bc 4e 42 30 bd ba 31 b8 3d
       0.013893891 -0.03020914 -0.043031983 0.089938596
000170 cc c0 28 3e 27 ff 76 3e db 3b 77 3e d8 17 d7 bd
       0.16479796 0.2412077 0.24143927 -0.10502595
000180 9b 64 56 3e 4b 71 79 3d 3c 3b c5 3d 00 a3 18 be
       0.20936815 0.06089906 0.09630439 -0.1490593
000190 8c ee 52 3e 96 ea 33 be 55 5f ee bd 4d 2d d0 3d
       0.20598811 -0.17569956 -0.11639277 0.101648904
0001a0 d6 29 20 be 90 9f 86 bd 7d b8 00 be fc 01 12 3e
       -0.15640959 -0.06573403 -0.12570377 0.1425857
0001b0 47 6d d9 3d 14 97 0b 3d 93 4b 36 bc 4a f4 4a be
       0.10616546 0.034079626 -0.011126417 -0.19819751
0001c0 30 52 14 be 85 ba 51 3e b2 bc 85 be e4 d2 13 3e
       -0.14484477 0.20481308 -0.26120526 0.14435917
0001d0 2e 64 e8 bd 15 dc 1c 3e ec 3d f4 bd 72 f8 72 3e
       -0.11347233 0.1531833 -0.11925873 0.23727587
0001e0 52 10 cb bd 80 c1 b1 3d 0f ef 89 3d d9 9b f3 3c
       -0.09915222 0.08679485 0.0673505 0.0297374
0001f0 c0 3a 4d 3e 36 50 20 be d0 70 73 bc a0 c3 92 bd
       0.20041943 -0.15655598 -0.01485844 -0.07166219
000200 53 97 ef bd c4 e7 30 bd c1 98 ee 3d 1e 1e 6e bd
       -0.11698785 -0.04318978 0.11650229 -0.05813419
000210 f9 47 52 3c 8d 5a 16 be 68 cf 09 3e 2e 10 2e 3d
       0.012834542 -0.1468298 0.13458025 0.0424959
000220 9f de 63 be bc 58 03 3e b9 22 a0 3d a0 cf b0 3d
       -0.22252892 0.12826818 0.07819123 0.08633351
000230 f6 8c 5a 3e 0b 2d 52 3e 5b d9 23 3b 4f 3b 74 be
       0.21342835 0.20524995 0.002500138 -0.2385075
000240 69 4f 92 bd cf 6b cb bd 40 98 b6 bd 6f a2 3f be
       -0.071440525 -0.09932672 -0.08915758 -0.18714307
000250 00 cf a0 bc da d3 b1 3d 47 94 12 bd fb 6b 64 be
       -0.019629955 0.086829856 -0.03578594 -0.22306816
000260 cb 3e 6d be 6b 75 5d 3e e6 16 5a bd f7 6d 0a 3e
       -0.23168485 0.21626823 -0.053244494 0.13518511
000270 04 c1 57 3e 7d 6e 63 3e 53 e8 03 bc 2f b7 aa 3d
       0.21069723 0.22210117 -0.008050996 0.08335721
000280 bf 56 67 3e b5 5e 5b 3d 30 23 c5 3d d6 af 6e 3e
       0.22591685 0.053557117 0.09625852 0.23309264
000290 e6 3e fa 3d 12 6a e7 bd 35 d2 d7 bd 3e 41 4c be
       0.12219028 -0.11299528 -0.10538141 -0.19946763
0002a0 62 2d 96 be 51 80 2f 3e 0d a0 19 be 99 47 d9 3c
       -0.293315 0.17138793 -0.15002461 0.026523398
0002b0 ed b4 d8 3c 36 96 1e be 73 01 13 3e d6 78 2f 3e
       0.02645346 -0.15486988 0.14356022 0.17135939
0002c0 44 f5 0f be 3f 9d 61 3d ea 0a 1f bd fc ed 45 3e
       -0.14058405 0.055081602 -0.038828768 0.19329065
0002d0 20 9e 5e 3e 68 f3 3a be dd f2 60 3e 62 17 be bd
       0.21740007 -0.18256915 0.21967645 -0.09281804
0002e0 5d 2c 19 be 35 a6 f2 3d 51 67 d4 bd a3 6e d3 bd
       -0.1495833 0.11848108 -0.103712685 -0.10323837
0002f0 f9 b1 3d 3e 23 20 9b 3d 4c f1 26 3e bb 47 43 be
       0.18524922 0.07574489 0.16302985 -0.19070332
000300 0f b3 66 be 4a ac 80 3d 18 24 89 be fd c3 46 be
       -0.22529243 0.062828615 -0.2678535 -0.19410701
000310 ab f0 10 bd e5 b5 09 3d b1 98 da bd 25 2e 91 3e
       -0.03538577 0.033620734 -0.10673655 0.28355518
000320 ec 85 a6 3b 80 10 e6 bd cf e7 fd bd 1d 87 4f 3e
       0.0050818827 -0.11233616 -0.123977296 0.20266385
000330 bf 1e 65 bd 1f 1d 12 3e 74 88 2d 3e be ca 11 be
       -0.055937525 0.14268921 0.16946584 -0.14237496
000340 0d eb e0 3d 7d 02 70 be a9 2a f7 bd 08 b4 ca 3d
       0.109823324 -0.23438449 -0.12068684 0.098976195
000350 83 0e 77 be db 16 0a be cd f0 25 3e 18 0d 52 3e
       -0.2412663 -0.13485281 0.1620514 0.20512807
000360 41 b1 8d 3e b3 0c 00 3e d8 2b 3e bd bd 7b 9a be
       0.27674296 0.12504844 -0.04642853 -0.3017253
000370 dd b2 90 be a8 de 07 3d 93 8f 9f 3c d2 94 57 bc
       -0.28261462 0.033171326 0.019477641 -0.01315804
000380 52 b4 16 be e7 b5 bc 3d f2 54 28 be 7b 64 1f be
       -0.14717224 0.092143826 -0.16438654 -0.15565674
000390 a1 53 9d 3c 34 54 83 bd 6c 03 59 be 44 05 18 3e
       0.019204916 -0.06412545 -0.21192712 0.14845759
0003a0 ce 3d 42 3c ac ac 2a be 08 33 1d 3e 7d 62 a4 3d
       0.011855556 -0.16667432 0.15351498 0.08026598
0003b0 2f 6d 7d be 8b 9b 22 3e 07 cb 61 be da 04 c3 3d
       -0.24748681 0.15879647 -0.22050105 0.0952241
0003c0 19 76 c3 bd 5a 9b 20 3c fd 9c 2a bd e1 fe 4e bd
       -0.0954401 0.009802664 -0.041653622 -0.05053604
0003d0 73 b4 1b 3d 66 be 48 be 47 aa 46 be ce 18 87 bd
       0.038013887 -0.19603881 -0.19400893 -0.06596528
0003e0 8c 6f 73 3e fc d7 21 be b8 32 b8 3d cf 1c 4a 3e
       0.2377302 -0.15805048 0.08994049 0.19737552
0003f0 d1 b7 15 be 32 7b 20 3e 9d 76 79 be 64 0d 49 3e
       -0.14620902 0.15671995 -0.24361654 0.19634014

rnn.bias_ih_l0 f4 [16]
000000 ed 60 4f be 9e 33 08 be 40 42 7b bd be a5 2d be
       -0.20251818 -0.1330094 -0.061342478 -0.16957757
000010 e9 bb 7b 3d 0c 83 4f be a8 cf ba 3d 05 5a 47 be
       0.061458502 -0.20264834 0.091216385 -0.19467933
000020 81 32 d3 3d 00 6d e4 3b 07 bc 2e 3e 8c f5 04 be
       0.10312367 0.0069710016 0.17063914 -0.12984294
000030 05 02 01 be 7b 7e 20 3e d8 18 c6 bd 69 dd 2a be
       -0.12598427 0.15673248 -0.09672707 -0.16686024

rnn.bias_hh_l0 f4 [16]
000000 cd bd 28 3e 90 e9 1c 3e 7e 86 40 be 46 cc 27 3e
       0.16478653 0.15323472 -0.18801305 0.16386518
000010 07 57 59 be 80 39 98 3d 23 38 1e be 8c 3b 1c 3d
       -0.21224605 0.07432842 -0.15451102 0.038142726
000020 7b 20 87 be f2 e7 1b 3d 5b 6c 0b 3d 4c 87 0c be
       -0.26391968 0.038062997 0.034038883 -0.13723487
000030 3c 8e 34 be 63 19 28 be 48 e0 f7 3d 40 00 4b 3d
       -0.17632383 -0.16415934 0.12103325 0.049560785

fc.0.weight f4 [16, 16]
000000 fc f7 bf 3d 5f 68 89 be 86 5c 94 be 7f 5b cf 3a
       0.09373471 -0.2683744 -0.2897684 0.0015820115
000010 8b 6c 3e 3e c0 05 d1 be 4b 76 b7 3d 62 4c 3c 3e
       0.18596093 -0.408247 0.089581095 0.18388513
000020 2b 55 eb be d0 91 93 bd 1a 41 f0 3b 35 59 b5 be
       -0.45963416 -0.07205546 0.0073319795 -0.35419622
000030 8e 41 db bb 09 81 c6 be ca ca 9c bd 1e 81 79 bd
       -0.0066911643 -0.3877032 -0.076558664 -0.06091415
000040 38 cf d4 bd 97 bf 22 be cc 54 cf bc ea 11 f1 3d
       -0.10391086 -0.15893398 -0.025308989 0.11770995
000050 d2 32 da bd f4 16 8e bc ac f0 2d be 7a c4 26 be
       -0.106542245 -0.01734493 -0.1698634 -0.16285887
000060 2c 1d b9 be 4f 69 d9 3e cd da f6 3e 2b 48 c4 3e
       -0.3615507 0.42463157 0.48213807 0.3833631
000070 2c d4 99 3d 46 2d fe bd 55 82 d7 3e fa 24 8f 3d
       0.07511172 -0.12410979 0.42091623 0.069894746
000080 04 88 03 bf 12 60 90 be 8a b0 90 be b9 99 db be
       -0.5137942 -0.28198296 -0.2825969 -0.4289072
000090 e1 3b 3c 3e 3b 0b b7 3e 21 c1 d2 3c de ab b8 be
       0.18382217 0.35750756 0.025726857 -0.36068624
0000a0 a3 6e 44 bd fa bf 3c be 70 08 28 3e 79 c8 67 b9
       -0.047957074 -0.18432608 0.16409469 -0.00022104559
0000b0 f4 c2 50 be a5 9a 98 3d bb bd 3a 3e 4a b5 ad bd
       -0.20386869 0.07451371 0.18236439 -0.08481844
0000c0 be 95 82 3e d8 cd 77 be a4 4c 87 be cc fe 75 be
       0.2550487 -0.24199617 -0.2642566 -0.24022979
0000d0 aa 17 0f 3e e6 a9 e9 bc 23 65 73 3e 4f 14 ac bd
       0.13973871 -0.028523397 0.2376905 -0.08402311
0000e0 ab ce dc 3d 47 bc 53 3c 78 df 81 bd ac 53 47 be
       0.10781606 0.012923307 -0.063414514 -0.19465512
0000f0 74 d1 45 3f 94 41 0d bd 85 f3 b0 3e 49 a2 11 be
       0.77272725 -0.03448637 0.3456079 -0.14222063
000100 38 f4 d9 3d c9 d5 bc 3e f7 7f ac 3e 30 24 2e 3e
       0.10642284 0.36881855 0.3369138 0.17005992
000110 6e 65 7f be 7c 5d 95 be 84 42 8f 3a c6 0a 89 be
       -0.24941036 -0.29172885 0.0010929857 -0.26766032
000120 d7 1e df 3c cb e3 ca be 94 22 cd 3e 08 10 80 be
       0.027236385 -0.39626917 0.40065444 -0.2501223
000130 74 26 27 3c f9 98 0f be 73 4c 8f 3e 62 23 1c be
       0.010202039 -0.14023198 0.27988014 -0.15247872
000140 2c c1 d5 be aa 7f 2d 3d 46 ad 93 3e 95 a6 38 3e
       -0.4174894 0.042358078 0.28843135 0.18032296
000150 95 60 7a 3e 0b a9 df 3d 22 bd d6 bc e5 c8 ad 3e
       0.24450906 0.10920914 -0.026213232 0.33942333
000160 7c 93 d1 3c 05 fd bc bd ff f1 b3 3d fd 9a 83 be
       0.025583021 -0.09227947 0.087863915 -0.25704184
000170 36 b5 0d 3e d1 f2 08 3f 43 9d 16 3e 66 ac c7 3e
       0.13838658 0.5349551 0.14708428 0.38998717
000180 33 b8 3c be 4c 20 0c bf fc 2b d8 3c 48 45 aa bd
       -0.18429641 -0.5473678 0.02638816 -0.083139956
000190 77 d9 3b be a9 20 2d bf 2c 44 c0 3d 62 3b cc bc
       -0.18344675 -0.6762796 0.09388003 -0.02493066
0001a0 ba d3 58 3d 57 2f c0 3d 31 86 20 3d 55 7f b2 bc
       0.052936293 0.09384029 0.039190475 -0.021789232
0001b0 c5 b7 cd bc 11 8a bb 3e d6 25 b9 3d 19 4c 89 be
       -0.025112042 0.36628774 0.0904042 -0.2681587
0001c0 24 d4 a1 bd 4f 24 b6 bd ce c6 a9 3e a0 97 98 3e
       -0.07901791 -0.08893644 0.33159488 0.2980318
0001d0 9c a3 8f 3d 9d 57 28 3d a0 79 b4 3e 7d 77 0e 3e
       0.07013628 0.04109918 0.35249043 0.13912769
0001e0 dd 36 89 3e 9b 65 be 3e 75 0c 91 3e 26 80 e2 be
       0.2679967 0.37186894 0.28329816 -0.44238394
0001f0 83 e6 f9 bd 57 39 32 be cc d6 97 be 8b 60 78 be
       -0.1220217 -0.17404686 -0.29656065 -0.24255578
000200 bf f1 86 3c 59 90 45 3e 93 b0 13 3e fb 20 b1 be
       0.016472695 0.19293346 0.14422826 -0.34595475
000210 31 cf 13 3f 2b a0 76 be b8 95 c8 be c5 03 0e be
       0.57738024 -0.24084537 -0.39176726 -0.13868625
000220 b5 b6 9c 3e 68 e8 66 3e 36 54 24 be 83 09 3e 3c
       0.30608144 0.22549593 -0.16047749 0.011598947
000230 45 21 b5 be 8f 3b 02 be 03 87 10 3e 0b 6c 91 3e
       -0.35376945 -0.12718032 0.14114003 0.28402743
000240 cf 35 b6 3e b3 d3 5b be 7f 84 a5 3e 4d ed 8a be
       0.35587928 -0.21467476 0.3232765 -0.2713417
000250 06 4a 11 3d 65 b7 43 3e 86 0b 60 be 5a 4d da be
       0.035470985 0.19112928 -0.21879396 -0.4263714
000260 e4 c1 b2 3c f8 48 17 be fc 28 46 3e cc 77 99 be
       0.02182097 -0.14773929 0.19351572 -0.2997421
000270 71 4f ad bd 99 2e 00 3e 8e 25 e6 be a7 92 d2 3e
       -0.08462418 0.12517776 -0.44950527 0.41127512
000280 07 8d 85 bd f1 f2 dc 3e d3 a4 36 3e 9d f1 35 3d
       -0.065210395 0.431541 0.17836313 0.044419874
000290 ac a5 5e 3e e3 77 0c 3e 84 f1 cc 3d a0 37 fd be
       0.21742886 0.13717608 0.10007003 -0.494565
0002a0 72 47 d4 be 50 fb 52 3e c3 5d 91 be 0f 1a 4c be
       -0.41460758 0.2060368 -0.28391847 -0.19931816
0002b0 b9 b5 94 bd 62 6a 96 3e 03 0f d3 3d 97 ce 03 be
       -0.07261223 0.2937804 0.10305598 -0.12871777
0002c0 13 52 bd bb 8a 92 1a 3e d6 04 13 be 76 d6 96 be
       -0.0057776063 0.15094963 -0.14357314 -0.29460496
0002d0 4c 54 46 3e 88 79 20 be 9a b7 95 3e db 6b 17 3d
       0.19368094 -0.1567136 0.2924164 0.036968093
0002e0 d1 de 49 bc 20 a9 74 3e 09 e1 d1 3e 62 9c ec 3e
       -0.01232119 0.23892641 0.40992 0.4621306
0002f0 86 f9 bb 3e 89 03 6f 3d 66 15 a1 be e2 d0 c5 be
       0.3671381 0.05835298 -0.31461638 -0.38635927
000300 03 7d 14 3e f6 75 32 3e 25 6b 62 be ff e0 89 3e
       0.14500813 0.17427811 -0.22111185 0.2692947
000310 8d 93 e7 bd 70 15 c1 3d cc 0e 34 bf 9c c0 bb 3d
       -0.1130744 0.09427917 -0.7033508 0.09167597
000320 bf be 63 3e 3f 09 d5 3d 0d aa 1d 3e 23 5d d0 be
       0.22240733 0.10402154 0.153969 -0.40696058
000330 b0 d2 25 bc 94 8a 84 3e c9 4d 9d bd be a9 ad be
       -0.010121033 0.25886977 -0.07680852 -0.33918566
000340 55 4e b3 be a3 2c a6 bd 87 d8 c3 be 78 f6 c1 3e
       -0.350207 -0.081139825 -0.38251135 0.37883353
000350 1c fb e5 3b d9 fe 6a be 26 39 94 3d 47 dc 03 bf
       0.00701846 -0.22948779 0.07237463 -0.5150799
000360 17 88 a9 3e 64 62 90 bb 9e 65 80 3b 7b e9 f3 3d
       0.3311164 -0.0044062603 0.0039183637 0.11909767
000370 4d 14 a0 3d 0b 73 38 bc f7 5a fd bd ab 09 ee 3e
       0.07816372 -0.011257897 -0.12370866 0.4649175
000380 16 94 42 3e 62 ae 8b be a1 4c ae 3e 9f 44 2e 3f
       0.19001803 -0.2728148 0.34042838 0.6807346
000390 a3 59 04 3f 3c 31 28 3e 46 8a ff bd 1c dd 10 3e
       0.51699275 0.16425031 -0.124775454 0.14146847
0003a0 28 c8 8a bd 17 a3 c8 be ce 8a a8 3c 3a 27 fe 3d
       -0.06776458 -0.39186928 0.020574 0.124098256
0003b0 4d 4c c0 3c ca 01 95 be 9b 68 3b be e0 2e f6 be
       0.023473883 -0.29102927 -0.18301623 -0.48082638
0003c0 15 f9 da 3e 3f dc 07 be 85 c2 59 be 5d e4 80 3e
       0.4276816 -0.13267611 -0.2126561 0.25174227
0003d0 f5 29 2d 3e 77 f2 ee 3c fe 2a 88 3e d1 f9 00 3d
       0.16910537 0.02916835 0.265953 0.031488243
0003e0 e0 f7 32 bd 20 c0 17 3e 4f 2c b2 3e 36 a1 4b 3b
       -0.043693423 0.14819384 0.3479943 0.003107143
0003f0 10 bf 09 bf 41 c1 c5 3e dd 94 fd 3d bd bd ad 3d
       -0.53807163 0.38624004 0.12381909 0.08483455

fc.2.weight f4 [2, 16]
000000 98 90 43 be fb 7d e5 bc 26 aa 06 bf 1b e0 4c bb
       -0.19098127 -0.028014174 -0.52603376 -0.0031261507
000010 df ab fc 3e c4 cf 15 3e e7 11 6c bc 47 83 bc 3e
       0.49349877 0.14630038 -0.014408565 0.36818907
000020 95 f6 b3 be a2 9a 52 be b2 5a 93 3c b1 63 a6 bd
       -0.35149065 -0.205668 0.017987583 -0.081244834
000030 c2 c1 68 3e cc ea 67 be 01 31 30 3e 82 20 3a 3e
       0.22730163 -0.22648162 0.17206194 0.18176463
000040 2e 78 0d 3e 01 8b d1 3d 7b 35 a0 be 59 7a 43 3e
       0.13815376 0.10231591 -0.31290802 0.1908964
000050 76 8d ae be e3 83 9c be a6 50 2b 3e f8 f6 1d 3e
       -0.340923 -0.30569372 0.16729984 0.15426242
000060 c4 ce 76 be 93 10 6d be b1 c9 88 be f2 63 5c 3e
       -0.24102312 -0.23150854 -0.26716378 0.21522501
000070 4c a1 36 be de c6 b4 be 63 76 1f 3e 21 ab 22 be
       -0.17834967 -0.35307974 0.15572505 -0.15885593

hidden_rnn.weight_ih_l0 f4 [48, 5]
000000 24 6d 02 3e 48 58 21 3d 12 ba f7 3b 14 01 5f be
       0.12736946 0.039390832 0.007560023 -0.21777755
000010 3e 20 f6 bc 06 11 98 bd af 62 f9 3d ba 10 5b 3b
       -0.030044671 -0.07425122 0.121770255 0.0033426718
000020 49 b1 ea 3d 06 47 9c be 29 47 60 be b5 bf 07 be
       0.11459596 -0.30522937 -0.21902145 -0.13256724
000030 1d 88 32 be d3 4a 78 3e 38 de e9 bc 5a a5 d7 bd
       -0.17434736 0.24247293 -0.028548345 -0.10529585
000040 9c 70 df bc c7 d0 23 bd 8b eb 22 be 87 05 32 3e
       -0.027275376 -0.039994027 -0.15910165 0.17384921
000050 42 5e 5a bd 8d 66 0d 3d f5 82 8e 3e 9d 80 09 3a
       -0.053312548 0.03452163 0.27834287 0.00052453
000060 7c dc 0b be 98 4f 4f be 9d a2 4d 3e 54 de 92 3d
       -0.13658327 -0.20245206 0.20081563 0.07171312
000070 38 3e 30 3e e6 4f c5 bd 5e f7 49 be d1 6a e2 bd
       0.17211235 -0.0963438 -0.1972327 -0.1105553
000080 2b a3 9a 3e 42 bc 93 3d 49 f5 19 be 72 23 c5 bd
       0.30202612 0.07213642 -0.15034975 -0.09625901
000090 eb f5 18 be b4 53 b6 3d c1 5f a2 3d fb 25 19 bd
       -0.1493756 0.08902684 0.0792842 -0.037389737
0000a0 fa 8b 3b bc 92 ce 6a be 6c b7 98 3d cc 2e 70 3e
       -0.011446947 -0.22930363 0.0745686 0.23455352
0000b0 8b 3f a5 3d f6 8f fa 3d 59 c8 1a 3e ab a4 03 be
       0.080687605 0.122344896 0.15115489 -0.12855785
0000c0 a2 b8 be 3c 19 75 89 3e 7e 80 02 be 7d d3 15 3c
       0.0232814 0.2684715 -0.12744328 0.009144661
0000d0 e4 25 53 be 8b 7d 75 3e 7c 0c 27 be 3e 14 25 be
       -0.20619923 0.23973672 -0.16313356 -0.16121003
0000e0 86 11 39 be 13 91 fa 3d 3a 35 c1 3d 0b 3b 90 bd
       -0.18073091 0.12234702 0.0943398 -0.070425116
0000f0 f1 ce e9 3a 06 bc 2b be e8 f8 5b 3e 9f ff e9 bd
       0.0017838163 -0.16770944 0.21481669 -0.11425709
000100 67 ec 6a 3d e4 2f 88 bc ba e4 d1 3d 0a b0 48 bd
       0.057354357 -0.016624399 0.10248704 -0.04899601
000110 5c 97 e3 bc fd a0 7c be c9 79 e2 3c 5a c3 20 3e
       -0.027782135 -0.24670787 0.027645962 0.1569952
000120 8f 33 cf bd d3 f8 6d bc 6a a6 f1 bd 56 71 09 3e
       -0.10117256 -0.014524656 -0.11799319 0.1342214
000130 15 9f 6e 3e 3e 31 3f bc 8d 6e 77 3e da af ac bc
       0.23302872 -0.011669455 0.24163266 -0.021079946
000140 a1 8b 05 be a6 4e 20 be 6e 8e 66 3e 73 6c 68 bd
       -0.13041545 -0.15655002 0.2251527 -0.05674405
000150 62 2e 69 3e 6f 5a 42 bd 0b 00 38 bd ac 90 ec 3a
       0.227716 -0.047449525 -0.044921916 0.0018048487
000160 0c 4e 8f bc 93 4a 13 3e a0 5f 1a be be 72 4b 3e
       -0.01749327 0.14383917 -0.1507554 0.1986799
000170 1f 6d 42 bc 05 6b 4c be f5 ed be bd df fd 46 3e
       -0.011866837 -0.199627 -0.093227305 0.19432782
000180 b1 d4 8a bd cd f8 0f be 3c 51 cf be fd f2 58 3e
       -0.06778849 -0.14059754 -0.40491664 0.21186443
000190 3b ca df 3d a1 af b4 bc e7 c6 30 bd 41 b8 e9 3c
       0.10927244 -0.022056403 -0.043158438 0.028530242
0001a0 98 e6 f9 3b 7a 7e c7 3d 25 31 c2 bd 1c e9 8a 3d
       0.007626366 0.0974092 -0.0948203 0.06782743
0001b0 db 6f 4d bd b2 17 fa 3d 24 c1 26 be ac b7 2f be
       -0.0501555 0.12211551 -0.16284615 -0.17159909
0001c0 3a 41 0d 3c fa 4f a3 3d ab fa 05 3e c3 f3 1c 3e
       0.008621508 0.07974239 0.13083903 0.15327363
0001d0 39 a0 93 bd 6d fa 93 3d 91 74 2d 3e a7 57 a3 bd
       -0.072082944 0.07225499 0.16938998 -0.07975703
0001e0 c5 33 f8 3d 98 16 9e bd f1 7f ec 3d 19 5e 82 bd
       0.12119249 -0.07719153 0.115478404 -0.06365604
0001f0 d8 b9 b8 3d 35 f6 46 be 88 d3 72 3d 14 26 0f be
       0.09019822 -0.19429858 0.059283763 -0.1397937
000200 1d 80 3c be e3 1e ac 3b b5 ba 81 3d b1 28 7c 3e
       -0.18408246 0.0052527054 0.0633444 0.24624898
000210 ac 4b 9c 3e 09 36 7d be aa cb cb bd 86 c0 59 3e
       0.30526483 -0.24727644 -0.09950955 0.21264848
000220 24 f5 9c bd b1 3b bc bd 99 8e 2f 3e 1f c5 84 3b
       -0.07663944 -0.09191073 0.1714424 0.004051819
000230 a1 4c f2 bc 39 55 bc bd d8 05 da bc 57 d5 07 be
       -0.029577555 -0.091959424 -0.026614115 -0.13264976
000240 27 25 b3 bd d8 21 c0 3c 2c 72 5d be 01 ee b1 3d
       -0.087473206 0.023453638 -0.21625584 0.08687974
000250 91 d2 8a 3d 4d 6d 24 be b2 ca 80 3e 3f 14 4a bd
       0.067784436 -0.1605732 0.25154644 -0.049335714
000260 12 d5 20 bc 83 7b 14 be 99 10 af bd 81 9c 7e 3d
       -0.009816425 -0.14500241 -0.085480876 0.062160973
000270 91 24 de 3d 9f 88 1f 3e 6b 81 3f be 4c e9 aa 3c
       0.10846818 0.1557946 -0.18701713 0.020863198
000280 64 1a 9f bd 2b 70 03 3a ca 92 2c bc 6b ce 30 be
       -0.077687055 0.0005013968 -0.010533044 -0.17266242
000290 d6 6a 17 3e 3e 39 3f be 87 9b 41 be aa 7b e3 3d
       0.14786848 -0.1867418 -0.18906985 0.111075714
0002a0 00 a4 ad 3d 4e 3e 2f be 83 14 32 be 07 89 14 bc
       0.08478546 -0.17113611 -0.17390637 -0.009065873
0002b0 35 75 4b be 11 5f 39 be 39 a4 80 bd 95 3f e4 bd
       -0.1986893 -0.18102671 -0.06281323 -0.1114494
0002c0 fc 40 08 3d 7c f1 e4 bd dc e8 bb bc 74 8d 6b 3e
       0.0332651 -0.11178872 -0.022938184 0.23003179
0002d0 f5 8a fc 3d 05 e8 2a be 72 53 01 bc 4b 83 4e 3c
       0.123311915 -0.16690071 -0.00789343 0.012604545
0002e0 ff df 85 3d 8f 5d 19 3e a8 8c 21 be f5 94 e1 bd
       0.065368645 0.14977096 -0.15776312 -0.110147394
0002f0 bf 56 27 3e 14 40 0c be 83 7f 20 bc 1b a9 7f bd
       0.16341685 -0.13696319 -0.009796026 -0.06241713
000300 6f 42 0a be 32 4d 94 bd 0f 3c 2b bd 2b a6 21 3e
       -0.13501905 -0.07241286 -0.041805323 0.15786044
000310 d1 cf 79 be 33 7a a2 3d 0f 66 8a bb 89 a4 08 3e
       -0.24395682 0.07933464 -0.004223592 0.13344015
000320 95 46 57 be 7b 42 0b 3e bc 97 2e 3e 51 8b 50 be
       -0.21023019 0.13599579 0.1705007 -0.20365645
000330 f3 1e 99 3d ee 86 9b 3e 64 85 c9 bd 17 0b 21 3e
       0.07476606 0.3037638 -0.09839895 0.15726887
000340 80 91 a5 bc ac 8a 4a 3d c7 af 0d 3d 90 67 42 3d
       -0.020210981 0.049448654 0.034591462 0.047462046
000350 91 37 3c 3e 74 d2 82 bd 30 83 d3 3d fc b0 76 3c
       0.18380572 -0.06387797 0.103277564 0.015056845
000360 86 d5 65 3d 77 f2 aa 3c 1d 5d 64 be 7a 24 92 3d
       0.056111835 0.02086757 -0.22301145 0.071358636
000370 f1 c4 83 bd 1d 65 fd bb e4 4d eb 3d 92 eb f0 3d
       -0.06434048 -0.007733001 0.11489466 0.117636815
000380 5f 09 20 bc 86 63 71 be c1 e4 4b 3e 67 d2 ee 3c
       -0.009767859 -0.23573121 0.19911481 0.029153062
000390 3d d5 7d bc 63 6e e5 3a ea 3e 2e bc aa d5 2d 3e
       -0.0154927345 0.0017504211 -0.010635117 0.16976038
0003a0 66 30 41 3c 31 36 52 bc 35 34 ba bd 20 07 45 be
       0.011791324 -0.012830303 -0.09091989 -0.19240999
0003b0 c8 b1 47 be 72 d0 79 bd e0 c6 09 3e 48 a6 1a 3e
       -0.19501412 -0.060989805 0.13454771 0.15102494

hidden_rnn.weight_hh_l0 f4 [48, 16]
000000 12 45 46 3e 00 05 8d 3c df 28 5e 3e 49 1a 87 3c
       0.19362286 0.017214298 0.21695279 0.016492026
000010 12 63 32 be 41 62 4e be 1a 4f 45 be d8 51 28 be
       -0.17420605 -0.20154668 -0.19268456 -0.16437471
000020 b5 82 3b 3d 56 17 7e be a6 e8 58 3d 51 80 c3 3d
       0.04577895 -0.2481359 0.052956246 0.09545959
000030 a9 78 45 3e fa f4 e7 bc 61 1e 0b 3e 7a c6 b0 bd
       0.1928431 -0.028315056 0.13585807 -0.086316064
000040 b3 0a a6 3e 7d 76 e1 bd 1c bc a3 bd ac 42 db 3d
       0.32430038 -0.11008928 -0.079948634 0.10706076
000050 cc f6 0f 3e ec 2d 22 3e ab 1c 73 be 91 f2 90 3d
       0.1405899 0.1583783 -0.23741405 0.07077516
000060 a6 d8 31 be 31 65 6e 3e fb 96 3b 3e 60 fa f4 3d
       -0.17367801 0.23280789 0.18319313 0.11961818
000070 b5 fa 59 3e 31 c1 66 3c 12 76 4e 3c c5 de 49 3e
       0.21287043 0.014084146 0.012601392 0.19713886
000080 5c 03 17 3d 12 3f 5a be bc 14 00 3e 32 81 f2 3d
       0.036868438 -0.21313122 0.1250791 0.11841048
000090 33 b7 3f 3d 20 5b c0 3d b6 8c 26 3d 70 ed 1f be
       0.04680557 0.09392381 0.040661536 -0.15617919
0000a0 bf b7 b2 3d 7f ad 10 bc 4c 5e ca 3d af f2 30 3e
       0.08726453 -0.008830427 0.09881267 0.17280076
0000b0 ce a8 14 be f2 91 e5 3d c8 7c 37 bd 99 1c 9a 3e
       -0.14517519 0.112094775 -0.044796735 0.30099943
0000c0 d0 0d 3e be 88 13 13 3e 1a e9 1f be 8d 22 58 3e
       -0.18559957 0.1436292 -0.15616265 0.2110693
0000d0 dc 70 8d 3a a4 59 40 be da 5b 41 3d 16 6f 52 be
       0.0010791081 -0.18784195 0.047206737 -0.20550188
0000e0 0b 6b 84 3c a5 01 31 bc 62 5b 78 3e 2a cf da bd
       0.016164323 -0.010803615 0.2425361 -0.10684045
0000f0 a0 2a c1 bd e6 9f a3 bd 54 18 b3 3e ec 7e 00 3e
       -0.09431958 -0.079894826 0.34979498 0.12548417
000100 5b 03 e0 bd d2 9f b2 3d 4f 96 87 bd 3c 2b 00 be
       -0.1093814 0.087218896 -0.06620466 -0.12516493
000110 f8 28 3b 3e cb 60 c7 bd 7b e4 5e be c6 88 dc bd
       0.18277347 -0.09735259 -0.21766846 -0.10768275
000120 c4 ef 1c be 33 58 da 3c bc 8f 69 3e a4 fd 30 be
       -0.15325838 0.026653385 0.22808737 -0.17284256
000130 a3 15 72 3e 30 b4 a6 bc 46 25 9a be 8c a3 08 bd
       0.23641066 -0.020349592 -0.30106562 -0.033359095
000140 ff eb 4a 3e 28 87 6d 3e b1 8a 4d be 31 de 90 bd
       0.19816588 0.2319609 -0.20072438 -0.0707363
000150 05 e1 7b 3e e5 95 87 3e 14 72 d8 bd 61 76 48 be
       0.24597557 0.26481548 -0.10568634 -0.19576408
000160 41 2f b4 3d 86 15 5c 3e ac ae 68 bd d3 32 5b 3e
       0.087980755 0.21492586 -0.056807205 0.21406107
000170 de fd 80 bd 6e ab 8a 3d f3 74 77 3d da 99 3e be
       -0.06298421 0.06770979 0.060414266 -0.18613377
000180 27 a6 9b bd 2f c2 73 3e 4f a3 83 be 68 06 83 3c
       -0.076000504 0.23804544 -0.25710532 0.015994266
000190 a6 dd 46 bd b7 d2 2f 3e 2f 89 00 3d 5f 89 32 3e
       -0.048551224 0.17170225 0.03138083 0.17435215
0001a0 ff 8e a7 bd 86 15 32 3d 7e b4 97 be c4 5f 89 be
       -0.08181571 0.043477558 -0.29629892 -0.26830876
0001b0 db dc 63 be f4 a8 7b 3c a6 df 45 be 4c 0c 2e 3e
       -0.22252218 0.015360106 -0.19323596 0.16996878
0001c0 c0 e2 89 3e ee e4 d6 bb 4d b2 74 3e 2c 6e 77 3e
       0.2693081 -0.0065580523 0.23896141 0.24163121
0001d0 81 bc 83 bd 9d 15 85 be 50 fc c4 3d 0b e4 4d bd
       -0.06432439 -0.25993052 0.09618437 -0.050266307
0001e0 39 e9 28 be 04 bb 91 bd 6d 09 8c 3d d1 a8 e1 3d
       -0.16495217 -0.071157485 0.06837735 0.11018527
0001f0 23 84 9c 3d 97 b9 cb 3d ee 7e 03 bb 6e df 68 3e
       0.076423906 0.09947508 -0.002006467 0.22741482
000200 d9 00 0f 3e 26 19 28 3e cb 0f 4c 3d a0 c7 60 be
       0.13965167 0.16415843 0.04981975 -0.21951151
000210 88 37 2b 3d 04 88 f5 bb 22 c9 19 bd e6 4d c3 3c
       0.041801006 -0.007493021 -0.03754533 0.023840856
000220 1c c8 85 3d 52 86 76 3e 66 4d 6d 3e 6f 4b 24 be
       0.065323085 0.24074677 0.23174056 -0.160444
000230 3b df 8f be 6e f2 a7 3d 41 80 8c 3c fd 3e ef 3d
       -0.281 0.08200537 0.017151 0.11681936
000240 77 d8 6b 3c 44 52 01 3e 8c 9e 4e be ab f1 65 be
       0.014394871 0.12629038 -0.20177668 -0.2245547
000250 70 1c e2 3d a7 c9 d4 bd 19 85 59 3e df 86 24 be
       0.1104058 -0.10390025 0.21242179 -0.16067074
000260 36 dc ab 3d 7c fe 0a 3e 89 4f 08 be 12 b2 bf bd
       0.08391611 0.1357364 -0.1331159 -0.09360136
000270 73 6c a9 3d 6f 01 45 3d 1b 6f 79 bd 0e 97 25 3d
       0.08272638 0.04809707 -0.060896974 0.04042726
000280 d7 77 43 3e c4 70 26 3d 08 d8 ba bd 93 b2 11 3e
       0.19088684 0.040634885 -0.09123236 0.14228277
000290 96 a9 4b 3d 58 3a 3c bd 00 4a 76 be 69 8e 87 bd
       0.049722277 -0.04595408 -0.24051666 -0.066189595
0002a0 08 d6 b1 3d 70 95 9f 3e 9c c6 7c be d2 56 0f 3e
       0.08683401 0.311687 -0.24685138 0.13997963
0002b0 2c 69 28 be 6f 1d ce bd cf 33 4b be ee 66 20 3e
       -0.1644637 -0.10064208 -0.19843982 0.15664265
0002c0 ca 38 41 3e b0 58 37 3e 92 6a b9 bb fd ce 0b be
       0.1886932 0.17904925 -0.005658456 -0.13653179
0002d0 08 04 90 3d f8 55 3a 3e 27 46 84 bd d3 bc 72 3d
       0.07032019 0.18196857 -0.06458693 0.059262108
0002e0 4c 8f cb bd b0 ac 60 3e 0c f2 d5 bc c8 6b bf 3d
       -0.09939441 0.21940875 -0.026116394 0.093467295
0002f0 c6 7f 97 be 82 b8 6d bd f4 a0 00 3e af b7 11 be
       -0.2958967 -0.05803729 0.12561399 -0.14230226
000300 2c b3 87 3e a0 b4 90 bc 0e 55 51 be e8 ab dd 3d
       0.26503885 -0.017664254 -0.20442602 0.10823804
000310 2f ae 0b be 73 f5 55 be 24 a8 11 be b0 0c d3 3d
       -0.13640665 -0.20894413 -0.14224297 0.10305154
000320 f7 e9 1d 3e ff 1d 62 be 18 f1 47 be ba b9 e2 bd
       0.15421282 -0.22081755 -0.19525564 -0.11070581
000330 e4 6d 8a be 6c 54 62 3e a5 64 ef 3d 19 15 f8 bd
       -0.27036965 0.22102517 0.11689118 -0.12113399
000340 7c a4 8b 3d 3e db 64 3d b4 f8 5c be 72 96 6a bd
       0.06818482 0.05587315 -0.21579248 -0.057272382
000350 e6 e5 58 bd e9 62 ae be 1c 18 60 be 5b 04 8f 3e
       -0.052953623 -0.34059837 -0.21884197 0.2793301
000360 32 7c b4 bd c7 59 60 be 24 53 00 3c 61 c1 7f 3d
       -0.08812751 -0.21909247 0.007832322 0.06244028
000370 06 c4 22 3e db 86 1a 3d 0a 4d 06 be 7f 91 19 be
       0.1589509 0.037726264 -0.13115326 -0.14996909
000380 04 11 ca bd 69 96 27 3e 5d a7 a6 be 7e 27 66 be
       -0.09866527 0.1636597 -0.32549563 -0.22476003
000390 48 d3 d0 3d 9f 3f 5d 3e 4d 79 bd bc 11 9e 17 3e
       0.10196549 0.21606301 -0.02312913 0.14806391
0003a0 f1 8a b4 3d 1f 40 03 be 04 66 ac 3d 65 1d 79 3e
       0.088155635 -0.12817429 0.084178954 0.2432762
0003b0 05 8f df bd 94 57 35 be 58 28 fd 3d 2f 32 e7 3c
       -0.10915951 -0.1770919 0.123612106 0.028222172
0003c0 1a 98 96 be b9 cd e6 3d bb 8b 8e be 4a 5f 49 be
       -0.2941292 0.11269707 -0.2784098 -0.19665256
0003d0 cb 79 5f be c6 42 bb bd 19 61 16 be 6b 5f 87 3d
       -0.21823804 -0.091435954 -0.14685477 0.066099964
0003e0 f0 cd 2f 3e 32 28 5e 3e dd f0 b4 3d fb a4 78 3d
       0.17168403 0.21695021 0.088350035 0.060704213
0003f0 b5 14 37 be 11 0a 46 bd cb 2f df 3b 8d a2 06 be
       -0.17878993 -0.048349444 0.0068111173 -0.13147946

hidden_rnn.bias_ih_l0 f4 [48]
000000 66 05 22 3e 2a c9 c7 3c 4e c4 0a be 38 79 39 bd
       0.15822372 0.024387915 -0.13551447 -0.04528162
000010 9f 64 23 bb 95 e9 85 3c b1 3a 7c 3d 50 d9 3c bd
       -0.00249318 0.016346732 0.06157941 -0.046105683
000020 b1 25 db 3d 42 bb 49 3e 04 bd 0d be f9 fb db 3d
       0.107005484 0.1970034 -0.13841635 0.10741419
000030 8f a9 c2 3d 24 02 19 be 6a e3 41 bd 56 f5 42 3e
       0.09504997 -0.14942223 -0.04733602 0.190389
000040 3c 6f a3 3d 29 b0 9d bc e8 e3 83 be 9c 18 85 bd
       0.07980201 -0.019249039 -0.25759816 -0.064988345
000050 c7 e6 78 3e e3 77 ad 3d 50 9f 57 3d e2 1e 08 3e
       0.24306785 0.08470132 0.052642167 0.13293031
000060 db 6d 9b 3d 85 76 41 3e 20 77 59 be 72 5c 43 3e
       0.07589313 0.18892868 -0.21236849 0.19078234
000070 78 50 67 3d 1d a3 16 be f3 f5 5a bd 96 e7 01 be
       0.056473225 -0.1471066 -0.05345721 -0.12686
000080 aa 28 84 bd 89 7d 97 be e7 b8 8c bd 8e ac 0f 3e
       -0.064530686 -0.29587963 -0.06871205 0.14030668
000090 33 d3 e5 3c ab e4 0e 3d 7f c3 62 3e c9 22 6a 3e
       0.02805481 0.034886044 0.22144888 0.22864832
0000a0 70 81 fd bd d8 27 3d be f8 8f e2 3d f8 dc c8 bd
       -0.12378204 -0.1847223 0.11062616 -0.098077714
0000b0 66 1e f7 bc 7f 28 eb 3d 9a 28 60 3e 8e 3c 24 3e
       -0.030165862 0.114823334 0.21890488 0.16038725

hidden_rnn.bias_hh_l0 f4 [48]
000000 64 30 5a be 28 04 a7 3d 39 65 a3 3d ce 9c 5f 3c
       -0.21307522 0.081550896 0.07978291 0.013648225
000010 3e 67 6e 3b 76 86 21 3c 69 80 f7 bd ce 30 11 be
       0.0036377455 0.009858718 -0.12085039 -0.14178774
000020 68 8d b7 3d 35 44 82 bd 42 5d e1 3d 6a 3d 8a be
       0.08962518 -0.06360666 0.11004116 -0.2699998
000030 4e 9b 53 be 8d 44 60 be 5b a1 0e be 98 eb 3e 3e
       -0.20664713 -0.2190115 -0.1392874 0.1864456
000040 cf c5 61 3d 69 74 82 be eb 8e cb bd 3c e4 20 3d
       0.055120286 -0.2547944 -0.09939369 0.03928016
000050 16 1f d3 3d 21 55 ae 37 39 b8 4b be a5 12 85 3b
       0.103086635 2.0782058e-05 -0.19894494 0.0040610605
000060 40 ad 84 3d 85 9b 17 3e 26 0c 3a bc 2a cd 43 3e
       0.06478357 0.1480542 -0.0113554355 0.19121233
000070 32 cc 63 3e 93 8f 04 bd 7a a5 4a bd 46 6e fa 3d
       0.22245863 -0.032363486 -0.049474217 0.12228064
000080 d2 59 38 3d b8 b0 00 3e 9d ec 01 3d 6c 71 39 be
       0.045007534 0.12567413 0.031719793 -0.18109673
000090 aa 8c 45 3d b0 f6 68 bd f7 0d 8d bc 60 a3 4b be
       0.04822985 -0.056875885 -0.017218573 -0.19886541
0000a0 a9 84 04 be 72 58 41 bd 08 45 5d 3e 16 f1 e3 bd
       -0.12941231 -0.04720349 0.21608365 -0.11129968
0000b0 a4 59 cd 3d d0 d2 20 3e b8 96 69 3e f9 78 5b bd
       0.10026863 0.15705419 0.22811401 -0.053582165

exp_avg f4 [16, 7]
000000 26 a2 42 bc 1d 4a 57 3c 92 d0 82 3c 9f 62 df b9
       -0.0118794795 0.013140229 0.015968595 -0.00042607353
000010 4b 6c 4e bc e8 f8 87 3c 20 28 64 3b f7 dd 17 bc
       -0.012599061 0.01659818 0.0034813955 -0.009269229
000020 f7 7e 76 3b e5 31 3c 3c 8b 30 32 3a 00 37 a9 bb
       0.0037612298 0.011486505 0.00067973946 -0.005164027
000030 8b 21 b3 ba fe 8e d9 bb 36 4e da bb 8d 72 cb 39
       -0.0013666613 -0.0066393605 -0.0066621555 0.00038804524
000040 40 2e 11 3d 3b 84 1e bc 25 ec 9e bc b5 1a d7 3c
       0.035444498 -0.009675081 -0.019399712 0.026257852
000050 a3 81 4f 3b e6 55 c5 bb cb 2c 9a 3c b8 17 9a 3c
       0.0031662963 -0.006022203 0.018820187 0.018810138
000060 6a 7c 50 3b 56 c1 c0 bc 29 3a c8 3c 77 cc 0e bd
       0.0031812438 -0.02352969 0.024441795 -0.03486296
000070 71 d3 b5 bc 17 56 19 bd e3 76 75 3b e4 bc 51 bc
       -0.02219555 -0.037435617 0.0037454895 -0.012801383
000080 fd 97 51 bc 6e fa 29 bd 53 bf a0 3b 58 5b 62 bc
       -0.0127925845 -0.041498594 0.00490562 -0.013815723
000090 fb 17 ba bc 36 85 b3 3c 5c d4 88 bc ae e6 16 3a
       -0.022716513 0.021914106 -0.016702823 0.000575642
0000a0 dd b4 da 3c ce 9d 80 bb a5 a4 94 3c 4a 4e 12 bc
       0.02669757 -0.003925062 0.018144915 -0.008929798
0000b0 8f 94 ea bb bf 6c 76 3c 24 b5 da bb 64 c3 02 3c
       -0.007158823 0.0150405755 -0.0066744257 0.007981155
0000c0 a3 20 61 3b 62 bc 51 bc e9 c6 4f bc 0d 49 30 3b
       0.0034351728 -0.012801262 -0.012681701 0.002689901
0000d0 88 82 51 bc db b1 1e 3c d9 c8 fc 3c 80 6b 5e ba
       -0.012787469 0.009685959 0.03085749 -0.00084846467
0000e0 11 b7 80 bb 26 69 fd 3b 05 db 04 3c ac c1 fa bb
       -0.003928073 0.007733482 0.008108859 -0.007652482
0000f0 f6 da 1b bc 71 56 c0 bc 37 da 1a bc 07 c1 b2 bc
       -0.009512654 -0.023478718 -0.009451441 -0.021820558
000100 6c 90 89 bd b4 4f 29 bd 64 0c d8 bc d9 ce 75 bc
       -0.067169994 -0.041335776 -0.026373096 -0.01500293
000110 c3 b3 9f bc ca e1 6f 3c 3f ec 0a 3c 02 4d 08 3a
       -0.019494897 0.014641235 0.008479177 0.00051994633
000120 76 9b b7 3c 24 e1 7e 3b 5b 76 bb bb ed 24 a3 3b
       0.022412997 0.0038891518 -0.005720896 0.004978767
000130 70 18 cd bb 4a 18 fd bc 6d 31 ac bc 47 86 18 bd
       -0.0062590167 -0.030895371 -0.021019662 -0.03723743
000140 ad 2f db 39 64 e3 67 bc 30 58 f4 bb c1 1d 40 3b
       0.00041806456 -0.014153335 -0.007456802 0.002931461
000150 38 f8 38 3a 43 6a 2e bc 38 fb a0 bc 7a 20 de bb
       0.00070560304 -0.010645452 -0.01965104 -0.006778774
000160 fa eb 31 3c 29 8a e9 bb 64 d9 65 3b 17 0a 38 ba
       0.010859484 -0.0071270657 0.0035072202 -0.00070205465
000170 d4 4c a8 bc e6 cc 1b bc 73 07 3e bb fc 2e 44 bb
       -0.020544447 -0.009509301 -0.002899614 -0.0029935231
000180 18 d6 dd bc b1 01 1c 3b f4 90 91 39 b0 7c cc 3b
       -0.027079627 0.002380472 0.00027764554 0.00624045
000190 d8 f0 bf 3b 5a 57 12 bb 23 c9 0f 3c af a0 30 3b
       0.0058575682 -0.0022329898 0.008775982 0.0026951244
0001a0 96 4b 68 bb 88 da d5 3a f4 80 fe bb 1b 89 e0 bb
       -0.0035445443 0.0016315738 -0.0077668373 -0.0068522817
0001b0 18 47 a5 3b 86 86 bf 3b 59 ff bd bc 6b 1a 40 3b
       0.0050438754 0.005844894 -0.023193048 0.0029312621

exp_avg_sq f4 [16, 7]
000000 b2 35 94 3b 5c 2a 92 3b e9 93 53 3b 64 53 c7 3b
       0.0045230025 0.004460616 0.0032284206 0.006082939
000010 5a 17 77 3b f3 0a da 3b 93 8c 60 3b 4c 02 86 3b
       0.0037703128 0.0066541373 0.0034263476 0.0040896293
000020 41 56 04 3b a0 f3 80 3b bf fa 54 3b 06 94 30 3b
       0.0020193013 0.0039352924 0.003249809 0.0026943698
000030 33 9a 77 3b 98 f0 45 3b 16 ec c7 3b e7 be 90 3c
       0.003778112 0.003020322 0.0061011417 0.017669154
000040 fc 6d d2 3b 0a f3 33 3c f6 96 00 3c 21 75 3f 3d
       0.0064218026 0.010983238 0.007848492 0.046742562
000050 7d 7d 53 3b 1c 7e e5 3b ea c1 2d 3c 66 da f6 3b
       0.0032270842 0.007003559 0.010605315 0.0075333593
000060 19 58 19 3c 2a c3 e6 3b a7 65 05 3c 29 57 a4 3b
       0.009359383 0.0070423083 0.008141912 0.005015273
000070 ce 25 05 3c 53 78 67 3c 9a ff 26 3c 2d ef 28 3c
       0.008126689 0.014127809 0.010192776 0.01031093
000080 e2 ff f3 3b f5 26 01 3d 6c fe 94 3b dc df 30 3c
       0.007446275 0.031531293 0.004546931 0.01079556
000090 9a 06 14 3d 26 37 d7 3b 52 19 c0 3c 27 4d 83 3c
       0.03613911 0.0065678535 0.023449574 0.016028
0000a0 b7 29 d7 3d 94 20 61 3b ac 6a 75 3b c5 67 fb 3b
       0.10506003 0.0034351693 0.0037447615 0.0076722824
0000b0 b6 0c 02 3c 8b f0 96 3b 44 80 4d 3b fb 14 86 3c
       0.007937601 0.0046063117 0.003135697 0.016367426
0000c0 f0 84 86 3a d2 aa e4 3b 4a 6e e7 3b 8b 8b 0f 3c
       0.0010263007 0.006978371 0.007062708 0.008761297
0000d0 69 da d2 3b b6 20 b3 3b 72 8d 0c 3c ae 54 af 3b
       0.006434728 0.005466546 0.008578645 0.005350671
0000e0 ce d0 4b 3b 4c f2 92 3b 44 39 48 3b 89 93 8b 3b
       0.00310998 0.0044844504 0.003055171 0.004259531
0000f0 d4 9c 5f 3b f5 c0 35 3c c9 c8 2c 3b bd 96 05 3c
       0.0034120576 0.011093368 0.0026364794 0.008153615
000100 5c 51 24 3c 48 f8 e9 3b 45 56 35 3c 2f 82 fe 3b
       0.010029163 0.007140193 0.011067932 0.007766984
000110 21 c9 f1 3c 0b 3b a7 3b 4b bc b6 3a e7 7d 00 3b
       0.029514851 0.005103474 0.0013941614 0.0019606294
000120 df 1a 88 3a 5c dd d0 3a 12 0e b3 3a d6 9b 9b 3b
       0.0010383985 0.0015935111 0.001366081 0.0047488017
000130 64 da 84 3a de a5 3b 3b 15 97 3f 3b 6f 2b 97 3b
       0.0010135886 0.00286328 0.002923434 0.004613332
000140 05 26 69 3b e0 16 11 3b 20 3e 98 3b 48 36 c9 3a
       0.003557564 0.0022138879 0.0046460778 0.001535126
000150 7f a3 15 3b bf 07 3a 3b 96 a3 30 3b 0a 29 3b 3b
       0.0022833047 0.0028385965 0.0026952974 0.0028558397
000160 16 0d 15 3b 80 aa 7e 3b 31 5c 14 3b 0f f8 3e 3b
       0.0022743396 0.003885895 0.0022637958 0.0029139554
000170 f4 28 a8 3b 05 a9 18 3b 4c 8c 99 3b ae 53 6d 3b
       0.005131835 0.0023294103 0.004685914 0.0036213207
000180 8a bf 41 3c 69 ce fa 3a 69 74 1e 3b d8 c2 87 3b
       0.011825452 0.0019135001 0.0024178273 0.0041431
000190 fa 59 6b 3b 85 66 3b 3b 59 1f 18 3b d5 19 20 3c
       0.0035911785 0.0028595042 0.0023212044 0.009771784
0001a0 52 2e a3 3a 39 83 6a 3b 6b e0 dc 3b 67 a6 51 3b
       0.0012449718 0.0035783781 0.00674062 0.0031990053
0001b0 e9 3e b9 3b 01 69 87 3b e3 06 88 3c af 6c ec 3a
       0.0056532514 0.0041323905 0.016604846 0.0018037761

exp_avg f4 [16, 16]
000000 11 c8 7f 3a ab e8 2b 3b 01 ee 04 bc be 40 d9 39
       0.000975729 0.002623121 -0.008113385 0.00041437702
000010 36 ca a6 bc b9 ae 61 bb f4 53 bb bb 55 63 a1 3b
       -0.020360094 -0.0034436418 -0.005716795 0.0049251714
000020 cd 8b 33 bc d3 a7 07 bb b2 f7 88 ba fc 27 56 bc
       -0.010958624 -0.0020699396 -0.0010449796 -0.013071056
000030 e1 e2 c3 bb fe f2 13 3b d7 bb 86 3b 77 80 33 bc
       -0.005977974 0.0022575255 0.0041117477 -0.010955921
000040 87 bd a2 bb 45 8e 25 3b 7e 95 bc bb 0f f2 b0 ba
       -0.004966441 0.0025261801 -0.0057551255 -0.0013499873
000050 60 da 2f bc 8c 84 df ba c3 81 f7 bb a3 a9 58 3a
       -0.010733217 -0.0017053052 -0.0075533106 0.0008265024
000060 55 09 3a ba 4d 74 90 3a 73 87 9e bb 1b 58 1b bc
       -0.00070967275 0.0011020988 -0.004837924 -0.009481455
000070 12 f1 04 bb eb c8 bf 3b 7d 7c ed 3a 18 12 a3 b9
       -0.002028529 0.0058528087 0.0018118765 -0.00031103264
000080 22 a5 de 3b 5b a0 5f 3a 51 94 4d bb a3 03 e5 3b
       0.0067945877 0.000853067 -0.003136892 0.006988959
000090 83 5b 86 bc c5 ca af bb fa 59 3f bb da 0b 11 3c
       -0.016401058 -0.005364748 -0.0029197917 0.008852923
0000a0 74 93 a4 bb ed 5b fc bb 0c 33 94 ba 69 b7 58 bc
       -0.0050224606 -0.007701388 -0.0011306717 -0.013227322
0000b0 26 c9 b7 bb 9a 1f 45 3b dd c5 4f 3a a7 7f a2 bb
       -0.0056086956 0.003007865 0.0007925907 -0.004959065
0000c0 d7 b7 ad bb 36 86 93 3c a8 d8 1f 3a 45 4e 11 3c
       -0.0053014564 0.018008333 0.0006097653 0.008868759
0000d0 c3 a3 b1 bc b4 fa 13 3c c5 5f 85 bc aa 86 b0 3b
       -0.021684533 0.00903194 -0.016281018 0.005387147
0000e0 6f 9f aa bb 28 cc d1 bb fd 6b bb ba 47 5e d4 bc
       -0.0052069942 -0.006402511 -0.0014299151 -0.025923861
0000f0 26 34 85 bc f5 19 51 3c a5 f2 80 3b 6e 26 e7 39
       -0.016260218 0.012762536 0.0039351755 0.00044088386
000100 d7 f1 e5 bb 2d 2e 05 bc 92 dc 9d bc d6 a8 11 bc
       -0.007017355 -0.008128685 -0.019270215 -0.008890351
000110 f6 96 5f 3b 33 13 08 bc 3c 68 dd ba 1e f4 39 bc
       0.003411708 -0.008305359 -0.0016892026 -0.011349706
000120 b2 5b 6a bb 1b e4 c2 3a 36 57 c4 ba 24 f8 20 3c
       -0.003576022 0.0014869006 -0.0014979604 0.009824786
000130 3b ea 33 3c fb ba 05 bc 58 df 3f 3b e8 72 00 3c
       0.010981138 -0.008162255 0.002927741 0.007839896
000140 d1 02 27 3c 81 63 0a 3c aa c8 ff 3b 91 53 42 3c
       0.010193543 0.008446575 0.0078059034 0.011860744
000150 bf 44 dd ba 8d f6 be b9 64 a4 aa bb 98 fe bd 3b
       -0.001688145 -0.0003642332 -0.005207585 0.005798172
000160 b6 0b 25 bb 44 3d 62 bc ba 19 a7 3b 38 96 e9 bb
       -0.0025183982 -0.013808552 0.0050995024 -0.007128503
000170 39 03 20 39 e1 e6 64 bb 17 98 55 ba 7e e1 86 3b
       0.0001525999 -0.0034927654 -0.00081479683 0.004116236
000180 b3 cf 0d 3a 57 35 8a bb 84 62 aa bb e1 07 d2 3b
       0.0005409673 -0.0042177844 -0.0051997323 0.0064096306
000190 73 e7 51 3b 0e 8c 37 3b d0 de 28 3b b4 cd 60 3b
       0.0032028824 0.0028007063 0.0025767572 0.0034302296
0001a0 64 c2 cd ba 58 f2 7e 39 f8 49 e1 3b 30 4f 19 3b
       -0.0015698192 0.00024313608 0.006875273 0.0023393147
0001b0 38 c3 f7 ba 4b 0b 80 b9 a0 f1 97 3a cf 43 b8 39
       -0.0018902784 -0.00024422476 0.0011592396 0.00035145736
0001c0 b5 5d e4 3b f0 a0 5f 3c 53 03 25 3c 3d f1 37 3c
       0.0069691786 0.01364921 0.010071593 0.011226949
0001d0 b4 16 6c 3a a0 ed 8d 3b ea fd ce bb 4d aa 35 3c
       0.00090060686 0.0043313056 -0.00631689 0.011087966
0001e0 20 72 22 bb be ea 34 bc be ed 19 3c 90 b7 9f bb
       -0.0024787262 -0.011042295 0.009395061 -0.0048741773
0001f0 05 22 cf b9 12 e7 57 bb 15 24 1b 3b b1 fc fe ba
       -0.00039507463 -0.0032944125 0.002367263 -0.001945397
000200 62 54 48 ba c2 42 91 bb 56 ae 51 3a 85 77 cd bb
       -0.00076419686 -0.004433007 0.00079986954 -0.0062703514
000210 c2 cc 3e 3b c8 c9 a7 bb f3 ce ad 3a 56 29 47 bc
       0.0029113744 -0.0051204897 0.0013260528 -0.012155851
000220 47 96 27 3b a4 2e 91 39 72 9d 28 bc 0f 17 20 3b
       0.002557175 0.00027691305 -0.010291444 0.0024427806
000230 ea 83 c9 38 26 61 5b 3b bd 15 87 bb a0 15 0f 3c
       9.608998e-05 0.0033474653 -0.0041224645 0.008733183
000240 03 8e f2 3a 34 37 0a 3c 8e 23 8e bb 1c 84 43 3b
       0.0018505458 0.008436013 -0.0043377345 0.0029833382
000250 a8 88 94 3c e3 c3 f7 b9 45 bc 87 bb 8b 65 8c bb
       0.018131569 -0.00047257458 -0.0041423165 -0.004284566
000260 a3 4f 0d bc 9a 9e 75 bc 16 12 68 3c 9c a9 9a 3c
       -0.008624944 -0.014991427 0.014164468 0.018879704
000270 e7 4a b4 3c 28 ed b4 bc 5a 04 31 3b 76 e4 02 3b
       0.022008372 -0.022085741 0.002701065 0.00199726
000280 77 95 61 3b 1c dc 45 bb 46 9e a8 37 ed 30 c8 3b
       0.0034421363 -0.003019101 2.0100862e-05 0.006109348
000290 6c 70 23 bb d2 46 74 ba a3 44 ac 3a af 40 0b 3b
       -0.0024938835 -0.00093184144 0.0013143014 0.0021248271
0002a0 ec cb 31 3b 1f 6b 70 bb 92 f4 55 bb c6 12 bc bb
       0.0027129604 -0.0036684943 -0.0032646996 -0.0057395427
0002b0 61 28 aa bb 03 95 d5 3b df c5 e6 ba cd ea a5 3b
       -0.005192802 0.0065180077 -0.0017606578 0.005063391
0002c0 63 4e 2f bc e4 98 65 3c c6 b3 1c bc 00 53 bc bb
       -0.010699841 0.014013503 -0.009564346 -0.005747199
0002d0 7f 56 a0 bb 5c 66 96 3b 18 1d 4f bc 34 43 52 38
       -0.0048931236 0.004589839 -0.012641214 5.013049e-05
0002e0 c1 0c 47 bc 46 fc 9b 3a c8 c2 3a 3c fc 17 f8 3a
       -0.012149037 0.0011900745 0.0113989785 0.0018928046
0002f0 78 19 14 3c f3 dd 4c bc 1f 16 18 3c b1 b9 21 bc
       0.009039275 -0.012504089 0.009282618 -0.009870932
000300 ef 1d 98 bb 13 de 51 3b fd be 4a bb d2 ad 22 ba
       -0.0046422402 0.0032023236 -0.0030936592 -0.0006205711
000310 3c 0e ab 3b 76 1a 85 3b 8f a9 c9 ba f3 fd e9 3a
       0.0052202027 0.0040619923 -0.0015385615 0.0017852172
000320 fc e2 45 ba 17 9d 0b 3b 27 7d c6 3b 11 bb b8 3b
       -0.0007548777 0.002130335 0.0060574 0.0056375344
000330 60 ae a0 3b 1f a5 96 bb 21 cc 48 3b 7d 33 9f ba
       0.0049035996 -0.0045973207 0.0030639248 -0.0012146082
000340 40 99 75 bb fc b8 a5 bb d6 c8 64 bb 55 ad 86 bb
       -0.0037475377 -0.0050574522 -0.0034909747 -0.0041100183
000350 2c 53 20 3c ee 19 75 b9 19 14 ca 3a 60 5c d0 bb
       0.009785455 -0.0002337468 0.0015417367 -0.006358668
000360 47 12 32 3b 34 ce 04 3b 48 db 16 38 76 37 1e 3c
       0.0027171539 0.0020264508 3.596701e-05 0.009656778
000370 e0 9b d5 3b d3 56 90 bb f7 74 0d 39 c7 a1 b4 3b
       0.006518826 -0.0044048815 0.0001349038 0.0055124494
000380 07 6b 35 3b 30 b1 8e 38 ca 5e c3 3b 9a 89 9f 3a
       0.0027682201 6.8040914e-05 0.0059622275 0.0012171746
000390 b2 e8 ee 3a f8 3c 01 b9 c2 9d 20 3a 18 44 31 ba
       0.0018227308 -0.00012325111 0.00061270234 -0.0006762161
0003a0 40 1a 31 3b 7c d5 27 bb 76 df 34 bb b5 75 d8 ba
       0.0027023703 -0.0025609424 -0.0027599013 -0.0016514572
0003b0 68 20 01 bb 33 9f 13 3b f7 7c b8 ba bf 49 7c 3b
       -0.0019703154 0.002252531 -0.0014075328 0.0038496105
0003c0 87 e4 f3 3a a6 1c b3 bb 1e ac 1c 3b 61 0b 8c bb
       0.0018607535 -0.0054660616 0.00239063 -0.0042738174
0003d0 b8 66 48 3c aa df 12 bb 7d 43 c0 3b cc 7b f7 bb
       0.012231521 -0.0022411146 0.00586742 -0.0075525995
0003e0 b9 dd 7d 3b 1e 0f 13 3b 03 36 ab ba e5 58 2d 3c
       0.0038736893 0.002243943 -0.0013062361 0.010580276
0003f0 ca dc ba 3b f9 84 75 bb 80 cb 4e bb 51 8f f0 3b
       0.0057025896 -0.003746329 -0.00315544 0.0073413034
