ckpt/rnn_nodiff_h16/best.pth (torch_old, 17704 bytes, 30 tensors)

rnn.weight_ih_l0 f4 [16, 7]
0	0xbcb69407	-0.022287382
1	0xbd193d8c	-0.03741221
2	0x3d6c54b4	0.057697967
3	0xbd92493c	-0.071428746
4	0xbe2ea523	-0.17055182
5	0x3eb4b41f	0.3529367
6	0x3ccef833	0.025264835
7	0xbdf9e5a2	-0.12202002
8	0x3d9d3ecc	0.07677993
9	0xbe2b2d89	-0.16716589
10	0x3d9c0f8d	0.076201536
11	0xbe3db140	-0.18524647
12	0xbd099eb8	-0.03359863
13	0xbe0119aa	-0.12607446
14	0xbe57d7ad	-0.21078368
15	0x3dbaad15	0.09115044
16	0xbda6076d	-0.08106885
17	0x3d32503c	0.04353355
18	0xbdaf4533	-0.085581206
19	0x3ed685ee	0.41899055
20	0xbcd021eb	-0.025406798
21	0x3e68033d	0.22657485
22	0xbdb886d1	-0.09010089
23	0x3cab3aae	0.020902004
24	0x3e0cc078	0.13745296
25	0xbdad5e9a	-0.084653094
26	0x3ea9468c	0.33061635
27	0xbede5750	-0.4342599
28	0xbd3cc163	-0.046082865
29	0xbe04beef	-0.1296346
30	0xbe12b867	-0.14328156
31	0x3d11e7e1	0.035621528
32	0x3cfa591d	0.03056007
33	0x3db6b764	0.08921698
34	0x3e308925	0.17239816
35	0x3e4e3497	0.20137249
36	0xbe04907e	-0.12945744
37	0x3ced6955	0.02898089
38	0x3e1ae7bc	0.15127462
39	0xbe18f194	-0.14935905
40	0xbe06ea8d	-0.13175412
41	0x3dd23f4b	0.102659784
42	0x3e28467d	0.16433139
43	0x3a68c465	0.0008879363
44	0x3dd10e27	0.102077775
45	0x3e0454f2	0.12923029
46	0x3c5023a4	0.01270381
47	0x3d4ee9e1	0.050516013
48	0x3e98c098	0.29834437
49	0x3e4b26d3	0.19839029
50	0x3dae332d	0.08505855
51	0x3dbaa573	0.09113588
52	0xbc63bc97	-0.013899944
53	0x3e198240	0.14991093
54	0x3e398c8d	0.18120022
55	0x3ec00ceb	0.37509856
56	0xbcc7e325	-0.024400303
57	0xbd12670a	-0.035742797
58	0x3e0e0afc	0.13871378
59	0xbd8b09f4	-0.06789008
60	0x3e33cb31	0.1755798
61	0x3e3b1266	0.18268737
62	0x3d5c945f	0.053852435
63	0x3dba1dcb	0.09087714
64	0x3de5803a	0.11206098
65	0xbd5e8f6d	-0.054336
66	0x3deaff68	0.11474496
67	0x3e035fbe	0.12829491
68	0xbe4f3ed5	-0.20238812
69	0x3e5b5a96	0.21421275
70	0x3d02eb1f	0.03196251
71	0xbe11ff21	-0.1425748
72	0xbd622727	-0.05521312
73	0x3e839c85	0.25705352
74	0x3e2b4e9f	0.1672921
75	0xbdacc453	-0.084358834
76	0x3cb419d6	0.021984976
77	0x3d4776db	0.048697334
78	0xbe0b0c9a	-0.13579026
79	0xbdd8d551	-0.10587562
80	0x3d93556d	0.07194028
81	0xbd8fbfb4	-0.07018986
82	0xbe831c55	-0.25607553
83	0x3ee0c292	0.43898445
84	0xbe11efd3	-0.14251642
85	0xbe5890ee	-0.21149036
86	0xbcaa9868	-0.020824626
87	0xbd722d97	-0.05912551
88	0xbe7ca590	-0.24672532
89	0x3dc70e13	0.09719481
90	0x3e9a61af	0.30152652
91	0xbbc363e4	-0.0059628356
92	0x3d9dd3b7	0.07706397
93	0xbe477cb7	-0.19481169
94	0xbe900c5a	-0.28134423
95	0x3d27ca60	0.040964484
96	0xbdd1dcf0	-0.102472186
97	0xbe4dfc19	-0.20115699
98	0xbdddcb92	-0.108298436
99	0x3c6748e9	0.014116504
100	0x3d83515c	0.064120024
101	0x3d8cc137	0.0687279
102	0x3b5194e0	0.0031979606
103	0xbe3fc51b	-0.18727534
104	0x3d861054	0.06546083
105	0x3cdbae93	0.026816642
106	0xbde7e5d8	-0.11323136
107	0x3dfe0412	0.1240312
108	0x3e22a956	0.15884909
109	0xbe5358c4	-0.2063933
110	0xbe70f45f	-0.2353072
111	0xbe22cccf	-0.15898441

rnn.weight_hh_l0 f4 [16, 16]
0	0x3d919bc7	0.0710979
1	0xbe770a8c	-0.24125117
2	0x3e72a3c4	0.23695284
3	0x3ceb75dd	0.028742725
4	0x3eaf45a1	0.3423281
5	0xbe114e6d	-0.14190073
6	0x3df5029e	0.1196339
7	0x3ec604cc	0.38675535
8	0x3d8fe236	0.07025568
9	0x3d06bf26	0.032897137
10	0x3e26b740	0.16280842
11	0x3e9b33ab	0.30312857
12	0xbdf3f326	-0.11911611
13	0x3a7d6e75	0.00096676435
14	0x3d863a32	0.065540686
15	0xbe310fe4	-0.17291218
16	0xbe94601c	-0.28979576
17	0x3e9d1fa5	0.30688205
18	0x3e8796e4	0.26482308
19	0x3e5caeb0	0.21551013
20	0xbe95fbbc	-0.2929362
21	0x3e1b5a8f	0.15171264
22	0xbe594c45	-0.21220501
23	0x3d1e2f44	0.038619295
24	0xbe789800	-0.24276733
25	0xbeb0df1d	-0.34545222
26	0x3d7caaf0	0.061686456
27	0xbebf644e	-0.37381214
28	0xbd6105ce	-0.054937176
29	0x3e150b60	0.1455512
30	0xbda865d8	-0.0822255
31	0x3e93665d	0.28789034
32	0x3e734441	0.23756506
33	0xbdc5e250	-0.09662306
34	0x3e408e08	0.1880418
35	0xbe15ef86	-0.14642152
36	0x3e49a8ba	0.1969327
37	0x3debf5f9	0.11521525
38	0xbe119f1f	-0.14220856
39	0x3a58d62e	0.00082716614
40	0xbd19b899	-0.03752956
41	0x3c52b628	0.012860812
42	0x3d3a04e3	0.045414817
43	0xbdc0bdbb	-0.09411188
44	0x3e6788b1	0.22610737
45	0x3c465f24	0.012107644
46	0xbca4a50b	-0.02009823
47	0xbe21df69	-0.1580788
48	0x3d0d6db9	0.034528468
49	0xbe0412f8	-0.12897861
50	0xbd09dc12	-0.03365714
51	0x3ec2c676	0.3804204
52	0x3dffcc29	0.12490112
53	0xbe139b45	-0.144147
54	0xbdbd7fbe	-0.092528805
55	0x3e12cdda	0.14336339
56	0x3e3850f2	0.17999628
57	0xbe080949	-0.13284792
58	0xbd83d25e	-0.06436609
59	0xbe63bb09	-0.22239317
60	0x3da81caa	0.08208592
61	0xbdb3f736	-0.08787386
62	0xbcb5e06b	-0.022201737
63	0xbd98b262	-0.07455899
64	0x3e7536f3	0.23946743
65	0xbd13e61a	-0.036108114
66	0x3e4127d5	0.18862851
67	0x3dec20bd	0.11529682
68	0x3e597cfc	0.21239084
69	0x3d4f5332	0.05061645
70	0x3e8098cb	0.25116572
71	0x3e31f01e	0.17376754
72	0x3e758f25	0.23980387
73	0xbcbad37b	-0.02280592
74	0x3e4daed1	0.20086218
75	0x3df0221e	0.11725257
76	0x3e163631	0.1466911
77	0x3e9b94b1	0.3038688
78	0xbeb0e22a	-0.3454755
79	0xbe39a281	-0.18128397
80	0xbe177ef9	-0.1479453
81	0x3d28f602	0.041250236
82	0xbe07200f	-0.13195823
83	0xbebfdd2e	-0.37473434
84	0xbe1351ba	-0.14386645
85	0x3d91e58d	0.071238615
86	0x3e5a4b51	0.21317793
87	0x3ba3c5cd	0.004997945
88	0x3e0ad858	0.13559091
89	0x3dc8f219	0.098118015
90	0xbe25c30f	-0.1618769
91	0x3ecbf932	0.39838558
92	0x3eda04ca	0.4258178
93	0x3e9067ac	0.28204095
94	0x3eb19108	0.34680963
95	0xbdcb19a6	-0.099170014
96	0x3ed0877f	0.40728375
97	0xbd236e66	-0.039900206
98	0x3e93c021	0.2885752
99	0xbdb81463	-0.089882635
100	0x3ebf1ba3	0.37325773
101	0xbe67e213	-0.22644834
102	0xbbe95c07	-0.007121566
103	0x3e498a83	0.19681744
104	0xbdb3a09e	-0.0877087
105	0xbe020c82	-0.12700084
106	0xbdbe6067	-0.09295731
107	0x3e369689	0.17830862
108	0x3e223cd5	0.15843518
109	0x3d5a4fa9	0.053298626
110	0xbe351bce	-0.17686388
111	0xbecca66a	-0.39970714
112	0xbda88cb8	-0.08229965
113	0x3e2ab3d1	0.16670157
114	0xbe9f6632	-0.31132656
115	0x3c345373	0.011006224
116	0xbdd0941a	-0.10184498
117	0x3e33f362	0.17573312
118	0xbdcabd88	-0.098994315
119	0x3ea678da	0.32514077
120	0xbe18b60b	-0.14913194
121	0x3e3be42e	0.18348762
122	0x3dbdbaa4	0.092641145
123	0x3e09a421	0.13441516
124	0x3e70fa4f	0.23532985
125	0xbe1be039	-0.15222253
126	0xbd11d3aa	-0.03560225
127	0xbdff7d9e	-0.124751315
128	0x3d491a5e	0.04909741
129	0xbe3be645	-0.1834956
130	0x3e8dec81	0.277195
131	0xbd6bbb16	-0.057551466
132	0x3e37b1a5	0.1793886
133	0xbe8ca685	-0.27470794
134	0x3ebcc245	0.36866966
135	0x3de2edf8	0.11080545
136	0xbdf3b94a	-0.119005755
137	0x3d96f98d	0.07371817
138	0x3d8f05a8	0.06983501
139	0x3e1278ca	0.1430389
140	0x3e97a210	0.2961583
141	0x3e4a3ec8	0.19750512
142	0xbde8639a	-0.113471225
143	0xbef71231	-0.48256066
144	0xbdbf0ba4	-0.09328392
145	0xbe35d140	-0.17755604
146	0xbe8166c0	-0.25273705
147	0xbe9ad867	-0.30243227
148	0x3b54811b	0.0032425586
149	0x3e454bfb	0.19267265
150	0x3d1ece69	0.038771067
151	0xbd657bbd	-0.05602621
152	0xbe59ce49	-0.21270098
153	0x3ea9118f	0.3302121
154	0xbda7b92c	-0.081896156
155	0x3eac3a03	0.3363801
156	0x3eb2f2a4	0.34950745
157	0x3e604f13	0.21905164
158	0x3dbf1db5	0.09331838
159	0x3dca27a4	0.09870842
160	0xbda86bd1	-0.08223689
161	0x3e318133	0.17334442
162	0xbe1992b6	-0.14997372
163	0x3e80c788	0.2515223
164	0xbdbc9f2b	-0.092100464
165	0xbdbf3fe3	-0.09338357
166	0xbe956413	-0.29177913
167	0xbe81ee0b	-0.25376925
168	0xbf021a2b	-0.5082118
169	0x3e68c6c2	0.2273207
170	0x3cad7461	0.021173658
171	0xbda1e215	-0.0790445
172	0xbdf77132	-0.12082137
173	0xbe9dd1f4	-0.30824244
174	0x3edf7aa2	0.4364825
175	0x3ec82c93	0.39096507
176	0xbdadbf83	-0.084837936
177	0xbd53fa58	-0.05175242
178	0xbdb26301	-0.0871029
179	0x3d1be74b	0.038062375
180	0x3e850cf4	0.25986445
181	0xbe0ec2b7	-0.13941465
182	0x3ea61002	0.32434088
183	0x3e0bb906	0.136448
184	0xbd822f76	-0.06356709
185	0x3e8da9bb	0.27668557
186	0xbda462d2	-0.08026661
187	0x3d92ce67	0.071682744
188	0x3e819444	0.2530843
189	0x3e27f87c	0.16403383
190	0x3e2243e1	0.15846206
191	0xbeae500e	-0.34045452
192	0xbc428adc	-0.011873927
193	0x3cdea33e	0.02717745
194	0xbdb1ac0d	-0.08675394
195	0x3b684dcf	0.0035446768
196	0x3da3dde7	0.08001309
197	0xbdbaf9b9	-0.09129662
198	0x3bf582dc	0.0074924063
199	0x3eaf68ec	0.34259737
200	0x3e00b0d5	0.12567456
201	0xbe7e57f7	-0.24838243
202	0xbe540a8d	-0.2070715
203	0x3e05fd52	0.13084915
204	0xbcd5b4e7	-0.026087238
205	0x3e318dc5	0.17339237
206	0xbb0166d2	-0.0019745124
207	0xbe9ecb64	-0.3101455
208	0x3e496860	0.19668722
209	0xbeaccdfe	-0.3375091
210	0x3cd2ee52	0.025748406
211	0xbdafbec7	-0.0858131
212	0xbc8436b4	-0.016139366
213	0xbe6e0bbb	-0.23246662
214	0x3eb594f1	0.35465196
215	0x3db8633d	0.09003303
216	0x3ea78145	0.32715812
217	0x3e4a8f53	0.19781236
218	0xbda19bb7	-0.078910284
219	0xbe151db9	-0.1456212
220	0xbe14c2c2	-0.14527419
221	0xb9f4aa8f	-0.00046666383
222	0xbddb5d4f	-0.107111566
223	0xbe59378a	-0.21212593
224	0xbe7d881e	-0.24758956
225	0x3d7d4cc0	0.061840773
226	0xbe8fd01a	-0.28088456
227	0xbe394fc2	-0.18096831
228	0x3c3cabfb	0.011515613
229	0xbd729dac	-0.0592324
230	0xbe73fe99	-0.2382759
231	0x3e33ab14	0.1754573
232	0x3c88d287	0.01670195
233	0xbe3ca796	-0.18423304
234	0x3ac1baee	0.0014780441
235	0x3dec1434	0.11527291
236	0xbe159ae1	-0.14609863
237	0x3ddace68	0.106839
238	0xbe13b611	-0.14424922
239	0x3e41d6c6	0.18929586
240	0xbdf0f4b7	-0.11765426
241	0xbcbb3d6a	-0.022856433
242	0xbcf94bae	-0.030431595
243	0xbe851592	-0.2599302
244	0x3db38658	0.087658584
245	0xbde17e47	-0.110104136
246	0xbdbb399c	-0.091418475
247	0xbdeda5d6	-0.11603896
248	0x3e8b8fe4	0.27258217
249	0xbd20ed50	-0.03928882
250	0xbc3248a3	-0.010881576
251	0x3eb80fa0	0.3594942
252	0xbd5e0f7e	-0.054213993
253	0x3e6b83db	0.22999518
254	0xbdc94410	-0.09827435
255	0x3e84c1cf	0.25929114

rnn.bias_ih_l0 f4 [16]
0	0xbde3e459	-0.11127538
1	0xbe1e401a	-0.1545414
2	0xbcaf7428	-0.021417692
3	0xbe2e27f7	-0.17007433
4	0x3e4885dc	0.19582313
5	0xbe1f7a30	-0.15573955
6	0x3e2ce336	0.16883549
7	0xbd842741	-0.064527996
8	0x3e0205de	0.1269755
9	0xbab2917c	-0.001362368
10	0x3e221efc	0.15832132
11	0x3ae2f66e	0.0017315873
12	0xbdca9c4e	-0.09893094
13	0x3e4a8799	0.19778289
14	0xbe8c6135	-0.27417913
15	0xbe68cc87	-0.22734271

rnn.bias_hh_l0 f4 [16]
0	0x3e83164b	0.25602946
1	0x3e06dcff	0.13170241
2	0xbe17a4d0	-0.14808965
3	0x3e274a0d	0.16336842
4	0xbd9f8114	-0.077882916
5	0x3df84b10	0.12123692
6	0xbd9d7982	-0.076891914
7	0x3e2c5523	0.16829352
8	0xbe75d45f	-0.24006794
9	0x3cf38b96	0.029729646
10	0x3cb1ef5f	0.021720586
11	0xbbb97abd	-0.0056603835
12	0xbe18dab7	-0.14927183
13	0xbdfc207b	-0.12310883
14	0xbd6716ac	-0.056418106
15	0xbc32ef7a	-0.0109213535

fc.0.weight f4 [16, 16]
0	0xbd27b75b	-0.040946346
1	0xbe827bed	-0.25485173
2	0xbe4132e0	-0.18867064
3	0x3dec1653	0.115276955
4	0x3e596b74	0.21232396
5	0xbf23cd86	-0.6398548
6	0xba95b700	-0.0011422336
7	0x3ea686b4	0.32524645
8	0xbf1e7a59	-0.6190544
9	0x3d5f7be4	0.05456151
10	0x3d8fea84	0.07027152
11	0xbeb429bd	-0.35188094
12	0xbdbf1c5d	-0.09331582
13	0xbeb70154	-0.357432
14	0xbe2cb2b6	-0.16865048
15	0xbd61aee2	-0.055098422
16	0xbd98b97c	-0.07457253
17	0xbe22e86f	-0.15908979
18	0x3d0c586d	0.034264017
19	0xbd3f03ac	-0.04663436
20	0xbdc8ea95	-0.09810368
21	0x3eb3e068	0.35132146
22	0xbefd00bf	-0.49414632
23	0xbe8e2a82	-0.27766806
24	0xbe838666	-0.25688475
25	0x3f25e1a8	0.6479745
26	0x3edba357	0.42898056
27	0xbe01b172	-0.12665346
28	0x3e02eb9f	0.12785195
29	0xbe20bb8c	-0.15696543
30	0x3f12c856	0.5733694
31	0x3e8c4f28	0.2740414
32	0xbf07ac90	-0.52997684
33	0xbeb972a7	-0.36220285
34	0xbe407f3a	-0.18798533
35	0xbecf005e	-0.40429968
36	0x3ddacde4	0.10683802
37	0x3e8c8fc3	0.2745343
38	0xbcfbdf72	-0.030746195
39	0xbe534895	-0.20633157
40	0xbdd70222	-0.10498454
41	0xbe889dc4	-0.26682866
42	0x3e3aa536	0.18227085
43	0x3dd96468	0.10614854
44	0xbe598f6f	-0.21246122
45	0x3c6dcd9f	0.014514356
46	0x3c3178be	0.01083201
47	0xbee11122	-0.43958384
48	0x3e87ca60	0.26521587
49	0xbe3b3eaa	-0.18285623
50	0xbe01985e	-0.1265578
51	0xbdcbcee0	-0.09951568
52	0x3e5b32a7	0.21406041
53	0x3e539cdd	0.20665307
54	0x3dda709d	0.106660105
55	0xbe712d14	-0.23552352
56	0x3e85e645	0.26152244
57	0xbe609da9	-0.21935143
58	0xbe2605cd	-0.1621315
59	0xbe6e822a	-0.23291841
60	0x3f4a289c	0.78968215
61	0x3d2045bc	0.039129004
62	0x3f019809	0.5062261
63	0xbe5b3c2f	-0.21409677
64	0x3d8f0c38	0.069847524
65	0x3e42585e	0.18979022
66	0x3e99cf5d	0.30041018
67	0x3db3c165	0.087771215
68	0xbe682c76	-0.2267321
69	0xbefb030d	-0.49025765
70	0x3ddf2b31	0.1089691
71	0xbea4243b	-0.32058892
72	0x3e3b2373	0.18275242
73	0xbed65be4	-0.41866982
74	0x3ef94e42	0.48692518
75	0xbe550482	-0.20802501
76	0x3e0dffd6	0.13867125
77	0xbdc4ecfe	-0.09615515
78	0x3ea493d2	0.32144028
79	0xbe3af994	-0.18259269
80	0xbed428ce	-0.41437382
81	0xbca94e59	-0.020667242
82	0x3e2dce6f	0.1697328
83	0x3e3473b8	0.17622268
84	0x3e580b8d	0.21098156
85	0xbd593e10	-0.053037703
86	0x3cf432bb	0.029809346
87	0x3ed82e34	0.4222275
88	0xbdbc4fb7	-0.09194892
89	0xbd5ac9b5	-0.05341502
90	0x3e3baf96	0.183287
91	0xbdfe6406	-0.12421422
92	0x3e32f868	0.17477572
93	0x3ee36551	0.44413236
94	0x3e237124	0.15961128
95	0x3eaa53d9	0.33267096
96	0xbe174431	-0.14772107
97	0xbec575bd	-0.3856639
98	0x3ebb299a	0.36555177
99	0xbc0ffab3	-0.008787799
100	0xbcf24824	-0.029575415
101	0xbf03a980	-0.5143051
102	0xbda74b3e	-0.08168648
103	0xbe3ad0e6	-0.18243751
104	0x3d30cd8b	0.04316477
105	0xbdd0235f	-0.101629965
106	0xbdf25e68	-0.11834413
107	0x3d7c6867	0.061623003
108	0x3de03b59	0.1094882
109	0x3f10be8d	0.5654076
110	0x3dbcfc0b	0.09227761
111	0xbe45314a	-0.19257084
112	0xbdb2ca32	-0.08729972
113	0xbcf697f3	-0.030101752
114	0x3e978d0c	0.29599798
115	0x3e8368e5	0.25665966
116	0x3df09f90	0.11749184
117	0x3e58a5d5	0.2115701
118	0x3ed70fcc	0.4200424
119	0xbcf740f9	-0.030182349
120	0x3f005e27	0.50143665
121	0x3e74791d	0.23874326
122	0x3e0fd8fe	0.1404762
123	0xbee85012	-0.4537359
124	0xbd8a35bf	-0.067485325
125	0xbe0b1033	-0.13580398
126	0xbdf3f011	-0.119110234
127	0xbe01e03f	-0.126832
128	0xbca5ae39	-0.020224677
129	0x3e064f5f	0.13116215
130	0x3a156d35	0.0005700172
131	0xbe8ca7d2	-0.27471787
132	0x3eec029c	0.4609574
133	0xbee120a1	-0.43970206
134	0xbee40d94	-0.4454161
135	0x3d38060a	0.044927634
136	0x3e3ee4e6	0.18642005
137	0x3e927b34	0.28609622
138	0xbdbac84c	-0.09120235
139	0xbc98420b	-0.01858618
140	0xbed9abb9	-0.42513826
141	0xbe39a238	-0.18128288
142	0x3d1086ce	0.03528481
143	0x3d6cc6ad	0.05780666
144	0x3eca5b2f	0.39522693
145	0xbef40f61	-0.47667983
146	0x3e4bf8b7	0.19919096
147	0xbead6f94	-0.3387419
148	0xbc11bd50	-0.008895233
149	0x3e3b6b8e	0.18302748
150	0xbe8e6195	-0.27808824
151	0xbecbee9c	-0.39830482
152	0xbe0d31ca	-0.13788524
153	0x3de972f3	0.11398878
154	0x3e4a79b9	0.19772996
155	0xbeea6cab	-0.45786032
156	0x3d7f9908	0.0624018
157	0xbc3f9744	-0.011693779
158	0xbf1dedd0	-0.61691
159	0x3ef70782	0.48247916
160	0xbd55411b	-0.052064043
161	0x3ebb796b	0.36616072
162	0x3b1c6463	0.0023863546
163	0x3e17a8cb	0.14810483
164	0x3e417f8e	0.18896315
165	0xbdff7f21	-0.1247542
166	0x3e45027f	0.19239233
167	0xbed494a5	-0.41519657
168	0xbeef1424	-0.46695054
169	0x3e352ba5	0.1769243
170	0xbe8468e6	-0.2586128
171	0xbe0f8ce1	-0.14018585
172	0xbd56a4cd	-0.05240326
173	0x3e479806	0.19491586
174	0xbd893888	-0.067002356
175	0xbe68cec5	-0.22735126
176	0xbd8466d7	-0.06464928
177	0x3e68c508	0.22731411
178	0x3c232767	0.009958125
179	0xbdb25cec	-0.0870913
180	0x3e903798	0.28167415
181	0xbdbe5c9b	-0.09295007
182	0x3d936826	0.07197599
183	0x3e1a98fa	0.15097418
184	0xbdf4ba24	-0.11949566
185	0x3e2c462c	0.16823643
186	0x3ee86714	0.45391142
187	0x3ec998ba	0.39374334
188	0x3ec5dba3	0.38644132
189	0x3de50ab4	0.11183682
190	0xbea0db46	-0.31417292
191	0xbedfadfb	-0.43687424
192	0x3d56f7bb	0.052482348
193	0xbdb26782	-0.08711149
194	0xbebf27d1	-0.37335065
195	0x3e9d17e9	0.30682305
196	0xbe337004	-0.175232
197	0xbdbeccf8	-0.093164384
198	0xbf332f14	-0.6999371
199	0x3dbb00cb	0.091310106
200	0x3e1b1a10	0.15146661
201	0x3ddcfe2c	0.10790667
202	0x3dd49532	0.10380019
203	0xbee9a891	-0.45636418
204	0x3e2449a6	0.1604372
205	0x3e7358ab	0.23764293
206	0xbe3b1590	-0.18269944
207	0xbee7b95f	-0.45258614
208	0xbeba2df8	-0.36363196
209	0xbe245608	-0.16048443
210	0xbeee274c	-0.46514356
211	0x3ed85cea	0.42258388
212	0xbd83cfac	-0.06436095
213	0xbee46104	-0.44605267
214	0x3de4b7dd	0.11167882
215	0xbea261a4	-0.3171512
216	0x3e4dff79	0.20116986
217	0xbbb061d5	-0.0053827562
218	0x3d13558c	0.035970256
219	0x3e8a349d	0.26993266
220	0x3c9f0880	0.019413233
221	0xbda5eaa2	-0.08101393
222	0xbeb3e2a8	-0.35133862
223	0x3e973f60	0.2954054
224	0x3e0bd1b1	0.1365421
225	0xbeef5ae0	-0.4674902
226	0x3e64c627	0.22341214
227	0x3eabad7e	0.33530802
228	0x3f0ca081	0.5493241
229	0x3f37d450	0.7180834
230	0xbe6b3c38	-0.2297219
231	0xbeab60a6	-0.33472174
232	0x3e66f695	0.22555001
233	0xbef0525f	-0.46937844
234	0xbbc1e054	-0.0059166346
235	0x3babfa88	0.0052483715
236	0x3ec1c3ea	0.37844783
237	0xbeca65c2	-0.3953076
238	0x3e0fd033	0.14044265
239	0xbec8b484	-0.39200222
240	0x3f104363	0.56352824
241	0xbdf0c3ae	-0.11756073
242	0xbecffd7c	-0.4062308
243	0x3e217887	0.15768634
244	0x3e2159ea	0.15756956
245	0xbe15c860	-0.14627218
246	0x3ee9e3db	0.45681652
247	0x3c3a8ae4	0.011385653
248	0x3d9510d6	0.07278602
249	0x3d7dd9f1	0.061975423
250	0x3e8506d4	0.25981772
251	0x3dadb9b9	0.084826894
252	0xbef39ca9	-0.4758046
253	0x3ec6d82d	0.38836804
254	0x3e0b7380	0.13618279
255	0x3e311f8b	0.17297189

fc.2.weight f4 [2, 16]
0	0xbefda98b	-0.49543414
1	0x3e16cced	0.1472661
2	0xbf0dab74	-0.5533974
3	0x3e5b4043	0.21411233
4	0x3f20ce4f	0.628148
5	0x3defc707	0.11707883
6	0x3db79097	0.08963125
7	0x3ea80290	0.32814455
8	0xbe362611	-0.17787959
9	0xbcda3339	-0.026635753
10	0x3d99190d	0.07475481
11	0xbe37e8f5	-0.1795996
12	0xbcf1907c	-0.02948784
13	0x3d19b591	0.03752667
14	0x3e1e81db	0.15479223
15	0x3efb012a	0.49024326
16	0xbe4387cd	-0.19094773
17	0x3eb1fa69	0.3476136
18	0xbe9b5bc5	-0.30343452
19	0x3e83b648	0.25725007
20	0xbef9dd28	-0.4880154
21	0xbe6c7184	-0.23090178
22	0x3d27f8d6	0.041008793
23	0x3e8acc13	0.2710882
24	0xbe8715c6	-0.263838
25	0xbe2550ad	-0.16144057
26	0xbda0fcbf	-0.078607075
27	0x3e28b481	0.16475107
28	0xbe9e54f5	-0.30924192
29	0xbee096b9	-0.43864992
30	0x3db9cb3d	0.09071968
31	0xbe438073	-0.19091968

hidden_rnn.weight_ih_l0 f4 [16, 5]
0	0x3e465ab4	0.19370538
1	0x3caaeebe	0.020865794
2	0x3cca3eb3	0.0246881
3	0xbd39a103	-0.04531957
4	0xbd3f578c	-0.04671435
5	0x3d7d371d	0.06182014
6	0x3e1fe6b8	0.15615356
7	0x3e0fb6ff	0.14034651
8	0x3ded333a	0.11582036
9	0xbe6f530c	-0.23371524
10	0xbe5d1e62	-0.21593621
11	0xbe104afe	-0.14091107
12	0xbe9dd667	-0.30827639
13	0xbd56ad61	-0.05241144
14	0x3cc561f2	0.024094556
15	0xbd4b5278	-0.049639195
16	0x3db3825a	0.08765097
17	0xbc18be7a	-0.009322757
18	0xbe450be2	-0.19242814
19	0x3e14fca2	0.14549497
20	0x3b979237	0.0046255845
21	0x3e093fbe	0.13403222
22	0x3cdde73b	0.027087798
23	0xbc80afd5	-0.015708843
24	0xbd06e9f3	-0.032937955
25	0xbe2e2875	-0.1700762
26	0x3e891672	0.26774937
27	0x3e6c5097	0.23077618
28	0x3b619eb3	0.0034426867
29	0xbe0688c7	-0.13138114
30	0xbe5e3f4c	-0.21703833
31	0xbb83e3f1	-0.0040249755
32	0x3e1f14ea	0.15535322
33	0x3e70a06c	0.23498696
34	0xbe455ce2	-0.19273713
35	0xbd98daa4	-0.074635774
36	0xbda3c8b0	-0.079972625
37	0x3d6c3d01	0.057675365
38	0xbb916445	-0.004437002
39	0x3d843d61	0.064570196
40	0xbd5ac624	-0.053411618
41	0xbe3bbb88	-0.18333256
42	0x3d16c7dd	0.0368117
43	0x3e045fba	0.12927142
44	0x3d8ad408	0.06778723
45	0x3cc69881	0.024242641
46	0x3cd1c04a	0.025604386
47	0xbe0d88a4	-0.13821656
48	0x3cfce60c	0.030871414
49	0x3e502f24	0.20330483
50	0xbe39a43d	-0.18129058
51	0xbd9ef2c5	-0.07761148
52	0xbdd33738	-0.103132665
53	0x3e92ea64	0.2869445
54	0xbdff1505	-0.12455181
55	0xbe86dff0	-0.26342726
56	0xbdc6f325	-0.09714345
57	0x3b93909e	0.0045033237
58	0xbdfd0cc4	-0.123559505
59	0xbe848bb8	-0.25887847
60	0xbba2f1dc	-0.0049726795
61	0x3d2a70ac	0.04161136
62	0x3ddf5540	0.10904932
63	0xbd9f17c4	-0.07768205
64	0x3dbb3dd4	0.09142652
65	0xbdaeb598	-0.0853073
66	0x3e15d7aa	0.1463305
67	0xbd5429f1	-0.05179781
68	0x3c91b974	0.017788626
69	0xbe55ac74	-0.20866567
70	0xbc9c5a77	-0.019086106
71	0x3dbe1cc0	0.092828274
72	0xbcd09e9d	-0.025466258
73	0x3dbf2b1d	0.09334395
74	0xbe7ff930	-0.24997401
75	0x3da12314	0.07868019
76	0x3e55acc3	0.20866685
77	0xbda80836	-0.08204691
78	0x3e1d45bf	0.15358637
79	0xbe0b7e46	-0.13622388

hidden_rnn.weight_hh_l0 f4 [16, 16]
0	0x3c6da379	0.014504307
1	0xbe62c6a3	-0.22146086
2	0x3e637988	0.22214329
3	0xbe2ffb1b	-0.17185633
4	0x3e72ce72	0.23711565
5	0xbdb0fdd6	-0.08642165
6	0x3d88a414	0.066719204
7	0xbccfa89f	-0.02534896
8	0x3e4d0abf	0.2002363
9	0x3e5f4eba	0.21807376
10	0xbe528c99	-0.20561446
11	0x3e25deac	0.16198224
12	0x3c98e878	0.018665537
13	0xbd72f024	-0.059311047
14	0xbe1e917b	-0.15485184
15	0x3e61abc3	0.22038178
16	0xbdd9c084	-0.106324226
17	0xbdc817b2	-0.097701445
18	0xbe8bbde3	-0.2729331
19	0x3e931549	0.28727177
20	0x3deaf3b3	0.11472263
21	0xbe1bb267	-0.15204774
22	0x3cad8eca	0.021186251
23	0xbd86e657	-0.065869026
24	0xbd8d38ae	-0.068955764
25	0x3d161f29	0.03665081
26	0xbd89b397	-0.06723707
27	0x3d6cc1ea	0.05780212
28	0xbe0fcf12	-0.14043835
29	0x3e538df0	0.20659614
30	0xbe4c0468	-0.19923556
31	0xbe48264e	-0.19545862
32	0x3dda5a87	0.10661798
33	0xbe2487dd	-0.16067453
34	0x3ec601e6	0.38673323
35	0x3dfe2c6f	0.12410819
36	0x3dd44bca	0.10366018
37	0x3e288bd0	0.16459584
38	0x3dd06279	0.10175032
39	0xbdfb64b9	-0.12275071
40	0x3e60b310	0.21943307
41	0xbd46bd85	-0.048520584
42	0x3e10bfe4	0.141357
43	0x3c6d669c	0.014489796
44	0x3e9e2adf	0.30892083
45	0xbe682f33	-0.22674255
46	0x3d6d2130	0.05789298
47	0xbe1bfbb1	-0.15232731
48	0xbe75f008	-0.24017346
49	0x3e37ce1b	0.17949717
50	0x3abcfb87	0.0014418223
51	0x3f13ce8c	0.5773704
52	0x3ebe6d8c	0.37192953
53	0xbe879a0d	-0.2648472
54	0xbd17fb4d	-0.037104893
55	0x3d579fb4	0.05264254
56	0xbd072a48	-0.032999307
57	0xbed58c2b	-0.41708502
58	0x3e0a1abd	0.13486762
59	0xbdfc4124	-0.12317112
60	0x3e0c35fe	0.13692471
61	0x3e4e667e	0.20156285
62	0xbd0a9051	-0.033829037
63	0xbd82b533	-0.06382217
64	0x3e89804d	0.26855698
65	0x3d22616b	0.039643686
66	0xbdd5f60c	-0.1044732
67	0x3e08bf90	0.13354325
68	0x3e359483	0.17732434
69	0xbe8c47bc	-0.2739848
70	0x3ea1bbea	0.3158868
71	0xbe3db077	-0.18524347
72	0x3ddf4f70	0.109038234
73	0xbe5b564e	-0.21419641
74	0xbe465d40	-0.1937151
75	0x3da63c91	0.08117021
76	0x3eab1300	0.33412933
77	0x3e2581ab	0.16162746
78	0xbe6a73c8	-0.2289573
79	0x3da7a352	0.08185448
80	0x3c009063	0.0078469245
81	0xbd29c4a1	-0.041447286
82	0x3d014e10	0.031568587
83	0xbea4f8d2	-0.32221085
84	0x3e2bdb2a	0.16782823
85	0x3e0a66bc	0.13515753
86	0xbe839dab	-0.2570623
87	0x3e46666f	0.19375013
88	0xbba62b18	-0.005071055
89	0xbddfbd68	-0.10924798
90	0xbe55d508	-0.20882046
91	0x3e5518c2	0.20810226
92	0xbe19716a	-0.1498467
93	0xbe66eba1	-0.22550823
94	0xbd943b9a	-0.072379306
95	0xbd899419	-0.067177005
96	0x3e32d73c	0.17464918
97	0xbda3ccdb	-0.079980575
98	0x3c2cd31b	0.010548378
99	0x3e332d96	0.17497858
100	0x3df78fcc	0.12087974
101	0xbe884689	-0.26616314
102	0x3dd9354c	0.10605869
103	0xbd23db14	-0.04000385
104	0x3e4841df	0.19556378
105	0x3da64edf	0.08120512
106	0xbe516269	-0.20447697
107	0xbe29a996	-0.16568598
108	0x3e76642a	0.24061647
109	0xbe11e8c3	-0.14248948
110	0xbdd1bb0b	-0.10240754
111	0x3d970231	0.07373465
112	0xbe64e097	-0.22351299
113	0xbd3ca806	-0.046058677
114	0xbe46693f	-0.19376086
115	0x3d931abb	0.07182833
116	0xbe8552a8	-0.26039624
117	0x3de4e215	0.11175934
118	0x3d863858	0.065537155
119	0x3e3819da	0.17978612
120	0xbe8dfc9c	-0.27731788
121	0x3e4c6bc8	0.1996299
122	0x3e1b656d	0.1517541
123	0xbe168861	-0.14700462
124	0xbcbbc820	-0.022922575
125	0x3e449e33	0.19200973
126	0xbd710986	-0.058846973
127	0x3e28b9a2	0.16477063
128	0x3e8b2e21	0.2718363
129	0xbd447866	-0.047966383
130	0x3d1810c5	0.037125368
131	0x3ca761ba	0.020432342
132	0x3e9bf56e	0.30460685
133	0xbd9a1432	-0.07523383
134	0x3e6a4cf3	0.22880916
135	0xbd027914	-0.03185375
136	0x3e1ee643	0.15517525
137	0xbc06975b	-0.008214797
138	0xbea22450	-0.3166833
139	0x3d3dbd14	0.046322897
140	0x3d5fda36	0.05465146
141	0xbcd82cd6	-0.026388567
142	0xbc9d4f47	-0.019202841
143	0x3e77dc04	0.24205023
144	0x3d277b54	0.0408891
145	0xbea7665c	-0.32695282
146	0x3e257049	0.16156115
147	0xbe59cf98	-0.21270597
148	0xbe0e33bf	-0.13886927
149	0x3d7cb926	0.06170001
150	0x3cbff414	0.023431815
151	0x3e20b446	0.15693769
152	0x3d55282a	0.052040257
153	0x3dcb5f99	0.09930343
154	0xbdfe1f31	-0.12408293
155	0xbd8cc675	-0.0687379
156	0xbe37971c	-0.17928737
157	0xbe812cf4	-0.2522961
158	0x3e32c991	0.17459704
159	0x3ea456fe	0.3209762
160	0xbd7acd93	-0.061231207
161	0xbceec48d	-0.029146457
162	0x3dfbb86d	0.12291036
163	0x3dcac0d8	0.09900063
164	0xbe956f53	-0.29186496
165	0xbe645390	-0.22297502
166	0xbe83db3f	-0.2575321
167	0xbc8f831c	-0.017518573
168	0xbd04c606	-0.032415412
169	0xbe7c07e7	-0.2461239
170	0x3e7ced09	0.24699797
171	0x3d2cd350	0.04219371
172	0x3d819ff1	0.063293345
173	0x3d171194	0.036882
174	0x3ea7a908	0.32746148
175	0xbd001720	-0.031272054
176	0x3eab9938	0.33515334
177	0xbe6e55d6	-0.23274931
178	0xbdaa45fb	-0.08314129
179	0x3d236c66	0.0398983
180	0x3de57319	0.11203594
181	0x3e3e206b	0.18567054
182	0xbe5fb255	-0.21845372
183	0x3cf2e4c4	0.0296501
184	0xbda33b38	-0.079702795
185	0x3e8fdd39	0.28098467
186	0x3de078ab	0.109605156
187	0x3e32b3b1	0.1745136
188	0x3e34c5d3	0.17653589
189	0x3e211f72	0.15734652
190	0x3b9ac463	0.004723118
191	0x3e7532f6	0.23945221
192	0x3de31b0b	0.110891424
193	0xbe53f387	-0.20698367
194	0x3e71e21d	0.23621412
195	0x3e2840c9	0.16430964
196	0x3de8851f	0.11353516
197	0x3d6931ba	0.05693219
198	0xbb594c00	-0.0033156872
199	0xbe9acc40	-0.30233955
200	0x3e145789	0.14486517
201	0xbe015f2c	-0.12633961
202	0x3dca6b19	0.098837085
203	0x3e01d2f7	0.12678133
204	0xbc7bd580	-0.015370727
205	0x3e8203bf	0.25393483
206	0xbc64cd66	-0.013964986
207	0x3e53a613	0.20668821
208	0xbe83626d	-0.2566103
209	0x3e438478	0.19093502
210	0x3d22d461	0.03975332
211	0x3edfc46e	0.4370455
212	0x3ddbc000	0.107299805
213	0xbe59ac4b	-0.21257131
214	0x3d8579aa	0.06517346
215	0xbe20e2a6	-0.1571146
216	0x3e1a0a7a	0.15043059
217	0xbe4ad9e7	-0.19809686
218	0x3e092e35	0.13396533
219	0xbe4e82c6	-0.20167074
220	0xbc46bb13	-0.012129563
221	0x3e14a0da	0.14514485
222	0x3e5aed5d	0.2137961
223	0xbd95016d	-0.072756626
224	0xbec7b1d4	-0.3900286
225	0x3e055f17	0.13024555
226	0xbe045985	-0.12924774
227	0xbe67a529	-0.22621597
228	0xbcf438dd	-0.02981227
229	0xbd8e9d80	-0.069636345
230	0xbe2cf5aa	-0.16890588
231	0xbd18584f	-0.037193593
232	0xbe97f372	-0.29677922
233	0x3bcf1eae	0.006320796
234	0x3ead481d	0.3384408
235	0xbe29f96b	-0.16599052
236	0x3dfddab5	0.12395231
237	0x3d9d827b	0.07690903
238	0xbd0e41a3	-0.034730565
239	0xbe2fcbac	-0.17167538
240	0x3ec09ea7	0.37621042
241	0x3e4645e8	0.19362605
242	0xbe16829d	-0.14698263
243	0xbe2e69e1	-0.17032577
244	0x3e925901	0.2858353
245	0x3e8a9714	0.27068388
246	0xbcbf3181	-0.023339035
247	0xbe87c5d3	-0.26518115
248	0x3e9814a7	0.29703256
249	0x3e913c73	0.28366432
250	0xbda4f875	-0.08055202
251	0x3e05e71b	0.13076441
252	0xbdf793da	-0.12088747
253	0x3e3120b1	0.17297627
254	0x3c154204	0.009109978
255	0xbd911fc7	-0.07086139

hidden_rnn.bias_ih_l0 f4 [16]
0	0xbdda6ae6	-0.106649205
1	0x3e405c3f	0.18785189
2	0xbea766c9	-0.32695606
3	0xbd72a860	-0.059242606
4	0x3c10169e	0.008794455
5	0x3e213847	0.15744124
6	0x3e38c88e	0.18045256
7	0x3e880077	0.26562855
8	0xbe16d0f6	-0.1472815
9	0x3db971ef	0.09054934
10	0xbe824323	-0.25441846
11	0xbe29cfe1	-0.16583206
12	0xbe86ea53	-0.2635065
13	0xbd60f999	-0.054925535
14	0xbe59ddad	-0.21275969
15	0x3db0b31e	0.08627914

hidden_rnn.bias_hh_l0 f4 [16]
0	0x3e2bf926	0.16794261
1	0xbc3fe270	-0.011711702
2	0x3ddde5c1	0.10834838
3	0x3dbfa24c	0.093571275
4	0xbd8e97ce	-0.06962548
5	0xbe93b023	-0.2884532
6	0x3da8508a	0.082184866
7	0xbc480712	-0.012208717
8	0xbe36abce	-0.17838976
9	0xbd23773e	-0.03990864
10	0x3dabd09f	0.08389401
11	0x3e0e99f7	0.1392592
12	0x3c6645b0	0.014054701
13	0x3de8659c	0.113475055
14	0x3d70a702	0.05875302
15	0x3e5bbab4	0.2145794

exp_avg f4 [16, 7]
0	0xbca2ee02	-0.019888882
1	0xbbcef9a6	-0.0063163815
2	0x3c1606b8	0.009156875
3	0xbc4a2670	-0.012338266
4	0xbc3637ec	-0.011121731
5	0x3b5ed77d	0.0034002953
6	0x3b1ffc88	0.0024411995
7	0x3bff8d2e	0.0077988124
8	0x3b07692b	0.002066205
9	0xbbc382fb	-0.005966542
10	0x3bdd8e0b	0.0067613176
11	0x3b9e3f7d	0.0048293457
12	0xbb182050	-0.002321262
13	0xb9c3a35e	-0.00037315016
14	0xbc0c8087	-0.008575565
15	0xbbc184d8	-0.005905729
16	0xbbd3221e	-0.006443276
17	0xbb8ccaee	-0.004296652
18	0xbbb5b6e8	-0.0055454858
19	0xba628681	-0.00086412585
20	0xbb5f285d	-0.0034051158
21	0xbbc0b205	-0.0058805966
22	0xbc1b72d0	-0.009487823
23	0xbcedb0ce	-0.029014971
24	0xbbb5c5d2	-0.0055472637
25	0xbba14cd0	-0.004922487
26	0xb9d42d83	-0.000404697
27	0xbbd91270	-0.0066245124
28	0xbc864275	-0.016389111
29	0xbb822693	-0.0039718836
30	0x3bd1fe15	0.0064084628
31	0xbc2abf75	-0.0104216235
32	0xbc0bcdd7	-0.008532963
33	0x3b8b7251	0.004255571
34	0x3b194154	0.0023384886
35	0x3a1b2a59	0.0005919091
36	0x3b884773	0.004158908
37	0x3c5b2be5	0.0133771645
38	0x3affcab1	0.0019515363
39	0xba65a360	-0.00087600015
40	0x3aab63b3	0.0013075977
41	0x3b48893a	0.0030599372
42	0xbc6b3e71	-0.014358149
43	0xbb58c8ea	-0.0033078738
44	0x3c7d6e4d	0.015468192
45	0xbc015d46	-0.007895773
46	0xbbab45ee	-0.005226842
47	0x3baec587	0.0053336057
48	0x3bae9433	0.0053277253
49	0xbc8fb590	-0.01754263
50	0xb884914b	-6.3213134e-05
51	0x3cb4f374	0.022088744
52	0xbbfa97ed	-0.0076475055
53	0xbc04096a	-0.008058885
54	0x3c266011	0.01015474
55	0x3c04e8cc	0.008112144
56	0xbafba4a5	-0.0019198848
57	0xb8dbbcdf	-0.00010477914
58	0xbb43b7b9	-0.0029864146
59	0xbb93af2b	-0.0045069656
60	0xbaf65330	-0.0018793102
61	0xbad1fa64	-0.0016020057
62	0xbaa4fab7	-0.0012586926
63	0xba821baa	-0.0009926457
64	0x3bbff166	0.0058576344
65	0x3cbb1d4e	0.022841122
66	0xbb53310a	-0.0032225274
67	0x3a14b645	0.0005672912
68	0x3b85175d	0.004061623
69	0x3be778e1	0.0070639704
70	0x3b73f800	0.0037226677
71	0x3b0353a4	0.0020038867
72	0xbbbcbd33	-0.005759859
73	0x39a6f710	0.00031846063
74	0x3ac73c6c	0.0015200502
75	0xb9a8d888	-0.00032204785
76	0xbaeaebd1	-0.0017923062
77	0xbbacaa29	-0.005269308
78	0x3bdff88b	0.0068350486
79	0x3cf4c3e2	0.02987856
80	0xbba50f59	-0.00503723
81	0xba8104b6	-0.0009843323
82	0x3c1015e3	0.008794281
83	0x3be1d4cc	0.0068918224
84	0xbc08f20d	-0.008358491
85	0x3b3d28a0	0.0028863326
86	0x3c89a1d1	0.016800793
87	0xbbc0c539	-0.005882886
88	0xbb53a116	-0.003229206
89	0x3bd1d3c9	0.0064034206
90	0x3b8c407f	0.0042801495
91	0x3ac55cda	0.0015057579
92	0x3b3ef567	0.002913797
93	0x3ba160e0	0.0049248785
94	0xba9aa5b9	-0.0011798657
95	0x3b54f622	0.003249534
96	0xb62e66db	-2.598789e-06
97	0x3b281c3c	0.0025651595
98	0x3bc3954d	0.005968726
99	0x3ba1b99c	0.0049354564
100	0x3bbce426	0.005764502
101	0x3b6ca1c8	0.0036107171
102	0x3b723283	0.0036956377
103	0x3b169eb6	0.0022982783
104	0x3a6a3bf9	0.0008935328
105	0x3cc3ba3f	0.02389252
106	0x3bd354a7	0.0064493003
107	0xbcabe946	-0.020985257
108	0x3c231957	0.009954772
109	0x3c1d7ba1	0.009611995
110	0xbc4cecbc	-0.012507614
111	0xbbcb02b5	-0.006195391

exp_avg_sq f4 [16, 7]
0	0x3eb56388	0.354275
1	0x3e1c7281	0.15278055
2	0x3e7b6e99	0.24553908
3	0x3ef27d1c	0.47361076
4	0x3ec0b32d	0.376367
5	0x3cfdcf23	0.03098256
6	0x3e1ed47b	0.15510742
7	0x3d3c0aa5	0.04590859
8	0x3cc1d0f2	0.023659203
9	0x3d1d530a	0.03840927
10	0x3d6279b5	0.05529185
11	0x3d2e0191	0.042481963
12	0x3c4e32a0	0.012585312
13	0x3c9715c6	0.018443
14	0x3d3edfae	0.046600036
15	0x3ce7762b	0.028254589
16	0x3d17a1e5	0.03701963
17	0x3db69348	0.089148104
18	0x3d7de709	0.06198791
19	0x3c6d8404	0.014496807
20	0x3c7994ff	0.015233277
21	0x3ddd39d5	0.10802046
22	0x3db2bc0a	0.08727272
23	0x3db5fa80	0.0888567
24	0x3e4404c6	0.19142446
25	0x3e05ef5b	0.13079588
26	0x3e0560f4	0.13025266
27	0x3d6a1cef	0.0571565
28	0x3ebee657	0.3728511
29	0x3db865ee	0.090038165
30	0x3e1e898d	0.15482159
31	0x3ef63c5c	0.48092926
32	0x3ed31fa1	0.41235068
33	0x3cfa97f3	0.030590033
34	0x3e280bda	0.16410771
35	0x3c9ac100	0.018890858
36	0x3c5b7a17	0.013395808
37	0x3c6ef5e4	0.014584992
38	0x3cf56524	0.029955454
39	0x3c94ee23	0.018179959
40	0x3cde96d8	0.027171537
41	0x3bf4e9f9	0.007474181
42	0x3e4894b6	0.19587979
43	0x3dad8968	0.08473474
44	0x3e0ebe22	0.13939717
45	0x3e501306	0.20319757
46	0x3e3de42f	0.18544076
47	0x3c834268	0.016022876
48	0x3db01f5d	0.08599732
49	0x3ee6e6eb	0.4509805
50	0x3dfe57b3	0.12419071
51	0x3e78a9e0	0.24283552
52	0x3ecd8a54	0.40144598
53	0x3eab3d4f	0.33445212
54	0x3d1840a6	0.03717103
55	0x3e54512c	0.2073409
56	0x3b83efa3	0.0040263697
57	0x3b17b0a5	0.002314606
58	0x3b36f392	0.0027916175
59	0x3bad7ba3	0.0052942797
60	0x3badfbe9	0.005309571
61	0x3b102f84	0.0022000978
62	0x3a8791e2	0.0010343159
63	0x3def1a6f	0.11674964
64	0x3d8cd45c	0.06876442
65	0x3db9c3c5	0.09070543
66	0x3e2a77a2	0.16647199
67	0x3dc30dd3	0.09524121
68	0x3dfe4d75	0.124171175
69	0x3d521d57	0.051297512
70	0x3bc4ff8c	0.006011909
71	0x3b7189b3	0.0036855757
72	0x3bbd4c02	0.005776883
73	0x3c16dfeb	0.00920866
74	0x3ba20ddc	0.0049455
75	0x3b9d0c61	0.0047927354
76	0x3aa34f3d	0.0012459528
77	0x3e1f0751	0.15530135
78	0x3db6535f	0.089026205
79	0x3e019718	0.12655294
80	0x3e40e566	0.18837509
81	0x3df82140	0.12115717
82	0x3ded1857	0.11576908
83	0x3d6e1aa4	0.058130875
84	0x3e0dbf7f	0.13842581
85	0x3d75314f	0.059861477
86	0x3dc9ed10	0.09859669
87	0x3e38fa5d	0.18064256
88	0x3e01b533	0.12666778
89	0x3d1d4d6b	0.03840391
90	0x3d5eb21b	0.054369073
91	0x3b593c14	0.0033147382
92	0x3b45a82d	0.0030160055
93	0x3b42d6fd	0.0029730194
94	0x3b8983de	0.004196628
95	0x3ba6e6d5	0.0050934353
96	0x3bb83cc0	0.0056224763
97	0x3ac85c2c	0.0015286258
98	0x3cbf4287	0.023347152
99	0x3c2045e6	0.00978229
100	0x3c5163eb	0.01278017
101	0x3cc9a6cd	0.02461567
102	0x3cdf0c37	0.027227504
103	0x3babf739	0.005247977
104	0x3c2c3f77	0.010513178
105	0x3f134702	0.57530224
106	0x3e84c5c5	0.25932136
107	0x3ed7352c	0.42032754
108	0x3f45d4b1	0.77277666
109	0x3f11244a	0.56696
110	0x3da42cca	0.08016355
111	0x3e746c4e	0.2386944

exp_avg f4 [16, 16]
0	0x3b988f53	0.0046557575
1	0x39f19101	0.00046075138
2	0x3c066ef0	0.0082051605
3	0x3a54919a	0.00081088545
4	0x3b8f181b	0.0043668873
5	0xbb3ac955	-0.002850135
6	0x3b580e2b	0.003296743
7	0xbc06bde5	-0.008223985
8	0x3b9ae33b	0.004726795
9	0xbbc1dc96	-0.0059161885
10	0xbbee24c8	-0.0072675683
11	0xbae1b9a5	-0.0017221464
12	0x3be42e5f	0.0069635357
13	0x39e60b7a	0.0004387757
14	0xbb6d1d8f	-0.0036180948
15	0x3aaf89ab	0.0013392469
16	0xbb22028c	-0.0024720756
17	0xba0fea95	-0.00054899725
18	0xbb92b527	-0.0044771614
19	0xbacb4d9f	-0.0015510804
20	0xbb121997	-0.0022293085
21	0x3ae706a6	0.0017625883
22	0xbb07576c	-0.0020651473
23	0x3b6733be	0.0035278643
24	0xbb53f546	-0.003234224
25	0x3b6e7613	0.0036386296
26	0x3b8ecb5e	0.0043577394
27	0x3ae519a0	0.001747895
28	0xbb89042a	-0.0041814046
29	0xba431541	-0.0007441827
30	0x3af2eb8a	0.0018533331
31	0x38e71d77	0.000110204266
32	0x3b0123f4	0.0019705268
33	0x3b037e83	0.002006442
34	0x3a625b85	0.00086348533
35	0x3ae6e945	0.0017617127
36	0x3b6b1bea	0.0035874792
37	0xbb96980d	-0.0045957626
38	0x3a6f8b29	0.0009137863
39	0xbbc55fab	-0.0060233674
40	0x38ce8917	9.8483804e-05
41	0xbb9c26c4	-0.0047653634
42	0xba15fbd6	-0.00057214254
43	0xba8f1666	-0.001091671
44	0xb872b0f2	-5.786209e-05
45	0x3b0bfe84	0.002136142
46	0xbb9302e7	-0.00448643
47	0xbaa92e93	-0.0012907557
48	0x3a4794ef	0.00076134404
49	0x3b4e9d5f	0.0031526906
50	0xbac23639	-0.0014817185
51	0x39c5ee34	0.00037752243
52	0x3bd29839	0.0064268378
53	0xbbc1655b	-0.005901975
54	0xba2f7e9f	-0.0006694588
55	0xbc1f8bd9	-0.009737932
56	0xbb5316ff	-0.0032209752
57	0xbb70569c	-0.0036672717
58	0x3a8bad25	0.001065646
59	0x3abd1c24	0.0014427942
60	0xbb52dfab	-0.0032176774
61	0x3b9e2d6b	0.0048271916
62	0xbbf756fb	-0.0075482107
63	0xbaa31613	-0.0012442492
64	0x3b62171a	0.0034498633
65	0x393a273d	0.0001775296
66	0x3bcf10c3	0.006319137
67	0xb9c683ab	-0.00037863603
68	0x3b4599fd	0.0030151599
69	0xbb17bc60	-0.0023153052
70	0x3b141538	0.0022595655
71	0xbbd2f027	-0.00643732
72	0x3b6218f7	0.0034499743
73	0xbb82888c	-0.003983563
74	0xbbbb672c	-0.005719086
75	0xbabab0d8	-0.0014243377
76	0x3ba0351b	0.004889143
77	0x395e4f65	0.00021201147
78	0xbb380397	-0.0028078312
79	0x3a3e3115	0.00072552386
80	0x3a159689	0.00057063304
81	0xba9aa13f	-0.0011797323
82	0x3b35c760	0.0027737245
83	0x39447f5d	0.00018739463
84	0xbb056e45	-0.0020359915
85	0x3b26e3a7	0.0025465281
86	0x3a82077d	0.0009920445
87	0x3b392f1a	0.0028256834
88	0x3afcfb75	0.0019301014
89	0x3a428133	0.0007419765
90	0xbae9789c	-0.0017812434
91	0xba5d5309	-0.0008442854
92	0x3b39fc2e	0.002837907
93	0xbb0fc5b0	-0.00219379
94	0x3b2c2a4f	0.0026270335
95	0x3a91d28e	0.0011125372
96	0x3b3d601e	0.0028896402
97	0xbaae0190	-0.0013275612
98	0x3be21341	0.006899268
99	0xba99dee9	-0.0011739406
100	0x3a92abe3	0.0011190142
101	0x3a40a18f	0.0007348293
102	0x3b224f3d	0.0024766468
103	0xbb5359e0	-0.0032249615
104	0x3b9e4584	0.0048300643
105	0xbb1e293e	-0.002413347
106	0xbbd0d077	-0.006372507
107	0xba9907d3	-0.0011675305
108	0x3bda36d6	0.006659369
109	0xbad47dc3	-0.0016211796
110	0x394c4e84	0.00019484205
111	0x3b02efaf	0.0019979288
112	0x3b709d79	0.0036714955
113	0xbab869dc	-0.0014069634
114	0x3c2866f1	0.010278449
115	0xbb01b1d0	-0.0019789822
116	0xb9a3bbd3	-0.00031229723
117	0x3b0887a2	0.0020832797
118	0x3b24108e	0.0025034281
119	0xbb3ab60f	-0.0028489863
120	0x3ba1adb4	0.004934037
121	0xbb04fdf6	-0.0020292974
122	0xbbf0194d	-0.007327235
123	0xbae5d4a9	-0.0017534691
124	0x3c0dd15a	0.00865587
125	0xbb88055a	-0.0041510286
126	0x3aab0e4e	0.0013050528
127	0x3b5f0324	0.0034028972
128	0x3aa73feb	0.0012760138
129	0xb9825395	-0.00024857806
130	0x3a2c1a2a	0.0006565178
131	0x3a7cdfe4	0.00096463994
132	0x3b2348f6	0.0024915314
133	0xbaea0332	-0.0017853735
134	0x3aac5561	0.0013148003
135	0xbb15918e	-0.0022822353
136	0x3ab78b67	0.0014003337
137	0xbab72615	-0.0013973141
138	0xbb154b2c	-0.0022780402
139	0x38bd043a	9.0130095e-05
140	0x3a164cf3	0.0005733512
141	0x3b33ccd5	0.0027435322
142	0xbb1b0129	-0.0023651815
143	0xba8c7bd5	-0.0010718057
144	0x3909496b	0.00013092688
145	0xbb1ebef1	-0.0024222697
146	0x3ba241c4	0.0049516875
147	0xbaa98fd8	-0.0012936546
148	0xbb7d4ff2	-0.0038652387
149	0x3ba01961	0.004885838
150	0x3a1398b9	0.00056303624
151	0x3b987e0a	0.004653697
152	0x3b699b90	0.00356457
153	0x3b18194e	0.0023208442
154	0xbb7d2155	-0.0038624604
155	0xba863a41	-0.001024075
156	0x3bb8c090	0.0056381896
157	0xbb7914f2	-0.003800687
158	0x3bb17c60	0.005416438
159	0x3b26833a	0.0025407807
160	0x3a5e8377	0.0008488218
161	0xba247532	-0.0006273567
162	0xbacc4104	-0.0015583341
163	0x3a9d7ad7	0.0012014759
164	0x3ae41368	0.0017400803
165	0xbabbb9a3	-0.0014322292
166	0x3a271a28	0.0006374442
167	0xb9abfe3b	-0.00032805078
168	0xb9ba8a00	-0.00035579503
169	0x39edbd4c	0.000453452
170	0x39ba0d9e	0.0003548683
171	0x3a099ac9	0.00052492
172	0xbb1ca6e2	-0.002390318
173	0x3b1b3489	0.0023682436
174	0xbb0f18e6	-0.002183491
175	0xba9af7d5	-0.0011823127
176	0x3b0813cb	0.002076375
177	0xbb2d13e3	-0.0026409558
178	0x3bf282fc	0.0074008685
179	0x398f8c2a	0.00027379516
180	0xbb281e5a	-0.0025652857
181	0x3b4b1b55	0.0030991633
182	0x3b3b73a7	0.002860287
183	0x3b458025	0.0030136195
184	0x3bd709f3	0.0065624653
185	0xb9a85c60	-0.00032112282
186	0xbbe9428d	-0.007118529
187	0xbb355429	-0.0027668572
188	0x3bfc1037	0.0076923626
189	0xbb45d3f7	-0.0030186155
190	0x3b87c0ed	0.0041428716
191	0x3ac75980	0.0015209168
192	0x3b089a96	0.0020844094
193	0xbacb3736	-0.0015504125
194	0x3bc0746a	0.0058732526
195	0xba07b1f2	-0.0005176357
196	0xb9ac184f	-0.00032824508
197	0x3a9b077a	0.001182779
198	0x3aff1519	0.0019461244
199	0xba661cbb	-0.0008778085
200	0x3b81cbe9	0.0039610756
201	0xba4253b9	-0.00074129883
202	0xbbae9f24	-0.0053290296
203	0xbaba18b4	-0.0014198036
204	0x3ba4f0fe	0.0050336113
205	0xbad1041e	-0.0015946662
206	0x3aa517be	0.0012595577
207	0x3aef27ab	0.0018246075
208	0xb9189479	-0.0001455116
209	0xbaafe644	-0.0013420065
210	0x37316879	1.0574347e-05
211	0xba8399a6	-0.0010040298
212	0xba8c80de	-0.0010719558
213	0x3a9bd1cb	0.0011888085
214	0x39209502	0.00015314299
215	0x3b1f36ed	0.0024294213
216	0x3a83ebb2	0.001006475
217	0x3ad8cb77	0.001654013
218	0xba41fc90	-0.00074000005
219	0x39188c43	0.00014548101
220	0x39fb555c	0.00047938048
221	0xb94ec8c1	-0.00019720478
222	0x3ac3d489	0.001494066
223	0xb99c3f1a	-0.00029801653
224	0x3922be25	0.00015520358
225	0xbb031cc6	-0.0020006164
226	0xb9e6bba9	-0.00044008836
227	0x3a6eaa5c	0.0009104365
228	0xba26f00e	-0.00063681684
229	0x3acb54a2	0.0015512893
230	0x3a8e6ce7	0.0010866196
231	0x3b3d107e	0.0028848941
232	0x3a92a63c	0.0011188458
233	0x3aea180c	0.001785995
234	0xba0fb4b5	-0.00054819445
235	0x39a4c2bb	0.00031425603
236	0xba0e1fc0	-0.0005421601
237	0x392b4cfc	0.0001633651
238	0x3a8e44c0	0.0010854229
239	0x39a9284b	0.00032264212
240	0xbb94bf44	-0.004539402
241	0xb9ec2e59	-0.0004504796
242	0xbc3b01b4	-0.01141398
243	0x3944df73	0.00018775258
244	0xbb0ae9df	-0.0021196527
245	0x3a369aab	0.00069657963
246	0xbb56963c	-0.0032743355
247	0x3be9716f	0.007124118
248	0xbbbbf1cf	-0.005735613
249	0x3bba027e	0.0056765666
250	0x3c07c75f	0.00828728
251	0x3b42485b	0.0029645178
252	0xbc1dc6c0	-0.009629905
253	0x3b854059	0.0040665087
254	0x3a5810e0	0.00082422607
255	0xbb6afecf	-0.0035857444

exp_avg_sq f4 [16, 16]
0	0x3b5e636a	0.0033933767
1	0x3db47392	0.08811106
2	0x3d79b9ff	0.060968395
3	0x3dff9627	0.12479811
4	0x3cf01d47	0.029310836
5	0x3dfa7147	0.12228637
6	0x3c0047d9	0.00782963
7	0x3dd20c75	0.10256282
8	0x3b9845f3	0.0046470105
9	0x3e36e79c	0.1786179
10	0x3dcc73a2	0.09982993
11	0x3d8b9e70	0.06817329
12	0x3d99c5dd	0.075084426
13	0x3d07950c	0.033101127
14	0x3d703f5d	0.058654178
15	0x3d2a75ac	0.041616127
16	0x3ba3850d	0.004990226
17	0x3c033017	0.008007071
18	0x3c3f3ae0	0.011671752
19	0x3c89c6bb	0.016818395
20	0x3c2a2311	0.010384337
21	0x3c48417b	0.012222643
22	0x3bd7cbde	0.006585582
23	0x3c3b3084	0.011425141
24	0x3b79d7aa	0.003812293
25	0x3c7b3c6b	0.015334229
26	0x3c4a50df	0.012348383
27	0x3bc8fb3a	0.006133464
28	0x3c2600b6	0.010132005
29	0x3b9914ec	0.0046716835
30	0x3c184198	0.0092929825
31	0x3ba42ab3	0.005009973
32	0x3ba2f498	0.0049730055
33	0x3cc0a699	0.02351694
34	0x3bc46e18	0.0059945695
35	0x3c251b0d	0.01007725
36	0x3c1f6a7b	0.009729977
37	0x3c80b849	0.015712874
38	0x3bbce1e9	0.0057642353
39	0x3cc44932	0.023960683
40	0x3bb4fc69	0.0055232537
41	0x3cfe8754	0.031070389
42	0x3cae3453	0.021265185
43	0x3c36d6c7	0.011159605
44	0x3bcb978f	0.0062131356
45	0x3c077d72	0.008269655
46	0x3c6cd4b9	0.014455014
47	0x3b6d1108	0.0036173481
48	0x3d8dc4e8	0.069223225
49	0x3d868ce7	0.06569844
50	0x3d6ebbe3	0.05828465
51	0x3cdd00f2	0.02697799
52	0x3da787d5	0.08180205
53	0x3c9de112	0.019272361
54	0x3d99c55e	0.07508348
55	0x3d20978f	0.039207038
56	0x3d847a77	0.06468671
57	0x3ceb0785	0.028690109
58	0x3dbdcf61	0.0926807
59	0x3cc5dca1	0.024153056
60	0x3d1c0872	0.03809399
61	0x3d1b893a	0.037972666
62	0x3d66597a	0.056237675
63	0x3bb06132	0.0053826803
64	0x3b403429	0.0029327965
65	0x3daffc51	0.085930474
66	0x3d92d7eb	0.07170089
67	0x3e1197e9	0.14218105
68	0x3c81c626	0.015841555
69	0x3e0ac1b2	0.13550451
70	0x3beb51b8	0.0071813725
71	0x3dc01d14	0.09380546
72	0x3b817e59	0.0039518294
73	0x3e3f9d2e	0.18712303
74	0x3de3acc2	0.11116935
75	0x3d9d49e0	0.07680106
76	0x3dac1be4	0.08403757
77	0x3ce7a21e	0.028275546
78	0x3d5ddee0	0.05416763
79	0x3d47ba65	0.048761744
80	0x3c6b455f	0.014359801
81	0x3c20268c	0.009774815
82	0x3c3e67af	0.0116214
83	0x3bac0295	0.0052493312
84	0x3c8949d1	0.016758831
85	0x3a98ddde	0.0011662801
86	0x3c83fedf	0.016112743
87	0x3be5ee9c	0.00701697
88	0x3c587aa5	0.0132128345
89	0x3b4051e4	0.0029345686
90	0x3c8fb8ca	0.017544169
91	0x3b383429	0.0028107262
92	0x3bdfbdcb	0.006828045
93	0x3bc6b50c	0.006064063
94	0x3c2b4177	0.01045262
95	0x39e1bc64	0.00043055706
96	0x3b76ab3c	0.0037638685
97	0x3d09ca8f	0.03364044
98	0x3d2263af	0.039645847
99	0x3d96e91b	0.0736868
100	0x3c8e6a0d	0.017384553
101	0x3d7ed2f6	0.062212907
102	0x3bd8b579	0.00661343
103	0x3d24e0a5	0.0402533
104	0x3b89fb3f	0.004210859
105	0x3d984e9d	0.07436869
106	0x3d47b116	0.048752867
107	0x3d000261	0.03125227
108	0x3d404067	0.04693642
109	0x3c8ad69d	0.016948039
110	0x3cd45ddf	0.025923667
111	0x3ccca553	0.024981176
112	0x3c576a32	0.0131478775
113	0x3d7a2362	0.0610689
114	0x3dda5ad9	0.10661859
115	0x3e448630	0.19191813
116	0x3d0126e2	0.031531222
117	0x3e0d40fe	0.13794324
118	0x3cb549e3	0.022129958
119	0x3d5e935e	0.05433976
120	0x3c5d2089	0.0134965265
121	0x3e157dd6	0.14598784
122	0x3df61b81	0.12016965
123	0x3d8c0ed8	0.06838769
124	0x3decd2c0	0.11563635
125	0x3cf2161a	0.029551554
126	0x3d377fe9	0.04479972
127	0x3d7b5c95	0.06136759
128	0x3a8784e7	0.0010339291
129	0x3afecdc1	0.0019439982
130	0x3a8c939e	0.0010725146
131	0x3a567853	0.0008181382
132	0x3ad97389	0.0016590218
133	0x3a5bffc6	0.00083923
134	0x3aa3de72	0.0012502207
135	0x3ac1690c	0.0014756038
136	0x3ab11f37	0.0013513331
137	0x3aa3af66	0.0012488186
138	0x3b1bc095	0.002376591
139	0x3a2d01e2	0.0006599707
140	0x3a433858	0.00074470555
141	0x3abe8b30	0.0014537331
142	0x3a95c72a	0.0011427153
143	0x39ebd192	0.00044978835
144	0x3d7194b9	0.058979724
145	0x3d2ab341	0.041674856
146	0x3d71ec0c	0.059063002
147	0x3d183e69	0.037168894
148	0x3d95bb9f	0.073111765
149	0x3c816531	0.015795322
150	0x3d893c9d	0.06701014
151	0x3ceac4e9	0.028658347
152	0x3d513496	0.05107554
153	0x3c5e7450	0.013577536
154	0x3d958f3b	0.0730271
155	0x3c6eebf3	0.014582622
156	0x3d07ca07	0.033151653
157	0x3cca1c4d	0.024671698
158	0x3d3f5f67	0.046721842
159	0x3be0abe9	0.006856431
160	0x3b116710	0.0022186674
161	0x3b019ff7	0.0019779184
162	0x3aff1416	0.0019460942
163	0x3ae46551	0.0017425214
164	0x3b528802	0.0032124524
165	0x3a76796a	0.00094022474
166	0x3b31f99c	0.0027156835
167	0x3aef0462	0.0018235559
168	0x3aebdf7d	0.0017995682
169	0x3a994425	0.0011693282
170	0x3b2141a2	0.002460577
171	0x39f1de81	0.0004613288
172	0x3a639cad	0.00086827093
173	0x3a962b9a	0.0011457086
174	0x3b140bed	0.0022590116
175	0x39c2b255	0.0003713543
176	0x3d59e699	0.05319843
177	0x3d2a9905	0.041649837
178	0x3d7044be	0.058659308
179	0x3d5d3036	0.054001056
180	0x3d893252	0.06699051
181	0x3cf7b832	0.030239198
182	0x3d7a4c1c	0.06110774
183	0x3d0e2ebd	0.03471254
184	0x3d39fc53	0.04540665
185	0x3cff7b42	0.031186704
186	0x3d92fd23	0.07177188
187	0x3c86d4f3	0.016458964
188	0x3d181122	0.037125714
189	0x3cd77214	0.026299514
190	0x3d3b7428	0.045765072
191	0x3c581d4a	0.013190577
192	0x3c60847f	0.0137034645
193	0x3d1ee4a0	0.038792253
194	0x3cf30657	0.029666109
195	0x3d3a78e7	0.045525458
196	0x3cc0e57a	0.023546923
197	0x3d2972f5	0.041369397
198	0x3c86c0d5	0.016449371
199	0x3d197b38	0.037471026
200	0x3c47b8a5	0.012190019
201	0x3d6d2461	0.05789602
202	0x3d415dee	0.04720872
203	0x3cc316f2	0.023814652
204	0x3cddc905	0.027073393
205	0x3c864f95	0.01639537
206	0x3ce37871	0.027767392
207	0x3c7704a6	0.015076792
208	0x3af35ad2	0.0018566495
209	0x3ade93ff	0.0016981362
210	0x3ad1ec68	0.0016015889
211	0x3a6fb813	0.00091445557
212	0x3b0e54aa	0.0021717944
213	0x3aa3e070	0.0012502801
214	0x3b002ca2	0.0019557853
215	0x3a6cb54f	0.00090297026
216	0x3ad0f8e7	0.0015943319
217	0x39ddd88f	0.00042313754
218	0x3b0316a1	0.0020002502
219	0x3a220508	0.0006180559
220	0x3aa30105	0.0012436217
221	0x3a649d06	0.0008720908
222	0x3ab0d1ca	0.0013490256
223	0x3a109035	0.00055146526
224	0x3b02c3bd	0.0019953095
225	0x3bad1328	0.0052818246
226	0x3bc472aa	0.0059951143
227	0x3c165f29	0.009177961
228	0x3b3d81e3	0.002891653
229	0x3bfd742e	0.007734797
230	0x3b27673e	0.0025543715
231	0x3b9c006c	0.0047607925
232	0x3b158637	0.0022815594
233	0x3c14fb0d	0.009093058
234	0x3c00a423	0.007851633
235	0x3b8ce4a9	0.0042997194
236	0x3bc1eff8	0.005918499
237	0x3b29da03	0.0025917299
238	0x3b6977c0	0.0035624355
239	0x3b514ad0	0.003193546
240	0x3c973685	0.018458614
241	0x3e1ef314	0.15522414
242	0x3dd273d9	0.102760024
243	0x3e4463ea	0.19178739
244	0x3d8217d4	0.06352201
245	0x3e3eac4b	0.18620412
246	0x3cd65c73	0.02616713
247	0x3e2d320c	0.16913623
248	0x3c953f56	0.018218677
249	0x3e8e270c	0.27764165
250	0x3e319e27	0.17345487
251	0x3dddb59d	0.108256556
252	0x3df57b62	0.11986424
253	0x3d66f7c5	0.056388635
254	0x3dd483ee	0.10376726
255	0x3d82dc9e	0.06389736

exp_avg f4 [16]
0	0x392736d9	0.00015946793
1	0x3afaf62a	0.0019146849
2	0x3c5a45fb	0.013322349
3	0x3cd0fc43	0.025510913
4	0x39fc77c2	0.00048154412
5	0xbc4d91bf	-0.012546956
6	0xbc1711e5	-0.009220575
7	0xbc82dcbb	-0.015974393
8	0x3ba197e8	0.0049314387
9	0xbcc8d6e8	-0.024516538
10	0x3bd55f6c	0.0065116193
11	0xbcce568d	-0.025187755
12	0xbc4e5423	-0.012593302
13	0xbba6ea1c	-0.005093826
14	0xbba9b041	-0.005178482
15	0x3c4a8b4b	0.012362312

exp_avg_sq f4 [16]
0	0x3eada710	0.3391652
1	0x3d2b7b25	0.041865487
2	0x3d6360bf	0.055512186
3	0x3e17395f	0.14767979
4	0x3eb3d195	0.35120836
5	0x3ccc5e0b	0.024947187
6	0x3e306c96	0.17228922
7	0x3ebf7b06	0.37398547
8	0x3b85980a	0.0040769624
9	0x3e0759fd	0.13217922
10	0x3be07ace	0.006850577
11	0x3e20a4ff	0.15687941
12	0x3e0c603b	0.13708584
13	0x3b824253	0.0039751916
14	0x3cb69411	0.0222874
15	0x3f0fb333	0.5613281

exp_avg f4 [16]
0	0x392736d9	0.00015946793
1	0x3afaf62a	0.0019146849
2	0x3c5a45fb	0.013322349
3	0x3cd0fc43	0.025510913
4	0x39fc77c2	0.00048154412
5	0xbc4d91bf	-0.012546956
6	0xbc1711e5	-0.009220575
7	0xbc82dcbb	-0.015974393
8	0x3ba197e8	0.0049314387
9	0xbcc8d6e8	-0.024516538
10	0x3bd55f6c	0.0065116193
11	0xbcce568d	-0.025187755
12	0xbc4e5423	-0.012593302
13	0xbba6ea1c	-0.005093826
14	0xbba9b041	-0.005178482
15	0x3c4a8b4b	0.012362312

exp_avg_sq f4 [16]
0	0x3eada710	0.3391652
1	0x3d2b7b25	0.041865487
2	0x3d6360bf	0.055512186
3	0x3e17395f	0.14767979
4	0x3eb3d195	0.35120836
5	0x3ccc5e0b	0.024947187
6	0x3e306c96	0.17228922
7	0x3ebf7b06	0.37398547
8	0x3b85980a	0.0040769624
9	0x3e0759fd	0.13217922
10	0x3be07ace	0.006850577
11	0x3e20a4ff	0.15687941
12	0x3e0c603b	0.13708584
13	0x3b824253	0.0039751916
14	0x3cb69411	0.0222874
15	0x3f0fb333	0.5613281
