ckpt/rnn_ode_3_4_h32_cubic_transform_dopri5/best.pth (torch_old, 65386 bytes, 38 tensors)

rnn.weight_ih_l0 f4 [32, 7]
00000000: b2ab 66bd 9869 a639 bae6 e53d 5b6d dfbc
00000010: 35f7 0bbe c924 e13d 4583 2ebe a620 59bd
00000020: 530f 8f3b 4255 1ebe 5ecc 243d 9a2d 01be
00000030: c116 cb3c b1b9 46bc 5911 cebd 658c a93d
00000040: 8ce2 0abe bc53 083e 0cea bab9 a03e 5f3e
00000050: a0f2 d3bd 5a36 003e f816 afbd 28fd 913d
00000060: 2eec 6a3d c6e7 0bbe aa82 183e 3dca cfbd
00000070: 15ca 45bd 21c4 94bd 1f6c bebd 8298 563d
00000080: 2dbf 57bd 55c8 8cbd 2d78 043e afcf 6a3d
00000090: f525 1dbe 9f74 d9bd 75a6 dc3d 229a 61bc
000000a0: ed37 313e 7a82 07be e17b be3d f82f 833d
000000b0: dbaf 3d3d a8f0 3a3e 6ec0 e93c f928 a8bd
000000c0: 0616 5f3c 6ce7 ff3d 540c 9a3d 9931 403d
000000d0: 3725 a53c dd18 af3d 8cf4 363e 9b88 383e
000000e0: b7bb 8d3d cd53 eabc 9878 243e 0e3c e33c
000000f0: db28 093e 853e d33b ee9d 0ebd 3bea 853d
00000100: f966 2d3e 31f1 46bd b059 ed3d 6f81 2c3e
00000110: 4758 03bd 0a3d f13c 3b3d db3d 50fe eebd
00000120: bdc7 fcbd 6a6a 3c3e 13e4 fe3d 8cb5 d43d
00000130: 7fca 193e 6980 9c3c 3513 14bd b73f d4bd
00000140: 6920 013e a1dd 22bd 0af1 63be d41c 013e
00000150: 91f2 adbd 3d23 09be a5c5 3fbd 25de d8bc
00000160: e890 48be 7f73 e4bd a8ab 3b3e fbd9 273d
00000170: cdb9 a43d 4fb0 89bd b0c2 1fbe 533d a23d
00000180: 1e74 c3bd 5cf2 20be efe6 cebc 2edb 3fbd
00000190: af35 debc a9e8 b03d 713b 803d f8b2 a2bd
000001a0: 5d1f df3d 4ded e03d 7a67 19be 6465 013e
000001b0: 204c ca3d 88d3 e1bd 7104 8fbd 7a2d bfbd
000001c0: d078 19ba 478c f7bd dd12 f93d 8155 833d
000001d0: 18e4 153e 9bb2 1abe 307b a13d 329b ff3d
000001e0: 159d 0dbb 3caf 1b3d c083 bbbc f1a6 033e
000001f0: 801d acbd 53b5 743d 82f5 c63d c394 183d
00000200: 2987 f9bd 58e0 fa3d 7245 fb3d 9324 72bc
00000210: d193 f0bd f035 2e3e bcaf f1bd 2b82 c33d
00000220: 45ff edbd 1f67 02be 752c 9e3d 49c5 6ebe
00000230: 1623 863d eff0 083e 41a1 a9bd 0363 0a3e
00000240: c246 113e 5bc6 2bbe 844b 0a3d 9a5e e0bd
00000250: 2e24 223e bf15 b73d 8ec5 fc3b 91d8 c8bd
00000260: 2b26 94bb b6fd 9f3d 0b2b 1fbd 330c 86bc
00000270: d9dd 813d f316 8b3d 256c ae3c e6dd 7d3c
00000280: 9c8e eebd 501f 06be 6ec2 88bd b485 0c3e
00000290: a589 a63d c6a1 f8bc e98d 6ebd 1c69 a93d
000002a0: a377 183e c929 fdbc d5ee 8ebd e53a f4bb
000002b0: 686e fc3d fabd 00bd 1482 873d 42ce 343d
000002c0: c4f7 dd3d bb0a 903c fe9c b33d 7de5 473d
000002d0: b029 b83d bcfd 90bb 8001 123e 04f0 003d
000002e0: 4b9d e33d 775f 73b9 8042 a13d 92b6 223e
000002f0: c5df 643e d1dc 063e cbe6 44be 8a23 1ebd
00000300: cbec 10be b5e7 db3d 406f 2d3d ffcd 1cbe
00000310: 407c 12be bc0d c03c 257c 553d ea46 e4bd
00000320: 5a33 9c3a a04b 31bd 31d6 a2bd 37bc 803d
00000330: 8962 ea3d 4359 c93d ad25 353e cbc5 7dbd
00000340: 472c 433e bc9f 603d 81c4 f53d 0577 b2bd
00000350: 1a39 033e 071e 94bd a32c a7bd a988 d23c
00000360: 82c7 44be 261b cbbd 40c2 13be e30e be3d
00000370: c549 b13d bff2 813d d710 393d 22df 22be
-0.056316085 0.0003174066 0.11225648 -0.027273824 -0.13668521 0.10993344 -0.17042263 -0.05300965
0.0043658405 -0.15462211 0.040233962 -0.12615052 0.024791123 -0.012129233 -0.100619026 0.08278731
-0.13562983 0.13313192 -0.00035651063 0.21801233 -0.103490114 0.12520733 -0.08549303 0.07128364
0.057354145 -0.13662633 0.14893594 -0.10145996 -0.048288424 -0.07263971 -0.09297966 0.052391537
-0.052672554 -0.06874148 0.12936468 0.05732697 -0.1534651 -0.10617947 0.10773937 -0.013769658
0.1730649 -0.13233367 0.09300972 0.06405634 0.046310287 0.18255866 0.02853414 -0.0821094
0.013616091 0.12495312 0.07521883 0.0469223 0.020159347 0.08549664 0.17866725 0.18020861
0.069205694 -0.028604412 0.16061628 0.027738597 0.13394491 0.006446662 -0.034818582 0.065388165
0.16933812 -0.04856986 0.11589372 0.1684625 -0.03206661 0.029448051 0.10705038 -0.116696
-0.123427846 0.18399969 0.124458455 0.1038619 0.15018652 0.0191042 -0.03615113 -0.10363715
0.1261002 -0.039762143 -0.22259918 0.12608653 -0.084935315 -0.13392349 -0.046819348 -0.026473114
-0.19586527 -0.11154842 0.183272 0.040979367 0.08043251 -0.06723081 -0.15601611 0.07921853
-0.09543632 -0.15717453 -0.025256602 -0.046839885 -0.027125208 0.086381264 0.062613375 -0.07944292
0.10894654 0.109827615 -0.1498088 0.12636334 0.09877801 -0.110266745 -0.06983269 -0.09334846
-0.0005854489 -0.12087303 0.12161801 0.06412793 0.14637792 -0.15107195 0.07884824 0.12480773
-0.002160852 0.038008913 -0.022889972 0.12856652 -0.08404064 0.059743237 0.09714796 0.037251245
-0.12183983 0.122498214 0.12269105 -0.014779228 -0.11746944 0.17012763 -0.11801097 0.09546312
-0.116209544 -0.1273465 0.07723323 -0.23317446 0.06549661 0.13373159 -0.0828271 0.13514332
0.14187148 -0.16774885 0.033763424 -0.10955544 0.15834114 0.089396946 0.00771398 -0.09806932
-0.0045211515 0.078120634 -0.03885941 -0.016363239 0.06341142 0.067914866 0.021291802 0.015494799
-0.11648294 -0.13097882 -0.066777095 0.13722879 0.08131722 -0.030350577 -0.058240805 0.08272001
0.14889388 -0.030903714 -0.06979147 -0.00745331 0.12325746 -0.031431176 0.06616607 0.044142015
0.10838273 0.017583242 0.08770178 0.04880284 0.08992326 -0.0044247787 0.14258385 0.031478897
0.11113986 -0.0002320985 0.07874012 0.15889958 0.22350986 0.13170172 -0.19228666 -0.03860811
-0.1415283 0.10737554 0.042342424 -0.15312956 -0.1430521 0.023444049 0.052120347 -0.11146338
0.001191716 -0.043285012 -0.0795101 0.06285899 0.11444575 0.098314784 0.17690153 -0.06195621
0.19059859 0.054839835 0.12000371 -0.087141074 0.12814751 -0.0723229 -0.08162811 0.02569993
-0.19216731 -0.099172875 -0.14429569 0.09280183 0.086566485 0.06345128 0.045182075 -0.15905431

rnn.weight_hh_l0 f4 [32, 32]
00000000: bebe d9bd 1cdb 063e 46e2 2dbe 2cff ec3d
00000010: fe9f a1bd ecbf fe3d 19fb cabd e91a f63d
00000020: 33d8 3bbd 442e b23d bd53 373c d221 df3c
00000030: 1816 043e 2272 abbd 95c9 e5bc 968e ba3b
00000040: e657 b5bd 2964 33bd 5e1c 233d b307 86bd
00000050: b70d 63bc 7809 15be 60f7 083e a14d 4e3a
00000060: b96f 24be 0345 e13d c2d6 453d 1829 b53d
00000070: cc99 253e 7909 db3d d3c2 9a3d f34c 1cbe
00000080: 575b 1cbd 84ec 92bd 8325 9ebd f362 cbbd
00000090: ca7b 58bd 86b1 af3d 5f90 a53b 104a 41be
000000a0: 760c c7bd 9816 403e f6c1 b9bd debe f83d
000000b0: f4b0 d13d ddea 4d3e f494 cebb 4198 d73d
000000c0: 2fb6 003e 62d8 febc 905b 8d3d 6be6 2c3e
000000d0: 9d71 fc3d 253c 04be a77c 15bb 7310 ddbd
000000e0: 7f06 37be aa90 053e 984e 02be 6e4a ea3d
000000f0: 1376 cb3d 5bdb 13be 2308 363e ed2f 0c3e
00000100: d69e 2abd d82c 923d 9b56 b73d afc6 243e
00000110: 8a14 1c3e 09f1 85bd 7394 093e 5d4a 1dbd
00000120: dfbb c3bd 79c6 863d 6654 6fbd 491f 08be
00000130: 6871 c33d f917 b83d 5b23 b23d cc51 66be
00000140: 9778 48be 54f4 283b cbe8 3dbe 4708 0cbe
00000150: 8854 34bd 7df8 933c 41c0 a1bd e0f1 253e
00000160: f8be c8bc 83ab 16bd 2e5b 18be 7ded 0d3e
00000170: 4190 8cbd d6d4 f83d 6623 fb3d e7bc 43bd
00000180: 9ab4 8b3d f489 49be 5ee4 6cbd 4dbf 533a
00000190: 13d2 f8bd 90b4 23be accd fc3d cf58 623e
000001a0: b481 1c3e 7a89 b23d 2f7d 12bc b067 4cbe
000001b0: 037b f8bd 9e60 2dbd 8fd3 fa3c 1bd8 0cbe
000001c0: fdb9 07be 6383 0bbd 4a71 15be 37bc 4dbe
000001d0: 0865 5b3d ff6b c2bc 3bac 31be 0ecd 723d
000001e0: cfbf b33d 684a 9fbd b3d7 c23d 0b69 c43d
000001f0: bb39 4ebe 1a3b 3d3e 2c5a 1bbe 237c 173e
00000200: 24ee 41bd 8f46 ca3c 803b b0bd ec71 8abd
00000210: 30e7 503d 8b15 43be 45a5 84bd 5130 163d
00000220: 0279 ee3d 5579 06be 2e93 fa3d 1a9e 3a3e
00000230: d1a2 7cbd fb83 913d 14f5 d0bd 0bca b03d
00000240: 789c a9bd 8694 90bd 2766 5abd 7cff 04be
00000250: be0d c53d 511b 1bbe b234 083d fc57 e7bd
00000260: 83c3 db3d 996b 06bd 6669 033e 312c 2abe
00000270: 0c7a b5bd 9d8c 063e b186 f2bd df3a c8bd
00000280: 14fc 103e 20b9 cf3d ac2e a4bd 5ca3 353e
00000290: cb79 0cbe 45cd 4b3d e8de 36be fef8 253c
000002a0: 2d95 d5bd 8673 d73b bc4c ef3c 3da5 35be
000002b0: 81c2 1dbe 299c 03be 8227 453d 36ac 613d
000002c0: 4b80 28bd faf4 183e 3455 e5bd 95f4 f9bd
000002d0: 7ddd 293d 4b45 ecbd 5c66 45be 3573 2abe
000002e0: e2f9 95bd a82e 27be 1994 e33c ee4f 91bd
000002f0: 2457 8ebb 4d1f 10be acf8 bfbd 3d83 00be
00000300: 4a5e c93c 22fd b3bd 0d5d 97bc 819e 3a3e
00000310: b816 0bbe 3130 c33d 0bf3 1f3e ba2b 2abd
00000320: 9d0d 9a3d be65 e73d a432 1f3e f7ae 8abd
00000330: df09 02be d67c 94bc ab6c 34be 67b3 653d
00000340: 2707 cbbd f53f 17be ea21 8bbd 68c2 ccbd
00000350: 3806 0d3e 3d6f 6c3c 0acb 3a3e 5af5 3a3d
00000360: 674f 32be ba8c 3b3d 6f89 7a3d 6996 91bd
00000370: b94f fe3c e264 06be 6142 503d cd9b ebbc
00000380: e693 16be a587 3fbd 3c96 2d3e 4c99 36bd
00000390: 593f 133e ea6b 08be c8de 1b3d c5c1 06be
000003a0: f1bb ab3d 0691 3bbe e7de 263e e148 6e3c
000003b0: 716f 193e 7ed8 1d3e 6dd4 2dbe b7c5 18be
000003c0: d1a5 fa3d b772 22be 1444 2abe d4f8 5cbb
000003d0: efd0 17be d65f 193e 3c38 2d3e 8b91 5f3d
000003e0: f1c8 d7bd cd28 c2bd 5fec bc3d c23d 0e3e
000003f0: f009 b2bd 3297 d23d 3e4a 93bd 93a9 eabd
-0.10632084 0.13169521 -0.16980848 0.11572108 -0.07891844 0.1243895 -0.09911174 0.120168515
-0.04586048 0.08700231 0.011189398 0.027237806 0.12899053 -0.083713785 -0.028050223 0.005693267
-0.08854656 -0.043796692 0.039821975 -0.06544437 -0.01385825 -0.14554393 0.13375616 0.0007869844
-0.16058244 0.10999491 0.048300512 0.08845729 0.1617195 0.10695166 0.07556691 -0.15263729
-0.038173046 -0.07174018 -0.077219985 -0.099309824 -0.05285243 0.08578782 0.0050526108 -0.18875909
-0.097191736 0.18758619 -0.09070198 0.1214578 0.10238829 0.20109124 -0.0063043777 0.10527087
0.12569498 -0.031109039 0.0690223 0.16884772 0.123263575 -0.12913568 -0.0022809894 -0.10794153
-0.17873572 0.13043466 -0.12725294 0.114399776 0.0993463 -0.14439146 0.17776541 0.13690157
-0.041655384 0.071374595 0.089520656 0.16091417 0.1524221 -0.065401144 0.13435535 -0.038400996
-0.09557318 0.065808244 -0.058430098 -0.13293184 0.09543115 0.089889474 0.0869815 -0.2249214
-0.19577251 0.0025780397 -0.18545835 -0.13675033 -0.044025928 0.018062824 -0.07897998 0.16205549
-0.024505123 -0.03678466 -0.14878532 0.13860126 -0.06863452 0.1214997 0.12262611 -0.047787573
0.068215564 -0.19681531 -0.057834975 0.0008077517 -0.121494435 -0.15986848 0.12343916 0.2210419
0.15283853 0.08717628 -0.008940979 -0.19961429 -0.121328376 -0.04232847 0.030618457 -0.13754313
-0.13254543 -0.034060847 -0.14593998 -0.2009133 0.053563148 -0.023733137 -0.17350857 0.059277587
0.08776819 -0.07777864 0.095137976 0.09590348 -0.2013921 0.18479577 -0.15171117 0.14793448
-0.04734625 0.024691848 -0.08605099 -0.0676001 0.051001728 -0.19051187 -0.06476835 0.036667172
0.11644174 -0.13132222 0.122351035 0.18224373 -0.06167871 0.071052514 -0.10202995 0.08632287
-0.08281797 -0.070595786 -0.053320076 -0.12988085 0.09621762 -0.15147139 0.03325338 -0.112960786
0.1073065 -0.032817457 0.12833175 -0.1661842 -0.08861169 0.13139577 -0.118420966 -0.09776854
0.1415866 0.10142732 -0.080167145 0.17738098 -0.13718335 0.049756307 -0.1785847 0.010130165
-0.10428844 0.0065750508 0.029211394 -0.17738815 -0.15406229 -0.12852539 0.04813338 0.055095874
-0.041137975 0.14937201 -0.11197892 -0.122048534 0.041470993 -0.11536654 -0.19277328 -0.1664551
-0.07323052 -0.16326392 0.02778058 -0.070953235 -0.004343884 -0.1407444 -0.09373602 -0.12550063
0.024581093 -0.087885156 -0.018476987 0.18224527 -0.13582885 0.09530676 0.15620057 -0.041545607
0.07522128 0.11298703 0.15546662 -0.06771653 -0.12699078 -0.018125933 -0.17619579 0.056079295
-0.099134736 -0.14770491 -0.06793578 -0.099980175 0.13771904 0.014430818 0.18241516 0.04564414
-0.17413102 0.045788504 0.061166223 -0.071087666 0.031043874 -0.13124421 0.050844554 -0.028760815
-0.14704856 -0.04676022 0.16951841 -0.04457979 0.14379634 -0.13322416 0.038054258 -0.13159855
0.08385456 -0.18317041 0.16295968 0.014543743 0.14983918 0.15414616 -0.16975565 -0.14919172
0.12238658 -0.15864073 -0.16627532 -0.003371765 -0.14825796 0.14977965 0.16915983 0.05458216
-0.105363734 -0.094804384 0.09224772 0.13890746 -0.08693302 0.102827445 -0.07191895 -0.11458125

rnn.bias_ih_l0 f4 [32]
00000000: a4a8 433d 329f 1dbe 0ddf ba3d 4947 a43d
00000010: d4fb 2abc 91bc cc3c b958 8b3c a88b efbd
00000020: 5718 b43d 06d4 07bd 9818 873d 8faf df3d
00000030: cfca 11be 30e4 ae3d 7219 e2bc f0dd 283e
00000040: e4d4 00be 8ad7 073e da93 283c e943 183e
00000050: 268b 1b3c 6851 0ebe 7a64 3a3b c3b5 b0bd
00000060: 5a97 a63d e2e6 c6bc 7c01 ca3d b8d8 16be
00000070: 6069 77bd c130 2a3a 0340 273e 5b8a 07bb
0.04776825 -0.1539276 0.09124575 0.08021409 -0.010436017 0.02499226 0.01701008 -0.11696559
0.08793705 -0.033161186 0.06596488 0.10922157 -0.14237522 0.08539617 -0.027600024 0.16490912
-0.12581211 0.13265815 0.010289157 0.14869656 0.009493625 -0.13898242 0.0028441236 -0.08628418
0.08134337 -0.024280015 0.09863564 -0.14731109 -0.060403228 0.000649225 0.16333012 -0.0020681832

rnn.bias_hh_l0 f4 [32]
00000000: c9c2 09be 9257 443d c2f9 6bbd fba8 13be
00000010: 4af3 203d 9aad 25bd e320 70bd 3340 85bd
00000020: d93d 0cbe ec91 833d 7ae9 1f3e a5f8 edbd
00000030: 166c 003e 0ed3 e53a 4cdd 03be 49f2 7abd
00000040: 3481 213e f39e 443e b952 f1bd 20b6 cdbd
00000050: cc09 0d3e 5ff0 193e 01f9 80bd 0272 30be
00000060: cf02 2c3e 470f 253e 5a38 10bd a29d ac3d
00000070: 29c7 f6bd 305c 113e e0e8 d13b a0b9 f1bd
-0.13453211 0.047935076 -0.057611234 -0.1441993 0.03929452 -0.040448762 -0.058625113 -0.06506386
-0.13695468 0.06424317 0.15616408 -0.11619691 0.12541232 0.0017534213 -0.12877387 -0.061266217
0.15771943 0.1920126 -0.11783356 -0.10044503 0.13773268 0.150331 -0.06297494 -0.1723099
0.16797946 0.16119109 -0.03520999 0.084285036 -0.120497055 0.14195323 0.0064059347 -0.11802983

fc.0.weight f4 [32, 32]
00000000: a26e 72be 075e d83d bb8a 37be c6d6 90be
00000010: b81d 653e f6e5 913d 6b66 eb3d 9200 65bd
00000020: 1457 2dbd ddac 1a3d f2ee 543d 2beb 2b3e
00000030: 2b2f f5bc 8b14 a5bd 0741 843e ad04 73bd
00000040: fa7d 213e a011 e3bd a4b4 1ebe 30a9 f1bd
00000050: b969 d23d d3bf 10be 01b4 05be bc67 d8bd
00000060: 102c 1cbe 643c ed3e 41b6 703e ab8a 523e
00000070: c017 afbe e6a2 1ebd 8113 303e 4c3e 143e
00000080: 0e37 28be 9f9e 38be 7c8b 50be 6488 4abe
00000090: 4e9a babb 1795 603d 5b74 e73d e864 68be
000000a0: b7bd e53e 422f 16be c558 453d 12de 8cbc
000000b0: 323f e8bc cf9e 143e d744 1b3d 3a10 503e
000000c0: 4b54 20be 422e 6ebd 6b6a d33e 889c b7bd
000000d0: 7251 ebbd 8e91 553e 94c1 963b a8f7 803c
000000e0: ab6a 32be d75f a9bd 0b51 623e ba9b 04be
000000f0: ac14 45be 2db2 21be ea8f 1bbe f77a 16be
00000100: 9d5a 73bd 8e99 6f3c 98ed 283e 9944 a23e
00000110: decc 3bbd e10b ab3d f0b5 3cbd 9d68 0d3e
00000120: 79c3 0a3e 27f2 513b 94c4 213e efcc 3dbe
00000130: 2a10 efbe aba0 b43d 64bc 87bd 49b2 3bbe
00000140: 2ab0 c03d 2db7 1b3e a17a 073e 69c3 26be
00000150: a2fc a8bd 8686 e43d 9d39 11be f5ec 17bd
00000160: 6f6c 3dbe 5ae9 aa3e bc7e 86be 6ee7 613d
00000170: 26fb 5abe 27c5 c13e 7ecd a3bd 63cb 27be
00000180: 61a3 d43e f6e9 9f3d 4d44 95be b067 38be
00000190: 585a cd3e a81a ddbc aae9 9ebe 5e2c 173e
000001a0: a7d1 b83c f94b 443d 5e2a 3b3e 2709 73bd
000001b0: ecd6 373d 3aa1 36be c1e8 6abc 1202 dbbd
000001c0: 450a 4a3e 4444 0f3d 53e5 833d 5e08 b8bd
000001d0: 0d1c ab3d e2a0 19bd e373 c13d 48d9 a0be
000001e0: d2c5 a93d 4d84 9fbd 571a ddbd 19dd 9bbe
000001f0: 6f3f 28be f254 cabc 3270 9cbd ce85 a7be
00000200: 8d58 02bd 6bb9 b33c 24c5 45be 4211 e53e
00000210: 9aa7 913d 0bfe afbd afd9 12be 022a 10be
00000220: 7828 49be 3124 43bc 3531 50bd ff05 633e
00000230: 6856 0d3e d062 80bd 9675 2c3c 3c00 35be
00000240: c40d 83be bf52 073d 1d67 2dbd b033 f2bd
00000250: 3ac0 72be 37ad 2abe 308a 5bbe 5382 17bd
00000260: e04a 6fbe 2117 fabd a657 94bd 7edd f93d
00000270: 72f0 0fbe a40f 9ebe 86ed c2be 0e99 cebd
00000280: 2d60 02be 3d3e f2bd 0450 03be 28ad c53d
00000290: 54b9 503b edd9 af3e 9d9a 9cbe e0c9 50bd
000002a0: 19c8 4a3e 57e9 bfbd e19c 103e 0c0a 96bd
000002b0: c51e a63e edcd d9be 4c47 bebd 323d 8b3d
000002c0: c4ea b03d 059e 863c e2fd 413e d785 d13e
000002d0: 9147 06bb 6e08 67be 16e7 343d 045d 4b3e
000002e0: cce6 cc3b 9d8a 103e d4e1 983d ff7c 4e3e
000002f0: 30fe 1e3e e2d0 713e fc53 44be 04ac c3bd
00000300: 75a6 b43d 2eb2 d93e 017d 693e eda7 ea3d
00000310: ed13 623c cc6a 11be b1fe 263e 3911 233e
00000320: f192 223e 29be 013d 1e07 943e e12e 963d
00000330: 8f8c cd3e bb48 39bd 1c19 d53c 720e 65be
00000340: bf53 de3d dfeb babd d570 213e de47 d6bd
00000350: 3441 643e 7585 083e fdc8 3dbe d409 b73e
00000360: 5508 cebc b45f a6bd b7ad 6e3d 60b2 77bd
00000370: 858c e8bd cfaa 02bd 421a 6cbd 5088 04bc
00000380: 3821 ca3e bc75 1abe 6567 41be 8868 003e
00000390: bf83 a0bd 8f37 aa3e 281f c73d 0278 53be
000003a0: 5621 293e 0097 9a3d be83 e3bd 0ad3 f23d
000003b0: 7f87 09be 6444 12be a55e b93e ed42 6fbe
000003c0: c9a2 5d3e 5f96 283e 1dfc a33c 638f 3c3e
000003d0: abf9 093e eeea 1a3e a3b6 abbe d6d8 5d3d
000003e0: af5e 933d 7590 783a 2d8a 9cbd 650c febd
000003f0: 5e03 053e 7b0a 4abe 1053 ba3c 9dd6 e63d
-0.23675016 0.10564809 -0.17924015 -0.2828886 0.22374618 0.0712394 0.11494144 -0.055908747
-0.042319372 0.03776251 0.05198569 0.16788928 -0.029929718 -0.08060559 0.25830862 -0.05933063
0.15770712 -0.11087346 -0.15498596 -0.11799848 0.10274071 -0.14135675 -0.13056947 -0.10566661
-0.15251184 0.46335137 0.23507024 0.2056071 -0.34197807 -0.03872957 0.1719494 0.1447689
-0.16427252 -0.18029259 -0.20365709 -0.19778591 -0.005694664 0.054829683 0.1130149 -0.22694743
0.44871303 -0.14666465 0.04818036 -0.017195735 -0.028350446 0.14513706 0.037907448 0.2031869
-0.15657155 -0.058149584 0.41292128 -0.08965403 -0.11490144 0.20856306 0.004600713 0.015743092
-0.17423503 -0.08270233 0.22101228 -0.1295003 -0.19246167 -0.15790625 -0.15191618 -0.14695345
-0.059412587 0.014624013 0.16496885 0.3169296 -0.045849673 0.08351875 -0.046071947 0.13809438
0.1355113 0.0032035203 0.15797645 -0.18535207 -0.4669202 0.088197075 -0.066277295 -0.18329729
0.09408601 0.15206595 0.13230373 -0.1628548 -0.08251311 0.11158471 -0.14182134 -0.037091214
-0.18498395 0.33381158 -0.26268566 0.05515235 -0.21384868 0.37845728 -0.07998179 -0.1638618
0.41530898 0.078082964 -0.29153672 -0.18008304 0.4010799 -0.02699025 -0.31037647 0.14763018
0.022560908 0.047924016 0.1827788 -0.0593349 0.0448827 -0.1783494 -0.014337719 -0.10693754
0.1973048 0.034977213 0.064402245 -0.08985971 0.0835496 -0.037506945 0.09445932 -0.31415772
0.08289684 -0.07788906 -0.107960396 -0.30442122 -0.16430448 -0.024698708 -0.07638587 -0.32719272
-0.03182273 0.021939 -0.19313484 0.4473973 0.071120456 -0.08593377 -0.14340852 -0.14078525
-0.19644344 -0.011910484 -0.050828177 0.22170256 0.13802493 -0.06268847 0.010526082 -0.1767587
-0.2559644 0.033037897 -0.042334665 -0.11826265 -0.23706141 -0.16667639 -0.21439433 -0.03698952
-0.23368406 -0.12211443 -0.0724328 0.122004494 -0.14056566 -0.30871308 -0.3807184 -0.100877866
-0.12732 -0.11828277 -0.12823492 0.096521676 0.0031848745 0.34345952 -0.3058671 -0.050973773
0.19802894 -0.09370678 0.14122345 -0.07326135 0.3244535 -0.4253992 -0.092909425 0.067987815
0.08638528 0.016432771 0.18944505 0.40922424 -0.0020489434 -0.2256181 0.044165693 0.19859701
0.006253099 0.14115377 0.07464948 0.2016487 0.15526652 0.23614839 -0.19172662 -0.09554294
0.08820812 0.42518753 0.22801591 0.114578106 0.013798696 -0.14200896 0.16308095 0.15924539
0.15876366 0.03167549 0.2891168 0.0733316 0.401463 -0.045235377 0.02601295 -0.22368792
0.10855817 -0.0912702 0.15765698 -0.10462926 0.22290498 0.1333216 -0.18533702 0.35749686
-0.025150457 -0.08123723 0.058271136 -0.060472846 -0.11354927 -0.031901177 -0.05764223 -0.00808914
0.3947847 -0.15083975 -0.18887098 0.12539876 -0.078376286 0.33245513 0.097227395 -0.20651248
0.16516623 0.07548332 -0.11109112 0.11856659 -0.13430594 -0.14283901 0.3620502 -0.23365374
0.21644129 0.16463612 0.020017678 0.18414073 0.13474147 0.15128681 -0.33537778 0.05416187
0.07195794 0.0009481975 -0.076435424 -0.12404708 0.12989566 -0.1973056 0.022744685 0.11271403

fc.2.weight f4 [2, 32]
00000000: bf8c 82be 379a 573e 8fa5 7c3e a231 c8bd
00000010: 7d79 bcbe 86ef c03d 403f 46be 3865 a4bd
00000020: d367 2abd ba35 b73c 3663 f3bd c7ea d83c
00000030: 8c5e 14be 23fe 803e 92de 4e3e 5692 873e
00000040: 3b62 15be 62d8 36be 9801 94be 03fe f73d
00000050: 07ce a23e e295 26be 0d0f 733e 18d2 fa3c
00000060: 49f4 463d 1ae7 883d 63ef ed3b 2abc 25be
00000070: 6345 89be c365 37bd 1636 b53d e34c ccbd
00000080: c47d 10be cd12 f03e 22f7 a63c f43c 093e
00000090: 9524 e93e 098a 623e d5c2 813e 19c1 9d3d
000000a0: d69f a43e 42cf ce3d 8533 b6bc 29d2 04bd
000000b0: 9e68 24be d3bd 7b3d 280f 0e3e e53d aa3d
000000c0: b900 04be a7b8 39be 6a58 883d 03b6 2cbe
000000d0: 6dcf b53c 6903 c1bd 4927 3c3e 2aba 7cbd
000000e0: 804c 1cbe c935 753e a259 86be 1d69 5b3d
000000f0: 93c9 153e 5207 523e 1a70 eb3d 5f5d d5bd
-0.25498006 0.21054922 0.2467253 -0.09775092 -0.36811438 0.094206855 -0.19360065 -0.080271184
-0.04160292 0.022364486 -0.11884157 0.026479138 -0.14489192 0.2519389 0.20202091 0.26478833
-0.14588253 -0.17855981 -0.28907466 0.12108996 0.3179781 -0.16268113 0.2373621 0.030617759
0.048572812 0.06684704 0.007261203 -0.1618506 -0.2681075 -0.044774782 0.08848207 -0.099756025
-0.14110476 0.46889344 0.020381514 0.13402158 0.45535722 0.22122969 0.25343958 0.07702846
0.32153195 0.10098125 -0.022241363 -0.032426987 -0.16055533 0.061460327 0.13872969 0.08312587
-0.128909 -0.18136846 0.06657489 -0.16866307 0.022193635 -0.094244786 0.18374361 -0.061700977
-0.15263557 0.23946299 -0.2624026 0.05356704 0.14627676 0.20510605 0.11495991 -0.104182

ode_net.grad_module.0.weight f4 [32, 37]
00000000: f94e e5bc a785 c0bd d3de d8bd f5a9 11be
00000010: 3a34 18be 532d 0f3e 1958 82bd 217a fd3d
00000020: f6de 01be be27 273d 1cec 143e 6879 a83b
00000030: dff7 6cbd 8169 ac3d 91ef 0d3e 90a7 cb3c
00000040: 4295 163d 1798 cabd 7d46 9f3d 495e bd3d
00000050: d7d1 0fbe 0876 99bc 4653 0d3d 103a d1bd
00000060: 1c81 53bd fbf2 a9bd a802 4bbe 5c7b 043d
00000070: 22e3 0a3e 5f02 cb3c d75f 8ebc 4f9d 06be
00000080: dc7c e9bd f084 793c 1a9b 013e efc6 e13d
00000090: 666b d33c 5a96 28be dfa8 003d 701a 0f3e
000000a0: c650 febd c826 2c3d fc46 9ebd 382d 133e
000000b0: abd5 bb3c dbd8 9d3c 2493 173e c955 98bd
000000c0: 283d 733b 7491 30bb aa66 04be 7be1 523d
000000d0: bb85 76bd 4e9a 163e db6b b1bd 261f 23bd
000000e0: 7bab 3dbd aaba 5c3c ddbc 083e f53b 123e
000000f0: 82ed 2dbe 7554 9a3d 95d7 fd3d cc21 acbc
00000100: fa94 42bd f9d5 803d d3aa 9f3d c756 453b
00000110: 5807 dbbc 1acb 2c3e aff2 debd 3e66 003e
00000120: 28b6 2b3d 1ab4 cb3b 2a5b 85bd b108 193e
00000130: c8b8 003e ca71 01bd c8e6 0d3e c4a2 cebd
00000140: eaeb 193c 665c 0cbe e833 8f3d 6b01 d9bd
00000150: 9d8b bb3d b870 05be ffb5 973d cd2f 073c
00000160: 4bdf d63b b6e8 143e c7b6 ca3d 550e 13be
00000170: 98a4 c1bc 5cc8 17be ff17 d0bd eb56 aabb
00000180: da0a 783a eea3 f4bb 4b27 0ebe f0f1 11be
00000190: 4baf 40bd f8ec fcbd 9401 003e cded 263d
000001a0: 50bb 26be ea0f 17be a59a 4b3c 6b7f 053e
000001b0: 2d94 e33d e8a3 06be 2a3b 6abb 33ef ab3d
000001c0: e45c 1a3c 923d 383d 31fb 9dbd cbbf 9c3c
000001d0: ede6 9cb9 c811 22bd 8a07 433d 9073 f9bc
000001e0: df02 abbd 49fd 133e 07ac 1ebe 3ee1 d23d
000001f0: 2fcc 31be 688b 05be 6036 0a3d 99ab 08be
00000200: 59e5 34bd e47d 1b3e ff5b 12be eb7f 03be
00000210: bc39 11be f4ca 673b 3943 e7bd 0b0b 24be
00000220: 4b2f 683d d5eb fcbd b62e 8bbd a20f e7bd
00000230: 5bac 04bd b238 323d ee96 83bc f863 f6bd
00000240: 5702 263e db5a 603d 94c2 463e 15d5 57be
00000250: 0439 063e ed92 793d 1c09 7a3d a0a3 7e3d
00000260: 8f0b cfbc 4ba8 d7bb 5892 2c3e c254 18be
00000270: f1bb fb3d 89fe 063d a93f 293d 150f f9bc
00000280: e22f 1cbe e60d 11bd 74c2 02be b12f 1abd
00000290: 2546 f4bb 4fac fc3d f40f 97bc 34d8 fcbc
000002a0: 4afb b63d 2398 9a3d 6201 123d c63f 1b3d
000002b0: 6c0a 05be 2089 14be 0d62 0abe be66 493d
000002c0: 6118 b83d 8f05 aa3d 666a babd e46b 65bc
000002d0: 470f 133e 3d7c aabd b5e3 1cbe 2fbc 2c3d
000002e0: 0225 98bd 52a4 4b3d a395 babd 4425 e73d
000002f0: 15fa 34be e043 1e3e 8686 10be c357 87bd
00000300: b8e9 a43d 9129 73bd bd45 54bd af66 78bb
00000310: 9220 823d 3a5d 483c 1399 153d 6ba8 293e
00000320: 1806 f2bd f27b 3bbc 1b59 223e f905 94bd
00000330: 134d 173e 3523 b3bd bf1c 41bc 5846 58bd
00000340: 356e 4dbd a846 993d 52dd 3ebd 890c acbd
00000350: 23d1 8c3c 432b d23d 2ec1 adbd 3042 113c
00000360: a444 043d 46d0 e13d ff02 afbd b92a 23be
00000370: 5d38 7abc bd2f 01be bb51 f1bd 8269 df3d
00000380: 8c38 a1bd 01de 123d 9905 ee3b d80a 05be
00000390: 8824 17be 6d91 263e 6682 aa3d e06a c1bd
000003a0: a7b1 aabd 8232 9dbd ca3f 52bd f4f4 18be
000003b0: e83d 993d 59e0 b93c c7dd 103e ce42 2c3c
000003c0: 9c16 833d 4694 da3d fc5d bd3d ea75 16be
000003d0: fad8 cf3d ca3e 9fbc 7e2e 8e3d f782 c8bd
000003e0: c0d7 9cbd bccb 01be 7952 b43d 4978 04bd
000003f0: eb4c f3bd 7379 c6bd 7641 2c3e 1a30 0ebe
-0.027991759 -0.09400492 -0.10589375 -0.1422499 -0.14863673 0.13982134 -0.063644595 0.1237681
-0.12682709 0.040809385 0.14543194 0.005141426 -0.057853576 0.08418561 0.13860919 0.024860173
0.036763437 -0.0989229 0.077771164 0.09246499 -0.14044891 -0.01873304 0.034503244 -0.10216153
-0.0516368 -0.08298298 -0.19825232 0.032344207 0.13563207 0.024781404 -0.017379684 -0.13145946
-0.11400768 0.015229449 0.12656823 0.11024272 0.025808048 -0.16463605 0.031411048 0.13974929
-0.1241775 0.042029172 -0.07728383 0.14372718 0.022929033 0.019268444 0.14802223 -0.07438237
0.003711531 -0.0026942166 -0.12929788 0.051484566 -0.06018613 0.147073 -0.0866315 -0.039824627
-0.046306115 0.013472239 0.13353296 0.14280684 -0.16985133 0.0753564 0.12394635 -0.02101221
-0.047505356 0.06290812 0.07796254 0.0030111538 -0.0267369 0.16874352 -0.10886132 0.12539002
0.041921765 0.006216538 -0.06511529 0.14944722 0.12570488 -0.03160266 0.13857567 -0.10089639
0.009394625 -0.13707122 0.06992322 -0.105959736 0.091574885 -0.1303128 0.0740776 0.008251143
0.0065573803 0.14541897 0.09898143 -0.14360936 -0.023638055 -0.14822525 -0.10160827 -0.0051983497
0.0009462066 -0.007465831 -0.13882177 -0.14252448 -0.047042172 -0.12349886 0.12500602 0.04075413
-0.16282392 -0.14752164 0.012427007 0.13036887 0.11112247 -0.13148463 -0.003574083 0.08395233
0.009421561 0.044980593 -0.077139266 0.019134423 -0.00029926692 -0.03956774 0.04761461 -0.030450612
-0.08350157 0.1445209 -0.1549531 0.10296868 -0.17363046 -0.1304146 0.033743262 -0.1334671
-0.044164035 0.15184742 -0.14292906 -0.12841766 -0.1418218 0.0035368772 -0.112921186 -0.16019838
0.056685727 -0.12349669 -0.06796019 -0.112822786 -0.032390933 0.0435111 -0.01606318 -0.12030786
0.1621183 0.054774147 0.19410163 -0.21077378 0.13107687 0.060931135 0.061043844 0.062167764
-0.025274066 -0.0065813414 0.168527 -0.14876083 0.12291706 0.032957587 0.041320477 -0.0304027
-0.15252641 -0.035413645 -0.1276949 -0.03764314 -0.007454651 0.12337553 -0.018440224 -0.030864812
0.08934648 0.07548549 0.03564585 0.037902616 -0.12992257 -0.14505434 -0.13513966 0.04917025
0.08989025 0.083018415 -0.09102325 -0.014002774 0.14361297 -0.08324478 -0.15321238 0.042171653
-0.07428934 0.049717255 -0.09110572 0.11286405 -0.17673524 0.1545558 -0.14113817 -0.06608536
0.08052391 -0.059365813 -0.05182432 -0.0037903 0.063538685 0.012229258 0.036522936 0.16568153
-0.118175685 -0.011443125 0.15854304 -0.07227702 0.14775495 -0.087469496 -0.011786639 -0.05280146
-0.05015393 0.0748418 -0.046597786 -0.084008284 0.017189568 0.10262158 -0.08484112 0.008865878
0.032292023 0.11026053 -0.08545493 -0.15934266 -0.015272227 -0.12615867 -0.11783167 0.10908796
-0.078721136 0.03585625 0.007263851 -0.12992418 -0.1476003 0.16266413 0.08325653 -0.09444213
-0.08334666 -0.07675649 -0.051330365 -0.14937192 0.07482511 0.022689985 0.14147101 0.010513974
0.06400797 0.10672812 0.09246442 -0.14693418 0.10148807 -0.01943912 0.069424614 -0.097906046
-0.076583385 -0.12675375 0.08804793 -0.032341275 -0.11879905 -0.09691133 0.16821846 -0.13885537

ode_net.grad_module.0.bias f4 [32]
00000000: 95b5 073e cb49 943d 9784 103e adbe 13be
00000010: 4b3f 8dbd cc91 ce3d a430 543d b887 0a3e
00000020: 85d7 07be 2565 113e 8970 de3b 4ae0 bb3d
00000030: d2a1 df3d 6597 d43d 1ff2 b53d f2d0 28be
00000040: 6909 d73d 3acf 15bc 078a 9bbd 4dc8 f13d
00000050: b4d2 a93d 2f8b 38bd 3a29 8f3b 19a2 b73d
00000060: 79cb 783c 1474 313e 5132 d13d 7e29 33be
00000070: 81ff a23c 2c29 e83d 0509 e83d e81f 2e3e
0.13252862 0.072406374 0.14113079 -0.14428206 -0.06896838 0.10086402 0.0518042 0.13528335
-0.13265808 0.1419874 0.0067883176 0.09173639 0.10919537 0.10380439 0.088840716 -0.16485956
0.10499842 -0.009143645 -0.07594686 0.118057825 0.082921416 -0.04505461 0.0043689283 0.089664645
0.01518523 0.17329437 0.10214675 -0.17496297 0.019897224 0.11335978 0.11329845 0.17004359

ode_net.grad_module.2.weight f4 [32, 32]
00000000: 7695 223d e428 90bc b802 103e aad4 25be
00000010: e82b dfbd 4b45 b03d 462c eb3d 8a09 9cbd
00000020: f579 383e dc4c d4bc 8668 083e 61bf 1abe
00000030: 9437 193e 712c f2bb 36d5 473e 6b47 003e
00000040: a588 213d d051 0b3e 93bc 023e a79e 47bd
00000050: e20f 103e 31f9 e83d ded3 24bc bb88 753d
00000060: 7297 27bc caa1 0cbe a07a eb3d 532f 32be
00000070: b3b7 a93b 7957 453d 93d0 743d 2a10 ea3d
00000080: a099 ba3d 9c53 4ebd 2b75 3bbd 7d7f 193d
00000090: 3ad4 0fbe 6ff2 14be c01c 08be f46d 943d
000000a0: e0e6 1abe 4705 bebd ef2d 05be 4da0 b13d
000000b0: 4373 f43d b524 a1bd 2e4f c9bb b4ad e03d
000000c0: f4a0 31bd 7b37 0b3e 2b37 af3d 14ed 13be
000000d0: 98c9 ccbc 29dc 183e fb53 d2bd 4064 0e3e
000000e0: a20d 9b3d dc7d 4fbd f6af f2ba 5d18 193e
000000f0: f3f2 0ebd b6a0 0dbe 78da 633d 8521 15bd
00000100: 48bc a43d cb37 cfbc 2093 fbbd 60fc f63d
00000110: d2c7 943d 9ca0 4abe 0bab 53bd 4a91 903d
00000120: 3711 db3c 9038 253e edfa f5bd de3e d6bd
00000130: 7a1f 97bd f8fd 1e3d cae9 273e fd99 43bd
00000140: b557 34bd f7c2 803c 35a3 1e3e 5781 4cbd
00000150: 2924 a9ba abb1 98bd c57a debd 18fc 23be
00000160: 94ac fe3c b60b 1f3e 1bc2 adbd 11b6 f33d
00000170: 61f7 063e b1a5 a73d 3aa6 033e d66c 4cbc
00000180: 134a 203e 2fbf 3fbe 532c 84bc de92 a33c
00000190: 4972 42bd 65f7 ce3d e5d3 efbd d1ed 2c3e
000001a0: 0b80 b0bd f660 033e 7afc 073c 57bf 203e
000001b0: a8b0 21be ff8d 6abd f503 a7bc fae0 933c
000001c0: f111 5d3c 83b2 0ebe d4d3 c9bd bd8d 56bd
000001d0: 6ad1 c2bd 5500 b9bd ff22 1cbd 6f41 c53d
000001e0: 5960 b13a 11e2 583d 32c8 a03d 43f3 253e
000001f0: 2b81 0a3e 9cd2 bfbd b4a9 2abe bc42 e53d
00000200: d431 5bbc 8459 2abe 97ba 0c3d 8bdd b23d
00000210: 785b 1c3e b917 db3c 2212 5fbd 8b7d 2fbe
00000220: 8655 acbd e26b 893d f07f bdbd 114c 9cbd
00000230: 9889 663d 22dd e5bc a4cb adbd d1f1 fe3d
00000240: 4ad7 bdba de3e 993d 5b01 6f3c 8db9 0d3e
00000250: e1ac dfbd b928 1e3d 2a40 2fbe 7520 163d
00000260: 8472 c9bd cce7 a93b 9738 a43d f8f2 9dbd
00000270: ed47 943d 2d06 e63b 4f53 333d 7388 5dbd
00000280: dab7 29be 5886 233e 9722 253e 924b 753d
00000290: a9cf 1abe 7bb7 ddbc 0624 f03d a715 333b
000002a0: e8fc 87bd e6ae 633c 0a45 66bd c335 063e
000002b0: 9c8c 1f3e 5f51 9c3c 4077 3d3e 1772 b53d
000002c0: a206 b23d f7f5 e93c cd8e e83c 82d5 12be
000002d0: 6158 08bd c515 0b3e e110 293e d959 c3bd
000002e0: 8dc9 98bd c736 52bd cbdc ac3d f157 39bd
000002f0: 903f aebc 6a62 8fbc 3d24 763d fea6 14be
00000300: cead fcbc cd5e f4bd 885c 983d b253 383e
00000310: 01b2 08be c421 1e3b 7a08 073d 2079 383e
00000320: b8f1 2abe 13ae 083d a454 e3bc 20fb 35be
00000330: 3128 24bd 3c11 cb3d b666 2dbe e9a8 b3b9
00000340: fb63 c5bc 1416 443d f8d3 463c 7b2b 09be
00000350: 9cbe b83d 09cb dbbb a8e2 3fbe 8d5b 5fbd
00000360: 4dc7 e73d 4e22 a53d 2b77 873d eee1 173e
00000370: 4f76 c33d 3417 eb3c e88d 1f3e 5e1b fd3b
00000380: 0a51 4ebe 99e1 2b3d 8d3a eb3d e415 23be
00000390: 828a 0f3e d7ba 9e3b ae89 8abc 912d efbc
000003a0: ae13 12be e891 543d ac68 043d b4dc d1bd
000003b0: b362 01be c160 d83d 0dd2 cdbd 5b2b d8bc
000003c0: eeaf 8b3d 459a 0cbe dc21 88bd 326f 11bd
000003d0: 19b8 36bd 400d 1bbe 7e77 bdbd e84c 2d3b
000003e0: fbe6 96bd 5830 7abd 3d4b fcbd 2dc9 33bd
000003f0: f0f3 2abe a9eb 06be a45a da3d b12e 64bb
0.03969332 -0.017597623 0.14063537 -0.16194406 -0.10897046 0.086069666 0.11483054 -0.07619007
0.18015273 -0.025915556 0.13321123 -0.15112068 0.14962608 -0.0073905517 0.19514927 0.12527244
0.039436955 0.13605428 0.12767248 -0.048735287 0.14068559 0.113756545 -0.010060279 0.05994485
-0.0102289785 -0.13733593 0.11497998 -0.17400865 0.0051793694 0.048179124 0.059769224 0.11428864
0.09111333 -0.050372705 -0.045766037 0.037475098 -0.14045802 -0.14545606 -0.13292217 0.072475344
-0.15127134 -0.0927835 -0.13005804 0.08673153 0.11936047 -0.078683294 -0.006143472 0.10970631
-0.043366387 0.13595383 0.08555444 -0.14445907 -0.024998471 0.14927734 -0.10269924 0.1390543
0.0757096 -0.05065714 -0.0018515575 0.149507 -0.034899663 -0.13830838 0.05562827 -0.03640892
0.08043724 -0.025295159 -0.12283921 0.120598555 0.07264675 -0.1978783 -0.05167679 0.07058962
0.026741607 0.16134858 -0.12010751 -0.1046121 -0.073790506 0.038816422 0.16397777 -0.047754277
-0.044028956 0.015717966 0.15491946 -0.049928036 -0.0012904453 -0.074557625 -0.1086326 -0.16014135
0.031088151 0.15531811 -0.08484288 0.11899961 0.13180305 0.081859 0.12856379 -0.01247712
0.15653257 -0.18725275 -0.016134417 0.019967493 -0.047472272 0.101057805 -0.117103375 0.16887595
-0.08618172 0.12829956 0.008299941 0.1569799 -0.15790045 -0.057264324 -0.020387629 0.018051613
0.013493047 -0.13935284 -0.09854856 -0.052381266 -0.09512599 -0.090332665 -0.038119312 0.09631621
0.0013532742 0.05294997 0.07850684 0.16206078 0.13525836 -0.093663424 -0.16666299 0.11194369
-0.013378579 -0.1663571 0.034357633 0.08733662 0.15269268 0.02674471 -0.054460652 -0.17137735
-0.0841475 0.0671003 -0.09252918 -0.07631696 0.056283563 -0.028059546 -0.08486107 0.124484666
-0.0014483717 0.07482694 0.0145877255 0.13840313 -0.10921646 0.038613055 -0.1711432 0.036652047
-0.09836295 0.005185103 0.08018606 -0.07712358 0.07240281 0.007019779 0.04378062 -0.054085206
-0.1657404 0.15969217 0.16126476 0.059886523 -0.15118279 -0.02706503 0.11725621 0.0027326138
-0.06640035 0.0138966795 -0.056218185 0.13106446 0.15580982 0.01908177 0.18502522 0.088596515
0.08692671 0.028559668 0.028388405 -0.1433926 -0.03328741 0.13582523 0.16510345 -0.095386215
-0.07460318 -0.05132177 0.084405504 -0.045249883 -0.021270543 -0.017502982 0.060093153 -0.14516827
-0.030844595 -0.11932144 0.07439524 0.18000677 -0.13349153 0.0024129013 0.03296707 0.18014956
-0.16693771 0.033369135 -0.02775032 -0.17771578 -0.040077392 0.099153966 -0.16933712 -0.00034267388
-0.024095526 0.047872618 0.012135498 -0.13395493 0.09020731 -0.0067075533 -0.18738806 -0.05453067
0.113173105 0.08063184 0.06614526 0.14832279 0.0954405 0.028697588 0.15581477 0.0077242097
-0.20148101 0.041963194 0.11485777 -0.1592632 0.1401768 0.0048440504 -0.016911354 -0.029196532
-0.1426532 0.05189696 0.032326385 -0.10247174 -0.12635307 0.10565329 -0.1004983 -0.026387861
0.06820665 -0.13730724 -0.06647083 -0.035506435 -0.044609163 -0.15141773 -0.09251307 0.0026443545
-0.07368275 -0.06108126 -0.12319038 -0.043893028 -0.16694617 -0.13175835 0.106618196 -0.003481787

ode_net.grad_module.2.bias f4 [32]
00000000: 30b1 cdbd c5bf e33d 071d 433d e929 99ba
00000010: 9abc ca3d 97c8 3f3e a0b4 993d 9cfc 2dbe
00000020: c09e 313c cd40 18be 12f0 d43c 666f c6bc
00000030: 8bf2 0e3e 62fe fdbd 74dc 1ebe c250 87bd
00000040: 9df0 e53d a11d e93b 93ee 09be 59b3 5abd
00000050: 1c42 363d 759c 8dbd 181a 563c 6bb6 cb3c
00000060: 3956 25be 8bb8 053e 2e2c c4bd 0de1 e7bd
00000070: 563f 8f3d a601 d13d bc0b d3bc 6403 3b3c
-0.100435615 0.111205615 0.047635105 -0.0011685464 0.09899254 0.18728863 0.075051546 -0.16990894
0.010841072 -0.1486847 0.02599338 -0.02422304 0.1395971 -0.12402035 -0.15513784 -0.066072
0.11227534 0.0071141277 -0.13469915 -0.053393696 0.04449664 -0.069146074 0.013067745 0.024867257
-0.16146173 0.13058679 -0.09578739 -0.11322222 0.06994502 0.102053925 -0.025762431 0.011414383

exp_avg f4 [32, 7]
00000000: 21e0 1dbc 0603 80bb 7272 4d3b e576 88bb
00000010: 91bc 2abc 7036 c53b b436 cb39 111b 293a
00000020: a983 d5ba 0bd5 62bb d2a1 b13b 03e6 363a
00000030: ddf9 bebb 3804 08ba 3a70 10bc 7863 0ebc
00000040: 1d6a 31ba 904a e6bb e15c f6bb c5f3 07ba
00000050: 8280 14b9 0b7d 9cbb 37fd 8eba c870 5b3b
00000060: d841 89bb 4431 96bb ee9f 8a3b efbf 883b
00000070: 489b 173c fe72 25bb 9fbd 64bc 35b9 4a3c
00000080: 57a7 223c ed03 84bc be65 3fbb f5ef d3bb
00000090: f569 eaba f64c b23b b639 d3bb 789d 87bb
000000a0: efe7 c93b c51c e73a 1c83 5fbb 2f2d daba
000000b0: 4222 a73a 2e1b b1bb 524c 9dbb 212d 083c
000000c0: dc33 76bb 5ecd 18ba 25af 1bbb 80f3 4dbb
000000d0: 1aec 8fba 23cb 9b39 17e6 29bc a790 1f3b
000000e0: d168 c5bb f5a6 d7bb b092 33ba c682 76bb
000000f0: 103e e2bb 38c6 8039 b2fd 5d3b 4039 abb9
00000100: dfed 253b 6d39 073b cfd7 70ba 8435 a0ba
00000110: cfc1 c03b 82b8 b1ba 7a26 593b d522 f6ba
00000120: 003a 1ebb c0e7 d13a c9d4 e13b 7a44 2aba
00000130: ebf8 74bb f105 313c 918c 2e3c 1266 52bb
00000140: 88d3 383c 5a05 933b 6ae5 27bb 57b8 69bb
00000150: dabd 083c 29fc 383b a26b 1dbc edeb 163c
00000160: 7d11 c63b 327d 16bc 43e3 d3ba efa1 27bb
00000170: f4ce 56bb 2e23 abbb df06 183b 1d4b e8bb
00000180: 26d6 51bb 1183 973a 412b 8d3a 960a 31bb
00000190: acb8 b2ba e7e4 2db9 5417 1e3a 4061 0f3b
000001a0: a086 f43a 222d 4f3b 4caf a23b e5d7 85ba
000001b0: fe02 a13b 2b84 80ba 9381 123b f258 0939
000001c0: 5047 203b 3098 833b 04bf 6cb9 9452 9a39
000001d0: c20d 7a39 2e30 efba b74e 11bb 0f5d ec3b
000001e0: 1f34 f93b 638c 483a 8b84 423b e50f f53b
000001f0: c459 bd3a 2139 20bb 77ee 143c ff70 f63b
00000200: 06ae 833a 595e 0b3c 492f a63b e257 9b3b
00000210: 012c 8ebb f8bb 01bc 427d aa3a 35b6 073c
00000220: 37e1 d8bb 7cbd 05bc ee93 823b fa83 213a
00000230: 16ef c93b 5a3d f43b 450c 6639 4dff 8c3b
00000240: 8dc2 a93b 8751 f5b9 81e5 07bc 3d08 463b
00000250: 94c3 a33a 883e 0c39 7d3e ddb9 3e7c 49ba
00000260: 86db ff3a a3c8 cf3a 5921 63bb 58c2 0ebb
00000270: c35c fb38 a294 fcba 124e 10bb 4a03 843a
00000280: 930e 30bb 1066 90bb 95bd 87ba 72f0 45b9
00000290: bba2 da3a 0498 edbb 76d6 423b d7b9 593b
000002a0: 8a71 cc3a b97b f63a 44d0 4f3a c398 35bb
000002b0: 2a74 3c3a 452f 033a a7bd 4338 f9ad 06bb
000002c0: 9541 f8ba 03d1 0939 3397 a1bb a38f 48bb
000002d0: de1e f53b ad6b 43ba 107d 34ba a60e 5dbb
000002e0: 3747 6abb bac9 ccbb bf05 e93a dd39 83bb
000002f0: d2ab 533b 0d46 813a 2d0f 1cbb df33 b7ba
00000300: 783d 583b db12 d63a 4838 40b9 f65a d539
00000310: 59da 583b 2bc6 d93b 791b 9e3a 682a 413b
00000320: ca18 753a d806 3a3b ea21 893a 4e88 bcba
00000330: 4bcb 82bb 438f 8eba 403f e6bb 170a 8dbb
00000340: d05e e339 7932 5d3b 430b 56bb 18b3 5dbb
00000350: 24fc bdba 1687 a03a da8b cebb f923 0b3b
00000360: 3b1d 8638 d312 67bb 882b b9bb d6cc 483a
00000370: 38dd d4ba ea02 9dbb 4c5d b634 54e6 a23b
-0.009635956 -0.0039066104 0.0031348732 -0.004164564 -0.010420934 0.0060184523 0.00038759934 0.00064508716
-0.0016289848 -0.0034611847 0.005420902 0.00069770234 -0.005828126 -0.0005188617 -0.008815819 -0.008690707
-0.0006767826 -0.0070279315 -0.0075183962 -0.0005186166 -0.00014162253 -0.0047756485 -0.0010909204 0.003348397
-0.0041887574 -0.0045835096 0.004230491 0.004173271 0.0092533305 -0.0025245543 -0.013961225 0.012373258
0.009927592 -0.016115153 -0.002920493 -0.006467814 -0.0017884361 0.0054413034 -0.0064460887 -0.004138645
0.006161682 0.0017632475 -0.0034105247 -0.0016645546 0.0012751298 -0.0054048514 -0.004800358 0.008311541
-0.0037567532 -0.0005828942 -0.0023755517 -0.0031425655 -0.0010980398 0.00029715252 -0.010369799 0.0024347694
-0.006024458 -0.006581182 -0.0006850166 -0.0037614568 -0.006904371 0.00024561747 0.0033873138 -0.00032658316
0.0025318784 0.0020633594 -0.00091874314 -0.001222298 0.005882479 -0.0013559016 0.0033134506 -0.0018778691
-0.0024143457 0.0016014501 0.006891821 -0.0006495189 -0.0037379812 0.010804639 0.010653631 -0.0032104296
0.011280902 0.004486722 -0.002561892 -0.0035662854 0.008346045 0.002822647 -0.009608181 0.0092115225
0.0060445652 -0.009185122 -0.0016165752 -0.0025578698 -0.0032777162 -0.0052226996 0.0023197455 -0.0070890323
-0.0032018512 0.0011559447 0.0010770337 -0.0027014366 -0.0013635359 -0.00016583838 0.0006030698 0.0021878034
0.0018655844 0.0031612595 0.0049647447 -0.0010211436 0.004913687 -0.0009805014 0.0022355064 0.00013098473
0.0024456568 0.004015945 -0.00022577873 0.00029434694 0.00023846983 -0.0018248612 -0.0022172162 0.007213242
0.0076050903 0.0007650314 0.0029681053 0.0074787014 0.0014446308 -0.0024448114 0.009090058 0.0075207944
0.001004637 0.008506381 0.005071555 0.004740701 -0.004338742 -0.00791835 0.00130073 0.008283188
-0.0066186446 -0.008162852 0.0039849197 0.00061613286 0.0061625345 0.0074536027 0.0002193908 0.004302895
0.005180663 -0.00046790784 -0.008294464 0.0030217313 0.00124942 0.00013374735 -0.00042198962 -0.0007686055
0.0019520379 0.0015852641 -0.0034657328 -0.0021783318 0.00011985891 -0.001927037 -0.002201919 0.0010071781
-0.0026864156 -0.004406698 -0.0010356182 -0.00018876957 0.0016680578 -0.0072507877 0.002972988 0.0033222341
0.0015597802 0.0018805183 0.00079274573 -0.0027709461 0.00071889407 0.0005004297 4.666825e-05 -0.0020550473
-0.0018940443 0.00013143201 -0.0049313544 -0.0030603192 0.0074804863 -0.00074547046 -0.0006885091 -0.0033730655
-0.0035748014 -0.0062496336 0.0017778202 -0.0040047006 0.0032298458 0.0009862796 -0.0023812756 -0.0013977251
0.0032995623 0.0016332524 -0.00018331513 0.00040694297 0.003308913 0.006645938 0.0012062631 0.002947474
0.0009349702 0.0028385427 0.0010462378 -0.0014383884 -0.0039915196 -0.0010876436 -0.007026583 -0.0043041813
0.00043367455 0.0033752008 -0.003266052 -0.0033828672 -0.00144947 0.001224729 -0.0063032927 0.0021231158
6.3950625e-05 -0.0035259023 -0.0056509413 0.00076599175 -0.0016240245 -0.004791607 3.3968024e-07 0.004971305

exp_avg_sq f4 [32, 7]
00000000: 47eb bf3a 6741 ba3a c5e2 393a 68ed a23a
00000010: 254c f83a 908a 153b 8015 cc3a be2d a439
00000020: 9dc2 a139 47c6 8b39 3fab b439 ff58 cb39
00000030: 1e18 da39 533b a439 af39 923a c126 303a
00000040: a1cc 273a 9482 733a 4923 aa3a 1bc1 2e3a
00000050: c33c 893a 1f73 a539 a506 4639 4e5b 2939
00000060: 9349 9d39 ed85 ff39 a31e 5339 4a68 8139
00000070: 4def bc3b 6fc0 9a3b 710e 5b3b 964a 993b
00000080: 608e dc3b ca02 c83b 0c23 da3b ad1b db3a
00000090: 7969 993a 3a62 893a 44c7 aa3a d493 083b
000000a0: 661b b43a 3d4f d03a 9347 723a c2e9 4d3a
000000b0: 95bf 3e3a 057a 523a 8154 833a d142 583a
000000c0: 977d 9f3a e6a5 b93a 273b 823a 5d5f 1b3a
000000d0: b9f8 a93a 1fa4 c93a 3bd2 af3a b7b8 c53a
000000e0: d891 773a 6d4a 2a3a aa4f cc39 db9a 643a
000000f0: 0ce9 8d3a 982e 553a bb3c 943a 5762 0d3a
00000100: c254 d239 8c5d b739 910b f639 8026 1d3a
00000110: 9184 263a 7443 543a 61f8 5c3a 8543 4f3a
00000120: aed4 fc39 9626 443a e523 963a 9656 be3a
00000130: 049f 783a e0c7 3a3b 1061 d53a 737f 013b
00000140: 5f45 0a3b a4a0 5a3b 2267 b33a 4067 043b
00000150: 0ad4 ab3a cd6f 863a d7eb 813a 32df 9d3a
00000160: 4a67 b83a 4b7c 933a 96a6 a13a 0edd 1c3a
00000170: eeb6 cd39 7dd5 a939 221f 323a 8c75 373a
00000180: b444 4c3a 4566 1c3a 58d7 3a39 dcb4 3939
00000190: de86 1739 5269 6539 9357 8239 72e7 8239
000001a0: e3ef 4939 a2c0 9d3a 26ae 423a 43ad 4a3a
000001b0: e61b 6c3a 6a9d ab3a ba6a 413a e1f5 7f3a
000001c0: 06c9 243a e1e7 bb39 5baf c939 e50d 173a
000001d0: 1dac 443a 6f74 0f3a 0359 213a 044c 963a
000001e0: 5353 6d3a 0aef 003a b026 893a dd90 b53a
000001f0: 222c 863a 7734 a13a af78 103b 7b21 ab3a
00000200: ce1f 833a 30c6 f13a 14bb 2b3b 1e3d d73a
00000210: 734e 013b 565f 603a 6387 333a d151 1b3a
00000220: 1ff5 623a 0517 903a bf48 9d3a 431e 773a
00000230: f2c4 873a 407e 1f3a 3738 243a 84fc 733a
00000240: 9c23 9b3a efec 603a 5f7d 943a a1fd 5b39
00000250: 3709 f538 e06d dc38 ae3f 5939 549d a939
00000260: 828e 2b39 50f4 5f39 efa7 7d39 7fa4 8c39
00000270: 0c41 7b39 7a76 8339 18b5 ac39 fc96 9439
00000280: a825 7c39 0892 f739 0f53 f639 2a42 9139
00000290: bdde e139 1cf1 2b3a 855a 5a3a 8061 153a
000002a0: 784a 2839 60b7 2739 a212 1139 fc10 6439
000002b0: b8df 7d39 b1d0 5e39 ca6a 6e39 4fa2 063a
000002c0: 7656 043a d12c a039 81fa 243a d93d 263a
000002d0: 47fe 473a 43f0 243a 8e1c 0e3b 3165 ed3a
000002e0: 2414 813a 951e 053b edcb 283b b2fc 373b
000002f0: 0590 043b f0fb 3a3a 961b 053a 2645 c239
00000300: 278f 293a 109f 693a 54c8 4a3a 9656 3e3a
00000310: ef5c 933a 496d 603a 6ebd 103a 642d 813a
00000320: db7a a93a 72cc 823a b440 893a d960 b13a
00000330: e597 723a 130f 2b3a 54f0 993a 6135 db3a
00000340: 9c94 883a 1c98 be3a 4f6e 4c3a 745d 353a
00000350: 650f fb39 fdde 293a 6a40 683a c7b4 a33a
00000360: 0586 1a3a b5ef 443a a21a 303a 1efa f239
00000370: 3cac 553a bcb4 653a 2d5e 393a 71c0 943a
0.0014642262 0.0014210165 0.0007090981 0.0012430372 0.0018943591 0.0022818185 0.0015570372 0.00031314598
0.0003085331 0.00026659874 0.00034459864 0.00038785485 0.0004159817 0.00031324718 0.0011156107 0.0006719642
0.00064010365 0.0009289172 0.0012980486 0.0006666348 0.0010470379 0.00031557024 0.00018885227 0.0001615111
0.0003000019 0.00048737173 0.00020133941 0.000246825 0.0057658316 0.004722647 0.0033425356 0.004678081
0.0067308396 0.006103848 0.00665701 0.0016716622 0.0011704407 0.0010481544 0.0013029356 0.0020840066
0.0013741076 0.0015892755 0.0009242233 0.0007854962 0.0007276473 0.00080290466 0.0010019691 0.00082497025
0.0012168166 0.0014163821 0.0009935842 0.0005926991 0.0012967802 0.0015383995 0.0013414094 0.0015084957
0.00094440347 0.00064960757 0.00038969266 0.0008720585 0.00108269 0.0008132248 0.0011309603 0.0005393377
0.0004011747 0.00034974178 0.00046929394 0.00059948117 0.00063521514 0.00080972095 0.00084293453 0.00079064845
0.00048223644 0.00074825564 0.0011454789 0.0014521654 0.00094841444 0.0028500482 0.0016279537 0.0019759804
0.0021098477 0.003335991 0.0013687352 0.0020203143 0.0013109457 0.0010256708 0.0009912205 0.0012044667
0.0014068868 0.0011252252 0.0012332972 0.00059838674 0.0003923694 0.00032393253 0.00067948 0.0006998412
0.000779222 0.0005966167 0.00017818564 0.0001771035 0.00014450724 0.00021878377 0.0002486078 0.00024967972
0.00019258219 0.0012035558 0.0007426463 0.00077315065 0.0009006843 0.0013093178 0.0007378269 0.0009764117
0.00062860583 0.00035840183 0.00038468358 0.00057622633 0.00075024535 0.0005472367 0.00061549264 0.0011466746
0.0009053249 0.0004918432 0.00104638 0.0013852377 0.0010236541 0.0012298961 0.002204459 0.0013056243
0.0010003985 0.0018445905 0.0026204037 0.0016421413 0.0019730597 0.0008559128 0.00068484823 0.00059249724
0.0008657742 0.0010993188 0.001199983 0.00094268116 0.0010358377 0.00060841814 0.000626448 0.0009307342
0.0011836174 0.0008580228 0.0011328867 0.00020979952 0.00011684227 0.00010510883 0.00020718455 0.0003235141
0.00016360919 0.00021357951 0.0002419052 0.0002682544 0.00023961457 0.0002507454 0.00032941322 0.00028341252
0.00024046621 0.00047220313 0.0004698266 0.0002770585 0.00043081297 0.00065590604 0.00083295285 0.00056984276
0.0001604947 0.00015994674 0.00013835219 0.00021750102 0.00024211302 0.00021249313 0.00022737231 0.000513588
0.0005048284 0.0003055097 0.00062934315 0.00063416135 0.0007629138 0.00062919053 0.00216845 0.0018111822
0.0009847921 0.0020312418 0.0025756315 0.0028074202 0.0020227444 0.00071328785 0.0005077658 0.00037054083
0.000646817 0.0008911947 0.00077355397 0.0007260827 0.0011242906 0.00085612066 0.0005521391 0.0009855446
0.001293029 0.0009979142 0.0010471554 0.0013532891 0.00092542014 0.00065253786 0.0011744597 0.0016724282
0.0010420266 0.0014541182 0.00077984197 0.00069185277 0.0004788592 0.0006480066 0.0008859696 0.0012489789
0.0005894604 0.0007512526 0.0006717836 0.0004634419 0.000815097 0.0008762588 0.0007071223 0.0011348856
