ckpt/rnn_RK4_h32_dis10/best.pth (torch_old, 61180 bytes, 30 tensors)

rnn.weight_ih_l0 f4 [32, 7]
00000000: 4b86 9cbd 5298 d13b e51b e73d c2c0 84bd
00000010: 6f48 bcbd cc20 1d3e b4d0 39be 95a5 5ebd
00000020: aac9 af3c 6b53 5bbe d583 443d 3b99 f3bd
00000030: 6352 b3bc 82ab 1abd 5a23 ebbd 1d5e 463d
00000040: 3ddf bdbd 16bc e53d 6ce8 d43b 7996 643e
00000050: 07a6 f0bd 635f b43d af53 87bd 6daa c03d
00000060: a580 653d a44b 09be 478a e03d d869 69bd
00000070: ea7c 59bd 767a 6ebd 07bd b5bd a162 263d
00000080: f088 2dbd 54fb c7bd e14c 233e 7866 593d
00000090: 2474 1dbe 90b4 f9bd 3ea7 023e 3f43 80bc
000000a0: 9a6b 4f3e e4e7 05be dec0 a53d ebb0 1b3d
000000b0: 07ba a33d 9cc4 503e e1ef d6bb 5241 c8bd
000000c0: edf3 edbc bccd f73d bca8 ea3c bf45 3d3d
000000d0: cae1 103c 57a3 9e3d 7a37 363e 04cf 3a3e
000000e0: ab86 793d 224a 99bc 2356 043e 57a9 9a3b
000000f0: dff9 ec3d f6ef 233d caca 283c 8253 0b3e
00000100: f97d 5e3e 0a67 babd 5576 d53d 1d9f ec3d
00000110: d5e4 97bd 9a3d eb3d 5040 453d e789 09be
00000120: 9d7c 8cbd 149b 2a3e b902 5c3d 21d6 ca3c
00000130: e393 c83d 371a f43c 9b1f 26bd 08bb d8bd
00000140: 5b0e 003e 859f 88bc 1602 2abe a059 013e
00000150: 77ac 8ebd 661b 19be cd5b 89bd 3751 84bc
00000160: 1741 2cbe c208 ccbd df07 663e 45dc c13c
00000170: a14b dc3d 8155 8ebd b258 36be ebdb dc3d
00000180: 8645 a4bd 8214 64be 7b12 8cbc 6bbf d13c
00000190: cea7 2dbd 9a65 f23b 9d5f a83d 307d 45bd
000001a0: 5fa3 0e3e be4a 053e a9eb 15be e6be c03d
000001b0: 9538 cf3d 9981 ddbd 034c a2bd c7bb a8bd
000001c0: 491a c63c b267 02be 52e6 f93d 693c b93d
000001d0: 4850 003e 82a1 41be 6eed ee3c 6db2 1e3e
000001e0: 1e12 f5ba 22d7 40bb 1743 e8bc 19dc 0b3e
000001f0: 2dc4 8abd d6d7 a73d 10c8 ec3d 4dfe 813d
00000200: fcef 12be 47e5 063e 3391 003e d559 0ebd
00000210: ebee cfbd 9e2d 2f3e e84f 1cbe ae04 8e3d
00000220: 417a d4bd 3b67 aabd 1162 803d 6d7a 70be
00000230: 1c65 a33d f018 bd3d ae7d 7ebd b898 153e
00000240: 864c fc3d 9a98 41be 074a 75ba dbd9 4bbd
00000250: 4387 163e a4df fc3d a412 703c 081c c1bd
00000260: 4341 ac3d 0030 c93d 3b5b b5bd 05bc 63bd
00000270: 367e 673d fada ff3d 3b73 893a 73c8 0b3d
00000280: bbbd d6bd 6d30 22be 7b57 babd ebc9 063e
00000290: 82a6 903d d0bd c2bc 95f1 6dbd aaac d83d
000002a0: fc40 1b3e 3051 57bd 109d f4bd ecb8 53ba
000002b0: 8600 9e3d cb35 39bd c36b e13d ef0d b93c
000002c0: 01e2 953d 6af4 843c cd18 a23d b8c3 b83d
000002d0: 5632 dc3d fc39 86bc 6846 193e f653 813b
000002e0: fedc 0a3e 5a46 283c 1e71 713d 9866 3a3e
000002f0: aeb9 733e b62d 1b3e c3ab 40be 456a 9dbc
00000300: 0312 debd 76c8 db3d 85df 4ebc 8fa0 36be
00000310: a748 2cbe c89d 593d c657 aa3b 65e5 04be
00000320: e442 6fbc 594b 39bd c4fc 9cbd f41f 053d
00000330: de60 ac3d fbcb cb3d 0bcb 263e 769c 4abd
00000340: e163 443e 5600 833d ce83 1b3e f635 0dbd
00000350: f374 de3d d9b8 f6bc 5487 4fbd dfe0 2c3b
00000360: 343f 45be 3b7a e7bd e4fa ccbd ecda 103e
00000370: 1a8a 003d 2fbb 913d 6412 b63d 30b1 27be
-0.07642802 0.006396332 0.11284617 -0.06482078 -0.09193503 0.15344542 -0.1814602 -0.05435713
0.021458466 -0.2141854 0.047977287 -0.11894461 -0.021889871 -0.03776122 -0.11481352 0.048429597
-0.09271095 0.11217515 0.0064974334 0.22323026 -0.11750417 0.08807256 -0.06607758 0.09407506
0.056030888 -0.13407761 0.10963874 -0.056985706 -0.053097643 -0.058222257 -0.08873945 0.040621404
-0.042366922 -0.09764734 0.15947296 0.053076237 -0.15376335 -0.12192643 0.1275911 -0.015657065
0.2025589 -0.1307674 0.08093427 0.03801052 0.07994466 0.203875 -0.0065593575 -0.09778084
-0.029046977 0.120997876 0.028644912 0.046209093 0.008842895 0.07745998 0.177946 0.18243033
0.060919445 -0.018712107 0.12923484 0.004719894 0.11571097 0.040023766 0.010302255 0.13606074
0.21727742 -0.091016844 0.10422961 0.11553786 -0.07416693 0.11486359 0.048157036 -0.13431512
-0.068597056 0.1666072 0.053713534 0.024760308 0.09793832 0.029797656 -0.040557485 -0.105825484
0.12505476 -0.016677627 -0.16602358 0.12631845 -0.06966489 -0.14951858 -0.06706963 -0.016152008
-0.16821705 -0.09962608 0.2246394 0.023664603 0.107566126 -0.06949902 -0.17807272 0.107841335
-0.08021073 -0.22273448 -0.017098656 0.02560397 -0.04239636 0.0073973658 0.08221362 -0.04821509
0.13929509 0.13016793 -0.14640678 0.09411411 0.10118214 -0.108157344 -0.07924654 -0.08238941
0.024182456 -0.12734869 0.12202133 0.090447254 0.12530625 -0.18909267 0.02916595 0.15497752
-0.0018697416 -0.0029425104 -0.028352303 0.1365818 -0.06775699 0.08195464 0.115615964 0.06347332
-0.1434936 0.131734 0.12555389 -0.03475364 -0.10152992 0.17107245 -0.15264857 0.06934486
-0.103748806 -0.08320471 0.06268705 -0.23484202 0.079782695 0.09233272 -0.062131576 0.14609039
0.12319283 -0.18905869 -0.0009357039 -0.04976831 0.14700036 0.123473436 0.014652882 -0.09429175
0.08410885 0.098236084 -0.088552915 -0.05559923 0.05651685 0.12492938 0.0010486612 0.03412671
-0.10485407 -0.15838785 -0.09098717 0.13162963 0.07063009 -0.02377215 -0.05809172 0.10579808
0.15161508 -0.05256766 -0.1194402 -0.0008076567 0.077149436 -0.045217317 0.11006882 0.022589652
0.073184974 0.016229827 0.079148866 0.090217054 0.10751788 -0.016385071 0.14968264 0.0039467765
0.13560864 0.010270679 0.058945768 0.18203199 0.238013 0.15154156 -0.18815522 -0.019215712
-0.10843279 0.10731594 -0.012626533 -0.17834686 -0.1682459 0.053128988 0.0051984517 -0.12978132
-0.01460335 -0.045237873 -0.07665399 0.032501176 0.084169134 0.099510156 0.16288392 -0.04946562
0.19178726 0.063965484 0.15186998 -0.03447529 0.1086215 -0.03011744 -0.05066617 0.002637915
-0.19262391 -0.113026105 -0.10008791 0.14146012 0.031381704 0.071157806 0.088902265 -0.16376185

rnn.weight_hh_l0 f4 [32, 32]
00000000: 581d cbbd 72e5 0c3e 7d6e 2cbe 7ef3 e93d
00000010: 1ade acbd 1a83 063e 56d5 f2bd dc1b ef3d
00000020: 74b3 1bbd 93b8 ad3d 999b 8c3a f8c0 423d
00000030: b215 f73d ff5f ccbd 505b 97bc 7cf4 53bc
00000040: e25c b8bd 161e 6abd e02c 473d 7fac 8fbd
00000050: 202b 7abc 493a 22be ce0d 123e 5cba 643b
00000060: 6ca9 4bbe f1ed f43d ed1e 453d 9f5a b73d
00000070: c26f 363e b564 d83d 8825 213d d9a4 0dbe
00000080: bd1f d3bc 7ab2 88bd 70c9 4cbd 9a34 1abe
00000090: 4c2e 1ebd 65a8 fd3d bffe ddbc d904 45be
000000a0: 832c e6bd 0f48 3c3e dd80 adbd 6d3a 853d
000000b0: d2d6 db3d c1be 783e 5ef3 34bd 6913 3f3d
000000c0: abe5 db3d 80c3 39bc 5765 833d e2a9 1a3e
000000d0: 7984 1f3e a6ab d7bd 3728 7bbd 88d1 4ebe
000000e0: bdf5 1fbe 82f6 1a3e 75e9 03be 7a7d 0c3e
000000f0: e612 a53d 1ecd 26be 55ab f63d c1be de3d
00000100: de66 47bd 2b0e 443d 8549 163d fab3 203e
00000110: 0cdf 223e 46f8 98bd 63e1 eb3d 745f 2fbd
00000120: ac7e b0bd 65bf 643d 7994 0bbd 5bad fabd
00000130: 3ec9 ff3d 85f6 963d ed9a c03d 50dc 44be
00000140: fc54 10be 0fba 683c 85a6 49be 9ffa e1bd
00000150: 95d3 37bd e58d e43c ae50 b6bd 4918 333e
00000160: cb01 e9bb 2911 59bd bb9b 06be c042 1d3e
00000170: 6dad 92bd ae74 db3d 00cb 043e 0912 cebc
00000180: 8e74 223d c723 72be 7371 ebbd 6728 a4bc
00000190: 17bc c6bd e0ed 6cbe 2060 ba3d 4552 413e
000001a0: 405c 193e ba1d d63d 5065 02bd fcef dabd
000001b0: 032a bfbd e2a9 8ebd 1890 d13d da61 e6bd
000001c0: 39aa 17bd 48bd 55bc eafb e8bd 4919 80be
000001d0: d6de 6a3d e62b f9bc 1568 87be 3e3a de3d
000001e0: 6c44 813d 1607 ecbd f451 a83d 8c6f 193d
000001f0: bfb3 24be b88e 513e 4da8 1ebe 2afc 3f3e
00000200: 05a6 84bd 2c52 643c 9ca4 b8bd 7ecf 9ebd
00000210: 4531 873d f93e 58be a2f8 90bd dc91 8f3d
00000220: d6ba 0a3e b6b2 06be 38ef f73d 857b 273e
00000230: 47f9 9bbd 7790 0b3e 25fd f1bd 2eee 913d
00000240: a747 bfbd b010 8bbd 1ef3 9dbd 9d99 d3bd
00000250: 0cde b93d b378 2bbe 4b85 813c b213 dabd
00000260: 148e 043e c79b 2cbd ba81 0c3e 1bda 28be
00000270: 8ab3 b0bd d76f 023e 8ccd b4bd 3711 e2bd
00000280: 69e1 383e e047 053e 42d9 93bd 98da 0f3e
00000290: a9b7 22be c575 d33d 7395 25be 3ebe 4cbc
000002a0: b0f4 0ebe e3e0 d53c ccae fa3c 9162 1dbe
000002b0: 3623 24be a83e 38be 3dd2 2c3d 7ec8 0f3d
000002c0: 94d4 83bd 4cf7 083e e213 cbbd c3fe 1dbe
000002d0: b273 a43d 2668 cdbd 39d9 00be ce5a 31be
000002e0: 293f f1bd 096f e8bd fee5 423d 101c a3bd
000002f0: 1d36 ebbc cf85 10be 1f22 edbd 28ec 12be
00000300: 471d 7e3d 9142 83bd dd98 7dbd 2219 3e3e
00000310: 32dd 15be b880 ae3d 4f61 1e3e 624a 9fbd
00000320: e3ed 933d bea0 9c3d 88d7 ff3d 31de 36bd
00000330: 600a e0bd 4099 fdbc aea0 2cbe 444d e83d
00000340: 67ae c5bd f345 34be 9ecd c7bd 5876 c7bd
00000350: 39f8 e33d d302 ec3b 8872 483e a62b 773d
00000360: 46b0 4fbe f197 523d 8875 fd3c b427 abbd
00000370: 943c 883d 760c 12be 534b 843d 5488 75bc
00000380: dabf 19be bd11 33bc 944b 233e 7a2a 75bd
00000390: 0878 263e 1067 d9bd e19a 393d e1ed 06be
000003a0: 72a7 bd3d 925d 52be 4dbb 353e cddc a73c
000003b0: 824b 1a3e bfe2 353e 7345 48be 1bd3 00be
000003c0: 8946 183e 596e 2ebe 2a4f 28be 2d08 343d
000003d0: 706b f6bd 1a2e 073e b6e7 5e3e 11aa b23d
000003e0: ba0c edbd 940e a9bd eba2 853d 4e73 153e
000003f0: 0b36 a9bd 0f14 9f3d d3ce 89bd 167e 06be
-0.09917706 0.13759401 -0.16839023 0.114233956 -0.084408 0.13135949 -0.11857097 0.11675236
-0.038012937 0.0848247 0.0010727524 0.04754731 0.12064685 -0.09979247 -0.018476158 -0.012936708
-0.09002091 -0.0571576 0.04862678 -0.07015323 -0.015269071 -0.15842547 0.14263079 0.0034901118
-0.19888848 0.11959446 0.048125196 0.089528315 0.1781607 0.10566083 0.039342433 -0.13832416
-0.02577197 -0.06674667 -0.049996793 -0.15059128 -0.03861837 0.12385634 -0.027099011 -0.1924013
-0.11238959 0.18386863 -0.08471844 0.065052845 0.10734333 0.24291517 -0.044177406 0.04664937
0.10737165 -0.011338115 0.064158134 0.15103868 0.15577878 -0.10530786 -0.06131765 -0.20197117
-0.15621085 0.15133098 -0.12882026 0.1371974 0.08060245 -0.16289183 0.12044398 0.10876227
-0.048682086 0.047865074 0.036691207 0.15693656 0.15905398 -0.074692294 0.115175985 -0.04281564
-0.08617911 0.05584659 -0.03407714 -0.12240096 0.12489556 0.073712386 0.0940455 -0.19224668
-0.14094919 0.014204516 -0.19692428 -0.1103413 -0.044879515 0.027899692 -0.08902107 0.17489733
-0.0071108094 -0.05299488 -0.13145344 0.15357494 -0.071619846 0.10715614 0.12968063 -0.025155084
0.039661936 -0.2364646 -0.11496248 -0.020038797 -0.09703844 -0.23137617 0.09100366 0.1887904
0.14976597 0.10454889 -0.0318349 -0.10690305 -0.09334185 -0.06965996 0.10232562 -0.112491325
-0.03702757 -0.013045616 -0.11376174 -0.2501929 0.05734142 -0.03041644 -0.26446596 0.108509526
0.063118786 -0.11524789 0.08218756 0.037459895 -0.16084193 0.20464599 -0.15493889 0.18748537
-0.06476978 0.013935607 -0.09015772 -0.0775442 0.06601194 -0.21117772 -0.07078673 0.07010242
0.13547835 -0.1315411 0.12106174 0.16355713 -0.07615905 0.13629328 -0.118158616 0.07125507
-0.093398385 -0.06790292 -0.077123865 -0.10332034 0.09075555 -0.16745262 0.01581063 -0.10648288
0.12944824 -0.04214075 0.13721362 -0.1648945 -0.08627994 0.12737976 -0.088282675 -0.1103844
0.18054737 0.130157 -0.07219173 0.1404823 -0.15890373 0.10325197 -0.16170292 -0.012496529
-0.13960528 0.02610821 0.030600928 -0.15369631 -0.16029057 -0.17992651 0.042192686 0.035103314
-0.064370304 0.13375586 -0.09915902 -0.15429215 0.0802988 -0.1002963 -0.12582864 -0.17319795
-0.11779625 -0.11349303 0.04758262 -0.07964337 -0.028712327 -0.14113544 -0.11578774 -0.14347899
0.06203964 -0.06409181 -0.06191336 0.18564275 -0.1463516 0.08520645 0.15466808 -0.07777859
0.07223108 0.07647847 0.12492281 -0.044645492 -0.10939479 -0.030956864 -0.1685817 0.11342862
-0.09652405 -0.17604809 -0.09756015 -0.09739369 0.11131329 0.007202485 0.1957494 0.06034436
-0.20282087 0.051414434 0.030939832 -0.08357182 0.06652179 -0.14262566 0.064596795 -0.014986116
-0.15014592 -0.010929522 0.159468 -0.059854962 0.16256726 -0.10615361 0.04531372 -0.13176681
0.09260453 -0.20543507 0.17747231 0.020491028 0.15067866 0.17762278 -0.19557743 -0.1258053
0.14870657 -0.17034282 -0.16436449 0.04395311 -0.12032211 0.1320118 0.21768078 0.08723844
-0.11574693 -0.08254734 0.06525215 0.14594766 -0.08262261 0.07767498 -0.06728902 -0.13134035

rnn.bias_ih_l0 f4 [32]
00000000: 52bd c63c cc37 f6bd 6852 d93d d6e0 823d
00000010: 650c 943b f72a 13bb 3eeb 813c 56cf f6bd
00000020: 6ce6 123d 1fca cdbc 537a 143e 13c4 bd3d
00000030: 5c78 22be 2001 973d e37e e7bc af8d 2a3e
00000040: 4e8a c3bd c4dc ff3d 2f8c 84bc d19d 023e
00000050: 4710 643c 8dc0 23be 5acc 1fbb 949c a8bd
00000060: 3e30 ae3d 2fc6 af3b 50b4 e63d a43d 25be
00000070: 2ea4 76bd 22f2 bd3c f916 2d3e c7a2 c93c
0.024260197 -0.12022361 0.10611421 0.0639054 0.004518079 -0.002245603 0.015859243 -0.12051265
0.03586428 -0.025120793 0.14499788 0.09265914 -0.15866226 0.073732615 -0.028258746 0.1665561
-0.09547864 0.124932796 -0.016180126 0.12755515 0.013919896 -0.15991421 -0.0024383278 -0.0823299
0.08505295 0.0053642015 0.11264861 -0.16136795 -0.060215168 0.023186747 0.16903295 0.024613751

rnn.bias_hh_l0 f4 [32]
00000000: 6ad5 21be 8f32 a73d 3f13 2fbd 2a5c 24be
00000010: d033 5e3d 2f9f 8abd a1d7 74bd e183 8cbd
00000020: 9690 41be 7009 943d 79d7 703e 10f2 07be
00000030: 127d df3d 6e5d 22bc 008a 04be 5233 74bd
00000040: 0791 403e d3b5 3c3e 0bc4 13be 5b02 f9bd
00000050: 1292 113e 3a81 043e 6dca 8bbd 6365 2cbe
00000060: 37cf 2f3e 506a 433e 62a5 adbc 92d3 8f3d
00000070: 9564 f6bd 5570 283e bf64 463c 8814 bbbd
-0.15804067 0.0816394 -0.042742964 -0.16050783 0.05424863 -0.06768643 -0.059775952 -0.068610914
-0.18902811 0.072283626 0.23519696 -0.13275933 0.10912527 -0.009909971 -0.12943268 -0.059619255
0.18805324 0.18428735 -0.14430253 -0.121586524 0.14215878 0.12939921 -0.06825719 -0.16835551
0.1716889 0.19083524 -0.021197025 0.07022776 -0.12030903 0.16449101 0.012108981 -0.091347754

fc.0.weight f4 [32, 32]
00000000: 8bbe 74be facd c93d fc0c 24be cc5d afbe
00000010: 1997 573e 62e1 873d 0759 d93d 8ae6 9dbd
00000020: e9e3 a2bc 52d7 183d ad5c 5e3d c587 ec3d
00000030: 839e d8bc 6719 b4bd 00c5 833e 1c54 2cbd
00000040: b5ef 493e 0cae 17be 0f74 26be 4579 5bbd
00000050: e488 553e 3c53 14be aa3a 30be 22b6 d7bd
00000060: 2c1a 24be 8770 f63e 6c93 543e 1b76 6f3e
00000070: e1fc b3be bbdf 79bd 82bb 423e 9b52 343e
00000080: 663e 0abe 57f2 38be 1694 61be 8778 32be
00000090: 3acd e6bb 5c1f 2a3d aadc 083e 34cd 54be
000000a0: 69cf e23e cbc3 13be 2892 3bbc 1a80 ca3b
000000b0: 66d6 0abd 14d0 073e 843c 2a3d b993 533e
000000c0: f5e6 20be 104e 4abd 512c d53e 28f4 d6bd
000000d0: 8c7e eabd e317 763e a89b 323d 7ed5 513c
000000e0: 677a 48be a22e 9dbd 4428 713e efd5 0abe
000000f0: 9e53 4dbe f2d6 1abe e47b 1abe c336 f9bd
00000100: 8d07 5dbd 7d77 b73b 1d89 053e f81e a23e
00000110: d724 24bd 31d0 793d cfcc 52bd b8d9 093e
00000120: 9b07 1d3e 9ed6 373c ce12 433e 8a4f 28be
00000130: 3a19 f0be bf82 b33d db20 9dbd fda2 48be
00000140: 7e2a a33d 4dbf 1f3e a83b 043e d284 17be
00000150: bd37 b2bd 397d ec3d 1a59 efbd 432d 47bd
00000160: ee25 1cbe 6d81 c23e 750f 77be 8799 403d
00000170: 1f7d 2dbe 400d b73e f70b c1bd 14bb 33be
00000180: 618e cf3e ec4e 983c 20c7 95be e6c1 11be
00000190: 324c d63e 1bf4 dabd 1a1a 85be 9a50 893e
000001a0: d1db 803d 4c34 843d 2cfc 023d e2fa 4f39
000001b0: 1500 273d c6db 2abe 3fe0 503d c538 bebd
000001c0: 6c49 483e e656 993d a328 ef3d 1992 12be
000001d0: 3787 3b3d 44a5 4ebd 7e60 043e 53ec 92be
000001e0: 999b 3b3d ff94 3cbe 69bb 88bd e8ff 91be
000001f0: 2930 7cbe af1b 0cbc a897 dcbd 010c a1be
00000200: 0ac9 89bd fd8b 2f3d de2c 3ebe a9d8 dd3e
00000210: ca33 823d 5429 bcbd 464b f1bd 0394 1bbe
00000220: 594c 5cbe c484 2c3c ca5e 0bbd b2cb 5a3e
00000230: eb64 163e aaa0 83bd 4570 d53b 7529 22be
00000240: 6c77 78be 14f6 923c fa16 09bd 7c4f 07be
00000250: 6134 47be e396 10be 66c9 77be 8a41 6fbd
00000260: 3fab 56be e44d d9bd 2437 acbd 8ee0 ee3d
00000270: bbf1 ddbd 7f23 a3be 8edd c8be 6248 f4bd
00000280: 7e8f fdbd 9068 a6bd 32d8 bfbd ec61 be3d
00000290: 52b5 aa3b 3cf0 b03e 4d1f a9be 3660 f4bc
000002a0: c424 2e3e 5817 c0bd dc32 243e 765e 88bd
000002b0: f3c1 9d3e 75cd eabe 4d5e 8fbd 40f5 293b
000002c0: bb13 cc3c 878f 933c df93 353e 28c5 a03e
000002d0: a899 153d d29f 3fbe 1efd 6dbd bdfd 2c3e
000002e0: 48e5 a0bc 8189 173e 42c7 cc3d 7455 593e
000002f0: 4d4c 413e 3f7c 7c3e 2347 55be a389 2ebe
00000300: 3c06 8f3d c9ef e63e 8b7d 783e 642d 873d
00000310: 1a67 0d3c f7f3 27be b84a 253e 3c2e 3e3e
00000320: 1c15 3e3e d485 433d 0036 693e 8af4 893d
00000330: a638 d03e 691e 80bd 6253 933d 2f95 55be
00000340: e388 e13d 9ad9 b2bd 5be7 2e3e b0cd d8bd
00000350: b542 9c3e 5dce 023e 55ed 32be 1db4 a33e
00000360: 76e2 76bd 554c 7dbd 9bf5 4c3d 869f 3fbd
00000370: 2d2e 21be 0b19 d8bd 72a8 50bd 3cfe d8bc
00000380: 411a b73e bb51 dfbd 55a3 59be f387 b63d
00000390: b8b7 c3bd 5494 ac3e 120d fa3d c294 62be
000003a0: 27e0 203e 41e4 d23d 2719 16be 65f7 3d3e
000003b0: 3368 b9bd 20fe 2cbe b4f0 d53e 5117 0bbe
000003c0: 1365 713e 2037 2e3e 63b4 2c3d 40ff 0f3e
000003d0: 959f cb3d 7f0f 2d3e 313c 98be 3c1e 743d
000003e0: 02dd 7e3d fa9f 11bd 84dc fdbc 8943 22be
000003f0: 5ab9 fc3d 0749 4ebe c430 bbbc 4984 313e
-0.23900811 0.0985374 -0.16020578 -0.3425125 0.21053733 0.06634785 0.10612684 -0.077099875
-0.019884067 0.03731472 0.0542876 0.115493335 -0.026442772 -0.087939076 0.25736237 -0.0420724
0.19720347 -0.14812487 -0.1625521 -0.05358245 0.20853001 -0.14484876 -0.17209879 -0.10532786
-0.16025609 0.48132727 0.20759362 0.23384897 -0.3515387 -0.06100438 0.19016841 0.17609636
-0.13500366 -0.18061195 -0.22029147 -0.1742879 -0.007043508 0.041533813 0.13365427 -0.20781404
0.44298866 -0.14430158 -0.011448421 0.0061798217 -0.033895873 0.1326297 0.04156162 0.2066182
-0.15713103 -0.049390852 0.41635373 -0.10495788 -0.11449918 0.2403255 0.043605477 0.012807248
-0.19577943 -0.0767491 0.23550516 -0.13558172 -0.20051429 -0.15121058 -0.15086323 -0.12168648
-0.05396228 0.005598961 0.13040586 0.31664252 -0.040074196 0.060989562 -0.051464852 0.1346196
0.15334933 0.011220602 0.19050142 -0.16436592 -0.46894246 0.08765172 -0.07672282 -0.19593425
0.07967089 0.15600319 0.12913382 -0.1479676 -0.087020375 0.11547322 -0.11686917 -0.04862715
-0.15248844 0.3798937 -0.2412699 0.047021415 -0.16942261 0.35752296 -0.0942611 -0.17551833
0.40538314 0.01859232 -0.29253483 -0.14234123 0.41855007 -0.10691091 -0.25996476 0.26819307
0.06291927 0.06455287 0.03197877 0.0001983452 0.040771563 -0.166854 0.050995108 -0.09288172
0.19559258 0.07487278 0.11677673 -0.14313544 0.045783248 -0.05045058 0.12927434 -0.28695926
0.045802686 -0.18416212 -0.06676371 -0.28515553 -0.24627747 -0.008551522 -0.10771114 -0.3145447
-0.06727798 0.042858113 -0.18571803 0.4332936 0.06357534 -0.0918757 -0.117819354 -0.1519318
-0.215135 0.010529701 -0.034025945 0.21366766 0.14686935 -0.064271286 0.0065136277 -0.15836127
-0.24264306 0.017939605 -0.033469178 -0.13213915 -0.19453575 -0.14120059 -0.24197921 -0.058412112
-0.20963763 -0.106105596 -0.08408955 0.11663924 -0.10837122 -0.3186302 -0.39231533 -0.119278684
-0.123808846 -0.081254125 -0.09367408 0.09296021 0.0052096033 0.34558284 -0.33031693 -0.029831033
0.17006212 -0.093794525 0.16035026 -0.06658642 0.30812034 -0.45859876 -0.07000408 0.0025933534
0.024911752 0.018012775 0.1773219 0.31400418 0.03652349 -0.1871331 -0.05810272 0.16893668
-0.01964058 0.14798547 0.09998943 0.21224004 0.18876763 0.24656771 -0.20827918 -0.17044692
0.06983611 0.45104817 0.24266641 0.066004544 0.008630538 -0.16401659 0.16141784 0.18572325
0.1856274 0.04773505 0.22774506 0.06736095 0.4066822 -0.062558 0.071936384 -0.2085769
0.11012437 -0.087329105 0.17080443 -0.10586107 0.30519643 0.12774034 -0.17473347 0.31973353
-0.060274564 -0.061840374 0.050038915 -0.046782993 -0.15740271 -0.105516516 -0.050941892 -0.026488416
0.35762218 -0.10904261 -0.21253712 0.08912649 -0.09556526 0.33706915 0.12209524 -0.22127059
0.15710507 0.10297442 -0.14658032 0.18551405 -0.090530775 -0.16893816 0.41785204 -0.13583113
0.23573713 0.17013216 0.042164218 0.14062214 0.09942547 0.16900443 -0.29733422 0.059599146
0.06222249 -0.035552956 -0.03098894 -0.15846075 0.123400405 -0.20145045 -0.022850402 0.17335619

fc.2.weight f4 [2, 32]
00000000: 8622 8cbe 1fdf 733e ca81 653e e637 0dbe
00000010: ec82 bcbe 66e0 a23d 889f 5fbe c7e1 c3bd
00000020: ddd9 3fbd d51f 6ebc 8ac3 27be 9d6a 723d
00000030: 9b73 2cbe df46 8a3e ed35 833e 0283 913e
00000040: 51fa 2bbe da2e 4ebe 35ba 99be 6f8b 433e
00000050: 4b51 ca3e d661 42be f7e9 7a3e c5f6 583d
00000060: 8cac c93d b945 5a3d 4bf8 083d 839e 3dbe
00000070: d61d a9be 970b 02be 00c6 d63d 2d6a c3bd
00000080: 75de 15be f6c4 013f 4312 d0bc 7d69 043e
00000090: ecaf e03e 4514 543e 2bf5 8d3e 1a5b 193e
000000a0: 9667 ac3e 0776 3f3e 1070 87bd 4084 c4bc
000000b0: 37f2 77be c14e 453d 8eb5 233e 42c3 9d3d
000000c0: 0e71 f7bd 3619 54be fd71 d03d 0902 2fbe
000000d0: 959a 3d3d f9a6 cdbd 992b 503e 0368 9dbd
000000e0: a37c 45be a58f 893e 06a3 8dbe 0975 ca3c
000000f0: b0c6 373e 82fd 513e 7315 e53d 3b90 20be
-0.2737009 0.23815583 0.22412792 -0.13790855 -0.36818635 0.07952957 -0.218382 -0.09564548
-0.04683863 -0.014533957 -0.16383186 0.059183706 -0.16840975 0.27007195 0.2562708 0.28420264
-0.16794707 -0.2013506 -0.30024877 0.19096158 0.39515147 -0.18982634 0.24503313 0.052969713
0.09847364 0.05328915 0.033439916 -0.18517499 -0.33030576 -0.12699734 0.10486984 -0.09541736
-0.14635642 0.50691164 -0.025399333 0.12930866 0.43884218 0.20710857 0.2772611 0.14976159
0.3367278 0.18697368 -0.06613171 -0.023988843 -0.24213491 0.04817081 0.15987226 0.07703258
-0.1208211 -0.20712742 0.101779915 -0.1709062 0.04629 -0.10041613 0.20329131 -0.07685854
-0.19285826 0.26867405 -0.2766344 0.02471401 0.17946887 0.20506862 0.11185732 -0.1568002

grad_module.0.weight f4 [32, 37]
00000000: 93ab a7bd 0909 b1bd 501e dfbd eb50 34be
00000010: 8b46 11be a31d 083e ad8d 37bd 4733 1a3e
00000020: df53 e9bd 3500 523d c2c7 103e 3ac2 5bbd
00000030: 2a6e 52bd 7bbc 9f3d 9639 f73d a2d1 78bc
00000040: 46ae 833d 3d83 eabd 1026 8e3d f0a1 c93d
00000050: 1b24 b6bd 9527 91bc b9f6 e53c a630 cfbd
00000060: f6d2 dcbc b8a1 77bd 82c6 46be 6e13 483d
00000070: a87d ed3d 9138 103c 74da 28bd 9bb6 1cbe
00000080: 3b08 07be c4af 1f3d d3a5 043e b42c e63d
00000090: 5f6f 463d ae28 43be 0c9e 513d b4f2 1a3e
000000a0: a190 e1bd d196 d13c e3b6 fdbc b8ef 0f3e
000000b0: 4cfc 763c 1c9a 91bb 9d17 183e 361c e4bd
000000c0: 4b4c 45bb 4e7d ae3b cd89 22be a9a0 8a3d
000000d0: 3a9d 87bd daac b53d 9121 7bbd 2e5a 09bd
000000e0: a345 b1bd 20f5 ff3c 4f67 273e c6bd 313e
000000f0: 1b63 3dbe fde6 1f3d 9ed2 023e b04c c63c
00000100: f068 b3bd 5348 243d 52a2 c13d aa9e 85bc
00000110: d5f7 1bbd 5b16 263e c6c0 cbbd 692c de3d
00000120: 2dad a73d 54a2 dfbb 1417 a7bd 089f 1c3e
00000130: 7659 093e 461a 81bc 1e61 fc3d 74cc fcbd
00000140: 44b3 343c 263f eebd 5141 b33d f45c 89bd
00000150: ede1 953d 9775 c4bd dbcd d13d 9746 ebbc
00000160: 7f1f 223d 9301 4c3e 8a6b fb3d 621f 27be
00000170: f20e 383c b8de 11be 36e5 26be 50cd c83c
00000180: 75aa 11bd 7030 1d3d a60d 0abe 4844 48be
00000190: 3e6d 86ba d654 dbbd dafa dc3d c001 623c
000001a0: db08 1dbe a16e e0bd 940a 3d3c 7ff8 143e
000001b0: 7b77 d63d c275 31be 070b df3c 4bf1 723d
000001c0: b8c3 cd3b c32c b93c 80f3 57bd 6503 973c
000001d0: 9ad3 0a3c 1172 9dbc 5280 753d 9f7c 36bc
000001e0: a90c 84bd 5cf0 0e3e 7014 0cbe 849a f03d
000001f0: 9235 3abe 4b12 ebbd 943b 573d 7e04 cdbd
00000200: 32bd f6bc 3832 2c3e 03de dfbd 63eb 14be
00000210: 2005 f5bd a67a c83c 532f afbd a841 90bd
00000220: c690 3c3d ba5c acbd e655 8cbd c53b 1abe
00000230: bf23 23bd 0738 a83c 0441 03bc c02b 0cbe
00000240: 181b 193e 249c b03d 96e8 653e d39b 33be
00000250: 33b2 063e d712 a43d 6df3 8c3d 43b0 c13d
00000260: f2be 45bd 0d3c d2bc 44a1 143e c57d 0abe
00000270: 13f0 073e 8b02 2d3d 26c3 f93c 9755 e3bc
00000280: 0141 33be 8c72 06bd 94d2 f9bd 6c57 6fbd
00000290: a5a8 6dbb 4656 c83d a267 463c 7bb6 7ebc
000002a0: c33f 5b3d bfbf bd3d c566 f73c c23e 713d
000002b0: e0b7 0abe 1d18 26be 1c6f 0bbe b9f5 a93d
000002c0: 7629 f03d 186c 053d 2212 babd 9979 23bb
000002d0: b04a 303e 15f4 65bd e97f 20be 4eca bf3c
000002e0: fc60 2bbd 325f 6b3d fb59 95bd 6f01 c03d
000002f0: 457d 39be ed9a 173e 31a1 14be a455 bfbd
00000300: b004 b03d a10b 1dbd e475 29bd d98a 35bd
00000310: dfc8 9f3d 6e10 c13c 723e ab3c 68de 403e
00000320: 7342 cdbd c433 86bc 426f 1b3e 80b9 60bd
00000330: 8423 123e 32d7 ddbd 778e cb3c 0a23 23bd
00000340: 608d 79bd fb0e 4b3d 964f 3abd 2062 62bd
00000350: 493a 603c bdfb 0a3e f64c e3bd 621d 433b
00000360: 1449 843d 9f4c ad3d aa6a b1bd 4600 25be
00000370: cc96 4abd c589 1ebe 0813 ecbd b3c4 d53d
00000380: 5491 cabd dd47 f33b ad28 143c 0a55 0abe
00000390: 4d07 25be 7cbf 2b3e f453 d13d 1be1 d6bd
000003a0: 83c8 aabd d66a e6bd 81e5 2fbd 326d 1fbe
000003b0: 6fea e23d c900 403b 5291 0f3e b52b 373c
000003c0: 4199 663d 0b93 023e 603b fe3d bdf1 0abe
000003d0: a416 e23d c82b febc e74d d03d 6fc4 a3bd
000003e0: 59e1 6bbd e7d0 f7bd 5c30 973d 843e 89bd
000003f0: 316c efbd 0537 eebd 98b3 323e 3ef0 0fbe
-0.08187022 -0.086443014 -0.108944535 -0.17608993 -0.14187066 0.13292556 -0.044812847 0.15058623
-0.1139295 0.05126973 0.14138702 -0.053652026 -0.051374592 0.07799622 0.120715305 -0.015186699
0.064297244 -0.11450813 0.069408536 0.0984534 -0.08893605 -0.01771907 0.028071748 -0.10116701
-0.026956063 -0.06045696 -0.19411662 0.048846655 0.11596233 0.008802549 -0.041223958 -0.15304033
-0.13186733 0.038985983 0.12953882 0.11238995 0.048446056 -0.19058487 0.051176116 0.15131646
-0.11013914 0.02558461 -0.030970996 0.14056289 0.015074801 -0.00444342 0.14852758 -0.11138193
-0.0030105289 0.005324996 -0.1587288 0.06768925 -0.066217855 0.088708594 -0.06131131 -0.033533268
-0.0865586 0.031244814 0.16348003 0.17357549 -0.18494837 0.039038647 0.12775657 0.02420649
-0.087602496 0.040108036 0.09454788 -0.016311008 -0.038078148 0.16219465 -0.09948878 0.10848314
0.081873275 -0.006824771 -0.08158699 0.1529504 0.13413033 -0.015759598 0.12323211 -0.12343684
0.011029068 -0.11633138 0.087526925 -0.067071825 0.073184825 -0.09592741 0.10244342 -0.028720183
0.03958082 0.19922476 0.12276371 -0.16320565 0.011234032 -0.14245117 -0.16298375 0.024511963
-0.03556295 0.03837627 -0.13481769 -0.19557297 -0.0010255945 -0.107095405 0.10790034 0.013794363
-0.1533541 -0.10958601 0.011538167 0.14547919 0.10472008 -0.17330077 0.027226938 0.059312146
0.006279435 0.022604352 -0.052722454 0.018434236 0.008473301 -0.01921943 0.05993683 -0.01113811
-0.06447727 0.13958877 -0.13679671 0.117482215 -0.18184498 -0.114780985 0.052547053 -0.100106224
-0.030119512 0.16816032 -0.10931017 -0.14542918 -0.11963868 0.024472546 -0.08553948 -0.07043773
0.046036504 -0.08416124 -0.06852321 -0.15061863 -0.039829012 0.020534528 -0.008011106 -0.13688564
0.14951742 0.086235315 0.22452006 -0.17539911 0.13153915 0.08011406 0.06882367 0.094574474
-0.048277803 -0.0256634 0.14514643 -0.1352454 0.13275175 0.042238753 0.030488562 -0.027750773
-0.17505266 -0.032824084 -0.12198368 -0.05843298 -0.003626385 0.0978208 0.012109669 -0.015546436
0.053527605 0.09265088 0.030200372 0.05889774 -0.13546705 -0.16220136 -0.13616604 0.08298821
0.11726658 0.03257379 -0.0908549 -0.0024944304 0.17215991 -0.056140978 -0.15673794 0.023411896
-0.04184054 0.057463832 -0.07292553 0.093752734 -0.18114193 0.14805193 -0.14514615 -0.093425065
0.08594644 -0.03834117 -0.041372195 -0.04432187 0.07801985 0.023567405 0.0209038 0.18834841
-0.1002244 -0.016382106 0.1517916 -0.054864407 0.1427136 -0.10832061 0.024848206 -0.039828338
-0.06092584 0.049574833 -0.045486055 -0.05526936 0.013685771 0.13572593 -0.110986635 0.0029772152
0.06459251 0.0846188 -0.08662923 -0.16113386 -0.049460217 -0.15482242 -0.115270674 0.10437908
-0.098910004 0.0074243383 0.009042901 -0.13509002 -0.16116066 0.16772264 0.10221091 -0.10492154
-0.08339026 -0.11250846 -0.04294348 -0.15568998 0.11079871 0.0029297343 0.14020279 0.011179854
0.056298498 0.12751405 0.12413669 -0.13568778 0.110394746 -0.031026736 0.10171109 -0.07996451
-0.057587955 -0.12100392 0.07382271 -0.06701377 -0.11690558 -0.11631588 0.17451322 -0.14056489

grad_module.0.bias f4 [32]
00000000: ed4c 103e b844 623d e2ac 103e 711e 0ebe
00000010: cc42 cabd ee6c bc3d 1134 633d 0846 1d3e
00000020: 5ee5 0dbe b9e1 083e 9ad8 0bbd 12a8 f23d
00000030: ca7a df3d 8f89 853d 7099 e13d f169 13be
00000040: 43cc b73d 4605 fd3a 93c4 8ebd 0127 aa3d
00000050: 5674 9a3d 776b b4bc 52f9 263b d3cb c03d
00000060: 1531 b0bb 4949 3b3e 3736 c93d 9362 1fbe
00000070: 38ef 693c 4535 cb3d d08d e43d 44eb 413e
0.14091845 0.055241317 0.1412845 -0.138788 -0.09876022 0.09200464 0.055469576 0.15358746
-0.13857028 0.13367356 -0.034142114 0.11848463 0.10912092 0.06520378 0.11015594 -0.14395882
0.08974507 0.001930394 -0.06971087 0.08308221 0.075417206 -0.0220239 0.0025478196 0.094138764
-0.005376945 0.18289675 0.09824794 -0.15564947 0.014278226 0.0992227 0.11159861 0.18937403

grad_module.2.weight f4 [32, 32]
00000000: bbd0 013d 02ae 5fbc 9fa4 043e b55b 3dbe
00000010: aaca 07be 1c2c c23d 1567 c13d af69 9fbd
00000020: 1040 af3d 4931 8c3c a839 153e 0c81 1dbe
00000030: 614e 083e 2b66 b83b aeb5 293e 7f37 093e
00000040: b9ae e43c 7c86 0c3e 705b c23d 94b2 59bd
00000050: be3c f83d 9d34 b33d af74 4abd 9bba af3d
00000060: 4924 cabb 19f8 07be 089b d93d 9aa3 40be
00000070: bd47 063d f6b5 f73c 483b 123d 9caa e53d
00000080: 444c eb3d 480e 09bd 36a5 51bd d8ab d73c
00000090: 4f0c 08be 8687 1fbe 341e e8bd 3f1a a83d
000000a0: 904d 29be fab5 03be 1267 0cbe cabd b43d
000000b0: a61f fe3d 6c78 a5bd a7df 82bc bbfc bf3d
000000c0: 8043 46bd 41f6 ff3d b4c3 ae3d f07a 08be
000000d0: e023 c1bc 7dc5 083e 3c13 edbd a6e0 fd3d
000000e0: ac4c 953d f3f3 4ebd b850 b53a 6dbd 053e
000000f0: 043e a0bd 2b6c edbd d310 783d f5a3 31bd
00000100: e067 953d 2bdd cfbc 255e fbbd bd60 d13d
00000110: 3bc9 8a3d caef 34be f525 a2bd 54c1 3d3d
00000120: 2233 aebc aa69 2e3e 47a1 e8bd 9b2e d4bd
00000130: 597c a4bd 2c66 c33c 6fc0 353e 92db 93bd
00000140: c53d 1ebd cc0c cb3c 154b 3d3e 675e 4bbd
00000150: 5c0c 023b dfdd d4bd ee3a ddbd 1c80 21be
00000160: 5752 0f3d 33b6 1c3e 11a3 b7bd e750 b83d
00000170: 99c2 203e 8378 ad3d b6a7 013e ae96 7cbc
00000180: 02b1 683e 8a87 30be cb3b 193c 4029 f0bb
00000190: 6bd9 96bd 0a84 d53d 42c7 00be 3c24 1e3e
000001a0: 86f3 7abd aa9f 073e e631 55bd 24cf 2a3e
000001b0: 1e96 22be 6ece eebd 9de5 f8bc b73e 6c3c
000001c0: 15f3 1a3d dc3d f6bd d74d fabd 368d 95bd
000001d0: f430 cbbc 28de 04be 4a04 d7bc bfa5 f33d
000001e0: f9c0 a9bb 0e30 2e3d 4228 883d 280f 163e
000001f0: 54e1 9d3d 0775 8cbd a4ac ecbd fc9b 083e
00000200: 7da9 6ebb 0cbc 0cbe 3416 503b 641f 4f3d
00000210: e9b3 003e 368d 373c cfd6 ddbc 1fd8 2fbe
00000220: 2914 24be 5fe1 8b3d 4ae9 d4bd 0465 99bd
00000230: b5e3 513d d702 273b 19fb 89bd 8832 d73d
00000240: 1128 76bb 3529 993d 76c7 8d3b 62e4 0f3e
00000250: 8da0 ffbd dc0a 2a3d ed60 47be c1f9 a03c
00000260: fba6 aebd 4c43 dfbb 1392 bd3d b901 dcbd
00000270: bfb7 f43d 7ad7 78bc 2a7d 673d 7105 11bd
00000280: ada2 11be 6285 2f3e 7bf4 193e 071b 543d
00000290: b2a5 2abe 37d1 1839 767b f93d a675 cb3c
000002a0: 68b6 9cbd 0a4a 97bb ca4a a7bd 6ff6 d43d
000002b0: d66b 0a3e 5aaa aebc 8384 433e 9914 5a3d
000002c0: f547 c33d a6c7 333d 680a 2a3d 69dc 25be
000002d0: 2dbc 04bd 1a7b 093e 1459 343e 890b c5bd
000002e0: 3e34 66bd d29d 19bd f733 8c3d fc8b 31bd
000002f0: 099f bdbc fe43 bcbc 2ce4 c63d b861 2bbe
00000300: ddac 8cbd d51e 1dbe 8e5e e93d 743e 333e
00000310: 5c03 14be ccb7 93bc ea1d 003d 9d6c 103e
00000320: 0777 16be b6ba 8d3d 7f0d 80bc 75df 14be
00000330: aacb 1abd 75e8 013e 3700 17be 377d 18bc
00000340: 8dff 25bd 10ac 883c 7baf cabb 6420 b9bd
00000350: dfa7 0f3d 2c3b 45bc 44d4 4abe 2e7d 08bd
00000360: ae2a c93d 5e90 983d 0f3e af3d 039c 2b3e
00000370: 5754 c03d 40aa 063d f09d 1a3e 4f42 d93c
00000380: 9605 4abe fdb9 693c e1ad ff3d 9380 42be
00000390: 9498 143e 1568 813d a515 20bd e324 88bd
000003a0: b7fa 15be 258b 933d 9e83 d63c 23d7 f1bd
000003b0: a845 f6bd 1e3c bb3d ea51 b2bd 3141 00bd
000003c0: 66b6 c73d 1830 f6bd 41b4 90bd 2dfa 4bbd
000003d0: 080f 5ebd 7e83 1fbe 84ca c9bd 7715 9e3c
000003e0: 4abd 83bd 4726 a3bd ef25 1fbe 35de 48bd
000003f0: ad8c 18be 87b1 0fbe 8ff2 bd3d d6d0 99ba
0.0316932 -0.013652327 0.12953423 -0.18492015 -0.13260904 0.094810694 0.094434895 -0.077838294
0.08557141 0.017113345 0.14572775 -0.15381259 0.13311149 0.0056274137 0.16573212 0.13400076
0.027915346 0.13723177 0.094900966 -0.05314882 0.12120961 0.087502696 -0.049427684 0.08580514
-0.0061688763 -0.13278235 0.10625273 -0.18812409 0.03278326 0.030238133 0.035701066 0.11214182
0.11489156 -0.033460885 -0.051182948 0.026327059 -0.13285945 -0.15579042 -0.11333886 0.08208131
-0.16533494 -0.12862387 -0.13711193 0.08825262 0.1240838 -0.08079609 -0.015975786 0.093743764
-0.048404217 0.12498141 0.08533421 -0.13328147 -0.023576677 0.13356586 -0.11575934 0.12396364
0.072900146 -0.050525617 0.001383326 0.13060541 -0.078243285 -0.11592897 0.06056292 -0.043369252
0.07295203 -0.025374016 -0.12273816 0.102235295 0.06776663 -0.17669597 -0.07917396 0.04632695
-0.021264616 0.17032495 -0.11358886 -0.10360452 -0.0803153 0.02385243 0.17749189 -0.07219614
-0.038633127 0.024786375 0.18485673 -0.049650576 0.0019843793 -0.10393881 -0.108022556 -0.15771526
0.034990635 0.15303878 -0.08966649 0.08999806 0.15699233 0.084702514 0.12661633 -0.015416784
0.22723773 -0.17239204 0.009352635 -0.007329136 -0.07365688 0.10425575 -0.12576011 0.1544351
-0.0612674 0.13244501 -0.05204954 0.1668058 -0.15877578 -0.11660467 -0.030382926 0.014419249
0.037829477 -0.120235175 -0.12221878 -0.073023245 -0.024803616 -0.12975371 -0.026247162 0.11896848
-0.005180475 0.042526297 0.066483036 0.14654219 0.077089936 -0.06858259 -0.11556366 0.13340753
-0.003641694 -0.13743609 0.0031751515 0.050567046 0.1256863 0.011203101 -0.027079968 -0.17172287
-0.16023315 0.068300955 -0.10396059 -0.0748997 0.05124255 0.002548387 -0.06737346 0.10507685
-0.0037560503 0.07478563 0.004326756 0.14051965 -0.124817945 0.041514263 -0.19470568 0.019650342
-0.08527943 -0.0068134423 0.09256377 -0.10742516 0.11949109 -0.015188092 0.05651585 -0.03540558
-0.14222212 0.17140725 0.15034668 0.051783588 -0.1666477 0.00014573788 0.121817514 0.024836373
-0.07651979 -0.0046169804 -0.08168562 0.10398566 0.13517699 -0.021321464 0.19093518 0.0532423
0.09535209 0.04389157 0.04151383 -0.16197361 -0.03240602 0.13425866 0.17612106 -0.09621341
-0.056202166 -0.037504025 0.06845849 -0.04334639 -0.023147123 -0.02298164 0.09711489 -0.16736495
-0.068689086 -0.15343793 0.11394988 0.17504293 -0.14454406 -0.018031977 0.03127853 0.14103933
-0.14693843 0.06920378 -0.015631435 -0.14538367 -0.037791885 0.12686332 -0.14746176 -0.009307197
-0.040526915 0.016683608 -0.0061854697 -0.09039381 0.035072204 -0.012038033 -0.19807535 -0.033322506
0.09822594 0.07449411 0.085567586 0.16758732 0.093910865 0.032877207 0.15099311 0.026520876
-0.19728693 0.0142655345 0.12484337 -0.1899436 0.14511329 0.0631868 -0.03908314 -0.066476606
-0.14646421 0.07204274 0.026185807 -0.11808612 -0.120250046 0.09142326 -0.0870703 -0.03131217
0.097515866 -0.12020892 -0.07065631 -0.049799133 -0.054213554 -0.15577504 -0.0985308 0.019297345
-0.064325884 -0.07966285 -0.15541814 -0.04904004 -0.14897414 -0.14032565 0.0927478 -0.0011735212

grad_module.2.bias f4 [32]
00000000: 65a8 01be 3fae fe3d fc47 173d 2301 c43c
00000010: 63b3 b33d de28 433e dd15 b13d 5819 34be
00000020: 4a4b 163c 1e84 10be 055b fb3c 223c 09bd
00000030: b4fc 0a3e 74c8 06be 81e6 17be 4d0e 3ebd
00000040: d2e7 ec3d af14 9cba 7743 25be 821d 92bd
00000050: e202 f43c 3dea 94bd 5b31 adbc 7ce8 253c
00000060: ea26 40be 782e f93d a9fd a4bd 4916 eabd
00000070: 302f 8e3d fcd2 d63d 1978 80bc bc8d 1d3d
-0.12661894 0.124355786 0.036933884 0.023926323 0.0877445 0.19058558 0.08646748 -0.17587793
0.009173224 -0.14112899 0.03068305 -0.033504613 0.13572961 -0.13162404 -0.14834024 -0.046400357
0.11567654 -0.001190802 -0.16139017 -0.071345344 0.02978653 -0.0727124 -0.021141699 0.010126229
-0.18764845 0.12167066 -0.08056194 -0.11430032 0.06942594 0.10489461 -0.015682267 0.038465247

exp_avg f4 [32, 7]
00000000: 0ea4 27bb 1e07 023b 1b0e 5b39 c044 34bb
00000010: 9151 c5bb e939 593a 42e8 a5ba 36a9 233b
00000020: 839c e3ba a709 85bb ba94 df3b bd9e 8dbb
00000030: 3b24 693c 8979 a4ba 942c a0bc 4e1b a13b
00000040: 7252 013c 3876 d5bb ca4a 73bc ab7c 823a
00000050: e7d9 07bb 91b1 31ba fbd1 d33a dae0 1c3b
00000060: cc5e 04bc eead 57ba 7a3b d9bb 9415 1a3b
00000070: 854f f5bb 0ba3 0b3c 3f57 083b 1d67 8e39
00000080: c2d6 2b3c 2269 75bc 4a10 8039 2dce 34bc
00000090: 60c8 adba b221 78ba 2ac9 363b ea5a 9dbc
000000a0: c4fb 583c 95d6 0ebc ae99 813c d52b c4bb
000000b0: a080 0fbc 2643 363b 83ea 4f3c e77c 753b
000000c0: 274c b13b d803 35bc c213 a63b 8966 4b3b
000000d0: 85e9 45bb 6ef6 93ba 2564 24bb b16a 84bb
000000e0: 8145 e1b9 39d5 aa3b e905 a73b 453b 83bb
000000f0: 0ddb b03b 5b37 79bb 649a 813b 26b6 283a
00000100: 9e14 c7bb bb22 e5bb 242a 403c 9e1d 99ba
00000110: 5688 1f3c 57e4 e0bb 3c24 bf39 4de1 dcb9
00000120: f969 2a3b 47cd 1439 5c30 0dbb 9400 97bb
00000130: 15a9 483b d718 f23c fbc8 bb3b ea22 5abc
00000140: 75d0 14bc bb6c 153d b594 afbc 05f7 2c3c
00000150: fe63 97bb 3424 833a 92bf 74bb 981d b93b
00000160: bf39 203b b85d ce3b 5ae0 bbb9 342e 193c
00000170: 0aba 803c b5a0 90bb 2582 b5bb 1ba0 983c
00000180: 64d1 89bc 86b8 6e39 0185 4cbc d51f 833b
00000190: aae5 3f3b 0ace cc3a 3fe0 22bc c471 b3bb
000001a0: b21c a8bb d820 f73c 6100 453b e550 78bc
000001b0: d251 f7bb 38c1 083d 2bd8 93bc 585a 2f3c
000001c0: 4b72 473c d1f1 ebba 5e2e 02bb e6f3 5dbb
000001d0: 9c63 133c a8e7 06bc bcb7 603b 5e44 7c3b
000001e0: a91d 37bc 9862 c1bb d300 2e3c e036 a63a
000001f0: a1a9 7a3c 16f1 b6bb 3712 ce3c 46c1 51bb
00000200: 8758 6fbc b9de 093b 3c18 b33c 639c 8239
00000210: f9ce b63b 9249 cbbb 6425 3cba 20f3 813b
00000220: 15cf a43a 289f 16bc 19b1 943b 9626 35bb
00000230: 39d5 703c 50af 8bbb 5b84 2fbc 1a5e ba3b
00000240: 2db0 423c 22d3 fd3b 9ff1 75bb f130 21bb
00000250: 9dea 5cbb 19b7 6bbb 5dda 393b 9c9c 433b
00000260: cfc2 253b a8e7 823b f17f 89ba 60c6 4a3b
00000270: 2154 9d3a e85c a039 5406 0fba b9ec c03b
00000280: 9044 69ba f4d9 79bb e172 3e3c b789 413a
00000290: 9d98 1cbc 4c24 8f3b 2eb5 5ebc 52b9 593a
000002a0: 7ab2 f4bb 6a03 deba e172 8d3b aa69 f6ba
000002b0: 1af0 58bb cf1a 67bb 1c1f 70ba 9459 07bc
000002c0: 2f71 97bb c542 07bb d3d7 0f3c 2acf 46bc
000002d0: 488d 273c 77eb b3bb 3bce 85bc a096 1b3b
000002e0: 51b0 c33a d363 3cb8 9b82 bbbb 76a0 7dba
000002f0: 17f4 a3ba 90d7 afbb 8b85 d33a 9939 ad3b
00000300: 7de3 c7b9 4a1e 00bc 2892 0c3c 369e 5fba
00000310: 1ea4 8a3c 14ea 9aba 6f4d bebb d56d b7ba
00000320: 3b5a 723c 9118 f7bb 531d 483b 86dd 6dbc
00000330: 1a5e ce3b a790 083c 0265 39bc 8332 a8bb
00000340: b587 83bc 3dba e939 1957 103c 09ff 0c3b
00000350: 4080 7abb aa6c b9bb 922a f63b d7f5 0fbc
00000360: 0527 ee3b a491 14bc 1502 9d3b 9517 323c
00000370: 5d01 5bbc 5665 22bc b9a2 80bc 772c 003c
-0.0025579962 0.0019840668 0.00020890722 -0.0027506799 -0.0060216864 0.00082865224 -0.0012657719 0.0024972684
-0.001736537 -0.0040599885 0.0068231495 -0.0043219016 0.014229829 -0.0012548427 -0.019552507 0.004916585
0.007893192 -0.006514337 -0.014849374 0.0009955367 -0.0020729245 -0.00067784736 0.0016160602 0.0023937733
-0.008079242 -0.00082275167 -0.0066294046 0.0023511397 -0.007486286 0.008522759 0.0020803956 0.00027161176
0.010488214 -0.014978679 0.000244262 -0.011035484 -0.0013258569 -0.000946547 0.00278909 -0.01920839
0.013243619 -0.0087181525 0.01582035 -0.0059866705 -0.008758694 0.002781102 0.012690189 0.003745848
0.0054106894 -0.01104828 0.0050682733 0.0031036458 -0.0030199003 -0.0011288652 -0.0025084105 -0.004041039
-0.0004296713 0.0052134064 0.00509714 -0.004004868 0.0053972066 -0.003802738 0.0039551724 0.00064358336
-0.006075456 -0.0069926656 0.011728797 -0.00116818 0.009737095 -0.0068631577 0.00036457356 -0.00042129532
0.0026003106 0.00014190852 -0.0021543717 -0.004608223 0.003061836 0.02955286 0.005730746 -0.013313988
-0.009082903 0.036480647 -0.021433214 0.010556941 -0.0046200743 0.0010005296 -0.003734563 0.00564928
0.0024448482 0.0062977932 -0.00035834574 0.009349395 0.01571371 -0.004413689 -0.005539196 0.018631032
-0.016823478 0.00022766189 -0.0124828825 0.0040015974 0.0029281178 0.0015625369 -0.00994116 -0.0054762084
-0.005130374 0.030167028 0.003006004 -0.0151560055 -0.0075475955 0.033387393 -0.018047413 0.010702692
0.012173246 -0.0018001144 -0.0019864063 -0.0033867299 0.008995917 -0.008233942 0.0034289202 0.0038492898
-0.011176505 -0.005901646 0.010620314 0.0012681149 0.015299232 -0.005582939 0.02515517 -0.003200607
-0.014608509 0.0021037294 0.021862142 0.0002491205 0.0055788723 -0.0062038386 -0.00071772025 0.0039657503
0.0012573922 -0.009193219 0.0045377132 -0.0027641407 0.014699274 -0.0042628422 -0.010712708 0.0056874873
0.011882824 0.0077461163 -0.003752805 -0.0024595822 -0.0033709176 -0.003596729 0.0028358914 0.0029847985
0.0025293117 0.0039949007 -0.00104904 0.0030940995 0.0012003222 0.000305868 -0.000545596 0.0058875945
-0.0008898461 -0.0038124295 0.011624069 0.0007382887 -0.00955787 0.0043683406 -0.013593001 0.0008305508
-0.007467565 -0.0016938273 0.004316673 -0.0018799801 -0.0033102096 -0.0035263782 -0.0009159909 -0.008261103
-0.004621647 -0.0020639163 0.008779484 -0.012134353 0.010226555 -0.005490716 -0.01633369 0.0023740903
0.0014929866 -4.491566e-05 -0.0057223565 -0.00096750946 -0.0012508658 -0.005366273 0.0016137821 0.005286407
-0.0003812573 -0.0078197215 0.008579768 -0.000853035 0.01692396 -0.0011819028 -0.0058075706 -0.0013994524
0.01479202 -0.0075407703 0.0030535057 -0.014518147 0.006297839 0.008335269 -0.011315586 -0.0051329746
-0.016055921 0.00044579981 0.008809828 0.0021514317 -0.0038223416 -0.0056587057 0.007512399 -0.00878664
0.007267835 -0.009067927 0.004791508 0.01086988 -0.013367024 -0.009911856 -0.015702592 0.007823101

exp_avg_sq f4 [32, 7]
00000000: 68ad c939 f778 503a 3cfb dd39 93c0 0d3a
00000010: 4a07 f539 327e 9f3a 2f85 9739 972f ed39
00000020: 838f 043a c470 8a39 aa41 0e3a cfd2 013a
00000030: e0fe b63a e73c 8139 e8b2 643a 3b0a 883a
00000040: 9c16 893a 609f 4b3a 52d2 433a 592b 523a
00000050: c892 1a3a cc8f 8e39 d804 9739 ad32 2439
00000060: 22af ba39 f519 a739 6147 343a 67b4 0439
00000070: d8e7 eb3a 2385 0b3b e8f2 0a3b 4407 cd3a
00000080: 0aaa c63a 9b3c 2a3b d73c c83a ab32 b63a
00000090: 00c0 ce3a 74d1 643a 7285 b93a 5a6d ca3a
000000a0: 9056 1d3b 8c04 9f3a 596e fd39 160d a339
000000b0: c867 003a 99f1 9a39 a2b2 d739 bf78 d339
000000c0: 84b2 c039 2ca8 273a 2a87 803a c4a3 573a
000000d0: 17dc 293a 8d87 213a 5546 a13a cfeb 1a3a
000000e0: 1a15 8339 e60c 9a39 23de 9139 4064 7139
000000f0: 66cc 9d39 5dcb 8439 5ffe a039 161a db39
00000100: 1bab de39 66a1 d739 1c90 e939 1890 003a
00000110: cbcd 2d3a cdc0 c339 083c 0639 381b 8f39
00000120: 4aca cd38 d7d0 6439 f701 2a39 59df 023a
00000130: d3ac c738 bb91 983b 0518 3c3b ed64 4d3b
00000140: a9e7 773b 9351 8f3b c758 c63b 990c 1d3b
00000150: 59fa 5b3a 927b 9e3a 02c0 873a 72bf 833a
00000160: 74d8 4e3a 9e98 c33a 8db0 193a 4265 a83a
00000170: 957b 9c3a d6e9 b43a 9114 933a 9cee 943a
00000180: 9930 0a3b 07f4 f339 e6c9 d039 c386 cd39
00000190: 3508 a539 096a e439 60a4 cf39 0cb7 193a
000001a0: 2165 5539 11f9 3d3b e41c d43a a8da f53a
000001b0: aa6e 123b 244d 343b 8684 573b ae44 ba3a
000001c0: 7a1c 2e3a 2e6c 413a 1ca3 053a 0ad4 2c3a
000001d0: 942f 273a 6f9e c03a 3bf6 013a f09a 1f3a
000001e0: 0adc 723a 9b08 ff39 fc38 693a 4a8b 523a
000001f0: a63f 103b 2d8f 043a 303d d83a a048 c13a
00000200: 61bf c43a 63d7 aa3a 8813 c93a 768a ed3a
00000210: 6464 a63a 3b4f 013a e65c ac39 f212 ff39
00000220: 95f3 d939 eb7c cb39 4653 473a 0c05 8639
00000230: 0d68 343a 1cd3 943a 2760 893a fa3d 213a
00000240: 8133 463a 8fd4 833a d99a 863a f50a 5b39
00000250: c9a5 8439 8aef 8239 7ed6 8539 9088 7939
00000260: 3689 ed39 5ba4 1739 fb0a 9f38 6bab 2839
00000270: 30a6 c338 1388 0e39 8532 ca38 2efb c939
00000280: 3920 2b38 44f3 393a de86 763a 8162 503a
00000290: 73c9 633a b46a 543a ce51 c03a 0c59 1f3a
000002a0: f733 2639 92b9 6a39 346b 2239 b774 2c39
000002b0: fb5a 3339 2c50 9a39 e0bd 7539 e31b 1a3a
000002c0: 4b06 1c3a 2714 ba39 1cc3 203a f708 2d3a
000002d0: 2157 bb3a fcd1 f239 a736 963a cc8d bd3a
000002e0: ab34 b73a 18c0 9a3a 13f8 8b3a a9ff f33a
000002f0: 5b6f 423a 1e99 de39 e2ec b139 db23 bb39
00000300: 4d29 be39 69ec d139 fc89 403a 5dfb 6839
00000310: 2be7 693a 933b 4d3a 18e4 603a c25a 373a
00000320: 8fa2 553a 7ec4 7e3a dd2f 1f3a 6190 823a
00000330: 05ec a13a ec3a 8e3a de34 823a 49e1 803a
00000340: 3962 bf3a 0188 b13a c55f 4a3a 3415 0b3a
00000350: 5e0d 1f3a b63c 443a 1d10 393a f0e5 aa3a
00000360: 8956 e439 6087 393a 5a6f 493a ccb4 333a
00000370: 168c 803a 7149 5a3a 77ae df3a c825 5a3a
0.00038466905 0.00079525955 0.0004233959 0.0005407419 0.00046735472 0.0012168346 0.00028900194 0.0004523962
0.00050567853 0.00026405428 0.0005426655 0.00049523724 0.0013961457 0.00024650173 0.0008724169 0.0010379025
0.0010459009 0.0007767584 0.000747 0.00080173236 0.0005896506 0.00027191488 0.00028804573 0.00015659137
0.0003560717 0.00031872062 0.00068770914 0.00012655706 0.0017998172 0.0021289072 0.0021201912 0.0015642424
0.0015156877 0.0025976065 0.0015276921 0.0013900598 0.0015773773 0.0008728721 0.001415415 0.0015443966
0.0024007894 0.0012132092 0.00048338136 0.00031099532 0.0004898277 0.00029553173 0.00041141087 0.0004033502
0.00036754098 0.0006395604 0.0009805907 0.0008226002 0.00064796343 0.0006161861 0.0012304286 0.0005909772
0.0002500199 0.0002938278 0.0002782206 0.00023020897 0.00030097662 0.0002532852 0.000307071 0.0004179037
0.00042470623 0.00041128247 0.00044548593 0.0004904284 0.0006630092 0.00037336946 0.00012801599 0.00027295365
9.812841e-05 0.00021821573 0.00016213195 0.0004992388 9.5212505e-05 0.0046560443 0.002870084 0.0031340674
0.003782729 0.004373738 0.0060530636 0.0023963808 0.0008391492 0.001209127 0.0010356905 0.0010051562
0.00078905304 0.0014922803 0.0005862795 0.001284756 0.0011938686 0.0013802599 0.0011221339 0.0011362615
0.0021086095 0.00046530386 0.00039823278 0.00039201052 0.00031477367 0.0004356655 0.00039604586 0.0005863763
0.00020350936 0.0028987566 0.0016182926 0.0018757181 0.0022343793 0.00275118 0.0032885387 0.0014211142
0.00066418166 0.0007378486 0.00050978526 0.00065928756 0.0006377634 0.0014695654 0.00049576507 0.0006088456
0.0009264356 0.00048643802 0.0008896736 0.000803162 0.0022010594 0.0005056735 0.0016497727 0.0014746375
0.0015010649 0.0013034161 0.0015340904 0.001812293 0.0012694714 0.0004932766 0.0003287561 0.00048651505
0.00041570948 0.00038812248 0.0007603656 0.00025562232 0.000688196 0.0011354419 0.0010480926 0.0006150898
0.0007560775 0.0010057854 0.0010269537 0.0002088955 0.00025300522 0.00024974003 0.00025527546 0.00023797364
0.00045306393 0.0001446171 7.583756e-05 0.00016085587 9.3292794e-05 0.00013592867 9.6415206e-05 0.0003852485
4.0799587e-05 0.00070934393 0.0009404252 0.00079492485 0.0008689381 0.0008103058 0.0014672817 0.00060786377
0.00015850352 0.0002238511 0.0001548946 0.00016446678 0.00017104663 0.00029432902 0.00023435755 0.0005878789
0.00059518655 0.000354917 0.0006132589 0.0006600762 0.0014292934 0.00046314287 0.001146038 0.0014461814
0.0013977488 0.0011806516 0.001067879 0.0018615621 0.0007417106 0.0004245722 0.00033936562 0.00035694134
0.00036270396 0.00040039726 0.000734478 0.00022218884 0.00089226913 0.00078290066 0.00085789105 0.000699442
0.00081495283 0.00097186107 0.0006072501 0.0009961241 0.0012353664 0.00108513 0.0009933969 0.0009832765
0.0014601416 0.0013544561 0.0007719959 0.0005305589 0.00060673605 0.0007485853 0.0007059591 0.0013038497
0.00043552023 0.00070773624 0.0007684134 0.0006855249 0.0009807374 0.00083269837 0.0017065544 0.000832167
