ckpt/rnn_ode_affine_3_4_cubic_full/best.pth (torch_old, 56567 bytes, 58 tensors)

rnn.weight_ih_l0 f4 [48, 7]
-0.102186166 0.00923583 0.10937441 0.05012685 -0.27522072 0.18948726 -0.27162322 -0.026475683
0.058096144 -0.19694714 0.056464516 -0.13906905 0.0721565 0.0017700631 -0.06589936 0.15178417
-0.18510777 0.21023265 -0.034024376 0.27827394 -0.07892131 0.20007896 -0.10233032 0.10187175
0.05861894 -0.26076874 0.073648565 -0.24771157 -0.013730335 -0.093354665 -0.180012 0.09815752
0.017519286 -0.14511369 -0.05051629 0.12149442 -0.22070327 -0.15420945 0.2042197 -0.1168279
0.15573569 -0.22643603 0.19596107 0.08813185 0.12276613 0.2132294 0.04684478 -0.18529712
0.17214897 0.109241255 0.016389953 0.057155274 -0.0321117 0.062643945 0.074635886 0.2971268
0.14160801 0.00864362 0.23906137 0.09786866 0.188877 -0.12698835 -0.22335202 0.02093059
0.21166477 -0.12587717 0.23089042 0.22113624 -0.042028323 -0.022862539 0.06260087 -0.2795729
-0.17982088 0.23111421 0.11499053 0.18041967 0.232887 -0.001651865 -0.110511646 -0.21808656
0.10664446 -0.058873706 -0.16296898 0.19560258 -0.16049077 -0.19443777 -0.07744472 -0.025984365
-0.21239637 -0.11487605 0.18061906 0.034829684 0.1482779 -0.09380521 -0.32683706 0.13049203
-0.22664268 -0.26108682 -0.04376926 -0.04481295 -0.08629295 0.07958812 0.12995306 -0.15268378
0.036375068 0.14127776 -0.26509327 0.138427 0.112957664 -0.14536384 -0.03641941 -0.1784382
-0.050366685 -0.17884411 0.14221703 0.11914265 0.2182546 -0.13281278 0.052232575 0.21388936
0.045219332 0.0058193766 0.10321168 0.24195619 -0.1163877 -0.017277816 0.1567931 0.06936202
-0.23832847 0.24253853 0.25070632 0.037143916 -0.27891564 0.308031 -0.11742452 0.19834462
-0.2637506 -0.16390552 0.06967992 -0.22315542 0.07049141 0.14966372 -0.08604957 0.15386589
0.17706285 -0.16552971 0.111032605 -0.14800523 0.20252867 0.117212124 -0.026928432 -0.13476914
0.06753718 0.055605557 0.04926639 0.012895373 0.11119106 0.11414799 0.052999523 0.026053559
-0.033119064 -0.15419418 -0.09693954 0.13204598 0.16192158 -0.018388037 -0.017789453 0.16802187
0.21766111 -0.051107593 -0.093114376 -0.061162457 0.20119779 -0.06316351 0.08755167 0.031503804
0.14217086 0.038775202 0.06581157 0.056716643 0.15775709 0.1115797 0.19325626 0.032501075
0.20467198 -0.006882619 0.12577401 0.2045622 0.22300695 0.23183474 -0.23171137 -0.018908842
-0.1844266 0.18532209 0.0024504953 -0.25642696 -0.19352943 0.044541974 0.025576772 -0.15925531
0.03514315 -0.026527064 -0.080520555 0.1189517 0.2108676 0.1617226 0.2310419 -0.09056171
0.20462582 0.062453747 0.18427038 -0.12939122 0.23818411 -0.16452146 -0.18507007 0.07856762
-0.2018807 -0.052868206 -0.13968338 0.10926496 0.15681176 0.04278358 -0.02143344 -0.21319857
-0.15969087 0.19993228 -0.19175054 0.19281732 -0.08808731 0.23561731 -0.2151191 0.15689115
-0.12753172 0.12380621 0.016788559 0.018399663 0.27677077 -0.10240089 -0.032596543 -0.0045343605
-0.09047639 -0.06391969 0.024987556 -0.09764805 -0.07422155 -0.2029292 0.15860572 0.029356617
-0.17317702 0.102169104 0.19068255 0.2122702 0.19873881 0.14645876 0.003917854 -0.15441792
00000000: fb46 d1bd e151 173c b1ff df3d d051 4d3d
00000010: bbe9 8cbe f308 423e 3312 8bbe 88e3 d8bc
00000020: 39f6 6d3d 83ac 49be 5647 673d 1e68 0ebe
00000030: c9c6 933d 7601 e83a 3ef6 86bd 4f6d 1b3e
00000040: e48c 3dbe 3a47 573e 255d 0bbd ec79 8e3e
00000050: 7fa1 a1bd 80e1 4c3e 8f92 d1bd 23a2 d03d
00000060: 6a1a 703d 7b83 85be 0fd5 963d 1aa8 7dbe
00000070: 33f5 60bc bb30 bfbd 1155 38be cf06 c93d
00000080: 9b84 8f3c af98 14be 2bea 4ebd 11d2 f83d
00000090: 0a00 62be 15e9 1dbe f81e 513e 7743 efbd
000000a0: 2d79 1f3e d9de 67be 05aa 483e 797e b43d
000000b0: cf6c fb3d cf58 5a3e 50e0 3f3d 87be 3dbe
000000c0: d247 303e e1b9 df3d 3944 863c a61b 6a3d
000000d0: 8f87 03bd 784b 803d b3da 983d 0121 983e
000000e0: b101 113e f89d 0d3c 81cc 743e 5d6f c83d
000000f0: f968 413e 3c09 02be 64b6 64be a176 ab3c
00000100: a6be 583e f2e5 00be 8a6e 6c3e 8a71 623e
00000110: e425 2cbd 384a bbbc e334 803d 2e24 8fbe
00000120: f722 38be 34a9 6c3e 2880 eb3d efbf 383e
00000130: ee79 6e3e 6483 d8ba ee53 e2bd 1552 5fbe
00000140: 6968 da3d 8e25 71bd 57e1 26be 0b4c 483e
00000150: b157 24be b21a 47be 569b 9ebd 2add d4bc
00000160: 6f7e 59be 2244 ebbd 34f4 383e 92a9 0e3d
00000170: 29d6 173e f21c c0bd 3057 a7be b49f 053e
00000180: 0515 68be 2cad 85be 6547 33bd c98d 37bd
00000190: 5cba b0bd 19ff a23d 6a12 053e 2359 1cbe
000001a0: 06fe 143d 1eab 103e 4eba 87be cfbf 0d3e
000001b0: 5956 e73d 42da 14be 852c 15bd 81b8 36be
000001c0: 4c4d 4ebd e922 37be 57a1 113e 1001 f43d
000001d0: 227e 5f3e 1300 08be d3f1 553d d005 5b3e
000001e0: e837 393d 78b0 be3b a560 d33d 5dc3 773e
000001f0: ad5c eebd 358a 8dbc 5f8e 203e ad0d 8e3d
00000200: 610c 74be 055c 783e 945c 803e 3824 183d
00000210: 08ce 8ebe 3db6 9d3e 447c f0bd da1a 4b3e
00000220: 520a 87be d9d6 27be 59b4 8e3d db82 64be
00000230: cd5d 903d 7241 193e c23a b0bd 058f 1d3e
00000240: f74f 353e 9f80 29be 1065 e33d af8e 17be
00000250: ad63 4f3e e90c f03d 0499 dcbc ec00 0abe
00000260: ef50 8a3d a7c2 633d 8ecb 493d 1d47 533c
00000270: 23b8 e33d 6cc6 e93d 0716 593d 466e d53c
00000280: dba7 07bd 14e5 1dbe 3d88 c6bd 1037 073e
00000290: c5ce 253e 82a2 96bc 30bb 91bc ed0d 2c3e
000002a0: 8ee2 5e3e 3256 51bd c0b2 bebd 7c85 7abd
000002b0: cb06 4e3e df5b 81bd 4a4e b33d 220a 013d
000002c0: 3d95 113e bfd2 1e3d 37c8 863d b64f 683d
000002d0: 138b 213e e683 e43d f8e4 453e d91f 053d
000002e0: 8895 513e 9887 e1bb e7ca 003e c178 513e
000002f0: ef5b 643e 1666 6d3e bf45 6dbe b7e6 9abc
00000300: 54da 3cbe 13c5 3d3e 7d98 203b 654a 83be
00000310: 942c 46be a571 363d 6186 d13c d313 23be
00000320: 43f2 0f3d 494f d9bc f6e7 a4bd f39c f33d
00000330: aded 573e 9c9a 253e 3f96 6c3e 6b78 b9bd
00000340: 6e89 513e 80cf 7f3d 60b1 3c3e 227f 04be
00000350: 89e6 733e 5078 28be 0283 3dbe 0fe8 a03d
00000360: d0b9 4ebe 558c 58bd 2909 0fbe 4fc6 df3d
00000370: 4393 203e d63d 2f3d 2e95 afbc ba50 5abe
00000380: 0186 23be 0cbb 4c3e 415a 44be e771 453e
00000390: 1f67 b4bd aa45 713e 2e48 5cbe 13a8 203e
000003a0: ad97 02be 1c8e fd3d 2988 893c e4ba 963c
000003b0: e6b4 8d3e 8fb7 d1bd f483 05bd f994 94bb
000003c0: b04b b9bd 54e8 82bd b4b2 cc3c b3fb c7bd
000003d0: 7801 98bd accc 4fbe 8a69 223e 4a7d f03c
000003e0: 5155 31be 093e d13d 4942 433e 5c5d 593e
000003f0: 3082 4b3e 49f9 153e 5761 803b bb1f 1ebe

rnn.weight_hh_l0 f4 [48, 16]
-0.09082698 -0.0048227534 -0.17544211 -0.3001313 0.04792336 -0.13384368 -0.24242619 0.1245502
0.0964537 -0.080133125 0.02488317 0.15897653 -0.19008729 0.28407502 -0.2645877 0.20027839
-0.07586794 0.029837409 -0.115734525 -0.117295235 0.053662524 -0.2715785 -0.11574319 0.06508583
0.21117088 -0.13038954 0.19451968 0.25671896 -0.10285102 0.22816911 -0.21406887 0.154439
-0.17079026 -0.06713407 -0.033362325 -0.08733991 0.107088804 -0.24254718 0.053594366 -0.2710764
0.15333463 -0.034075927 0.16601688 -0.21625254 -0.17182784 0.082181014 -0.08555121 -0.12725616
0.21894048 0.11911113 -0.10372602 0.13511263 -0.14256424 0.08289555 -0.2265112 0.12738717
-0.12767786 -0.09469242 -0.1023237 -0.16149716 -0.22975162 -0.124041125 -0.012927748 0.095901325
0.09460178 0.18400747 -0.11087684 -0.34119502 0.083404146 -0.29574817 -0.32409924 -0.038036972
-0.13149591 -0.12667836 -0.07236284 -0.041495718 0.10160484 -0.0648596 -0.2651441 -0.13115928
0.119949974 -0.10960675 -0.05285315 0.15987234 -0.17618254 0.061330087 0.20111978 0.076022156
0.054408517 0.14332084 0.2121388 -0.023070017 -0.092209175 0.027223447 -0.2785834 0.11716355
-0.14076419 -0.20543641 -0.15858601 -0.19326052 0.24169964 0.036658727 0.22700219 0.14463027
-0.19380328 -0.0100229345 0.12741525 -0.16735989 0.0051100994 -0.18663946 0.06835867 -0.056270715
-0.3676745 -0.23943079 0.27296397 -0.116804756 0.19703835 -0.11057805 0.002951785 -0.055812735
0.3239742 -0.36495432 0.11379893 0.08686686 0.13530481 0.13710266 -0.259785 -0.10162724
0.25011364 -0.14983353 -0.19080178 -0.028907228 -0.26963577 0.21974467 0.2020396 0.13928464
-0.15490115 -0.16545936 0.12142095 0.22354473 -0.05553792 0.2208715 -0.1706976 -0.17472343
-0.18692715 0.028677437 -0.032195255 0.11441288 -0.12548943 0.1965729 -0.035367 0.048665795
0.10385307 -0.21047245 -0.115851216 -0.19490278 -0.11694847 0.10688636 -0.058144003 -0.11827565
0.18232527 -0.13197501 -0.0047470764 0.059713803 -0.17949691 0.12616327 0.07613171 -0.023454545
0.017371085 -0.06240769 0.039377283 0.13002494 0.06620717 -0.29779354 0.13959225 0.24564552
0.15342115 -0.11621151 0.10392264 -0.019953335 -0.113934234 0.074738584 -0.13263176 -0.13086224
-0.23068991 -0.21119608 -0.25786546 -0.0010295581 0.045000024 0.056020804 0.08561256 0.23942599
0.11299207 0.24863338 -0.10313445 0.13411468 0.010608267 -0.24272211 0.18992141 0.0009909967
-0.04875323 0.24909696 -0.14307038 -0.09083047 -0.16897318 0.04001118 0.21546488 -0.076301955
-0.12840413 -0.3155555 0.08143757 -0.09698238 -0.043364957 0.041218508 -0.16399539 0.049430937
-0.07416393 -0.21356013 -0.12274701 0.10290106 -0.16472413 -0.15700424 -0.16327535 0.21870612
0.0774441 0.057466365 0.15780699 -0.009161527 0.0120814 -0.16115287 -0.13722913 -0.09424818
-0.11803777 0.17370455 -0.11579263 -0.15914822 -0.13633198 -0.05348165 -0.2474174 0.07285281
0.08812688 -0.18711884 -0.06790078 0.11603958 -0.067510575 -0.04815265 -0.18842828 -0.2110048
0.13301891 0.09197726 0.13512753 0.31239614 -0.11602416 0.22923946 -0.047552705 0.31687674
00000000: 7f03 babd 3008 9ebb 19a7 33be cfaa 99be
00000010: 494b 443d 510e 09be 923e 78be 2d14 ff3d
00000020: 8489 c53d d61c a4bd cad7 cb3c beca 223e
00000030: 3ea6 42be 4872 913e 0a78 87be c715 4d3e
00000040: a760 9bbd 956d f43c 3906 edbd 7c38 f0bd
00000050: 3ccd 5b3d 560c 8bbe c40a edbd b84b 853d
00000060: 2e3d 583e d684 05be 2b30 473e ab70 833e
00000070: 8ea3 d2bd 2aa5 693e df34 5bbe 4225 1e3e
00000080: a4e3 2ebe 967d 89bd efa6 08bd 44df b2bd
00000090: 6051 db3d 4a5e 78be c485 5b3d 87ca 8abe
000000a0: c103 1d3e 3393 0bbd 5400 2a3e 4e71 5dbe
000000b0: a3f3 2fbe 854e a83d 7935 afbd 704f 02be
000000c0: ef31 603e 89f0 f33d 4f6e d4bd f75a 0a3e
000000d0: 5cfc 11be 24c5 a93d 8df2 67be c871 023e
000000e0: fcbd 02be 19ee c1bd 178f d1bd 835f 25be
000000f0: 0244 6bbe 4609 febd e8ce 53bc ea67 c43d
00000100: 94be c13d 746c 3c3e 6613 e3bd 1db1 aebe
00000110: cbcf aa3d 4e6c 97be 56f0 a5be a8cc 1bbd
00000120: dda6 06be f9b7 01be f832 94bd 6af7 29bd
00000130: 3316 d03d 1cd5 84bd f8c0 87be 9e4e 06be
00000140: 55a8 f53d 8179 e0bd 8b7c 58bd 93b5 233e
00000150: 3269 34be 4235 7b3d 58f2 4d3e 81b1 9b3d
00000160: 77db 5e3d b3c2 123e ea3a 593e 55fd bcbc
00000170: 2ad8 bcbd b503 df3c 7ca2 8ebe 71f3 ef3d
00000180: 7d24 10be ec5d 52be 5f64 22be 16e6 45be
00000190: 1c80 773e 7627 163d 4373 683e f519 143e
000001a0: 5e74 46be 3c37 24bc 2579 023e 6460 2bbe
000001b0: 9f72 a73b 6a1e 3fbe a1ff 8b3d 1f7c 66bd
000001c0: d53f bcbe 582d 75be efc1 8b3e 5537 efbd
000001d0: 6cc4 493e bf76 e2bd bc72 413b e59b 64bd
000001e0: f2df a53e 4bdb babe 6a0f e93d 41e7 b13d
000001f0: 588d 0a3e a464 0c3e 8a02 85be f121 d0bd
00000200: e50e 803e f66d 19be 8b61 43be dace ecbc
00000210: b30d 8abe bf04 613e 78e3 4e3e a2a0 0e3e
00000220: 689e 1ebe 2e6e 29be 8cab f83d e9e8 643e
00000230: bb7b 63bd 232c 623e 5acb 2ebe b3ea 32be
00000240: d569 3fbe f2ec ea3c 2cdf 03bd 4d51 ea3d
00000250: 4d80 00be 684a 493e fddc 10bd c955 473d
00000260: ebb0 d43d 1786 57be 6743 edbd 9894 47be
00000270: ae82 efbd 3ce7 da3d 6828 6ebd 813a f2bd
00000280: 7ab3 3a3e 7524 07be 5d8d 9bbb 7696 743d
00000290: 0ace 37be f230 013e f1ea 9b3d bf23 c0bc
000002a0: ce4d 8e3c 359f 7fbd 134a 213d 4225 053e
000002b0: a097 873d 6578 98be 45f1 0e3e 808a 7b3e
000002c0: 6f1a 1d3e 4d00 eebd 65d5 d43d 2d75 a3bc
000002d0: 5a56 e9bd 8b10 993d 9fd0 07be c000 06be
000002e0: fa39 6cbe c943 58be f106 84be 3df2 86ba
000002f0: f251 383d 1276 653d a355 af3d 162c 753e
00000300: 6368 e73d c099 7e3e 2838 d3bd 5c55 093e
00000310: 4cce 2d3c 258c 78be c27a 423e 55e4 813a
00000320: 78b1 47bd 4613 7f3e 0b81 12be 5305 babd
00000330: 4e07 2dbe c3e2 233d d3a2 5c3e 3344 9cbd
00000340: 5f7c 03be 7e90 a1be bec8 a63d b39e c6bd
00000350: 749f 31bd bdd4 283d 68ee 27be 1878 4a3d
00000360: 42e3 97bd 82af 5abe c962 fbbd cabd d23d
00000370: 71ad 28be b8c5 20be a731 27be 7ff4 5f3e
00000380: 039b 9e3d da61 6b3d 2898 213e 3b1a 16bc
00000390: 10f1 453c 4205 25be cb85 0cbe 3105 c1bd
000003a0: c9bd f1bd 9bdf 313e b024 edbd c0f7 22be
000003b0: 9c9a 0bbe 930f 5bbd fd5a 7dbe db33 953d
000003c0: de7b b43d 159c 3fbe 900f 8bbd 29a6 ed3d
000003d0: fc42 8abd b73b 45bd 58f3 40be a411 58be
000003e0: 1c36 083e 935e bc3d df5e 0a3e 63f2 9f3e
000003f0: 139e edbd c0bd 6a3e a0c6 42bd ab3d a23e

rnn.bias_ih_l0 f4 [48]
-0.19108187 0.024648193 0.0010168303 0.34039274 0.37316692 -0.07038085 -0.09247647 0.30450532
-0.11565989 -0.118084334 0.22552848 0.0055104117 0.0013906533 0.042224295 0.013863382 -0.13068269
-0.00808862 0.041594937 -0.20185287 0.09818166 0.04213556 -0.22381592 0.25348836 -0.091651276
-0.01856447 -0.21429697 -0.1387064 0.09930856 0.23337747 0.18917203 -0.044592157 0.06482834
-0.089027666 -0.013261605 0.025173515 -0.17339292 0.091834806 -0.118139714 -0.19070709 0.19469966
0.05625132 -0.16650257 -0.158452 -0.012052265 -0.17593381 -0.14192832 -0.09165157 -0.120351724
00000000: f7aa 43be 02eb c93c 2a47 853a f547 ae3e
00000010: bc0f bf3e d623 90bd 4e64 bdbd 1fe8 9b3e
00000020: 18df ecbd 33d6 f1bd f0f0 663e af90 b43b
00000030: 9546 b63a 62f3 2c3d 3d23 633c afd1 05be
00000040: 2286 04bc 745f 2a3d 85b2 4ebe 7713 c93d
00000050: 5696 2c3d 0030 65be 3ac9 813e aab3 bbbd
00000060: 8414 98bc aa70 5bbe 0d09 0ebe 4962 cb3d
00000070: 81fa 6e3e 50b6 413e 44a6 36bd b9c4 843d
00000080: 2354 b6bd 3447 59bc b038 ce3c ea8d 31be
00000090: e313 bc3d 3cf3 f1bd b848 43be 595f 473e
000000a0: c967 663d a67f 2abe 3e41 22be dd76 45bc
000000b0: fe27 34be a855 11be d1b3 bbbd f77a f6bd

rnn.bias_hh_l0 f4 [48]
0.097625464 -0.096026614 -0.023269555 0.29947028 0.18592794 -0.15202865 -0.0012020179 0.17300545
0.07765775 0.1653592 -0.14385593 -0.11822394 0.10111168 -0.085592546 -0.048564818 -0.07637525
-0.14781226 -0.08069394 -0.09148032 0.11566069 -0.22542225 0.026552368 0.13947296 0.10130902
-0.19983156 0.16501758 0.10063227 -0.19807939 0.12735246 0.22949913 -0.0809428 0.18981497
0.09532251 -0.06688892 -0.04994015 -0.0024273798 0.161149 -0.009085504 0.19315709 0.091307424
0.09712972 0.03218996 -0.22544539 0.029046884 -0.073370606 0.024758289 0.09855378 0.19651428
00000000: dcef c73d 9aa9 c4bd cb9f bebc 2b54 993e
00000010: e563 3e3e 66ad 1bbe 078d 9dba 5728 313e
00000020: 070b 9f3d ec53 293e f84e 13be 651f f2bd
00000030: a413 cf3d 254b afbd e7eb 46bd a16a 9cbd
00000040: 195c 17be dd42 a5bd 095a bbbd 83df ec3d
00000050: 17d5 66be 5a84 d93c 00d2 0e3e 1a7b cf3d
00000060: a5a0 4cbe 5efa 283e 4b18 ce3d 53d5 4abe
00000070: af68 023e d201 6b3e 57c5 a5bd db5e 423e
00000080: 7338 c33d 0ffd 88bd 0b8e 4cbd ad14 1fbb
00000090: 3e04 253e 5edb 14bc f9ca 453e 63ff ba3d
000000a0: f2eb c63d 9fd9 033d 28db 66be bbf3 ed3c
000000b0: 5443 96bd e5d1 ca3c 90d6 c93d 0a3b 493e

fc.0.weight f4 [16, 16]
-0.4278618 -0.34081352 -0.091975585 -0.11218927 0.112919934 -0.3312493 0.035884306 0.36517018
0.18506046 -0.56920636 0.09571442 -0.08971307 0.22406939 0.060900524 -0.11372011 -0.11554506
-0.08842794 -0.18736026 -0.1149723 -0.39213887 0.32837757 -0.16999702 0.1685143 -0.052128773
-0.058956638 0.18878365 -0.30771038 0.05766431 -0.31626666 0.036517166 -0.019900052 -0.5758349
-0.23970118 -0.42718276 -0.10201219 0.14525458 0.0047481637 -0.042839035 0.29987282 -0.39783463
-0.18687332 0.20652032 0.35870868 0.13650629 -0.3062751 -0.15748 -0.09326275 0.2963939
0.10915199 0.31938568 -0.15707241 0.28396326 -0.065175004 -0.6173301 -0.11028149 -0.016040593
-0.3568798 -0.14793688 0.03817054 0.08590925 -0.025012393 -0.42337453 0.025542421 -0.061221585
-0.4000175 0.207233 -0.1014957 0.08707434 -0.08390045 0.04066974 -0.24630664 -0.20426247
0.2724025 0.048421387 0.07800106 0.61466104 0.06392505 -0.044185597 0.397473 -0.15966669
0.037744027 0.2898823 0.051116 0.10589486 0.69359833 0.15397263 -0.18816234 -0.20170154
0.012791678 -0.39814407 0.058637697 0.006154493 -0.36612168 0.07744665 -0.21245 0.12476725
-0.097338095 0.5218234 0.17347924 -0.040475335 -0.11835884 -0.078609034 0.63458174 -0.26958933
0.18015502 -0.18264423 0.056610584 -0.077301435 0.15992422 0.10427036 -0.24683373 -0.12719871
-0.29990286 0.284601 -0.024676623 -0.40405566 0.08511449 0.047624964 0.10440378 0.39929968
-0.37933278 0.1026363 0.37986857 0.21854 -0.01893238 0.29918414 0.09565333 0.22788149
0.09475438 -0.11675347 0.09549379 0.085183844 0.035313286 -0.34745294 0.21701558 -0.18007198
0.057997122 -0.22439875 -0.2880993 -0.03307001 -0.120861165 0.44344842 0.51926047 0.2947208
-0.17217346 0.1768528 -0.63016135 -0.33388287 -0.20358737 -0.0008332322 -0.08023749 -0.27050385
-0.029104477 -0.072113656 -0.21405092 -0.16997494 0.099942766 -0.06197018 -0.23083666 0.3734148
0.0048988936 0.14669846 -0.106360026 0.17288153 -0.2812062 -0.32171163 -0.10053735 0.3170875
0.28946882 0.3668039 0.08228901 -0.0036320705 -0.47336832 0.34665352 -0.24848379 -0.015576534
0.22517365 -0.1317667 -0.18936521 0.013694163 -0.48924336 0.23629066 -0.020129204 -0.0313817
-0.19842368 -0.40620884 0.12217184 0.31508788 -0.22422956 0.37612617 -0.1786473 -0.3070431
-0.1915058 -0.20485914 0.060224492 0.20580499 0.07532085 0.01872328 -0.015366464 0.0952834
-0.19782588 0.023816861 -0.35051405 0.3599955 0.41061664 0.17516573 -0.5445594 0.19328544
-0.39280185 0.1474362 0.11601545 0.13289216 -0.07644884 0.29554543 0.24815144 0.39973754
-0.20829558 -0.1380379 -0.5555023 -0.08468007 -0.2798351 -0.1663723 0.115182325 -0.05753739
0.23159374 -0.09098778 0.2143428 -0.5187607 -0.3030847 -0.12959866 0.081886604 0.19618359
0.07859196 -0.123281635 -0.07916882 0.34106722 -0.29143128 -0.3116337 -0.16893695 0.34197623
0.273992 -0.03500435 -0.5358234 0.19958323 0.24874331 0.14638972 0.3909673 0.41673702
0.23916073 0.0011832579 -0.06618395 0.28869444 0.033851117 -0.12847628 0.12739718 0.087022685
00000000: b410 dbbe 1c7f aebe b25d bcbd 7dc3 e5bd
00000010: 9142 e73d 8299 a9be 6cfb 123d 96f7 ba3e
00000020: 7d80 3d3e 82b7 11bf ec05 c43d 7cbb b7bd
00000030: 7272 653e d472 793d 17e6 e8bd e3a2 ecbd
00000040: b519 b5bd 5edb 3fbe 9976 ebbd 6dc6 c8be
00000050: 1b21 a83e b313 2ebe 038f 2c3e fb84 55bd
00000060: 847c 71bd 8050 413e 378c 9dbe 6931 6c3d
00000070: b4ed a1be 0693 153d 6f05 a3bc ea69 13bf
00000080: 3a74 75be b3b7 dabe c4eb d0bd 9ebd 143e
00000090: 7c96 9b3b fc77 2fbd ee88 993e fbb0 cbbe
000000a0: b85b 3fbe 107a 533e aaa8 b73e 4ec8 0b3e
000000b0: 17d0 9cbe 7042 21be 8a00 bfbd f1c0 973e
000000c0: 148b df3d 8586 a33e 97d7 20be a263 913e
000000d0: 797a 85bd 5809 1ebf 43db e1bd 9067 83bc
000000e0: f3b8 b6be c47c 17be b658 1c3d 30f1 af3d
000000f0: cae6 ccbc 8cc4 d8be 573e d13c 7cc3 7abd
00000100: 18cf ccbe e334 543e fadc cfbd 0854 b23d
00000110: 00d4 abbd 5095 263d cf37 7cbe 2e2a 51be
00000120: 5778 8b3e 8155 463d 05bf 9f3d 6d5a 1d3f
00000130: 23eb 823d f5fb 34bd 9581 cb3e aa7f 23be
00000140: 7b99 1a3d 746b 943e 035f 513d 68df d83d
00000150: a98f 313f 00ab 1d3e a1ad 40be d98a 4ebe
00000160: 3094 513c 8ad9 cbbe 152e 703d a1ab c93b
00000170: 4d74 bbbe 599c 9e3d 7e8c 59be f985 ff3d
00000180: 3259 c7bd 3896 053f 8ba4 313e 77c9 25bd
00000190: 1f66 f2bd c6fd a0bd f373 223f 9d07 8abe
000001a0: 8f7a 383e 1707 3bbe 80e0 673d 3750 9ebd
000001b0: 2dc3 233e b38b d53d fbc1 7cbe 6140 02be
000001c0: de8c 99be 39b7 913e a126 cabc 62e0 cebe
000001d0: 8150 ae3d 6512 433d a6d1 d53d 0271 cc3e
000001e0: e837 c2be fb32 d23d 227e c23e f3c8 5f3e
000001f0: 1418 9bbc aa2e 993e e5e5 c33d c459 693e
00000200: 960e c23d 711c efbd 4092 c33d de74 ae3d
00000210: aaa4 103d 5ae5 b1be 5539 5e3e ca64 38be
00000220: 648e 6d3d c9c8 65be c081 93be 6b74 07bd
00000230: 0f86 f7bd ac0b e33e 41ee 043f a5e5 963e
00000240: 3d4e 30be e718 353e 4152 21bf b2f2 aabe
00000250: 3579 50be 446d 5aba 8e53 a4bd 7b7f 8abe
00000260: 836c eebc 53b0 93bd 2a30 5bbe e90d 2ebe
00000270: cbae cc3d 72d4 7dbd 7260 6cbe 3a30 bf3e
00000280: e686 a03b 1f38 163e 49d3 d9bd db07 313e
00000290: 42fa 8fbe 63b7 a4be 87e6 cdbd 4b59 a23e
000002a0: 4235 943e b9cd bb3e 2487 a83d 0808 6ebb
000002b0: 555d f2be 927c b13e 8972 7ebe b834 7fbc
000002c0: ec93 663e daed 06be f4e8 41be 7c5d 603c
000002d0: 1b7e fabe 2ef6 713e 00e6 a4bc 198a 00bd
000002e0: 942f 4bbe 9bfa cfbe 3b35 fa3d 3353 a13e
000002f0: 6f9c 65be 9c93 c03e 51ef 36be c134 9dbe
00000300: 191a 44be 98c6 51be f5ad 763d 8bbe 523e
00000310: d141 9a3d 9061 993c 9fc3 7bbc f123 c33d
00000320: de92 4abe 941b c33c 9476 b3be 5551 b83e
00000330: 583c d23e a55e 333e 3f68 0bbf 9eec 453e
00000340: 531d c9be 84f9 163e 8299 ed3d e214 083e
00000350: 3691 9cbd bb51 973e 691b 7e3e 66aa cc3e
00000360: 704b 55be cf59 0dbe 6635 0ebf bf6c adbd
00000370: 8c46 8fbe 805d 2abe b6e4 eb3d 54ac 6bbd
00000380: e926 6d3e cd57 babd ae7c 5b3e 80cd 04bf
00000390: eb2d 9bbe 83b5 04be 2ab4 a73d 5ae4 483e
000003a0: d2f4 a03d 157b fcbd 4323 a2bd 5da0 ae3e
000003b0: 7b36 95be 748e 9fbe cffd 2cbe 8217 af3e
000003c0: ae48 8c3e b960 0fbd b92b 09bf 8c5f 4c3e
000003d0: 91b6 7e3e 30e7 153e de2c c83e 8e5e d53e
000003e0: 8de6 743e 8c17 9b3a 738b 87bd c2cf 933e
000003f0: 78a7 0a3d 498f 03be 6874 023e f338 b23d

fc.2.weight f4 [2, 16]
-0.35985658 -0.08992009 0.061374962 0.4075211 0.076955535 0.33509037 0.19960344 -0.57375205
0.10324504 -0.080860645 0.075589545 -0.23055807 0.09191677 -0.064568706 0.10534953 -0.4262898
-0.14738807 0.33722746 -0.27139932 0.3968678 -0.0297212 0.16665246 -0.015370604 0.26296872
0.2674453 -0.09666445 -0.21841036 -0.1325145 0.4385044 0.03777375 -0.28107598 0.41966182
00000000: 1f3f b8be 0628 b8bd 5064 7b3d 9ba6 d03e
00000010: dd9a 9d3d f790 ab3e d864 4c3e 6ae1 12bf
00000020: 2372 d33d 449a a5bd b1ce 9a3d 6a17 6cbe
00000030: dc3e bc3d 993c 84bd 7fc1 d73d a842 dabe
00000040: e6ec 16be 14a9 ac3e daf4 8abe 4232 cb3e
00000050: e079 f3bc f1a6 2a3e fcd4 7bbc d6a3 863e
00000060: 97ee 883e 03f8 c5bd f7a6 5fbe e2b1 07be
00000070: a683 e03e a6b8 1a3d 31e9 8fbe eadd d63e

f.0.weight f4 [16, 16]
-0.23408759 0.04369268 -0.14766659 0.07857059 0.25682175 -0.07283076 0.019839097 -0.07982828
-0.19796082 -0.26554242 0.13811325 0.020239752 0.18674178 -0.269688 -0.14957812 -0.12055613
-0.022102145 -0.11357268 0.073895484 0.27653027 -0.17092827 -0.06543087 -0.21392287 -0.07111912
-0.09930591 -0.22878572 -0.059875198 -0.111314036 0.09728495 -0.10855629 -0.11495963 0.10409615
-0.18811753 -0.037583362 -0.04726844 -0.17139672 0.073702164 0.06930891 -0.037086297 0.05493527
-0.0059291963 -0.13980642 -0.23332834 -0.078514665 0.20667386 -0.11932074 0.259466 -0.14100987
0.12359238 0.1620046 0.12505533 -0.16948408 -0.22985777 -0.13987237 0.13236228 0.18579379
-0.12238671 0.17098425 0.16312644 -0.15286528 0.047881734 0.087150134 0.12848376 -0.102311686
-0.054927967 -0.15052328 0.083497725 0.21717605 0.050013393 0.10837306 0.21742366 0.14480169
0.14479478 0.08434253 0.021234166 0.06916747 0.16826567 0.084753454 0.26182875 0.19873227
0.25956827 -0.072106406 -0.18743767 -0.025942542 -0.22519514 0.19043808 -0.1413402 -0.057290837
0.1901897 -0.21484733 0.23306821 -0.1686079 -0.0831222 -0.14648843 0.26767287 -0.20304348
-0.036275115 0.24103472 0.074374266 0.20633078 -0.041357294 0.1542465 0.04925877 -0.08256209
0.059970263 0.21027143 -0.1798091 0.21174048 0.07522396 0.2966285 0.02470681 0.03239791
-0.036132682 0.09264711 -0.16196528 0.004399942 -0.19174944 0.07089465 0.07917451 -0.20355237
0.13642524 0.17302419 0.16116732 -0.005560624 -0.19709969 -0.16092803 -0.12894596 -0.040915076
0.109930746 0.029232562 0.0013151234 -0.16476135 -0.09774008 0.18902084 0.09588981 0.2442395
-0.25694263 0.2506473 0.21494737 0.0071474193 -0.21128954 -0.13808842 -0.13621236 0.15616491
-0.12250122 -0.061473716 0.21692716 -0.07022906 -0.08804016 0.19096379 0.2003701 -0.045825064
0.28273696 0.14499883 -0.035254974 0.062432073 -0.1972397 0.05005347 0.14519025 -0.12800916
-0.11857806 0.05213711 0.22976588 0.058756225 0.15980232 -0.09874937 0.23442458 -0.15357576
-0.14401351 -0.22287203 -0.019891763 -0.26527002 -0.115888156 -0.20223734 0.004556986 -0.008485464
-0.14555803 0.055505037 -0.20714621 0.23068629 -0.06386965 -0.21635227 -0.0111650685 -0.22408964
0.08947982 -0.040750157 -0.06673078 -0.13653843 -0.0403443 0.18772583 0.07447566 0.12755755
-0.15502992 0.0119012585 -0.24003285 0.0025243387 0.15852092 -0.0884741 0.18421641 0.13406943
-0.24508888 0.16336294 0.05849413 -0.17915872 0.027442874 -0.10480175 0.10877095 -0.2728631
0.23660442 0.068178944 -0.19476825 -0.100772925 0.039888885 -0.01430242 0.091525376 -0.034846596
0.21108556 0.14556468 -0.16766047 0.07582952 0.17550561 -0.10805519 -0.035681333 0.13903904
0.12982064 0.057533383 -0.19077797 0.03480383 0.24126993 0.09121416 0.16885829 0.22936541
0.070913196 0.2074022 -0.17160782 0.21505752 0.023875557 -0.17363347 0.051004056 -0.06621062
-0.004382154 -0.18041869 -0.07150465 0.16238661 0.07636595 -0.04599767 0.1983816 0.21646062
-0.14684546 -0.17597371 0.14168186 -0.104340754 -0.035817996 0.09246154 0.22803377 0.2096047
00000000: a8b4 6fbe 18f7 323d e935 17be 9ee9 a03d
00000010: 247e 833e 4b28 95bd 9a85 a23c 027d a3bd
00000020: 3eb6 4abe 2df5 87be 8f6d 0d3e d6cd a53c
00000030: 3d39 3f3e 8c14 8abe 022b 19be 22e6 f6bd
00000040: 8f0f b5bc cb98 e8bd 8456 973d 6095 8d3e
00000050: d207 2fbe 9f00 86bd 990e 5bbe e7a6 91bd
00000060: e660 cbbd ce46 6abe b23f 75bd 9df8 e3bd
00000070: 553d c73d c352 debd f46f ebbd 5d30 d53d
00000080: e2a1 40be 03f1 19bd 8d9c 41bd 9f82 2fbe
00000090: 29f1 963d d4f1 8d3d cde7 17bd ce03 613d
000000a0: b449 c2bb 6a29 0fbe a0ed 6ebe 4ccc a0bd
000000b0: 50a2 533e 6f5e f4bd bad8 843e e464 10be
000000c0: 001e fd3d 89e4 253e 810e 003e 3c8d 2dbe
000000d0: d65f 6bbe b43a 0fbe fa89 073e ba40 3e3e
000000e0: e2a5 fabd 7f16 2f3e 9e0a 273e b788 1cbe
000000f0: a31f 443d c57b b23d 3f91 033e ca88 d1bd
00000100: 26fc 60bd c622 1abe db00 ab3d 6663 5e3e
00000110: d8da 4c3d b2f2 dd3d 4fa4 5e3e e546 143e
00000120: 1545 143e c7bb ac3d 46f3 ad3c ada7 8d3d
00000130: d64d 2c3e 3893 ad3d 6b0e 863e 7980 4b3e
00000140: 22e6 843e 86ac 93bd a9ef 3fbe 7485 d4bc
00000150: 8e99 66be 3302 433e 7cbb 10be cca9 6abd
00000160: 17c1 423e f000 5cbe 6fa9 6e3e 8da7 2cbe
00000170: f93b aabd 1001 16be 6b0c 893e a1ea 4fbe
00000180: 3795 14bd ced1 763e 8951 983d 6048 533e
00000190: 4466 29bd cbf2 1d3e 90c3 493d 5016 a9bd
000001a0: 61a3 753d 6551 573e e01f 38be 7fd2 583e
000001b0: 050f 9a3d b1df 973e f065 ca3c acb3 043d
000001c0: ddff 13bd c5bd bd3d 3ada 25be 632d 903b
000001d0: f759 44be 3731 913d 3f26 a23d 0870 50be
000001e0: 0fb3 0b3e 412d 313e 0c09 253e e535 b6bb
000001f0: 80d4 49be 51ca 24be 690a 04be 9196 27bd
00000200: 5f23 e13d 2079 ef3c 3860 ac3a 33b7 28be
00000210: f32b c8bd ae8e 413e e061 c43d eb19 7a3e
00000220: fc8d 83be d854 803e 2a1b 5c3e e634 ea3b
00000230: 495c 58be 0d67 0dbe 417b 0bbe b2e9 1f3e
00000240: ebe1 fabd ddcb 7bbd 2722 5e3e 41d4 8fbd
00000250: 664e b4bd 038c 433e d22d 4d3e 10b3 3bbd
00000260: e6c2 903e 937a 143e 8567 10bd c6b8 7f3d
00000270: 34f9 49be de04 4d3d c1ac 143e d514 03be
00000280: 0ed9 f2bd b98d 553d bf47 6b3e 5eaa 703d
00000290: 38a3 233e 1c3d cabd ff0c 703e f742 1dbe
000002a0: 4778 13be 9138 64be 0df4 a2bc 79d1 87be
000002b0: c556 edbd 4e17 4fbe c552 953b 9e06 0bbc
000002c0: 2a0d 15be 4059 633d 231e 54be 0739 6c3e
000002d0: 17ce 82bd 738b 5dbe b1ed 36bc c177 65be
000002e0: 3241 b73d a3e9 26bd 26aa 88bd bbd0 0bbe
000002f0: 1140 25bd 333b 403e b286 983d 729e 023e
00000300: 2ac0 1ebe 7ffd 423c 2ccb 75be 606f 253b
00000310: 4f53 223e e931 b5bd 3aa3 3c3e 7f49 093e
00000320: 94f8 7abe 9d48 273e 8a97 6f3d 6275 37be
00000330: e1cf e03c 4da2 d6bd 4ec3 de3d b6b4 8bbe
00000340: 6e48 723e 67a1 8b3d 5471 47be 0962 cebd
00000350: 8762 233d b354 6abc a871 bb3d 4ebb 0ebd
00000360: d026 583e e80e 153e 30af 2bbe 824c 9b3d
00000370: beb7 333e 0a4c ddbd 9726 12bd 4060 0e3e
00000380: b4ef 043e 20a8 6b3d 4d5b 43be 768e 0e3d
00000390: 770f 773e 7dce ba3d 30e9 2c3e c4de 6a3e
000003a0: f03a 913d 3e61 543e f6b9 2fbe 0a38 5c3e
000003b0: ac96 c33c f9cc 31be a1e9 503d 6f99 87bd
000003c0: 2c98 8fbb adbf 38be 0871 92bd ad48 263e
000003d0: c065 9c3d 0e68 3cbd 8c24 4b3e daa7 5d3e
000003e0: a85e 16be 7432 34be 0d15 113e 9bb0 d5bd
000003f0: e4b5 12bd 7a5c bd3d af81 693e 9da2 563e

f.0.bias f4 [16]
-0.18295006 0.06710307 0.07126787 -0.083849765 0.092766374 -0.008170683 -0.06648646 -0.09671601
0.10889651 -0.0817784 0.030133782 -0.25111112 -0.13520066 -0.14740114 -0.15964478 0.1527302
00000000: 4357 3bbe 566d 893d e4f4 913d 6db9 abbd
00000010: 4cfc bd3d 54de 05bc 0e2a 88bd 0b13 c6bd
00000020: 2205 df3d 6f7b a7bd 1fdb f63c a391 80be
00000030: 0b72 0abe 53f0 16be ec79 23be 4e65 1c3e

f.2.weight f4 [16, 16]
0.071244255 -0.24907622 -0.02992572 0.21238999 0.072019905 0.02708632 -0.120962046 0.11399366
0.075600125 0.2221204 -0.004298742 0.19935384 0.22665095 -0.0381289 0.025697375 0.18246688
0.10105708 0.20103984 0.082812205 -0.12271612 0.14056344 -0.07486214 -0.031461664 -0.19423166
-0.19054782 -0.07979326 0.23553023 -0.055455804 0.06535721 0.1295605 0.16390708 0.038676593
-0.067382574 0.06784434 -0.23328227 0.21137194 -0.24398014 -0.19323634 -0.136491 -0.1738561
-0.0075293086 0.018358847 0.21819277 -0.086421214 -0.02718513 0.0652849 0.18249117 -0.039363697
-0.23066843 0.07295512 -0.01689748 -0.0036629615 -0.09991206 0.15730055 -0.21429762 -0.03675763
-0.14769693 -0.1989951 -0.032143157 0.026799673 -0.15892069 0.1350764 -0.1400314 0.26806417
0.2492904 0.17852125 0.21323586 0.07890051 0.08639569 -0.12295596 0.049999304 -0.08474603
0.0081532085 0.19773942 0.086399175 0.22420709 0.23740202 -0.117247015 0.22701131 -0.08583477
-0.23462388 0.23742825 -0.2100042 0.15875052 0.19531304 0.13200209 0.011141489 0.19935715
0.16072918 -0.19348964 -0.07227309 -0.26423353 0.011127395 -0.043983065 -0.0026981 -0.15441693
0.09053631 -0.03668094 0.088263065 0.020958165 -0.20681438 -0.0141731175 -0.16906273 -0.20330153
-0.12550296 0.042767506 -0.13195542 -0.12514965 0.10304993 -0.25618118 -0.0702661 -0.18871252
0.14655069 -0.058540076 0.21031949 -0.1707371 0.24596967 -0.023425642 0.021958483 0.17814708
-0.17477778 0.050657533 0.019292086 -0.13239421 -0.03502194 -0.035317793 0.013988192 0.001504876
0.1453343 -0.15373445 0.17354698 -0.057582986 -0.15670958 0.0620103 -0.11595843 -0.105394535
-0.049397115 0.0053133615 -0.01679848 -0.11993812 -0.046732716 0.23008406 0.19290535 0.15457043
-0.26765078 0.020390283 0.21044967 -0.061759572 0.016301414 -0.14421466 0.06028142 -0.15111238
-0.1056607 -0.14565639 -0.20503348 -0.09201235 0.21707211 0.18508567 -0.062283978 -0.10165336
-0.23134044 0.25479645 -0.07780086 -0.20521991 -0.23230696 0.09828273 0.2828158 -0.0021107274
-0.061180484 0.1819273 -0.3129774 0.23474158 0.12848625 -0.22301379 -0.27449054 0.1859766
-0.22556362 0.069893435 0.21858478 0.13091944 -0.049981825 -0.11527785 0.21095219 -0.18910472
0.07040513 0.14359044 -0.09187296 0.037362866 0.039733604 0.05110805 -0.11571467 -0.15510617
0.061108213 0.20331791 0.27278078 0.06362382 -0.053890422 0.052168574 -0.26726708 -0.15906309
-0.26827124 0.20290412 0.262216 0.14504556 -0.12754679 0.2252011 -0.049352482 0.15162687
-0.12714607 0.12136851 -0.047725167 0.12219297 -0.10636099 -0.22485587 0.18782145 -0.13168848
-0.110717416 0.15738854 0.23476559 0.10049424 -0.16418059 -0.26240417 0.16948314 -0.10390033
0.10009136 -0.22225583 0.09125967 -0.04499146 0.2946216 0.06027653 0.053640466 0.056102928
-0.13689955 0.0025395835 0.09944483 -0.029237906 -0.12975323 0.07158404 0.107686445 0.051007733
0.24052934 0.081257865 0.08923777 0.27555043 0.09460972 -0.23741153 -0.24289988 0.0037567166
-0.13435127 -0.17878085 -0.041087665 0.2430139 -0.18289101 -0.1652478 -0.16991322 -0.17963897
00000000: 82e8 913d d60d 7fbe c926 f5bc c37c 593e
00000010: 2c7f 933d 21e4 dd3c f3ba f7bd 8275 e93d
00000020: 3dd4 9a3d 8873 633e 76dc 8cbb 6a23 4c3e
00000030: 3017 683e 0d2d 1cbd 4d83 d23c 99d8 3a3e
00000040: 04f7 ce3d 63dd 4d3e 7299 a93d 9752 fbbd
00000050: ddef 0f3e 5251 99bd f2dd 00bd aae4 46be
00000060: f81e 43be a66a a3bd d62e 713e a025 63bd
00000070: 00da 853d 82ab 043e 42d7 273e 596b 1e3d
00000080: e0ff 89bd f9f1 8a3d 8ce1 6ebe e371 583e
00000090: eed5 79be bfdf 45be 4cc4 0bbe 5507 32be
000000a0: 6bb8 f6bb 4b65 963c ed6d 5f3e 9bfd b0bd
000000b0: 5ab3 debc 17b4 853d f7de 3a3e d43b 21bd
000000c0: 5834 6cbe 7e69 953d 956c 8abc 4c0e 70bb
000000d0: b29e ccbd 6513 213e d670 5bbe 2b8f 16bd
000000e0: dd3d 17be 5fc5 4bbe 8ba8 03bd fd8a db3c
000000f0: 1bbc 22be 7851 0a3e 6464 0fbe b53f 893e
00000100: fc45 7f3e 46ce 363e 805a 5a3e 9796 a13d
00000110: 39f0 b03d 56d0 fbbd 12cc 4c3d 548f adbd
00000120: 0995 053c 347c 4a3e 0df2 b03d 8b96 653e
00000130: 8419 733e 341f f0bd a775 683e 24ca afbd
00000140: 3e41 70be 6420 733e 570b 57be 7f8f 223e
00000150: 2400 483e 8e2b 073e cb8a 363c 4824 4c3e
00000160: 3196 243e 2622 46be ea03 94bd 9e49 87be
00000170: ad4f 363c 9627 34bd 9bd2 30bb 791f 1ebe
00000180: 1a6b b93d c13e 16bd 44c3 b43d 75b0 ab3c
00000190: 26c7 53be 5d36 68bc c81e 2dbe 472e 50be
000001a0: d983 00be fb2c 2f3d 521f 07be 3b27 00be
000001b0: d70b d33d 2e2a 83be ace7 8fbd db3d 41be
000001c0: 6211 163e b8c7 6fbd fe5d 573e b5d5 2ebe
000001d0: 79df 7b3e 22e7 bfbc 47e2 b33c 306c 363e
000001e0: f2f8 32be 467e 4f3d 700a 9e3c 5992 07be
000001f0: 2a73 0fbd 64a9 10bd bb2e 653c 423f c53a
00000200: 84d2 143e 906c 1dbe 4db6 313e 23dc 6bbd
00000210: 7a78 20be 83fe 7d3d 9d7b edbd 17d9 d7bd
00000220: a154 4abd b51b ae3b f79c 89bc 1ea2 f5bd
00000230: ce6a 3fbd 289b 6b3e fb88 453e b647 1e3e
00000240: 8609 89be 8609 a73c 1e80 573e 9bf7 7cbd
00000250: 8b8a 853c 02ad 13be a6e9 763d 34bd 1abe
00000260: a364 d8bd f326 15be 4cf4 51be f970 bcbd
00000270: 2748 5e3e 1987 3d3e 7c1d 7fbd a32f d0bd
00000280: 82e4 6cbe ae74 823e 0f56 9fbd 2b25 52be
00000290: e0e1 6dbe 7548 c93d 3ccd 903e 2154 0abb
000002a0: 6398 7abd 264b 3a3e 933e a0be 1960 703e
000002b0: e691 033e ba5d 64be 068a 8cbe a670 3e3e
000002c0: 26fa 66be 4a24 8f3d b0d4 5f3e bf0f 063e
000002d0: beb9 4cbd cb16 ecbd da03 583e aba4 41be
000002e0: 9130 903d 5f09 133e e427 bcbd ce09 193d
000002f0: b4bf 223d ad56 513d d0fb ecbd 27d4 1ebe
00000300: 9b4c 7a3d 9232 503e eca9 8b3e 354d 823d
00000310: 34bc 5cbd b7ae 553d 3bd7 88be 6fe1 22be
00000320: d95a 89be 19c6 4f3e 2d41 863e d386 143e
00000330: a09b 02be 1e9b 663e d425 4abd 1344 1b3e
00000340: 9432 02be 0e90 f83d 777b 43bd 4f40 fa3d
00000350: cad3 d9bd 9e40 66be 4454 403e 58d9 06be
00000360: d0bf e2bd 762a 213e 6466 703e edcf cd3d
00000370: f51e 28be d759 86be fd8c 2d3e b2c9 d4bd
00000380: b3fc cc3d 0897 63be 5ae6 ba3d f748 38bd
00000390: a4d8 963e 86e4 763d 1bb6 5b3d 2fcc 653d
000003a0: 652f 0cbe 246f 263b bba9 cb3d 5584 efbc
000003b0: 08de 04be a79a 923d b68a dc3d 7ced 503d
000003c0: 534d 763e 866a a63d 4bc2 b63d f214 8d3e
000003d0: bec2 c13d 021c 73be bfba 78be 3f33 763b
000003e0: 6193 09be 5412 37be 8a4b 28bd a3d8 783e
000003f0: c847 3bbe b836 29be bbfd 2dbe 47f3 37be

f.2.bias f4 [16]
0.0242966 0.030259334 0.067295134 0.00018934593 -0.25722167 -0.053174943 -0.008391797 -0.1860894
0.10076908 -0.031828586 -0.10580128 0.12054447 -0.11467409 -0.02000631 0.23338442 0.1419961
00000000: aa09 c73c 6ce2 f73c 08d2 893d 298b 4639
00000010: 8fb2 83be f8cd 59bd bf7d 09bc 388e 3ebe
00000020: 0560 ce3d b15e 02bd 57ae d8bd 05e0 f63d
00000030: 40da eabd 46e4 a3bc 53fc 6e3e 6d67 113e

g.0.weight f4 [16, 16]
0.035088148 0.15139258 0.06315571 -0.062091004 0.15646021 0.053045318 0.16260545 0.012792502
-0.12748332 0.10101109 0.24666984 -0.23521565 -0.12215424 -0.20935607 -0.09300459 -0.23963445
0.08487493 -0.16195269 -0.21061853 0.11110856 -0.18760923 -0.14615309 0.13465123 -0.08279787
0.12124554 0.22947335 0.11309533 -0.03677295 -0.110339776 0.022940505 0.16172178 -0.2016228
-0.18274415 -0.0973989 -0.21888795 -0.13608505 0.18608867 0.24239096 0.17703204 0.14491887
0.24574707 0.013223409 -0.19854368 -0.25649878 0.04413174 0.20822082 -0.03197844 0.20491211
0.20966424 -0.23030171 0.20859717 -0.060485594 0.056701053 -0.21740729 0.11163943 -0.06972412
-0.2590612 0.078257404 -0.21324395 0.05599581 -0.21835351 -0.06435091 0.2041906 0.16953568
-0.2718646 0.069014974 -0.17306034 0.19939421 -0.120348476 0.0715109 0.018679816 0.11329457
0.016252484 -0.15498762 -0.03545611 0.113517046 0.060591757 0.18849812 -0.14632925 0.09169358
0.11870656 -0.27515864 0.013661054 -0.07384791 0.040819895 -0.097961575 0.14877652 -0.12995248
0.016310738 -0.22969256 -0.00945941 -0.026430516 0.1866442 0.14999466 -0.17255446 -0.1384579
-0.043818094 -0.14824644 0.015101892 -0.09736501 0.17111437 0.22750202 -0.17122738 0.058576718
0.21818578 0.2086811 0.0018751927 -0.091746725 0.18287967 0.04455753 0.15485309 -0.07664938
0.24110678 0.08589069 0.06104067 -0.06497978 0.03823331 -0.24492565 -0.17010692 0.18096708
-0.09225788 0.04962463 0.02257942 -0.046852086 0.13893193 -0.08080381 -0.22102518 -0.057160527
-0.05963008 -0.23724571 0.056758072 -0.1933719 0.12525639 -0.11910694 0.08475264 0.10348181
-0.20702137 -0.021236492 -0.17324 0.21095608 -0.02662235 0.22415529 -0.13956378 0.19297926
-0.04877687 -0.24129593 0.08546066 0.18343736 0.23406465 -0.01423049 -0.088087246 -0.046347626
-0.061038062 0.12789993 -0.15880553 0.20895502 0.121738195 -0.13457571 0.111925654 0.20683916
-0.019681182 0.22499758 -0.11661277 0.026338255 -0.15758789 0.1620798 0.028534109 0.080125816
-0.23849249 -0.19760205 -0.17830491 -0.09923305 0.13145761 -0.25130683 0.08653333 0.04897798
0.22497192 -0.07981352 0.14884159 0.1487687 0.1988368 -0.21344757 -0.13375774 0.02085515
0.26792398 -0.17584226 -0.07639327 0.11912434 -0.19782273 0.2669142 -0.07469646 0.11831524
-0.09936434 -0.008518165 -0.066092 0.05467681 -0.0010972127 -0.047776584 0.1309473 0.06551581
0.24813321 -0.19074382 0.07405289 -0.07204394 0.12798034 0.06821884 0.19707704 -0.022086468
-0.18708548 -0.25014406 0.0010517583 0.2445186 -0.17708217 -0.18822232 -0.25142407 -0.093975194
0.10542681 0.16801731 0.011342769 -0.20357978 0.25432372 0.0076301815 0.10589108 0.1498328
0.22503477 0.06782363 -0.23815219 -0.03402378 0.023789898 -0.25471243 -0.17312707 0.14250138
-0.010636805 -0.22375509 0.27769372 0.12611647 0.06973566 -0.0657173 0.09643536 0.002597564
-0.028579509 0.06412204 -0.12395361 -0.105341114 -0.16338252 0.1666583 0.055732418 -0.21596026
-0.03749231 0.10523421 -0.020093022 0.2685438 -0.12982242 0.23024589 -0.052500326 0.10514028
00000000: 97b8 0f3d a806 1b3e c857 813d 2353 7ebd
00000010: 1b37 203e 0c46 593d 0b82 263e a497 513c
00000020: fd8a 02be e7de ce3d 0597 7c3e 5fdc 70be
00000030: 012c fabd 7061 56be 3179 bebd bc62 75be
00000040: e8d2 ad3d edd6 25be 62ac 57be e28c e33d
00000050: a21c 40be 28a9 15be 03e2 093e ee91 a9bd
00000060: 954f f83d 10fb 6a3e 869e e73d 3c9f 16bd
00000070: d2f9 e1bd baed bb3c 659a 253e 3576 4ebe
00000080: 4821 3bbe 1379 c7bd 2a24 60be e159 0bbe
00000090: 078e 3e3e 5635 783e e347 353e 9d65 143e
000000a0: 1fa5 7b3e ffa6 583c 094f 4bbe cf53 83be
000000b0: 7cc3 343d d737 553e d3fb 02bd 7bd4 513e
000000c0: 39b2 563e 36d4 6bbe 7f9a 553e bebf 77bd
000000d0: 5d3f 683d 04a0 5ebe 37a3 e43d 85cb 8ebd
000000e0: aba3 84be 6b45 a03d 9f5c 5abe dd5b 653d
000000f0: 1098 5fbe 69ca 83bd 5717 513e c39a 2d3e
00000100: d631 8bbe b957 8d3d bb36 31be ff2d 4c3e
00000110: 4379 f6bd 4f74 923d 6a06 993c fc06 e83d
00000120: ee23 853c 13b5 1ebe 6d3a 11bd a07b e83d
00000130: 102f 783d a705 413e 56d7 15be d8c9 bb3d
00000140: 6d1c f33d 98e1 8cbe 9dd2 5f3c 933d 97bd
00000150: c332 273d 14a0 c8bd df58 183e 4312 05be
00000160: 199e 853c 8734 6bbe a4fb 1abc cf84 d8bc
00000170: a81f 3f3e 3398 193e 1eb2 30be e8c7 0dbe
00000180: 9a7a 33bd eacd 17be ed6d 773c 4e67 c7bd
00000190: 9b38 2f3e 4af6 683e 3b56 2fbe 24ee 6f3d
000001a0: 186c 5f3e 80b0 553e 07c9 f53a b5e5 bbbd
000001b0: cf44 3b3e f581 363d cf91 1e3e 5afa 9cbd
000001c0: b2e4 763e 75e7 af3d c805 7a3d 1e14 85bd
000001d0: 889a 1c3d cacd 7abe 8230 2ebe 6f4f 393e
000001e0: b3f1 bcbd 3243 4b3d 7af8 b83c f9e7 3fbd
000001f0: 2c44 0e3e 787c a5bd 6d54 62be 2821 6abd
00000200: ac3e 74bd 8af0 72be 277b 683d 4903 46be
00000210: 3643 003e 57ee f3bd cb92 ad3d 45ee d33d
00000220: 69fd 53be 27f8 adbc d465 31be df04 583e
00000230: 1d17 dabc f788 653e cfe9 0ebe 5b9c 453e
00000240: 41ca 47bd 4816 77be 0006 af3d 01d7 3b3e
00000250: a5ae 6f3e 0027 69bc 1667 b4bd 02d7 3dbd
00000260: 0c03 7abd 33f8 023e eb9d 22be 4ef8 553e
00000270: e051 f93d 37ce 09be 4739 e53d a5cd 533e
00000280: 6e3a a1bc c465 663e add2 eebd 53c3 d73c
00000290: b85e 21be 3ff8 253e 5dc0 e93c 0119 a43d
000002a0: 6037 74be 3158 4abe 9095 36be b33a cbbd
000002b0: d39c 063e 4aab 80be 6338 b13d 229d 483d
000002c0: 0a5f 663e 4575 a3bd ee69 183e d256 183e
000002d0: e09b 4b3e 0092 5abe caf7 08be 6bd8 aa3c
000002e0: 552d 893e fe0f 34be 1374 9cbd 76f7 f33d
000002f0: 0b92 4abe faa8 883e 75fa 98bd 434f f23d
00000300: 887f cbbd c68f 0bbc 3e5b 87bd caf4 5f3d
00000310: 59d0 8fba 61b1 43bd 0d17 063e 272d 863d
00000320: a216 7e3e 5952 43be 0ba9 973d c68b 93bd
00000330: 470d 033e 52b6 8b3d 90ce 493e aeee b4bc
00000340: 5693 3fbe e212 80be 27db 893a 1563 7a3e
00000350: 0755 35be 5abd 40be a8ba 80be 1176 c0bd
00000360: 03ea d73d bb0c 2c3e 05d7 393c 3877 50be
00000370: b836 823e 9a06 fa3b 6cdd d83d c56d 193e
00000380: 846f 663e 1ee7 8a3d 2bde 73be 855c 0bbd
00000390: 08e3 c23c ab69 82be 3948 31be e2eb 113e
000003a0: fe45 2ebc 0e20 65be df2d 8e3e ad24 013e
000003b0: 92d1 8e3d cb96 86bd e77f c53d e43b 2a3b
000003c0: 931f eabc 6b52 833d 64db fdbd 15bd d7bd
000003d0: bf4d 27be 79a8 2a3e ad47 643d b024 5dbe
000003e0: 8991 19bd 0985 d73d 1f9a a4bc 937e 893e
000003f0: 2bf0 04be 94c5 6b3e 950a 57bd ca53 d73d

g.0.bias f4 [16]
-0.11048916 0.15027742 -0.11113071 0.17750368 -0.22205195 0.21355091 -0.14311628 -0.089152604
0.17816888 -0.22363095 -0.1939733 -0.16364136 0.028407006 0.06835051 0.08579298 0.14974864
00000000: 2448 e2bd 53e2 193e 7f98 e3bd 86c3 353e
00000010: 9661 63be 17ad 5a3e 138d 12be a495 b6bd
00000020: e771 363e 83ff 64be f0a0 46be 9a91 27be
00000030: cfb5 e83c 5afb 8b3d 3bb4 af3d b557 193e

g.2.weight f4 [80, 16]
0.106321424 0.2212825 0.2501943 -0.0029406438 0.058189716 -0.1699651 0.06781224 0.12588945
-0.17916851 -0.20729081 -0.17946403 0.16631354 -0.062427744 0.09871208 -0.16775356 0.16090679
-0.09562351 0.15437864 -0.2053723 0.12922058 -0.0975257 -0.1865357 -0.05025974 -0.18554915
-0.25791243 -0.0069584926 0.11267748 -0.21722378 0.13464814 0.077746905 0.07893983 -0.10303854
0.26315978 -0.21126856 -0.036327146 -0.2169881 -0.0803177 0.23769042 0.057683364 0.117967576
-0.26731104 0.06825203 0.03245509 -0.19192043 0.08957347 0.18321775 -0.18446857 0.039610635
0.11182932 0.055390775 0.054940637 0.16408244 -0.02115797 0.102090724 0.19478053 -0.06386487
-0.21738699 -0.18763806 -0.07529394 0.22136322 0.25651085 0.21822394 0.16225715 0.036838137
-0.1651281 0.21927376 -0.027732199 0.1699202 0.13882695 0.038819894 -0.15696257 -0.10197923
-0.16823803 -0.16540997 0.10166875 0.14900304 0.22872786 -0.11559295 -0.12611139 -0.21427962
0.005107394 -0.03782383 0.16946644 -0.024612783 -0.0119061535 -0.068366565 0.032897823 -0.21414338
-0.21415153 0.15254058 0.18965401 -0.00045495518 0.0042318157 0.06343493 -0.1916138 -0.09111533
0.19147675 0.028969308 -0.15921451 -0.020506134 0.25297874 -0.09656924 0.16487212 -0.0784012
0.04636973 -0.0030999389 -0.24239351 -0.21554828 -0.14223523 -0.09914599 -0.12006871 -0.10478173
-0.06781225 0.22770974 -0.09145511 -0.13168396 -0.25403485 -0.119063705 -0.21639708 -0.10758826
-0.17211017 0.110355094 0.15001073 -0.18032138 -0.021716729 0.12714814 -0.2232214 -0.047466215
-0.023088451 -0.04926844 0.22835419 -0.11935838 0.28156772 0.3162502 0.16757996 -0.021234209
0.00900718 0.06274246 -0.16316837 0.22178037 0.21884364 0.045582097 -0.2840119 -0.1431799
0.017665429 0.19113752 0.06353464 -0.047844235 -0.15114106 0.12253137 0.23929842 0.12589045
-0.1317928 -0.18327217 0.01565466 -0.22540061 -0.111436546 -0.026573772 0.12716714 0.08433764
0.12818658 0.04709036 -0.20114012 -0.21255559 -0.2047485 0.169468 -0.1950674 0.18119338
-0.008032935 -0.014426536 0.083406344 -0.12747796 -0.22578692 0.05855154 0.2339075 0.16019356
0.01577171 -0.22827578 -0.17803831 0.14765348 0.1438271 -0.16809022 -0.19651945 0.2571212
0.14673327 0.0057581305 0.03413437 0.22382368 0.018737808 0.20255718 -0.23334736 -0.058313154
-0.24750064 -0.15509824 0.21298707 -0.09002432 -0.21926102 0.2005302 0.1635315 -0.16577491
0.08662639 0.17841429 0.13751526 -0.20694606 0.0057286364 -0.025119351 0.07464541 -0.13111815
0.08018455 -0.053890172 0.16207512 -0.23272665 -0.07252975 0.2187432 0.01857316 -0.20928158
0.0727168 0.016773062 0.20910276 -0.17809615 -0.0403523 -0.3012702 -0.046033397 0.12580937
-0.17844035 -0.08182051 0.20254752 0.07394264 0.03266471 0.088169925 -0.16406521 -0.12964305
-0.011484022 0.08468403 -0.0839715 0.21336028 0.17098379 -0.15530874 0.006083752 -0.25979644
-0.13422464 0.19661944 -0.027114091 -0.07359632 -0.20829721 0.14836386 -0.09389249 -0.009373707
-0.15149559 0.21644378 -0.124835595 -0.05865499 0.16474645 0.05229326 0.00288877 0.03164426
00000000: 0cbf d93d e197 623e 7819 803e d1b7 40bb
00000010: 5758 6e3d 550b 2ebe 25e1 8a3d 2ae9 003e
00000020: f377 37be 0b44 54be 6bc5 37be 194e 2a3e
00000030: 3cb4 7fbd 8f29 ca3d 97c7 2bbe c0c4 243e
00000040: 42d6 c3bd 6f15 1e3e 1e4d 52be 6652 043e
00000050: 8ebb c7bd 3703 3fbe 28dd 4dbd 9900 3ebe
00000060: 190d 84be 1104 e4bb 73c3 e63d e96f 5ebe
00000070: 34e1 093e c539 9f3d 35ab a13d df05 d3bd
00000080: e1bc 863e c956 58be c6cb 14bd 2132 5ebe
00000090: 9b7d a4bd 1e65 733e 6445 6c3d fc98 f13d
000000a0: fedc 88be b8c7 8b3d a1ef 043d ca86 44be
000000b0: 4c72 b73d 6f9d 3b3e 54e5 3cbe c33e 223d
000000c0: c506 e53d 70e1 623d 6f09 613d 3a05 283e
000000d0: 7b53 adbc f114 d13d 8c74 473e 96cb 82bd
000000e0: b29a 5ebe 3124 40be b633 9abd 0aad 623e
000000f0: 6455 833e 1976 5f3e bd26 263e 96e3 163d
00000100: 5717 29be 4d89 603e a32e e3bc 90ff 2d3e
00000110: a728 0e3e 9c01 1f3d ccba 20be 7dda d0bd
00000120: 9746 2cbe 3b61 29be b537 d03d 4194 183e
00000130: a337 6a3e ffbb ecbd 5823 01be 1e6c 5bbe
00000140: ed5b a73b 29ed 1abd 9c88 2d3e bfa0 c9bc
00000150: 0712 43bc c503 8cbd debf 063d 6748 5bbe
00000160: 8a4a 5bbe 9933 1c3e a934 423e 0d87 eeb9
00000170: 0bab 8a3b 2cea 813d 6836 44be ad9a babd
00000180: 7b12 443e 0b51 ed3c 2109 23be 7bfc a7bc
00000190: 6e86 813e 18c6 c5bd 3dd4 283e cf90 a0bd
000001a0: 30ee 3d3d 5828 4bbb 0136 78be b0b8 5cbe
000001b0: 1da6 11be 0e0d cbbd 95e6 f5bd ce97 d6bd
000001c0: 26e1 8abd be2c 693e d14c bbbd 29d8 06be
000001d0: db10 82be acd7 f3bd 3297 5dbe 3c57 dcbd
000001e0: a63d 30be da01 e23d 6a9c 193e 2ba6 38be
000001f0: 48e7 b1bc 1f33 023e 2794 64be ef6b 42bd
00000200: fe23 bdbc b4cd 49bd aed5 693e 2b72 f4bd
00000210: a529 903e 8ceb a13e 159a 2b3e 5df3 adbc
00000220: da92 133c 1e7f 803d 9c15 27be 651a 633e
00000230: 8c18 603e 4bb4 3a3d 026a 91be c09d 12be
00000240: 17b7 903c 8eb9 433e 731e 823d 51f8 43bd
00000250: b9c4 1abe baf1 fa3d a50a 753e 6de9 003e
00000260: b1f4 06be b3ab 3bbe 343e 803c 6bcf 66be
00000270: d838 e4bd 3db1 d9bc 1a38 023e 36b9 ac3d
00000280: 5843 033e d2e1 403d adf7 4dbe 2ca8 59be
00000290: 97a9 51be 0589 2d3e c0bf 47be c28a 393e
000002a0: 929c 03bc 475d 6cbc f2d0 aa3d 9589 02be
000002b0: b034 67be bdd3 6f3d 7385 6f3e c809 243e
000002c0: ac33 813c 20c1 69be ad4f 36be 7932 173e
000002d0: 6947 133e d81f 2cbe 653c 49be 64a5 833e
000002e0: 3f41 163e b3ae bc3b 7bd0 0b3d 0932 653e
000002f0: 0880 993c 266b 4f3e 9cf2 6ebe c6d9 6ebd
00000300: cf70 7dbe 13d2 1ebe 4819 5a3e ac5e b8bd
00000310: f685 60be ca57 4d3e cd74 273e e6c0 29be
00000320: 2d69 b13d 3cb2 363e cdd0 0c3e abe9 53be
00000330: 49b7 bb3b 19c7 cdbc b1df 983d d643 06be
00000340: cc37 a43d f1bb 5cbd 05f7 253e e54f 6ebe
00000350: 7a8a 94bd 38fe 5f3e bd26 983c e94d 56be
00000360: 8cec 943d a967 893c 091f 563e d65e 36be
00000370: 7448 25bd 1640 9abe 848d 3cbd 2cd4 003e
00000380: 11b9 36be 8391 a7bd 9e68 4f3e 3d6f 973d
00000390: 6ecb 053d 6f92 b43d b600 28be 26c1 04be
000003a0: 7b27 3cbc d26e ad3d 40f9 abbd 1e7b 5a3e
000003b0: 6016 2f3e 4109 1fbe 365a c73b 0a04 85be
000003c0: 2f72 09be 9b56 493e 5f1e debc abb9 96bd
000003d0: dd4b 55be b2ec 173e b54a c0bd 2d94 19bc
000003e0: a921 1bbe 70a3 5d3e cea9 ffbd 3740 70bd
000003f0: 4bb3 283e 7531 563d 8551 3d3b 699d 013d

g.2.bias f4 [80]
0.096495844 0.114554495 0.1354062 -0.057917923 -0.099485315 0.19544233 0.084493466 0.052927844
-0.14587332 0.09372631 -0.13710122 -0.1883353 0.042593565 -0.019256463 -0.23584762 0.04397991
0.11637015 -0.006069855 -0.091313206 0.0465345 -0.22478949 -0.109411605 -0.12858027 0.05416197
-0.16742924 0.23856486 0.08439248 0.11769876 0.19383444 0.22717787 -0.22522688 -0.15434474
0.17787306 -0.14639392 -0.16594824 -0.16134 0.143824 -0.0033109244 -0.15238516 -0.06950691
0.20481706 -0.03562585 -0.04456395 -0.012807644 0.21590416 -0.18863162 0.18427812 -0.15548092
-0.124003634 -0.08446177 -0.23146467 -0.09066352 0.047276463 -0.22450721 0.10779466 -0.19142991
0.16930398 0.0419788 -0.23123762 0.057614453 -0.010190907 -0.09510654 0.0036183356 0.06327418
0.0066501205 -0.023133935 -0.21795273 0.052340146 -0.15224811 -0.055621084 0.23344946 0.20777442
0.07310634 -0.046103165 0.07077239 -0.11424956 -0.22461227 -0.17416418 -0.0923639 -0.092594035
00000000: 9d9f c53d 8c9b ea3d eca7 0a3e 583b 6dbd
00000010: f5be cbbd 0922 483e e90a ad3d deca 583d
00000020: d15f 15be 94f3 bf3d 4364 0cbe f8da 40be
00000030: 9776 2e3d bbbf 9dbc 0a82 71be 4724 343d
00000040: 7953 ee3d a2e5 c6bb 6b02 bbbd f69a 3e3d
00000050: 372f 66be 3113 e0bd 8caa 03be f1d8 5d3d
00000060: 9272 2bbe 594a 743e f7d5 ac3d 0c0c f13d
00000070: 897c 463e 51a1 683e e0a1 66be 8c0c 1ebe
00000080: 5b24 363e 4ae8 15be 56ee 29be 5036 25be
00000090: 9946 133e 18fc 58bb db0a 1cbe a459 8ebd
000000a0: 90bb 513e 69ec 11bd b088 36bd 27d7 51bc
000000b0: fb15 5d3e a628 41be 67b3 3c3e 6436 1fbe
000000c0: 9ef5 fdbd 4bfa acbd 1305 6dbe ccad b9bd
000000d0: f7a4 413d 38e5 65be 72c3 dc3d 3406 44be
000000e0: 065e 2d3e f6f1 2b3d 8ec9 6cbe 22fd 6b3d
000000f0: c3f7 26bc 38c7 c2bd 9921 6d3b e595 813d
00000100: 41e9 d93b 6183 bdbc 002f 5fbe 9f62 563d
00000110: eee6 1bbe efd2 63bd 600d 6f3e d1c2 543e
00000120: c7b8 953d acd6 3cbd 1df1 903d acfb e9bd
00000130: c200 66be 1858 32be 4929 bdbd f1a1 bdbd
