ckpt/GRU_sta_euler_b20_f15/best.pth (torch_old, 133952 bytes, 53 tensors)

target_mean f4 [2]
61.407234 42.750984
00000000: 02a1 7542 0201 2b42

target_var f4 [2]
5.2428303 10.172228
00000000: 44c5 a740 72c1 2241

control_mean f4 [5]
14.136493 3.5715678 1353.6844 67.40166 157.43202
00000000: 132f 6241 9194 6440 e735 a944 a6cd 8642
00000010: 996e 1d43

control_var f4 [5]
15.888468 2.0310576 454.6553 48.565887 138.44717
00000000: 2a37 7e41 d9fc 0140 e153 e343 7843 4242
00000010: 7a72 0a43

controllable_mean f4 [3]
3.5715678 1353.6844 67.40166
00000000: 9194 6440 e735 a944 a6cd 8642

uncontrollable_mean f4 [2]
14.136493 157.43202
00000000: 132f 6241 996e 1d43

controllable_var f4 [3]
2.0310576 454.6553 48.565887
00000000: d9fc 0140 e153 e343 7843 4242

uncontrollable_var f4 [2]
15.888468 138.44717
00000000: 2a37 7e41 7a72 0a43

rnn_encoder.weight_ih_l0 f4 [32, 7]
-0.067310706 -0.050342463 0.11807667 -0.04169218 -0.10551432 0.14923255 -0.17666623 -0.0640926
0.03699881 -0.13397732 0.05495224 -0.09213072 0.112308994 -0.0142031405 -0.040256456 0.05299771
-0.1753973 0.09828696 0.019438297 0.065377764 0.0006608181 0.11225695 -0.018506251 0.046716765
0.15397497 -0.14206527 0.097296596 -0.20860492 -0.040516187 -0.12140785 -0.10462792 0.036048677
-0.06888918 -0.03454988 0.11892 0.056255735 -0.17267403 -0.09117903 0.107851446 -0.009773431
0.20872927 -0.061105385 0.12554507 0.04343379 0.060837593 0.15950364 -0.04019037 -0.15033998
0.12930807 0.15625514 0.070461705 0.037021637 0.05562322 0.019912105 0.06069776 0.10471826
0.09659743 0.07710991 0.12967844 0.108236566 0.16330373 -0.054903254 -0.13514797 0.010294806
0.12163052 -0.07829019 0.061556205 0.13244194 -0.026982425 -0.000751582 0.080277815 -0.20598488
-0.1377842 0.1797428 0.07241541 0.07440326 0.11843631 0.029531948 -0.01877415 -0.07660934
0.13323282 -0.011679617 -0.16876592 0.16386922 -0.09487868 -0.16955489 -0.11575612 0.03557412
-0.13426058 0.0028776473 0.13715237 0.03989977 0.10851871 -0.051087752 -0.15030791 0.029392017
-0.14349326 -0.17147176 -0.044588577 0.0055491966 -0.08716337 0.07263651 0.023003897 -0.18209939
0.013192494 0.07946631 -0.13719156 0.14213048 0.11349602 -0.12614545 -0.052067917 -0.110669576
0.0056868913 -0.097684756 0.10648827 0.0875305 0.12966117 -0.16658543 -0.0113673415 0.16186516
-0.043171633 -0.043575674 0.0048966976 0.07721596 -0.13086052 0.047738433 0.024149127 0.02052074
-0.13453951 0.1444469 0.06414887 -0.017037164 -0.23466659 0.16086763 -0.07963768 0.10784603
-0.1018498 -0.13200057 0.037683804 -0.19423944 -0.03217968 0.08297653 -0.09159013 0.11592843
0.09933172 -0.081095025 0.012169344 -0.075860456 0.14657527 0.056415457 -0.030942079 -0.071732275
-0.011725998 0.10408668 0.03974484 -0.026743127 0.10609761 0.026509387 0.050162412 0.046547096
0.0014253908 -0.06546393 -0.04904264 0.0830787 0.08538471 -0.0059979865 -0.082874574 0.19164173
0.16161352 -0.019266974 -0.09784058 -0.0026027837 0.067673825 -0.12120045 0.036409814 0.037632562
0.08367354 0.012690052 0.008110489 0.08026736 0.17109407 0.104924485 0.1531067 -0.009086826
0.104475476 -0.040097468 0.12967327 0.20323716 0.19239223 0.12605698 -0.14176075 -0.03095823
-0.04140433 0.17332833 0.051341694 -0.23488548 -0.1849325 0.03771932 0.036169156 -0.09587703
-0.060166813 -0.04107981 -0.07915534 0.13605385 0.13411155 0.09689701 0.14936088 0.035910156
0.14744507 0.07822036 0.08691552 -0.04495853 0.19160345 -0.125018 -0.04779006 0.11973897
-0.1215846 -0.06412131 -0.053613845 0.08453476 0.13529861 0.06662204 -0.04666822 -0.18396991
00000000: 32da 89bd e633 4ebd 2ed2 f13d 6bc5 2abd
00000010: e417 d8bd 6bd0 183e fee7 34be fb42 83bd
00000020: 108c 173d 5a31 09be 9a15 613d 08af bcbd
00000030: 4202 e63d 4ab4 68bc f4e3 24bd 2014 593d
00000040: 5a9b 33be ac4a c93d 103d 9f3c c7e4 853d
00000050: c13a 2d3a f9e6 e53d 6c9a 97bc 145a 3f3d
00000060: 9dab 1d3e 8f79 11be 7043 c73d 879c 55be
00000070: 4df4 25bd aea4 f8bd 2a47 d6bd c7a7 133d
00000080: c515 8dbd 2d84 0dbd 548c f33d 6a6c 663d
00000090: 76d1 30be 12bc babd 38e1 dc3d be20 20bc
000000a0: 20bd 553e a449 7abd e38e 003e a1e7 313d
000000b0: d730 793d ec54 233e a89e 24bd b9f2 19be
000000c0: 5669 043e 5901 203e 3a4e 903d 00a4 173d
000000d0: 2cd5 633d b61e a33c 379e 783d 8776 d63d
000000e0: e0d4 c53d cdeb 9d3d 6dca 043e 22ab dd3d
000000f0: 1839 273e 3ce2 60bd 3b64 0abe 8cab 283c
00000100: 6c19 f93d 9b56 a0bd 5c22 7c3d dc9e 073e
00000110: 3f0a ddbc d005 45ba b268 a43d b3ed 52be
00000120: 4d17 0dbe 7f0e 383e 884e 943d bd60 983d
00000130: bc8e f23d fcec f13c 3fcc 99bc 5ce5 9cbd
00000140: 2f6e 083e dd5b 3fbc f9d0 2cbe 55cd 273e
00000150: c14f c2bd cc9f 2dbe 8b11 edbd 2bb6 113d
00000160: 9b7b 09be e996 3c3b ac71 0c3e f16d 233d
00000170: 0f3f de3d 6441 51bd 51ea 19be 87c7 f03c
00000180: e6ef 12be 4b96 2fbe 83a2 36bd 09d6 b53b
00000190: b582 b2bd 73c2 943d ab72 bc3c 4378 3abe
000001a0: 5525 583c 3cbf a23d f27b 0cbe a78a 113e
000001b0: 9a70 e83d 462c 01be 2b45 55bd bba6 e2bd
000001c0: 1a59 ba3b f20e c8bd 8616 da3d 3143 b33d
000001d0: e6c5 043e 5f95 2abe 163e 3abc fbbf 253e
000001e0: bdd4 30bd 687c 32bd 7a74 a03b 6723 9e3d
000001f0: 4d00 06be 6089 433d 64d4 c53c 1c1b a83c
00000200: bac4 09be e3e9 133e 7c60 833d 8691 8bbc
00000210: 704c 70be 7cba 243e 1419 a3bd 61de dc3d
00000220: a196 d0bd 282b 07be 555a 1a3d b4e6 46be
00000230: d7ce 03bd 99ef a93d 9b93 bbbd e26b ed3d
00000240: 6e6e cb3d 2615 a6bd ee61 473c ba5c 9bbd
00000250: d417 163e e513 673d 3e7a fdbc 5fe8 92bd
00000260: 661e 40bc 662b d53d 7ccb 223d 6714 dbbc
00000270: b449 d93d 372a d93c 1a77 4d3d 2ba8 3e3d
00000280: 2ed4 ba3a f411 86bd efe0 48bd 2a25 aa3d
00000290: 2ede ae3d c28a c4bb 25ba a9bd bb3d 443e
000002a0: 047e 253e c6d5 9dbc a460 c8bd 7793 2abb
000002b0: 9398 8a3d f137 f8bd 7522 153d 9a24 1a3d
000002c0: 085d ab3d f0e9 4f3c dbe1 043c 3763 a43d
000002d0: 4933 2f3e a6e2 d63d 01c8 1c3e e9e0 14bc
000002e0: 3df7 d53d 3e3d 24bd 12c9 043e 671d 503e
000002f0: 7802 453e 1515 013e bb29 11be 1d9c fdbc
00000300: 9697 29bd fb7c 313e ab4b 523d d285 70be
00000310: f25e 3dbe 937f 1a3d 1c26 143d 2d5b c4bd
00000320: 7a71 76bd 4e43 28bd 321c a2bd b351 0b3e
00000330: 8a54 093e f171 c63d 0ff2 183e 8716 133d
00000340: d7fb 163e ff31 a03d c400 b23d 7026 38bd
00000350: b233 443e b804 00be 83bf 43bd b539 f53d
00000360: 5901 f9bd 0952 83bd 319a 5bbd 8f20 ad3d
00000370: b88b 0a3e 2371 883d 2d27 3fbd 9c62 3cbe

rnn_encoder.weight_hh_l0 f4 [32, 32]
-0.1047608 0.11352426 -0.09860954 0.13986696 -0.08507043 0.12667295 -0.105696835 0.17535266
-0.06050193 0.045074686 0.10995722 0.035755508 0.10303028 -0.10848972 -0.0023491273 -0.026877573
-0.07994556 -0.06550329 0.057650026 -0.045211412 -0.03595222 -0.12029057 0.15639007 0.013951164
-0.13694204 0.09818768 0.06486551 0.105859965 0.154754 0.12838575 0.06158901 -0.12634344
-0.01178064 -0.054032683 0.05040079 -0.075497136 -0.042684745 0.11418244 -0.062213734 -0.16539693
-0.11186927 0.21786492 -0.053243168 0.048560683 0.1125261 0.1731418 -0.045877673 0.087015346
0.10582219 -0.05703351 0.06326006 0.15982355 0.10644788 -0.09648626 -0.030607803 -0.12086011
-0.2116041 0.16936076 -0.080219544 0.10791761 -0.0017447924 -0.04467668 0.17982414 0.18054174
-0.14094383 -0.034583077 0.07010896 0.067321725 0.23250125 -0.14432052 0.16539896 0.026813319
-0.17139927 0.08742246 -0.026700588 -0.058510773 0.20166957 0.07947666 0.17469178 -0.22408763
-0.13718057 0.13132153 -0.2504167 -0.15558234 -0.0905104 0.10261042 -0.10385001 0.2516583
0.045087695 -0.12316536 -0.13245142 0.08319996 -0.05152395 0.06024129 0.019155346 -0.14502804
0.03643561 -0.14805855 -0.07320146 0.034242816 -0.17210914 -0.183928 0.11104069 0.153748
0.21067393 0.1357986 -0.105578914 -0.1505581 -0.18921402 -0.011900965 0.041512392 -0.064006574
-0.13563925 -0.015171797 -0.094516054 -0.13948609 0.09496946 -0.069355704 -0.16458537 -0.0029286153
0.049519762 -0.10376642 0.039810438 0.16335928 -0.1798044 0.18973954 -0.11309595 0.14425223
-0.027368007 -0.0014946748 -0.0801243 -0.080969825 0.03820009 -0.15690233 -0.04407041 0.019415764
0.104487285 -0.13044226 0.15130192 0.15217142 -0.04413638 0.081683055 -0.12859212 0.08050596
-0.12106689 -0.0663324 -0.054120455 -0.12093966 0.075113125 -0.13415577 0.05533838 -0.13328965
0.094622135 0.009118953 0.13021888 -0.17712148 -0.10201817 0.08234952 -0.12874767 -0.12867749
0.20044342 0.13677123 -0.046453588 0.16452122 -0.13907811 0.10178831 -0.17422013 -0.0026715505
-0.19238321 -0.010212379 0.07109351 -0.19312987 -0.11616609 -0.17501718 0.0023442241 0.004003047
-0.08940253 0.10284135 -0.20896457 -0.17485365 0.060444053 -0.07464637 -0.11650454 -0.16242447
-0.13919485 -0.09378616 0.067233436 -0.08044548 -0.025945477 -0.10891213 -0.06169046 -0.17619756
0.0062295957 -0.044435564 -0.13035305 0.12788133 -0.05625504 0.033223838 0.20177287 -0.062446754
0.03993946 0.07347896 0.09269618 0.0109827565 -0.040096212 -0.010355375 -0.117481805 0.07060481
-0.03821053 -0.16169363 -0.12089354 -0.15685593 0.1765251 -0.020690192 0.109238386 0.109731086
-0.16023497 0.0050656474 0.07324784 -0.14813659 0.05809257 -0.13824469 0.03268237 -0.036123537
-0.21094593 -0.0081120115 0.10788706 0.043428972 0.10788585 -0.19213735 0.016391974 -0.16131717
0.1749374 -0.17125757 0.1521568 0.10399654 0.09546055 0.20173359 -0.10060443 -0.0419898
0.1857832 -0.14172722 -0.07649217 0.08657467 -0.15139507 0.08738316 0.08478041 0.038570605
-0.069490954 -0.18297586 0.014991676 0.18497115 -0.0404255 0.050284375 -0.05117215 -0.06406803
00000000: d58c d6bd 687f e83d ccf3 c9bd 4939 0f3e
00000010: 6839 aebd 8eb6 013e 9577 d8bd a68f 333e
00000020: dfd0 77bd 3ca0 383d 4031 e13d 5e74 123d
00000030: 8a01 d33d dc2f debd d1f3 19bb 5b2e dcbc
00000040: 7fba a3bd 9726 86bd 6f22 6c3d 9a2f 39bd
00000050: a342 13bd e75a f6bd b824 203e 6c93 643c
00000060: 893a 0cbe 9f16 c93d 35d8 843d 1ccd d83d
00000070: d577 1e3e 8e77 033e c244 7c3d 2d60 01be
00000080: 9603 41bc 6051 5dbd 0f71 4e3d 3e9e 9abd
00000090: 33d6 2ebd 7cd8 e93d d4d3 7ebd d05d 29be
000000a0: b71b e5bd fb17 5f3e 8215 5abd 91e7 463d
000000b0: 1574 e63d 164c 313e 3aea 3bbd 1a35 b23d
000000c0: 4eb9 d83d f89b 69bd 7e8e 813d c9a8 233e
000000d0: 5901 da3d 979a c5bd 37bd fabc 8185 f7bd
000000e0: bfae 58be e86c 2d3e 254a a4bd e803 dd3d
000000f0: 85b1 e4ba e5fe 36bd d223 383e efdf 383e
00000100: 9453 10be fca6 0dbd 4995 8f3d f9df 893d
00000110: cf14 6e3e c2c8 13be 585e 293e 9ba7 db3c
00000120: 4a83 2fbe 8c0a b33d 31bb dabc fea8 6fbd
00000130: 7882 4e3e a9c4 a23d 67e2 323e 3a77 65be
00000140: 1079 0cbe 2779 063e 9e36 80be fa50 1fbe
00000150: 845d b9bd 6925 d23d 50af d4bd 5bd9 803e
00000160: e0ad 383d 1f3e fcbd 58a1 07be be64 aa3d
00000170: c70a 53bd 92bf 763d aceb 9c3c 3b82 14be
00000180: 823d 153d a99c 17be a6ea 95bd 3242 0c3d
00000190: 613d 30be 9f57 3cbe 4d69 e33d 1e70 1d3e
000001a0: e8ba 573e ca0e 0b3e c239 d8bd e72b 1abe
000001b0: 52c1 41be 44fc 42bc e608 2a3d e115 83bd
000001c0: 04e5 0abe 2193 78bc a291 c1bd 71d5 0ebe
000001d0: 597f c23d 5d0a 8ebd 1189 28be 03ee 3fbb
000001e0: 3cd5 4a3d 7d83 d4bd 4510 233d a847 273e
000001f0: a51e 38be 154b 423e d99e e7bd dbb6 133e
00000200: df32 e0bc f7e8 c3ba 3618 a4bd 82d3 a5bd
00000210: b377 1c3d 01ab 20be 2d83 34bd cf0d 9f3c
00000220: 6efd d53d a892 05be e4ee 1a3e d3d2 1b3e
00000230: 59c8 34bd 7249 a73d a7ad 03be 4fe0 a43d
00000240: ebf1 f7bd 48d9 87bd 69ad 5dbd 36af f7bd
00000250: e9d4 993d 2160 09be 7faa 623d 157d 08be
00000260: 40c9 c13d a967 153c 1958 053e 555f 35be
00000270: e7ee d0bd dda6 a83d 6ed6 03be 08c4 03be
00000280: 0a41 4d3e c20d 0c3e 1e46 3ebd 4078 283e
00000290: 7e6a 0ebe 6476 d03d c366 32be 2e15 2fbb
000002a0: 1b00 45be d251 27bc 7999 913d d6c3 45be
000002b0: 7de8 edbd b437 33be 8ea1 193b fe2b 833b
000002c0: ac18 b7bd 7c9e d23d cffa 55be d60c 33be
000002d0: 2f94 773d 32e0 98bd ef99 eebd 9a52 26be
000002e0: 1889 0ebe f512 c0bd afb1 893d 9ac0 a4bd
000002f0: 9c8b d4bc 530d dfbd 23af 7cbd 226d 34be
00000300: a321 cc3b 1102 36bd 457b 05be 53f3 023e
00000310: af6b 66bd b815 083d 8c9d 4e3e 2bc8 7fbd
00000320: 8f97 233d 237c 963d 7fd7 bd3d 05f1 333c
00000330: ed3b 24bd 97a9 29bc 4d9a f0bd 4199 903d
00000340: a582 1cbd 0493 25be 0897 f7bd d79e 20be
00000350: ffc2 343e 7a7e a9bc 60b8 df3d b1ba e03d
00000360: a314 24be bbfd a53b f702 963d 1eb1 17be
00000370: 7af2 6d3d 0490 0dbe f3dd 053d 46f6 13bd
00000380: 3602 58be 3ee8 04bc e4f3 dc3d 94e2 313d
00000390: 42f3 dc3d a7bf 44be 7648 863c 5430 25be
000003a0: ca22 333e 255e 2fbe fece 1b3e 23fc d43d
000003b0: d280 c33d 4093 4e3e b209 cebd 7ffd 2bbd
000003c0: f43d 3e3e f120 11be eda7 9cbd 104e b13d
000003d0: 4f07 1bbe f1f5 b23d 5aa1 ad3d 36fc 1d3d
000003e0: 4651 8ebd 065e 3bbe a69f 753c 1469 3d3e
000003f0: 3695 25bd fdf6 4d3d e399 51bd 1936 83bd

rnn_encoder.bias_ih_l0 f4 [32]
0.04939084 -0.08545357 0.047918756 0.09540536 -0.008029869 0.03754216 -0.0074784807 -0.10844714
0.022513034 -0.08416706 0.11389011 0.06854596 -0.12185392 0.1291962 -0.013030858 0.17595325
-0.12012703 0.05326609 -0.021165766 0.18727188 0.037280887 -0.18131158 -0.046842217 -0.08609253
0.119538434 -0.038393077 0.079845905 -0.12146332 -0.038495604 -0.009272951 0.15538555 0.002389711
00000000: 0d4e 4a3d 4802 afbd 7546 443d e363 c33d
00000010: b68f 03bc cfc5 193d 0b0e f5bb 8919 debd
00000020: 416d b83c c85f acbd 383f e93d d361 8c3d
00000030: 8c8e f9bd 024c 043e 617f 55bc 172d 343e
00000040: 2905 f6bd 8b2d 5a3d d463 adbc 33c4 3f3e
00000050: d8b3 183d bea9 39be a0dd 3fbd 4851 b0bd
00000060: 91d0 f43d 0f42 1dbd 4086 a33d c3c1 f8bd
00000070: 91ad 1dbd 93ed 17bc 641d 1f3e b39c 1c3b

rnn_encoder.bias_hh_l0 f4 [32]
-0.13290967 0.116409324 -0.10093815 -0.12900777 0.04170073 -0.027898809 -0.08311368 -0.056545433
-0.2023786 0.013237184 0.20408906 -0.15687251 0.1459334 0.045553483 -0.114204854 -0.050222386
0.16340466 0.112620555 -0.14928831 -0.061869554 0.16551994 0.10800187 -0.1126613 -0.17211843
0.2061746 0.14707814 -0.053999804 0.11013291 -0.098589145 0.132031 -0.001538866 -0.113571905
00000000: 7919 08be 0368 ee3d a9b8 cebd 9d1a 04be
00000010: 62ce 2a3d 0b8c e4bc 8137 aabd 2f9c 67bd
00000020: 563c 4fbe c6e0 583c b9fc 503e 30a3 20be
00000030: 916f 153e 4a96 3a3d 3ce4 e9bd fdb5 4dbd
00000040: 8d53 273e 9ba5 e63d 09df 18be ee6a 7dbd
00000050: 0f7e 293e 1630 dd3d f8ba e6bd d03f 30be
00000060: 6f1f 533e a79b 163e e62e 5dbd 5d8d e13d
00000070: 1be9 c9bd 2233 073e c6b3 c9ba 6398 e8bd

fc.0.weight f4 [64, 32]
-0.11063944 0.1483226 -0.11574399 -0.011863271 -0.032091826 0.10478807 0.1153176 0.18118332
-0.10498165 0.08795696 -0.12757961 -0.120102756 -0.10759101 0.040400237 -0.063558824 0.09785803
0.1835424 0.022776322 0.20563541 0.16155307 -0.05719277 -0.15246831 0.00091391325 -0.00610351
-0.094992556 -0.07967782 0.013253228 0.08522424 0.15944433 0.05074966 0.05576907 0.15981457
0.10025949 0.16043565 0.09119005 -0.13672796 0.0022700564 -0.048234932 -0.09541606 0.023350032
0.026575333 0.18938044 0.13678218 -0.10996505 -0.21336398 0.14296798 0.11796335 0.102512546
0.11165048 0.085936666 -0.10506604 -0.077046774 0.15086982 -0.11990278 0.0716305 -0.09955666
0.07664488 -0.00033088296 -0.11363001 -0.04609993 0.19069415 -0.13522498 -0.11360824 0.08629428
0.20679595 0.07265987 -0.06926516 0.15393415 0.03888507 -0.006027664 -0.17745234 -0.0101965675
0.06206632 0.13759504 -0.17973351 0.034209497 -0.068799205 -0.105689585 -0.18111639 0.05571371
0.060331523 0.098510645 -0.015567196 -0.16942662 -0.027226796 0.052820995 0.100793 -0.020675423
-0.15092467 0.18873519 0.026563434 0.072024494 -0.21796921 0.009360683 0.14422403 -0.16172983
0.106697515 -0.01709015 -0.10640725 0.036326762 -0.12676167 -0.17579897 -0.054669112 0.086472675
0.14157222 -0.09974566 -0.08021499 -0.050909135 -0.22305071 0.20965095 0.17427805 -0.072203785
0.06514677 0.1179462 -0.092391096 -0.0036688047 -0.0659973 -0.19980586 -0.22045246 0.16334014
-0.09632971 -0.23027521 -0.0253383 -0.03213707 0.1338199 0.007925154 -0.05799042 -0.07054755
-0.008327308 0.09967924 -0.18106553 -0.17907465 0.059440672 0.19160847 0.0028361792 0.09110424
0.031709347 -0.13031808 0.053846497 0.18207812 -0.06522152 -0.17346051 0.07963824 -0.049231123
-0.18131728 0.07459443 -0.21108706 -0.12318193 -0.16617215 -0.05696205 -0.07854536 0.07658248
0.13721813 0.14553104 0.09562476 0.06843528 -0.19370806 0.03383544 0.0014793793 -0.12863298
0.059288166 0.073057935 -0.03654107 -0.089240275 -0.15628164 0.0051808455 0.13007034 0.14443362
-0.0020361894 0.02917308 -0.11171711 -0.014909707 -0.04446701 0.041527066 0.0880976 -0.011218647
0.14673217 0.17899503 -0.11258669 -0.08870207 -0.03223751 0.13348912 0.08994504 -0.11306696
0.011936221 -0.0057001193 -0.03312955 -0.11815351 -0.032869324 0.023011975 -0.10411675 -0.10199387
-0.14267752 -0.08235335 0.067716904 0.07296015 0.044314925 0.20615777 -0.087628596 -0.029365651
-0.009225124 -0.059737727 0.009991569 -0.01213369 0.19751549 -0.10429306 -0.016023317 -0.026241831
-0.0040893788 0.104053654 -0.19740479 -0.053193826 -0.13630839 -0.039335825 0.051662877 0.08293933
-0.01813972 0.029596543 0.02482874 -0.1509073 -0.0506262 -0.023444304 0.17325059 0.019420646
0.11884973 0.11726402 -0.08416359 -0.119577296 -0.16607781 0.102145515 0.09130783 -0.0826351
0.10533619 -0.1223301 -0.08551006 0.100489594 0.1671435 -0.074273616 0.03521925 0.043324567
0.116988115 -0.051705237 -0.17900524 0.08434052 0.06869517 -0.14294833 0.13570276 -0.084934935
-0.08436886 0.22744638 0.03159169 -0.081658594 -0.12610015 -0.10654018 0.06915147 0.06687156
00000000: ee96 e2bd e1e1 173e 2f0b edbd 2a5e 42bc
00000010: b872 03bd 219b d63d a22b ec3d 1f88 393e
00000020: 9f00 d7bd c722 b43d 3ba4 02be 6ff8 f5bd
00000030: ad58 dcbd b87a 253d 212b 82bd ca69 c83d
00000040: 8af2 3b3e 6995 ba3c 1792 523e 2b6e 253e
00000050: f742 6abd a720 1cbe ae93 6f3a f4ff c7bb
00000060: 758b c2bd 202e a3bd 1124 593c 0c8a ae3d
00000070: 6045 233e e0de 4f3d 1c6e 643d 6ea6 233e
00000080: d954 cd3d 3e49 243e d9c1 ba3d 6a02 0cbe
00000090: 3ac5 143b fe91 45bd 7f69 c3bd 9148 bf3c
000000a0: 83b4 d93c f2ec 413e a110 0c3e 5b35 e1bd
000000b0: 167c 5abe 3366 123e c596 f13d 19f2 d13d
000000c0: 02a9 e43d 90ff af3d dd2c d7bd b3ca 9dbd
000000d0: 9e7d 1a3e 978f f5bd 03b3 923d 5de4 cbbd
000000e0: fef7 9c3d 5c7a adb9 dab6 e8bd 48d3 3cbd
000000f0: 5445 433e 6b78 0abe 70ab e8bd 0ebb b03d
00000100: 51c2 533e b3ce 943d e4da 8dbd eaa0 1d3e
00000110: f345 1f3d b683 c5bb 11b6 35be 810f 27bc
00000120: 4139 7e3d b7e5 0c3e 100c 38be 421f 0c3d
00000130: 99e6 8cbd c873 d8bd 9376 39be 0f34 643d
00000140: 301e 773d f3bf c93d 8d0d 7fbc 2c7e 2dbe
00000150: bb0a dfbc d45a 583d 8f6c ce3d 815f a9bc
00000160: ff8b 1abe cc43 413e 8f9b d93c 9481 933d
00000170: 5233 5fbe 8d5d 193c 77af 133e 819c 25be
00000180: 3a84 da3d a400 8cbc 0bec d9bd 5fcb 143d
00000190: d0cd 01be a504 34be b8ec 5fbd 9618 b13d
000001a0: 4ff8 103e 7447 ccbd c247 a4bd 1986 50bd
000001b0: 6867 64be bdae 563e f275 323e 94df 93bd
000001c0: ab6b 853d c78d f13d 8b37 bdbd 5470 70bb
000001d0: 9829 87bd e899 4cbe 4abe 61be a342 273e
000001e0: 8348 c5bd 44cd 6bbe 4492 cfbc 29a2 03bd
000001f0: 1508 093e 81d8 013c 5d87 6dbd 3c7b 90bd
00000200: 436f 08bc a124 cc3d 3e69 39be 585f 37be
00000210: 1078 733d 0335 443e 31df 393b dc94 ba3d
00000220: a9e1 013d 1a72 05be 258e 5c3d b072 3a3e
00000230: dc92 85bd a29f 31be 6019 a33d 93a6 49bd
00000240: 3dab 39be f7c4 983d 3527 58be cf46 fcbd
00000250: 0829 2abe 0a51 69bd 64dc a0bd 46d7 9c3d
00000260: e982 0c3e 1706 153e ead6 c33d cc27 8c3d
00000270: 685b 46be 0897 0a3d bbe7 c13a 5db8 03be
00000280: 26d8 723d 669f 953d 17ac 15bd 9bc3 b6bd
00000290: 4b08 20be 15c4 a93b 2931 053e 68e6 133e
000002a0: 9771 05bb 62fc ee3c f1cb e4bd d847 74bc
000002b0: 0a23 36bd 4918 2a3d 846c b43d 6ace 37bc
000002c0: f540 163e 794a 373e da93 e6bd 6ea9 b5bd
000002d0: 7b0b 04bd 5fb1 083e 1b35 b83d a68f e7bd
000002e0: 2490 433c 11c8 babb dab2 07bd 78fa f1bd
000002f0: fca1 06bd 9c83 bc3c 2a3b d5bd 2ae2 d0bd
00000300: 0e1a 12be e0a8 a8bd 29af 8a3d 226c 953d
00000310: 9183 353d 061b 533e 9f76 b3bd 3c90 f0bc
00000320: f924 17bc 8caf 74bd aeb3 233c 62cc 46bc
00000330: 8041 4a3e 9a97 d5bd 5543 83bc 1cf9 d6bc
00000340: 3200 86bb 151a d53d 7b24 4abe c5e1 59bd
00000350: 6d94 0bbe 9a1e 21bd 749c 533d 18dc a93d
00000360: c099 94bc 7374 f23c a465 cb3c 7187 1abe
00000370: 6b5d 4fbd 450e c0bc 9a68 313e 0c18 9f3c
00000380: 7d67 f33d 1e28 f03d f65d acbd f1e4 f4bd
00000390: 4d10 2abe ab31 d13d 99ff ba3d 973c a9bd
000003a0: 80ba d73d 3488 fabd e61f afbd 7dcd cd3d
000003b0: aa27 2b3e c41c 98bd 0f42 103d 1a75 313d
000003c0: 7797 ef3d dfc8 53bd 264d 37be b9ba ac3d
000003d0: 0eb0 8c3d 0c61 12be aaf5 0a3e 5ef2 adbd
000003e0: 95c9 acbd b4e7 683e 4a66 013d 9f3c a7bd
000003f0: 6620 01be bd31 dabd 499f 8d3d f5f3 883d

fc.2.weight f4 [2, 64]
-0.028246349 -0.09183247 0.17309757 -0.1735452 0.09948151 -0.07387954 0.062932126 0.0901569
0.06888545 0.14267884 0.11596146 0.06625831 -0.14457123 -0.11616818 -0.07999362 -0.12954298
-0.08156564 -0.12365446 0.08130685 -0.095639296 0.14195354 0.06344722 -0.14303075 0.18989348
-0.050810896 0.07053831 0.16161564 0.13779917 0.107023016 0.018827222 0.06431785 0.16898505
-0.16449788 -0.07523756 0.04249401 -0.11565028 0.09133933 -0.07313002 -0.16087136 -0.14951548
0.10898078 0.17802002 0.14872122 0.17397252 0.15264863 0.10089009 0.060626026 -0.07606365
0.021996958 -0.04419467 0.08153448 -0.085454285 0.068631425 -0.05579496 -0.13109611 -0.09771604
-0.06844825 0.18426225 -0.08569853 0.10986135 0.15480466 -0.043299787 -0.11163896 -0.07692783
-0.059760876 -0.087853104 0.009278867 -0.09476925 0.15080778 0.028057104 0.06941287 0.0016856646
0.07436375 -0.14423798 0.16156471 -0.08886977 0.0046799695 -0.079406306 -0.10189968 -0.10057724
-0.121259674 -0.08436583 0.09155452 -0.07727408 0.13946392 -0.14627482 -0.020249087 -0.13886268
-0.061874103 -0.006218067 0.019076487 0.05829561 0.13430762 0.03225502 -0.20651487 0.13512018
0.15866359 0.18408544 -0.19496909 -0.14687851 0.17377931 -0.041503344 0.09117847 -0.13490625
-0.10121976 -0.15121374 -0.16354413 0.16657531 0.17195095 -0.16878994 -0.12616855 -0.06653568
-0.101469696 0.12968975 0.14736347 -0.061597127 -0.10725743 -0.12682033 -0.027910834 -0.1271613
-0.0101005025 -0.0845628 0.12182802 -0.04834875 -0.1354681 -0.08917478 -0.17323902 0.08063585
00000000: e364 e7bc a912 bcbd 7d40 313e d5b5 31be
00000010: f6bc cb3d 284e 97bd 8fe2 803d 2ea4 b83d
00000020: d113 8d3d 671a 123e 347d ed3d 70b2 873d
00000030: 7b0a 14be 95e9 edbd b2d3 a3bd eaa6 04be
00000040: e30b a7bd 8d3e fdbd 3584 a63d 89de c3bd
00000050: 455c 113e 9ef0 813d a776 12be 7073 423e
00000060: 161f 50bd 6476 903d 927e 253e 3a1b 0d3e
00000070: e22e db3d 8c3b 9a3c 14b9 833d 6b0a 2d3e
00000080: 2272 28be 2616 9abd 330e 2e3d 0eda ecbd
00000090: 1d10 bb3d 31c5 95bd 76bb 24be 961a 19be
000000a0: 5131 df3d e14a 363e 604a 183e da25 323e
000000b0: ec4f 1c3e 779f ce3d ff52 783d 42c7 9bbd
000000c0: f732 b43c 7805 35bd 8dfb a63d a802 afbd
000000d0: a28e 8c3d 4289 64bd 0f3e 06be 591f c8bd
000000e0: 992e 8cbd 3eaf 3c3e b682 afbd fdfe e03d
000000f0: 1d85 1e3e 1e5b 31bd f8a2 e4bd 578c 9dbd
00000100: d2c7 74bd 54ec b3bd 6406 183c 6116 c2bd
00000110: 5b6d 1a3e 03d8 e53c 5628 8e3d 85f1 dc3a
00000120: 064c 983d 1fb3 13be 3871 253e 5b01 b6bd
00000130: 6e5a 993b c69f a2bd c8b0 d0bd 71fb cdbd
00000140: fe56 f8bd fec7 acbd f080 bb3d df41 9ebd
00000150: a1cf 0e3e 11c9 15be 6ae1 a5bc 0532 0ebe
00000160: b36f 7dbd edc0 cbbb 4b46 9c3c 61c7 6e3d
00000170: f087 093e d71d 043d a278 53be f25c 0a3e
00000180: b578 223e e580 3c3e faa5 47be 5267 16be
00000190: 34f3 313e 69ff 29bd c7bb ba3d dd24 0abe
000001a0: 4e4c cfbd c6d7 1abe 1d78 27be b892 2a3e
000001b0: e913 303e 45d7 2cbe 5432 01be dc43 88bd
000001c0: 58cf cfbd 64cd 043e 73e6 163e 454d 7cbd
000001d0: c9a9 dbbd 30dd 01be 43a5 e4bc 9236 02be
000001e0: 947c 25bc 432f adbd f880 f93d 5709 46bd
000001f0: 26b8 0abe 44a1 b6bd 9265 31be 6924 a53d

expand_input.0.weight f4 [32, 5]
0.40812844 0.11955213 -0.46371433 -0.27432126 -0.087423906 0.35826316 0.36616066 0.34646046
0.055391707 -0.44549045 -0.015857026 0.5113866 -0.2517094 0.24048507 -0.22919345 0.24704774
-0.42966306 0.14384669 -0.4676469 -0.29254916 0.08024056 0.086272396 -0.37947604 -0.19134612
-0.43513963 -0.15269151 -0.3175464 -0.033372946 0.17572033 -0.44160977 0.19101804 0.050709713
0.17365028 -0.48917797 -0.07635599 -0.04776668 0.30865166 0.07601062 0.16191603 0.008969905
-0.1018917 -0.14447796 0.14166752 -0.22152291 0.047511302 -0.023731582 0.15512432 0.28935286
-0.16451694 0.2756432 0.1739205 -0.15737821 0.3951686 0.17646857 0.13345104 0.39828217
0.48434037 -0.14155096 -0.060435865 0.37524608 0.3131123 -0.20047101 -0.14005893 0.4108409
0.20558481 -0.12368749 0.2278671 -0.0028970756 -0.1113498 -0.0023357451 0.28398904 0.05420649
-0.45525175 0.12590034 0.38535374 -0.20296633 -0.1160456 -0.13072428 0.1954844 -0.30133352
0.33714342 0.07658074 0.04342279 0.2827328 -0.15924875 -0.18173786 -0.018287586 -0.3744004
-0.39919522 0.31474176 -0.46806562 0.36834133 -0.21678989 0.38333252 -0.1986863 -0.38456577
0.4101682 0.28656605 0.023517117 0.24428882 -0.24998051 -0.008256887 -0.25009817 0.43064266
-0.020996511 0.009290313 -0.33591956 -0.22744216 0.4269722 -0.15491524 0.08883598 -0.065801844
0.0051718815 -0.3077087 -0.37812573 0.35870314 0.1392943 -0.17084388 0.38195845 0.29229206
-0.2217957 -0.059326973 0.2082552 0.15621123 0.18953174 0.3660514 -0.12417935 -0.3217767
0.25507724 -0.26910555 -0.11685624 0.069100656 -0.38837573 0.21822411 0.05605057 0.014095567
-0.26801586 0.07671691 -0.15810257 0.37111938 -0.22352499 -0.037268925 -0.3890797 0.38330126
-0.41888404 -0.14446123 -0.2835926 -0.026244147 0.19865963 -0.3589142 0.38205776 0.2964432
-0.21822767 -0.37365317 -0.12859681 0.14085425 0.2336611 0.29053432 0.2539296 0.40400678
00000000: 36f6 d03e bfd7 f43d f76b edbe d673 8cbe
00000010: 4e0b b3bd 456e b73e 6979 bb3e 4463 b13e
00000020: 6ae2 623d 5317 e4be 98e6 81bc 3bea 023f
00000030: 0ee0 80be b841 763e b0b1 6abe 15fa 7c3e
00000040: ccfc dbbe 8c4c 133e 6a6f efbe 01c9 95be
00000050: 2a55 a43d 95af b03d af4a c2be 3df0 43be
00000060: 9fca debe 2a5b 1cbe 7195 a2be 12b2 08bd
00000070: 08f0 333e ad1a e2be 3c9a 433e fdb4 4f3d
00000080: 61d1 313e 8975 fabe 8760 9cbd ffa6 43bd
00000090: 9707 9e3e 75ab 9b3d 51cd 253e 82f6 123c
000000a0: 98ac d0bd 08f2 13be 4a11 113e e7d6 62be
000000b0: 369b 423d bc68 c2bc e9d8 1e3e 0f26 943e
000000c0: 2177 28be 1b21 8d3e 3718 323e c127 21be
000000d0: 8a53 ca3e 2db4 343e 64a7 083e a4eb cb3e
000000e0: 76fb f73e bcf2 10be 998b 77bd 4120 c03e
000000f0: 4150 a03e 4648 4dbe 9c6b 0fbe bd59 d23e
00000100: d384 523e de4f fdbd fe55 693e dddc 3dbb
00000110: 5d0b e4bd 4d13 19bb 0367 913e a007 5e3d
00000120: c216 e9be 05ec 003e 164d c53e 68d6 4fbe
00000130: 51a9 edbd 96dc 05be 102d 483e 6348 9abe
00000140: 109e ac3e 5dd6 9c3d 18dc 313d 5bc2 903e
00000150: 1b12 23be 7d19 3abe d9cf 95bc 69b1 bfbe
00000160: 5163 ccbe d525 a13e 4ca6 efbe 3c97 bc3e
00000170: 2bfe 5dbe 2944 c43e 6c74 4bbe cee5 c4be
00000180: 9101 d23e c9b8 923e f8a6 c03c d926 7a3e
00000190: e4fa 7fbe e547 07bc de0c 80be 327d dc3e
000001a0: e000 acbc 6636 183c a6fd abbe 99e6 68be
000001b0: 1a9c da3e 1aa2 1ebe a3ef b53d 1ec3 86bd
000001c0: e378 a93b ff8b 9dbe b299 c1be f0a7 b73e
000001d0: 2aa3 0e3e b3f1 2ebe 0f90 c33e 4ea7 953e
000001e0: 691e 63be d700 73bd da40 553e d6f5 1f3e
000001f0: 9c14 423e 176b bb3e be51 febd eabf a4be
00000200: 7c99 823e 34c8 89be 5352 efbd a584 8d3d
00000210: 2fd9 c6be 2476 5f3e 4895 653d 18f1 663c
00000220: 6039 89be c11d 9d3d a4e5 21be 5c03 be3e
00000230: bce3 64be 4da7 18bd 7435 c7be 1040 c43e
00000240: f877 d6be a5ed 13be 0d33 91be f7fd d6bc
00000250: 6e6d 4b3e 9ac3 b7be 139d c33e 67c7 973e
00000260: 1377 5fbe 784f bfbe e2ae 03be 193c 103e
00000270: db44 6f3e eac0 943e 0f03 823e fad9 ce3e

expand_input.0.bias f4 [32]
0.36960733 -0.09649277 -0.34118405 -0.3138254 -0.06313626 0.25523221 0.26221088 -0.48488563
-0.196877 -0.19893754 0.11182842 0.36940154 0.10042701 0.1577515 -0.3097554 -0.40637544
0.04158601 0.21867141 -0.11806984 -0.06641535 0.26650316 0.44217983 -0.13886479 -0.25140908
0.38305965 0.42121443 -0.13329893 0.17059664 -0.09631348 -0.09830095 -0.11743343 -0.1334722
00000000: 2c3d bd3e 009e c5bd adaf aebe b9ad a0be
00000010: 954d 81bd ccad 823e 8140 863e ee42 f8be
00000020: 209a 49be 48b6 4bbe 4c06 e53d 3322 bd3e
00000030: adac cd3d 9c89 213e 4398 9ebe 7110 d0be
00000040: 1856 2a3d 66eb 5f3e 9ace f1bd c504 88bd
00000050: 1a73 883e 6565 e23e 9232 0ebe b1b8 80be
00000060: 6520 c43e 6ba9 d73e 847f 08be e3b0 2e3e
00000070: 0040 c5bd 0252 c9bd f080 f0bd f0ac 08be

ode_net.cell.state0 f4 [32]
0.0 0.0 0.0 0.0 0.0 0.0 0.0 0.0
0.0 0.0 0.0 0.0 0.0 0.0 0.0 0.0
0.0 0.0 0.0 0.0 0.0 0.0 0.0 0.0
0.0 0.0 0.0 0.0 0.0 0.0 0.0 0.0
00000000: 0000 0000 0000 0000 0000 0000 0000 0000
00000010: 0000 0000 0000 0000 0000 0000 0000 0000
00000020: 0000 0000 0000 0000 0000 0000 0000 0000
00000030: 0000 0000 0000 0000 0000 0000 0000 0000
00000040: 0000 0000 0000 0000 0000 0000 0000 0000
00000050: 0000 0000 0000 0000 0000 0000 0000 0000
00000060: 0000 0000 0000 0000 0000 0000 0000 0000
00000070: 0000 0000 0000 0000 0000 0000 0000 0000

ode_net.cell.cell.weight_ih f4 [96, 32]
-0.016368153 -0.15972275 -0.19565244 -0.076399274 -0.07847601 0.24270393 -0.043688998 0.10403887
-0.06092135 -0.0056570773 0.087169476 -0.14590979 -0.060664322 0.033325054 0.052842915 0.048004184
-0.07127247 -0.05055298 -0.020583699 0.09998133 -0.14916468 0.017482668 0.09377346 -0.21785721
0.031369288 -0.047113944 -0.19351824 0.10067018 0.13480698 0.1379912 -0.103098206 -0.20978193
-0.0767696 -0.011172892 0.08649711 0.18454593 0.10053057 -0.08180345 0.12569433 0.07969177
-0.10289965 -0.03182033 -0.110377684 0.022196518 -0.054099347 0.08160961 0.078037746 -0.07978868
-0.021646922 0.007894693 -0.15819071 -0.0025262872 -0.012679678 0.23024853 -0.0018388022 -0.09618913
-0.011904167 0.09292154 0.055770047 0.17600036 -0.1424996 0.17053542 0.0833244 -0.1316854
0.038325038 0.0006323082 -0.009494695 0.06381787 0.033812597 0.18402454 -0.04671052 0.08241335
0.09279357 -0.043516345 -0.1339886 0.13093263 0.09970924 0.106031634 0.12591821 -0.1616551
-0.10195886 -0.04640471 -0.008216869 -0.13126618 0.08726681 -0.07821745 0.07594743 -0.02590007
0.06867966 0.2118812 0.086232044 -0.013054885 -0.05711211 -0.17000462 -0.10187785 -0.01923944
-0.022068702 0.048213646 -0.17795435 -0.09893918 -0.07400344 -0.06550022 0.22455308 0.025825292
-0.10788719 -0.18236856 0.08360086 0.024717128 0.08106436 -0.07055205 -0.091809765 0.11084632
-0.025764875 0.054438245 -0.16580415 0.026276883 -0.049282636 -0.004922972 0.1233226 -0.08176516
-0.06507814 0.16901322 -0.27636504 0.060041036 -0.23586386 -0.0693081 0.010368433 -0.23062527
-0.024391104 0.15916273 -0.12656532 -0.20723946 -0.22742334 0.0055536134 -0.095084555 -0.18386401
0.016687963 -0.14186868 -0.0074834204 -0.06785687 -0.030264368 0.16362923 -0.04803928 -0.18559578
0.17935777 0.07935402 0.14329813 -0.11742593 0.1751193 0.07164254 0.0072928276 0.057401713
0.06493901 0.02075735 0.11537647 -0.1348394 0.05322223 -0.026186582 0.024273077 0.0005362003
-0.07998894 -0.049120452 -0.19077285 -0.07279233 -0.05794126 0.10338785 0.02648759 -0.05143568
0.1523759 0.17847499 0.014794609 0.11500869 -0.18357323 -0.018799314 -0.13193934 -0.07862973
0.043481987 0.20647414 -0.20053321 0.055266455 0.023858167 -0.1744615 -0.17234105 -0.010336095
-0.016700663 -0.009981585 -0.13416722 0.23139279 -0.30097917 0.066605546 -0.10084701 -0.038238756
0.082205534 0.009057947 -0.039858345 -0.07707913 0.11186903 0.040485144 0.1523495 0.16169283
-0.10863318 -0.0016098759 0.16945876 -0.12498239 0.06646091 0.04990739 -0.11678876 -0.033572976
-0.10569599 0.07640007 0.0077559315 -0.047094714 0.029202767 0.13603221 -0.041336983 -0.084636874
0.13102499 0.117643714 -0.14312702 -0.26216358 -0.029995041 -0.06886085 -0.18033043 0.07894625
0.025111528 -0.124405086 -0.058430653 -0.2577732 -0.21851252 0.1404756 0.15470803 -0.12087277
-0.13253787 -0.105079606 -0.05454258 -0.07572622 0.1397035 0.09123027 0.19777921 -0.079783075
0.078586064 0.2513895 0.07097716 -0.17190172 0.113849714 0.0115842875 -0.0043737455 -0.06528876
-0.042131282 -0.072935455 0.11845766 0.06184772 -0.20026864 -0.21001984 0.17991892 -0.088104896
00000000: 8116 86bc 5c8e 23be 1d59 48be 3977 9cbd
00000010: 08b8 a0bd 6187 783e 3cf3 32bd 5512 d53d
00000020: aa88 79bd 015f b9bb e985 b23d 6069 15be
00000030: 277b 78bd da7f 083d d071 583d 09a0 443d
00000040: 4df7 91bd a410 4fbd 259f a8bc 03c3 cc3d
00000050: a0be 18be d037 8f3c 4d0c c03d f615 5fbe
00000060: 157d 003d 8dfa 40bd a529 46be 2b2c ce3d
00000070: d70a 0a3e 914d 0d3e 2725 d3bd 13d1 56be
00000080: 6139 9dbd 810e 37bc 6625 b13d 9cf9 3c3e
00000090: f9e2 cd3d 9188 a7bd 04b6 003e 7035 a33d
000000a0: 0dbd d2bd 0956 02bd b20d e2bd 79d5 b53c
000000b0: 4797 5dbd f022 a73d 41d2 9f3d 3f68 a3bd
000000c0: e354 b1bc be58 013c bffc 21be 1190 25bb
000000d0: 6dbe 4fbc 45c6 6b3e f703 f1ba cefe c4bd
000000e0: b209 43bc a64d be3d 226f 643d 7039 343e
000000f0: 6aeb 11be d6a0 2e3e fca5 aa3d 8ad8 06be
00000100: b7fa 1c3d 7cc1 253a a38f 1bbc f2b2 823d
00000110: 147f 0a3d ee70 3c3e 8853 3fbd 55c8 a83d
00000120: 8e0a be3d 323e 32bd 4f34 09be 3413 063e
00000130: 5c34 cc3d 1d27 d93d b4f0 003e ea88 25be
00000140: cfcf d0bd dd12 3ebd 0ca0 06bc a46a 06be
00000150: f1b8 b23d 7830 a0bd 548a 9b3d 622c d4bc
00000160: eca7 8c3d 63f7 583e 6d9a b03d 28e4 55bc
00000170: 63ee 69bd b115 2ebe 56a5 d0bd 089c 9dbc
00000180: 6cc9 b4bc ac7b 453d aa39 36be a0a0 cabd
00000190: 1e8f 97bd fb24 86bd 3ef1 653e 908f d33c
000001a0: f6f3 dcbd d3be 3abe ed36 ab3d 937b ca3c
000001b0: 1205 a63d 987d 90bd c206 bcbd 6503 e33d
000001c0: dc10 d3bc a3fa 5e3d 90c8 29be 9e42 d73c
000001d0: 97dc 49bd e250 a1bb 8f90 fc3d 7e74 a7bd
000001e0: b047 85bd cd11 2d3e b87f 8dbe 97ed 753d
000001f0: 4c86 71be 68f1 8dbd 5ce0 293c 0829 6cbe
00000200: dacf c7bc 8efb 223e 579a 01be 9536 54be
00000210: aae1 68be 16fb b53b b1bb c2bd d946 3cbe
00000220: 32b5 883c 0646 11be 7b37 f5bb 8bf8 8abd
00000230: fbec f7bc 6c8e 273e d6c4 44bd d20c 3ebe
00000240: 90a9 373e 5c84 a23d bfbc 123e 027d f0bd
00000250: 7952 333e 53b9 923d acf8 ee3b 0f1e 6b3d
00000260: befe 843d 510b aa3c 804a ec3d 5713 0abe
00000270: 8eff 593d 3e85 d6bc 55d8 c63c cb8f 0c3a
00000280: 3ed1 a3bd 8732 49bd f559 43be 2514 95bd
00000290: d153 6dbd 02bd d33d 81fc d83c 38ae 52bd
000002a0: 6e08 1c3e 26c2 363e 1665 723c ad89 eb3d
000002b0: 9ffa 3bbe 0501 9abc 1b1b 07be a008 a1bd
000002c0: 2b1a 323d f56d 533e 9458 4dbe 145f 623d
000002d0: 3472 c33c 09a6 32be 2c7a 30be b958 29bc
000002e0: d4cf 88bc cd89 23bc 2263 09be 3bf2 6c3e
000002f0: f119 9abe 7d68 883d e188 cebd 3ea0 1cbd
00000300: 605b a83d c967 143c 8142 23bd aadb 9dbd
00000310: 971b e53d c0d3 253d 8201 1c3e ce92 253e
00000320: 137b debd 7902 d3ba 9986 2d3e c4f6 ffbd
00000330: a81c 883d b16b 4c3d f22e efbd d183 09bd
00000340: 2477 d8bd a477 9c3d 7825 fe3b 63e6 40bd
00000350: a43a ef3c 074c 0b3e f850 29bd 1956 adbd
00000360: 6a2b 063e 30ef f03d e48f 12be 4e3a 86be
00000370: 29b8 f5bc eb06 8dbd 8aa8 38be 92ae a13d
00000380: b1b6 cd3c 18c8 febd fb54 6fbd d9fa 83be
00000390: bfc1 5fbe d6d8 0f3e c86b 1e3e 258c f7bd
000003a0: 02b8 07be fa33 d7bd 0a68 5fbd 5916 9bbd
000003b0: 6f0e 0f3e f0d6 ba3d a286 4a3e 4f65 a3bd
000003c0: bbf1 a03d 20b6 803e 795c 913d 0107 30be
000003d0: 0a2a e93d 06cc 3d3c a351 8fbb 1db6 85bd
000003e0: da91 2cbd 2f5f 95bd ee99 f23d 0954 7d3d
000003f0: 3913 4dbe 710f 57be aa3c 383e 5770 b4bd

ode_net.cell.cell.weight_hh f4 [96, 32]
0.03561985 -0.04212279 -0.049033787 0.17554455 -0.019063741 0.13761842 -0.11265509 0.15520293
0.13647254 -0.1950452 -0.06254275 0.13323216 0.10720358 -0.11067902 -0.22990258 -0.1378031
-0.251893 -0.10637465 0.22692572 0.2220502 0.048466224 -0.042813625 0.03184192 -0.05296913
-0.16909042 0.066956826 0.118859015 -0.07773759 0.08499393 -0.08890499 0.06982586 -0.029969264
0.018341795 0.034444008 0.0400454 -0.15997446 0.021206915 -0.11746554 0.1015422 -0.053060565
-0.06876299 -0.029161131 0.089969896 0.16891608 0.08142534 0.19120166 -0.15046257 0.20478038
-0.10817891 -0.02223531 0.021178667 0.0737403 -0.08056112 -0.012143404 0.021582106 0.02210882
0.033283476 0.0016999746 0.053052478 -0.086569786 -0.022087118 0.12569575 -0.022824802 -0.09757242
-0.0937363 -0.083239615 0.0771574 8.481161e-06 0.05740772 0.02083567 0.1038432 0.06632686
-0.11066178 0.0010990851 0.09478051 0.1961727 0.13506179 -0.088661596 -0.12921718 -0.08810608
0.087690584 -0.13118532 -0.15954065 -0.09887992 0.17027718 -0.033752833 0.030759465 -0.08739711
-0.018861316 -0.13011245 0.11078529 -0.19389644 -0.11481609 0.033100963 0.10284202 0.021982845
-0.04071263 -0.1579867 0.0058835684 0.18082535 0.08459705 -0.009585583 0.19135779 0.11111073
-0.11562409 -0.17874916 -0.021090822 0.037715282 0.07480034 0.08691786 -0.14505184 0.118464306
-0.13077167 -0.008656867 0.21255484 -0.07540251 -0.059429787 0.14288338 0.11829385 0.11103389
0.13509253 0.09782809 -0.07399426 0.036800656 0.034559216 0.093843356 0.09387993 -0.06432508
-0.0007292542 0.12102459 0.05241067 0.13874729 -0.026685152 0.074762516 0.09667076 0.18534707
0.044900578 -0.18723354 -0.047991015 -0.17829023 0.20100278 0.08990022 0.11333525 0.16833372
-0.21775676 0.08105426 -0.03358577 0.11256883 0.013212835 0.02334829 -0.115592 0.031290915
0.071104236 -0.014808188 0.043047406 -0.13756475 -0.17739351 0.023460027 0.27172214 0.005416895
-0.22562812 -0.2669762 0.07115509 -0.04311059 0.051204916 -0.24002253 0.0013083598 0.14457795
-0.034318097 -0.250573 -0.04574178 0.1693034 -0.118823655 0.020599794 -0.002189097 0.056931037
-0.10510818 0.16883723 -0.22979803 0.1027498 -0.1353283 -0.07500742 -0.0055738646 0.18101685
0.0809632 -0.104384005 0.026090773 -0.08038858 -0.0412768 0.08220843 0.027274577 0.13578196
0.19909012 -0.071328074 -0.13904119 0.08965891 -0.039268874 -0.15410641 -0.089471154 0.07016363
-0.08712384 0.08975154 0.0049782433 0.002771926 0.09327359 0.027121233 -0.14502524 0.018578533
0.060866475 -0.017797228 0.18052332 0.11897714 0.08074618 0.152617 0.15037696 0.12711255
0.057495974 0.19193444 -0.16019432 0.08975143 -0.12737414 0.15097472 0.17114809 0.027399957
0.1690642 0.13541885 0.084502906 -0.07304959 -0.21400155 -0.19006382 -0.13006009 0.06553657
-0.011908122 -0.20649485 0.029063676 -0.21001884 0.1126064 -0.11513938 0.058842145 0.022635046
-0.071154505 0.006699864 -0.02660059 -0.0259137 0.0034955565 0.03290514 -0.09826055 -0.05191347
0.14440314 0.06101893 0.082358666 0.1721398 0.06575583 0.11733681 -0.09446992 -0.098753214
00000000: 1fe6 113d f288 2cbd a7d7 48bd f3c1 333e
00000010: 902b 9cbc d8eb 0c3e b6b7 e6bd 84ed 1e3e
00000020: 75bf 0b3e eeb9 47be 6a16 80bd 036e 083e
00000030: 8d8d db3d afab e2bd 956b 6bbe 411c 0dbe
00000040: 1ff8 80be f4da d9bd 375f 683e 2161 633e
00000050: 8584 463d 575d 2fbd ac6c 023d 29f6 58bd
00000060: 0a26 2dbe a920 893d 5b6c f33d e334 9fbd
00000070: 4c11 ae3d d213 b6bd dc00 8f3d 1a82 f5bc
00000080: 8841 963c 2915 0d3d a506 243d 58d0 23be
00000090: 20ba ad3c c691 f0bd 5bf5 cf3d 0956 59bd
000000a0: 9cd3 8cbd 53e3 eebc 2342 b83d 56f8 2c3e
000000b0: 54c2 a63d 5eca 433e dc12 1abe f3b1 513e
000000c0: e88c ddbd d326 b6bc e27e ad3c 2805 973d
000000d0: 3afd a4bd 21f5 46bc f5cc b03c 8e1d b53c
000000e0: 4154 083d afd1 de3a 8e4d 593d 804b b1bd
000000f0: 0bf0 b4bc 63b6 003e 14fb babc 0dd4 c7bd
00000100: d1f8 bfbd 8879 aabd b304 9e3d 4f4a 0e37
00000110: 5b24 6b3d 91af aa3c beab d43d 60d6 873d
00000120: a5a2 e2bd 2d0f 903a 491c c23d 7fe1 483e
00000130: a34d 0a3e 3694 b5bd 8251 04be f670 b4bd
00000140: 1f97 b33d 7255 06be a05e 23be 8e81 cabd
00000150: 245d 2e3e 6940 0abd 46fb fb3c 42fd b2bd
00000160: 0c83 9abc 333c 05be 66e3 e23d ca8c 46be
00000170: b324 ebbd e094 073d d69e d23d 5e15 b43c
00000180: 49c2 26bd 44c7 21be f3ca c03b 482a 393e
00000190: 3841 ad3d d90c 1dbc 4cf3 433e 068e e33d
000001a0: 53cc ecbd 050a 37be a9c6 acbc 577b 1a3d
000001b0: ec30 993d fe01 b23d 7888 14be 6a9d f23d
000001c0: 02e9 05be 88d5 0dbc faa7 593e a26c 9abd
000001d0: a66c 73bd 0550 123e 0c44 f23d bc65 e33d
000001e0: b255 0a3e 185a c83d 4d8a 97bd 49bc 163d
000001f0: f78d 0d3d f230 c03d 1f44 c03d debc 83bd
00000200: 6c2b 3fba bedb f73d 92ac 563d c513 0e3e
00000210: d29a dabc 171d 993d 52fb c53d 9fcb 3d3e
00000220: abe9 373d 26ba 3fbe 3a92 44bd b791 36be
00000230: acd3 4d3e 9b1d b83d 501c e83d ad5f 2c3e
00000240: a1fb 5ebe c7ff a53d 3b91 09bd 7d8a e63d
00000250: a67a 583c ea44 bf3c 80bb ecbd e72a 003d
00000260: 199f 913d 0b9e 72bc 7a52 303d c6dd 0cbe
00000270: a5a6 35be 3e2f c03c 2a1f 8b3e 3580 b13b
00000280: 0f0b 67be 1bb1 88be c3b9 913d bb94 30bd
00000290: 3fbc 513d 77c8 75be 457d ab3a 3e0c 143e
000002a0: 2291 0cbd 1b4b 80be bc5b 3bbd df5d 2d3e
000002b0: d159 f3bd e6c0 a83c f476 0fbb 8530 693d
000002c0: f542 d7bd abe3 2c3e 2d50 6bbe 7d6e d23d
000002d0: 8093 0abe 7d9d 99bd f7a4 b6bb 7b5c 393e
000002e0: 09d0 a53d 48c7 d5bd 51bc d53c c5a2 a4bd
000002f0: dd11 29bd e55c a83d ef6e df3c 6d0a 0b3e
00000300: 48de 4b3e 7414 92bd d060 0ebe 179f b73d
00000310: 66d8 20bd 12ce 1dbe a73c b7bd f3b1 8f3d
00000320: fc6d b2bd a8cf b73d 8820 a33b 34a9 353b
00000330: 3906 bf3d 592d de3c 7f81 14be 0232 983c
00000340: 204f 793d 7ecb 91bc 1bdb 383e 49aa f33d
00000350: 415e a53d a147 1c3e 6bfc 193e cb29 023e
00000360: e680 6b3d 768a 443e fb09 24be 99cf b73d
00000370: 5e6e 02be 1e99 1a3e 7241 2f3e e075 e03c
00000380: 2a1f 2d3e 3dab 0a3e dc0f ad3d 069b 95bd
00000390: 3923 5bbe 17a0 42be 792e 05be 0a38 863d
000003a0: 491a 43bc 6373 53be f216 ee3c 2e0f 57be
000003b0: 2f9e e63d 32ce ebbd 7604 713d 226d b93c
000003c0: 74b9 91bd 888a db3b 7be9 d9bc f848 d4bc
000003d0: b515 653b 8ac7 063d d43c c9bd 38a3 54bd
000003e0: 6bde 133e fcee 793d a9ab a83d 6a45 303e
000003f0: feaa 863d 484e f03d 7279 c1bd 203f cabd

ode_net.cell.cell.bias_ih f4 [96]
-0.013358844 0.10859113 0.18920901 0.12656228 -0.019789882 0.16125986 -0.111534335 0.15301867
0.015729085 0.21490832 0.020473357 0.096721016 0.16703884 0.23865815 -0.04760133 -0.1061872
-0.084468395 0.15626408 -0.07601513 -0.004993837 0.12051041 -0.12627608 -0.028953332 -0.012160623
0.17172739 -0.022898972 0.03662745 0.23845564 0.10034965 0.16514626 0.073000185 -0.06491123
-0.061282218 0.08938885 0.041085523 -0.063709006 0.09892397 0.00025662623 -0.088852406 -0.13057557
0.21101914 -0.03362456 -0.15567058 -0.02402933 -0.047197632 0.1584984 0.23952034 -0.14122957
0.064421885 0.047494113 0.07564883 -0.031207338 0.09875465 0.20164979 -0.031639706 0.20135327
0.22284286 0.028630527 0.18749557 -0.09554748 -0.027592914 0.12738405 -0.059339244 -0.0723378
0.104214355 0.053458672 0.04975835 -0.13877377 -0.008376936 0.08716785 0.115644924 0.17325267
-0.16983646 0.0785795 -0.0809379 -0.05018556 0.049818758 0.123521574 0.1799837 0.13671461
0.086110294 0.06582798 -0.16054042 -0.07676079 0.14678942 0.05223727 -0.18349059 0.05827618
0.17318755 0.07561894 -0.035603818 -0.08713674 0.08471623 -0.12360564 0.12985489 -0.011369547
00000000: 0edf 5abc 0765 de3d 02c0 413e 8b99 013e
00000010: 641e a2bc 4e21 253e 1d6c e4bd edb0 1c3e
00000020: 48da 803c ed10 5c3e beb7 a73c ab15 c63d
00000030: 3b0c 2b3e cd62 743e 9df9 42bd ad78 d9bd
00000040: c4fd acbd b103 203e d2ad 9bbd 57a3 a3bb
00000050: 29ce f63d 844e 01be 8a2f edbc 5a3d 47bc
00000060: 4ed9 2f3e a096 bbbc aa06 163d b72d 743e
00000070: 1e84 cd3d 1a1c 293e 1f81 953d 2ef0 84bd
00000080: 1003 7bbd 8011 b73d 4b49 283d de79 82bd
00000090: a698 ca3d ca8b 8639 40f8 b5bd 9ab5 05be
000000a0: 6715 583e e8b9 09bd 1c68 1fbe 28d9 c4bc
000000b0: 4e52 41bd 684d 223e d244 753e 7c9e 10be
000000c0: 9fef 833d 3089 423d c6ed 9a3d 88a6 ffbc
000000d0: e13f ca3d 487d 4e3e a398 01bd 8d2f 4e3e
000000e0: eb30 643e 918a ea3c d7fe 3f3e 66ae c3bd
000000f0: 890a e2bc f770 023e b50d 73bd d725 94bd
00000100: 566e d53d 7bf7 5a3d 69cf 4b3d b61a 0ebe
00000110: 6b3f 09bc 0f85 b23d 3fd7 ec3d 2669 313e
00000120: 9ce9 2dbe 4aee a03d c5c2 a5bd 608f 4dbd
00000130: c10e 4c3d e1f8 fc3d a64d 383e eafe 0b3e
00000140: 985a b03d d2d0 863d b564 24be c334 9dbd
00000150: f74f 163e bff6 553d f5e4 3bbe 01b3 6e3d
00000160: 1458 313e 1ade 9a3d 4fd5 11bd bf74 b2bd
00000170: b47f ad3d f424 fdbd aef8 043e 5647 3abc

ode_net.cell.cell.bias_hh f4 [96]
-0.05620234 0.0018640083 0.20080316 0.15438409 0.014813716 0.1507512 0.040188346 0.14298825
0.17570594 -0.007500969 -0.09922048 -0.04649396 0.043714292 0.068927564 0.03822294 0.13842984
0.065442465 -0.12041176 0.106703624 -0.023022082 0.09734997 -0.101225525 -0.11972404 0.06838701
-0.06499553 0.18478064 0.057852305 -0.068406805 0.243659 0.06285155 0.016071303 0.03241888
-0.06345591 -0.069809936 0.054589253 0.2019741 0.0805899 0.16812843 0.13559617 0.0049516694
0.12914877 -0.16984893 -0.20507391 0.007802045 -0.026878612 -0.013247918 0.17388514 -0.15525025
0.104352094 0.20775844 0.023444176 0.084005386 -0.09601206 0.034467097 -0.05389021 0.08050239
-0.064158306 0.22440614 0.06346958 -0.041471403 0.053585988 -0.14815146 0.039083317 -0.038001172
0.13234945 -0.12984665 0.039334558 -0.02951455 0.15485369 -0.118917726 0.09670547 0.03692575
-0.15608214 -0.12389157 -0.0676851 -0.107558765 0.0011404456 0.13377412 -0.11000504 -0.017234078
-0.063981764 -0.049792822 0.054384615 0.15588689 -0.029003318 0.18160228 0.07303414 -0.09443655
0.079340294 -0.056687545 0.021903317 0.016508382 -0.00770958 -0.08082861 0.046654243 -0.09252536
00000000: 6d34 66bd bd51 f43a 589f 4d3e dd16 1e3e
00000010: 3ab5 723c 865e 1a3e 899c 243d 836b 123e
00000020: 42ec 333e b0ca f5bb 1b34 cbbd 7370 3ebd
00000030: c20d 333d e529 8d3d a88f 1c3d 8dc0 0d3e
00000040: b306 863d 719a f6bd 6e87 da3d ce98 bcbc
00000050: 6c5f c73d 544f cfbd e131 f5bd 7d0e 8c3d
00000060: 601c 85bd 2337 3d3e 8af6 6c3d de18 8cbd
00000070: bf81 793e 50b8 803d f7a7 833c a9c9 043d
00000080: 2cf5 81bd 83f8 8ebd fb98 5f3d 4cd2 4e3e
00000090: 510c a53d dc29 2c3e b9d9 0a3e 9d41 a23b
000000a0: 933f 043e e1ec 2dbe e5fe 51be 4ca8 ff3b
000000b0: 8930 dcbc cc0d 59bc f20e 323e ecf9 1ebe
000000c0: 8db6 d53d a1be 543e 000e c03c 040b ac3d
000000d0: f9a1 c4bd 5f2d 0d3d fbbb 5cbd 70de a43d
000000e0: 6e65 83bd b9ca 653e 57fc 813d ebdd 29bd
000000f0: fb7c 5b3d 04b5 17be d415 203d 1ea7 1bbd
00000100: 9d86 073e 85f6 04be 461d 213d 7fc8 f1bc
00000110: f791 1e3e 238b f3bd 840d c63d 753f 173d
00000120: ffd3 1fbe ddba fdbd 7c9e 8abd c547 dcbd
00000130: 017b 953a 15fc 083e 534a e1bd 7b2e 8dbc
00000140: df08 83bd 8ff3 4bbd 67c2 5e3d d0a0 1f3e
00000150: 5e98 edbc f3f5 393e ec92 953d f367 c1bd
00000160: 2a7d a23d 3331 68bd 966e b33c 963c 873c
00000170: a5a0 fcbb 7889 a5bd 8518 3f3d f07d bdbd

ode_net.expand_input.0.weight f4 [32, 5]
0.40812844 0.11955213 -0.46371433 -0.27432126 -0.087423906 0.35826316 0.36616066 0.34646046
0.055391707 -0.44549045 -0.015857026 0.5113866 -0.2517094 0.24048507 -0.22919345 0.24704774
-0.42966306 0.14384669 -0.4676469 -0.29254916 0.08024056 0.086272396 -0.37947604 -0.19134612
-0.43513963 -0.15269151 -0.3175464 -0.033372946 0.17572033 -0.44160977 0.19101804 0.050709713
0.17365028 -0.48917797 -0.07635599 -0.04776668 0.30865166 0.07601062 0.16191603 0.008969905
-0.1018917 -0.14447796 0.14166752 -0.22152291 0.047511302 -0.023731582 0.15512432 0.28935286
-0.16451694 0.2756432 0.1739205 -0.15737821 0.3951686 0.17646857 0.13345104 0.39828217
0.48434037 -0.14155096 -0.060435865 0.37524608 0.3131123 -0.20047101 -0.14005893 0.4108409
0.20558481 -0.12368749 0.2278671 -0.0028970756 -0.1113498 -0.0023357451 0.28398904 0.05420649
-0.45525175 0.12590034 0.38535374 -0.20296633 -0.1160456 -0.13072428 0.1954844 -0.30133352
0.33714342 0.07658074 0.04342279 0.2827328 -0.15924875 -0.18173786 -0.018287586 -0.3744004
-0.39919522 0.31474176 -0.46806562 0.36834133 -0.21678989 0.38333252 -0.1986863 -0.38456577
0.4101682 0.28656605 0.023517117 0.24428882 -0.24998051 -0.008256887 -0.25009817 0.43064266
-0.020996511 0.009290313 -0.33591956 -0.22744216 0.4269722 -0.15491524 0.08883598 -0.065801844
0.0051718815 -0.3077087 -0.37812573 0.35870314 0.1392943 -0.17084388 0.38195845 0.29229206
-0.2217957 -0.059326973 0.2082552 0.15621123 0.18953174 0.3660514 -0.12417935 -0.3217767
0.25507724 -0.26910555 -0.11685624 0.069100656 -0.38837573 0.21822411 0.05605057 0.014095567
-0.26801586 0.07671691 -0.15810257 0.37111938 -0.22352499 -0.037268925 -0.3890797 0.38330126
-0.41888404 -0.14446123 -0.2835926 -0.026244147 0.19865963 -0.3589142 0.38205776 0.2964432
-0.21822767 -0.37365317 -0.12859681 0.14085425 0.2336611 0.29053432 0.2539296 0.40400678
00000000: 36f6 d03e bfd7 f43d f76b edbe d673 8cbe
00000010: 4e0b b3bd 456e b73e 6979 bb3e 4463 b13e
00000020: 6ae2 623d 5317 e4be 98e6 81bc 3bea 023f
00000030: 0ee0 80be b841 763e b0b1 6abe 15fa 7c3e
00000040: ccfc dbbe 8c4c 133e 6a6f efbe 01c9 95be
00000050: 2a55 a43d 95af b03d af4a c2be 3df0 43be
00000060: 9fca debe 2a5b 1cbe 7195 a2be 12b2 08bd
00000070: 08f0 333e ad1a e2be 3c9a 433e fdb4 4f3d
00000080: 61d1 313e 8975 fabe 8760 9cbd ffa6 43bd
00000090: 9707 9e3e 75ab 9b3d 51cd 253e 82f6 123c
000000a0: 98ac d0bd 08f2 13be 4a11 113e e7d6 62be
000000b0: 369b 423d bc68 c2bc e9d8 1e3e 0f26 943e
000000c0: 2177 28be 1b21 8d3e 3718 323e c127 21be
000000d0: 8a53 ca3e 2db4 343e 64a7 083e a4eb cb3e
000000e0: 76fb f73e bcf2 10be 998b 77bd 4120 c03e
000000f0: 4150 a03e 4648 4dbe 9c6b 0fbe bd59 d23e
00000100: d384 523e de4f fdbd fe55 693e dddc 3dbb
00000110: 5d0b e4bd 4d13 19bb 0367 913e a007 5e3d
00000120: c216 e9be 05ec 003e 164d c53e 68d6 4fbe
00000130: 51a9 edbd 96dc 05be 102d 483e 6348 9abe
00000140: 109e ac3e 5dd6 9c3d 18dc 313d 5bc2 903e
00000150: 1b12 23be 7d19 3abe d9cf 95bc 69b1 bfbe
00000160: 5163 ccbe d525 a13e 4ca6 efbe 3c97 bc3e
00000170: 2bfe 5dbe 2944 c43e 6c74 4bbe cee5 c4be
00000180: 9101 d23e c9b8 923e f8a6 c03c d926 7a3e
00000190: e4fa 7fbe e547 07bc de0c 80be 327d dc3e
000001a0: e000 acbc 6636 183c a6fd abbe 99e6 68be
000001b0: 1a9c da3e 1aa2 1ebe a3ef b53d 1ec3 86bd
000001c0: e378 a93b ff8b 9dbe b299 c1be f0a7 b73e
000001d0: 2aa3 0e3e b3f1 2ebe 0f90 c33e 4ea7 953e
000001e0: 691e 63be d700 73bd da40 553e d6f5 1f3e
000001f0: 9c14 423e 176b bb3e be51 febd eabf a4be
00000200: 7c99 823e 34c8 89be 5352 efbd a584 8d3d
00000210: 2fd9 c6be 2476 5f3e 4895 653d 18f1 663c
00000220: 6039 89be c11d 9d3d a4e5 21be 5c03 be3e
00000230: bce3 64be 4da7 18bd 7435 c7be 1040 c43e
00000240: f877 d6be a5ed 13be 0d33 91be f7fd d6bc
00000250: 6e6d 4b3e 9ac3 b7be 139d c33e 67c7 973e
00000260: 1377 5fbe 784f bfbe e2ae 03be 193c 103e
00000270: db44 6f3e eac0 943e 0f03 823e fad9 ce3e

ode_net.expand_input.0.bias f4 [32]
0.36960733 -0.09649277 -0.34118405 -0.3138254 -0.06313626 0.25523221 0.26221088 -0.48488563
-0.196877 -0.19893754 0.11182842 0.36940154 0.10042701 0.1577515 -0.3097554 -0.40637544
0.04158601 0.21867141 -0.11806984 -0.06641535 0.26650316 0.44217983 -0.13886479 -0.25140908
0.38305965 0.42121443 -0.13329893 0.17059664 -0.09631348 -0.09830095 -0.11743343 -0.1334722
00000000: 2c3d bd3e 009e c5bd adaf aebe b9ad a0be
00000010: 954d 81bd ccad 823e 8140 863e ee42 f8be
00000020: 209a 49be 48b6 4bbe 4c06 e53d 3322 bd3e
00000030: adac cd3d 9c89 213e 4398 9ebe 7110 d0be
00000040: 1856 2a3d 66eb 5f3e 9ace f1bd c504 88bd
00000050: 1a73 883e 6565 e23e 9232 0ebe b1b8 80be
00000060: 6520 c43e 6ba9 d73e 847f 08be e3b0 2e3e
00000070: 0040 c5bd 0252 c9bd f080 f0bd f0ac 08be
