ckpt/rnn_ode_2_3_h32/best.pth (torch_old, 61272 bytes, 30 tensors)

rnn.weight_ih_l0 f4 [32, 7]
0	0xbd969ada	-0.07353754
1	0xbbb02839	-0.0053758887
2	0x3daed766	0.08537178
3	0xbd5d767d	-0.054068077
4	0xbd9c02a4	-0.07617691
5	0x3e3bb2be	0.18329903
6	0xbe449f3d	-0.1920137
7	0xbd89daa8	-0.067311585
8	0x3c5dc40a	0.013535509
9	0xbe5b07ad	-0.21389647
10	0x3d8d2c56	0.06893222
11	0xbdf52621	-0.11970163
12	0xbd8f2f38	-0.06991428
13	0xbd254c60	-0.04035604
14	0xbdcc111d	-0.099642016
15	0x3d6c01cb	0.057618897
16	0xbd9393c8	-0.072059214
17	0x3dd4e31c	0.1039488
18	0x3c5cf246	0.013485497
19	0x3e636d72	0.22209719
20	0xbe0173a2	-0.12641767
21	0x3d9027a2	0.07038809
22	0xbd9699d6	-0.073535606
23	0x3e092349	0.13392366
24	0x3d417f75	0.047240693
25	0xbe18606e	-0.14880535
26	0x3de4e022	0.111755624
27	0xbc91bcf5	-0.017790297
28	0xbd05200e	-0.032501273
29	0xbd11a577	-0.03555819
30	0xbdb3b25c	-0.08774254
31	0x3d247989	0.040154967
32	0xbcf83b70	-0.03030178
33	0xbdab9fae	-0.08380066
34	0x3e25eb11	0.16202952
35	0x3d2df253	0.042467427
36	0xbe207511	-0.15669657
37	0xbe0a3e00	-0.13500214
38	0x3e02901c	0.12750286
39	0xbca37793	-0.019954478
40	0x3e5379ae	0.20651886
41	0xbdf9e8f8	-0.122026384
42	0x3d874aef	0.06606089
43	0x3d1aa1a9	0.037751827
44	0x3da0731f	0.078344576
45	0x3e3447f9	0.1760558
46	0xbcb1be23	-0.02169711
47	0xbdb095ca	-0.0862232
48	0xbd0ae33c	-0.033908114
49	0x3e072682	0.13198283
50	0x3cf2c5a7	0.029635264
51	0x3d13be7f	0.036070343
52	0x3cc22aae	0.023701992
53	0x3db05e6c	0.086117595
54	0x3e23c5d4	0.15993434
55	0x3e3939ad	0.18088408
56	0x3da291c3	0.07937958
57	0xbc696245	-0.014244621
58	0x3da9237a	0.0825872
59	0x3c284efd	0.0102727385
60	0x3dd1b157	0.10238903
61	0x3c25cf6f	0.010120257
62	0xbbeec003	-0.007286073
63	0x3e17d636	0.14827809
64	0x3e6cf9fc	0.23142236
65	0xbe08bf92	-0.13354328
66	0x3d8e18c0	0.069383144
67	0x3d947d31	0.07250441
68	0xbdc9b0da	-0.09848185
69	0x3e071c3a	0.13194361
70	0x3d5089b6	0.05091258
71	0xbdd454c2	-0.10367729
72	0xbd50165e	-0.05080258
73	0x3e115af2	0.14194849
74	0x3d297a20	0.041376233
75	0x3bf7e18c	0.007564729
76	0x3d29923e	0.041399233
77	0x3cf560be	0.029953357
78	0xbd2fa643	-0.04288317
79	0xbdcbb6b0	-0.09946954
80	0x3decaee8	0.11556798
81	0xbc0ed114	-0.00871684
82	0xbe156331	-0.1458862
83	0x3def0406	0.11670689
84	0xbd47bb8e	-0.04876285
85	0xbe137df7	-0.1440352
86	0xbd9eba51	-0.07750381
87	0x3b2f468c	0.002674493
88	0xbe2c65a7	-0.16835652
89	0xbdc7f91a	-0.09764309
90	0x3e6b7b44	0.22996241
91	0x3d038fc7	0.03211954
92	0x3dca3d31	0.098749526
93	0xbd9de202	-0.07709123
94	0xbe3ade62	-0.18248895
95	0x3de2f7fb	0.11082455
96	0xbd927bef	-0.07152545
97	0xbe6abaaa	-0.22922769
98	0xbcef1100	-0.02918291
99	0x3d20920f	0.039201792
100	0xbd4db745	-0.050223608
101	0xbc37d216	-0.011219522
102	0x3d85475f	0.065077536
103	0xbd218074	-0.039429143
104	0x3e42d98d	0.19028302
105	0x3e0c37b8	0.1369313
106	0xbe211e5f	-0.15734242
107	0x3db1aaff	0.08675193
108	0x3dc82e33	0.09774437
109	0xbdd5e470	-0.104439616
110	0xbd7eb714	-0.062186316
111	0xbdaaa88e	-0.083329305
112	0x3d512c4f	0.051067647
113	0xbe0312bd	-0.12800117
114	0x3db859e6	0.09001522
115	0x3dc90d55	0.09816996
116	0x3e13d508	0.14436734
117	0xbe3c7c20	-0.18406725
118	0x3caaf783	0.020869976
119	0x3e221195	0.1582702
120	0xba8df1ac	-0.001082947
121	0xbce1f432	-0.027582262
122	0xbd3af69f	-0.045645352
123	0x3de5f68a	0.11228664
124	0xbd5fe170	-0.054658353
125	0x3da9c0d2	0.08288731
126	0x3dec6e44	0.11544469
127	0x3d86b24e	0.06576978
128	0xbe04cd0a	-0.12968841
129	0x3df94334	0.12171021
130	0x3dfd2d83	0.12362196
131	0xbcb7fd13	-0.022459542
132	0xbdd1ea66	-0.10249786
133	0x3e137ba4	0.14402634
134	0xbe167b6d	-0.1469552
135	0x3d3d0ab1	0.046152774
136	0xbdf7cc6e	-0.12099539
137	0xbdae4b68	-0.08510476
138	0x3d473394	0.048633173
139	0xbe637275	-0.2221163
140	0x3d951e46	0.07281165
141	0x3dbf0516	0.09327142
142	0xbd26b387	-0.040698554
143	0x3e0d95d6	0.13826689
144	0x3dde9670	0.108685374
145	0xbe45d298	-0.19318616
146	0x3978404b	0.00023675074
147	0xbd4feef9	-0.05076501
148	0x3dd6c770	0.104872584
149	0x3de3822e	0.11108814
150	0x3c5527e0	0.013009995
151	0xbdd511e1	-0.10403801
152	0x3dd73384	0.10507873
153	0x3d957cd2	0.07299198
154	0xbd8fe2e8	-0.07025701
155	0xbd233f41	-0.039855246
156	0x3d533428	0.051563412
157	0x3df06fab	0.11740049
158	0x3c6c99a8	0.014440931
159	0x3cc95de1	0.024580898
160	0xbe11aa30	-0.14225078
161	0xbe1201a7	-0.14258443
162	0xbd83bed3	-0.06432881
163	0x3e0d48ad	0.13797255
164	0x3d7024b9	0.05862877
165	0xbbb1930a	-0.0054191398
166	0xbd6b6261	-0.05746687
167	0x3de9ff1a	0.1142561
168	0x3e0c26c1	0.13686658
169	0xbcc5c72e	-0.024142828
170	0xbe04d543	-0.12971978
171	0xbd3664f2	-0.044529863
172	0x3d583fed	0.05279534
173	0xbd8c2c16	-0.06844346
174	0x3daf4828	0.085586846
175	0x3cfc9eb8	0.030837402
176	0x3d2efe50	0.042723
177	0x3d407578	0.046987027
178	0x3d83a056	0.06427066
179	0x3d761e2c	0.060087368
180	0x3e08f7e9	0.1337582
181	0xbd036bab	-0.032085102
182	0x3e1ab7e3	0.1510921
183	0xbbe22460	-0.006901309
184	0x3e012436	0.1261147
185	0x3cc897ba	0.024486411
186	0x3d3b4701	0.04572201
187	0x3e42aff1	0.19012429
188	0x3e774d39	0.24150552
189	0x3e0afded	0.13573427
190	0xbe1a8845	-0.15091045
191	0x3c24cfc2	0.010059299
192	0xbd95d7da	-0.07316561
193	0x3dae147a	0.08499999
194	0xbd69d67b	-0.05708931
195	0xbe25a132	-0.16174772
196	0xbe2b66bb	-0.16738407
197	0x3d48dae6	0.049036883
198	0xbc3d984c	-0.011571955
199	0xbdfca5ad	-0.12336288
200	0xbb9fb5cd	-0.0048739673
201	0xbd09a8f7	-0.033608403
202	0xbdb2a672	-0.08723153
203	0x3ca3b8fe	0.019985672
204	0x3d5cd26d	0.053911615
205	0x3dd69a7e	0.10478686
206	0x3e37c985	0.17947967
207	0xbd4b62e3	-0.049654853
208	0x3e45b62a	0.19307771
209	0x3d950af0	0.07277477
210	0x3e1ed3e7	0.15510522
211	0xbd039f4f	-0.03213435
212	0x3de559b4	0.1119875
213	0xbd1c6b8a	-0.038188495
214	0xbd1129be	-0.0354402
215	0x3c188a3f	0.009310304
216	0xbe40f0bf	-0.18841837
217	0xbdc8c006	-0.098022506
218	0xbe0187ac	-0.12649411
219	0x3e26af9f	0.16277932
220	0x3d1448c6	0.036202215
221	0x3da742a6	0.08167009
222	0x3e02ab8a	0.1276075
223	0xbe2271a0	-0.15863657

rnn.weight_hh_l0 f4 [32, 32]
0	0xbdc920d6	-0.09820716
1	0x3e1fd697	0.15609203
2	0xbe384e8b	-0.17998712
3	0x3dd61515	0.1045324
4	0xbdbfef70	-0.09371841
5	0x3e1f46f1	0.15554406
6	0xbddcdd1e	-0.10784362
7	0x3dd40358	0.103522
8	0xbd41c0a4	-0.047302857
9	0x3dd81f91	0.10552896
10	0x3c9d513e	0.019203778
11	0x3d6f8e9d	0.058485616
12	0x3def6502	0.116891876
13	0xbddd3b16	-0.108022854
14	0xbd3b2737	-0.045691695
15	0xbc1fd540	-0.009755433
16	0xbdd65e78	-0.10467237
17	0xbd2bf595	-0.041982252
18	0x3d3faef9	0.046797726
19	0xbd68774f	-0.056754407
20	0x3b7055cf	0.003667224
21	0xbe2b56aa	-0.16732278
22	0x3e396d7e	0.18108174
23	0xbc2e28e1	-0.0106298635
24	0xbe3de755	-0.18545277
25	0x3e12d4c1	0.14338972
26	0x3d4cde84	0.050016895
27	0x3dd0c195	0.10193173
28	0x3e2cb6e0	0.16866636
29	0x3dc0ae3a	0.09408231
30	0x3c680e2c	0.014163535
31	0xbe236e6f	-0.15960096
32	0xbc9ad2d6	-0.018899363
33	0xbdb9b717	-0.09068125
34	0xbcafddac	-0.021468006
35	0xbe203f96	-0.15649256
36	0xbc712ee9	-0.014720657
37	0x3e0ceaa7	0.13761388
38	0xbbcfa92f	-0.006337307
39	0xbe405b74	-0.18784887
40	0xbdc8d8e2	-0.09806992
41	0x3e3adf08	0.18249142
42	0xbd9375ab	-0.07200178
43	0x3cf95df7	0.030440314
44	0x3dd9ef6b	0.106413685
45	0x3e6476d7	0.22310959
46	0xbd92a0d0	-0.07159579
47	0x3ce333fa	0.027734745
48	0x3dfe57b5	0.124190725
49	0x3bba7fc4	0.0056915004
50	0x3d3306bb	0.04370759
51	0x3e2559bb	0.1614751
52	0x3e1c0698	0.1523689
53	0xbdb990d1	-0.09060825
54	0xbd9cffac	-0.07665953
55	0xbe61a4d6	-0.22035536
56	0xbdf62b97	-0.12020033
57	0x3df1daba	0.11809297
58	0xbdf6f8f2	-0.12059201
59	0x3e1936d2	0.14962319
60	0x3d5002da	0.05078397
61	0xbe0af9ea	-0.13571897
62	0x3dc17ff7	0.094482355
63	0x3ddd2b2d	0.10799251
64	0xbd6838e0	-0.056694865
65	0x3d4cea37	0.050028052
66	0xb92025b4	-0.00015272835
67	0x3e13770a	0.14400879
68	0x3e18007f	0.14843939
69	0xbdb5e84e	-0.08882199
70	0x3e086493	0.13319616
71	0xbd3e1c17	-0.046413507
72	0xbdaedf0a	-0.08538635
73	0x3d9c6c99	0.07637901
74	0xbd04e4c5	-0.032444734
75	0xbdd64c5f	-0.104637854
76	0x3df5ed04	0.12008098
77	0x3da105ab	0.07862409
78	0x3db5fe06	0.08886342
79	0xbe2a9b65	-0.16660841
80	0xbe02b5ca	-0.1276466
81	0x3c8c4146	0.017120969
82	0xbe472a10	-0.1944964
83	0xbdecbb4a	-0.1155916
84	0xbd08cdd6	-0.033399425
85	0x3d416635	0.047216613
86	0xbdb67c76	-0.08910458
87	0x3e35d35f	0.17756413
88	0xbc41b611	-0.011823193
89	0xbd4a58f7	-0.04940125
90	0xbe00c77e	-0.125761
91	0x3e0e10de	0.13873622
92	0xbd99e073	-0.075135134
93	0x3dc67397	0.09690016
94	0x3e1ef667	0.15523683
95	0xbd264456	-0.040592514
96	0x3d86ff29	0.06591637
97	0xbe865177	-0.26234028
98	0xbe021d6d	-0.12706538
99	0x3c6f95cb	0.014623116
100	0xbe126ccc	-0.14299315
101	0xbe6fd301	-0.23420335
102	0x3dc148d7	0.09437721
103	0x3e16989c	0.14706653
104	0x3e1b1e93	0.15148382
105	0x3ddd5888	0.108079016
106	0xbd869f4c	-0.06573352
107	0xbdbdf5d1	-0.092754014
108	0xbd9b1afc	-0.07573506
109	0xbdfa81a8	-0.12231761
110	0x3de5de5c	0.11224052
111	0xbdc46215	-0.0958902
112	0xbd085f6b	-0.033294123
113	0xbc89d4c5	-0.01682509
114	0xbdc89311	-0.09793676
115	0xbe844868	-0.25836492
116	0x3d6dc954	0.05805333
117	0xba210777	-0.0006142775
118	0xbe8de99a	-0.27717286
119	0x3de09fd2	0.10967983
120	0x3d2c5aa5	0.042078633
121	0xbdf2d920	-0.118578196
122	0x3da0dd97	0.07854765
123	0x3d26c214	0.04071243
124	0xbe2cf9f8	-0.1689223
125	0x3e67c305	0.22632988
126	0xbe1dfeec	-0.15429276
127	0x3e57c105	0.21069725
128	0xbd757552	-0.05992634
129	0x3b91b680	0.0044468045
130	0xbdb82a23	-0.08992412
131	0xbda10119	-0.078615375
132	0x3d8c9d09	0.068658896
133	0xbe5cb724	-0.21554238
134	0xbd951558	-0.072794616
135	0x3dd7f3c8	0.105445445
136	0x3e087c28	0.13328612
137	0xbe0ad7ab	-0.13558833
138	0x3ddfd546	0.109293506
139	0x3e22b80d	0.15890522
140	0xbda66b82	-0.08125974
141	0x3e1afab1	0.15134694
142	0xbdddaac6	-0.10823588
143	0x3d8f8f61	0.07009769
144	0xbddcb0a7	-0.10775881
145	0xbd80276c	-0.06257519
146	0xbd851c9f	-0.064996
147	0xbde9c414	-0.11414352
148	0x3db38525	0.0876563
149	0xbe1de05a	-0.15417615
150	0x3c39e5cd	0.011346293
151	0xbde17352	-0.11008324
152	0x3e05bab3	0.13059501
153	0xbd3d30ad	-0.046189
154	0x3e195231	0.1497276
155	0xbe30ef03	-0.17278676
156	0xbdb29e95	-0.08721653
157	0x3e03f327	0.12885724
158	0xbd941d44	-0.072321445
159	0xbdfa08b6	-0.12208693
160	0x3e3adb84	0.18247801
161	0x3e0a5b43	0.13511376
162	0xbd8bb987	-0.06822496
163	0x3e144f74	0.14483434
164	0xbe317c25	-0.17332514
165	0x3df0853e	0.11744164
166	0xbe288e66	-0.1646057
167	0xbd284574	-0.04108186
168	0xbe0f39ab	-0.13986842
169	0x3d387959	0.0450376
170	0x3cceb604	0.025233276
171	0xbe14d7f1	-0.145355
172	0xbe263035	-0.16229327
173	0xbe4912f2	-0.19636133
174	0x3d2e0f66	0.042495154
175	0x3cea7dea	0.028624494
176	0xbd8416f7	-0.06449693
177	0x3e0dc1d1	0.13843466
178	0xbdcdcf99	-0.10049362
179	0xbe20e4bd	-0.15712257
180	0x3dbc1ea9	0.091855355
181	0xbdcfe389	-0.10150821
182	0xbdfcc24e	-0.12341748
183	0xbe3415b6	-0.17586407
184	0xbdfe99e3	-0.12431695
185	0xbdfb7538	-0.12278217
186	0x3d43772f	0.047721084
187	0xbd99e615	-0.07514588
188	0xbd0d0818	-0.034431547
189	0xbe15d6a2	-0.14632657
190	0xbe0512b6	-0.12995419
191	0xbe1b80ef	-0.15185903
192	0x3dc6b75d	0.097029425
193	0xbd8c30f3	-0.06845274
194	0xbd7efd17	-0.062253084
195	0x3e4a1b20	0.1973691
196	0xbe2227e9	-0.15835537
197	0x3db6b979	0.08922095
198	0x3e15eb1c	0.14640468
199	0xbd870526	-0.06592779
200	0x3d960f11	0.073270924
201	0x3d7e011c	0.062012777
202	0x3dde0e32	0.10842551
203	0xbd47e26d	-0.04879992
204	0xbdce0130	-0.1005882
205	0xbd0ec632	-0.034856983
206	0xbe31ffa8	-0.17382681
207	0x3ddba8fe	0.10725592
208	0xbe01123d	-0.12604614
209	0xbe47a6dd	-0.19497247
210	0xbde7f8a1	-0.11326719
211	0xbdbc1bff	-0.09185027
212	0x3da0a806	0.07844548
213	0x3c96a0ca	0.018387217
214	0x3e4d0418	0.20021093
215	0x3d739ac0	0.059473753
216	0xbe6637a0	-0.22482157
217	0x3d67dc20	0.056606412
218	0x3d2ce1b9	0.042207453
219	0xbdb9c902	-0.09071542
220	0x3db66001	0.0890503
221	0xbe124deb	-0.14287536
222	0x3d0fdd3f	0.035123106
223	0xbc715ca0	-0.014731556
224	0xbe3cdd76	-0.18443856
225	0xbb89f6c6	-0.004210326
226	0x3e2668f7	0.16250978
227	0xbd968dc7	-0.07351261
228	0x3e4fb478	0.20283687
229	0xbdcdf036	-0.10055582
230	0x3d4dd585	0.050252456
231	0xbe0f09a4	-0.13968521
232	0x3db4e7a9	0.08833248
233	0xbe420dbb	-0.1895055
234	0x3e4f3325	0.20234354
235	0x3c9882e7	0.018617107
236	0x3e27e6d2	0.16396645
237	0x3e338e53	0.17534761
238	0xbe54409f	-0.20727776
239	0xbdecf8f8	-0.115709245
240	0x3e335b8a	0.17515388
241	0xbe0e0307	-0.13868342
242	0xbe2403f5	-0.16017134
243	0x3d2809ec	0.041025087
244	0xbdc55a5b	-0.096363746
245	0x3e1caf63	0.1530128
246	0x3e67c831	0.2263496
247	0x3dae6564	0.085154325
248	0xbdca0950	-0.098650575
249	0xbdacfb64	-0.084463865
250	0x3d8d2119	0.068910785
251	0x3e08496e	0.13309261
252	0xbdedb7c3	-0.116073154
253	0x3d985fca	0.07440145
254	0xbd6146b3	-0.054999065
255	0xbe154fcd	-0.14581223

rnn.bias_ih_l0 f4 [32]
0	0x3d0043b5	0.03131457
1	0xbdc4086b	-0.09571918
2	0x3ddec553	0.1087748
3	0x3d5f31ef	0.05449098
4	0xbbb2f160	-0.005460903
5	0x39957414	0.0002850598
6	0xbb259b8a	-0.002526971
7	0xbdc42424	-0.09577206
8	0x3d900a0f	0.070331685
9	0x3bb460e7	0.0055047157
10	0x3e270867	0.16311799
11	0x3dc51a54	0.09624162
12	0xbe1e127b	-0.15436737
13	0x3dab387d	0.08360384
14	0xbca095bf	-0.019602655
15	0x3e2c4a74	0.16825277
16	0xbdd647fb	-0.10462948
17	0x3df12039	0.11773724
18	0xbc8d524c	-0.017251156
19	0x3e11816b	0.14209525
20	0xbb629aa1	-0.003457703
21	0xbe2d579c	-0.16927952
22	0x3ca7a7ff	0.020465849
23	0xbd80ef5d	-0.06295655
24	0x3cf150b3	0.029457426
25	0xbbac0ace	-0.0052503115
26	0x3dd90efd	0.10598562
27	0xbe1468f0	-0.14493155
28	0xbd43ff30	-0.047850788
29	0x3c00f2f4	0.007870425
30	0x3e2fdbce	0.17173693
31	0x3d08641a	0.03329859

rnn.bias_hh_l0 f4 [32]
0	0xbe1a9c02	-0.15098575
1	0x3dd961d8	0.10614365
2	0xbd242d5d	-0.040082324
3	0xbe2dfff2	-0.16992167
4	0x3d355405	0.04426958
5	0xbd85706f	-0.06515586
6	0xbda01383	-0.078162216
7	0xbd33b177	-0.043870416
8	0xbe1e4506	-0.15456018
9	0x3dd2c214	0.10290924
10	0x3e81b2b4	0.25331652
11	0xbe044724	-0.12917763
12	0x3de84883	0.113419555
13	0xb823ae91	-3.9024806e-05
14	0xbdf7597a	-0.12077613
15	0xbd6d3fe7	-0.05792227
16	0x3e373243	0.17890267
17	0x3e355785	0.17709167
18	0xbe14dcdf	-0.1453738
19	0xbddb3aec	-0.10704598
20	0x3dff8db6	0.12478201
21	0x3df5d444	0.12003377
22	0xbd39c47c	-0.045353398
23	0xbe188ed3	-0.14898233
24	0x3dedc22c	0.11609301
25	0x3e388bc9	0.18022074
26	0xbce43b22	-0.027860228
27	0x3db17d78	0.086665094
28	0xbddd1210	-0.10794461
29	0x3e18c129	0.14917435
30	0x3c72b316	0.014813205
31	0xbda94b1e	-0.082662806

fc.0.weight f4 [32, 32]
0	0xbe8699db	-0.26289257
1	0x3e04442a	0.12916628
2	0xbe1e9608	-0.1548692
3	0xbebb17e9	-0.3654168
4	0x3e711992	0.2354491
5	0x3d86ed24	0.065882
6	0x3e0a151a	0.13484612
7	0xbdb7c59b	-0.08973237
8	0xbb278997	-0.0025564188
9	0x3d3dacb9	0.0463073
10	0x3d26c337	0.040713515
11	0x3ddbc923	0.10731723
12	0xbccfc3f1	-0.025361987
13	0xbde2a65b	-0.11066886
14	0x3e83e88b	0.25763354
15	0xbd875308	-0.06607634
16	0x3e4ccd34	0.20000154
17	0xbe12ca59	-0.14335002
18	0xbe381218	-0.17975652
19	0xbd9c9933	-0.07646408
20	0x3e88c443	0.26712236
21	0xbe0cb327	-0.13740216
22	0xbe4492cd	-0.19196625
23	0xbe000128	-0.12500441
24	0xbe38bce6	-0.18040809
25	0x3f04116f	0.515891
26	0x3e510356	0.20411429
27	0x3e7a85f0	0.24465156
28	0xbebeae8e	-0.3724255
29	0xbda7cfa2	-0.081939
30	0x3e526f6d	0.20550318
31	0x3e20f4ff	0.15718459
32	0xbe0db422	-0.13838246
33	0xbe35e401	-0.17762758
34	0xbe4b4d3f	-0.19853686
35	0xbe100f1e	-0.14068267
36	0x3c42c4b5	0.011887719
37	0x3d0f3ff6	0.034973107
38	0x3e1c156b	0.15242545
39	0xbe42d132	-0.19025114
40	0x3ee32f84	0.4437219
41	0xbe223382	-0.15839961
42	0xbd1372c0	-0.035998106
43	0xbc68cc6f	-0.014208897
44	0xbd37875f	-0.044806834
45	0x3e0aa11a	0.13538018
46	0x3cee3e79	0.029082524
47	0x3e51640a	0.20448318
48	0xbe1366e4	-0.14394718
49	0xbd1d3221	-0.038377885
50	0x3ed702db	0.41994366
51	0xbdc8b7a6	-0.09800653
52	0xbdc19ebc	-0.09454104
53	0x3e7e8558	0.24855554
54	0x3c2823ca	0.010262439
55	0x3c2766d6	0.010217389
56	0xbe340d12	-0.17583111
57	0xbd84c5c2	-0.06483032
58	0x3e6bc92f	0.23025964
59	0xbe027ada	-0.12742177
60	0xbe525d0d	-0.20543309
61	0xbe0c762e	-0.13716957
62	0xbe22900a	-0.15875259
63	0xbde74cc3	-0.11293938
64	0xbd1ee28c	-0.03879027
65	0x3c28b081	0.010295988
66	0x3e109d9f	0.14122628
67	0x3e9d3cd7	0.3071048
68	0xbd29f0ec	-0.041489527
69	0x3d362c04	0.04447557
70	0xbd41a33e	-0.04727482
71	0x3e119d8a	0.14220253
72	0x3e11b63f	0.14229678
73	0x3bee7ea0	0.0072782785
74	0x3e54de06	0.2078782
75	0xbe3d149f	-0.18464898
76	0xbf0293ef	-0.5100698
77	0x3df4b2bf	0.119481556
78	0xbdafb84a	-0.08580072
79	0xbe50d84b	-0.20395009
80	0x3d8d93c3	0.06912949
81	0x3e08d253	0.13361482
82	0x3dfaed09	0.12252242
83	0xbe13a019	-0.14416541
84	0xbd62e95a	-0.055398323
85	0x3de3f4b9	0.111306615
86	0xbe035121	-0.12823917
87	0xbd3edc83	-0.046597015
88	0xbe1d72a2	-0.1537576
89	0x3ed3df4d	0.41381302
90	0xbe832eb9	-0.25621584
91	0x3d84e130	0.064882636
92	0xbe136226	-0.1439291
93	0x3eb5464a	0.3540519
94	0xbde55c5d	-0.111992575
95	0xbe4667c4	-0.19375521
96	0x3ec92c50	0.3929162
97	0x3cbb9499	0.022898005
98	0xbe9ee94f	-0.31037375
99	0xbe1c2a1a	-0.15250435
100	0x3ed7c34f	0.42141196
101	0xbdba7d68	-0.091059506
102	0xbe893ec0	-0.26805687
103	0x3e9796f2	0.2960735
104	0x3daf6142	0.08563472
105	0x3d9f498a	0.07777698
106	0x3c5df189	0.013546356
107	0x3d385218	0.045000166
108	0x3d8b8103	0.068117164
109	0xbe507213	-0.20356016
110	0x3d8f6055	0.07000796
111	0xbdc42948	-0.09578186
112	0x3e47e41e	0.19520614
113	0x3d96d0d0	0.073640466
114	0x3de48f33	0.111601256
115	0xbe27a09b	-0.1636986
116	0xbccd41a9	-0.025055723
117	0xbdbc8833	-0.092056654
118	0x3e33a9d6	0.17545256
119	0xbe8d5d5d	-0.27610293
120	0x3cc8abc0	0.02449596
121	0xbe62c1e4	-0.22144276
122	0xbccb78bc	-0.024837844
123	0xbe96aaeb	-0.29427275
124	0xbe631fdc	-0.22180122
125	0xba779534	-0.0009444535
126	0xbdd30564	-0.103037626
127	0xbea1491e	-0.31501096
128	0xbd947099	-0.07248039
129	0x3cf8396c	0.030300818
130	0xbe443da6	-0.19164142
131	0x3edc225a	0.42994958
132	0x3d779dbf	0.060453173
133	0xbdbc8775	-0.09205524
134	0xbe0f3d84	-0.1398831
135	0xbe1a145f	-0.15046833
136	0xbe5d21a6	-0.21594867
137	0x3c1f4b2f	0.009722515
138	0xbccb6167	-0.024826718
139	0x3e4399e9	0.19101681
140	0x3e202cd5	0.15642102
141	0xbd89664b	-0.06708964
142	0x3beccd03	0.0072265877
143	0xbe27e0f6	-0.1639441
144	0xbe77170d	-0.24129887
145	0x3cccbaa0	0.024991333
146	0xbd47a2d8	-0.048739284
147	0xbe213021	-0.15741016
148	0xbe38e293	-0.18055181
149	0xbe1d406b	-0.15356605
150	0xbe6c032e	-0.23048088
151	0xbd32027f	-0.04345941
152	0xbe5d7085	-0.21624954
153	0xbdc78ee4	-0.09744051
154	0xbdb121f5	-0.08649055
155	0x3dd0cd19	0.10195369
156	0xbde8f228	-0.11374313
157	0xbe9d8a74	-0.30769694
158	0xbec8bb35	-0.39205328
159	0xbddd0edd	-0.107938506
160	0xbdc9d1b0	-0.09854448
161	0xbd67e917	-0.056618776
162	0xbd72630a	-0.059176482
163	0x3dadc915	0.08485619
164	0xbcbf6600	-0.023364067
165	0x3ec17eb8	0.3779199
166	0xbeaa92aa	-0.3331502
167	0xbd29dcef	-0.041470464
168	0x3e2051a7	0.15656148
169	0xbdeb25d3	-0.11481824
170	0x3e0d3083	0.13788037
171	0xbd686ffd	-0.056747425
172	0x3e9611c9	0.29310444
173	0xbeeae516	-0.45877904
174	0xbd5d7222	-0.054063924
175	0x3ce20cf6	0.02759407
176	0x3b043826	0.0020175069
177	0x3bb224f3	0.0054365336
178	0x3e216402	0.15760806
179	0x3e92a1bf	0.28639027
180	0xbc94ef06	-0.018180382
181	0xbe46612e	-0.19373009
182	0xbcf96af2	-0.030446503
183	0x3e33af5c	0.17547363
184	0xbce4aed6	-0.0279154
185	0x3df0c8ac	0.11757025
186	0x3dd41b8e	0.10356818
187	0x3e5888c8	0.21145928
188	0x3e37bdc9	0.17943491
189	0x3e8c5b4c	0.27413404
190	0xbe4ae0c1	-0.198123
191	0xbe1053ed	-0.14094515
192	0x3d6970fd	0.05699252
193	0x3ef56539	0.4792879
194	0x3e7a7123	0.2445722
195	0x3da1aff0	0.078948855
196	0x3d42e7fc	0.04758452
197	0xbe223ec5	-0.15844257
198	0x3e1d5ab5	0.15366633
199	0x3e3edb54	0.18638355
200	0x3e52e534	0.20595247
201	0x3d527a6d	0.051386286
202	0x3e6b08dc	0.22952598
203	0x3d9111e9	0.07083494
204	0x3ecdf209	0.4022372
205	0xbd9762cd	-0.07391892
206	0x3d9b87a3	0.0759423
207	0xbe687948	-0.22702515
208	0x3de17354	0.11008325
209	0xbdc8f0aa	-0.09811528
210	0x3e33843e	0.17530915
211	0xbdce86f2	-0.100843325
212	0x3ea34a09	0.31892422
213	0x3e277b93	0.16355734
214	0xbe3bf6b8	-0.18355834
215	0x3e9357d7	0.28777954
216	0xbd82246a	-0.06354602
217	0xbd10ad0e	-0.035321288
218	0x3d545512	0.051838942
219	0xbd236499	-0.03989086
220	0xbe1e9ae5	-0.15488775
221	0xbddbc696	-0.10731237
222	0xbd3e6f58	-0.046492904
223	0xbd72d3fa	-0.059284188
224	0x3eb684a0	0.3564806
225	0xbe17e988	-0.14835179
226	0xbe591996	-0.21201167
227	0x3e0c5b68	0.13706744
228	0xbdba2896	-0.090897724
229	0x3e9749d5	0.29548517
230	0x3e10d434	0.14143449
231	0xbe3ca573	-0.18422489
232	0x3e24fa91	0.16111208
233	0x3dd2c41f	0.102913134
234	0xbe2029dd	-0.1564097
235	0x3e7a9467	0.24470674
236	0xbdc323a1	-0.0952828
237	0xbe222a7a	-0.15836516
238	0x3ed97594	0.42472517
239	0xbe13990e	-0.14413854
240	0x3e7c1557	0.24617516
241	0x3e4e17e3	0.201263
242	0x3d3bd6c7	0.045859125
243	0x3ddc0e74	0.10744944
244	0x3deca075	0.11554042
245	0x3e2dce08	0.16973126
246	0xbe864f4c	-0.26232374
247	0x3d5feb20	0.054667592
248	0x3ddec6d0	0.10877764
249	0xbd3604ad	-0.044438053
250	0xbd364012	-0.044494696
251	0xbe35158d	-0.17684002
252	0x3d7f5ab8	0.062342376
253	0xbe376e63	-0.17913203
254	0xbd423cba	-0.047421195
255	0x3e2192c9	0.1577865

fc.2.weight f4 [2, 32]
0	0xbe93f82a	-0.28900272
1	0x3e72205c	0.23645157
2	0x3e61a7b1	0.22036625
3	0xbe54d488	-0.20784199
4	0xbec06547	-0.37577268
5	0x3da76c9b	0.08175012
6	0xbe70ec69	-0.23527683
7	0xbd912c7f	-0.07088565
8	0xbd283638	-0.041067332
9	0xbd047a9d	-0.032343496
10	0xbe716b8e	-0.23576185
11	0x3d9906f8	0.07472032
12	0xbe101d83	-0.14073758
13	0x3e9533d1	0.29141095
14	0x3e80fa79	0.25191095
15	0x3ea201ec	0.3164209
16	0xbe298608	-0.16555035
17	0xbe47cddc	-0.19512123
18	0xbea780f5	-0.32715574
19	0x3e79915a	0.24371853
20	0x3ee5f986	0.44916934
21	0xbe3b1fc2	-0.18273833
22	0x3e9b7455	0.30362192
23	0x3d807a53	0.062733315
24	0x3de5cea0	0.11221051
25	0x3da6ec92	0.08150591
26	0x3d54ee10	0.051984847
27	0xbe3e02cc	-0.18555754
28	0xbec2820c	-0.37989843
29	0xbe2b331e	-0.16718718
30	0x3db75637	0.08951991
31	0xbdda91f8	-0.106723726
32	0xbe216e1f	-0.15764664
33	0x3eeb5001	0.45959476
34	0xbc29b1ad	-0.010357303
35	0x3ddb050a	0.106943205
36	0x3edd4f9f	0.4322481
37	0x3e7fd91a	0.24985161
38	0x3e955a46	0.29170436
39	0x3e534006	0.20629892
40	0x3ea58f8a	0.32336074
41	0x3e77a327	0.24183331
42	0xbd0bd810	-0.0341416
43	0xbd7b028d	-0.06128173
44	0xbe89439f	-0.26809403
45	0x3d04a2b1	0.032381717
46	0x3e0c15f2	0.13680246
47	0x3da5c0fe	0.08093451
48	0xbe30045f	-0.17189167
49	0xbe47f95e	-0.1952872
50	0x3da898f6	0.082323
51	0xbe0f05e5	-0.13967092
52	0x3d0b9a62	0.034082778
53	0xbdb8c65a	-0.090222076
54	0x3e49a02c	0.19690007
55	0xbdb74ff4	-0.08950797
56	0xbe2fb097	-0.17157207
57	0x3e8b6838	0.2722795
58	0xbe8df84c	-0.27728498
59	0xba73170d	-0.0009273149
60	0x3e2469bc	0.1605596
61	0x3e4b6be6	0.19865379
62	0x3e2e3dbc	0.17015737
63	0xbe0f81b0	-0.14014316

ode_net.grad_module.0.weight f4 [32, 37]
0	0xbd939f43	-0.07208111
1	0xbdad98e5	-0.08476428
2	0xbdfbbf30	-0.122923255
3	0xbe490fdd	-0.19634958
4	0xbe16d899	-0.14731063
5	0x3dd740a2	0.105103746
6	0xbd868ef3	-0.06570234
7	0x3e27e090	0.16394258
8	0xbdf2ab92	-0.11849131
9	0x3d55f259	0.052233074
10	0x3e2028e6	0.15640602
11	0xbd8e779c	-0.069564074
12	0xbd8a2804	-0.067459136
13	0x3dc81888	0.09770304
14	0x3df2d04a	0.11856134
15	0xbc5af625	-0.0133643495
16	0x3d939313	0.072057866
17	0xbe005375	-0.12531836
18	0x3d5fa6b2	0.054602332
19	0x3dd0568d	0.10172758
20	0xbd9104c0	-0.07080984
21	0xbc0fda1f	-0.008780031
22	0x3c03de92	0.00804867
23	0xbddb0b37	-0.106954984
24	0x399c99f2	0.00029869337
25	0xbd2451ee	-0.040117197
26	0xbe507551	-0.20357253
27	0x3d9a4d85	0.07534317
28	0x3e19152c	0.14949483
29	0xbc09bd04	-0.008406881
30	0xbd59ac92	-0.05314309
31	0xbe3fc8e2	-0.18728974
32	0xbdf71763	-0.120650075
33	0x3d438fcc	0.047744557
34	0x3df69844	0.12040761
35	0x3de2fecc	0.11083755
36	0x3d58889c	0.052864656
37	0xbe2f71dc	-0.17133278
38	0x3d55686e	0.052101545
39	0x3e263c54	0.16233951
40	0xbd90d88d	-0.07072554
41	0x3d5f7739	0.05455706
42	0xbc99a6ff	-0.018756388
43	0x3e110bf3	0.14164715
44	0x3c1d96f9	0.009618514
45	0xbb969b62	-0.00459616
46	0x3e043cc4	0.12913805
47	0xbdf319ae	-0.118701324
48	0x3d69b633	0.057058524
49	0xbafc57c1	-0.0019252227
50	0xbe1aa350	-0.15101361
51	0x3d95d4f9	0.07316012
52	0xbd81b94a	-0.06334169
53	0x3db867a9	0.090041466
54	0xbcf4050a	-0.029787559
55	0xbd14c9d2	-0.036325283
56	0xbe0275d1	-0.12740256
57	0x3d2988bc	0.041390166
58	0x3e346da7	0.17619954
59	0x3e29d5f1	0.16585518
60	0xbe4abe64	-0.19799191
61	0x3d346490	0.044041216
62	0x3e0ae866	0.13565215
63	0x3bbb17b8	0.0057096146
64	0xbdd8c18f	-0.10583793
65	0x3cb77ded	0.022398913
66	0x3e01a016	0.12658724
67	0xbd243639	-0.040090773
68	0xbd0b903f	-0.03407311
69	0x3e2d6fbf	0.16937159
70	0xbdc6a705	-0.09699825
71	0x3de89a10	0.1135751
72	0x3e2eb083	0.17059521
73	0xbb6c334b	-0.0036041315
74	0xbd96ff00	-0.07372856
75	0x3e11cd0f	0.1423838
76	0x3e0bd683	0.13656048
77	0xbc4703e1	-0.012146921
78	0x3df0371b	0.117292605
79	0xbe0d88dd	-0.1382174
80	0x3c2c7dab	0.010528008
81	0xbde09b35	-0.109671034
82	0x3d9e5a23	0.07732036
83	0xbdaa5589	-0.08317096
84	0x3d7f0cd3	0.06226809
85	0xbe08dadc	-0.13364738
86	0x3dd6a646	0.10480933
87	0xbc266aaa	-0.010157267
88	0x3d58133c	0.05275272
89	0x3e47634a	0.1947147
90	0x3db630ba	0.088960126
91	0xbe35eb99	-0.17765655
92	0x3ba05a1e	0.0048935553
93	0xbe33da6e	-0.17563793
94	0xbe311919	-0.1729473
95	0xbc513146	-0.012768095
96	0xbbfa5a61	-0.0076401685
97	0x3d854080	0.06506443
98	0xbe173079	-0.14764585
99	0xbe6cd21d	-0.23127027
100	0xbcb6d7c7	-0.022319688
101	0xbdc43530	-0.09580457
102	0x3d9b54ca	0.075845316
103	0x3d11ba79	0.035578225
104	0xbe0619ec	-0.13095826
105	0xbdc7cf92	-0.09756388
106	0x3c4a064b	0.012330602
107	0x3e0a39bb	0.13498585
108	0x3ddf1837	0.108932905
109	0xbe8c8e9f	-0.2745256
110	0xbd56eb41	-0.05247045
111	0x3d620b16	0.055186354
112	0x3c0ef946	0.008726424
113	0x3d0430f8	0.032273263
114	0xbd6880ad	-0.05676334
115	0xba9ebe4a	-0.0012111154
116	0x3c92b542	0.017908696
117	0xbce6a0af	-0.028152792
118	0x3d8b51b1	0.06802691
119	0xbc8357e7	-0.016033126
120	0xbd8322a9	-0.06403095
121	0x3e236ac5	0.15958698
122	0xbe19538c	-0.14973277
123	0x3df9a03e	0.12188767
124	0xbe50ad87	-0.20378695
125	0xbdebccb3	-0.11513653
126	0x3d525ad6	0.05135616
127	0xbdb8aad9	-0.090169616
128	0xbd2fc648	-0.042913705
129	0x3e2e2d61	0.17009498
130	0xbdbd5edb	-0.09246608
131	0xbe181923	-0.14853339
132	0xbe027e0b	-0.12743394
133	0x3cee9a40	0.029126287
134	0xbdc5cef3	-0.09658613
135	0xbd7eeb89	-0.062236343
136	0x3cb9a70d	0.022662664
137	0xbd8a36fc	-0.06748769
138	0xbd78190e	-0.06057077
139	0xbe20308d	-0.1564352
140	0xbd09be07	-0.03362849
141	0x3c375ba7	0.011191285
142	0xbc16360f	-0.009168162
143	0xbe20c724	-0.15700966
144	0x3e2af4e1	0.16694976
145	0x3d9202d2	0.07129444
146	0x3e8e532c	0.2779783
147	0xbe8eff8f	-0.2792935
148	0x3e0f279a	0.1397995
149	0x3df98904	0.12184337
150	0x3da2e9ad	0.07954726
151	0x3da94b0b	0.082662664
152	0xbd0bbefa	-0.034117676
153	0xbb9d5a1b	-0.004802001
154	0x3e31e8fd	0.17374034
155	0xbe1e10e0	-0.15436125
156	0x3e07d8c5	0.13266285
157	0x3ccaebc7	0.02477063
158	0x3c81b0d8	0.015831396
159	0x3b475bd1	0.0030419717
160	0xbe397a54	-0.1811307
161	0xbcde456a	-0.027132709
162	0xbe044585	-0.12917145
163	0xbd61d2c1	-0.05513263
164	0x3b92dde4	0.004482018
165	0x3d8cdf28	0.06878501
166	0x3c37e26c	0.011223417
167	0x3c2c34e5	0.010510658
168	0x3c02e07b	0.007988091
169	0x3dc208a5	0.09474305
170	0x3ce2b875	0.027675847
171	0x3d71560f	0.058919962
172	0xbe1c68ef	-0.15274404
173	0xbe3da064	-0.18518215
174	0xbe06e0f9	-0.13171758
175	0x3dba2a7f	0.09090137
176	0x3e1f7a4d	0.15573998
177	0x3ce4f81e	0.027950343
178	0xbda8d2ad	-0.08243308
179	0x3c99caac	0.0187734
180	0x3e20827f	0.1567478
181	0xbd4f7ea3	-0.05065788
182	0xbe3a6144	-0.18201166
183	0x3d4d37b0	0.050101936
184	0xbdb9389f	-0.09044003
185	0x3daf1c7e	0.08550356
186	0xbd80e64e	-0.06293927
187	0x3df08dd0	0.117457986
188	0xbe3bf70d	-0.18355961
189	0x3e37132a	0.17878404
190	0xbe0eca50	-0.13944364
191	0xbdd2dd05	-0.102960624
192	0x3da27922	0.079332605
193	0xbc7499b0	-0.01492922
194	0xbd827d43	-0.06371548
195	0xbd6c0415	-0.05762108
196	0x3df8126f	0.12112891
197	0x3ba05ea7	0.004894096
198	0x3d03c2b8	0.03216812
199	0x3e48f8c5	0.19626148
200	0xbde5ea89	-0.11226375
201	0xbcd4cc9f	-0.025976477
202	0x3e1152cd	0.14191742
203	0xbd801b16	-0.06255166
204	0x3e2378aa	0.15963998
205	0xbddf3009	-0.10897834
206	0x3d305ccd	0.04305725
207	0xbd3cfe15	-0.04614075
208	0xbdbe2196	-0.0928375
209	0x3d8b2d10	0.06795704
210	0xbd2d1b7e	-0.042262547
211	0xbd6ae949	-0.057351384
212	0x3c537d61	0.012908311
213	0x3e32f485	0.1747609
214	0xbde7a66d	-0.1131104
215	0xbca756b2	-0.020427082
216	0x3db75ad6	0.089528725
217	0x3d7a8c11	0.061168734
218	0xbdc94b77	-0.09828847
219	0xbe34cb14	-0.17655593
220	0xbda003e3	-0.07813241
221	0xbe710b57	-0.23539482
222	0xbdf18507	-0.11792951
223	0x3de921a6	0.11383371
224	0xbdcef03c	-0.10104415
225	0x3bb5fa0f	0.005553491
226	0x3c7aa073	0.015297043
227	0xbe096afe	-0.1341972
228	0xbe3a6c12	-0.18205288
229	0x3e2328c0	0.15933514
230	0x3dc3b18b	0.09555348
231	0xbddcf5de	-0.10789083
232	0xbdaa5938	-0.083177984
233	0xbdf5f2c2	-0.12009193
234	0xbd52a9fe	-0.05143165
235	0xbe1b7ba2	-0.15183881
236	0x3e0cc0fe	0.13745496
237	0xbb95c852	-0.004570999
238	0x3e0f041c	0.13966411
239	0x3b460f9d	0.0030221709
240	0x3d9963b1	0.07489718
241	0x3dcf9ee6	0.10137729
242	0x3e31cdde	0.17363688
243	0xbe04dc84	-0.12974745
244	0x3db2ebe0	0.08736396
245	0xbd34aac9	-0.044108186
246	0x3dcf9020	0.101349115
247	0xbdaa7673	-0.08323374
248	0xbd997655	-0.07493273
249	0xbe006465	-0.12538297
250	0x3d929467	0.07157212
251	0xbd7f3192	-0.062303133
252	0xbe0447d6	-0.12918028
253	0xbde3f3e2	-0.11130501
254	0x3e244158	0.16040552
255	0xbe065482	-0.13118175

ode_net.grad_module.0.bias f4 [32]
0	0x3e186bc5	0.14884861
1	0x3d7871d8	0.060655445
2	0x3e000424	0.1250158
3	0xbdf59768	-0.11991769
4	0xbde446ff	-0.11146354
5	0x3dc065a1	0.09394384
6	0x3d8afb20	0.067861795
7	0x3e28ba7e	0.16477391
8	0xbe0d1f1d	-0.137814
9	0x3e016b82	0.12638667
10	0xbd25bd5c	-0.04046379
11	0x3e0b60fc	0.13611215
12	0x3dd8087f	0.105484955
13	0x3d674553	0.056462597
14	0x3dec4962	0.11537434
15	0xbe138d4c	-0.14409369
16	0x3dab2f1b	0.08358594
17	0x39a8eef0	0.0003222148
18	0xbd5a0476	-0.05322691
19	0x3db57442	0.08860065
20	0x3d9a3d5e	0.07531236
21	0x3cdf29ea	0.027241666
22	0x3c0a1536	0.008427909
23	0x3db2d6a3	0.08732345
24	0xbcbdf800	-0.023189545
25	0x3e2e7f99	0.17040862
26	0x3ddf8fb3	0.1091608
27	0xbdea811e	-0.114504084
28	0x3c8b5e04	0.017012604
29	0x3dda65b2	0.10663928
30	0x3dd29587	0.10282426
31	0x3e490afc	0.19633096

ode_net.grad_module.2.weight f4 [32, 32]
0	0x3c1a7ebb	0.009429629
1	0xbc117b71	-0.008879528
2	0x3e00bafa	0.12571326
3	0xbe41be79	-0.18920316
4	0xbe276620	-0.16347551
5	0x3d80cee7	0.062894635
6	0x3d419e76	0.04727026
7	0xbdee7f41	-0.116453655
8	0x3d81c769	0.063368626
9	0x3d86edbe	0.065883145
10	0x3e2c24c3	0.16810898
11	0xbe140757	-0.14455925
12	0x3e3cd680	0.184412
13	0xbacc9adf	-0.001561012
14	0x3e4e28a3	0.20132689
15	0x3e0db4ab	0.1383845
16	0x3d1de63e	0.038549654
17	0x3e339e40	0.17540836
18	0x3ddd538e	0.108069524
19	0xbd2ebe84	-0.04266216
20	0x3de7c26c	0.1131638
21	0x3d700321	0.058596734
22	0xbe114ce7	-0.14189492
23	0x3dc38a05	0.095478095
24	0xbb65242a	-0.0034964182
25	0xbe1b189c	-0.15146106
26	0x3e06fcaf	0.13182329
27	0xbe6f6b8f	-0.23380874
28	0x3d84c645	0.064831294
29	0x3d175f0e	0.036955886
30	0x3c9e3ef6	0.019317131
31	0x3dff7ffc	0.12475583
32	0x3e0fc55e	0.14040133
33	0xbcd3a2d0	-0.025834471
34	0xbd18067d	-0.037115563
35	0x3d069733	0.03285904
36	0xbe1661a3	-0.14685683
37	0xbe289cdb	-0.16466086
38	0xbdef6f89	-0.116911955
39	0x3dab049a	0.08350487
40	0xbe2bd73c	-0.16781324
41	0xbded900e	-0.11599742
42	0xbe298636	-0.16555104
43	0x3dd459d6	0.10368697
44	0x3e17b166	0.14813766
45	0xbdc2f4fb	-0.095193826
46	0x3ca118d5	0.019665161
47	0x3da7cb08	0.08193022
48	0xbd66c793	-0.056342673
49	0x3dfe41f4	0.12414923
50	0x3dc88ff5	0.097930826
51	0xbe0b8875	-0.13626273
52	0xbc11c680	-0.008897424
53	0x3df0f2d8	0.11765069
54	0xbe20c46c	-0.15699929
55	0x3e231cb2	0.15928915
56	0x3d881931	0.0664543
57	0xbd4afb0b	-0.04955582
58	0x3b534f73	0.00322434
59	0x3df9e14e	0.122011766
60	0xbde64360	-0.112433195
61	0xbdd0ef33	-0.10201874
62	0x3da39dc2	0.07989074
63	0xbd0da93a	-0.034585215
64	0x3d872638	0.065990865
65	0xbcc5ac4d	-0.024130011
66	0xbe09cc48	-0.13456833
67	0x3ddcede5	0.10787562
68	0x3d41a1ed	0.047273565
69	0xbe4506a1	-0.1924081
70	0xbdde40bf	-0.10852193
71	0x3d061904	0.0327387
72	0x3b4d3b15	0.0031315733
73	0x3e4762e0	0.19471312
74	0xbe0fcdfb	-0.14043419
75	0xbde87e9a	-0.11352272
76	0xbd80cd66	-0.06289177
77	0x3b97a2de	0.0046275696
78	0x3e53313a	0.20624247
79	0xbdb74193	-0.08948054
80	0xbceaa484	-0.0286429
81	0x3d8865b5	0.06660024
82	0x3e4f79dc	0.2026133
83	0xbd5beadf	-0.053690787
84	0x3cb053ce	0.021524336
85	0xbe064b1b	-0.13114588
86	0xbe2edba6	-0.17075977
87	0xbe387af2	-0.1801565
88	0x3d5f5837	0.054527488
89	0x3e319513	0.17342024
90	0xbd9da0dd	-0.07696698
91	0x3dabed54	0.08394876
92	0x3e30b394	0.17256004
93	0x3dad03cc	0.0844799
94	0x3de7bedd	0.11315701
95	0xbd0bac09	-0.034099612
96	0x3e663177	0.22479807
97	0xbe344743	-0.17605309
98	0xbcc990eb	-0.024605235
99	0xbcaa2f6b	-0.020774564
100	0xbdcf2b69	-0.10115702
101	0x3ddd956d	0.10819516
102	0xbdccd450	-0.10001433
103	0x3e42b525	0.19014414
104	0xbd7aebbf	-0.06125998
105	0x3de1dc9e	0.110284075
106	0xbd669774	-0.05629678
107	0x3e28a400	0.16468811
108	0xbe2112cd	-0.15729828
109	0xbddce314	-0.10785499
110	0xbd69a304	-0.05704023
111	0x3cd79879	0.026317822
112	0x3d78861d	0.060674775
113	0xbe0a6102	-0.13513568
114	0xbddf75ac	-0.10911116
115	0xbd6bde09	-0.057584796
116	0xbc9c109d	-0.01905089
117	0xbe08b38d	-0.13349743
118	0xbbb96c13	-0.0056586354
119	0x3e0e4350	0.13892865
120	0xbc4e466f	-0.012590035
121	0x3ccef3e7	0.025262786
122	0x3d8dc02d	0.0692142
123	0x3e1e7ac6	0.15476522
124	0x3d8e30ad	0.06942878
125	0xbd88b1dc	-0.06674549
126	0xbddda4be	-0.10822438
127	0x3e142a4e	0.14469263
128	0xbcde04db	-0.027101925
129	0xbe0f4598	-0.13991392
130	0x3cd357ff	0.025798796
131	0x3d76fd9d	0.06030046
132	0x3dfdf161	0.12399555
133	0xbba467d8	-0.005017262
134	0xbdb87eb4	-0.09008542
135	0xbe5e2ac8	-0.21696007
136	0xbe714faf	-0.23565553
137	0x3df267a2	0.11836173
138	0xbd7e5d7d	-0.062100876
139	0xbd8b7ed8	-0.06811303
140	0x3da524b0	0.08063638
141	0x3c8892e0	0.016671598
142	0xbd88d359	-0.06680936
143	0x3e085ac4	0.13315874
144	0xbc062032	-0.008186387
145	0x3ddef4a9	0.10886509
146	0x3ce4bc71	0.027921887
147	0x3e32377d	0.1740398
148	0xbe160437	-0.14650045
149	0x3cc508a6	0.024051975
150	0xbe8d1795	-0.27557054
151	0x3d0c9ec8	0.034331113
152	0xbd8bb6a0	-0.06821942
153	0xbb5276e8	-0.003211433
154	0x3dbf3d39	0.09337849
155	0xbde135a9	-0.10996563
156	0x3e3d485c	0.18484634
157	0xbc403bf6	-0.011733046
158	0x3d579cc0	0.052639723
159	0xbd11a14e	-0.035554223
160	0xbe12fd92	-0.14354542
161	0x3e3f9284	0.18708235
162	0x3e02eb7a	0.1278514
163	0x3d952b7f	0.07283687
164	0xbe3b1281	-0.18268777
165	0x3c2d6289	0.010582575
166	0x3e0fbbdf	0.14036511
167	0x3d985b37	0.07439273
168	0xbd2e0cb6	-0.04249259
169	0xbd168167	-0.0367445
170	0xbddad00a	-0.106842116
171	0x3dc86cd4	0.09786382
172	0x3dec186c	0.115280956
173	0xbd008484	-0.031376377
174	0x3e2e2106	0.17004785
175	0x3ca3b991	0.019985946
176	0x3dbb62f6	0.09149735
177	0x3d476ae4	0.048685923
178	0x3d8aa0fc	0.067689866
179	0xbe270822	-0.16311696
180	0xbd1582b7	-0.036501613
181	0x3e11fe48	0.14257157
182	0x3e65aba0	0.22428751
183	0xbdf696a8	-0.12040454
184	0xbd4e8c2b	-0.050426643
185	0xbc8bec0b	-0.017080327
186	0x3d89aaa9	0.06722004
187	0xbcd07c9a	-0.02545004
188	0xbcfc7e3c	-0.030821912
189	0xbce9cadd	-0.028539116
190	0x3df6970f	0.12040531
191	0xbe435eab	-0.19079082
192	0xbd2ece7f	-0.0426774
193	0xbe337245	-0.17524059
194	0x3e01bddc	0.12670082
195	0x3e4f6203	0.20252232
196	0xbde761dd	-0.11297963
197	0x3c939c19	0.01801877
198	0xbc1a55e6	-0.009419894
199	0x3e0a4512	0.1350291
200	0xbe793202	-0.24335483
201	0x3daf1d09	0.0855046
202	0x3ca26025	0.019821236
203	0xbe257751	-0.16158797
204	0xbcd39b6c	-0.025830947
205	0x3e1c09b2	0.15238073
206	0xbe25e54f	-0.16200756
207	0x3b63d7bd	0.0034766041
208	0xbd8ee764	-0.06977728
209	0x3d1d31c1	0.038377527
210	0x3c60f6b9	0.013730698
211	0xbd8862bf	-0.06659459
212	0xba0e2d0a	-0.00054235815
213	0xbce67d1e	-0.028135832
214	0xbe8e8cbb	-0.27841744
215	0x3c609313	0.01370694
216	0x3dbee3ec	0.093208164
217	0x3daa7344	0.083227664
218	0x3db9a8b4	0.09065381
219	0x3e22bd39	0.15892495
220	0x3e1c250d	0.15248509
221	0x3d344f6b	0.04402105
222	0x3e0d726e	0.13813183
223	0x3ca29ce2	0.019850198
224	0xbe59f9fe	-0.2128677
225	0xba6f2f71	-0.0009124196
226	0x3de9d853	0.11418214
227	0xbe45b3df	-0.19306897
228	0x3e1285ca	0.14308849
229	0x3da275a5	0.07932595
230	0xbd2f3976	-0.04277941
231	0xbdc77795	-0.09739605
232	0xbe139fa7	-0.14416371
233	0x3dcca8d3	0.09993138
234	0xbaffad30	-0.001950657
235	0xbded5cb2	-0.11589946
236	0xbdea4b8c	-0.11440191
237	0x3dc22e4f	0.09481489
238	0xbdc4ceb6	-0.096097395
239	0xbd14a3e4	-0.03628911
240	0x3dc472ae	0.09592186
241	0xbe134e70	-0.1438539
242	0xbd9a6ea0	-0.07540631
243	0xbd449ebc	-0.048002943
244	0xbd1055fd	-0.035238255
245	0xbe176c3f	-0.14787386
246	0xbdd7b4e0	-0.10532546
247	0x3d743b67	0.059626963
248	0xbd8f89ea	-0.07008727
249	0xbdc9e0f3	-0.09857359
250	0xbe218e41	-0.15776922
251	0xbd64cc23	-0.055858742
252	0xbe21f2a6	-0.1581522
253	0xbe0bc3d6	-0.13648924
254	0x3daea00e	0.08526622
255	0x3c151177	0.009098402

ode_net.grad_module.2.bias f4 [32]
0	0xbe09b91c	-0.1344952
1	0x3e06c139	0.13159646
2	0x3cf7ef87	0.030265583
3	0x3ca3da20	0.020001471
4	0x3dab0358	0.08350247
5	0x3e525c58	0.20543039
6	0x3dc331a5	0.09530953
7	0xbe4d21e6	-0.20032462
8	0x3c14230d	0.00904156
9	0xbe14afc2	-0.14520171
10	0x3d0b46ef	0.034003194
11	0xbd055f6e	-0.032561712
12	0x3e114693	0.14187078
13	0xbe0e007c	-0.13867372
14	0xbe1f845e	-0.15577838
15	0xbd37d362	-0.044879325
16	0x3de53b0b	0.11192902
17	0x3b693a49	0.003558772
18	0xbe295018	-0.1653446
19	0xbda5d032	-0.08096351
20	0x3cd69cf6	0.026197892
21	0xbdaf571c	-0.08561537
22	0xbcc66a8d	-0.02422073
23	0x3cc0b7dc	0.023525171
24	0xbe5900e3	-0.21191745
25	0x3e0d1443	0.1377726
26	0xbdb0a067	-0.08624344
27	0xbe07046a	-0.13185278
28	0x3d654ace	0.055979542
29	0x3dc8e8a4	0.09809998
30	0xbbcafda2	-0.006194786
31	0x3d22d9e1	0.039758567

exp_avg f4 [32, 7]
0	0x393e7993	0.00018165102
1	0x3b16d395	0.0023014296
2	0xbb467ac4	-0.0030285576
3	0xbaf12943	-0.0018399138
4	0xbb301a79	-0.0026871248
5	0x3903907b	0.00012546957
6	0xbaee90cb	-0.0018201111
7	0x3b8c8647	0.004288468
8	0xbb7c54fe	-0.0038502808
9	0xbb34826c	-0.0027543558
10	0x3ad52b53	0.0016263522
11	0xbbaebc78	-0.005332526
12	0x3c0195fe	0.007909296
13	0x3a776e6f	0.0009438758
14	0xbcb00208	-0.021485344
15	0xbb941d7e	-0.0045201173
16	0x3bad6821	0.005291954
17	0x3a71972a	0.00092159456
18	0xbc924fe2	-0.017860357
19	0x3ba94cb4	0.0051666144
20	0xbbff16c9	-0.0077846986
21	0xbaaa4b2e	-0.0012992376
22	0x3ae1b0da	0.0017218844
23	0x39fdd43a	0.00048414042
24	0xbb89af2e	-0.0042017912
25	0x3a9aa287	0.0011797705
26	0xbad98ba1	-0.0016597399
27	0xbab7dc39	-0.0014027423
28	0x3a85a0a9	0.0010194975
29	0x3b31f510	0.0027154125
30	0x3b253b35	0.0025212292
31	0x3b47bb55	0.0030476649
32	0x3c66c4ff	0.0140850535
33	0xbc301837	-0.010747961
34	0x3ba50f84	0.00503725
35	0xbc45af86	-0.012065774
36	0xb80e4d50	-3.392744e-05
37	0x3aadf847	0.0013272845
38	0x3b3e803d	0.0029068135
39	0xbc98939f	-0.018625079
40	0x3bf7de77	0.0075643617
41	0xbc092cce	-0.008372499
42	0x3bf969c1	0.007611484
43	0xbb8642e2	-0.0040973285
44	0xbb6e9dd9	-0.0036410003
45	0xba550976	-0.0008126715
46	0x3ba092b7	0.0049003023
47	0x3a453b12	0.0007523756
48	0x3b8e3f06	0.004341009
49	0xbc36e9c7	-0.011164135
50	0x39159d4d	0.00014268346
51	0x3b876fc1	0.004133195
52	0x39864940	0.00025613047
53	0xba282220	-0.00064137764
54	0xbb0a4ed5	-0.0021104116
55	0xbb243f2a	-0.0025062063
56	0xbbf49859	-0.0074644503
57	0x39ab7f82	0.00032710662
58	0x3bb45291	0.0055030067
59	0x3b4070c0	0.002936408
60	0xba802b62	-0.0009778554
61	0x3b7dc136	0.00387199
62	0xbafc7982	-0.0019262286
63	0x3a047ace	0.00050537
64	0xbba58b0e	-0.005051977
65	0xbb51292f	-0.0031915416
66	0x3afe5896	0.0019405063
67	0xbb1ed73d	-0.0024237179
68	0x3b4f6fe3	0.0031652383
69	0xba102c52	-0.00054997683
70	0x3a955c52	0.0011395311
71	0x3a5d64a1	0.0008445476
72	0x3ad29078	0.0016064784
73	0x3b4358a8	0.0029807482
74	0xbabcc8e8	-0.0014403136
75	0xbac664c5	-0.0015136233
76	0x3b43b1b2	0.0029860553
77	0x3d21fbfa	0.039546944
78	0x3c2c389d	0.0105115445
79	0xbc2a406f	-0.010391339
80	0xbc2534cb	-0.010083388
81	0x3d3072f2	0.04307837
82	0xbca2340b	-0.019800207
83	0x3c54660c	0.012963783
84	0x3b9d91f0	0.004808657
85	0xbb3fc201	-0.0029259922
86	0xbb194caa	-0.0023391643
87	0x39ad6873	0.00033074952
88	0x3c0b891f	0.008516579
89	0x3b196516	0.00234062
90	0x3bd6ac4b	0.0065513006
91	0x3c0f1cc1	0.008734883
92	0x3c228171	0.009918557
93	0xbbd6720f	-0.0065443586
94	0x3a2d3690	0.0006607557
95	0x3c7e22ca	0.015511224
96	0xbc34dc13	-0.011038798
97	0xbb49cccd	-0.0030792237
98	0xbc179472	-0.009251701
99	0x3b4cb85c	0.0031237816
100	0x3aa6f803	0.0012738708
101	0x3a89e1d5	0.0010519574
102	0xbbea345f	-0.0071473564
103	0xbb3a1ce1	-0.002839856
104	0xbb956ce9	-0.0045601022
105	0x3d0f13ee	0.034931116
106	0x3c1fddb2	0.009757446
107	0xbc5595b0	-0.013036177
108	0xbbb4b1fb	-0.005514381
109	0x3d1347c9	0.03595713
110	0xbc523d0f	-0.01283194
111	0x3c57180d	0.013128293
112	0x3c1c05e6	0.009522891
113	0x3ae29e26	0.0017289564
114	0xba4fb150	-0.0007922845
115	0xbb5de2d6	-0.0033857129
116	0x3c1390b0	0.009006664
117	0xbb804393	-0.0039143055
118	0x3b818fc6	0.0039539067
119	0x3c013b3a	0.007887656
120	0xbba4fd3e	-0.0050350716
121	0xbaa99698	-0.0012938557
122	0xbb1ee0bb	-0.0024242837
123	0x3befdc7d	0.0073199854
124	0x3b9604e6	0.0045782207
125	0x3bb0f001	0.0053997044
126	0x3cfccae9	0.030858474
127	0x3b5a8f1e	0.0033349465
128	0xbc23c108	-0.009994753
129	0xbbbd782d	-0.0057821483
130	0x3cdef9d1	0.027218731
131	0xbbbdf965	-0.0057975524
132	0x3c2f9e79	0.010718935
133	0xbc178c97	-0.009249828
134	0xbabf1630	-0.0014578756
135	0x3967397a	0.00022051288
136	0x3b497484	0.0030739615
137	0xbc35724b	-0.011074613
138	0x3bb90647	0.0056465003
139	0xbc0eb0d5	-0.008709152
140	0x3c9c39ef	0.019070594
141	0xb6b25b5f	-5.3154504e-06
142	0xbb8de61d	-0.00433041
143	0xb9e08aed	-0.00042828117
144	0x3c661257	0.0140424585
145	0x3a887a2f	0.001041239
146	0x3b86d319	0.0041145203
147	0xbb1b1358	-0.0023662653
148	0xbb43bf09	-0.0029868504
149	0x38c14670	9.216077e-05
150	0xba352719	-0.0006910428
151	0x3b4adaca	0.0030953162
152	0x3aba698f	0.0014222133
153	0x3b9e28f7	0.0048266607
154	0xbb83f5fd	-0.004027127
155	0xba72185c	-0.0009235197
156	0x3a42be73	0.0007428892
157	0xba320d9f	-0.0006792191
158	0xbba419c0	-0.0050079525
159	0x3b46dbeb	0.0030343484
160	0xbb01b8f6	-0.0019794083
161	0xbb23a9e0	-0.002497308
162	0x3bc861e3	0.0061151846
163	0xbb5f451e	-0.0034068297
164	0xbbcd84a7	-0.006271917
165	0x3b624f8d	0.003453228
166	0xbc1542d7	-0.009110174
167	0xbbd979fc	-0.006636856
168	0xbb70a749	-0.0036720803
169	0xb995d897	-0.00028580867
170	0x3b37dedd	0.002805642
171	0x3acc7f1b	0.0015601845
172	0x3b03cac3	0.002010987
173	0xbaa7ab87	-0.0012792208
174	0x3988f9eb	0.00026126145
175	0xbbb023f7	-0.005375381
176	0xbb9e17a3	-0.004824595
177	0xbaece1b3	-0.0018072635
178	0xbb3352ed	-0.002736266
179	0xbc0eda63	-0.00871906
180	0x3b83b561	0.004019425
181	0x3aac4b62	0.0013145024
182	0xbca10dea	-0.019659955
183	0xbbb3653d	-0.005474715
184	0x3b9fc37d	0.004875599
185	0x3ab5c441	0.0013867692
186	0xbc37cb35	-0.011217882
187	0x3b2829d4	0.0025659697
188	0xbb65d31c	-0.0035068458
189	0xbc0074b5	-0.007840325
190	0xbbad5c05	-0.0052905106
191	0x3b487b3e	0.0030591036
192	0x3a27a5b1	0.00063952344
193	0xbc438de7	-0.011935688
194	0x3bf745ae	0.0075461483
195	0xbb826166	-0.003978896
196	0x3cde5e16	0.027144473
197	0x3c01f7d4	0.007932622
198	0xbbd58492	-0.0065160478
199	0xbb57286d	-0.0032830492
200	0x3cc6309f	0.024193106
201	0xbc304636	-0.010758927
202	0x3bff4558	0.007790249
203	0xbc2f43b2	-0.010697292
204	0x3b8776c3	0.0041340305
205	0x3b952dc6	0.0045525758
206	0xbae877d1	-0.0017735903
207	0x3a1de68a	0.00060234277
208	0xbbe02cd2	-0.0068412805
209	0xb9a3e901	-0.00031263384
210	0x3b8b0bb6	0.0042433394
211	0x3901b5f6	0.00012370184
212	0xbaebb4ca	-0.0017982956
213	0xbb6204de	-0.0034487764
214	0x3b68a09f	0.0035496128
215	0xbba00682	-0.0048835883
216	0x3b4de342	0.0031415974
217	0xbc424846	-0.011858052
218	0x3b71ca87	0.0036894397
219	0x3bb07d6c	0.005386045
220	0x3a5f1563	0.0008509962
221	0xbc16685f	-0.009180157
222	0xbafd9e1e	-0.0019349491
223	0xbb8aa616	-0.004231225
