ckpt/rnn_ode_3_4_h32/best.pth (torch_old, 61268 bytes, 30 tensors)

rnn.weight_ih_l0 f4 [32, 7]
0	0xbdadf9ea	-0.08494933
1	0x3ac1f922	0.0014798979
2	0x3dcc7f6c	0.09985241
3	0xbd9d29ee	-0.07674013
4	0xbd7b4221	-0.061342362
5	0x3e3b9029	0.18316711
6	0xbe3a4c01	-0.18193056
7	0xbd1e3a7a	-0.038629986
8	0x3d5eb97f	0.05437612
9	0xbe4c1277	-0.19928919
10	0x3cd0d301	0.02549124
11	0xbda521b6	-0.080630705
12	0xbd66da1c	-0.05636035
13	0xbd7847b6	-0.060615264
14	0xbdc3f982	-0.09569074
15	0x3d73d698	0.059530824
16	0xbd9b0dc2	-0.075709835
17	0x3e01c47c	0.12672609
18	0x3ca6cd82	0.020361666
19	0x3e638516	0.22218737
20	0xbe07c3fe	-0.13258359
21	0x3d950dfd	0.07278059
22	0xbd8273d6	-0.0636975
23	0x3e057726	0.13033733
24	0x3d700a50	0.058603585
25	0xbe0b7cbf	-0.13621806
26	0x3deabc80	0.11461735
27	0xbd0d9b84	-0.03457214
28	0xbd066382	-0.03280974
29	0xbd1f7495	-0.03892954
30	0xbdb1fec5	-0.086911716
31	0x3cf9dd7b	0.030501118
32	0xbcea0fe4	-0.02857203
33	0xbd929830	-0.07157934
34	0x3e2cbad8	0.1686815
35	0x3ce23fd2	0.027618323
36	0xbe2d1d34	-0.16905671
37	0xbe081cfc	-0.13292307
38	0x3e1385ec	0.14406556
39	0xbd23dc09	-0.040004764
40	0x3e48a8f8	0.19595706
41	0xbdf98c8c	-0.1218501
42	0x3d165827	0.036705162
43	0x3cd0d077	0.025490029
44	0x3d3f0425	0.046634812
45	0x3dd54258	0.10413045
46	0x3b341d8a	0.0027483427
47	0xbda5f5ed	-0.08103547
48	0xbabf1214	-0.0014577531
49	0x3e0aa2ef	0.13538717
50	0x3cd18a5d	0.025578672
51	0x3cebff7d	0.02880835
52	0x3c6bb9eb	0.014387588
53	0x3dc2d535	0.09513322
54	0x3e25699b	0.16153567
55	0x3e2ef271	0.17084672
56	0x3da10238	0.07861751
57	0xbc3b28b3	-0.011423278
58	0x3da0d900	0.078538895
59	0x3cef9321	0.029244961
60	0x3da95c2e	0.08269535
61	0x3c05ca3c	0.008165892
62	0xbc50b663	-0.012738797
63	0x3e073420	0.13203478
64	0x3e6130a8	0.21991217
65	0xbe08a216	-0.13343081
66	0x3da47a87	0.08031183
67	0x3dc8e1d6	0.098087
68	0xbdc17cc0	-0.09447622
69	0x3dff59c9	0.12468297
70	0x3d3f3299	0.046679113
71	0xbdd722e1	-0.105046995
72	0xbd9a40fd	-0.07531927
73	0x3e1e7939	0.1547593
74	0x3d2ea141	0.042634252
75	0x3c5efacb	0.013609598
76	0x3d91f4cc	0.071267694
77	0x3cc9cfa7	0.02463515
78	0xbd37ab39	-0.044841025
79	0xbdc2b77c	-0.09507653
80	0x3de4288e	0.11140548
81	0xbc0c2667	-0.008554078
82	0xbe12e381	-0.14344598
83	0x3de4d241	0.11172915
84	0xbd591939	-0.05300257
85	0xbe0c6599	-0.13710631
86	0xbda4cd89	-0.08047015
87	0xbcc35502	-0.023844246
88	0xbe177899	-0.14792098
89	0xbdb57ea8	-0.088620484
90	0x3e644fe3	0.222961
91	0x3d176739	0.036963675
92	0x3dcff2df	0.10153746
93	0xbd8ad4a6	-0.06778841
94	0xbe3c74e1	-0.18403961
95	0x3dd9b5da	0.106303886
96	0xbd8df258	-0.06930989
97	0xbe774b50	-0.24149823
98	0xbd6dd69f	-0.058066007
99	0x3c665b9f	0.01405993
100	0xbd83e17b	-0.06439491
101	0xb981aaee	-0.0002473215
102	0x3cfc55bf	0.030802606
103	0xbd444756	-0.047919594
104	0x3e476608	0.19472516
105	0x3e0c0ab4	0.13675958
106	0xbe22cb8e	-0.15897962
107	0x3daeb3c1	0.08530379
108	0x3dd0a29f	0.101872675
109	0xbde0c19f	-0.1097443
110	0xbd7de530	-0.06198615
111	0xbda7b41d	-0.08188651
112	0x3d5a7267	0.05333176
113	0xbdf94ec4	-0.121732265
114	0x3db87152	0.09005989
115	0x3dc25157	0.094881706
116	0x3e17c78d	0.14822216
117	0xbe49630d	-0.19666691
118	0x3c50654f	0.012719466
119	0x3e1bb57d	0.15205951
120	0xbc3ef9bf	-0.011656224
121	0xbbfd3a56	-0.0077279015
122	0xbd658a8f	-0.056040343
123	0x3e02d9ae	0.1277835
124	0xbd4a3582	-0.049367435
125	0x3d92723d	0.071506955
126	0x3de6194a	0.11235292
127	0x3d860d3c	0.06545493
128	0xbe07117e	-0.13190266
129	0x3e00d608	0.12581646
130	0x3e05ca1f	0.13065384
131	0xbc8ebc3b	-0.01742374
132	0xbddb4b8c	-0.10707769
133	0x3e138318	0.14405477
134	0xbe0b4416	-0.13600191
135	0x3da1ec63	0.07906415
136	0xbda18a1d	-0.07887671
137	0xbd8e0bc8	-0.06935841
138	0x3d67e8d0	0.05661851
139	0xbe569444	-0.20954996
140	0x3d6a2b01	0.057169918
141	0x3db30e47	0.087429576
142	0xbd34a4e0	-0.04410255
143	0x3e0a6b69	0.13517536
144	0x3dbe595c	0.09294388
145	0xbe396621	-0.18105365
146	0xbbb4f10b	-0.0055218986
147	0xbd2fda1b	-0.04293261
148	0x3df1bd93	0.118037365
149	0x3ddb3c4c	0.1070486
150	0x3c6952c9	0.014240929
151	0xbd9ebea9	-0.07751209
152	0x3ddcda07	0.10783773
153	0x3d98bad4	0.0745751
154	0xbd8137da	-0.06309481
155	0xbc81c3bf	-0.01584041
156	0x3d3d818f	0.046266135
157	0x3dbdcd6b	0.09267696
158	0x3d0c3d04	0.034237877
159	0x3d4b474b	0.049628537
160	0xbe1523d3	-0.14564447
161	0xbe0d2fe6	-0.13787803
162	0xbd843069	-0.06454546
163	0x3e1ba2ab	0.15198772
164	0x3dbc81ea	0.09204467
165	0x3a3d9e07	0.0007233326
166	0xbd4ec99d	-0.050485242
167	0x3df79082	0.120881096
168	0x3deb9211	0.11502469
169	0x3cc61f8b	0.024184963
170	0xbda814af	-0.0820707
171	0xbcacfb68	-0.021115974
172	0x3d041994	0.032250956
173	0xbda6255a	-0.08112593
174	0x3d5725c6	0.052526258
175	0x3ca3e4bc	0.02000653
176	0x3cfeabc5	0.031087765
177	0x3d30331c	0.04301749
178	0x3da1cdda	0.07900591
179	0x3d48e6ed	0.049048353
180	0x3e1008eb	0.14065902
181	0xbd0b8338	-0.034060687
182	0x3e21ee2c	0.15813512
183	0xbc1fc23e	-0.009750901
184	0x3df7e2eb	0.12103828
185	0x3cd2afc2	0.025718573
186	0x3d39d95a	0.0453733
187	0x3e3e3074	0.18573171
188	0x3e73ce27	0.2380911
189	0x3e070d6f	0.13188718
190	0xbe1b2732	-0.1515167
191	0x3cbe50a3	0.02323181
192	0xbdbb8422	-0.09156062
193	0x3dd18836	0.10231058
194	0xbd508128	-0.050904423
195	0xbe3cfa80	-0.18454933
196	0xbe230b17	-0.15922199
197	0x3d695f0c	0.05697541
198	0x3a3e770c	0.0007265664
199	0xbdc18753	-0.09449639
200	0x3a87b51a	0.0010353655
201	0xbc81638d	-0.01579454
202	0xbdb96b03	-0.09053614
203	0x3cab8e36	0.020941835
204	0x3d5a3d95	0.053281385
205	0x3dbd8b6a	0.09255107
206	0x3e3171e4	0.17328602
207	0xbd75703d	-0.059921492
208	0x3e486a4f	0.19571804
209	0x3d8e3779	0.06944174
210	0x3e156844	0.14590555
211	0xbd3a9158	-0.045548767
212	0x3de658bc	0.112473935
213	0xbd2de6ec	-0.042456552
214	0xbd7ee93b	-0.062234145
215	0xbb37cc8f	-0.002804551
216	0xbe442f1e	-0.19158599
217	0xbdc668b5	-0.0968794
218	0xbdfb84c9	-0.12281186
219	0x3e268659	0.16262187
220	0x3cbfefbb	0.023429742
221	0x3d79b6e5	0.060965437
222	0x3dfc29f6	0.12312691
223	0xbe21c351	-0.15797164

rnn.weight_hh_l0 f4 [32, 32]
0	0xbdea7848	-0.11448723
1	0x3e21a2f1	0.15784813
2	0xbe358256	-0.177255
3	0x3ddad8ea	0.10685904
4	0xbdd2ccd5	-0.10292975
5	0x3e0c237a	0.13685408
6	0xbe006711	-0.12539317
7	0x3dcb6891	0.09932054
8	0xbd465912	-0.048424788
9	0x3dece020	0.11566186
10	0x3cce92e4	0.025216527
11	0x3d44f067	0.048080828
12	0x3e008483	0.12550549
13	0xbdd97948	-0.10618836
14	0xbd1babb3	-0.038005542
15	0xbc6e8626	-0.014558351
16	0xbdbdf850	-0.092758775
17	0xbd06926b	-0.03285448
18	0x3ceb64fa	0.028734673
19	0xbd74f54b	-0.059804242
20	0xbb77ac64	-0.0037791962
21	0xbe18dab2	-0.14927176
22	0x3e13a42e	0.14418098
23	0xbc43bd6f	-0.01194702
24	0xbe4a4012	-0.19751003
25	0x3e1a8792	0.15090778
26	0x3d594e2f	0.053053077
27	0x3d9cb80a	0.0765229
28	0x3e2f1e3d	0.17101379
29	0x3dc7f577	0.097636156
30	0x3c4fe213	0.012688178
31	0xbe1ef2bc	-0.15522283
32	0xbcad2974	-0.02113793
33	0xbd98c5d9	-0.074596114
34	0xbd607035	-0.05479451
35	0xbe3a9751	-0.18221785
36	0xbd4ee7ab	-0.050513905
37	0x3de68259	0.112553306
38	0xbcaf4ba9	-0.021398382
39	0xbe4558b5	-0.1927212
40	0xbdd90994	-0.1059753
41	0x3e58e102	0.21179584
42	0xbd6bcc01	-0.0575676
43	0x3c559624	0.013036285
44	0x3d937c43	0.072014354
45	0x3e87f738	0.265558
46	0xbda3cefa	-0.07998462
47	0x3ca5b93b	0.020229926
48	0x3e116fbb	0.14202778
49	0x3d226672	0.03964848
50	0x3cfe080a	0.031009693
51	0x3e293e2f	0.16527627
52	0x3e289df2	0.16466501
53	0xbda26282	-0.07928945
54	0xbdb6dc43	-0.0892873
55	0xbe869071	-0.26282075
56	0xbe13712c	-0.1439864
57	0x3e30acef	0.17253469
58	0xbdcedde9	-0.1010092
59	0x3e074d20	0.13213015
60	0x3d25b798	0.04045829
61	0xbe1cc33f	-0.15308855
62	0x3dd63543	0.104593776
63	0x3dafe161	0.085879095
64	0xbd845c83	-0.06462958
65	0x3d66286a	0.056190886
66	0x3c22ebb3	0.00994389
67	0x3e1244d8	0.14284074
68	0x3e198c64	0.14994961
69	0xbdba5667	-0.09098511
70	0x3e117276	0.1420382
71	0xbd4fb47a	-0.050709225
72	0xbdb88d82	-0.090113655
73	0x3da438b4	0.08018628
74	0xbd065aaa	-0.032801308
75	0xbdbc5845	-0.091965236
76	0x3de9731b	0.11398908
77	0x3da6a8c0	0.08137655
78	0x3db565af	0.08857285
79	0xbe1d199e	-0.15341803
80	0xbe03e1f3	-0.12879162
81	0x3c7f4b2c	0.015581887
82	0xbe3ebd9c	-0.18627018
83	0xbdfc299f	-0.12312626
84	0xbcd135f4	-0.025538422
85	0x3d223d53	0.039609265
86	0xbda84974	-0.08217135
87	0x3e3e6436	0.18592915
88	0xba887ff5	-0.0010414111
89	0xbd2bafda	-0.041915752
90	0xbe0264e1	-0.12733795
91	0x3e082563	0.13295512
92	0xbdaa6a48	-0.08321053
93	0x3dd09002	0.10183717
94	0x3e32da9e	0.17466208
95	0xbd2085ad	-0.039189983
96	0x3d82a815	0.06379715
97	0xbe878545	-0.26468864
98	0xbde68fbc	-0.11257884
99	0x3cd1b5c0	0.02559936
100	0xbe212f35	-0.15740664
101	0xbe65086a	-0.22366491
102	0x3dd36b31	0.103231795
103	0x3e249763	0.16073374
104	0x3e33ba26	0.17551479
105	0x3dbf37b6	0.09336798
106	0xbd905322	-0.07047106
107	0xbdd4b64d	-0.103863336
108	0xbdbc80ca	-0.09204252
109	0xbddf4946	-0.10902648
110	0x3dc0c9ea	0.09413512
111	0xbdd847b7	-0.105605535
112	0xbd2d0a84	-0.042246357
113	0xbc853439	-0.016260253
114	0xbdc1e4c9	-0.094674654
115	0xbe757241	-0.23969366
116	0x3d76093d	0.060067404
117	0xbb7f57c7	-0.0038962231
118	0xbe875618	-0.26432872
119	0x3dc3a104	0.09552196
120	0x3d38afcc	0.045089528
121	0xbdfa64ac	-0.12226233
122	0x3dab9358	0.08377713
123	0x3d799e81	0.060942177
124	0xbe379468	-0.17927706
125	0x3e6d4977	0.23172556
126	0xbe1b2090	-0.1514914
127	0x3e620817	0.22073399
128	0xbd6f3492	-0.058399744
129	0x3992ac1b	0.0002797552
130	0xbdb1f4e5	-0.08689288
131	0xbd9a851c	-0.0754492
132	0x3da6c5b4	0.08143178
133	0xbe661faa	-0.22473016
134	0xbdb6a60f	-0.08918392
135	0x3deaeed2	0.114713326
136	0x3e0573ee	0.13032505
137	0xbe102428	-0.14076293
138	0x3dd7baba	0.10533662
139	0x3e2af740	0.16695881
140	0xbd9e5bff	-0.077323906
141	0x3e1e4ac3	0.15458207
142	0xbdce9561	-0.100870855
143	0x3d93f500	0.072244644
144	0xbdd9d28e	-0.10635863
145	0xbd90a9d1	-0.0706364
146	0xbd74fac1	-0.05980945
147	0xbdf71b27	-0.12065726
148	0x3d980d9b	0.0742447
149	0xbe28c0f6	-0.16479859
150	0x3bb70937	0.0055858153
151	0xbdce4208	-0.10071188
152	0x3e0a8443	0.13527016
153	0xbd7345a0	-0.05939257
154	0x3e1cdbfc	0.15318292
155	0xbe2a5ad3	-0.16636209
156	0xbdadc4a1	-0.084847696
157	0x3e08e026	0.13366756
158	0xbd850cfe	-0.06496619
159	0xbde66794	-0.11250225
160	0x3e353b4e	0.17698404
161	0x3e088a10	0.13333917
162	0xbd898ab2	-0.06715907
163	0x3e16ce27	0.14727078
164	0xbe2e645c	-0.17030472
165	0x3deeb7bb	0.116561376
166	0xbe1c49be	-0.15262505
167	0xbd84790f	-0.064684026
168	0xbe15afd2	-0.14617851
169	0x3d1f90d4	0.03895648
170	0x3cc3288e	0.023823049
171	0xbe0f6580	-0.14003563
172	0xbe18b067	-0.14911042
173	0xbe560bf3	-0.20902996
174	0x3d3bbbc0	0.04583335
175	0x3d15474a	0.03644494
176	0xbd7764e8	-0.060398966
177	0x3e063916	0.13107714
178	0xbdd67fc5	-0.10473589
179	0xbe281228	-0.16413176
180	0x3dc1fb47	0.094717555
181	0xbdd9673a	-0.10615392
182	0xbe00434a	-0.12525669
183	0xbe277c1a	-0.16355935
184	0xbde4724a	-0.111546114
185	0xbe0142f5	-0.12623198
186	0x3d03ae88	0.032148868
187	0xbdab397b	-0.08360573
188	0xbd0068a3	-0.03134979
189	0xbe0faaf9	-0.14030065
190	0xbe0315fc	-0.12801355
191	0xbe0fefbe	-0.14056298
192	0x3d9ad666	0.075604245
193	0xbd958005	-0.072998084
194	0xbd9bd3e6	-0.07608776
195	0x3e433bb3	0.19065742
196	0xbe2ec8be	-0.17068765
197	0x3db3b8bf	0.08775472
198	0x3d932700	0.07185173
199	0xbd9f0cf0	-0.077661395
200	0x3dbf8fb9	0.09353585
201	0x3d7b0fcf	0.061294373
202	0x3dc85fee	0.09783922
203	0xbdaaabdb	-0.0833356
204	0xbd9944cf	-0.07483827
205	0xbd314c5e	-0.04328572
206	0xbe1831d8	-0.14862764
207	0x3cf7a54e	0.03023019
208	0xbdfa8c82	-0.12233831
209	0xbe359c73	-0.17735462
210	0xbe004db9	-0.12529649
211	0xbdc7194c	-0.09721622
212	0x3da27a11	0.079334386
213	0x3ba083c9	0.0048985225
214	0x3e17b578	0.14815319
215	0x3d1a406d	0.037659097
216	0xbe628680	-0.2212162
217	0x3d296da2	0.04136432
218	0x3cd03462	0.025415603
219	0xbd82c27b	-0.063847505
220	0x3dd60179	0.104495
221	0xbe2fe5ef	-0.17177556
222	0xbce3f6ca	-0.02782764
223	0xba92b191	-0.0011191835
224	0xbe3df838	-0.18551719
225	0x3b82dea4	0.003993826
226	0x3e265466	0.16243133
227	0xbdad62ff	-0.08466148
228	0x3e5bb467	0.21455537
229	0xbdcb306e	-0.099213466
230	0x3d09e81c	0.033668622
231	0xbe096f88	-0.13421452
232	0x3da3a83e	0.07991074
233	0xbe40d865	-0.18832548
234	0x3e56c156	0.2097219
235	0x3cbc9fb7	0.023025377
236	0x3e2210a0	0.15826654
237	0x3e4bfb3f	0.19920062
238	0xbe543597	-0.20723568
239	0xbdd7f08a	-0.10543926
240	0x3e3989fb	0.18119042
241	0xbe10efe3	-0.1415401
242	0xbe23455d	-0.15944429
243	0x3d432962	0.047646888
244	0xbdcacae1	-0.09901977
245	0x3e09cb43	0.13456444
246	0x3e6850da	0.22687092
247	0x3dc399db	0.0955083
248	0xbdce8ed7	-0.10085838
249	0xbda52671	-0.08063973
250	0x3d81bc87	0.06334787
251	0x3e03c505	0.12868126
252	0xbddc2a7e	-0.10750292
253	0x3d856a42	0.06514408
254	0xbd55c78b	-0.052192252
255	0xbe18c81d	-0.14920087

rnn.bias_ih_l0 f4 [32]
0	0x3d45349a	0.048145868
1	0xbd9655ed	-0.07340608
2	0x3ddfdacf	0.10930406
3	0x3d57c027	0.052673485
4	0xbc21921a	-0.0098614935
5	0x3bd12cbd	0.006383507
6	0xb829d485	-4.0490664e-05
7	0xbdc242d7	-0.09485405
8	0x3db1b4c1	0.08677054
9	0x3b34c979	0.0027585907
10	0x3e1b5961	0.15170814
11	0x3dcadaaf	0.09904992
12	0xbe160b63	-0.14652781
13	0x3dc38862	0.09547497
14	0xbc3ebe3f	-0.011642038
15	0x3e29bba1	0.16575481
16	0xbddfe2dd	-0.109319426
17	0x3ddd9d15	0.10820977
18	0xbca4d0c5	-0.02011908
19	0x3e26eaf4	0.16300565
20	0xbc254dad	-0.01008932
21	0xbe2a7ac7	-0.16648398
22	0x3c0f6d65	0.008754109
23	0xbd36b606	-0.044607185
24	0x3bbb5149	0.005716477
25	0xbcef209f	-0.02919036
26	0x3dde97fc	0.108688325
27	0xbe198afe	-0.14994428
28	0xbd0eca5d	-0.034860957
29	0xbb45fc32	-0.0030210135
30	0x3e204cd6	0.1565431
31	0x3d0e64d4	0.034764126

rnn.bias_hh_l0 f4 [32]
0	0xbe095fb4	-0.13415414
1	0x3e038a49	0.1284572
2	0xbd220257	-0.039553013
3	0xbe2fdcae	-0.17174026
4	0x3d234dc0	0.03986907
5	0xbd71e612	-0.059057303
6	0xbd9afbee	-0.07567583
7	0xbd2fef00	-0.042952538
8	0xbe0d6f9c	-0.13812107
9	0x3dcd224b	0.100163065
10	0x3e77b688	0.24190724
11	0xbe0166e7	-0.1263691
12	0x3df856b3	0.121259116
13	0x3c41dc0f	0.011832251
14	0xbde70b94	-0.11281505
15	0xbd777b84	-0.060420528
16	0x3e3264e8	0.17421305
17	0x3e2b95f9	0.16756429
18	0xbe17ccd8	-0.14824235
19	0xbdb06795	-0.08613507
20	0x3df1f86a	0.11814959
21	0x3dfb8de3	0.12282922
22	0xbd69bd21	-0.057065133
23	0xbe05c4a7	-0.13063298
24	0x3dbd23be	0.09235333
25	0x3e200800	0.15628052
26	0xbcce168d	-0.025157237
27	0x3da73921	0.08165193
28	0xbdc27745	-0.09495405
29	0x3e0d9a1e	0.13828322
30	0xb9c81af7	-0.00038167063
31	0xbda64ab7	-0.081197195

fc.0.weight f4 [32, 32]
0	0xbe8690d1	-0.2628236
1	0x3e27eb3d	0.1639833
2	0xbe17dd57	-0.14830528
3	0xbeb8a498	-0.36063075
4	0x3e6a54fe	0.22883984
5	0x3d836d48	0.06417328
6	0x3e122325	0.14271219
7	0xbdbbb1b8	-0.091647565
8	0xbb16c5d7	-0.0023006105
9	0x3d4b5282	0.049639232
10	0x3d46e602	0.048559196
11	0x3e022ba2	0.12711957
12	0xbd26323d	-0.040575255
13	0xbddb7748	-0.107161105
14	0x3e85649e	0.26053327
15	0xbd757cfd	-0.05993365
16	0x3e50c018	0.20385778
17	0xbe0fdf03	-0.14049916
18	0xbe2c5cc7	-0.16832267
19	0xbd6893f5	-0.056781728
20	0x3e740baa	0.23832574
21	0xbdee69ef	-0.11641299
22	0xbe423a82	-0.18967631
23	0xbe0c8618	-0.13723028
24	0xbe292f97	-0.1652206
25	0x3f04c954	0.518697
26	0x3e57e2d4	0.21082622
27	0x3e755b4b	0.23960607
28	0xbebfaa23	-0.37434492
29	0xbdc7e11f	-0.09759735
30	0x3e58c764	0.21169811
31	0x3e1de3b3	0.15418892
32	0xbe00c520	-0.12575197
33	0xbe4421f6	-0.1915358
34	0xbe412785	-0.18862732
35	0xbe086778	-0.1332072
36	0x3c37b677	0.011212937
37	0x3ce6056d	0.02807876
38	0x3e23429b	0.15943377
39	0xbe3b3d42	-0.18285087
40	0x3ee1804a	0.4404319
41	0xbe294d8e	-0.16533491
42	0xbd2eb8f8	-0.04265687
43	0xbb9624d4	-0.004582027
44	0xbd53f8e6	-0.05175104
45	0x3e14428b	0.14478509
46	0x3d23a777	0.03995463
47	0x3e4fd33c	0.20295423
48	0xbe1de264	-0.15418392
49	0xbd265302	-0.040606506
50	0x3ed973bb	0.42471108
51	0xbdd01185	-0.101595916
52	0xbdce1c19	-0.10063953
53	0x3e7a8507	0.24464808
54	0x3c93d689	0.018046634
55	0x3b99b358	0.004690569
56	0xbe2c8033	-0.16845779
57	0xbdac6086	-0.08416848
58	0x3e649eb1	0.22326161
59	0xbe01b4ff	-0.12666701
60	0xbe59fed5	-0.21288617
61	0xbdfb3423	-0.12265804
62	0xbe225a0a	-0.1585466
63	0xbde996b4	-0.114056975
64	0xbd2e603e	-0.042572252
65	0x3be2a373	0.0069164573
66	0x3e10c9f9	0.14139546
67	0x3ea57dfd	0.32322684
68	0xbcff2510	-0.031145602
69	0x3d181c24	0.037136212
70	0xbd2946ff	-0.041327473
71	0x3e1721e4	0.14759022
72	0x3e15da70	0.14634109
73	0x3c5e0c3b	0.013552721
74	0x3e5611ef	0.20905279
75	0xbe3d2b3a	-0.18473521
76	0xbf033b43	-0.512623
77	0x3e000db6	0.1250523
78	0xbdc05294	-0.093907505
79	0xbe526e65	-0.20549925
80	0x3da3fb6c	0.08006939
81	0x3e0fa007	0.1402589
82	0x3e070080	0.13183784
83	0xbe088eaa	-0.13335672
84	0xbd9fa480	-0.07795048
85	0x3dfb97ec	0.12284836
86	0xbde33f9e	-0.110961184
87	0xbd1b1dd2	-0.037870236
88	0xbe102809	-0.14077772
89	0x3ed91eab	0.4240621
90	0xbe855982	-0.26044852
91	0x3d862307	0.0654965
92	0xbe1993b9	-0.14997758
93	0x3eb47f37	0.35253307
94	0xbdc5356a	-0.096293285
95	0xbe49ce89	-0.19707693
96	0x3ecb6a61	0.39729598
97	0x3cdabc3a	0.026701082
98	0xbe9c44cc	-0.30521238
99	0xbe0579e8	-0.13034785
100	0x3ef49f4d	0.47777787
101	0xbdd455cf	-0.10367929
102	0xbe7045b9	-0.23464097
103	0x3ea63497	0.32461998
104	0x3dc70bb5	0.0971903
105	0x3d5e7f5d	0.05432068
106	0xbd03c901	-0.032174114
107	0x3adc933a	0.0016828545
108	0x3d83c5fa	0.064342454
109	0xbe339869	-0.17538609
110	0x3d5782a9	0.05261484
111	0xbe0d3f1d	-0.13793607
112	0x3e4718fb	0.19443123
113	0x3df4ea4e	0.119587526
114	0x3deca26c	0.11554417
115	0xbe0a380c	-0.13497943
116	0x3c819b4c	0.015821122
117	0xbd9adaf2	-0.07561292
118	0x3e495aed	0.19663592
119	0xbe8b8bc5	-0.27255073
120	0x3d135074	0.035965398
121	0xbe5d59ef	-0.21616338
122	0xbce87c33	-0.028379535
123	0xbea1ec96	-0.31625813
124	0xbe8e46a8	-0.2778828
125	0xbcb102d2	-0.02160779
126	0xbdf0a754	-0.11750665
127	0xbe96d66e	-0.29460472
128	0xbda2bff0	-0.079467654
129	0x3d231138	0.039811343
130	0xbe4db565	-0.20088728
131	0x3eda8bda	0.42684823
132	0x3d88273c	0.06648108
133	0xbdc052bc	-0.0939078
134	0xbe068205	-0.13135536
135	0xbe23c90c	-0.15994662
136	0xbe6678d8	-0.22507036
137	0x3c007d2f	0.007842346
138	0xbd1c2305	-0.038119335
139	0x3e359452	0.17732361
140	0x3e24c323	0.16090064
141	0xbd7aab40	-0.061198473
142	0x3bbee52a	0.0058256583
143	0xbe2a8925	-0.16653879
144	0xbe6e8dd8	-0.23296297
145	0x3cec2a81	0.028828861
146	0xbd488488	-0.048954517
147	0xbe188db3	-0.14897804
148	0xbe2fe00b	-0.1717531
149	0xbe17ccbc	-0.14824194
150	0xbe747d3b	-0.23875897
151	0xbcefadf0	-0.029257745
152	0xbe60155a	-0.21883145
153	0xbdd78b49	-0.105246134
154	0xbdbc60eb	-0.09198173
155	0x3dc946f7	0.098279886
156	0xbe01aeb0	-0.12664294
157	0xbe9ff164	-0.31238854
158	0xbec9013b	-0.3925875
159	0xbdd41156	-0.10354869
160	0xbdeda5a9	-0.11603863
161	0xbda34a39	-0.07973141
162	0xbd77386f	-0.060356554
163	0x3da00d3a	0.07815023
164	0xbbe168b4	-0.0068789367
165	0x3ebdd975	0.3707997
166	0xbeb1c3c7	-0.3471968
167	0xbd4cfc4e	-0.050045304
168	0x3e2913b7	0.16511427
169	0xbde156ae	-0.11002861
170	0x3e160c85	0.14653213
171	0xbd90b34f	-0.070654504
172	0x3e97bfab	0.2963842
173	0xbee79c18	-0.45236278
174	0xbd51758f	-0.051137503
175	0x3c97764c	0.018489026
176	0xbbcee488	-0.006313864
177	0x3c22abca	0.009928653
178	0x3e2686dc	0.16262382
179	0x3e96ecbe	0.29477495
180	0x3c640c59	0.01391896
181	0xbe3c927e	-0.18415257
182	0xbd463d12	-0.048398085
183	0x3e2da83a	0.16958705
184	0xbcc9ea0e	-0.024647739
185	0x3df097b3	0.11747684
186	0x3df050ed	0.11734185
187	0x3e51d287	0.20490466
188	0x3e49a761	0.19692756
189	0x3e8a36d2	0.2699495
190	0xbe5d46cf	-0.21609043
191	0xbe06e025	-0.13171442
192	0x3d9fabbd	0.07796428
193	0x3ef79517	0.48355934
194	0x3e7296c2	0.23690322
195	0x3d8e0add	0.06935666
196	0x3c579457	0.013157926
197	0xbe35f087	-0.17767535
198	0x3e160118	0.14648855
199	0x3e490c25	0.19633539
200	0x3e482c84	0.19548231
201	0x3d293175	0.04130693
202	0x3e5b3a5e	0.21408984
203	0x3d9bd769	0.076094456
204	0x3ec9b83c	0.39398372
205	0xbd77ae27	-0.06046882
206	0x3dc69fca	0.09698446
207	0xbe54f65b	-0.20797102
208	0x3def127c	0.116734475
209	0xbdcf19ac	-0.101123184
210	0x3e4c1d4d	0.19933052
211	0xbdbd09e3	-0.09230401
212	0x3ea68aeb	0.3252786
213	0x3e288bd6	0.16459593
214	0xbe2a9192	-0.16657093
215	0x3e960eba	0.2930811
216	0xbd64c532	-0.055852123
217	0xbd30ef62	-0.043197043
218	0x3d499a4a	0.049219407
219	0xbd09a7d2	-0.03360731
220	0xbe21c11e	-0.15796325
221	0xbdffbfb9	-0.1248774
222	0xbd332d86	-0.043744586
223	0xbd40f550	-0.04710895
224	0x3eb82152	0.3596292
225	0xbe11e22d	-0.14246435
226	0xbe4bf7d6	-0.1991876
227	0x3e08fae9	0.13376965
228	0xbd9f3a9c	-0.07774851
229	0x3e9f33e0	0.31094265
230	0x3e0476b0	0.129359
231	0xbe48c006	-0.19604501
232	0x3e29cb16	0.16581377
233	0x3dc7f627	0.09763747
234	0xbe1ac5ac	-0.15114468
235	0x3e6f7986	0.23386201
236	0xbdbbc4d5	-0.09168402
237	0xbe1b05ef	-0.15138982
238	0x3ede9a9f	0.43477342
239	0xbe1e5451	-0.15461852
240	0x3e64861c	0.22316784
241	0x3e54e7bd	0.20791526
242	0x3d42a83e	0.04752373
243	0x3e03c98c	0.12869853
244	0x3dddff9d	0.1083977
245	0x3e330a2e	0.17484352
246	0xbe8d7477	-0.27627918
247	0x3d3fcd24	0.046826497
248	0x3dc984fc	0.09839818
249	0xbd250c95	-0.040295202
250	0xbd2c3475	-0.042042214
251	0xbe3a2d3a	-0.18181315
252	0x3d8089e1	0.06276298
253	0xbe3c0714	-0.18362075
254	0xbd1d05c8	-0.03833559
255	0x3e1bf3ad	0.15229674

fc.2.weight f4 [2, 32]
0	0xbe984d70	-0.2974658
1	0x3e6e56ba	0.23275271
2	0x3e720bcf	0.23637317
3	0xbe626a1c	-0.2211079
4	0xbeb9ce84	-0.3629037
5	0x3d95d881	0.073166855
6	0xbe742b26	-0.23844585
7	0xbdc73396	-0.09726636
8	0xbd3be713	-0.045874666
9	0xbd3cd1be	-0.046098463
10	0xbe76037e	-0.2402477
11	0x3da216fc	0.0791454
12	0xbe23f810	-0.16012597
13	0x3e94b56a	0.29044658
14	0x3e81c107	0.2534258
15	0x3ea34c5e	0.318942
16	0xbe2e5d43	-0.17027764
17	0xbe4f8551	-0.202657
18	0xbeab6dcc	-0.33482206
19	0x3e691850	0.2276318
20	0x3ee31fc4	0.44360173
21	0xbe38659f	-0.18007515
22	0x3e9ebc26	0.3100292
23	0x3d931242	0.07181217
24	0x3dd54167	0.10412865
25	0x3d6a0934	0.057137683
26	0x3d248e3a	0.0401747
27	0xbe482cbf	-0.1954832
28	0xbec2d575	-0.3805348
29	0xbe2c1ff1	-0.1680906
30	0x3dc9a28f	0.09845459
31	0xbe11622f	-0.1419761
32	0xbe258880	-0.16165352
33	0x3ef117ed	0.47088566
34	0xbbd2d1c3	-0.006433697
35	0x3de3baf6	0.11119644
36	0x3eea933c	0.45815456
37	0x3e855d1b	0.26047596
38	0x3e976f95	0.29577318
39	0x3e610862	0.21975854
40	0x3eab99cd	0.33515778
41	0x3e7c63d8	0.24647462
42	0xbd0b7bfe	-0.034053795
43	0xbd57c7f2	-0.052680917
44	0xbe87ff91	-0.2656217
45	0x3cffde69	0.031233983
46	0x3e0b55be	0.13606927
47	0x3da69d8f	0.08135521
48	0xbe2a0166	-0.16602096
49	0xbe372dba	-0.17888537
50	0x3d9588e7	0.07301503
51	0xbe028b28	-0.12748396
52	0x3cd69faa	0.02619918
53	0xbdc0a790	-0.0940696
54	0x3e2dce51	0.16973235
55	0xbd7d31bb	-0.061815005
56	0xbe22574f	-0.15853618
57	0x3e8e7c5c	0.27829254
58	0xbe91bd09	-0.28464535
59	0x3c496c37	0.012293867
60	0x3e204b16	0.15653643
61	0x3e4b30c2	0.19842818
62	0x3e43b97c	0.19113725
63	0xbdf04ec1	-0.11733771

ode_net.grad_module.0.weight f4 [32, 37]
0	0xbda6dccc	-0.081475824
1	0xbd9ae1df	-0.07562613
2	0xbe0634ea	-0.13106123
3	0xbe40aba0	-0.1881547
4	0xbe2645b5	-0.16237529
5	0x3dd925cd	0.10602913
6	0xbd6a5be9	-0.05721656
7	0x3e22b66c	0.15889901
8	0xbdf41453	-0.11917939
9	0x3d815ad7	0.063161545
10	0x3e1c2fcc	0.15252608
11	0xbd58a66f	-0.0528931
12	0xbd735a49	-0.059412275
13	0x3dc00cf5	0.09377471
14	0x3de2ce1e	0.1107447
15	0xbc2744fd	-0.010209319
16	0x3da2c5c0	0.07947874
17	0xbe021795	-0.12704308
18	0x3d639232	0.055559345
19	0x3db4f3b3	0.088355444
20	0xbdb6fd13	-0.08934989
21	0xbb9c9b62	-0.0047792653
22	0x3c2afd16	0.010436317
23	0xbdcafdc9	-0.09911687
24	0xbb576029	-0.0032863712
25	0xbd466042	-0.048431642
26	0xbe4869ad	-0.19571562
27	0x3d8fa1a4	0.070132524
28	0x3e17b289	0.148142
29	0xbc418a2d	-0.011812729
30	0xbd543959	-0.051812503
31	0xbe419e4d	-0.18908043
32	0xbe079efb	-0.1324424
33	0x3d2665f1	0.040624563
34	0x3e067b57	0.13132988
35	0x3e0c7b6e	0.1371896
36	0x3d714f7c	0.058913693
37	0xbe444498	-0.19166791
38	0x3d254f19	0.040358637
39	0x3e26d4fa	0.16292182
40	0xbda2ea9f	-0.07954907
41	0x3d1e89e7	0.038705733
42	0xbc8ab93b	-0.016934028
43	0x3df80929	0.12111122
44	0x3af455ae	0.0018641257
45	0xbca39e08	-0.019972816
46	0x3e0a9ff2	0.13537577
47	0xbdcd1940	-0.10014582
48	0xbba8b09f	-0.005148008
49	0x3b87c5e0	0.0041434616
50	0xbe276b06	-0.1634942
51	0x3d9520bc	0.07281634
52	0xbd99df12	-0.075132504
53	0x3d970421	0.073738344
54	0xbd2aa0e9	-0.041657362
55	0xbd02db52	-0.03194744
56	0xbdea969d	-0.114545085
57	0x3d6b109f	0.057388898
58	0x3e2de0db	0.16980307
59	0x3e1ec261	0.15503837
60	0xbe407f4d	-0.18798561
61	0x3d0dce27	0.03462043
62	0x3e11556d	0.14192744
63	0x3b934981	0.0044948463
64	0xbddc788d	-0.10765181
65	0x3c448721	0.011995108
66	0x3e037c6f	0.12840436
67	0xbd18da8a	-0.03731779
68	0xbd37544d	-0.04475813
69	0x3e315034	0.17315751
70	0xbdb1ece1	-0.08687759
71	0x3de8ce85	0.113675155
72	0x3e0b628a	0.13611808
73	0xbc980a29	-0.018559532
74	0xbdc249cf	-0.09486734
75	0x3e1baa0a	0.15201584
76	0x3e3bafbd	0.18328758
77	0xbc8a0d80	-0.01685214
78	0x3e085367	0.13313065
79	0xbdef5fbb	-0.11688181
80	0x3c66215f	0.014046042
81	0xbe01ad2c	-0.12663716
82	0x3daa64b0	0.08319986
83	0xbd8737d1	-0.06602443
84	0x3db42ab8	0.087972105
85	0xbdd82b15	-0.10555092
86	0x3dca6385	0.09882263
87	0xbccaee19	-0.024771737
88	0x3d727edf	0.059203025
89	0x3e43448f	0.19069122
90	0x3d7631f2	0.060106225
91	0xbe290bb8	-0.16508377
92	0x3c564ee8	0.013080336
93	0xbe363ec1	-0.17797376
94	0xbe2d2634	-0.16909105
95	0x3c3e36be	0.011609731
96	0xbc3b24a0	-0.011422306
97	0x3cd70262	0.026246253
98	0xbe2c3d8f	-0.16820358
99	0xbe674202	-0.22583774
100	0x38d95d8a	0.00010364789
101	0xbdda5dc6	-0.10662417
102	0x3dc1733f	0.094458096
103	0x3cbad282	0.022805456
104	0xbdf87a0b	-0.12132653
105	0xbdbad8a1	-0.0912335
106	0x3d275556	0.040852867
107	0x3e1c7f06	0.1528283
108	0x3dcba4c1	0.09943534
109	0xbe887bd6	-0.2665698
110	0xbdeb0837	-0.11476176
111	0x3d873910	0.06602681
112	0x3c28e50e	0.010308517
113	0x3ce982d5	0.028504768
114	0xbd5002e8	-0.05078402
115	0x3c290fc5	0.010318701
116	0x3c026bef	0.007960304
117	0xbc7d690c	-0.01546694
118	0x3dc7990b	0.097459875
119	0xbc5993ea	-0.013279894
120	0xbd8ac3ce	-0.06775628
121	0x3e1432da	0.14472523
122	0xbe271145	-0.16315182
123	0x3dee07c3	0.11622574
124	0xbe3f0786	-0.18655214
125	0xbe006947	-0.1254016
126	0x3d41b9cb	0.047296327
127	0xbdac0aa4	-0.08400467
128	0xbd0c78ef	-0.03429502
129	0x3e317c63	0.17332606
130	0xbd19c5ce	-0.037542157
131	0xbe09133a	-0.1338624
132	0xbe0ac619	-0.13552131
133	0x3d6a9910	0.057274878
134	0xbde79468	-0.11307603
135	0xbd569a81	-0.05239344
136	0x3d2f5a53	0.04281075
137	0xbdb5ca1a	-0.088764384
138	0xbd651095	-0.055924017
139	0xbe33d0a7	-0.17560063
140	0xbd1bc56e	-0.03803008
141	0x3c03cf57	0.008045039
142	0xbd02e9c5	-0.03196122
143	0xbe118cd0	-0.14213872
144	0x3e2ccd5c	0.16875213
145	0x3d601c39	0.054714415
146	0x3eade9f3	0.33967552
147	0xbee1c6aa	-0.4409688
148	0x3e039fc2	0.12853912
149	0x3dff58ca	0.12468107
150	0x3d984309	0.07434661
151	0x3da1d47d	0.07901857
152	0xbd2cb5b0	-0.04216546
153	0xbbc80cd9	-0.006105047
154	0x3e2faf36	0.17156681
155	0xbe0a28de	-0.13492152
156	0x3e06a0fe	0.13147351
157	0x3d1fe910	0.039040625
158	0x3d063348	0.03276375
159	0xbb56570f	-0.00327057
160	0xbe351d77	-0.17687021
161	0xbd448929	-0.04798237
162	0xbe0d6d10	-0.13811135
163	0xbd7db45a	-0.061939575
164	0x3c13ed71	0.009028778
165	0x3d8483f7	0.06470483
166	0x3c78e024	0.015190158
167	0xbbc2ae77	-0.005941208
168	0x3ca3452e	0.019930448
169	0x3d9e216f	0.07721221
170	0x3d372aa8	0.044718415
171	0x3d76543c	0.060138926
172	0xbe25ea4a	-0.16202655
173	0xbe2cdccb	-0.16881101
174	0xbdf10c03	-0.11769869
175	0x3db743c9	0.08948476
176	0x3e1e1a2e	0.15439674
177	0x3cf25620	0.029582083
178	0xbda6dce1	-0.08147598
179	0xbc17fa2f	-0.009275957
180	0x3e2feb62	0.17179635
181	0xbcd9f15b	-0.026604345
182	0xbe435753	-0.1907628
183	0xbcad6bb5	-0.021169523
184	0xbe362e2d	-0.17791052
185	0x3d6f196c	0.058373854
186	0xbd7b2689	-0.061316047
187	0x3dd25fc4	0.10272172
188	0xbe3549a4	-0.17703873
189	0x3e2ecf39	0.17071237
190	0xbe0fb86d	-0.14035197
191	0xbddadf44	-0.10687116
192	0x3d9a6cc1	0.075402744
193	0xbcc31341	-0.023812892
194	0xbd5c430f	-0.05377489
195	0xbd04152f	-0.032246765
196	0x3dece450	0.11566985
197	0x3c98c4e4	0.018648572
198	0x3c8e7965	0.01739187
199	0x3e435494	0.19075233
200	0xbdd16591	-0.102244504
201	0xbc865f2d	-0.016402805
202	0x3e19beac	0.15014142
203	0xbd5a69b8	-0.053323478
204	0x3e0b8556	0.13625082
205	0xbdd166ef	-0.10224711
206	0x3d1297f3	0.03578944
207	0xbd3e6006	-0.046478294
208	0xbdae4a90	-0.085103154
209	0x3d715227	0.058916237
210	0xbcf5e18b	-0.030014774
211	0xbd5dd3ed	-0.054157186
212	0x3bed81e8	0.007248152
213	0x3e2f55e1	0.17122604
214	0xbde46164	-0.11151388
215	0xbc8cc09a	-0.017181683
216	0x3da4b1d8	0.080417335
217	0x3da974fc	0.08274266
218	0xbdade87c	-0.084916085
219	0xbe318c50	-0.17338681
220	0xbdff9c59	-0.12480993
221	0xbe95b22c	-0.29237497
222	0xbde9419b	-0.113894664
223	0x3dfbf752	0.12303032
224	0xbdcdaeb0	-0.100430846
225	0xba2419cd	-0.0006259948
226	0x3d019e6a	0.031645216
227	0xbe0398a2	-0.12851194
228	0xbe478097	-0.19482647
229	0x3e296e8c	0.16546077
230	0x3dfcc249	0.123417445
231	0xbdf61cb2	-0.12017192
232	0xbdba24a4	-0.0908902
233	0xbdd27b10	-0.102773786
234	0xbd2fcd09	-0.042920146
235	0xbe2995be	-0.16561028
236	0x3e10e379	0.14149274
237	0xbb8c5908	-0.0042830743
238	0x3e170306	0.14747247
239	0xbc5482d3	-0.012970644
240	0x3dac6e4d	0.08419476
241	0x3df3fdaf	0.11913621
242	0x3e2ebadb	0.17063467
243	0xbe0ac7d1	-0.13552786
244	0x3d9f2cb9	0.07772202
245	0xbd71dc2c	-0.059047863
246	0x3dbd814c	0.09253177
247	0xbd9657b1	-0.073409446
248	0xbd830bf4	-0.06398764
249	0xbdeb3e53	-0.11486497
250	0x3dd7aac8	0.10530621
251	0xbd9e9321	-0.07742906
252	0xbe1e1bdf	-0.1544032
253	0xbde477c6	-0.111556575
254	0x3e22e5c1	0.15907957
255	0xbe0b1ce3	-0.13585238

ode_net.grad_module.0.bias f4 [32]
0	0x3e09ac7c	0.13444704
1	0x3d89b285	0.06723503
2	0x3e0d25f1	0.13784005
3	0xbe01cf66	-0.12676772
4	0xbdd6a115	-0.10479943
5	0x3dd03bab	0.10167631
6	0x3d877c37	0.06615489
7	0x3e1d181f	0.15341233
8	0xbe11ed92	-0.14250782
9	0x3e0607e9	0.13088955
10	0xbd2db1f3	-0.042406034
11	0x3df5d7d5	0.12004057
12	0x3dd3c270	0.103398204
13	0x3daaef27	0.08346396
14	0x3de0985a	0.10966559
15	0xbe0d8387	-0.13819705
16	0x3da83262	0.08212735
17	0x3a7e29d7	0.00096955657
18	0xbd817c14	-0.06322494
19	0x3db0ea42	0.08638431
20	0x3d8e6e38	0.06954616
21	0x3cbaa463	0.022783464
22	0x3be26709	0.0069092554
23	0x3db15bb0	0.08660066
24	0xbc868b89	-0.016423957
25	0x3e281548	0.16414368
26	0x3ddce731	0.10786284
27	0xbdd42c5c	-0.103600234
28	0x3c6ebc48	0.014571257
29	0x3dd33c7d	0.103142716
30	0x3dd575dc	0.104228705
31	0x3e3e82cb	0.18604581

ode_net.grad_module.2.weight f4 [32, 32]
0	0x3c5cdcf9	0.013480418
1	0xb9df7dd0	-0.00042627612
2	0x3e0a1490	0.13484406
3	0xbe808add	-0.25105944
4	0xbe35d95f	-0.17758702
5	0x3d8b7506	0.0680943
6	0x3d1e0e64	0.038587943
7	0xbe05b4b2	-0.13057211
8	0x3d9f60ed	0.07782159
9	0x3dc5caad	0.09657798
10	0x3e1135ff	0.14180754
11	0xbe0c6645	-0.13710888
12	0x3e48c228	0.19605315
13	0xbc8855fd	-0.016642565
14	0x3e68aa9c	0.22721332
15	0x3dec1f49	0.11529405
16	0x3d1f1830	0.038841426
17	0x3e38e9d0	0.18057942
18	0x3d49a609	0.04923061
19	0xbd26e887	-0.0407491
20	0x3df6dd63	0.12053945
21	0x3d2b8c17	0.041881647
22	0xbdadd6ac	-0.08488211
23	0x3dadca61	0.08485866
24	0xbc3c9e5e	-0.011512367
25	0xbe35ee34	-0.17766649
26	0x3deff0d1	0.11715854
27	0xbe7e9b94	-0.24864036
28	0x3d3ad7ad	0.04561584
29	0x3d384857	0.044990864
30	0x3c8a4113	0.016876733
31	0x3e024c5f	0.12724446
32	0x3e0f2009	0.13977064
33	0xbcb60336	-0.022218328
34	0xbd0f2e32	-0.034956165
35	0x3c791ba2	0.015204342
36	0xbe1c3a58	-0.15256631
37	0xbe3a62b5	-0.18201716
38	0xbdfca5c1	-0.123363025
39	0x3dbac55b	0.09119674
40	0xbe320407	-0.17384349
41	0xbde23fe0	-0.110473394
42	0xbe2b17e1	-0.16708328
43	0x3dd57621	0.10422922
44	0x3e07da4e	0.1326687
45	0xbdd3371e	-0.10313247
46	0x3cb56afc	0.02214574
47	0x3d9b0f42	0.075712696
48	0xbd4bfdaf	-0.04980248
49	0x3de239ed	0.11046205
50	0x3da43f26	0.08019857
51	0xbe0be80d	-0.13662739
52	0x3a996d35	0.001170552
53	0x3dd744ac	0.10511145
54	0xbe153bd5	-0.14573605
55	0x3e1b9aae	0.15195724
56	0x3d9533e3	0.07285287
57	0xbd64eb2c	-0.05588834
58	0xbaf0d913	-0.001837524
59	0x3e01ecd8	0.12688005
60	0xbe04099d	-0.12894292
61	0xbddee080	-0.10882664
62	0x3d93c072	0.072144404
63	0xbd1493e2	-0.036273845
64	0x3d7b4606	0.061346076
65	0xbc92ca97	-0.017918868
66	0xbe0c1c38	-0.1368264
67	0x3dd53e55	0.104122795
68	0x3d80a7db	0.06282016
69	0xbe3d5dfa	-0.1849288
70	0xbdc1d28b	-0.09463986
71	0x3d293f3e	0.041320078
72	0x3d041415	0.032245714
73	0x3e27b9db	0.16379492
74	0xbe21c627	-0.15798245
75	0xbdf5c8b3	-0.12001171
76	0xbdaf1811	-0.08549512
77	0x3bf38e6e	0.0074327504
78	0x3e4db733	0.20089416
79	0xbdc042ef	-0.093877666
80	0xbd06696e	-0.03281539
81	0x3d245a08	0.040124923
82	0x3e4c7473	0.19966297
83	0xbd633872	-0.055473752
84	0x3cb9f309	0.022698896
85	0xbde31831	-0.110885985
86	0xbdfa310f	-0.122163884
87	0xbe339451	-0.17537047
88	0x3d42e6d2	0.04758341
89	0x3e2d5e59	0.16930522
90	0xbd9219fc	-0.071338624
91	0x3dde5c45	0.10857443
92	0x3e22492d	0.15848227
93	0x3dac66b3	0.08418026
94	0x3df594f8	0.11991304
95	0xbd2558e6	-0.040367983
96	0x3e614f63	0.2200294
97	0xbe3daad2	-0.18522194
98	0xbca02419	-0.019548463
99	0x3bb43129	0.0054990244
100	0xbdec55f0	-0.11539829
101	0x3de79abf	0.11308812
102	0xbdcaa0f5	-0.09893981
103	0x3e581807	0.21102916
104	0xbd5dd499	-0.054157827
105	0x3ddd8a84	0.108174354
106	0xbd787edb	-0.060667854
107	0x3e2bbb44	0.16770655
108	0xbe2ef06d	-0.17083903
109	0xbdc75597	-0.09733122
110	0xbd837d2f	-0.06420361
111	0x3d37fe14	0.044920042
112	0x3d68a61a	0.05679903
113	0xbe052a87	-0.13004504
114	0xbdf46657	-0.11933582
115	0xbd39afe9	-0.045333777
116	0xbcbb56c4	-0.022868522
117	0xbe0456c1	-0.12923719
118	0xbc961b76	-0.018323641
119	0x3e0fdee8	0.14049876
120	0xbc10abc0	-0.008830011
121	0x3d13f6f9	0.036124203
122	0x3d94c6a1	0.07264448
123	0x3e26784a	0.16256824
124	0x3d9cf6b1	0.0766424
125	0xbd99553e	-0.07486962
126	0xbddb856e	-0.10718809
127	0x3e112215	0.14173158
128	0xbd159ca0	-0.036526322
129	0xbe05ad2c	-0.13054341
130	0x3d0a7283	0.033800613
131	0x3d91fb4d	0.0712801
132	0x3e1c7c8a	0.15281883
133	0x3bd3d0b2	0.0064640874
134	0xbdc95999	-0.098315425
135	0xbe4d14d8	-0.20027483
136	0xbe655fb5	-0.2239979
137	0x3dc039c6	0.093860194
138	0xbd76c399	-0.06024513
139	0xbd9889a6	-0.07448129
140	0x3d64f93e	0.05590176
141	0x3d08023f	0.033205267
142	0xbdac260e	-0.08405696
143	0x3e0c3449	0.1369182
144	0xbc0d9e6a	-0.008643726
145	0x3de44aaf	0.11147057
146	0xbbc93a64	-0.006140994
147	0x3e332a5f	0.17496632
148	0xbe15fc2f	-0.14646982
149	0x3d0cd879	0.034386132
150	0xbe78596e	-0.24252865
151	0x3d24e4cf	0.04025727
152	0xbd8785ad	-0.066172935
153	0x3c214285	0.00984252
154	0x3dd09468	0.10184556
155	0xbde2ff15	-0.11083809
156	0x3e48ea9f	0.19620751
157	0xbcd9ac8e	-0.026571538
158	0x3d3de862	0.046364196
159	0xbd206d59	-0.039166782
160	0xbe156c91	-0.14592196
161	0x3e35dce5	0.17760046
162	0x3ddb19e1	0.106982954
163	0x3d9c2eee	0.07626139
164	0xbe4d4a6c	-0.20047921
165	0x3cad851e	0.02118164
166	0x3e27fa21	0.1640401
167	0x3d82981c	0.06376669
168	0xbba315ce	-0.0049769646
169	0xbd8627e8	-0.0655058
170	0xbdfbcb6a	-0.122946575
171	0x3dafa471	0.085762866
172	0x3dcfc6ab	0.10145315
173	0xbd0c151c	-0.03419982
174	0x3e293907	0.1652566
175	0x3ca494c4	0.020090468
176	0x3daddb10	0.084890485
177	0x3d230cd2	0.03980715
178	0x3d94bbed	0.072624065
179	0xbe2966b4	-0.16543084
180	0xbd21d110	-0.03950602
181	0x3e260ecf	0.16216587
182	0x3e81cd52	0.2535196
183	0xbdec46d6	-0.115369484
184	0xbd6966c5	-0.056982774
185	0xbcfddad7	-0.03098814
186	0x3d9b435e	0.07581209
187	0xbc94332e	-0.01809081
188	0xbcdaefb4	-0.026725627
189	0xbd02cd8a	-0.0319343
190	0x3e0828b8	0.13296783
191	0xbe3e97a5	-0.18612535
192	0xbd5f58fb	-0.054528218
193	0xbe0df9e9	-0.13864864
194	0x3e0b48d5	0.13602002
195	0x3e9fce31	0.31212
196	0xbcae2cac	-0.021261536
197	0x3d3665d8	0.04453072
198	0x3d9f7bdb	0.077872954
199	0x3e7583b2	0.23976019
200	0xbe6e3387	-0.23261844
201	0xbd22acb7	-0.039715495
202	0x3b4ee95d	0.00315722
203	0xbe548477	-0.20753656
204	0xbe1492af	-0.1450908
205	0x3e51cfea	0.20489469
206	0xbe75a7e3	-0.23989825
207	0xbc125e94	-0.008933682
208	0xbd91f9ee	-0.071277484
209	0xbc95f5d9	-0.018305706
210	0x3d114ffd	0.035476673
211	0xbd7d8c9d	-0.061901677
212	0xbd5460bb	-0.051850062
213	0x3d3b3f1a	0.045714475
214	0xbe5cf861	-0.21579124
215	0x3cceb753	0.0252339
216	0x3dcc29ae	0.09968887
217	0x3e1d3593	0.15352468
218	0x3de63248	0.11240059
219	0x3e55e5b5	0.20888408
220	0x3e209834	0.15683061
221	0x3d28f94b	0.04125337
222	0x3e195311	0.14973094
223	0xbc52b2fd	-0.012860057
224	0xbe557bab	-0.20847957
225	0xbc06a2e1	-0.008217544
226	0x3e040c37	0.12895285
227	0xbe5b547b	-0.21418945
228	0x3e02f42e	0.1278846
229	0x3dbaf0ad	0.091279365
230	0xbd6efcf8	-0.05834672
231	0xbdc58720	-0.09644914
232	0xbe345db1	-0.17613865
233	0x3e04c8e4	0.12967259
234	0x3c330c61	0.010928244
235	0xbde53768	-0.111922085
236	0xbdd2cfda	-0.10293551
237	0x3dbf9840	0.09355211
238	0xbda543a7	-0.08069544
239	0xbcf6d9cc	-0.03013315
240	0x3dbf34e8	0.09336263
241	0xbe0cfdd6	-0.13768706
242	0xbdabf3fb	-0.08396145
243	0xbd23a530	-0.039952457
244	0xbd04d47e	-0.03242921
245	0xbe352794	-0.17690879
246	0xbe0a993b	-0.13535015
247	0x3d628bd8	0.055309147
248	0xbd768642	-0.060186632
249	0xbdd740e9	-0.105104275
250	0xbe2695cb	-0.16268079
251	0xbd9fb672	-0.077984706
252	0xbe13769c	-0.14400715
253	0xbe03319b	-0.12811892
254	0x3d9effcd	0.07763634
255	0x3c48cf79	0.012256497

ode_net.grad_module.2.bias f4 [32]
0	0xbde936a6	-0.113873765
1	0x3e0868ab	0.13321178
2	0x3d19d30d	0.03755479
3	0x3cafd6f6	0.021464806
4	0x3da487a9	0.080336876
5	0x3e413c2e	0.18870613
6	0x3ded24c1	0.11579276
7	0xbe404113	-0.18774824
8	0x3c3a9870	0.011388883
9	0xbe06e9f4	-0.13175184
10	0x3d193c9b	0.037411314
11	0xbd0655e4	-0.032796755
12	0x3e0998dc	0.13437217
13	0xbe147d77	-0.14500986
14	0xbe21f6b5	-0.15816768
15	0xbd3b35a9	-0.04570547
16	0x3dd3f753	0.10349908
17	0xb99bb264	-0.00029696815
18	0xbe2a24c0	-0.16615582
19	0xbd8b178e	-0.06791602
20	0x3cbf29be	0.023335334
21	0xbda542a1	-0.08069349
22	0xbcb19803	-0.02167893
23	0x3ceae9fc	0.028676026
24	0xbe53fa5f	-0.20700978
25	0x3e03f989	0.12888159
26	0xbda73820	-0.08165002
27	0xbe0cc604	-0.13747412
28	0x3d42fbad	0.047603298
29	0x3dca9acf	0.09892809
30	0xbbdf579f	-0.006815865
31	0x3d2bed75	0.041974504

exp_avg f4 [32, 7]
0	0x3b0ab3c7	0.0021164285
1	0x3b208b11	0.0024496953
2	0xbbcb70a8	-0.006208498
3	0x39a3d391	0.00031247412
4	0x396f787c	0.000228377
5	0xbabcdada	-0.0014408485
6	0xba3ebf7b	-0.00072764576
7	0x3b0cb03f	0.0021467356
8	0xbb4287f8	-0.0029683094
9	0xbade48c8	-0.0016958946
10	0x3a4ca91b	0.0007807181
11	0xbb7be255	-0.0038434465
12	0x3c1fced9	0.009753906
13	0x3b396059	0.0028286187
14	0xbcd4c738	-0.025973901
15	0xbb3f9215	-0.0029231359
16	0x3c31088e	0.010805262
17	0xb9b235e4	-0.00033990957
18	0xbcb8faa1	-0.022580447
19	0x3ad8fcdd	0.0016554851
20	0xbc1cca85	-0.009569769
21	0xb9441f7c	-0.00018703745
22	0x39ab79c6	0.0003270639
23	0xbae69add	-0.001759376
24	0xbb61b5b2	-0.0034440574
25	0x3a54af38	0.0008113268
26	0xbb013c08	-0.001971962
27	0xbb3db74b	-0.0028948362
28	0xbc58e1e8	-0.013237454
29	0x3ba0d062	0.0049076537
30	0x3c850f30	0.016242594
31	0x3b531902	0.003221095
32	0x3b60aded	0.0034283355
33	0xbc89423c	-0.016755216
34	0x3b94051f	0.004517212
35	0xbc53e8b6	-0.012933901
36	0x3adbfc77	0.0016783614
37	0xba967c46	-0.0011481128
38	0x3a2b354c	0.0006531074
39	0xbc9cffea	-0.019164998
40	0x3c2389fd	0.009981629
41	0xbc1bf8d3	-0.009519774
42	0x3c209600	0.009801388
43	0xbb8c8fe2	-0.004289613
44	0xbc246d0e	-0.010035766
45	0xbafab5c1	-0.0019127653
46	0x3bed0ff7	0.007234569
47	0x3b820110	0.003967412
48	0x3aa294be	0.0012403948
49	0xbc92dd41	-0.017927768
50	0x39f3af7e	0.00046479324
51	0x3c5769b6	0.013147762
52	0xba6b945a	-0.00089866447
53	0xbbe5e1dd	-0.0070154504
54	0xbba2fbe2	-0.0049738744
55	0xbb80af02	-0.0039271126
56	0xbb8c84dc	-0.004288299
57	0x3af93d82	0.0019015523
58	0x3b90ac6d	0.004415086
59	0x3aa5cc29	0.0012649345
60	0xb9a94788	-0.00032287487
61	0xba40a1f4	-0.00073483516
62	0xbb9758d3	-0.004618743
63	0x3a8ad26f	0.0010591279
64	0xbb79ad9e	-0.0038097869
65	0xbb131544	-0.0022443095
66	0x390485f5	0.00012638404
67	0xba23032a	-0.0006218428
68	0x3ba27ab1	0.0049584736
69	0xba51e0e6	-0.000800623
70	0x3ba728ea	0.005101313
71	0x3ad23180	0.0016036481
72	0xb8a9510b	-8.0736434e-05
73	0x3b5a51b1	0.0033312852
74	0x3b3c0df5	0.0028694842
75	0xba9902da	-0.0011673823
76	0x3ba7b2fc	0.005117772
77	0x3d33b454	0.043873146
78	0x3c1f57a5	0.009725486
79	0xbc97bfbb	-0.018524041
80	0xbb88d495	-0.0041757324
81	0x3d3c2571	0.045934144
82	0xbcda4274	-0.026643015
83	0x3c77d3c0	0.015126169
84	0xbba34c6b	-0.004983475
85	0xbb6bb70f	-0.0035967266
86	0x3b9ebab9	0.0048440364
87	0x37416e0e	1.1529321e-05
88	0x3aa432f4	0.0012527392
89	0x3b049357	0.0020229423
90	0x3c1260e8	0.008934237
91	0x3be3c0fe	0.0069504967
92	0x3c244dcb	0.010028313
93	0xbb55111e	-0.0032511423
94	0x3a91649f	0.001109261
95	0x3c5b0a42	0.013369145
96	0xbc83ab64	-0.016072936
97	0xbb650187	-0.0034943537
98	0xbc03ac36	-0.008036664
99	0x3b405709	0.0029348752
100	0x3a87d586	0.0010363318
101	0x3b0677dd	0.0020518221
102	0xbbfcb54b	-0.0077120415
103	0xbb245b9d	-0.002507902
104	0xbbb45e36	-0.005504395
105	0x3d227a93	0.039667677
106	0x3c021f6a	0.00794206
107	0xbcaadfb7	-0.020858629
108	0xbb718f04	-0.0036858926
109	0x3d29ff9a	0.041503526
110	0xbc94a7b8	-0.01814638
111	0x3c4c42dc	0.012467112
112	0x3c6fb1d7	0.014629803
113	0x3a8b5e40	0.0010632947
114	0xbb72d4ee	-0.0037053186
115	0xba1fb7ba	-0.0006092746
116	0x3c4bf5b1	0.012448714
117	0xbb7ef352	-0.0038902354
118	0x3b638e45	0.003472225
119	0x3b934ddd	0.004495366
120	0xbb9d4eb1	-0.0048006405
121	0xbb46be04	-0.003032566
122	0xb9ccd0fb	-0.00039065615
123	0x3b9900a3	0.0046692654
124	0x3bbef488	0.0058274902
125	0x3bf71f8c	0.0075416025
126	0x3d0b4f44	0.03401114
127	0x3b77a893	0.0037789687
128	0xbc9f68cf	-0.019459156
129	0xbaf25da1	-0.0018491038
130	0x3d053647	0.032522466
131	0xbbd48425	-0.0064854794
132	0x3c3e6521	0.011620791
133	0xbbf37d46	-0.0074307052
134	0xba802bd4	-0.0009778687
135	0x3a45f7f1	0.00075519
136	0x3b6d3236	0.0036193258
137	0xbc197347	-0.009365863
138	0x3b89ef71	0.004209452
139	0xbc138793	-0.009004491
140	0x3c8998f2	0.016796563
141	0xba518b2a	-0.00079934543
142	0xbbfdfb69	-0.0077509177
143	0xb9379372	-0.00017507168
144	0x3c6f8f28	0.014621533
145	0x3b78b374	0.003794876
146	0x3b27c777	0.0025601068
147	0xba4f1114	-0.0007898968
148	0xbb076ba1	-0.0020663517
149	0xba9e0d6a	-0.0012058441
150	0xb9fab4dd	-0.0004781847
151	0x3b683f0d	0.0035437972
152	0xba3c60e7	-0.00071860704
153	0x3b7a098e	0.0038152668
154	0xbc049cc0	-0.008094013
155	0xba84eec8	-0.0010141963
156	0x3b901a49	0.0043976647
157	0xba6369f3	-0.00086751505
158	0xbbe218cd	-0.006899929
159	0x3b811915	0.0039397576
160	0xbb0c679f	-0.0021424068
161	0xbbe5cf9f	-0.0070132758
162	0x3b1d350c	0.0023987917
163	0xbabee825	-0.0014565034
164	0xbb9f83df	-0.004868015
165	0xbb3cbce1	-0.0028799104
166	0xbc625cba	-0.013816053
167	0xbc27dd03	-0.010245564
168	0xbbc998d0	-0.00615225
169	0xb9c1c3ef	-0.0003695781
170	0x3baaf756	0.005217473
171	0x3a4cfa2a	0.000781926
172	0xba11a855	-0.00055563945
173	0xbb147644	-0.00226535
174	0xbb4e513c	-0.0031481525
175	0xbb70ff1a	-0.0036773146
176	0xbba0ec1d	-0.0049109594
177	0xbbad6721	-0.005291835
178	0xbaf4e7e3	-0.001868483
179	0xbbcfb761	-0.006338999
180	0x3b88d0aa	0.0041752653
181	0x3b86ea62	0.004117296
182	0xbcca29e5	-0.02467818
183	0xbbca82dc	-0.0061801504
184	0x3c3fb7d0	0.011701539
185	0xbb8233ae	-0.003973446
186	0xbc88d354	-0.016702332
187	0x3acbcbd5	0.0015548418
188	0xbb6b9766	-0.0035948395
189	0xbc0b7522	-0.008511813
190	0xbba8a854	-0.0051470194
191	0x3b9fe70d	0.0048798383
192	0xbafc7ef9	-0.0019263915
193	0xbc328d5c	-0.0108979605
194	0x3c2ab3fb	0.010418887
195	0xbb5058d2	-0.0031791222
196	0x3ced9c26	0.029005121
197	0x3b966e56	0.00459079
198	0xbc7ddf6d	-0.015495163
199	0xb8665582	-5.491591e-05
200	0x3ce0bba3	0.027433222
201	0xbc2b348b	-0.010449539
202	0x3c2fb42a	0.010724107
203	0xbc4bbc80	-0.012435079
204	0x3b84a1e4	0.004047619
205	0x3c1b6127	0.009483612
206	0xba6c995f	-0.00090255396
207	0xbb5c44aa	-0.0033610263
208	0xbc2f8da3	-0.010714921
209	0xba6a2bb2	-0.0008932903
210	0x3c4111ef	0.011784061
211	0x3b41f23c	0.0029593846
212	0xbbf04236	-0.0073321117
213	0xbb1e1c36	-0.0024125702
214	0x3c291fc4	0.010322515
215	0xbbf015a5	-0.007326799
216	0xb9b2dc7a	-0.00034115074
217	0xbbcc2fef	-0.0062313
218	0x3a95551a	0.001139316
219	0x3b3b36cf	0.0028566604
220	0x3b146868	0.0022645239
221	0xbbd668cc	-0.0065432545
222	0xbb40ea62	-0.0029436578
223	0xba8fa9b3	-0.0010960608
