ckpt/GRU_nodiff_h16/best.pth (torch_old, 26526 bytes, 30 tensors)

rnn.weight_ih_l0 f4 [16, 7]
0	0xbc969729	-0.018382626
1	0xbdacdfd7	-0.084411316
2	0x3dc169a7	0.0944398
3	0xbd31b8e7	-0.043389227
4	0xbdec2147	-0.11529785
5	0x3eb8b6e8	0.36077046
6	0xbdfb4695	-0.12269322
7	0xbe469563	-0.19392924
8	0xbe5a2e2b	-0.21306674
9	0xbe2226dc	-0.15835136
10	0xbc816bf0	-0.015798539
11	0xbda6d5b4	-0.081462294
12	0x3e7febf3	0.24992351
13	0xbd87fc0f	-0.06639873
14	0xbe03d186	-0.12872896
15	0x3e0462a6	0.12928256
16	0xbe560789	-0.20901312
17	0x3e00b457	0.12568794
18	0xbc84442c	-0.016145788
19	0x3ecef90d	0.40424386
20	0xbe19b263	-0.15009455
21	0x3e51f996	0.20505366
22	0xbe39a043	-0.18127541
23	0xbdb7b19a	-0.08969422
24	0xbd47ab69	-0.048747454
25	0xbd991367	-0.07474404
26	0x3e9809f6	0.296951
27	0xbe957f94	-0.29198897
28	0x3d85c5e6	0.06531887
29	0xbd51f32e	-0.051257305
30	0xbe3c8f90	-0.1841414
31	0x3e1bf909	0.15231718
32	0x3c4f7dc4	0.012664262
33	0xbe87dea3	-0.26537046
34	0xbdfb3cf5	-0.12267486
35	0x3d9d78f8	0.076890886
36	0xbe0bd2d3	-0.13654642
37	0xbd8ecf74	-0.06973162
38	0x3e65c28f	0.224375
39	0x3d080f0d	0.03321748
40	0x3d618863	0.05506171
41	0xbe69e3a0	-0.22840738
42	0x3e097950	0.13425183
43	0x3bb4dd9a	0.005519581
44	0x3e3b5bda	0.18296757
45	0xbd151a63	-0.036402117
46	0xbc239e5e	-0.009986488
47	0xbc8cab96	-0.017171662
48	0x3eb9dd7d	0.36301795
49	0x3d6fb1cb	0.058519166
50	0x3df8788b	0.12132367
51	0x3dcb1194	0.09915462
52	0xbc4c399d	-0.012464908
53	0x3ddbc47e	0.10730837
54	0x3e2ab530	0.1667068
55	0x3e96f358	0.29482532
56	0x3df0714d	0.117403604
57	0x3daa97dc	0.08329746
58	0x3e86f44c	0.2635826
59	0xbd7f71ed	-0.062364507
60	0x3e3929ae	0.18082306
61	0x3d3292f5	0.04359718
62	0xbe5a7247	-0.21332656
63	0xbd99a125	-0.07501439
64	0x3d47e2cc	0.048800275
65	0xbca3bf77	-0.019988758
66	0x3dddbbc5	0.1082683
67	0xbc86b599	-0.016444014
68	0x3e692c41	0.22770788
69	0x3e62fa38	0.22165763
70	0x3d99b263	0.07504728
71	0xbe00ed92	-0.12590626
72	0xbe0eda44	-0.13950449
73	0x3eabd1d2	0.33558518
74	0x3e8b2619	0.27177504
75	0x3ed36873	0.41290626
76	0x3e81307a	0.25232297
77	0x3d12a6a7	0.035803463
78	0xbd73c7b8	-0.05951664
79	0xbe1f8d7c	-0.15581316
80	0x3dbab3b0	0.09116304
81	0x3bdc7870	0.0067282245
82	0xbe0ebbd3	-0.13938837
83	0x3eac1ac4	0.3361417
84	0xbdde5a43	-0.1085706
85	0xbdda0a0a	-0.10646446
86	0xbd5194a9	-0.051167164
87	0xbd812c96	-0.06307332
88	0xbe01c49e	-0.1267266
89	0xbd8779b1	-0.06615008
90	0x3ed6faa4	0.419881
91	0x3e805b4d	0.25069657
92	0x3bc6aa26	0.0060627637
93	0x3de08dbd	0.109645344
94	0xbe690b71	-0.22758271
95	0x3e0a002a	0.13476625
96	0x3dd32e63	0.10311582
97	0x3dac0c23	0.084007524
98	0xbd8fb7f1	-0.07017506
99	0xbd0a90f5	-0.033829648
100	0xbcf5ac7e	-0.029989477
101	0x3df4172a	0.11918481
102	0x3e09a0ce	0.13440248
103	0x3dc93d8b	0.098261915
104	0x3e02e744	0.12783533
105	0x3cd51253	0.026009714
106	0xbe227e70	-0.15868545
107	0x3e49cf32	0.19707945
108	0x3d5677a4	0.052360192
109	0xbe3f1393	-0.1865981
110	0xbe90ca40	-0.28279305
111	0xbe5003ec	-0.20313996

rnn.weight_hh_l0 f4 [16, 16]
0	0x3bbeea57	0.0058262753
1	0xbe245a7b	-0.1605014
2	0x3eaad451	0.3336511
3	0x3d814c66	0.063134
4	0x3e42a74f	0.19009136
5	0xbd9ce2f3	-0.07660475
6	0x3c8c1274	0.017098643
7	0x3eb3f0c1	0.35144618
8	0x3d0d9833	0.034568977
9	0x3cdff711	0.02733949
10	0x3e895000	0.26818848
11	0x3e8a47ea	0.2700799
12	0xbdf8c1e0	-0.12146354
13	0xbcaf9be9	-0.021436648
14	0x3e065729	0.13119186
15	0xbd45a44a	-0.04825238
16	0xbdea4f23	-0.114408754
17	0x3ec854ac	0.391271
18	0x3ea8d555	0.3297526
19	0x3e513376	0.20429787
20	0xbebb45bb	-0.36576638
21	0x3e8b6764	0.27227318
22	0xbabba777	-0.0014316876
23	0x3e3492c2	0.17634109
24	0xbdc8b278	-0.09799665
25	0xbdd2cecf	-0.10293352
26	0x3e4560c8	0.192752
27	0xbdbb853e	-0.09156273
28	0xbd7a6d3e	-0.061139338
29	0x3e9f5bf1	0.31124833
30	0xbe2e715a	-0.17035428
31	0xbcd8634e	-0.02641454
32	0x3e9b0119	0.30274275
33	0xbde0844b	-0.10962733
34	0x3eb6ab40	0.35677528
35	0xbdfad58a	-0.122477606
36	0x3e6a6d9f	0.2289338
37	0x3dfb8dbe	0.122828946
38	0xbd101132	-0.03517265
39	0xbd362d7c	-0.04447697
40	0x3dbf7761	0.093489416
41	0x3daaa368	0.083319485
42	0x3dd596e7	0.10429173
43	0xbcaeda40	-0.021344304
44	0x3e10092d	0.14066
45	0x3e0d45a0	0.13796091
46	0xbde88ffe	-0.11355589
47	0xbe34661f	-0.17617081
48	0x3d8e520a	0.069492415
49	0xbcf90c95	-0.030401507
50	0xbd25e8c2	-0.04050518
51	0x3eda5f59	0.4265087
52	0xbdbfe018	-0.09368914
53	0x3c79023a	0.015198285
54	0xbc9555b8	-0.01822935
55	0x3eb6b1fd	0.3568267
56	0x3e457c31	0.19285657
57	0xbdbb7348	-0.091528475
58	0x3c03933c	0.008030709
59	0xbb18fa6e	-0.0023342627
60	0x3de9d779	0.11418051
61	0xbddc9145	-0.107698955
62	0x3c158166	0.009125089
63	0xbe6ee44a	-0.23329273
64	0xbdce3de2	-0.10070397
65	0xbdaeb7a4	-0.085311204
66	0xbc89e0e2	-0.016830865
67	0x3d04655a	0.03232322
68	0x3eb560f5	0.35425535
69	0x3e57ed15	0.21086533
70	0xbd88b533	-0.06675186
71	0xbe405f21	-0.18786289
72	0x3e835cf4	0.25656855
73	0xbc8ade2f	-0.016951649
74	0x3bb637db	0.0055608577
75	0x3c821b4b	0.015882155
76	0x3ddc2e81	0.107510574
77	0x3e2eef9f	0.17083596
78	0xbe450cce	-0.19243166
79	0x3e80bb4e	0.25142902
80	0xbef300be	-0.47461504
81	0x3e5902e3	0.21192507
82	0xbe714566	-0.2356163
83	0xbdf714f1	-0.12064541
84	0xbe99c81f	-0.30035493
85	0x3e4ea885	0.20181473
86	0xbd9a0c86	-0.0752192
87	0xbe14f914	-0.14548141
88	0x3c91669a	0.01774912
89	0xbd555985	-0.052087326
90	0xbdd7dac8	-0.10539776
91	0x3dddc26c	0.10828099
92	0x3e167a7d	0.14695163
93	0x3d12b56f	0.03581756
94	0x3e9c27aa	0.3049901
95	0x3d13102c	0.035904095
96	0x3eb7dbcf	0.35909888
97	0x3e389407	0.18025218
98	0x3e24a680	0.1607914
99	0xbdc49eec	-0.096006244
100	0x3dc88c47	0.09792381
101	0xbe88e7ec	-0.26739442
102	0x3d6497f2	0.05580897
103	0x3e54f8a1	0.2079797
104	0xbe88f85a	-0.26751977
105	0xbe239b0a	-0.15977111
106	0xbd5dea05	-0.054178257
107	0x3e266c3e	0.16252229
108	0x3e6ff586	0.23433504
109	0xbd2371d3	-0.039903473
110	0xbe4b4c2b	-0.19853275
111	0xbec13e79	-0.37742975
112	0xbe8b0575	-0.271526
113	0x3e9ae6b0	0.30254126
114	0xbeb76a08	-0.35823083
115	0x3e1fb1f4	0.15595227
116	0xbe34d298	-0.1765846
117	0x3e850e40	0.25987434
118	0xbe48106b	-0.19537513
119	0x3eaa1c97	0.33224937
120	0xbe437dc1	-0.1909094
121	0x3cca839c	0.02472096
122	0x3cb2934a	0.021798749
123	0xbc1ba82b	-0.009500544
124	0x3e87f2a6	0.26552314
125	0xbe8236f2	-0.25432545
126	0x3d0c26b1	0.034216587
127	0xbd11eefe	-0.03562831
128	0xbdc51178	-0.096224725
129	0xbde44fbe	-0.11148022
130	0x3dab706a	0.08371051
131	0xbe29a3ce	-0.16566393
132	0xbc8f5604	-0.01749707
133	0xbe06bb62	-0.13157418
134	0x3e06f296	0.13178477
135	0x3d451f31	0.04812545
136	0xbe774354	-0.24146777
137	0x3dc385ce	0.095470056
138	0xbc752e61	-0.014964671
139	0x3c84f230	0.016228765
140	0x3e4f4401	0.20240785
141	0x3e241576	0.16023812
142	0x3e019988	0.12656224
143	0xbe365dca	-0.17809215
144	0x3db44ff0	0.08804309
145	0xbdecc251	-0.115605004
146	0x3dd785d6	0.10523574
147	0xbe11117c	-0.14166826
148	0x3d52e867	0.051491167
149	0x3d6061fa	0.054780938
150	0x3d97599c	0.073901385
151	0xbe0bf12c	-0.13666219
152	0xbe858adf	-0.26082513
153	0x3ead30df	0.33826348
154	0x3d851a39	0.06499142
155	0x3e974b6a	0.29549724
156	0x3ea4ec79	0.32211664
157	0x3e776439	0.24159326
158	0xbdf4e9c8	-0.11958653
159	0x3db00233	0.085941695
160	0x3ea44fb3	0.32092056
161	0xbdacce53	-0.08437791
162	0x3eb521cb	0.35377344
163	0x3e728c18	0.23686254
164	0x3e789f93	0.24279623
165	0xbe0e266f	-0.13881849
166	0x3de1a592	0.11017908
167	0xbe681309	-0.22663511
168	0xbbe1c3ce	-0.006889797
169	0x3efec940	0.49762917
170	0x3e03d2f4	0.12873441
171	0x3e99573d	0.2994937
172	0x3d6c9340	0.057757616
173	0x3d393c1a	0.045223333
174	0x3de6f433	0.11277046
175	0xbc19f9f8	-0.009397976
176	0xbdb515a7	-0.088420205
177	0xbe006c5f	-0.1254134
178	0xbd1ebd06	-0.038754486
179	0x3dd94f58	0.10610837
180	0x3ec35568	0.38151097
181	0xbe44f0a4	-0.19232422
182	0x3e92703b	0.2860125
183	0x3d67a632	0.05655498
184	0xbe0fd86a	-0.14047399
185	0x3e335960	0.17514563
186	0xbe040217	-0.12891422
187	0xbdf17ecc	-0.11791763
188	0x3e8ab047	0.27087614
189	0x3dd44086	0.10363869
190	0x3e98bcc6	0.29831523
191	0xbe71e439	-0.23622216
192	0xbe8422b3	-0.25807723
193	0x3d37a76c	0.0448374
194	0xbe9ac86e	-0.3023104
195	0xbe71e622	-0.23622945
196	0xbdac9527	-0.08426886
197	0x3cdaa560	0.026690185
198	0xbdda20c1	-0.106507786
199	0x3eee0e74	0.46495402
200	0xbd33e539	-0.043919776
201	0xbe1fea40	-0.15616703
202	0xbe161076	-0.14654717
203	0x3e42f8d2	0.1904023
204	0x3dcfa826	0.10139494
205	0x3db0cbdd	0.08632634
206	0x3e7333fe	0.23750302
207	0xbe33b3f9	-0.17549123
208	0x3eddc93e	0.43317598
209	0xbeed0887	-0.46295568
210	0x3e1d3877	0.15353571
211	0xbe3d30a7	-0.1847559
212	0xbd0bb5f3	-0.034109067
213	0xbe9de509	-0.30838802
214	0x3eec3d2c	0.4614042
215	0x3eab65a0	0.3347597
216	0x3ed0d9a4	0.40791047
217	0x3ebc2724	0.36748612
218	0x3e1596df	0.14608334
219	0x3d0e6b56	0.034770332
220	0xbd863a02	-0.06554033
221	0x3e9508fc	0.29108417
222	0x3e033a01	0.12815095
223	0xbda8362f	-0.0821346
224	0xbdf984ab	-0.121835075
225	0xbdaf9225	-0.08572797
226	0xbe3a9d8c	-0.18224162
227	0xbeaa6daf	-0.33286807
228	0x3de637c9	0.11241109
229	0xbd8f0358	-0.0698306
230	0xbe50aefc	-0.20379251
231	0x3e32fb51	0.17478682
232	0xbd1c1ab0	-0.03811139
233	0xbe0a19d0	-0.13486409
234	0x3d91993e	0.07109307
235	0x3df811b7	0.12112754
236	0xbe23eb2f	-0.16007684
237	0x3e2c12d3	0.16804056
238	0xbd1323ba	-0.035922743
239	0x3e7d539b	0.24738924
240	0xbe4146d1	-0.1887467
241	0x3c648614	0.013947982
242	0xbe64544a	-0.22297779
243	0xbe3fcb29	-0.18729843
244	0x3cb668a2	0.02226669
245	0xbe6564b0	-0.2240169
246	0xbe2f0d9d	-0.17095037
247	0xbdc90435	-0.098152556
248	0x3e42f3be	0.19038293
249	0xbe4aef1c	-0.19817775
250	0xbd996160	-0.07489276
251	0x3e30f922	0.17282537
252	0xbdfc5c91	-0.12322343
253	0x3e1ca180	0.15295982
254	0x3bae8cf3	0.005326861
255	0x3eacbdd4	0.33738577

rnn.bias_ih_l0 f4 [16]
0	0xbe88432d	-0.2661375
1	0x3a9191f2	0.0011106117
2	0xbe79099a	-0.24320069
3	0xbe0d525b	-0.13800947
4	0xbd6e2b63	-0.058146846
5	0xbd313efd	-0.04327296
6	0x3da3e59e	0.080027804
7	0xbdd956e6	-0.10612278
8	0x3db3e4b3	0.08783855
9	0xbe370899	-0.17874373
10	0xbe03eaba	-0.1288251
11	0xbdd0cd5c	-0.10195419
12	0xbdc4f64b	-0.09617289
13	0xbcf2be16	-0.029631656
14	0xbd69cf0d	-0.057082225
15	0xbc0ae9d2	-0.008478599

rnn.bias_hh_l0 f4 [16]
0	0x3dcf3118	0.10116786
1	0x3e93201c	0.28735435
2	0xbebd5ff4	-0.3698727
3	0x3e481fab	0.1954333
4	0xbea9e87a	-0.33185178
5	0x3e6f4fec	0.23370332
6	0xbe29ad0f	-0.16569923
7	0x3e01bd5d	0.12669893
8	0xbe8ef40a	-0.27920562
9	0xbe173200	-0.14765167
10	0xbe87e5d9	-0.26542547
11	0xbddff0db	-0.109346114
12	0xbe16073d	-0.14651199
13	0xbeb377e7	-0.35052416
14	0x3e2488da	0.1606783
15	0x3e54ef17	0.2079433

fc.0.weight f4 [16, 16]
0	0xbe47fc9b	-0.19529955
1	0xbe8a19fa	-0.26972944
2	0xbe910cba	-0.28330022
3	0xbd874d52	-0.066065446
4	0x3ebeddfc	0.37278736
5	0xbea83b76	-0.32857865
6	0xbdc96d46	-0.098352954
7	0x3e62ac4a	0.22136036
8	0xbf1a1e8b	-0.60202855
9	0xbdfcbf2b	-0.1234115
10	0x3d4ba4dc	0.04971777
11	0xbe8f9046	-0.2803976
12	0xbdacc558	-0.08436078
13	0xbee33d16	-0.44382542
14	0xbc9d50ba	-0.019203532
15	0x3d988e74	0.07449046
16	0x3d8deee7	0.06930333
17	0xbe664289	-0.22486319
18	0x3e36ab71	0.17838837
19	0x3e2d8168	0.16943896
20	0xbe7bd62f	-0.24593423
21	0x3e0fe494	0.1405204
22	0xbe5e5899	-0.21713485
23	0xbd0a4b5e	-0.033763282
24	0xbe9240cc	-0.2856506
25	0x3f18fb8a	0.5975882
26	0x3eb781ed	0.35841313
27	0x3e38301e	0.17987105
28	0x3e88cfd9	0.26721075
29	0xbd439662	-0.047750838
30	0x3eb27239	0.3485277
31	0x3d6e0d2b	0.058118027
32	0xbf115571	-0.56771
33	0xbe64bc7d	-0.22337528
34	0xbe72b82e	-0.23703071
35	0xbf09f86b	-0.5389468
36	0x3e1ce3e4	0.15321308
37	0x3e1d14c9	0.1533996
38	0xbd7fdd52	-0.062466927
39	0xbebb72ca	-0.36611015
40	0x3c8a3b8c	0.016874097
41	0xbe812d48	-0.2522986
42	0x3e533e78	0.20629299
43	0x3dc0bb69	0.09410746
44	0xbe7b46f0	-0.2453878
45	0x3ddab505	0.10679058
46	0x3da50494	0.08057514
47	0xbe870828	-0.2637341
48	0x3ede5d00	0.43430328
49	0xbe874d26	-0.26426047
50	0xbe084888	-0.13308918
51	0xbdf32014	-0.11871353
52	0x3ddb10f9	0.10696597
53	0x3dd7bdd0	0.10534251
54	0x3e988ba7	0.29794046
55	0xbd3cb8ba	-0.046074606
56	0x3e5aabb8	0.21354568
57	0x3ddc28f7	0.10750001
58	0xbde4ea91	-0.111775525
59	0xbec660b6	-0.3874566
60	0x3f2b9906	0.6703037
61	0xbb040e62	-0.0020150174
62	0x3ebd9284	0.37025845
63	0xbdb483cf	-0.08814203
64	0x3df2e5bf	0.11860227
65	0x3ea63a86	0.32466525
66	0x3e4e47db	0.20144598
67	0x3e0c7535	0.13716586
68	0xbe7c815c	-0.24658722
69	0xbe5b9a5c	-0.21445602
70	0x3da5d8dd	0.08098004
71	0xbeb087ed	-0.34478703
72	0x3deaf511	0.11472524
73	0xbeb2ee25	-0.34947315
74	0x3f07e573	0.53084487
75	0xbead025e	-0.3379087
76	0xbe40d502	-0.18831256
77	0xbe4bb741	-0.19894125
78	0x3e906915	0.2820517
79	0xbe5ee794	-0.21768028
80	0xbecf9d80	-0.4054985
81	0x3e1e7e80	0.15477943
82	0x3dd888c6	0.105729625
83	0x3ed48aa8	0.41512036
84	0x3e90a46b	0.2825044
85	0x3e66c004	0.22534186
86	0x3c11d7e3	0.008901569
87	0x3ebece47	0.37266752
88	0xbd696194	-0.056977823
89	0xbe2973d6	-0.16548094
90	0x3deb8646	0.1150022
91	0xbed12cf1	-0.408546
92	0x3de7c15b	0.113161765
93	0x3ed02e28	0.40660214
94	0x3e4cfbb0	0.20017886
95	0x3ecbcb5e	0.39803594
96	0xbe730aec	-0.23734635
97	0xbecd1325	-0.4005367
98	0x3e672155	0.22571309
99	0xbdd1e5a3	-0.10248878
100	0x3d0a5da0	0.033780694
101	0xbf322179	-0.69582325
102	0xbe179374	-0.14802343
103	0x3c7dd786	0.015493279
104	0xbdfa6bb4	-0.12227574
105	0xbc54d2eb	-0.01298974
106	0xbe779bb1	-0.24180485
107	0x3e004d12	0.125294
108	0x3dc9200a	0.09820564
109	0x3ee0932c	0.43862283
110	0x3c00f316	0.007870456
111	0xbe1759ca	-0.14780346
112	0xbd4ca9be	-0.049966566
113	0xbe74da55	-0.23911412
114	0x3e827233	0.25477752
115	0x3e6c504e	0.23077509
116	0xbbc24d22	-0.005929605
117	0x3e65ad42	0.22429374
118	0x3ece7571	0.40323976
119	0x3e48a0ad	0.19592543
120	0x3eb4ead9	0.35335425
121	0x3eed7f02	0.46385962
122	0x3e1ccbf8	0.15312183
123	0xbf15a549	-0.5845533
124	0xbdee136b	-0.116247974
125	0xbe62a6ef	-0.22133993
126	0xbdd8bb87	-0.10582643
127	0xbe200b90	-0.1562941
128	0xbd480942	-0.048836954
129	0x3e5e4e9a	0.21709672
130	0x3d9f176e	0.07768141
131	0xbed5430f	-0.41652724
132	0x3f11be36	0.56930864
133	0xbefb2823	-0.4905406
134	0xbefa8338	-0.48928237
135	0xbe3f8c77	-0.18705927
136	0x3ea8fecd	0.33006898
137	0x3e0d5176	0.13800606
138	0xbdff9851	-0.12480224
139	0x3dc57ac4	0.09642556
140	0xbea3e92e	-0.3201384
141	0xbe157ca3	-0.14598326
142	0x3dd5bc32	0.10436286
143	0x3e39a38e	0.18128797
144	0x3e4ffadf	0.20310543
145	0xbdb7b01d	-0.08969138
146	0x3e1a694e	0.15079233
147	0xbe59acd3	-0.21257333
148	0x3d22fdf2	0.039792962
149	0x3e8cb4b6	0.27481622
150	0xbeb65e4c	-0.35618818
151	0xbee6fd1f	-0.4511499
152	0xbe2d5922	-0.16928533
153	0xbe6f2ac9	-0.23356165
154	0x3e75435c	0.23951477
155	0xbeccd4e6	-0.4000618
156	0xbdb64fe6	-0.08901958
157	0x3c30ce7f	0.01079142
158	0xbeea9419	-0.45816115
159	0x3edbdd3f	0.42942235
160	0xbc041a26	-0.008062875
161	0x3ed5f4e3	0.41788396
162	0x3cfe88f7	0.03107117
163	0x3e3e9791	0.18612505
164	0x3e7301c6	0.23731145
165	0x3e70d5cb	0.23519056
166	0x3e21d382	0.1580334
167	0xbf1b7cde	-0.6073741
168	0xbee78792	-0.4522062
169	0x3e86e9ab	0.2635015
170	0xbe557e22	-0.20848897
171	0xbec33e40	-0.3813343
172	0xbe311dd1	-0.1729653
173	0x3e12a146	0.14319333
174	0xbd9cc6a4	-0.07655075
175	0xbe5fe5d0	-0.2186501
176	0xbdfc81c0	-0.12329435
177	0x3e19d1ce	0.1502144
178	0xbd29f7c1	-0.041496042
179	0xbea371fc	-0.319229
180	0x3ee543e2	0.44778353
181	0xbeaf01bf	-0.3418102
182	0x3d44825b	0.04797588
183	0x3dd5f301	0.1044674
184	0xbd8d47a1	-0.06898428
185	0x3deb3665	0.11484984
186	0x3eb4def6	0.35326356
187	0x3f0ac304	0.5420382
188	0x3ed6d0d4	0.41956198
189	0x3dd4dd34	0.10393754
190	0xbe8f0662	-0.27934557
191	0xbe7527e8	-0.23941004
192	0x3d3aa2df	0.045565482
193	0x3d841add	0.06450436
194	0xbef5e781	-0.48028186
195	0x3e86c4fe	0.26322168
196	0xbde0df86	-0.10980134
197	0x3e7fa167	0.24963914
198	0xbf2569be	-0.64614475
199	0x3da41325	0.08011464
200	0x3e4ba895	0.19888528
201	0x3d642c59	0.055706356
202	0x3d9aa423	0.07550838
203	0xbf0916af	-0.5355024
204	0xbd807181	-0.06271649
205	0x3e24164e	0.16024134
206	0xbdae56e7	-0.08512669
207	0xbeab4e8c	-0.33458364
208	0xbecc4d54	-0.39902747
209	0xbdee1942	-0.11625911
210	0xbeefa76f	-0.4680743
211	0x3eb2a932	0.3489471
212	0x3d1df005	0.03855898
213	0xbe6e141e	-0.23249862
214	0xbc2497ea	-0.010045985
215	0xbf062a3d	-0.524082
216	0x3e804249	0.25050572
217	0xbcb41967	-0.021984769
218	0x3c6cd70c	0.014455568
219	0x3dce365f	0.10068964
220	0x3d81fba1	0.063468225
221	0xbe0217e9	-0.12704434
222	0xbe853b9b	-0.26022038
223	0x3ececada	0.40389138
224	0xbe0ca54c	-0.13734931
225	0xbe6f040e	-0.2334139
226	0x3ddba121	0.10724092
227	0x3ede73a5	0.43447605
228	0x3f0e26d1	0.5552798
229	0x3e4385f2	0.19094065
230	0xbeec91b5	-0.46204916
231	0xbe7baf54	-0.24578601
232	0x3cfb3601	0.0306654
233	0xbec948db	-0.39313397
234	0xbe028edd	-0.1274981
235	0x3e8f2886	0.27960604
236	0xbd26af56	-0.040694557
237	0xbeade587	-0.33964178
238	0xbd4708a8	-0.04859224
239	0xbe60ab1f	-0.21940278
240	0x3f01cae9	0.5070024
241	0xbdf0cdd1	-0.11758006
242	0xbee71e28	-0.45140195
243	0x3ea2cdb4	0.31797564
244	0x3e2cf9c4	0.16892153
245	0x3e42a832	0.19009474
246	0x3e8cfd66	0.27537078
247	0xbd908cc1	-0.07058097
248	0xbda04d93	-0.07827296
249	0x3d8474f0	0.064676166
250	0x3e929f6b	0.2863725
251	0xbe277d41	-0.16356374
252	0xbf25700f	-0.6462411
253	0x3e7e97e9	0.24862637
254	0x3e6bb0be	0.2301664
255	0x3db997d5	0.09062163

fc.2.weight f4 [2, 16]
0	0xbebc5ea5	-0.36790958
1	0x3e1247a9	0.14285149
2	0xbf3d7712	-0.7400981
3	0x3e4921b0	0.19641757
4	0x3f168436	0.5879549
5	0x3d90b358	0.07065457
6	0xbde2bb55	-0.11070887
7	0x3f0f0190	0.5586176
8	0xbed50c74	-0.41611063
9	0xbd1dfeb3	-0.03857298
10	0x3e53145c	0.20613235
11	0xbe8350f7	-0.2564771
12	0x3e5872ca	0.21137539
13	0xbe3589a9	-0.17728294
14	0xbdad3da5	-0.084590234
15	0x3ec1d5f9	0.3785856
16	0xbe0872b0	-0.13325
17	0x3e6f7be8	0.2338711
18	0xbefd8684	-0.4951669
19	0x3e9abf34	0.30224
20	0xbf272412	-0.65289414
21	0xbebe2326	-0.3713619
22	0x3e85e9b2	0.26154858
23	0x3e70d02e	0.23516914
24	0xbebc1e71	-0.36741975
25	0xbead53b1	-0.33852914
26	0xbee84ad6	-0.45369595
27	0x3eb6ce0d	0.3570408
28	0xbedba32f	-0.42897937
29	0xbef02edc	-0.4691075
30	0xbdf4df2a	-0.11956628
31	0xbe896c92	-0.26840645

hidden_rnn.weight_ih_l0 f4 [48, 5]
0	0xbcf63b91	-0.0300577
1	0xbd7d7caa	-0.061886467
2	0x3dcb4d55	0.09926859
3	0xbeee76fc	-0.46575153
4	0x3d9a8bcf	0.075461976
5	0x3e4b2cce	0.1984131
6	0x3ecce3a0	0.40017414
7	0xbdafebb2	-0.08589877
8	0x3e44f001	0.19232179
9	0xbe9ebd5e	-0.3100385
10	0xbe9aabdf	-0.30209252
11	0xbe1c6e98	-0.15276563
12	0xbe6dd400	-0.23225403
13	0x3e71de1c	0.23619884
14	0xbe1feb1e	-0.15617034
15	0x3e1d3119	0.1535076
16	0x3ea1e601	0.31620792
17	0xbca69db8	-0.020338878
18	0xbe47dc80	-0.19517708
19	0x3ea3fb68	0.32027745
20	0xbe22c5d0	-0.15895772
21	0x3d9ae82b	0.07563814
22	0x3e119875	0.14218314
23	0xbe8191f3	-0.25306663
24	0xbdc57460	-0.096413374
25	0xbdb27a8b	-0.087147795
26	0x3ee06eec	0.43834627
27	0x3b971f3e	0.0046118787
28	0x3e4aa3ab	0.19788997
29	0x3e468521	0.19386722
30	0xbeb0d952	-0.34540802
31	0xbd145000	-0.036209106
32	0x3e3f825d	0.18702073
33	0x3e1c8007	0.15283214
34	0xbe806928	-0.25080228
35	0xbe083479	-0.13301267
36	0xbec25405	-0.37954727
37	0x3e8f878a	0.28033096
38	0xbdcd158f	-0.100138776
39	0xbe8b3010	-0.27185106
40	0xbe6340a3	-0.22192626
41	0xbdfd4ffd	-0.12368772
42	0x3e3fd6d3	0.18734293
43	0x3e44acfd	0.19206615
44	0xbe1b497c	-0.15164751
45	0xbdb95a04	-0.09050372
46	0x3cf71758	0.030162498
47	0xbe3e0c77	-0.18559442
48	0x3e329852	0.17440918
49	0x3d839cd4	0.06426397
50	0xbf0172f4	-0.5056603
51	0xbdf6799d	-0.12034915
52	0x3c0c5867	0.008565999
53	0xbd56eaa1	-0.052469853
54	0xbebeff68	-0.37304235
55	0xbe2c3b31	-0.16819455
56	0x3e25ef58	0.16204584
57	0x3efad31e	0.48989195
58	0x3d9273bf	0.07150983
59	0xbd27dc7a	-0.040981747
60	0xbea9006f	-0.33008143
61	0xbe95948c	-0.29214895
62	0x3e59ee8d	0.21282406
63	0xbe273734	-0.16329652
64	0xbeb71cd7	-0.3576419
65	0xbe079ca0	-0.13243341
66	0x3ea36324	0.31911576
67	0xbe820ed6	-0.25401944
68	0x3e84b2ee	0.25917763
69	0xbd2ddb2d	-0.04244535
70	0xbddbfd3b	-0.10741659
71	0x3e2e34dd	0.17012353
72	0x3ce5e7d7	0.028064651
73	0xbe063402	-0.13105777
74	0xbe4416f9	-0.19149388
75	0xbd19e64a	-0.037573136
76	0x3dcc2ae2	0.09969117
77	0x3dde025c	0.10840294
78	0x3d440250	0.047853768
79	0xbe828a39	-0.2549608
80	0xbe8d6322	-0.27614695
81	0xbe7bca38	-0.24588859
82	0x3ea8cba8	0.32967877
83	0xbf3007f7	-0.68762153
84	0x3d8566ff	0.065137856
85	0xbeaf484e	-0.34234852
86	0xbdb2f04d	-0.0873724
87	0xbe569fe4	-0.20959431
88	0x3e005500	0.12532425
89	0x3d24a630	0.04019755
90	0xbed549ef	-0.4165797
91	0x3c4202cb	0.011841486
92	0xbeb0c9e8	-0.34529042
93	0xbebb8403	-0.36624154
94	0xbe8032b8	-0.25038695
95	0x3deb0e38	0.114773214
96	0xbe8a1e49	-0.2697623
97	0xbf1b4aa0	-0.60660744
98	0xbf8930a5	-1.071797
99	0x3d9b8d36	0.07595293
100	0xbe2b1260	-0.16706228
101	0xbebb9329	-0.36635712
102	0x3d931259	0.07181234
103	0xbea527e7	-0.32257006
104	0xbe1f48a4	-0.15555054
105	0x3ebe5edd	0.3718175
106	0xbdb86e04	-0.09005359
107	0xbe42581b	-0.18978922
108	0x3e4db501	0.20088579
109	0x3e9ac67f	0.30229566
110	0xbe459727	-0.19295941
111	0xbe3da41b	-0.18519633
112	0xbdfe10bf	-0.12405538
113	0x3ebc449b	0.36771092
114	0x3e8a3474	0.26993144
115	0x3e619f01	0.22033311
116	0xbe3e3a0b	-0.18576829
117	0x3da01773	0.078169726
118	0xbe1eca05	-0.15506752
119	0x3e423ccb	0.18968503
120	0x3d44e0ad	0.04806583
121	0xbdaf751e	-0.0856726
122	0x3ea09e01	0.31370547
123	0xbf037470	-0.51349545
124	0x3d214e5d	0.039381374
125	0xbead72e1	-0.33876708
126	0xbc5b3a27	-0.013380564
127	0xbe4b6d9f	-0.19866036
128	0x3d921bda	0.071342185
129	0xbece0692	-0.40239388
130	0x3e3ec320	0.18629122
131	0x3f1474c2	0.5799066
132	0x3ebe118f	0.3712277
133	0xbece17da	-0.40252572
134	0x3c3d1e2c	0.011542838
135	0xbe2b30e0	-0.16717863
136	0xbe4cf0d8	-0.2001375
137	0xbe20e4e6	-0.15712318
138	0x3e5f8797	0.21829067
139	0xbea8e46b	-0.3298677
140	0xbed7f6cf	-0.42180488
141	0xbec25b54	-0.37960303
142	0x3dd1821c	0.102298945
143	0xbe5dfe7e	-0.21679112
144	0xbeefd38f	-0.46841094
145	0xbe74227c	-0.2384128
146	0xbf15cfc2	-0.5852014
147	0xbdc148db	-0.09437724
148	0xbe0bd724	-0.13656288
149	0xbf06b70d	-0.52623063
150	0x3d6e1780	0.05812788
151	0xbe1bb968	-0.15207446
152	0xbe9185af	-0.28422305
153	0xbf2aa3dd	-0.66656286
154	0xbdf8f4a6	-0.12156038
155	0xbe4f6615	-0.20253785
156	0x3f113511	0.567216
157	0x3eda608b	0.4265178
158	0xbf2921ee	-0.660674
159	0x3dd0ad76	0.10189335
160	0xbd576487	-0.052586105
161	0x3cc816ec	0.024424993
162	0x3c36ed03	0.011164906
163	0xbdb0afd4	-0.086272866
164	0x3de5ca41	0.112202175
165	0xbcec305e	-0.028831657
166	0xbe347b92	-0.17625263
167	0x3e34c403	0.17652898
168	0x3d83b342	0.06430675
169	0xbe4ef044	-0.20208842
170	0xbe3a3b61	-0.18186714
171	0xbd7ca41a	-0.061679937
172	0xbe539b43	-0.20664696
173	0xbd654622	-0.055975087
174	0xbde4464d	-0.11146221
175	0xbd8d8fe2	-0.06912209
176	0x3d196487	0.037449386
177	0xbe228ba1	-0.15873577
178	0xbd371528	-0.04469791
179	0x3e19582c	0.14975041
180	0x3d03e83d	0.0322039
181	0xbe402d05	-0.18767174
182	0xbcf1b8af	-0.02950701
183	0xbd4a633d	-0.049411047
184	0x3dbcc946	0.09218077
185	0x3d6601a8	0.056153923
186	0xbdfadb91	-0.1224891
187	0xbdc95542	-0.09830715
188	0x3e9c439c	0.30520332
189	0xbe1b8ff8	-0.15191638
190	0xbc80b069	-0.015709119
191	0x3ce215fa	0.02759837
192	0xbdcac497	-0.09900778
193	0x3cef960e	0.029246356
194	0xbd551b06	-0.052027725
195	0x3d916360	0.070990324
196	0xbe079a44	-0.13242441
197	0x3da3b96d	0.079943515
198	0xbda226ba	-0.07917543
199	0x3e43e54e	0.19130442
200	0xbe33df7f	-0.17565726
201	0x3cc74366	0.02432413
202	0x3b093999	0.0020938872
203	0xbe9a640f	-0.30154464
204	0x3e662154	0.22473651
205	0x3e9e8f63	0.3096877
206	0xbde9d2cb	-0.11417159
207	0x3e265edb	0.16247122
208	0x3db1badc	0.08678219
209	0x3ce0c404	0.027437218
210	0x3c62684f	0.013818814
211	0xbdfa7042	-0.12228443
212	0x3dad0f0a	0.08450134
213	0xbe40b6b8	-0.18819702
214	0x3e04ad22	0.1295667
215	0x3e038de4	0.12847096
216	0x3df283a2	0.11841513
217	0xbdd4d611	-0.103923924
218	0xbe61fe70	-0.22069716
219	0x3e05bbcd	0.13059922
220	0xbde7ab35	-0.11311952
221	0xbd807122	-0.06271578
222	0x3e002f41	0.12518026
223	0x3e1f598e	0.15561506
224	0xbbb07d79	-0.0053860513
225	0xbe4fd725	-0.20296915
226	0x3ddcfba4	0.10790184
227	0xbcddc00a	-0.02706911
228	0xbdbf809f	-0.093507044
229	0xbd16d857	-0.03682741
230	0xbd003257	-0.031298008
231	0x3e3896fb	0.18026344
232	0x3e18a9bd	0.149085
233	0xbe268c5e	-0.16264483
234	0xbd948e8d	-0.07253752
235	0xbe0b53f9	-0.13606252
236	0xbddde6d0	-0.108350396
237	0xbc6997e6	-0.014257407
238	0x3e5a73ec	0.21333283
239	0x3e46499b	0.19364016

hidden_rnn.weight_hh_l0 f4 [48, 16]
0	0x3e785b4d	0.24253578
1	0xbe329912	-0.17441204
2	0x3e2b42c2	0.16724685
3	0xbe06e40d	-0.13172932
4	0xbdd0d4f1	-0.10196865
5	0xbebabd86	-0.3647272
6	0xbeb05067	-0.34436342
7	0xbe2716d3	-0.163173
8	0x3e0237f1	0.12716652
9	0xbebc0d63	-0.36728963
10	0x3c6533ac	0.01398937
11	0x3e83255f	0.2561445
12	0x3dc23728	0.094831765
13	0xbca1767b	-0.019709816
14	0x3eae6e02	0.34068304
15	0x3d9221ac	0.07135329
16	0x3e7b09e5	0.24515493
17	0xbe8deaf9	-0.27718332
18	0xbe2130ea	-0.15741315
19	0x3d94a525	0.07258061
20	0xbb0db158	-0.0021620598
21	0x3e61dc47	0.22056685
22	0xbd09f981	-0.03368521
23	0x3ba635e1	0.005072341
24	0xbd18037f	-0.03711271
25	0x3eac0989	0.33601025
26	0x3e441737	0.19149481
27	0xbc998943	-0.01874221
28	0x3d99afe6	0.07504253
29	0x3e1f7135	0.15570529
30	0x3e145f94	0.14489585
31	0x3e2554d8	0.16145647
32	0xbe4ca60a	-0.19985214
33	0xbdcb53ce	-0.09928094
34	0x3bacebcc	0.0052771326
35	0xbca0b979	-0.01961969
36	0x3dc96a14	0.09834686
37	0x3e3e85ba	0.186057
38	0xbde42c97	-0.11141317
39	0xbe94aeaa	-0.29039508
40	0xbcf55de6	-0.029952
41	0xbe376257	-0.17908607
42	0xbd9d4e93	-0.076810025
43	0xbde50ed7	-0.11184471
44	0xbe80d8ec	-0.25165498
45	0x3d9db43a	0.07700391
46	0x3ce903e4	0.028444238
47	0x3eb14f5d	0.34630862
48	0xbe9a54bb	-0.3014277
49	0xbd1938f7	-0.03740784
50	0xbe1628e9	-0.14664043
51	0x3e8a4de3	0.27012548
52	0x3d847273	0.06467142
53	0xbeb81342	-0.35952193
54	0xbd058a06	-0.032602333
55	0xbdb24565	-0.08704642
56	0x3d6fe77e	0.058570378
57	0xbc23f5e5	-0.010007356
58	0x3d7c3fe6	0.061584376
59	0xbe827f11	-0.2548757
60	0xbea161d0	-0.31519938
61	0xbd97da98	-0.0741474
62	0x3ebab75c	0.36468017
63	0x3db9efbb	0.09078928
64	0xbe135e60	-0.1439147
65	0x3c9b1294	0.018929757
66	0xbcefcb16	-0.029271644
67	0xbecb5818	-0.39715648
68	0x3e0a1981	0.13486291
69	0xbe210399	-0.15724029
70	0xbe035e2c	-0.12828892
71	0xbe778b68	-0.24174273
72	0xbe36f256	-0.17865881
73	0xbd426d51	-0.047467533
74	0x3e4d1046	0.20025739
75	0xbd9da04b	-0.07696589
76	0x3de63b50	0.11241782
77	0x3e202780	0.15640068
78	0xbdb19cf0	-0.086725116
79	0xbd0e79b8	-0.03478405
80	0x3ecc88df	0.39948174
81	0xbdd3fc8c	-0.10350904
82	0xbe65d783	-0.22445492
83	0xbdab68d5	-0.083696045
84	0x3e1b517a	0.151678
85	0x3e397690	0.18111634
86	0x3d89de5a	0.06731863
87	0xbdd0fe08	-0.102047026
88	0x3ec7fdeb	0.39060912
89	0x3db9e41f	0.09076714
90	0x3de8a056	0.11358707
91	0x3e1bcd51	0.1521504
92	0xbe74fcba	-0.23924533
93	0x3eac8f7d	0.33703223
94	0x3de84dcb	0.11342963
95	0xbe1b7015	-0.15179475
96	0xbdb37820	-0.087631464
97	0x3e171e11	0.14757563
98	0xbeaa88f8	-0.33307624
99	0xbd60a0f3	-0.054840993
100	0x3d33985d	0.043846477
101	0x3ea19a6b	0.31563124
102	0x3d3689e9	0.044565115
103	0x3e48ce27	0.19609891
104	0xbe5142bc	-0.20435613
105	0xbe038f32	-0.12847593
106	0xbe97073f	-0.29497716
107	0xbec634c3	-0.3871213
108	0xbe8df1cf	-0.27723548
109	0xbd7af29a	-0.06126652
110	0x3dd93fc7	0.10607868
111	0x3e10c57a	0.14137831
112	0xbcb9660a	-0.022631664
113	0x3dbd58f2	0.092454806
114	0x3ca4fc11	0.020139726
115	0x3ddc2cad	0.10750709
116	0x3d5ce477	0.05392882
117	0xbd870a6b	-0.06593784
118	0x3d97d431	0.07413519
119	0x3e5c725d	0.21528001
120	0xbeed360f	-0.46330306
121	0xbe2f9a75	-0.17148764
122	0xbd7ca98e	-0.061685137
123	0xbe372b34	-0.17887574
124	0x3de49fca	0.1116329
125	0x3e0d34e7	0.13789712
126	0x3ebcf422	0.3690501
127	0x3ef1e177	0.4724233
128	0x3c94e573	0.018175816
129	0x3e84a76b	0.2590898
130	0xbcb45be3	-0.022016471
131	0xbebdc785	-0.37066284
132	0x3c192308	0.009346731
133	0x3e1701db	0.14746802
134	0xbdc5481e	-0.09632896
135	0x3e0e2df0	0.13884711
136	0xbe467619	-0.19380988
137	0x3d13ecf2	0.03611464
138	0xbe3a3221	-0.18183185
139	0xbea0a2ad	-0.31374112
140	0xbe5b0bd5	-0.21391232
141	0x3e405f36	0.1878632
142	0x3e9b5748	0.30340028
143	0x3e2283fc	0.1587066
144	0x3da06c2e	0.07833134
145	0x3e4819c0	0.19541073
146	0xbe76a016	-0.24084505
147	0xbe4b055e	-0.19826266
148	0x3e6984a8	0.2280451
149	0x3d5252e4	0.051348582
150	0x3d4c0336	0.04980775
151	0xbe8b65b7	-0.2722604
152	0xbb9060db	-0.0044060773
153	0xbdfd82e4	-0.12378481
154	0xbe1592eb	-0.14606826
155	0xbe6467bb	-0.22305195
156	0x3cedc445	0.029024253
157	0xbd465cb1	-0.04842824
158	0x3d6e630f	0.05819994
159	0x3e31bd5b	0.1735739
160	0x3d45605d	0.048187602
161	0x3e094c4a	0.13408008
162	0xbe2670ad	-0.1625392
163	0xbe511e1f	-0.20421647
164	0x3e3b1d1c	0.18272823
165	0xbd478eb9	-0.048720095
166	0xbeb783c1	-0.35842708
167	0x3e5f0f78	0.21783245
168	0xbd8cb7e4	-0.06871012
169	0xbe22244d	-0.1583416
170	0xbf0f1b1a	-0.5590073
171	0x3ce3db92	0.02781466
172	0xbdb993ec	-0.09061417
173	0x3c3213cd	0.010868979
174	0x3cc6e9a4	0.02428133
175	0x3e9c8d73	0.30576667
176	0x3daa763c	0.08323333
177	0xbdc3b9fa	-0.095569566
178	0xbea18c18	-0.31552196
179	0x3d586f6d	0.05284064
180	0xbd525a82	-0.051355846
181	0xbdd5b7f0	-0.10435474
182	0x3de50147	0.11181884
183	0x3e9e9ff1	0.309814
184	0xbe28c7d5	-0.1648248
185	0x3dc8c3f6	0.098030016
186	0xbe58434a	-0.21119419
187	0xbe86223e	-0.26198
188	0xbe9f9d78	-0.31174827
189	0xbd92d76a	-0.07169993
190	0x3ed6f67a	0.41984922
191	0xbdb72101	-0.08941842
192	0x3e9524d9	0.29129675
193	0x3dd32f8f	0.103118055
194	0xbd26a933	-0.040688705
195	0xbe8e9b7d	-0.27853003
196	0xbe869ee6	-0.26293105
197	0xbc2dc18d	-0.010605228
198	0xbd6589d8	-0.05603966
199	0xbd9ef421	-0.07761408
200	0x3e7288cf	0.23685001
201	0xbe8e28d7	-0.27765533
202	0xbeacdf25	-0.33763996
203	0xbe080b66	-0.13285598
204	0xbea4893f	-0.3213596
205	0x3ed10a77	0.40828297
206	0x3e98d4f8	0.29849982
207	0xbe81f9aa	-0.2538579
208	0x3d0c5ec3	0.03427006
209	0x3b3b8616	0.0028613857
210	0xbe93c721	-0.2886286
211	0xbe47e25d	-0.19519944
212	0xbde87b25	-0.11351613
213	0xbe25cf54	-0.1619237
214	0xbebe7cba	-0.37204534
215	0x3eb62071	0.35571626
216	0xbe780a42	-0.24222663
217	0xbea37664	-0.31926262
218	0xbdbee7cf	-0.09321558
219	0x3de4415e	0.1114528
220	0x3e947cc0	0.29001427
221	0x3b59b852	0.0033221436
222	0x3dae770a	0.08518799
223	0xbd1aec8d	-0.03782325
224	0xbe1bb7aa	-0.15206781
225	0x3d85ee28	0.06539565
226	0xbece4f9b	-0.4029511
227	0xbdfb0fae	-0.1225885
228	0x3d797360	0.060901046
229	0x3e4b2dfe	0.19841763
230	0x3e047720	0.12936068
231	0x3f1a0903	0.6017
232	0xbd9dd615	-0.077068485
233	0xbe8227cc	-0.25420988
234	0xbe373002	-0.17889407
235	0x3cfb75a8	0.030695751
236	0x3e0f7209	0.14008345
237	0xbe991eee	-0.2990641
238	0x3ed39ebc	0.41332042
239	0x3da33f4d	0.07971058
240	0xbe550fbd	-0.20806785
241	0x3d9ab95d	0.075548865
242	0xbe85a720	-0.2610407
243	0xbeef4dc1	-0.4673901
244	0xbe283071	-0.16424729
245	0xbcd4373d	-0.025905246
246	0xbe856c57	-0.2605922
247	0x3d46bcaa	0.048519768
248	0x3e6ec7b6	0.23318371
249	0xbe2c343b	-0.168168
250	0xbe55ed27	-0.20891248
251	0x3e148827	0.14505063
252	0xbe806694	-0.2507826
253	0x3bb7886e	0.0056009805
254	0x3e39b411	0.18135096
255	0xbdde681d	-0.10859702

hidden_rnn.bias_ih_l0 f4 [48]
0	0x3e8cdf81	0.2751427
1	0x3a39d0ca	0.0007088302
2	0xbdc56793	-0.09638896
3	0xbd97c5a5	-0.074107446
4	0x3e136ffb	0.14398186
5	0x3e0b4c8d	0.1360342
6	0x3e82130d	0.2540516
7	0x3e47c87e	0.19510075
8	0x3eabf11f	0.33582398
9	0x3e8bd52e	0.2731108
10	0x3d8b0766	0.067885205
11	0x3e9c39ff	0.30512998
12	0x3e10d900	0.14145279
13	0xbd1cf72b	-0.038321655
14	0x3db10774	0.08644
15	0x3e9f5787	0.31121466
16	0x3ecb95a7	0.39762613
17	0x3efe95a4	0.49723542
18	0x3e386d4f	0.18010448
19	0x3efb5b1d	0.4909295
20	0x3ef46602	0.47734076
21	0xbd655214	-0.05598648
22	0x3f0e7aef	0.5565633
23	0x3f3527b3	0.707637
24	0x3e7bd9b4	0.24594766
25	0x3f229e33	0.6352264
26	0x3ec0aa5c	0.37629974
27	0x3f51413c	0.81740165
28	0x3f12f9c1	0.57412344
29	0x3e522705	0.20522697
30	0x3e473da7	0.19457112
31	0x3ec85b3b	0.39132103
32	0xbd992936	-0.074785635
33	0xbe85cbc9	-0.26132038
34	0xbe0ce304	-0.13758475
35	0x3e332355	0.17493947
36	0x3d704da8	0.05866781
37	0x3dbb0af0	0.091329455
38	0x3e8afefa	0.27147657
39	0x3e902d53	0.2815958
40	0xbe650818	-0.22366369
41	0xbe54f27b	-0.20795624
42	0x3c207c01	0.00979519
43	0xbde049c1	-0.109515674
44	0x3bf129d8	0.0073597245
45	0xbb1f6db8	-0.0024326872
46	0x3e82998d	0.25507775
47	0x3e78cc6e	0.24296734

hidden_rnn.bias_hh_l0 f4 [48]
0	0xbdc4edb9	-0.096156545
1	0x3d6d0b22	0.057871945
2	0x3df38584	0.118907005
3	0xbc78ac6a	-0.0151778255
4	0x3e19b731	0.15011288
5	0x3e04a7c7	0.12954627
6	0x3d92add4	0.07162061
7	0x3dcb9c20	0.09941888
8	0x3ea30b0a	0.3184436
9	0x3c4ccfa6	0.012500679
10	0x3ea1f7ac	0.3163427
11	0xbd940a6d	-0.07228551
12	0xbe2416f6	-0.16024384
13	0xbddd0044	-0.10791066
14	0xbbb4996f	-0.005511455
15	0x3e9d52a6	0.30727118
16	0x3ebef27d	0.3729438
17	0x3e85fc1b	0.26168904
18	0x3ead36eb	0.33830962
19	0x3f185ed4	0.59519696
20	0x3eacba67	0.33735964
21	0xbe100b13	-0.14066724
22	0x3e9c25ff	0.3049774
23	0x3f142a1c	0.57876754
24	0x3e707974	0.2348383
25	0x3f18277c	0.5943525
26	0x3f13cad5	0.5773137
27	0x3f515d69	0.8178316
28	0x3f3d77bc	0.74010825
29	0x3ea3d332	0.31997067
30	0x3e4b51c5	0.19855411
31	0x3f23f53b	0.64046067
32	0x3cf02c12	0.02931789
33	0x3e415d3b	0.18883221
34	0xbc3c2c97	-0.01148524
35	0xbe0e21a8	-0.13880026
36	0x3de3bccb	0.11119994
37	0x3d315c27	0.043300774
38	0x3d166720	0.03671944
39	0xbe1917d1	-0.14950491
40	0xbe6b2d40	-0.2296648
41	0xbda7926d	-0.081822254
42	0x3dcb1375	0.099158205
43	0xbe1bff0b	-0.1523401
44	0x3df783a4	0.12085655
45	0x3d95668d	0.07294951
46	0x3e939c45	0.28830162
47	0x3d803b5b	0.06261321

exp_avg f4 [16, 7]
0	0x3c3705f0	0.011170849
1	0x3c8e69a5	0.01738436
2	0x3b3dbf08	0.0028952975
3	0x3c4e0993	0.012575525
4	0x3c1df3a2	0.009640606
5	0xbbe67136	-0.0070325388
6	0xbc863fc4	-0.016387828
7	0x3c1facb6	0.009745767
8	0x3b965a40	0.0045883954
9	0xba4ac951	-0.0007735687
10	0x3bb69b16	0.005572687
11	0x3c009b42	0.007849516
12	0x3a269315	0.00063543144
13	0x3aa8fd3e	0.0012892855
14	0x3b6e6f6b	0.0036382328
15	0x3bda98f5	0.006671066
16	0x3b152b50	0.0022761412
17	0x3a7ba06f	0.00095987966
18	0x3b46c20a	0.0030328059
19	0xbad0e6ff	-0.0015937983
20	0xbb2c37c2	-0.0026278351
21	0x3b93daeb	0.004512181
22	0x3bcad88a	0.0061903642
23	0x3c029950	0.007971123
24	0x3bce495e	0.006295367
25	0x3b0922f1	0.0020925368
26	0x3c0e4802	0.00868416
27	0xbbc860ed	-0.00611507
28	0xbb49de1c	-0.0030802554
29	0xbbd10a50	-0.006379403
30	0xbbc41ef9	-0.0059851375
31	0xbacc274a	-0.0015575674
32	0xbbb3645c	-0.0054746103
33	0xb9ddb1ab	-0.00042284778
34	0xbc17536f	-0.009236201
35	0x3a35ad17	0.00069303944
36	0xba623aeb	-0.0008629995
37	0xb9dc905e	-0.00042069232
38	0x3921f923	0.00015446967
39	0x39ddcec4	0.00042306457
40	0x393ddc1a	0.00018106439
41	0x3b2729ee	0.002550717
42	0x3c8ae11f	0.01695305
43	0x3c55bea2	0.013045939
44	0x3a43ad10	0.0007464448
45	0x3c2be3b1	0.010491298
46	0x3c51917a	0.012791032
47	0x3c210eba	0.009830171
48	0xbc36efd3	-0.011165577
49	0x3bb122f8	0.00540578
50	0xbb132d8b	-0.0022457566
51	0xbbe8255a	-0.007084531
52	0xba58a1f7	-0.0008263881
53	0x3bf89a36	0.0075867428
54	0x3b4640e3	0.0030251078
55	0x3cab578f	0.020915775
56	0xbbb47cd8	-0.0055080466
57	0xba472dd2	-0.00075980753
58	0x3b56adc1	0.0032757374
59	0xba9c2419	-0.0011912613
60	0xbbc44c15	-0.005990515
61	0xbb5c4af1	-0.0033614004
62	0xbb6cd1ec	-0.0036135865
63	0x3bbd7285	0.005781474
64	0x3bbd56c8	0.0057781674
65	0xb9aff19a	-0.00033558608
66	0x3b1b2bb2	0.0023677167
67	0x3bbd6872	0.005780273
68	0x38bdaaa4	9.0440066e-05
69	0xbbc82e7b	-0.0061090565
70	0x3ada7bf2	0.0016669019
71	0x3b154a7c	0.0022779992
72	0x3ae1b85b	0.001722108
73	0xb7defe2b	-2.6582818e-05
74	0x3a5fafb0	0.00085329544
75	0xba1c79f8	-0.00059691025
76	0xbb091e45	-0.0020922583
77	0xbba8a7ed	-0.0051469714
78	0xbc7bdafd	-0.015372035
79	0xbc948361	-0.018129053
80	0xbc03d785	-0.008046989
81	0x3bc75cc1	0.006084055
82	0xbbdb9741	-0.0067013805
83	0xb97eb8c2	-0.00024292155
84	0x3b3fe7bf	0.0029282419
85	0xb9a8a68e	-0.0003216755
86	0xbc639b42	-0.013891997
87	0xbb44ec7f	-0.003004819
88	0x3c2f8367	0.010712481
89	0x3bb73fb5	0.0055923113
90	0x3c60b245	0.013714378
91	0x39f175b9	0.00046054812
92	0x3a3911c1	0.00070598355
93	0xb98bc417	-0.00026658244
94	0x39fd6885	0.00048333794
95	0x3a15cf97	0.0005714832
96	0xbaa74c9a	-0.0012763918
97	0x382f916d	4.185869e-05
98	0xbb842c30	-0.004033588
99	0xbbc76917	-0.0060855257
100	0xbc20f62a	-0.009824315
101	0xbaba20bd	-0.0014200431
102	0xbadd9f9f	-0.0016908533
103	0xbb5483f6	-0.0032427288
104	0x3bd3a26b	0.0064585707
105	0xbc9c8b2e	-0.019109335
106	0xbc57bb50	-0.013167217
107	0xbacf730d	-0.0015827134
108	0xbc5a6af1	-0.013331161
109	0xbc9727fb	-0.018451681
110	0xbb8359d5	-0.0040085115
111	0x3bdd552f	0.0067545394

exp_avg_sq f4 [16, 7]
0	0x3a61f144	0.000861902
1	0x3ae60aeb	0.0017550861
2	0x3a4701bf	0.0007591508
3	0x3a9b1afe	0.0011833606
4	0x3a8c1949	0.0010688688
5	0x3ab165af	0.0013534332
6	0x3a29095e	0.0006448234
7	0x3a639806	0.0008682016
8	0x3a1f148b	0.000606843
9	0x3a27436c	0.0006380591
10	0x3a214b79	0.0006152909
11	0x3a5cb025	0.00084185816
12	0x3a3e8e51	0.00072691316
13	0x3a790743	0.0009499678
14	0x397445e9	0.00023295697
15	0x3a06b840	0.000513915
16	0x39d34350	0.00040295208
17	0x399c2e5e	0.00029789185
18	0x398a4f0a	0.000263803
19	0x3a6f7029	0.00091338396
20	0x398fb135	0.00027407115
21	0x3aa9f041	0.0012965278
22	0x3ae1efb3	0.0017237574
23	0x3ad2ced0	0.0016083363
24	0x3a92ed5f	0.0011209658
25	0x3ac4a782	0.0015003534
26	0x3b223248	0.0024749208
27	0x3a9cb439	0.0011955566
28	0x3ab1680b	0.0013535036
29	0x3ac3b5b6	0.0014931473
30	0x3abc1c9c	0.0014351788
31	0x3ab8e0b6	0.0014105055
32	0x3ac0bf9f	0.0014705545
33	0x3b35dc0a	0.0027749562
34	0x3abe7001	0.0014529229
35	0x386cc788	5.6452613e-05
36	0x38656262	5.468948e-05
37	0x382fc9af	4.1911084e-05
38	0x3896e580	7.195305e-05
39	0x3885405e	6.3539235e-05
40	0x38f5127e	0.00011685955
41	0x388da30b	6.753773e-05
42	0x3ade5a1f	0.0016964114
43	0x3add9984	0.0016906713
44	0x3ae8baba	0.0017755844
45	0x3abac09b	0.0014248075
46	0x3ad5110a	0.0016255688
47	0x3b110f68	0.0022134427
48	0x3a1c3a0d	0.0005959578
49	0x3a714166	0.00092031655
50	0x3a9eb6bb	0.0012108901
51	0x3a7573bc	0.0009363254
52	0x3a717e6a	0.00092122576
53	0x3a8efe63	0.0010909553
54	0x3b6a59e5	0.0035759148
55	0x3b304b29	0.0026900268
56	0x397f99f2	0.00024376044
57	0x393f303f	0.00018233153
58	0x391e0ce3	0.00015072855
59	0x39570415	0.00020505518
60	0x39805c32	0.00024482753
61	0x398e83af	0.00027182463
62	0x3987de11	0.0002591466
63	0x39b2852d	0.0003405003
64	0x39f9c31a	0.00047638343
65	0x39976697	0.000288774
66	0x39d6b803	0.0004095436
67	0x39d7a301	0.00041129443
68	0x3a244177	0.00062658585
69	0x3989f407	0.0002631249
70	0x38a0b0ab	7.6623015e-05
71	0x38a73c4d	7.9744124e-05
72	0x38ab983c	8.182271e-05
73	0x38a1491f	7.690698e-05
74	0x387151aa	5.7534933e-05
75	0x38a66dcb	7.935947e-05
76	0x37eab93c	2.798123e-05
77	0x3b16d558	0.0023015346
78	0x3b2c66a3	0.0026306293
79	0x3b5c83c0	0.0033647865
80	0x3b0f57fe	0.0021872516
81	0x3b0c9977	0.0021453777
82	0x3b2e19f7	0.002656577
83	0x3a8db556	0.0010811489
84	0x3a4af12c	0.0007741626
85	0x3a81112e	0.0009847039
86	0x3a8b545a	0.0010629997
87	0x3a38368d	0.00070271717
88	0x3a607e39	0.00085637305
89	0x3a827cfb	0.000995546
90	0x3a88fc1d	0.0010451112
91	0x37b9df03	2.2157566e-05
92	0x37bf526b	2.2807353e-05
93	0x36f597d2	7.319243e-06
94	0x37bd440a	2.2562239e-05
95	0x37a07277	1.9126788e-05
96	0x381821c7	3.627108e-05
97	0x3729398f	1.0086586e-05
98	0x398b40b8	0.00026560365
99	0x39b38dbe	0.00034247147
100	0x39cb02dc	0.00038721308
101	0x396c34ad	0.00022526337
102	0x398c5e9f	0.0002677338
103	0x39c050d0	0.00036681304
104	0x3948295d	0.00019088895
105	0x3ab8ba88	0.0014093677
106	0x3aa462bf	0.0012541636
107	0x3a9f4004	0.0012149815
108	0x3a8b760c	0.0010640039
109	0x3ab7b9bc	0.0014017145
110	0x39de15ad	0.0004235929
111	0x3a5818a8	0.000824342

exp_avg f4 [16, 16]
0	0x3b41c8fe	0.0029569264
1	0xbc06de96	-0.00823178
2	0x3bf2b529	0.00740685
3	0xbba48715	-0.005020986
4	0x3c0001f6	0.0078129675
5	0xbb61f8f8	-0.0034480672
6	0xbc029bd9	-0.007971727
7	0xbc11510a	-0.008869419
8	0x3bbb4734	0.005715275
9	0x3b32e65e	0.0027297954
10	0x3bdb4afd	0.006692289
11	0xbb37ca2e	-0.0028044092
12	0xbc538d82	-0.012912156
13	0x3be7de75	0.0070760795
14	0x3b5639c6	0.0032688244
15	0x3b686c9c	0.0035465127
16	0xbb2189eb	-0.0024648856
17	0xbb21ce87	-0.002468975
18	0xbb3f367e	-0.0029176767
19	0x3b1a6bbc	0.002356275
20	0xbac975ca	-0.0015370187
21	0x3b25ab3c	0.0025279066
22	0xba87f1c8	-0.0010371739
23	0x3b5bd3af	0.0033542921
24	0x3a1ffd89	0.00061031483
25	0xbb60a828	-0.0034279916
26	0xbb32099b	-0.002716637
27	0xbac9c6fe	-0.0015394387
28	0x3aac79b9	0.0013158835
29	0xbb453544	-0.0030091563
30	0x39fa0327	0.00047686064
31	0xbb2c8673	-0.0026325255
32	0xb88b38c2	-6.6386085e-05
33	0xbb2b3b11	-0.0026127736
34	0x3a0bb288	0.00053290324
35	0xba9301e1	-0.001121577
36	0x3a462d69	0.0007559867
37	0xb9fb5d46	-0.00047943945
38	0xbac3cd60	-0.0014938526
39	0xba4d5d5a	-0.000783404
40	0x3ad9ef95	0.0016627187
41	0xb9cc3251	-0.000389474
42	0xb76f28bf	-1.4254997e-05
43	0xba86c355	-0.0010281602
44	0xbb0a6811	-0.0021119157
45	0x39f6cf5c	0.0004707527
46	0x3a388cd9	0.0007040031
47	0x3a366430	0.0006957678
48	0x3ba5ce96	0.0050600274
49	0xbb4f7e2e	-0.0031660902
50	0x3bd55fd7	0.006511669
51	0xbb31d0e7	-0.0027132572
52	0x3a1f2cce	0.0006072045
53	0xbb991075	-0.0046711513
54	0xbb0a240c	-0.0021078615
55	0xbbcc7dbd	-0.006240575
56	0x3b9dac13	0.0048117726
57	0x3b42b54c	0.0029710112
58	0x3bd273b2	0.0064224834
59	0xbb5fcdc7	-0.0034149752
60	0xbbc941b1	-0.006141864
61	0x3bcab2dc	0.0061858725
62	0x3896792b	7.175127e-05
63	0xbb1b4a9d	-0.0023695596
64	0xbaad5348	-0.0013223672
65	0x3bd6acd3	0.006551364
66	0xbb24cda9	-0.0025146997
67	0x3bda5d93	0.006663987
68	0x3a5c490e	0.000840322
69	0x3b4e8182	0.0031510298
70	0xbb1b563c	-0.0023702523
71	0x3b19a759	0.0023445694
72	0xbb7dc595	-0.0038722504
73	0xbb602599	-0.0034202097
74	0xbb59b4d9	-0.0033219366
75	0xbae8ecb8	-0.0017770743
76	0xbb1fc317	-0.0024377757
77	0xbb627849	-0.0034556559
78	0xbad78775	-0.0016443568
79	0x3b549964	0.003244006
80	0x39117ca2	0.00013874707
81	0xba52e0bd	-0.0008044353
82	0x391c0e6f	0.00014882696
83	0xba3e342e	-0.00072557
84	0xb911ce2a	-0.0001390508
85	0xb9ba71f5	-0.0003556159
86	0x3a3bd04d	0.0007164523
87	0x384ceada	4.8856113e-05
88	0x3943ebf4	0.00018684549
89	0x39b8fe6f	0.00035284783
90	0x39998ce9	0.0002928742
91	0x3a3ba724	0.000715839
92	0x3a7559b1	0.00093593734
93	0x3984e1f9	0.00025345365
94	0x39bf56f0	0.00036495132
95	0xba116991	-0.00055470417
96	0x3b8e0da3	0.0043351217
97	0xbb4c82c3	-0.003120587
98	0x3bdc396c	0.0067207124
99	0x3b304df2	0.0026901928
100	0x3b5935d6	0.003314366
101	0xbb6f7c38	-0.0036542546
102	0xbb4a0a2a	-0.0030828812
103	0xbbd00e13	-0.006349334
104	0x3bbf1e7d	0.005832492
105	0x3ab766bd	0.001399241
106	0x3bcd980a	0.006274228
107	0xbb840c2e	-0.0040297722
108	0xbc36d0bf	-0.011158167
109	0x3bbd96e1	0.0057858084
110	0xb98eee25	-0.00027261782
111	0xbbbdf7df	-0.005797371
112	0x3b9847fd	0.0046472535
113	0xbba700a8	-0.005096514
114	0x3bf68d77	0.007524188
115	0xbbca3d67	-0.0061718705
116	0x3b522993	0.0032068237
117	0xbbeddbc3	-0.0072588637
118	0x3bef8959	0.0073100743
119	0xbbb54c81	-0.0055328016
120	0x3b6b38ba	0.0035891966
121	0x3c0b01b6	0.008484295
122	0x3c1a53b6	0.009419372
123	0x3c115b4d	0.008871865
124	0x3ba40828	0.005005855
125	0x3c10965f	0.008824914
126	0x3ac0b649	0.0014702763
127	0xbc0196f7	-0.007909528
128	0xb964a88b	-0.00021806562
129	0x39c8d0bf	0.000383025
130	0xb9f4c538	-0.00046686246
131	0xbab4b5cc	-0.001378709
132	0x39a023a3	0.0003054413
133	0x393deb96	0.00018112207
134	0xbaa5d40f	-0.0012651699
135	0xb9a61edc	-0.0003168498
136	0xba2dbeab	-0.0006627838
137	0xb8359a81	-4.3297656e-05
138	0xba29928d	-0.0006468676
139	0xba1bdf25	-0.0005946032
140	0xba4a9a54	-0.0007728685
141	0xb9896ea3	-0.00026213107
142	0x398302bf	0.00024988313
143	0x3b717c6f	0.003684785
144	0x3ba3867e	0.004990398
145	0xbb9d3552	-0.004797616
146	0x3c09b598	0.008405112
147	0xbb96a91d	-0.0045977966
148	0x3baae203	0.005214931
149	0xbbb885e6	-0.0056311963
150	0xbb1e3104	-0.0024138102
151	0xbc0b9d49	-0.008521386
152	0x3b9a147c	0.004702149
153	0x3b9df8b9	0.00482091
154	0x3bf4c321	0.0074695502
155	0xb990d3ac	-0.00027623528
156	0xbbf25985	-0.0073959255
157	0x3c06f57a	0.008237237
158	0x3aa2bbfc	0.0012415643
159	0x39f6ef6a	0.00047099154
160	0x3a65396e	0.00087442144
161	0xba8d1224	-0.0010762853
162	0x3af0750a	0.0018345427
163	0xbad29a1e	-0.0016067659
164	0x3a76fb69	0.00094216183
165	0xbaa4585e	-0.0012538543
166	0xba957f53	-0.0011405743
167	0xbb0a74c9	-0.0021126738
168	0x3abd6436	0.0014449421
169	0x3a435a20	0.00074520893
170	0x3ac168cf	0.0014755967
171	0xba727ef5	-0.00092504855
172	0xbb16b568	-0.002299631
173	0x3afafdfd	0.0019149181
174	0x39faf536	0.00047866412
175	0x3a6e682f	0.0009094504
176	0xbb67ab1e	-0.0035349797
177	0x3c0be0be	0.008537469
178	0xbb85bb17	-0.0040811407
179	0x3c07b3b5	0.008282592
180	0x3b056ba9	0.002035836
181	0x3b886967	0.0041629556
182	0x3a45f913	0.00075520686
183	0x3b9710fc	0.004610179
184	0xbbd64e54	-0.006540099
185	0xbb877bfa	-0.004134652
186	0xbb78a7f0	-0.0037941895
187	0x3b1e05c8	0.0024112333
188	0x3bc5e4b5	0.006039227
189	0xbbac0109	-0.005249147
190	0xbb178a5e	-0.0023123245
191	0xbaa1b4f7	-0.0012337257
192	0x3b316a5c	0.0027071452
193	0xb9dd9723	-0.0004226501
194	0x3badfe4e	0.0053098565
195	0xbadc2fe9	-0.0016798946
196	0x3b261288	0.0025340635
197	0xbb83fead	-0.0040281625
198	0x3bb53d68	0.005531002
199	0xbb51beef	-0.0032004674
200	0x3ae41602	0.0017401578
201	0x3ba9ac56	0.0051780147
202	0x3bc50876	0.0060129715
203	0x3be964b6	0.0071226014
204	0x3b5e4df2	0.003392097
205	0x3bab5a14	0.005229244
206	0x3a17df57	0.0005793473
207	0xbc0f8cd7	-0.008761606
208	0xb9163fd5	-0.00014328894
209	0xba4ebb05	-0.00078861444
210	0x392ae0e5	0.00016296243
211	0xba0bbf01	-0.0005330891
212	0x3a0bde5b	0.0005335563
213	0x36c8e989	5.9876515e-06
214	0xb9831816	-0.00025004213
215	0xb9a4e9b4	-0.0003145464
216	0x3987bf9b	0.00025891964
217	0x3988b309	0.00026073333
218	0x3989d9f9	0.0002629308
219	0x39d96650	0.00041465694
220	0xb8b45145	-8.5982065e-05
221	0x39cfa954	0.00039608276
222	0x39cc7666	0.00038998126
223	0x39afc05e	0.00033521926
224	0xba9341f9	-0.0011234871
225	0x3ae3aa0c	0.0017369404
226	0xba257ca7	-0.0006312825
227	0x3949e84f	0.00019255395
228	0x3a97ea64	0.001159024
229	0x3a0f3ada	0.00054637867
230	0x3b016441	0.0019743594
231	0x3a9a8c85	0.0011791146
232	0xbb23db0e	-0.0025002393
233	0x3a2d03e6	0.0006600007
234	0xb8415a81	-4.6099074e-05
235	0x3b8a2560	0.004215881
236	0x3ba86554	0.0051390324
237	0xba4d88ba	-0.0007840503
238	0xb966f7eb	-0.00022026866
239	0xbaa3f524	-0.0012508971
240	0xba9ca222	-0.0011950175
241	0x3bbb5434	0.005716825
242	0xbb4c0a9b	-0.003113425
243	0xbaed5227	-0.0018106148
244	0xbb1c186c	-0.0023818268
245	0x394bfbca	0.00019453387
246	0x3b8cafd0	0.0042934194
247	0x3b2c9eb7	0.0026339719
248	0xbba08565	-0.0048987144
249	0x3a9db267	0.0012031317
250	0xbb44a9e4	-0.003000849
251	0x3b71a118	0.00368697
252	0x3bfa0461	0.0076299165
253	0xbb2030fb	-0.0024443257
254	0xbafeb970	-0.0019433927
255	0x3b4cfcd0	0.0031278618
