ckpt/asrnn_diff_h16/best.pth (torch_old, 19456 bytes, 28 tensors)

rnn.weight_ih_l0 f4 [16, 7]
00000000: c2e4 f3bd 3963 7abd 50ef 8a3d 407f ecbc
00000010: 116a 79be 71d4 4f3e b386 b0bd a265 f5bd
00000020: 0405 09bd 23ef 57be d9fa a43d 5286 fdbd
00000030: 5e2b 193e 0b7c 803d 8c3f 52be 1037 d73d
00000040: 2ba8 b5bd d076 c23d cdbe 6aba 4eec 993e
00000050: d93e 323d 1981 683e 2b40 9fbd c24d 223d
00000060: 2b54 1e3e c3f4 12be 8327 3b3e f622 9fbe
00000070: 9db2 7abd bc5d c5bd c3a7 26be 9633 8fbc
00000080: fa31 36bd d644 18be db8a cfbd 2909 0a3e
00000090: e198 3fbe d815 bcbd a571 053e 41b3 93bd
000000a0: 34a4 7b3e 6d2a b4bd 6d21 4e3e 9982 f23a
000000b0: 0689 8e3d 9e19 1e3e 50e1 06bd d211 91bd
000000c0: 7428 a33e 8fbf 413e c160 4b3d 51a3 b03d
000000d0: 50f3 febc 9839 f23d 38fe 623e 82b4 733e
000000e0: 4aa3 713d 2540 c7bc 10f1 873e f25d 593c
000000f0: 42fb fb3d 32b4 2fbd 622f bbbd 03a3 05bc
00000100: 1f99 2f3e 6b81 a2bd 4d77 513e 9462 093e
00000110: a619 cbbc 4c6c 013e 9544 c33d e18d eabd
00000120: 03ad a1bd e592 0c3e b232 643e 3f34 703e
00000130: 58d5 d33d 029a f23b 66db 8fbd 14ab 27be
00000140: 35af bf3d fbcd bebd 967b 1fbe 11d9 8d3e
00000150: 88d9 53bd 99d2 b1bd 9def c43d ece5 34bd
00000160: c057 1dbe f9d8 d5bd ddb6 a93e 7f19 4a3d
00000170: a1b8 913d c9f2 9dbd 87bb c2bd 99f0 023e
00000180: 51ed 2dbe e998 9fbe 0454 e2bd b488 a1bd
00000190: a18a 6abd 9196 8f3e 19dd e13d 88fe ad3c
000001a0: ca17 73bc 4cbd 953d 36d2 39be 3d65 d03d
000001b0: 42bd 343e 34bb d7bd 08e9 13be 10e6 1cbe
-0.119088665 -0.061129782 0.067839265 -0.028869271 -0.24356867 0.20295884 -0.08619442 -0.119822755
-0.03345205 -0.21087317 0.08055658 -0.12379135 0.1495795 0.06273659 -0.20532054 0.10508549
-0.08869966 0.09495318 -0.0008954823 0.300631 0.043516967 0.22705497 -0.07775911 0.039624937
0.15461795 -0.14351182 0.18276791 -0.3108136 -0.061205495 -0.09637019 -0.16274934 -0.017480653
-0.044481255 -0.14870009 -0.101339065 0.13480057 -0.18710662 -0.09183854 0.13031633 -0.07211924
0.24574357 -0.087971546 0.20129938 0.0018502056 0.06959729 0.1543946 -0.03292972 -0.07083477
0.318668 0.1892073 0.04965282 0.086249 -0.03112188 0.118273914 0.2216729 0.23799327
0.058993615 -0.024322579 0.26551104 0.013267027 0.12303783 -0.042896457 -0.09139897 -0.008156541
0.17148255 -0.07934841 0.20455666 0.13416511 -0.024792504 0.12638968 0.09534565 -0.114528425
-0.078943275 0.13727911 0.22284964 0.2345743 0.103434265 0.007403613 -0.07024269 -0.16373855
0.0935959 -0.093166314 -0.15574488 0.2770467 -0.051721126 -0.086827464 0.09616015 -0.044164583
-0.15365505 -0.10441775 0.33147326 0.04934072 0.07115293 -0.07712323 -0.09508424 0.12787093
-0.1698506 -0.3117135 -0.11051181 -0.07887402 -0.057261113 0.2804456 0.11028499 0.021239534
-0.014837215 0.07311496 -0.18146595 0.1017556 0.17650321 -0.10533753 -0.14444363 -0.15322137

rnn.weight_hh_l0 f4 [16, 16]
00000000: d8be 4e3d b639 cbbd 2e37 933e ef16 dd3c
00000010: 675e 5c3e 350e 0dbd 7ede ac3d a4ff 7f3e
00000020: 2b14 733d 60e0 eb3c 778a 8b3d f517 643e
00000030: b554 e8bd 36eb 11be 111e 9d3d 3428 0bbe
00000040: 60cb 68be 3686 b33e dcf4 3a3e 6b26 0bbd
00000050: 9420 6ebe bb03 a13e a833 73bd d5ef 733e
00000060: 75e0 4abe b006 87be 3180 493d 5b98 46be
00000070: ec52 d53d 6812 0e3e 86dc f5bd 2a75 6e3d
00000080: ff42 563e b647 04be 35f5 083e 557e 96be
00000090: 4687 8a3e 8df1 213e 9042 a93d c307 8fbd
000000a0: b9a2 093e a319 a33d 60c5 42bc 9952 c63d
000000b0: 79d5 873e 6e60 893c 0889 82bc bbe7 ebbd
000000c0: a776 eb3c 44ba 28be 1cd2 99bc 59fb 943e
000000d0: 12fe 253e cbb4 f1bc f4c5 7bbd 4b55 f53d
000000e0: 7583 893e 40cc 47bd a864 20be 468a 46bd
000000f0: 2a4f 373e fa2a 103d 9de6 d73d ce48 87bc
00000100: 61b1 163e 1b9e 30bd 68d7 f63d 374a a73d
00000110: aaf5 763e 817c 683d ea45 363e 2694 23bd
00000120: afe9 6c3e 6b70 173c 96f0 493d b434 193e
00000130: b361 173e 1e3b c93e 3421 55be a985 9a3d
00000140: 930c 40be dd02 663e f4ee 2dbd 33c0 52be
00000150: f602 87be 45d2 143d 732b b63d 074a edbd
00000160: c42f 863d e75a 9abd 9a29 59bc 0506 d83d
00000170: f7ee 223e 824a 413e f3cf 5e3e a921 3dbe
00000180: e514 6a3e 5bed 303d ffaf 603e 8794 6ebe
00000190: 00fe 973e 74aa 00be 4552 053d 0b30 533e
000001a0: d97e 5cbe ae04 9abd d3f1 703d 9a85 6c3e
000001b0: 2272 e63d ca24 02be 0d38 3ebd 115d 84be
000001c0: 65e5 41be 9ed6 813e dbdc 9abe f6a5 e63d
000001d0: 8610 e5bc c936 4b3e e775 83bd 5a2d 373e
000001e0: 0916 dbbd 3d62 a43d b0dd 023e 2562 353d
000001f0: 248a 1a3e 8123 1cbe 0b69 31bd ed79 0bbe
00000200: 1650 8bbc e034 873d 0d01 183e b8ba febc
00000210: 2a89 f23c ad0d 9abd 814d 8e3e a86f 1f3e
00000220: 83d6 ddbd a15c e63d b8b8 173d 6ede d13d
00000230: 79d6 9a3e 436d 283e 7937 1a3d 6028 dabe
00000240: 2a2e a8bd 450d c8bd c767 acbd 3f00 87be
00000250: 48ab a1bd 41bb c13d c78e 26bc 16ee fcbd
00000260: 0d99 90be 3c8d 793e 2634 36bd 2ade ba3d
00000270: 8bcc 943e 68ce c73d 8840 8fbd 20d9 683d
00000280: e2c0 553e e970 2dbe 4a5e c73d 4057 8f3e
00000290: 22db e73d 93c9 1cbe 50fa 32bd 14e7 1fbe
000002a0: b6af 28be 0be5 473e 4e25 0fbe 0151 853d
000002b0: 844f a03a 0275 59bd 47bc a23e 62c4 983e
000002c0: e16b bcbd 3c1b b13c 642e 753d 2cbc 463e
000002d0: b64e 023e 3ce8 31be 3d29 543e eee2 b0bc
000002e0: 8836 30be 4c73 3e3e 367c 76bc 8e48 52be
000002f0: 5deb 5a3d 8266 b63d 4e68 313e 6f9d 32be
00000300: c170 8dbe 032e 483d c19d a5be 97b7 2dbe
00000310: ff49 15be 0a85 ac39 6cfd c4bb 68f3 c73e
00000320: c218 263e f792 d9bd bcc7 ffbd c717 383e
00000330: 9cc0 80bd c00b 1e3e d2fc bd3d 77be 21be
00000340: 1b07 543e b93e 64be 46fb e3bb fc06 8c3d
00000350: c9f8 a4bd 4395 3abe ab43 913e b366 7e3e
00000360: 5844 9b3e 7127 4e3e 805f 6bbd 6680 4abe
00000370: fd3a 63be c179 b93d cb39 fc3d 4108 9fbd
00000380: cde8 5cbd 28b8 a13d 45f2 febd c2de febd
00000390: 47c4 1b3d 72a8 b63b e040 11be 59a0 e53d
000003a0: a284 af3d 4e7e 1cbe 589b a13d edd2 f63d
000003b0: cf61 9bbe 7bb2 1e3e ca66 5fbe 7f36 043d
000003c0: a848 01be 1b5c 01bd 8e46 37bd bed8 09be
000003d0: f582 fbbc cfb3 7cbe ba32 79be e07e 8a3c
000003e0: d03a 3a3e ecdd a4bd 37a0 103e 2700 223e
000003f0: b4c7 29be 96f4 1f3e f891 b4bd e0f8 483e
0.05047497 -0.09923117 0.28753036 0.026988475 0.21520387 -0.034437377 0.084408745 0.24999863
0.059345406 0.028793514 0.068135194 0.22274764 -0.113442816 -0.14249882 0.0767175 -0.13589555
-0.22733831 0.35063332 0.18257469 -0.033972185 -0.23254615 0.3144816 -0.059375435 0.23821957
-0.19812186 -0.2637229 0.04919452 -0.19394056 0.10416207 0.13874209 -0.12004952 0.058217205
0.20923994 -0.1291798 0.13374789 -0.2939326 0.2705633 0.158148 0.08264649 -0.06983902
0.1344098 0.07963874 -0.011887878 0.09683723 0.26530054 0.016769614 -0.015934482 -0.115188085
0.028743101 -0.16477305 -0.018776946 0.29098013 0.16210201 -0.029505154 -0.06146808 0.11979159
0.26858106 -0.048778772 -0.15663397 -0.04847171 0.17901292 0.035197236 0.10542033 -0.016514208
0.14716102 -0.04311953 0.12052804 0.08168452 0.24117151 0.05675936 0.17800108 -0.039936207
0.23136018 0.009243111 0.049301706 0.14961511 0.14783363 0.39302915 -0.20813447 0.07545025
-0.18754797 0.2246203 -0.04246421 -0.2058113 -0.26369447 0.03633334 0.08895006 -0.11586385
0.06552079 -0.075368695 -0.0132545475 0.10548023 0.1591147 0.18876079 0.21759014 -0.18469872
0.22859533 0.04319511 0.21942137 -0.23298846 0.29685974 -0.12565023 0.03254916 0.20623796
-0.21532764 -0.07520424 0.05882437 0.2309784 0.11252238 -0.12709346 -0.046440173 -0.25852254
-0.18935163 0.25359052 -0.30246624 0.11262123 -0.02796198 0.19845118 -0.064189725 0.17888394
-0.10697562 0.0802655 0.1277988 0.04428305 0.15091759 -0.15247919 -0.043313067 -0.1362073
-0.017005961 0.06601882 0.14844151 -0.031094894 0.02960642 -0.0752214 0.27793506 0.15569937
-0.108319305 0.11248136 0.037041396 0.10247503 0.30241755 0.1644793 0.03765056 -0.4260893
-0.0821193 -0.09768156 -0.084182315 -0.26367375 -0.078939974 0.09459544 -0.010165877 -0.12350099
-0.28241768 0.24370283 -0.044483326 0.09124406 0.29062304 0.09756166 -0.0699473 0.05684769
0.2087436 -0.16937603 0.09734781 0.27996254 0.11321093 -0.1531127 -0.043695748 -0.15615493
-0.16473278 0.19520967 -0.13979074 0.06509591 0.0012230729 -0.053090103 0.3178427 0.29837328
-0.09200264 0.021619432 0.059858695 0.1940772 0.12725338 -0.17373747 0.20718856 -0.021592584
-0.17208302 0.1859867 -0.015044263 -0.2053549 0.053447116 0.089062706 0.17324945 -0.17442869
-0.27625087 0.048872005 -0.3234692 -0.16964565 -0.14579009 0.00032905518 -0.0060116556 0.39052892
0.16220382 -0.106237344 -0.12489268 0.1797782 -0.06286737 0.1543417 0.09276737 -0.15795313
0.20705836 -0.22289552 -0.0069574444 0.0683727 -0.080552645 -0.18221001 0.2837194 0.24843864
0.3032558 0.20132233 -0.057464123 -0.19775543 -0.22190471 0.09056426 0.12315711 -0.07765246
-0.053932954 0.07896453 -0.12448553 -0.124448314 0.03802898 0.0055742795 -0.14184904 0.112122245
0.085702196 -0.15282556 0.078909576 0.1205195 -0.3034806 0.15497772 -0.21816555 0.032278534
-0.12625372 -0.03158198 -0.04474502 -0.13461587 -0.030702094 -0.24677967 -0.24335757 0.016906202
0.18186498 -0.08050141 0.14123617 0.1582037 -0.16580087 0.15620646 -0.08816904 0.19626188

rnn.bias_ih_l0 f4 [16]
00000000: 2a84 35be d627 0abd 6c0f 81bd 57ba 5cbe
00000010: de38 f83d 8bdd 4abe 4b75 8e3d e058 f7bd
00000020: c188 b03d c9e3 663d f1e8 9a3d 0e6f eabd
00000030: 365d febc db12 2d3e 5558 08be 225e 11be
-0.17726198 -0.033729397 -0.063017696 -0.21555458 0.121202216 -0.19811074 0.069559656 -0.120774984
0.08619834 0.056369577 0.07563961 -0.11446963 -0.031050306 0.16901724 -0.13314946 -0.14196065

rnn.bias_hh_l0 f4 [16]
00000000: 909a 423e 9149 813e b23d 42be 2c6f f13d
00000010: c529 1cbe 1584 a13d 6165 34be 8078 e53d
00000020: e7ca 8fbe 161f b33d c4b1 79bd ab92 f9bd
00000030: a3af a6bd 0385 1bbe 1c49 ad3d 027f 983d
0.19004273 0.2525144 -0.18968847 0.117887825 -0.15250309 0.07886521 -0.17616798 0.11204624
-0.2808449 0.087461635 -0.060960546 -0.12186178 -0.08138969 -0.15187459 0.0846121 0.074461

fc.0.weight f4 [16, 16]
00000000: 8c6e f9bd 2b4a d5be ba39 d1be c5b8 e43c
00000010: c641 803e 57b2 d9be aaa1 7e3e f331 6c3e
00000020: c270 dfbe 8607 eb3d 6a6c d93d 70ef dabe
00000030: eb42 ba3d c030 c2be 3f33 73bd 8bbe 0c3e
00000040: 0138 773d 4f8a 16be cbed 4a3e 5997 cf3c
00000050: 693e 8dbd aa48 f43d c89c a5be 4144 4abe
00000060: cddc b5bd 2650 033f ae47 da3e 506a 3f3e
00000070: 60d2 793e 16a2 84be ed3e d03e 309c 233e
00000080: 4582 f4be 8dc6 a2be 9e3e b2be 25e0 bdbe
00000090: f195 733e b5b4 d03e 151d 2b3e d413 bcbe
000000a0: 99c5 573d 4db7 03be b173 8c3e 09d3 7ebd
000000b0: 927e 84be 330b d53d da9e 043e 51f2 febd
000000c0: 1b22 843e d1e8 45be 81c2 0e3c c72d 61be
000000d0: b879 363e 611c 9d3d 1355 553d 9004 553d
000000e0: ae81 6a3e 53de 4f3d d580 8f3c 2f90 ddbd
000000f0: 65d7 343f a2e1 66be 3e90 883e 4765 c8bd
00000100: e4b4 3bbd 23dc a63e d525 733e 11c4 513e
00000110: ed67 1dbe 9d08 8cbe c6cd 49bd 787b 86be
00000120: 7f50 10bd 5c49 eabe ec42 cb3e 55ab 71be
00000130: 4370 76bd 17ec d0ba c8fa 933e e7bc 87be
00000140: 3a65 babe d4e6 a73e 4dc4 453e 2be6 ec3e
00000150: 37c7 a63e 8cda 2a3d 907b 8e3c 94d8 9f3e
00000160: 67c1 11bd e6fb 21be 7de3 6d3b 9bf7 68be
00000170: 4828 c83d d77b 173f ecff 8b3e 27f0 e53e
00000180: f694 3fbe 6a3f 16bf 987c a13e 62df 60be
00000190: 0324 c3bd bb53 1dbf 4079 6d3d 790c 033e
000001a0: 1bc3 1b3d 81ee 923d 5719 b5bd dea2 193d
000001b0: 671e 623d a128 c83e a60c 2abe 227c 21be
000001c0: 92a5 60be e423 1cbe a48d 8a3e f077 9b3e
000001d0: 2e11 febc d35b 3a3e b896 653e 2809 403e
000001e0: d013 ee3e 19b5 a73e 5c93 703e 34ec d0be
000001f0: 8da4 13be 0d17 3bbe affb e7bd 4baa 5bbe
00000200: 1653 0b3d ddc5 833e 97a8 c23d cd49 12be
00000210: 0485 1a3f 1e2c a8be a045 d9be 3284 73be
00000220: 3c05 8f3e dca6 b63e a30a 57be 2666 93bd
00000230: 89c1 80be 6e4d 09be 044d 833e 1da7 7d3e
00000240: af80 443e af6d 25be a442 1d3e 2b42 1bbe
00000250: caf4 ba3c d2e2 e13d b62a 47bd 7e63 f1be
00000260: f381 05be 505e 9c3b 206f aa3e 605d 5fbe
00000270: fb24 8abd ca4d c53e 05ed 17bf 1058 da3e
00000280: b099 99bd 501b ac3e 000b 803e 4cec 253e
00000290: ca21 533e 102c b93d 97e3 1e3e e41c e4be
000002a0: 0e3c 05bf 886d 833e 2660 8ebe 4432 5dbe
000002b0: 9e98 d93c d77f 2d3e f71a c4bd 9c77 90be
000002c0: 119b bd3c b656 ff3d 49fc 68bd 23cb 01be
000002d0: b44c 8b3e e134 14be b3d2 223e b19b 4d3d
000002e0: 3f59 2b3d d454 c13e 5b62 0d3f 7367 993e
000002f0: 9111 e53e 7945 a33d ee71 93be 0895 37be
00000300: 420f 9d3d 3b51 473e a776 90be 1a3f 733e
00000310: 42e6 3bbe f9f5 aa3d 7d59 2abf 1095 d33d
00000320: 4407 3c3e 722c 163e 8694 b33d 887e e9be
00000330: 8715 73bd 16dc 823e 0000 5ebe 9261 d0be
00000340: 344d 8dbe cedd 293c 2562 cbbe 6745 ec3e
00000350: 6b9c 8abd c8b1 59be e4db 673d 30d2 f4be
00000360: 9a87 a73e 9319 b33c 79cf de3c e5e8 b23d
00000370: 8531 07bd 56cf 88bd 56e1 cdbd 03fa e83e
00000380: 610a d93d 10ff b2be ed16 a03e 5813 143f
00000390: 1161 b83e 8ddf d53e 976b 14be 5415 eb3d
000003a0: 500a 823e 1415 07bf 0ff1 933c 82b4 b03e
000003b0: 4ba6 f33d 0476 9fbe 7827 453d 8f3b eabe
000003c0: 86fa f93e 4a41 1bbe 75b5 28be 1bfb 903e
000003d0: 78b9 033e 4cf8 db3d b1a1 8e3e 879c 1b3d
000003e0: 1a10 8abd 5af0 0a3c 0392 673e 679a 2ebd
000003f0: dac4 07bf ca57 f43e 5676 893e 6aad 04be
-0.12179288 -0.41658148 -0.40864354 0.027920136 0.2505018 -0.42518875 0.24866357 0.23065929
-0.43640715 0.11476044 0.106163815 -0.427608 0.09094795 -0.37927818 -0.059375044 0.13744561
0.060356144 -0.14701198 0.19817273 0.025340723 -0.068966694 0.11927922 -0.32346177 -0.197526
-0.08880005 0.5129417 0.42632812 0.18692899 0.24396658 -0.25904912 0.4067301 0.1597755
-0.47755638 -0.31792107 -0.34813398 -0.3708507 0.23787667 0.4076287 0.16710313 -0.36733878
0.05267868 -0.12862892 0.27432016 -0.062212978 -0.25877815 0.10402527 0.12951222 -0.12448562
0.2580727 -0.19327094 0.0087133655 -0.21990119 0.1781987 0.076714285 0.052083086 0.052006304
0.22901031 0.050749134 0.017517487 -0.108185165 0.70641166 -0.2254701 0.26672548 -0.09784942
-0.045826808 0.32589826 0.237449 0.2048495 -0.15371676 -0.2735032 -0.049268506 -0.26266074
-0.035233017 -0.45759094 0.39699495 -0.23600514 -0.060165655 -0.0015939501 0.28902268 -0.2651131
-0.36405355 0.32793295 0.19313164 0.46269354 0.32573864 0.04171233 0.017392904 0.31219923
-0.035584833 -0.15818748 0.0036298924 -0.22750704 0.09773308 0.5917334 0.2734369 0.44909784
-0.18709168 -0.5869051 0.3154037 -0.21960214 -0.09528353 -0.6145589 0.05797696 0.12797727
0.038027864 0.07174397 -0.08842724 0.037508838 0.055204775 0.39093497 -0.16606387 -0.15770009
-0.2193816 -0.15248066 0.27061188 0.30364943 -0.031014051 0.1819909 0.22420776 0.18753493
0.4649949 0.32755354 0.23493713 -0.4080521 -0.1441824 -0.18270512 -0.11327302 -0.2145168
0.034014784 0.25736895 0.09504812 -0.14285965 0.60359216 -0.3284616 -0.42435932 -0.23780897
0.2793368 0.3567418 -0.21000151 -0.07197218 -0.25147656 -0.13408443 0.25644696 0.2477078
0.19189714 -0.16155122 0.15357453 -0.1516196 0.022821803 0.11029591 -0.048624717 -0.4714622
-0.13037853 0.004771985 0.33287907 -0.21812963 -0.06745335 0.3853591 -0.5934604 0.4264531
-0.07500017 0.33614588 0.25008392 0.16203421 0.20618358 0.090416074 0.15516506 -0.44553292
-0.5204476 0.25669503 -0.2780773 -0.21601206 0.026562031 0.16943298 -0.09575456 -0.28216255
0.02314523 0.12467711 -0.056881223 -0.12675147 0.27206957 -0.14473297 0.15900688 0.050197307
0.04183316 0.3776003 0.55228204 0.29961738 0.44739965 0.07972235 -0.2879786 -0.17927945
0.07668926 0.1946458 -0.28215525 0.2375454 -0.18349555 0.08347697 -0.665428 0.10331166
0.18362147 0.14665392 0.08768563 -0.45604348 -0.059346702 0.25558537 -0.21679688 -0.4069944
-0.27597964 0.010367824 -0.39723316 0.461467 -0.067681156 -0.21259224 0.05660619 -0.4781661
0.32720643 0.02186278 0.02719854 0.08735827 -0.03300621 -0.06680171 -0.10052745 0.45503244
0.10597683 -0.34960222 0.3126749 0.57842016 0.36011556 0.41772118 -0.14494167 0.114786774
0.25398493 -0.5276654 0.018059282 0.34512717 0.11896952 -0.31144726 0.048133343 -0.45748565
0.48823947 -0.15161625 -0.1647547 0.28316578 0.1286372 0.10740718 0.27857736 0.037991073
-0.067413524 0.008480156 0.22614293 -0.04262772 -0.53034747 0.47723228 0.26848096 -0.12956777

fc.2.weight f4 [2, 16]
00000000: 27e9 e3be 4250 d9bd b2ff 3abf a9f1 223d
00000010: d6c1 293f 21ff ecbb 55d8 25bd 50c4 df3e
00000020: d306 9abe 8ec3 fcbd 3d24 983d 05d9 a2be
00000030: 756f 833e 30eb 8cbe ef33 513e 5ff3 613e
00000040: d12c 91bb cf36 a33e 1c1f a4be efe0 703e
00000050: 1ebe 15bf 29f3 e9be 9142 163e b300 6a3e
00000060: 444a bcbe 487f 4dbe e1e4 f3be 660e b53e
00000070: 9870 e5be ca58 e3be 2ae7 823e 3d76 bcbe
-0.4451382 -0.10611011 -0.7304641 0.039781246 0.66311395 -0.007232562 -0.040489513 0.43704462
-0.3008333 -0.123419866 0.07428787 -0.31806198 0.25670972 -0.27523184 0.20429967 0.22065495
-0.0044303914 0.31877753 -0.32054985 0.23523305 -0.5849322 -0.4569333 0.1467383 0.22851829
-0.3677541 -0.20068085 -0.47635558 0.35362548 -0.44812465 -0.44403678 0.2556699 -0.3680896

hidden_rnn.Lx.weight f4 [32, 5]
00000000: f43b 253e 0089 c6bd bac9 103e deb7 c83c
00000010: af32 0e3e 2c47 60be 11f2 363e 8523 1c3e
00000020: aa05 4e3e c9f8 15bf 723c 9ebe 5e2c 7ebe
00000030: 7c30 8bbe b2e5 2c3e 326d 8abd d96f abbe
00000040: fa07 933d 8923 f8bd 1f61 2dbe 548f 993e
00000050: e14e e5bc 53d4 c83e a9e4 a13e 911a febd
00000060: cc62 243e 285d 87be b571 893e d7cf ab3e
00000070: d419 043f 8d39 dcbb 908d 92be 1d3b 203e
00000080: bb2c 063e 162a 893e a760 7bbe 763b 00ba
00000090: 687f 42be 4b48 fe3d ca1b 423e 4e2e c8bd
000000a0: f50a 1dbe e5aa fbbe 7d59 a43d 518b 4d3e
000000b0: 4e46 b83d 5a93 eb3d 6187 c3bd b721 e3be
000000c0: 207b 97bd 01e4 b43e fa34 a8be 73c6 7ebe
000000d0: fbaf 9abe 0cb9 133f d61a 4ebe c9b1 14be
000000e0: 87d4 fabd 2c86 8d3e 7487 913e 252b 13be
000000f0: 8953 2abe d95a 7abe 3b6c 9d3e f884 45be
00000100: 2cb6 3e3d b0a9 9f3a 70a5 7a3e f6ce 3fbe
00000110: 9588 5a3e 5472 02bf eeac 9dbb 72af e6bc
00000120: a4ce d3be a499 c5bd 7b2f dcbe 00d2 f43c
00000130: 71dd e13d 1261 77bd e54e dc3e 696a abbe
00000140: a3a8 68be ba87 98be f30a a73e 1341 0d3d
00000150: 785e 773e bc98 aabd a79d 9b3d 66d1 49bd
00000160: b5b9 8b3e 00ca 823e 5be0 7dbe 3d5b 943e
00000170: 9d38 29be ed6b 73bd 1756 64be ede1 9c3e
00000180: b173 193d 0057 aabe 2455 9cbe a54b 9d3e
00000190: 984f 4a3e a168 d3bd 88d7 81bd 72f8 7bbe
000001a0: da9e 0dbd 98d6 343e 6be3 2dbe 0346 3f3e
000001b0: 1529 c0be d20f a83e d2fc 90be c9fb a0be
000001c0: f476 2f3d fcc7 30bd f7ea c03e 1853 d03e
000001d0: cfe1 c63d 87fa 493e 7d9c 713e 219a cabd
000001e0: b241 b23e 48af 5abe aac5 5d3e 8522 00be
000001f0: aee8 9c3e 5c2d babe 6e24 f03d ceaa 9fbe
00000200: 6c8c f0be 4f2c 473e a267 afbd 29fe 103f
00000210: c894 bc3e d71e 8dbe d8aa 14be 4f79 893e
00000220: 75f8 09be 1504 76be 3649 713e f817 bf3c
00000230: bfd4 133e e7d6 0dbb 58d2 cc3d db9c 2ebe
00000240: 9ac8 e23d e65f 003e b14f a9be 491e 493d
00000250: 95ff 603e b41e a2be e280 123f a076 18be
00000260: be5f 0dbe d6d4 a5be 4816 c4bd 7301 733d
00000270: c5c3 c53e e004 733e 11f4 f63d a3a1 653d
0.16136152 -0.096940994 0.14139453 0.024501737 0.13886522 -0.2190215 0.17865779 0.15247925
0.20119348 -0.5858274 -0.3090549 -0.24821612 -0.27185428 0.16884497 -0.067591086 -0.3348377
0.07179256 -0.12116153 -0.1693158 0.29992163 -0.027991714 0.3922449 0.31619766 -0.12407411
0.16053313 -0.2643826 0.26844564 0.33557007 0.5160191 -0.006720728 -0.2862363 0.1564755
0.13103001 0.26789922 -0.24548589 -0.0004891673 -0.18993914 0.124161325 0.18955913 -0.09774457
-0.15336211 -0.4915382 0.08024881 0.20072676 0.089977846 0.115027145 -0.09547306 -0.4436166
-0.07396531 0.35330203 -0.32852918 -0.2488039 -0.30212387 0.57704234 -0.20127425 -0.14520945
-0.122475676 0.27641428 0.28423655 -0.14371927 -0.16633429 -0.24448718 0.30746636 -0.19289005
0.04656045 0.0012181308 0.24477172 -0.18731293 0.21341164 -0.509557 -0.0048118746 -0.02815983
-0.41368592 -0.09648445 -0.43004975 0.029885292 0.11028565 -0.060395308 0.43028942 -0.33479622
-0.2272058 -0.2979105 0.3262554 0.034485888 0.2415713 -0.08329913 0.07598429 -0.049271964
0.2729012 0.2554474 -0.24792616 0.2897586 -0.16525503 -0.059429098 -0.22298466 0.30641118
0.037463848 -0.332695 -0.30533707 0.30721775 0.19756925 -0.10322691 -0.063399374 -0.24606493
-0.03457532 0.17659986 -0.16981284 0.18679051 -0.37531343 0.3282457 -0.28317887 -0.31442097
0.042838052 -0.04315947 0.37679264 0.40688396 0.09711038 0.19724475 0.23594852 -0.09892679
0.34815747 -0.21355927 0.21657434 -0.12513168 0.3064627 -0.3636273 0.117256984 -0.31185
-0.46982133 0.19450496 -0.08564688 0.5663782 0.3683226 -0.2756259 -0.14518297 0.26850364
-0.13473685 -0.24024995 0.23563084 0.023326859 0.14436625 -0.0021642984 0.100010574 -0.17052023
0.11073418 0.12536582 -0.33068612 0.049101148 0.21972497 -0.3166405 0.5722791 -0.14889002
-0.13806054 -0.32388943 -0.09574562 0.059327554 0.38625923 0.23732328 0.12058271 0.056062352

hidden_rnn.Lx.bias f4 [32]
00000000: 5e84 4abe 0d20 85bd 6e58 793d 8ec9 c4be
00000010: a573 103e fa80 58be 1d36 fdbe c5a2 883e
00000020: 68c2 273e fda2 84be cc86 9dbe 4ccf b33d
00000030: 2a00 ccbe cde9 87be 615e 4abe fb81 2ebe
00000040: f264 773d a05b d0bd 7da4 18bd 460c ad3e
00000050: b853 ff3d f422 80be 8b90 b2bd 2663 d33c
00000060: bd64 ee3d d9ce 063e 5265 abbe ce04 67be
00000070: a46d 233e f6b9 5dbe 5237 2bbe 2dec 9d3d
-0.19777057 -0.06500254 0.06087535 -0.38435024 0.14106615 -0.2114295 -0.49455348 0.26686683
0.16382754 -0.259056 -0.30766904 0.08779773 -0.39843875 -0.26545563 -0.19762565 -0.17041771
0.060399003 -0.10173726 -0.037266243 0.33798426 0.1246714 -0.25026667 -0.08718976 0.025804114
0.11640308 0.13164844 -0.3347574 -0.22560427 0.15959793 -0.2165297 -0.16720322 0.077110626

hidden_rnn.Lh.weight f4 [16, 16]
00000000: 429b 0bbe 5999 c93c 4c74 96bd 6260 3b3e
00000010: d467 47be acbe 9fbd e373 c73d 2a25 893d
00000020: be7e 78be 94ff aa3d 1b85 8c3e 4ca1 4dbe
00000030: 9bcf 3c3d bc07 493e c236 a7bd aa2c 0f3e
00000040: 4436 593c e8ed 07bd f7fd abbc 7fa4 65bd
00000050: 8fca 143e 6899 d1bd 5fe4 ce3d e040 7c3d
00000060: 3d97 0abb ef46 9c3d 34e6 95be dc0c 8f3d
00000070: 1c81 a2bd 54a3 583d b57a 33bc 7dbf 053e
00000080: 62c9 efbd 833b 7cbe f68e 153e dfa0 013d
00000090: 49db 27be 56fb 28bd 4a6e 0dbd b6df 213e
000000a0: a9e0 863d fd57 d9bd 084d c3bd 79e4 57be
000000b0: 0477 68be 1d59 34be dfbd 133e 6ef5 183e
000000c0: 820c d13d 681c 30bb 7f08 283e a83d 773d
000000d0: dbd6 81be b843 55be 0a73 1ebe d50a 90bd
000000e0: 8610 ca3d 68f0 0bbe e1b5 803e 2acb 943d
000000f0: f881 d63d 56e6 77bd ffce 693d 73df 003e
00000100: 1da1 743e 46bc f5bd ab67 1ebe 2f9d 1e3e
00000110: 2011 203d 3109 cf3d 0f51 4cbe 6a60 d23d
00000120: 2c20 d03c 0e48 8b3e 2f6f 623e f34c 4f3c
00000130: eca2 2a3e cea4 643e c0db f1bd d1f5 8b3e
00000140: 731b 413e dde3 03be 4004 d83d 4b73 023e
00000150: d273 2a3c c0f1 9f3b a58e b23d b3b0 25be
00000160: 7004 f13d 2470 e0bb a048 aebd 98e4 ea3d
00000170: e44c e4bd dc2a cf3d 2a45 76be f9d8 693e
00000180: 8867 18be 5432 423e 363c 3e3b 02b1 653e
00000190: a84e af3c 56de 80be 403e 9f3c 3692 6fbd
000001a0: 7cfa 393e 8f28 b33c 8b3f 883c 7a49 9bbd
000001b0: cbc8 5abd a09c 8fbd deee 5a3e d91c 6bbd
000001c0: 567c 57be 1ea1 c73d 2071 c4bd 4ad3 6dbe
000001d0: aed3 683d e412 d0bd 3227 f3bd a496 d1bd
000001e0: 31d8 81be e21a 513c 583b 543e d315 00be
000001f0: 1683 213e a84e b13c ed90 21be e4e6 2bbe
00000200: 0fb3 8d3e a6b9 8b3e 826a 73be 45a0 0abe
00000210: 4f87 ee3d 1f7a 573e 97b3 09be 3708 31be
00000220: 8626 793e 6d50 813e 9a46 1f3c 2beb 533e
00000230: 4460 8abe c29f 0a3e 8c6b 1fbc f19e 36be
00000240: 69c3 5ebd 6ac0 133e 2acb 1ebe 2031 7dbd
00000250: 7b31 93bd 9620 283e fbbf 023e ac1a 9c3e
00000260: f195 27be 649d b63d 14ed 5dbe 7ba5 11be
00000270: 721a f0bd fb2b 11be b794 10be a9e9 d03c
00000280: 141c df3c 3b41 3c3d 8449 3d3e b24f d83c
00000290: 677b 2fbe 72f1 34bd 62f1 543e 4154 96bc
000002a0: ebbb 6bbe ea47 8bbd b04b c23d 8be5 8d3d
000002b0: 1a39 183e bd90 dd3d 99b3 0b3e 32e0 7b3e
000002c0: 8e17 3e3e 8214 483e 98c8 dc3d 6334 76be
000002d0: fa65 023d b828 693d 57a6 8bbe 10a4 bcbc
000002e0: 35d8 5ebd 1d64 423e c9c5 2c3e 74f3 1abe
000002f0: 670f bdbe 7352 213d 5255 fd3d 8ce0 993c
00000300: 2380 083e 7f16 c13d b62e 47be 96aa 00be
00000310: e299 ee3d 063b 5ebe d099 fd3d 43cc 03be
00000320: 15dc fa3d e3d1 843d 83d2 97bd 09b0 8f3d
00000330: ba6d 383e 5f2a bf3c 1ba8 f6bd 6f5e 683d
00000340: 4b9d 7e3e 8281 d93c 0a45 613d 24cc 3d3e
00000350: 0832 d2bc 7e59 ebbc f195 37be a030 d63b
00000360: 8708 213e f439 b13e 7503 36be 2d08 313e
00000370: ab98 85be 3c9f aebd 49e2 5abe d76a 2d3e
00000380: 4d7c 0b3e ada5 8a3e bdf6 10bb e8b9 8bbd
00000390: c6ec 0b3e 260c 933e 93fd ee3d c8f9 2bbd
000003a0: 940d f7bd dfa2 433e f09c 37bd c35e 9c3d
000003b0: 0503 59be 1b14 48bd f698 103e 3a11 68be
000003c0: eb56 4d3e 0cdd e13c 9466 dbbd 06ad aabd
000003d0: e39a 73be 696c 39be dd43 19bd 1bf6 2d3e
000003e0: 995a 313e f65a eebd baba 57be d11a 013c
000003f0: 6c2d 54be b13e 2e3e e858 553e e656 28be
-0.13633445 0.024609255 -0.073464006 0.18298486 -0.19473201 -0.0780004 0.097389005 0.066965416
-0.24267098 0.08349529 0.274453 -0.20081061 0.046096426 0.19631857 -0.08164741 0.13981882
0.013257567 -0.03318587 -0.020995123 -0.05606508 0.14530395 -0.10234338 0.10102152 0.061585307
-0.0021147274 0.07630717 -0.29277194 0.069848746 -0.07934782 0.052890137 -0.010954549 0.13061328
-0.117083326 -0.24632077 0.14605317 0.03164756 -0.16392244 -0.041255318 -0.034529008 0.15807995
0.06585819 -0.106124856 -0.09536177 -0.21083249 -0.22701651 -0.17612119 0.14427899 0.14937374
0.10207464 -0.00268724 0.16409491 0.060361534 -0.25359234 -0.20826614 -0.15473571 -0.07033316
0.09866433 -0.13665926 0.25138763 0.07265313 0.10474008 -0.0605224 0.057082172 0.12585239
0.23889585 -0.11998801 -0.15469234 0.15489648 0.03907883 0.10109175 -0.19952796 0.10272296
0.025405966 0.2720341 0.22112726 0.0126526235 0.16663712 0.22328493 -0.11809492 0.2733598
0.18858127 -0.12879892 0.105476856 0.12739293 0.01040359 0.004881114 0.087186135 -0.16180687
0.117684245 -0.0068493057 -0.08509946 0.11469382 -0.11147478 0.10115597 -0.24049821 0.22836675
-0.14883244 0.18964511 0.0029027588 0.22430804 0.02139981 -0.2516963 0.019438863 -0.058489047
0.18161958 0.021869926 0.016631862 -0.07582374 -0.053414147 -0.07012296 0.21380183 -0.05740056
-0.21043524 0.097475275 -0.095918894 -0.23225132 0.0568425 -0.10159853 -0.1187271 -0.102338105
-0.25360253 0.012762757 0.20725763 -0.12508325 0.15772662 0.021643952 -0.15777941 -0.16787297
0.27675673 0.27290076 -0.23771098 -0.135377 0.11646902 0.21042679 -0.13447414 -0.1728829
0.24331102 0.25256673 0.009721423 0.20695178 -0.2702657 0.13537505 -0.009730231 -0.17834069
-0.054385576 0.14428869 -0.15507188 -0.061814427 -0.07187172 0.1641868 0.12768547 0.304891
-0.16365792 0.08916739 -0.2167247 -0.14223282 -0.11723794 -0.14176933 -0.1411923 0.025502043
0.027235068 0.045960646 0.18485075 0.02640519 -0.17136918 -0.044175573 0.20795205 -0.018350722
-0.23020904 -0.06800826 0.094870925 0.069285475 0.14865533 0.10818622 0.1364273 0.24597242
0.18563673 0.19539073 0.10780448 -0.24043421 0.031835534 0.056923598 -0.27275345 -0.02302745
-0.05440541 0.18983503 0.16872324 -0.15131932 -0.36925814 0.03938527 0.12369789 0.01878383
0.1333013 0.09428119 -0.19451413 -0.12565073 0.116504446 -0.21702203 0.12382853 -0.12870888
0.122490086 0.06485345 -0.07413199 0.07015998 0.18010607 0.023335634 -0.12043782 0.056730684
0.2486469 0.026551012 0.05499748 0.18534905 -0.025658622 -0.028729197 -0.17928292 0.0065365583
0.15725909 0.34614527 -0.17774756 0.17288275 -0.2609304 -0.08526465 -0.21375383 0.16935287
0.13621636 0.27079526 -0.0022119724 -0.06822568 0.1366454 0.28720206 0.11669459 -0.041986257
-0.12063137 0.19105099 -0.0448274 0.07635262 -0.21192558 -0.0488473 0.1412085 -0.22662821
0.20052688 0.027571224 -0.107129246 -0.08333783 -0.23789553 -0.18107761 -0.037418235 0.16988413
0.17319717 -0.11638443 -0.21067324 0.007879929 -0.20720452 0.17016102 0.20834696 -0.16439399

hidden_rnn.Lh.diff f4 [16, 16]
00000000: 0ad7 233c 0000 0000 0000 0000 0000 0000
00000010: 0000 0000 0000 0000 0000 0000 0000 0000
00000020: 0000 0000 0000 0000 0000 0000 0000 0000
00000030: 0000 0000 0000 0000 0000 0000 0000 0000
00000040: 0000 0000 0ad7 233c 0000 0000 0000 0000
00000050: 0000 0000 0000 0000 0000 0000 0000 0000
00000060: 0000 0000 0000 0000 0000 0000 0000 0000
00000070: 0000 0000 0000 0000 0000 0000 0000 0000
00000080: 0000 0000 0000 0000 0ad7 233c 0000 0000
00000090: 0000 0000 0000 0000 0000 0000 0000 0000
000000a0: 0000 0000 0000 0000 0000 0000 0000 0000
000000b0: 0000 0000 0000 0000 0000 0000 0000 0000
000000c0: 0000 0000 0000 0000 0000 0000 0ad7 233c
000000d0: 0000 0000 0000 0000 0000 0000 0000 0000
000000e0: 0000 0000 0000 0000 0000 0000 0000 0000
000000f0: 0000 0000 0000 0000 0000 0000 0000 0000
00000100: 0000 0000 0000 0000 0000 0000 0000 0000
00000110: 0ad7 233c 0000 0000 0000 0000 0000 0000
00000120: 0000 0000 0000 0000 0000 0000 0000 0000
00000130: 0000 0000 0000 0000 0000 0000 0000 0000
00000140: 0000 0000 0000 0000 0000 0000 0000 0000
00000150: 0000 0000 0ad7 233c 0000 0000 0000 0000
00000160: 0000 0000 0000 0000 0000 0000 0000 0000
00000170: 0000 0000 0000 0000 0000 0000 0000 0000
00000180: 0000 0000 0000 0000 0000 0000 0000 0000
00000190: 0000 0000 0000 0000 0ad7 233c 0000 0000
000001a0: 0000 0000 0000 0000 0000 0000 0000 0000
000001b0: 0000 0000 0000 0000 0000 0000 0000 0000
000001c0: 0000 0000 0000 0000 0000 0000 0000 0000
000001d0: 0000 0000 0000 0000 0000 0000 0ad7 233c
000001e0: 0000 0000 0000 0000 0000 0000 0000 0000
000001f0: 0000 0000 0000 0000 0000 0000 0000 0000
00000200: 0000 0000 0000 0000 0000 0000 0000 0000
00000210: 0000 0000 0000 0000 0000 0000 0000 0000
00000220: 0ad7 233c 0000 0000 0000 0000 0000 0000
00000230: 0000 0000 0000 0000 0000 0000 0000 0000
00000240: 0000 0000 0000 0000 0000 0000 0000 0000
00000250: 0000 0000 0000 0000 0000 0000 0000 0000
00000260: 0000 0000 0ad7 233c 0000 0000 0000 0000
00000270: 0000 0000 0000 0000 0000 0000 0000 0000
00000280: 0000 0000 0000 0000 0000 0000 0000 0000
00000290: 0000 0000 0000 0000 0000 0000 0000 0000
000002a0: 0000 0000 0000 0000 0ad7 233c 0000 0000
000002b0: 0000 0000 0000 0000 0000 0000 0000 0000
000002c0: 0000 0000 0000 0000 0000 0000 0000 0000
000002d0: 0000 0000 0000 0000 0000 0000 0000 0000
000002e0: 0000 0000 0000 0000 0000 0000 0ad7 233c
000002f0: 0000 0000 0000 0000 0000 0000 0000 0000
00000300: 0000 0000 0000 0000 0000 0000 0000 0000
00000310: 0000 0000 0000 0000 0000 0000 0000 0000
00000320: 0000 0000 0000 0000 0000 0000 0000 0000
00000330: 0ad7 233c 0000 0000 0000 0000 0000 0000
00000340: 0000 0000 0000 0000 0000 0000 0000 0000
00000350: 0000 0000 0000 0000 0000 0000 0000 0000
00000360: 0000 0000 0000 0000 0000 0000 0000 0000
00000370: 0000 0000 0ad7 233c 0000 0000 0000 0000
00000380: 0000 0000 0000 0000 0000 0000 0000 0000
00000390: 0000 0000 0000 0000 0000 0000 0000 0000
000003a0: 0000 0000 0000 0000 0000 0000 0000 0000
000003b0: 0000 0000 0000 0000 0ad7 233c 0000 0000
000003c0: 0000 0000 0000 0000 0000 0000 0000 0000
000003d0: 0000 0000 0000 0000 0000 0000 0000 0000
000003e0: 0000 0000 0000 0000 0000 0000 0000 0000
000003f0: 0000 0000 0000 0000 0000 0000 0ad7 233c
0.01 0.0 0.0 0.0 0.0 0.0 0.0 0.0
0.0 0.0 0.0 0.0 0.0 0.0 0.0 0.0
0.0 0.01 0.0 0.0 0.0 0.0 0.0 0.0
0.0 0.0 0.0 0.0 0.0 0.0 0.0 0.0
0.0 0.0 0.01 0.0 0.0 0.0 0.0 0.0
0.0 0.0 0.0 0.0 0.0 0.0 0.0 0.0
0.0 0.0 0.0 0.01 0.0 0.0 0.0 0.0
0.0 0.0 0.0 0.0 0.0 0.0 0.0 0.0
0.0 0.0 0.0 0.0 0.01 0.0 0.0 0.0
0.0 0.0 0.0 0.0 0.0 0.0 0.0 0.0
0.0 0.0 0.0 0.0 0.0 0.01 0.0 0.0
0.0 0.0 0.0 0.0 0.0 0.0 0.0 0.0
0.0 0.0 0.0 0.0 0.0 0.0 0.01 0.0
0.0 0.0 0.0 0.0 0.0 0.0 0.0 0.0
0.0 0.0 0.0 0.0 0.0 0.0 0.0 0.01
0.0 0.0 0.0 0.0 0.0 0.0 0.0 0.0
0.0 0.0 0.0 0.0 0.0 0.0 0.0 0.0
0.01 0.0 0.0 0.0 0.0 0.0 0.0 0.0
0.0 0.0 0.0 0.0 0.0 0.0 0.0 0.0
0.0 0.01 0.0 0.0 0.0 0.0 0.0 0.0
0.0 0.0 0.0 0.0 0.0 0.0 0.0 0.0
0.0 0.0 0.01 0.0 0.0 0.0 0.0 0.0
0.0 0.0 0.0 0.0 0.0 0.0 0.0 0.0
0.0 0.0 0.0 0.01 0.0 0.0 0.0 0.0
0.0 0.0 0.0 0.0 0.0 0.0 0.0 0.0
0.0 0.0 0.0 0.0 0.01 0.0 0.0 0.0
0.0 0.0 0.0 0.0 0.0 0.0 0.0 0.0
0.0 0.0 0.0 0.0 0.0 0.01 0.0 0.0
0.0 0.0 0.0 0.0 0.0 0.0 0.0 0.0
0.0 0.0 0.0 0.0 0.0 0.0 0.01 0.0
0.0 0.0 0.0 0.0 0.0 0.0 0.0 0.0
0.0 0.0 0.0 0.0 0.0 0.0 0.0 0.01

exp_avg f4 [16, 7]
00000000: 0edc 9f3c eb11 4ebb 8ef4 6abc 0738 2bbc
00000010: bc48 af3c ef1d 453c 6e76 f8bb bfa5 00bd
00000020: 3195 703c a1f3 b33c d7d1 c13c b004 0abd
00000030: 2ca7 23bc 0b6e 3a3b 8c39 bc3b c09a 403c
00000040: 9a08 54bb 3b91 253c eb52 ea3b efa7 8b3b
00000050: 5cb0 afbb 2820 67bb 2739 213c e28d 2b3c
00000060: 9192 053d 8049 c0bb a396 88bc 2273 be3b
00000070: 57e7 953c 5bed 40bc 421e 95bc e7d7 2fbc
00000080: 1608 ba3c de53 533c 422b b9ba 6775 a5bc
00000090: c5a2 5b3c c141 413c bab8 b63c 4f30 9cbc
000000a0: 26a6 d8bb df3a 9a3b 88c5 283c 8ab2 0fbc
000000b0: 522a 75bc c0b1 92bc de4f 3e3c 85ad 293c
000000c0: cc9a 1abb f1bd 57bc 5692 c13b f4b5 a63b
000000d0: 9312 4a3c 929c 4bbc 804e 44bc 46fc 4b3b
000000e0: 7bb8 8fbb f489 243c d068 a73b f775 cd3c
000000f0: 2163 8fbb dbdd 8abc 1fca ca3a f9c9 043d
00000100: 7548 bdbb 9823 b8bc 45a8 b2bc 92ba 113d
00000110: 291f 6d3c ee6a 46ba 95f8 823b 7572 ceba
00000120: 406f dfbb b724 1abc 93aa ab3b 7b98 4c3b
00000130: 026e 793b 173a a63c 18d4 13bc 7849 a7bc
00000140: 13e3 94bc 3e7e ba3c 002e 423c 3282 6ebb
00000150: 75a1 5fbc e247 9b3b 6c55 b8ba b33c 683c
00000160: 77f9 2dbc 51e5 9abc 5922 163b b3fc d13b
00000170: 176a 803b 394d 0a3b 35da c43b 2399 ea3b
00000180: 0662 f63a 1b4a 5e3b 5a03 a63a ec99 6e3b
00000190: 8b09 863a 2669 7a3b a2ac c53a fe43 82bb
000001a0: d184 bf3a 73c3 a53c cf8e 5ebc 4173 1cbc
000001b0: 6fc6 f5bc 9065 953c 7e8b 953c 3806 2fbb
0.01951411 -0.0031443785 -0.014340533 -0.01045037 0.021396987 0.0120310625 -0.0075824773 -0.031408068
0.0146840075 0.021966757 0.02365963 -0.033695877 -0.009988587 0.0028446938 0.005744165 0.011755645
-0.003235376 0.010105426 0.007150998 0.0042619626 -0.0053616 -0.003526697 0.009840286 0.010470839
0.03261048 -0.005868137 -0.016673392 0.0058120647 0.018298788 -0.01177534 -0.018202905 -0.0107326275
0.022708934 0.012898413 -0.0014127272 -0.020197583 0.0134055065 0.011795462 0.022304881 -0.019066004
-0.0066116033 0.004706725 0.010301001 -0.008770594 -0.014963703 -0.017907023 0.0116157215 0.010356312
-0.0023590801 -0.013167844 0.005907337 0.0050876085 0.01233353 -0.012427466 -0.0119816065 0.0031125708
-0.0043860055 0.010042656 0.00510893 0.025080664 -0.0043758308 -0.016951492 0.0015471614 0.03241918
-0.00577646 -0.02247791 -0.021808753 0.035578318 0.014472761 -0.00075690344 0.0039969184 -0.0015750664
-0.006818682 -0.009408168 0.00523884 0.0031218815 0.0038059955 0.020291371 -0.009022735 -0.020420775
-0.018174684 0.022765275 0.011851788 -0.003639352 -0.013649334 0.0047387937 -0.0014063544 0.014174628
-0.010618559 -0.018908175 0.0022908656 0.006408298 0.003918897 0.0021103157 0.0060074576 0.0071593686
0.0018797524 0.0033918682 0.0012665794 0.0036407663 0.0010226233 0.0038209646 0.0015081356 -0.0039753905
0.0014611726 0.020234799 -0.013583853 -0.009548963 -0.030001847 0.018236905 0.018254992 -0.0026706588

exp_avg_sq f4 [16, 7]
00000000: 6095 353a d7c1 0c3a 922f 083a 443e 183a
00000010: 6306 413a 8c0f 103a ddce e839 8212 7c3b
00000020: 167e 5f3b c3e0 353b 74a5 523b 3ba8 863b
00000030: f96d 433b 3ca3 4a3b fc12 343a 5281 4b3a
00000040: d117 703a 31ee 4f3a 2641 223a bdbf a23a
00000050: 1641 b439 baac 1e3b 4b6d 563b 148b 363b
00000060: 9324 243b 48e7 2d3b b51e 663b b7b6 283b
00000070: 04be 2a3b 608f 4a3b a2dc 2b3b 0dbf 223b
00000080: abc2 2d3b 823f 1a3b 30ad ff3a 0621 3b3b
00000090: dd03 293b 4191 353b b554 063b d67d 373b
000000a0: a54e 013b 6ed8 003b 0be8 b23a 99db c13a
000000b0: 79a6 d53a 6cea cc3a a06d ac3a 087b 0f3b
000000c0: c411 ff39 1fd9 c93a 68c2 2b3b ec16 0f3b
000000d0: 0d0f e33a 8587 dd3a 5934 303b a1ae b23a
000000e0: b478 b23a 4740 013b 096a a73a 6944 d63a
000000f0: 6045 d73a 8fbb 833b 4d92 4d3a 1b4c 373b
00000100: df3d 693b a298 243b 1099 283b b85b 543b
00000110: 903b 8a3b fa03 f23a 708e 9339 0ba2 d739
00000120: 6db6 ce39 9222 9d39 e24b a239 8c46 093a
00000130: e60b 9839 af86 183b eda9 2b3b 5245 1c3b
00000140: b923 113b 020a 123b c726 713b 6c45 9c3a
00000150: cf49 cb3a 8694 1a3b a606 953a f276 f43a
00000160: 967a f83a 20bc a23b 1073 783a e53a 313a
00000170: 9d65 8c3a 82c5 803a e94c 373a 506f 3b3a
00000180: 283f 6c3a 7ea3 8c3a 24f2 cf39 4933 263a
00000190: ef0d 293a ab1b d939 983f b739 5de0 6f3a
000001a0: 382f 6939 ed7c 8a3b 5a9c 963b 8234 803b
000001b0: 37e4 833b 6286 8e3b 7d60 e73b 7a25 173b
0.00069268607 0.00053694606 0.0005195077 0.0005807618 0.00073633174 0.0005495481 0.00044404613 0.003846318
0.0034102253 0.0027752377 0.0032142075 0.00410941 0.0029820187 0.003092005 0.0006869284 0.00077631057
0.00091588224 0.00079319166 0.00061895174 0.0012416762 0.00034380768 0.002421184 0.0032718952 0.0027853893
0.0025046214 0.002653556 0.0035113518 0.0025743672 0.00260532 0.0030908212 0.0026224037 0.0024833113
0.0026513736 0.0023536389 0.001950657 0.002855362 0.0025789656 0.0027704986 0.0020497267 0.0027998588
0.0019730714 0.0019660252 0.0013649476 0.0014790177 0.0016300223 0.0015633828 0.0013155229 0.00218934
0.00048650627 0.001539979 0.0026208404 0.002183373 0.0017323211 0.001690135 0.002688667 0.0013632366
0.0013616295 0.001972215 0.001277269 0.0016347292 0.0016423874 0.0040201615 0.000784193 0.0027968946
0.0035589857 0.002511539 0.0025725998 0.0032403301 0.004218526 0.001846432 0.0002814415 0.00041128727
0.000394273 0.0002997113 0.00030955585 0.00052366476 0.00029000564 0.0023273637 0.0026193813 0.002384503
0.0022146537 0.0022283797 0.0036796795 0.0011922545 0.0015509668 0.0023587062 0.0011369779 0.0018651171
0.0018957432 0.004966274 0.0009477595 0.000676079 0.0010711435 0.0009824487 0.00069923565 0.0007150071
0.00090120966 0.0010729877 0.00039662526 0.00063400395 0.00064489146 0.0004141008 0.0003495186 0.0009150559
0.00022238202 0.004226318 0.0045962753 0.0039125094 0.004025008 0.004349516 0.007061063 0.002306311

exp_avg f4 [16, 16]
00000000: 10e6 16bb 78f1 18bb c199 e93a c3a7 0f3c
00000010: 1014 8d3b 7109 ab3b ce9b 9eba ea86 d13b
00000020: a61b 5a3b f067 f9bb 986f e83b 8d21 24b7
00000030: 679c 87bb cd1b e03b 74ca 593b 38bc 8bba
00000040: 7d4e 453b 3372 8f3b 4082 beba ecd2 23bc
00000050: b711 0bbc fcc4 d3bb 73c3 87ba e8e9 1fbc
00000060: 38ac a0bb 9f83 373c c2fd 1bbc 0238 26bb
00000070: 95f9 2b3b bb58 17bc 6557 1bbb 088a c73a
00000080: 4afa 34bb 58a4 6fb9 95e9 beb9 502c e23a
00000090: 032f ccba 42e3 123a 5bd6 d8ba 2faa af3a
000000a0: 5dfb 0f3a fd75 383b c006 333b 63a0 9fba
000000b0: d20f 63bb 8c84 723b 1475 2d3b 7d25 0939
000000c0: db4d 43ba dde0 dbbb d94f 9b3a f32e 28bb
000000d0: 2121 6139 4872 75bb 7e31 943b 8778 b4bb
000000e0: 96aa c03a 6ef5 0d3c cd7e 343b 5d31 aa3b
000000f0: 5b9d 1639 eca2 57ba 7be6 533b 4001 dd3b
00000100: bc7c f6ba ec8b b9b9 8628 8f3a cde4 c93b
00000110: 56d6 8b3b 9acb d13b 557c d838 6978 eb3b
00000120: d304 053b f27b e2bb 4b74 f83b 807d bc3a
00000130: 7ad9 3abb 097b 983b af4e 503b 4f5b c3ba
00000140: 7500 e13a 3384 aa3b c961 6bba c152 04bc
00000150: 761a e7bb 4d93 53bb 44b6 84b9 da53 a0bb
00000160: 4f03 63bb cf6d 303c a5ab adbb 49cb 54ba
00000170: 444e f63a 044a d9bb 51cb ffb9 20bf c6b9
00000180: 7d96 a23a b04e c63a 55a5 1b3b f580 883b
00000190: ddb5 863b 8141 893b ec36 bab9 872f 833b
000001a0: d54c 5b39 8650 fbbb c6fd 503b b756 293a
000001b0: 4a39 ecba b3be 163b 3e96 c4b9 a5c6 79bb
000001c0: 6e95 f639 a82f 5eba 3a8c 8bb9 0c52 a8bb
000001d0: 3599 48ba 83ea 69bb 073b 303a 0360 e9bb
000001e0: 4331 0fbb 8386 db3b 370d 0ebb f7b3 0a3b
000001f0: 7352 3c3a 939d 83bb 22ac be39 568a 333b
00000200: 8913 43bb d5d8 85bb b522 cdba d5b6 78bb
00000210: 977c 53ba 71f5 76bb 7c20 ed3a 9734 b3bb
00000220: 327a abba da12 273c d49c f23a e474 553b
00000230: b566 90ba eee4 f3b9 57fd 543b 1a24 b63b
00000240: 594b 4fbb bdbb 7cbb a254 4c3b ba30 243c
00000250: c369 073c 213a d43b f2be 133b c23c 323c
00000260: 8406 de3b 4ff7 1fbc 89e3 093c c1f4 363b
00000270: ff36 f3ba ba0f 2a3c 3f34 d63a 763c 89bb
00000280: de6d 9039 022e 86b9 ed3a 173b 355d a239
00000290: f520 3f3b 8825 773a 10f4 e03a d8e0 c03a
000002a0: 299e 0d3b 8448 16bb c818 033a db13 b73a
000002b0: 73a9 0a3a b658 9f3a 3114 48ba 6216 39bb
000002c0: ce47 e4ba fa83 cc39 d154 bc3a 3d6b fa3b
000002d0: 5f5c d13b d7f7 c43b 8fe0 b8b9 77ae e23b
000002e0: cd8d 133b e571 03bc c1bf ab3b 8840 b13a
000002f0: e991 02bb 4c44 b93b 9529 d23a 4674 32bb
00000300: f420 e6ba fe6a b1b9 862b 1ebb b008 0ebc
00000310: 4276 bc39 e7a6 a2bb dd99 643a f85b 0dbc
00000320: 734e 8ebb fd8c 243c bf16 17bb dca2 4c3b
00000330: 21e5 99b7 6c87 57bb 704c 2e3a 6e8e 403b
00000340: 3a82 18ba b7eb 12bb 04a6 8b3a 10b4 d33a
00000350: 2c09 8ab9 4d2c 143a e597 053b 77fd 183b
00000360: 0be6 0b3b 728f 643a d582 213b dc2b b33a
00000370: e8cb e838 be90 d93a f191 4e3a 0389 183a
00000380: 6f4c 2eba ce40 0dbb 1371 ee39 ca25 45b9
00000390: 1caa a63a bfa6 61ba 0c30 9c3a f970 80ba
000003a0: 8cc9 903a 4141 983a 7cda 83b8 91fd d53a
000003b0: 5aee 523a ac14 473a fd9e 4639 0682 813a
000003c0: 1ea8 e13a ac23 f6b9 49df 683b 100a 203c
000003d0: 7d14 993b 8855 c03b 4f93 b539 8c27 1f3c
000003e0: 0784 9f3b 3963 77bc 3ee7 563b c4bd a1ba
000003f0: 0bee 8ab8 1583 a13b d636 0abb 4ff5 b0bb
-0.0023025312 -0.0023337286 0.0017822311 0.008768025 0.00430537 0.0052196314 -0.0012100877 0.006394257
0.003328064 -0.0076112673 0.007093381 -9.782973e-06 -0.0041385177 0.0068392516 0.0033232244 -0.0010660952
0.0030106597 0.0043776273 -0.0014534667 -0.009999018 -0.00848811 -0.0064626914 -0.0010357931 -0.009760357
-0.0049033426 0.0112008145 -0.00952095 -0.0025362973 0.0026241292 -0.009237464 -0.0023703214 0.0015223632
-0.0027615004 -0.00022854039 -0.00036413656 0.0017255638 -0.0015577975 0.0005603322 -0.0016543375 0.0013402159
0.0005492473 0.0028146498 0.0027317256 -0.0012178536 -0.003464688 0.0037005274 0.002646749 0.00013079304
-0.0007450261 -0.0067101554 0.0011849358 -0.002566275 0.00021470014 -0.003745215 0.0045225015 -0.005507532
0.0014699276 0.008664472 0.00275414 0.005193873 0.00014363734 -0.00082258764 0.0032333422 0.006744534
-0.0018805484 -0.000353902 0.0010922111 0.0061613084 0.004267494 0.006402445 0.00010322841 0.007185985
0.0020297065 -0.006911748 0.0075822226 0.0014380664 -0.0028510974 0.004653339 0.003178518 -0.0014904531
0.0017166274 0.0052037477 -0.00089791097 -0.008076371 -0.007052715 -0.0032283843 -0.000253128 -0.0048928084
-0.0034639423 0.010768368 -0.0053000026 -0.000811745 0.0018791636 -0.006631138 -0.00048788873 -0.00037907902
0.0012404468 0.0015129652 0.0023749669 0.0041657635 0.0041110353 0.004188717 -0.00035517605 0.0040034684
0.0002091409 -0.0076695113 0.0031889542 0.000645976 -0.0018022445 0.002300185 -0.00037495972 -0.0038112786
0.0004703211 -0.0008475729 -0.00026616623 -0.005136734 -0.0007652224 -0.0035692758 0.0006722663 -0.007122041
-0.002184943 0.0066993847 -0.0021675357 0.0021164396 0.0007183917 -0.004016587 0.00036367873 0.0027395687
-0.0029766283 -0.0040846863 -0.0015650602 -0.0037950773 -0.00080675766 -0.0037682916 0.0018091346 -0.0054689157
-0.0013082682 0.010197366 0.0018509873 0.0032570893 -0.0011016937 -0.00046519138 0.0032499635 0.005558503
-0.0031630604 -0.003856405 0.0031178375 0.010021383 0.008264962 0.006476656 0.0022544232 0.010878744
0.006775679 -0.009763553 0.008416065 0.002791688 -0.0018555819 0.010379726 0.0016342475 -0.0041881157
0.00027547678 -0.0002559275 0.0023075894 0.00030968493 0.002916393 0.0009427895 0.001716258 0.0014715446
0.0021609163 -0.0022931406 0.0005000946 0.0013967709 0.0005289532 0.0012157175 -0.0007632403 -0.00282421
-0.0017416419 0.00039008242 0.0014368539 0.0076421783 0.0063891853 0.00601099 -0.00035262524 0.0069177705
0.002251494 -0.00802276 0.0052413647 0.001352326 -0.0019923395 0.0056538936 0.0016034121 -0.002722995
-0.0017557428 -0.00033839786 -0.0024134829 -0.008669063 0.00035946263 -0.004963744 0.0008720437 -0.008627884
-0.004342848 0.01004338 -0.002305433 0.0031225001 -1.8345718e-05 -0.0032887114 0.00066489633 0.002938177
-0.0005817745 -0.002241833 0.0010654335 0.0016151685 -0.00026328245 0.0005652353 0.0020384726 0.0023344436
0.0021346833 0.0008718885 0.0024644632 0.0013669687 0.000111006026 0.0016598923 0.00078800233 0.0005818756
-0.0006648963 -0.002155352 0.00045479144 -0.00018801462 0.0012715491 -0.0008607916 0.0011916175 -0.0009799293
0.0011046394 0.0011616127 -6.287263e-05 0.0016326179 0.00080463814 0.0007594328 0.00018941979 0.0009880669
0.001721624 -0.00046947354 0.003553348 0.009768024 0.004671632 0.005869571 0.00034632764 0.009714019
0.004868034 -0.01509934 0.003279164 -0.001233988 -6.624692e-05 0.0049289563 -0.0021089814 -0.005400337
