ckpt/lstm_ode_4_5/95.pth (torch_old, 36287 bytes, 36 tensors)

rnn.weight_ih_l0 f4 [64, 7]
000000 cf e7 4d bd c1 e3 9d 3d 1c a9 38 3e 24 13 06 3e
       -0.050269898 0.07709456 0.1803326 0.13093239
000010 02 30 9b bd c8 21 0b bc b1 e1 63 be 46 f7 47 be
       -0.07577516 -0.008491941 -0.22254063 -0.19527921
000020 a0 6f 4a 3e 14 73 cf bd cd 16 f7 3d ab 7e 04 3e
       0.19769144 -0.10129371 0.12064896 0.12938945
000030 f8 b8 7d bd ad 21 78 3e 3e bb db 3d ed 26 f7 bd
       -0.061943978 0.24231596 0.10729073 -0.120679714
000040 d1 68 44 3d 36 05 fc bc 91 8b 1a 3e 86 72 92 3d
       0.047951523 -0.030764204 0.15092303 0.0715075
000050 33 bc bc bc 0f b4 20 3e 0c 5b 7c bd 1f 39 eb bd
       -0.02303896 0.15693687 -0.061610267 -0.11485504
000060 a1 00 1b 3e 5d 5a 0a be 4d 32 86 bd 0c 5a ba 3c
       0.15136959 -0.13511033 -0.06552563 0.022748016
000070 56 1b 01 3e a4 0f 09 3e bd 12 5f be 6c a1 8e be
       0.12608084 0.13384873 -0.21784492 -0.2785753
000080 d8 58 d2 3c c5 91 54 be c9 36 c7 bd bb 5a 8b 3c
       0.02567713 -0.20758732 -0.09727246 0.017011037
000090 ab cc 57 3d f8 3b 4e be 1a 3b 8e 3e 3a f6 c0 3d
       0.05268542 -0.20140064 0.27779466 0.09421964
0000a0 54 46 ad bd 86 9c 86 be a3 a7 25 3e 62 3d a3 bd
       -0.0846068 -0.26291293 0.1617723 -0.07970692
0000b0 7f 6e 30 3e a2 b9 a7 3d 94 af 00 be 59 81 fe 3d
       0.17229651 0.081897035 -0.12566978 0.12427015
0000c0 d6 d8 9e be 9b 4b f8 bc 77 31 bd bc 73 a5 7d be
       -0.31024808 -0.030309489 -0.023094876 -0.24770145
0000d0 49 95 5e be ea f1 70 3e 62 5d 95 3e 15 a0 5f 3e
       -0.21736635 0.23529783 0.29172808 0.2183841
0000e0 34 d4 a8 3d 49 da 2e be 47 06 2d be 90 e6 93 be
       0.082435995 -0.17075457 -0.16896926 -0.28886843
0000f0 09 fb fe ba be 37 0e 3d b2 13 ba bd 73 0c 18 be
       -0.0019453476 0.03472113 -0.09085788 -0.14848499
000100 4f 15 08 bc 4c fd 21 be 43 74 e3 bd 37 1d 3f 3e
       -0.008305862 -0.15819281 -0.111061595 0.18663488
000110 57 fe cb bd f5 6a 37 be 53 a8 21 3c b7 d7 91 3d
       -0.09960621 -0.17911895 0.009866792 0.071212225
000120 8c a6 a4 bd be 01 58 3d 1a e0 c1 3d 4c 5e 79 be
       -0.08039579 0.052736036 0.09466572 -0.24352378
000130 00 c4 bc 3c 09 3d 1e bd e3 67 4c 3e 2a 4a d7 bc
       0.023042679 -0.038632426 0.19961505 -0.026280481
000140 79 36 7f 3c c3 34 55 bd f3 f3 6a 3c 0d 6a 28 3d
       0.015576952 -0.05205227 0.014340389 0.041116763
000150 92 3a 3e be b6 0a 57 be b2 3b b6 bd b5 64 41 3e
       -0.1857703 -0.2100018 -0.08898105 0.18886073
000160 ff b1 e2 bd 59 27 a3 3e f3 78 7f 3e 10 41 f0 bd
       -0.11069106 0.31865957 0.24948482 -0.1173116
000170 c3 77 db 3d 9b 77 48 be bd 16 2e 3e fd f1 22 be
       0.10716202 -0.19576876 0.17000861 -0.15912624
000180 d5 d1 ff bd 37 03 3c 3c fa 60 dd bd 46 33 62 3d
       -0.12491194 0.011475376 -0.108095124 0.05522468
000190 49 74 7d be 00 a2 8a 3d 30 30 94 be 9e 91 5d 3d
       -0.2475139 0.0676918 -0.28943014 0.05409395
0001a0 73 80 b1 3c 26 9f 12 3e fe 8d 10 be c1 29 45 be
       0.021667695 0.14318523 -0.14116666 -0.19254209
0001b0 14 0c 53 3e 6a 58 2d be 45 44 0d be b5 49 5c 3e
       0.20610076 -0.16928259 -0.13795574 0.21512492
0001c0 6a da 74 3e a4 b5 e5 bd 91 8b 31 3e 9c a6 51 be
       0.23911443 -0.11216286 0.17338397 -0.20473713
0001d0 db a3 21 3e 77 0c 2a be c1 15 1a be f3 cc 1c be
       0.15785162 -0.16606317 -0.15047361 -0.15312557
0001e0 72 27 b4 ba 73 69 67 3d 88 36 17 be a1 dc 0c be
       -0.0013744666 0.05649705 -0.14766896 -0.13756038
0001f0 f1 30 53 bd 24 0e e3 3d cd f4 82 3b f2 19 ba bd
       -0.051560346 0.110866815 0.0039964677 -0.0908698
000200 de f8 3a 3e 29 d8 93 be 5e 72 81 be b8 da 1b bd
       0.18258998 -0.28875855 -0.25282568 -0.038050383
000210 51 f9 db bd 49 48 9a be 77 a1 55 be da 71 00 be
       -0.10740913 -0.30133274 -0.20862375 -0.12543431
000220 27 29 48 be 9e 69 3c bd c3 98 d4 bd df 42 d7 bd
       -0.19546948 -0.045999162 -0.103806995 -0.105108015
000230 29 c3 2b be 10 52 ea bd ff 41 66 be 8c 4a df bd
       -0.16773666 -0.114414334 -0.22486113 -0.109028906
000240 41 50 09 be ee 16 fb bd 75 fa b4 3e 14 42 34 bd
       -0.1340952 -0.12260233 0.35347334 -0.04400833
000250 66 21 9a 3d 9d 2b 39 3e 08 b0 0b 3d 12 aa 34 3e
       0.075259015 0.18083043 0.034103423 0.17643002
000260 10 92 1e 3e 4a a7 bf 3d 1d aa d2 bc b0 a1 b9 bd
       0.15485406 0.0935808 -0.025715882 -0.090640426
000270 82 c5 78 bd d5 75 70 be bc b3 b5 3d ac 32 dd bc
       -0.060735233 -0.2348245 0.08872172 -0.027001701
000280 53 62 8e be bd 2e 9e bd 0b cf 6c be 12 8b 70 3e
       -0.2780939 -0.07723758 -0.23125856 0.23490551
000290 94 37 45 bc b7 00 40 3e d3 0f 61 3e 3a ff 50 be
       -0.012037177 0.18750273 0.21978693 -0.20409861
0002a0 ac 71 a7 bc 44 cf 10 3d d7 65 f2 bd 00 0d 0b bd
       -0.020439945 0.035353914 -0.11835831 -0.033947945
0002b0 35 ce 0f be aa 5c 74 3d 91 92 99 bd 6f 54 23 be
       -0.14043505 0.059658684 -0.074986584 -0.15950178
0002c0 16 d6 7e bd 18 f0 27 3e ce 47 8e 3d da a1 88 3e
       -0.062215887 0.16400182 0.069472894 0.26685983
0002d0 c0 18 98 be f6 73 a1 3d 87 5d 72 be 8e 87 24 3e
       -0.29706383 0.07883446 -0.2366849 0.16067335
0002e0 62 f2 63 be f1 d3 34 3e 7f c4 85 bc 84 04 47 3e
       -0.2226043 0.17658974 -0.016329048 0.19435316
0002f0 e3 e9 b1 3a de 3a 98 bd 47 fb f1 bd f1 0f 6b 3e
       0.0013573732 -0.07433103 -0.118155055 0.229553
000300 5c 6a 4e be 3d 54 0f be 89 9b f4 3d fa 68 3a be
       -0.2015776 -0.13996978 0.119437285 -0.18204108
000310 99 5f 8f 3e 83 ff e1 3d 73 b8 c3 3c 04 18 47 be
       0.28002623 0.11035063 0.023891663 -0.19442755
000320 c5 ac e3 bd df d1 8d 3e a7 75 ab 3e f5 61 c0 bd
       -0.111169375 0.2769918 0.334882 -0.09393684
000330 67 17 e0 3d 71 fa 09 be 7f 8b 3f be 0c be 72 be
       0.10941964 -0.13474442 -0.18705557 -0.2370531
000340 b9 33 c5 3c 66 c5 cd bb de fc 01 3e 68 f1 8d be
       0.024072515 -0.0062796352 0.12694117 -0.2772324
000350 e9 99 01 3e 52 83 bc bd e6 1d 84 bd 96 e5 97 3d
       0.12656368 -0.09204735 -0.06451015 0.07416837
000360 fb 10 2d be 92 50 e9 bd 49 8c 3a be 03 e8 20 be
       -0.16901009 -0.11392321 -0.18217577 -0.15713505
000370 8c 93 26 3e 1b aa 86 bd c1 4b 02 be 4b dc 2a 3e
       0.16267222 -0.06575414 -0.1272421 0.16685598
000380 5b e8 92 bd bd 4c 20 be 65 f9 9f 3c 5b 98 76 bd
       -0.071732245 -0.15654273 0.0195281 -0.06020389
000390 f6 04 30 bb 3f 15 b5 bd 4a a0 6d 3d 1d c0 b6 bd
       -0.0026858426 -0.08841943 0.05801419 -0.089233615
0003a0 9c e8 37 3d c7 0b 42 3d fb ce dd 3d 96 95 ae 3d
       0.044899568 0.047374513 0.10830494 0.08524625
0003b0 d1 90 31 be 03 47 8e 3c 28 5e 69 3e 12 2c 58 3d
       -0.173404 0.017367845 0.22789824 0.052776404
0003c0 54 85 c8 bd c3 ed 45 3d 1c c8 01 bd 4d 99 0d be
       -0.09791055 0.04832245 -0.03168498 -0.13828011
0003d0 28 1c 9f 3e ef 04 b7 3d 58 cf 24 bd f3 51 35 be
       0.3107617 0.08936488 -0.0402368 -0.17707042
0003e0 8e 59 a3 be 1c f4 42 be 11 2b c7 3d 01 da 7d 3c
       -0.31904262 -0.19038433 0.09725011 0.015493871
0003f0 12 7c 3f bd 08 d2 5b bd 3f b7 c9 3d 69 d0 f0 3d
       -0.046749182 -0.0536671 0.098494045 0.11758501

rnn.weight_hh_l0 f4 [64, 16]
000000 cf 2d 0b 3e 82 de 3d 3e 6b d4 2f 3e 33 01 fd bc
       0.13591693 0.18541911 0.17170875 -0.03088436
000010 c0 f2 cd bc ea 8d e0 bc 6a cb 6f 3e ff 76 d7 bd
       -0.025140166 -0.02741142 0.2341744 -0.105207436
000020 66 20 1f 3b ca 75 04 bc 41 db bb bc 5b ec 8d 3e
       0.0024280786 -0.008084724 -0.022931697 0.27719387
000030 2e 0c 5d 3d 8e 52 e4 3c 6d f3 b5 bd 15 85 1f 3e
       0.053966694 0.027871396 -0.088843204 0.1557811
000040 00 e5 ed bd a9 dc fb bd 1b db 0f be 84 5c f5 3d
       -0.11615944 -0.12297947 -0.14048426 0.119805366
000050 8a bb 6e be 30 c3 62 be 37 51 55 be d9 c7 68 be
       -0.23313728 -0.2214477 -0.20831762 -0.22732486
000060 9e a0 91 3b 11 7a 4b be 31 15 9b 3d fc 27 18 be
       0.004444196 -0.19870783 0.07572401 -0.14859003
000070 a6 fb b2 3d 16 40 41 3d 51 c8 16 bd 78 5e 5b be
       0.087394044 0.047180258 -0.03681213 -0.21422756
000080 e6 08 31 bc 9c d0 07 be b5 5c 21 3c af 3e 68 3e
       -0.010805344 -0.13263172 0.009848763 0.22680162
000090 a2 82 e0 3c 34 ae 87 be 8e 7a ba bb ab 71 89 be
       0.02740604 -0.26500094 -0.005690879 -0.26844534
0000a0 20 53 2a bd cf a2 e8 3e 68 be c1 bd 42 01 1b 3e
       -0.04158318 0.45436713 -0.09460145 0.15137199
0000b0 4e 53 a7 bd 12 33 c3 bd 49 cf f8 3d a2 d0 8c 3d
       -0.08170186 -0.09531225 0.121489115 0.06875731
0000c0 9a cb b2 be d3 f1 26 ba 80 16 ef bd 01 fb 48 3e
       -0.3492096 -0.0006368432 -0.116742134 0.19627
0000d0 df 04 35 bd 68 25 4b 3e dd c3 a1 3e d5 a7 ec 3c
       -0.0441941 0.19838488 0.31594744 0.028888622
0000e0 8d 55 c7 3c 02 11 8b be 52 09 8b 3e 5e 4b 8e 3e
       0.024332786 -0.27161413 0.27155548 0.27791876
0000f0 d1 ff 23 be 0c c8 03 be 45 84 c0 be 6e 92 40 3e
       -0.16015555 -0.1286928 -0.37600914 0.18805858
000100 cb 5a 9c bd 30 55 22 3e 26 ca 1b be d0 c1 58 3e
       -0.07634505 0.15852809 -0.15213832 0.21167684
000110 e9 5a e2 bc 46 b3 ba 3e 7c 9f ac 3d dd 66 61 bd
       -0.02763124 0.364649 0.08428857 -0.05502974
000120 e1 d7 4b 3d fb 3b 58 3e 67 fe a2 bd ab 2a 03 3e
       0.049766425 0.2111663 -0.0795868 0.12809245
000130 c7 68 35 be 55 17 12 bd 72 35 8a be 09 15 5d 3c
       -0.1771575 -0.035666782 -0.269939 0.013493785
000140 e8 9d 6c be c9 d5 31 3e a6 b1 74 3e f8 b4 38 be
       -0.23107111 0.17366709 0.23895893 -0.18037784
000150 d6 3d 77 bd 11 06 34 bd 9c 3d 3a 3e a7 cb cf bd
       -0.060361706 -0.043951098 0.18187565 -0.101462655
000160 c1 6d 52 be a9 77 56 be e5 0e 1a 3e 5b bf d2 3d
       -0.2054968 -0.20944084 0.15044744 0.102904044
000170 aa 0b 2b be 41 9f 49 be 36 30 28 3e 36 9a de 3d
       -0.16703668 -0.19689657 0.16424641 0.10869257
000180 5c 7e 41 be 0d 1c 5c be 57 22 01 3e 3f cd 8d 3e
       -0.18895859 -0.21495076 0.12610756 0.27695653
000190 82 0a 63 3e 46 68 1d 3e 24 eb 16 be a9 ea ca bd
       0.22171977 0.15371808 -0.14738137 -0.09908039
0001a0 e9 b6 5f be e5 18 ab bc 5e ac 53 3d 00 39 7e 3e
       -0.21847118 -0.020885894 0.051678054 0.24826431
0001b0 b6 e8 9e bd ce a3 1c bd 38 00 6b 3c b5 39 dd bc
       -0.0775923 -0.038242154 0.014343314 -0.027005056
0001c0 14 98 92 be 85 f9 ac 3d 7e 55 96 bb 87 e2 dc bd
       -0.2863165 0.084460296 -0.004587828 -0.10785394
0001d0 b7 cd a1 bd 09 73 6c 3e 29 f5 ad 3d 93 e1 1e 3e
       -0.07900565 0.23090757 0.08494026 0.15515737
0001e0 4a c0 5c bd 5e 8c 89 bd 49 bb 37 3d fd f9 4d bb
       -0.05389432 -0.06716226 0.044856343 -0.0031429522
0001f0 45 45 12 3e 28 62 73 bd dd 55 40 bd 99 b9 db bc
       0.14284237 -0.05941978 -0.046956886 -0.026821898
000200 dc 2c 2d 3e 6a 0f 1e be 98 b4 27 3e 8d 44 5f 3e
       0.16911644 -0.15435567 0.16377485 0.21803494
000210 95 84 03 be 4d a8 52 3c f3 56 8c 3e a9 d8 4f 3d
       -0.12843545 0.012857509 0.27410087 0.050743733
000220 3b 3f 27 be 9d 7d 68 bc 8a b3 3d 3e 4f e6 4d be
       -0.16332714 -0.014190105 0.1852552 -0.20107387
000230 e8 1a f8 3c 66 16 99 be 93 8f 20 3c 3b 17 96 3b
       0.030286267 -0.298999 0.009799856 0.004580406
000240 29 3e 2c be 82 9a 9b 3e ac 08 6c bd e1 c5 a3 3c
       -0.16820587 0.30391318 -0.057625458 0.019991817
000250 02 fb 46 3e 66 c3 77 3d 93 92 f4 bd 6c 1b 22 be
       0.1943169 0.06048908 -0.11942019 -0.15830773
000260 61 a5 76 be 32 0d 7f bd a9 01 45 bd 1d 2f 3e 3e
       -0.24086525 -0.062268443 -0.048097286 0.1857266
000270 3f f2 05 be af b0 3d be 14 28 17 be ff 4c 6b be
       -0.13080691 -0.1852443 -0.14761382 -0.2297859
000280 f8 f5 08 be 5d 80 2e 3e c1 73 4c be c8 11 4a be
       -0.1337508 0.17041154 -0.19966032 -0.19733346
000290 ee b3 fe bd 05 38 bf bd 4f 10 1b 3e 33 4a 6f bd
       -0.124366626 -0.09336857 0.1514294 -0.05842037
0002a0 4c 73 b3 3d 4f 38 53 3e a1 1b 14 be d4 b7 30 be
       0.087622255 0.20626949 -0.14463665 -0.17257625
0002b0 73 32 63 be e3 3c 3d be 5f 31 fa bb dc f1 2f bd
       -0.22187214 -0.18480258 -0.00763528 -0.042955264
0002c0 1c 77 93 be e1 36 5c 3d 2d 82 1b 3e 6d 30 a6 bd
       -0.2880181 0.053763274 0.15186377 -0.08114705
0002d0 02 73 15 3e 39 8f 9b 3e b9 e5 81 3e bf 4b d2 bd
       0.14594653 0.30382708 0.25370577 -0.10268354
0002e0 60 73 59 bd 34 fd b0 3c b1 8f 2b be a0 26 39 3e
       -0.053088546 0.021605112 -0.16754033 0.1808114
0002f0 c2 fe f8 bd aa 3a 70 3e a5 7e bb bd 37 e9 f1 bd
       -0.12157966 0.23459879 -0.09155015 -0.1181206
000300 de e8 7f 3e 5f 06 6a bd f3 a7 9a 3e 9c db 33 3d
       0.24991176 -0.057134982 0.3020626 0.043910608
000310 a6 61 ad be 30 45 3d be af ef ae bd 44 1b a3 3d
       -0.33863562 -0.18483424 -0.0854181 0.07964185
000320 ab db 85 3d 12 16 09 3e eb 03 00 3e 36 2c 6b be
       0.06536039 0.13387325 0.12501495 -0.22966084
000330 4e 4e 37 be c8 f3 5f 3e 82 d4 7b be 48 38 b7 3d
       -0.17900965 0.21870339 -0.24592784 0.08946282
000340 0a fc b1 be 34 a8 61 3e c5 31 c0 bd 2a 06 27 be
       -0.34762603 0.2203682 -0.09384493 -0.16310945
000350 20 20 49 3e bb 4f a8 3e 68 9a 0a be 18 a0 8d be
       0.19641161 0.3287333 -0.13535464 -0.27661204
000360 ef 69 ee bd df c3 23 3e 33 99 65 3e 80 ff 2c 3e
       -0.11641299 0.15992688 0.22421722 0.1689434
000370 24 cc b2 bd c4 85 3f be 1f 7f 10 bc 82 8f 19 3e
       -0.08730343 -0.18703371 -0.0088193705 0.1499615
000380 40 9d 89 be 25 47 4b 3e 33 2e 28 3e 8b eb 9d 3e
       -0.26877785 0.19851358 0.16423874 0.30843768
000390 ff bf 5b be 8f a7 16 be 54 9d 43 3e 85 12 f0 bc
       -0.2145996 -0.14712356 0.19102985 -0.029305706
0003a0 c6 a8 9e 3e 14 e7 51 3e c1 db 6b 3e c2 1f 50 be
       0.3098814 0.20498306 0.23033048 -0.20324615
0003b0 af e1 0b 3d 07 40 a1 be e4 52 86 be 53 db e2 bd
       0.034150776 -0.3149416 -0.26235116 -0.11076989
0003c0 c9 4e 35 be 36 9b 91 3d 2f aa 10 be 40 a3 6c 3e
       -0.17705835 0.07109682 -0.1412742 0.2310915
0003d0 7e c6 8b 3d 88 a3 6f be fc 44 9c bd e2 ef e5 3d
       0.06824969 -0.23402226 -0.07630345 0.11227395
0003e0 f9 ff 30 3e b0 a9 2b bd 3f 1e 02 be f5 82 08 3d
       0.17285146 -0.041909873 -0.1270685 0.033328015
0003f0 b8 fb a5 3c 24 b7 58 be 99 cd 11 3e 04 29 21 3e
       0.02026163 -0.21163613 0.14238586 0.15738302

rnn.bias_ih_l0 f4 [64]
000000 1c e4 fe bd a9 6a a4 be 9a 41 c6 3e 03 30 e3 bc
       -0.12445852 -0.32112625 0.38721925 -0.027732855
000010 33 ec 84 3e 8e 4e 20 bc b1 6f a0 3e 9d e0 6a 3d
       0.25961456 -0.009784354 0.31335214 0.057343114
000020 d7 eb ea 3d 75 8c a7 bc 98 b9 98 3e cb 85 db bd
       0.11470764 -0.020452717 0.29829097 -0.10718878
000030 a4 78 1f 3e a7 8d 90 bd 8b b5 6c 3e 5b 51 d8 3c
       0.15573364 -0.07058268 0.23116128 0.02640598
000040 d8 14 4f 3d 22 71 23 be c7 19 bf 3e 7e 37 75 3e
       0.050556988 -0.15961125 0.37324354 0.2394695
000050 70 7b 4d 3d 9d 4e a7 bd bd 1c a9 bd 7a 1d d4 3c
       0.050166547 -0.08169291 -0.082574345 0.025892962
000060 7a 8b 95 3e b6 dc 17 3e 6e a7 9b 3e 71 d0 d6 bd
       0.29207975 0.14830288 0.30401176 -0.10488976
000070 91 32 4e 3e 9c 42 86 3e 92 d2 4b 3c 51 26 72 be
       0.20136477 0.26222694 0.012440341 -0.23647429
000080 e5 0b 04 3d 9f 13 02 be 5d 5c 14 3c c9 d0 33 3e
       0.032237906 -0.12702797 0.009055224 0.17560114
000090 77 35 10 bd 1e 3f 66 3d f6 3a 81 3c 02 a5 66 be
       -0.035207238 0.056212537 0.015775185 -0.22523883
0000a0 c1 12 5e be 96 e5 b6 3d a3 dc ba 3d 9a c5 03 3e
       -0.21686842 0.08930509 0.09124114 0.12868348
0000b0 7c 5c a2 be 01 ea 50 be 3b 7e b4 bd f4 79 48 3b
       -0.31711185 -0.20401765 -0.08813139 0.0030590268
0000c0 01 bc 9f 3d d9 7d fb bc fe f8 db 3e 2d 9d 2a be
       0.07799531 -0.030699657 0.42963403 -0.1666152
0000d0 ee d9 d3 3d e6 c4 26 be 05 21 93 3d 57 19 90 3d
       0.10344301 -0.16286048 0.07184032 0.07036083
0000e0 27 18 13 bd e3 a1 89 3d 80 c8 65 3c 2c 9a 58 3e
       -0.035911705 0.067203306 0.014024854 0.21152562
0000f0 45 54 f7 bd ed a6 3a 3d 52 d2 93 3e 17 61 0c be
       -0.1207662 0.04556935 0.288714 -0.13708912

rnn.bias_hh_l0 f4 [64]
000000 50 75 cc 3d 79 76 f1 bd 89 c4 ae 3c 34 e1 dc 3d
       0.09983313 -0.11790175 0.02133395 0.107851416
000010 f6 ef 75 3e 91 63 f4 3a 3f 2b d8 3d f9 7c 4a 3d
       0.24017319 0.0018645396 0.105551235 0.04943559
000020 e3 bb 34 bd 56 18 15 be 61 21 e5 3c 7f ae 81 3e
       -0.044124495 -0.14560065 0.027970018 0.25328442
000030 f0 69 29 be 24 35 b3 3e b3 da 0d 3d be e8 1e 3e
       -0.16544318 0.3500148 0.034632396 0.15518472
000040 c7 59 9d 3e ca c5 8a 3b 0e 0f a3 bc 66 ae 49 be
       0.30732557 0.004235004 -0.01990464 -0.19695434
000050 31 3c 31 bd f3 25 f8 3d 6b 1e 73 3e b6 11 d4 bc
       -0.043270294 0.12116613 0.23742072 -0.025887351
000060 bb b2 62 3e 3c 69 73 3e 2c bb 58 bd f3 a1 70 3d
       0.22138493 0.23770612 -0.052912876 0.058748197
000070 73 24 70 3d 22 45 8d 3e 83 61 bd 3d cf 18 54 bd
       0.05862851 0.27591807 0.092471145 -0.05178147
000080 db f5 1e be 3b f1 98 3d 59 57 24 3e ad 34 d7 bc
       -0.15523474 0.07467886 0.16048945 -0.026270235
000090 bb 57 10 3e b1 64 71 3e a6 40 66 3e d2 81 fa 3d
       0.14095967 0.23573567 0.22485599 0.122317925
0000a0 0a 16 d8 3d 68 be a2 bc de 64 fd 3d 6c 4f 11 3e
       0.105510786 -0.019866183 0.123727545 0.14190453
0000b0 e2 1f 71 3d 15 30 44 3e 36 32 7d 3e 00 24 85 3e
       0.058868296 0.19158967 0.24726185 0.26004028
0000c0 a3 e0 be 3d f2 68 80 be f4 a2 34 3e 37 2d 58 be
       0.0932019 -0.25080067 0.17640287 -0.21110998
0000d0 10 76 c6 3e e2 8a c2 bc 79 13 73 3d f5 bc b6 3e
       0.3876195 -0.023747865 0.059344742 0.35691038
0000e0 eb de 6e bd 30 19 d3 3e db b8 ac bd b1 85 24 bd
       -0.05831806 0.41230154 -0.08433696 -0.04016656
0000f0 3e 55 f8 bd 4c 7a c9 3e 5f 3a 86 bc 39 15 73 bc
       -0.12125634 0.39351118 -0.016385255 -0.014836603

fc.0.weight f4 [16, 16]
000000 93 c4 12 be 53 7f 0a bd 11 e3 a5 3e 4d 84 e2 3d
       -0.143328 -0.033812832 0.323998 0.110603906
000010 4f 4f 92 3d 32 f2 a5 3d c6 42 d7 be fe 25 76 3e
       0.07144033 0.08102836 -0.42043132 0.2403793
000020 ec 6b bb 3d 93 07 fc 3d ea 3f 85 be 27 e7 30 bf
       0.09151444 0.12306132 -0.26025325 -0.6910271
000030 41 b9 ef 3d 44 83 a9 be e8 8d 04 3d 24 f0 cd 3d
       0.11705256 -0.3310796 0.032361895 0.10055569
000040 b6 0c 70 be ee 37 a5 3e c1 15 5f 3e ce b2 e0 be
       -0.23442349 0.32269233 0.21785642 -0.43886417
000050 8c 21 b9 3b 8e 3d cd bc 7f f7 94 3e 84 70 8d 3e
       0.005649751 -0.025053766 0.29095075 0.27624905
000060 5d cd c4 bd 44 fb 32 3e bd ff 54 3e ee 21 f4 bc
       -0.096094824 0.17478663 0.20800681 -0.029801335
000070 26 70 9c 3d 04 e8 ba bd 68 ca da be 56 83 c5 3e
       0.07638578 -0.09126285 -0.4273255 0.38576764
000080 47 0f e3 3d 4f 43 3e 3d 75 4f 15 3f b0 4e 1c 3f
       0.11086898 0.04645091 0.58324367 0.6105757
000090 20 6c 1a 3d 76 71 a9 3d 20 c7 50 be 3c 10 6d 3d
       0.037700772 0.08273594 -0.2038846 0.05787681
0000a0 fa cf d8 3e c5 61 6e 3b 1f f7 fb 3d c1 1d b5 3e
       0.42346174 0.0036374193 0.12302994 0.35374263
0000b0 66 8f 33 bd 76 c6 0d 3e fe 46 03 be e2 df 42 3e
       -0.043837927 0.13845238 -0.1282005 0.19030717
0000c0 65 20 bc be d8 e8 59 be 5a c0 08 be 8d 11 8a 3d
       -0.36743465 -0.21280229 -0.13354626 0.06741629
0000d0 15 36 6a 3d d6 2e df be de 1f a5 3b 14 fc 03 be
       0.057180483 -0.4359042 0.0050391993 -0.12889129
0000e0 2f 89 d7 3b 60 ed 84 be 94 ff dc be 7e 17 9a 3e
       0.006577633 -0.25962353 -0.4316374 0.30096048
0000f0 c4 c4 1c 3e fa ee 30 bd 60 31 07 bf ab 73 1b be
       0.15309435 -0.043196656 -0.52809715 -0.15180843
000100 c9 c3 51 3d 9e 64 a2 3c 41 4e d3 3e 11 3f 82 bd
       0.051212106 0.019823369 0.4127064 -0.06359685
000110 14 d3 c2 bc d7 02 2a be 7f 63 07 bf d3 65 1e bf
       -0.02378229 -0.16602646 -0.52886194 -0.6187412
000120 28 81 e5 bd a9 fd 65 3e bd 50 75 3d 07 b3 48 3e
       -0.11206275 0.22460045 0.05989145 0.19599544
000130 16 fd 89 3e 77 a7 28 be fb 6a 39 3e c6 d5 91 bd
       0.26950902 -0.16470133 0.18107216 -0.07120852
000140 74 69 cf bc f1 95 a4 3d 87 89 14 3e 0a 72 bb 3e
       -0.025318839 0.080364116 0.14505588 0.36610442
000150 31 b6 f2 bd 27 3d 0b 3e c8 cc 27 3f 19 fb 6d be
       -0.118511565 0.13597547 0.65546846 -0.23240317
000160 f5 b9 82 3d c8 e2 53 3e 2a 13 e2 3b d1 8c be be
       0.06383125 0.20691979 0.006899257 -0.3721681
000170 f5 3b ab 3e 01 a1 79 bc 9f 1e 5d 3b ae 3c 26 be
       0.3344418 -0.01523614 0.0033740175 -0.16234085
000180 5c 25 7c be 62 e3 2a be 26 9a 2e be ac dc a9 bc
       -0.24623626 -0.16688302 -0.1705099 -0.020735107
000190 27 cc b8 be 56 3b 84 3e 0d e4 cd bd 66 14 61 be
       -0.36093256 0.2582652 -0.10053263 -0.21980438
0001a0 94 6a 15 3e b4 7f 19 3f d7 7b 8a be b1 8b 12 3e
       0.14591438 0.59960485 -0.27047607 0.143111
0001b0 cc 5d 99 be 0b 5b 15 3e 36 1c 1c be b7 ec 99 3d
       -0.29954374 0.14585511 -0.15245137 0.07515853
0001c0 3f 54 2c 3f df 54 c7 3e 5d 18 09 bd 5c 9f 50 3d
       0.6731605 0.3893194 -0.0334705 0.050933227
0001d0 e8 ed 7e 3e b3 b6 4f bd 74 25 16 be b8 e2 b7 3b
       0.24895442 -0.050711345 -0.14662725 0.005611744
0001e0 14 35 46 3d 28 f8 98 3e 05 78 cb be 5c c8 c5 bd
       0.048390463 0.29876828 -0.39740005 -0.09657356
0001f0 4f a1 3d 3d b9 b7 1b 3e 3d d5 86 be c8 7d c6 bd
       0.046296414 0.15206803 -0.26334563 -0.096919596
000200 76 47 97 3c e2 71 f9 bd d0 2e ba be bc 11 7c 3e
       0.018466692 -0.121799245 -0.3636384 0.2461614
000210 64 84 27 3d fb 71 28 be 63 0d 44 3e e6 5d d0 be
       0.040897742 -0.1644973 0.19145732 -0.4069664
000220 b4 b4 5a be 69 b1 44 be 60 3a 05 be 7d 69 f1 bc
       -0.21357995 -0.19208302 -0.1301055 -0.029469246
000230 15 78 95 be fe ae 44 be 15 10 53 bd d0 ab 3b 3f
       -0.29193178 -0.19207379 -0.05152901 0.7330904
000240 53 f0 31 3e df 50 7f be 58 32 ec 3d cf e2 4d bc
       0.17376833 -0.24933194 0.1153304 -0.012566282
000250 9c 81 9d 3e 40 03 cc bd b7 a5 55 3e fa 0b b4 3e
       0.30762947 -0.099615574 0.20863996 0.35165387
000260 1a 90 91 bc d1 0e 00 3f 1e 37 22 be 27 43 a2 3e
       -0.017768908 0.5002261 -0.15841338 0.31691858
000270 03 ad 8e 3e d8 10 3b be 8f f2 d2 3e 74 79 2d 3e
       0.27866372 -0.18268144 0.41200683 0.16940862
000280 95 44 e3 be 28 a1 20 bd 3a 99 8d be 76 e6 eb 3c
       -0.4438826 -0.03921619 -0.27655965 0.028796416
000290 4b b4 a6 3e be 9d cc 3e f0 dd 79 3c 90 40 92 bd
       0.32559428 0.39964098 0.015250668 -0.071412206
0002a0 f7 01 d7 be 8d f5 03 be be 32 89 3d db a1 72 bd
       -0.41993687 -0.12886639 0.066991314 -0.05923639
0002b0 dc 8c a2 3e 8c 22 11 3f 9f 24 9f bd cd 06 7d 3e
       0.31748092 0.5669334 -0.07770657 0.24709626
0002c0 04 4f 63 3e 11 52 c5 be 57 0b ed 3e 39 90 ba be
       0.22198111 -0.38539174 0.46297714 -0.36438158
0002d0 97 9d 7b 3e f3 0f 8b 3e 26 c3 2e 3e 7c 2d af be
       0.24571835 0.27160606 0.1706663 -0.3421439
0002e0 d8 ab de 3d 1b b8 8b be 68 2a 72 be f6 b3 0a 3d
       0.1087262 -0.272889 -0.23648989 0.03386303
0002f0 77 63 a0 be ba 12 8a 3d 1d af a2 bd f2 3c 26 bd
       -0.31325886 0.06741853 -0.079435565 -0.040585466
000300 35 6c 80 be 8a c5 8f 3e 85 a9 52 3d 5d 4d 54 3e
       -0.25082555 0.28080398 0.051431198 0.20732637
000310 55 23 94 3e b4 1c 22 3d 35 3c 64 3e fd 27 9e 3c
       0.28933206 0.039578155 0.22288592 0.019306177
000320 ba 4d 16 bf 2e 8d 09 3e 7b e4 01 bc f0 32 99 3d
       -0.5871235 0.13432762 -0.007928009 0.07480419
000330 f9 aa e3 be da e2 1e be 51 1a ef 3c 47 ef a2 be
       -0.4446638 -0.15516225 0.029187353 -0.3182318
000340 49 7b 2d 3e bf 69 30 be 65 92 38 3e 01 5e eb 3c
       0.16941561 -0.17227839 0.18024595 0.028731348
000350 61 37 28 bf a7 89 61 bc 36 48 ad bd 20 c4 cd 3d
       -0.657095 -0.013765729 -0.08461039 0.100471735
000360 7e 49 fa be 71 51 6b be 0c c0 ad be fa c8 11 3e
       -0.48884195 -0.22980286 -0.33935583 0.14236823
000370 dd 38 c2 3a 6c 13 a5 3e 16 ce 17 bd bc 7f 18 3e
       0.0014817972 0.3224138 -0.037061773 0.14892477
000380 26 97 b1 bd 9e ad b6 3e 2a eb d6 3e 7b 9a 13 be
       -0.086714074 0.35679334 0.4197629 -0.14414398
000390 73 91 18 be 4c 62 d8 be 49 8c e5 3b 79 a3 7a be
       -0.14899234 -0.42262495 0.0070052487 -0.24476422
0003a0 f2 92 cc 3e b3 b0 b0 bd 02 15 96 be e0 b8 05 3d
       0.3995586 -0.08627453 -0.29312903 0.032647014
0003b0 ed c7 d9 bd 61 71 d4 3e 5b 80 c4 3e f3 83 c4 3d
       -0.10633836 0.4149275 0.38379177 0.0959548
0003c0 c4 ad 27 be b9 90 0a 3f 02 d1 03 be 51 c4 08 bd
       -0.1637488 0.5412708 -0.12872699 -0.033390347
0003d0 51 9d ae 3c 1d 3c 1f 3f f6 b9 67 3d c6 87 f3 3d
       0.021315249 0.622011 0.05657383 0.11891131
0003e0 32 40 d8 3d 0a 61 47 be 78 c2 a2 be f2 b1 21 3e
       0.10559119 -0.19470611 -0.31788993 0.15790537
0003f0 49 24 78 3e 41 d4 e2 be 2b 29 54 3e 6d 18 58 3c
       0.24232592 -0.44302562 0.2071883 0.013189417

fc.0.bias f4 [16]
000000 ea ae 69 3e b4 00 f2 bd 7a 10 02 3e 42 88 49 3e
       0.2282063 -0.1181654 0.12701598 0.19680884
000010 b3 33 02 3e a6 b3 dd 3c 68 1f 04 3e b4 ea 0a 3e
       0.12715034 0.027063202 0.12902606 0.13566095
000020 98 ca 38 be 70 e0 83 bd a5 a7 0d be 8a a2 19 3a
       -0.18046033 -0.064392924 -0.13833483 0.0005860707
000030 52 7d 25 bc de df 0d bd d7 45 6a bd f9 39 f2 3d
       -0.0101006795 -0.034637325 -0.05719551 0.11827464

fc.2.weight f4 [2, 16]
000000 c3 c3 c6 be 89 0e c4 bd a6 c9 cb bc 82 f8 66 3e
       -0.3882123 -0.09573085 -0.024876427 0.22555736
000010 8f a1 a9 be 92 05 62 be 4b dd d5 3e 80 65 a5 be
       -0.33131072 -0.22072437 0.41770396 -0.32304
000020 3a 3a 49 3e 40 d2 d9 be 26 00 0c 3e 90 07 d2 3d
       0.19651118 -0.4254322 0.13671932 0.10255349
000030 65 91 f2 3e f1 66 88 3e 6a 62 6b 3d f2 ae 6e be
       0.47376552 0.26641038 0.0574669 -0.23308924
000040 83 41 6a 3c 16 d7 f1 be b1 a4 6a 3e 97 83 df 3d
       0.014297846 -0.4723441 0.22914387 0.10913771
000050 de 6c f0 3e ec 9d 69 be 47 dc 9e 3e 6e 10 3b bd
       0.4695806 -0.22814149 0.31027433 -0.045669965
000060 8e 41 b5 bc a9 95 c0 3b f0 74 32 be 01 fb 13 3f
       -0.022125985 0.005877216 -0.1742742 0.57804877
000070 86 dc 01 bf a6 39 28 3e 74 37 86 3e e1 14 4f be
       -0.5072712 0.16428241 0.26214182 -0.20222808

fc.2.bias f4 [2]
000000 fa f1 24 be 35 8c 1e 3e
       -0.16107932 0.15483172

ode_net.grad_module.0.weight f4 [16, 21]
000000 ca 7b 38 3e 1e 24 66 3e 09 fe 63 3b 27 1d b5 bd
       0.18015972 0.22474715 0.0034788868 -0.08843451
000010 32 37 af bc dc 54 b8 bd 13 1a 5f 3d b3 c3 47 be
       -0.021388624 -0.09000561 0.054468226 -0.19508247
000020 a7 33 6c 3e bb b5 fb 3d 50 ef 0e be f1 ae d6 3d
       0.23066579 0.12290522 -0.13958478 0.10482586
000030 98 b8 6d 3e a3 2c 73 3c 42 dd 2a 3e 48 54 8e bd
       0.23214948 0.014842185 0.16685966 -0.06949669
000040 9a 54 a4 3c a2 4e 23 be ca a2 0d 3e 86 9a 97 3c
       0.020059872 -0.15947965 0.1383163 0.0185063
000050 48 34 c0 3d fe 69 34 be 16 17 26 be cf a7 0c be
       0.09384972 -0.17618558 -0.16219744 -0.13735889
000060 bf c4 ba bd 78 91 f6 3d 6b fe 62 be aa 98 e5 3b
       -0.091195576 0.12039465 -0.22167365 0.0070067244
000070 ee 1a 61 3c 15 35 44 3e 2e 0e b2 bd e5 04 f4 3d
       0.013739331 0.19160874 -0.08694111 0.11914996
000080 a2 66 32 3e 22 f5 70 3e f4 da 3d be 3c da 38 be
       0.17421964 0.23531011 -0.18540555 -0.18052
000090 30 8f dc 3b 06 b3 6e 3e 00 ec 13 be 52 f2 0d bd
       0.0067309365 0.2331048 -0.14445496 -0.034654923
0000a0 df fb 88 3d 63 79 37 be 7c 39 4d 3e cb 81 92 3b
       0.066886656 -0.17917399 0.2004146 0.004471039
0000b0 24 08 47 3e 34 2b 60 bd a1 ab 3f 3d 62 58 90 bd
       0.19436699 -0.0547287 0.046794537 -0.07048108
0000c0 85 38 5a 3d 83 ad 83 3d c5 5b 0b 3a de dc 45 3e
       0.053276557 0.06429579 0.0005316104 0.19322535
0000d0 be 5f 75 3d 2a f6 fd 3d 1a a8 2a be e2 18 8f 3d
       0.05990576 0.12400468 -0.16665688 0.06987168
0000e0 f7 3f c5 3c 4f 97 03 3e 82 3b 3c bd 59 9f dc 3d
       0.024078352 0.12850688 -0.04595519 0.10772581
0000f0 ef be 1a bd b7 73 13 be 52 1e 88 be 2f 26 9b bb
       -0.037779745 -0.1439961 -0.26585633 -0.0047347764
000100 72 b7 1d 3e a9 8b 72 be fb dc 32 be 27 3b 8a be
       0.1540201 -0.23686089 -0.1746711 -0.26998255
000110 75 b1 b5 bd 48 7e c8 3d a8 75 c2 3d b9 ba 44 bc
       -0.08871738 0.09789711 0.094950974 -0.012007409
000120 0e c3 8b be 48 92 7d 3e 0c 63 5a 3d f4 29 02 3e
       -0.27297252 0.24762833 0.053317115 0.12711316
000130 15 0b 0f 3e 13 48 bf 3d 60 b3 5f 3d a7 78 9b bd
       0.13969071 0.09339919 0.054614425 -0.07591372
000140 fa c0 b3 3a e9 d2 33 3d 1a 13 1c be 26 79 2d bd
       0.0013714128 0.04390231 -0.15241662 -0.042351864
000150 b9 83 13 3e 2f 5c d8 bc c8 8e 28 be fc 9f 85 3e
       0.14405717 -0.026411144 -0.16460717 0.2609862
000160 20 ce 47 3e f4 bf 88 3d bd e4 0c bd 38 3a 12 3e
       0.19512224 0.06677237 -0.03439783 0.14280021
000170 85 84 f1 bc 28 43 8c 3c b9 df 4e bc e4 2b eb bd
       -0.029482136 0.017121866 -0.012626582 -0.11482981
000180 b4 db f3 bd 64 bf 33 be d1 27 49 3e 99 65 f7 3b
       -0.119071394 -0.17553478 0.19644095 0.007549953
000190 bd 86 19 be 96 13 85 bc 2c f6 5c 3d 68 9f 59 bd
       -0.14992805 -0.01624469 0.053945705 -0.053130537
0001a0 91 6d 2d 3e 79 55 8e bd e1 38 3b 3e 26 54 3c 3c
       0.16936328 -0.06949896 0.18283416 0.011494672
0001b0 1c f2 8b 3c b7 aa 02 be 06 ce ba 3d 13 11 c8 bd
       0.01708322 -0.12760435 0.09121327 -0.09768882
0001c0 4f 3a 09 3e 06 97 4d be c6 5f f1 3d b5 f8 f2 bd
       0.13401149 -0.20077142 0.117858455 -0.11863843
0001d0 2c 28 78 bd 9c 7c 2d 3e 97 ac 67 be 80 fa 20 be
       -0.060585186 0.16942066 -0.22624432 -0.15720558
0001e0 ed 08 02 be 6d ab d5 3c 8d 68 9f 3c 67 e9 9a 3d
       -0.12698717 0.026082719 0.019459033 0.07564049
0001f0 c0 e1 0f 3e 36 fe d1 3d 07 53 55 3e f0 f8 3f 3e
       0.1405096 0.10253565 0.20832454 0.18747306
000200 05 84 32 3d 7a dc 09 bc 0d cc 33 be 8f c9 78 3d
       0.043582935 -0.008414382 -0.17558308 0.060739096
000210 82 40 3d 3e c6 43 f3 bd 06 8d 8b be 3c 89 42 be
       0.18481639 -0.11878161 -0.2725603 -0.18997663
000220 5a 09 1e 3e 32 38 90 bd 03 0b 4e 3d 7d e4 4d be
       0.15433255 -0.070419684 0.05030347 -0.20106693
000230 52 2b 27 3e 90 b9 14 be 27 f6 07 3e b0 da 2b be
       0.16325119 -0.14523911 0.13277493 -0.16782641
000240 bb 98 fa 3d b0 57 64 bd 34 46 17 be 0e 52 bb bc
       0.12236162 -0.055747688 -0.14772874 -0.022866275
000250 bf f3 09 be 19 b6 53 be 31 7b 02 bd a7 30 8f 3d
       -0.13471888 -0.20674933 -0.031855766 0.069917016
000260 70 5c 52 be 85 ea 00 3e 18 92 b6 3d c3 92 60 3d
       -0.20543075 0.12589462 0.08914584 0.054827463
000270 28 cb cd bd 70 3b 68 3e cf ab 50 be 73 40 3b bd
       -0.100485146 0.22678924 -0.2037804 -0.04571576
000280 b1 93 73 be 12 e6 2a bd a9 05 5a 3e 3c 94 87 3c
       -0.23786809 -0.04172332 0.21291222 0.016550176
000290 37 e7 df 3d 62 41 47 be 1d f2 80 3d b3 16 b4 39
       0.109327726 -0.19458535 0.062961794 0.00034349188
0002a0 54 53 30 be 36 e7 a0 3d 0c 4e 5c 3e b1 87 0b be
       -0.17219287 0.078566 0.21514148 -0.13625981
0002b0 d0 61 68 3d cc b4 ec 3d de ac ab 3d c3 b7 08 3e
       0.056733906 0.11557922 0.08382581 0.1335135
0002c0 cb 45 04 3e 16 7d fc bc 8d ea d6 3d 0e 2e 3d 3e
       0.12917249 -0.030821364 0.10493956 0.184746
0002d0 05 51 2f bd cb 46 75 be f0 cb f4 bd 59 31 c4 bd
       -0.042801876 -0.23952787 -0.119529605 -0.09579725
0002e0 78 f3 3b 3e 47 11 2f 3e c5 5e 19 3e 55 0d f2 3d
       0.18354595 0.17096435 0.14977558 0.11818949
0002f0 16 a8 fa b6 53 c2 1a be c0 e4 1e 3e 3e cf 84 bd
       -7.4701484e-06 -0.15113191 0.15516949 -0.06484841
000300 95 5f 24 3e a3 44 85 3d 7d 29 72 3d cf 88 d0 bd
       0.16052087 0.06507232 0.059121598 -0.10182344
000310 19 1b ae bd c0 f4 f9 bd ab c0 0f be ca 50 71 3d
       -0.08501262 -0.122048855 -0.14038341 0.058914937
000320 32 b5 43 3e 2e 9f 51 3e ee 37 b9 bd e6 5e 26 be
       0.1911209 0.20470878 -0.09043871 -0.16247138
000330 7b 08 1e be 52 de b6 bb 1c a5 39 bd 86 a7 16 3e
       -0.15432923 -0.005580702 -0.045323476 0.14712343
000340 20 2e d1 3c c9 06 26 bd 8a e7 e9 bd e4 a6 04 3c
       0.02553469 -0.040533815 -0.11421116 0.00809643
000350 51 0f 6c be 37 f6 01 be 17 ca 26 3e e5 18 59 3e
       -0.23052718 -0.1269158 0.16288029 0.21200903
000360 1d 56 3d 3d 4f 6d 49 3d a5 27 bd 3d 64 4a 09 be
       0.046224702 0.04917651 0.09236077 -0.13407284
000370 29 51 8d bd 33 74 28 3e 67 c2 0c bd e3 77 24 be
       -0.06900246 0.16450576 -0.034365084 -0.16061358
000380 1d 42 dd 3c e6 eb 25 3e f5 ae 08 be 9b ed c1 3d
       0.027009064 0.1620327 -0.13347991 0.09469148
000390 42 62 59 bd 94 6e b1 3d 95 0c 27 bd c2 69 4d be
       -0.05307222 0.08663669 -0.040783484 -0.20059875
0003a0 72 73 0c be 43 41 ff bd 63 f7 b5 bd 8f f6 73 bd
       -0.13715914 -0.124636196 -0.08885076 -0.05956131
0003b0 7d 30 b1 bd ac e3 0c be 7a 07 77 3e c6 e6 3d bc
       -0.086518265 -0.13758725 0.24123946 -0.011590665
0003c0 0a 5e 89 bd 61 b5 58 be 37 22 09 be c2 2f 74 be
       -0.0670739 -0.2116294 -0.13391958 -0.23846343
0003d0 43 8d df bd 88 35 c5 bd 33 d1 e2 3c f0 08 f8 3d
       -0.109156154 -0.09629351 0.027687645 0.1211108
0003e0 9a 43 47 be 88 d8 33 37 30 a5 c5 3d 2c 76 4f be
       -0.19459382 1.07196465e-05 0.09650648 -0.20259923
0003f0 f1 3c 75 3c 04 84 27 bd e4 67 07 3d 92 b1 f1 3d
       0.014968143 -0.040897384 0.033058062 0.11801447

ode_net.grad_module.0.bias f4 [16]
000000 2a d3 5d be c7 a2 80 bc 7d 16 29 3e bf 56 8d 3c
       -0.21662584 -0.015702618 0.16512485 0.017253278
000010 f3 98 32 be 7a 83 c0 3d 24 70 e7 3c 48 84 56 3e
       -0.17441158 0.09400077 0.028251715 0.20948899
000020 00 64 10 be 66 ed c9 3b 45 68 74 be a0 bd 1d bd
       -0.14100647 0.0061623333 -0.238679 -0.03851092
000030 a0 85 16 3e fd 89 38 be fd c9 37 bd b1 70 08 3e
       0.14699411 -0.18021388 -0.044870365 0.13324238

ode_net.grad_module.2.weight f4 [16, 16]
000000 01 cb 17 3e 39 0a 02 bd 5a c0 a3 3d ee 97 43 be
       0.14823534 -0.03174803 0.079956725 -0.19100925
000010 82 eb d2 bd 3b 3a e2 bc 55 a7 59 3d b0 9a ef bd
       -0.10298826 -0.027615657 0.053138096 -0.11699426
000020 94 3b 51 3e 0e c4 a8 3d 60 b6 4a be 49 3a 6f bd
       0.20432884 0.082405195 -0.19796133 -0.058405194
000030 fa a5 87 be 71 d8 d1 bd 84 99 23 3e 01 c8 6c bb
       -0.26493818 -0.10246361 0.1597653 -0.0036129954
000040 05 4e 01 be 42 67 2f be 3d aa d4 3d 59 83 ea bd
       -0.12627418 -0.17129233 0.10384033 -0.11450834
000050 c7 6e 3a bc eb 45 0b be 23 cf 87 3e 93 3b 09 be
       -0.01137895 -0.1360089 0.2652522 -0.13401632
000060 a0 e6 13 bd 8b 26 12 3e 6e 77 ea 3d 5f 2b 34 3c
       -0.036108613 0.14272515 0.11448561 0.010996669
000070 eb 74 c1 3b 24 70 e7 bd 3e 61 32 3d 94 b9 20 3e
       0.0059038303 -0.11300686 0.04354977 0.15695792
000080 85 a4 52 be d3 46 34 3e 10 93 02 3e be e0 0c be
       -0.20570572 0.17605142 0.12751412 -0.13757607
000090 40 6a 87 3d 09 11 80 3e f4 cc 9a 3c cc 8b 56 be
       0.066120625 0.25012997 0.018896557 -0.20951766
0000a0 ee 15 11 bd 51 19 a2 bd 04 65 e8 3d a0 8c e6 bd
       -0.035421304 -0.07914985 0.11347392 -0.11257291
0000b0 22 54 13 3e 09 4f 58 bb 4b fb f7 3d c2 d0 fe bd
       0.14387563 -0.0033006093 0.12108477 -0.12442161
0000c0 33 2d 5a 3d 82 ac df 3d 04 a6 91 bd da 61 2b be
       0.05326576 0.10921575 -0.07111743 -0.16736546
0000d0 1f 50 2e 3e 90 e7 ae 3d d0 f2 0d be 31 85 d6 bd
       0.17022751 0.08540261 -0.13862157 -0.10474623
0000e0 08 38 dc 3d c7 72 a6 3c 86 b9 06 3e e3 9a 22 3e
       0.107528746 0.020318402 0.13156709 0.15879397
0000f0 e0 0f d8 3d c5 8e e8 bd 9a 78 85 be 01 d0 fd bc
       0.10549903 -0.11355356 -0.26068574 -0.030982973
000100 09 5e 56 be 30 3a 54 3c ee a0 e9 bd 25 1f 00 be
       -0.20934309 0.012953326 -0.11407648 -0.1251188
000110 f1 af 82 3e a8 56 2d be ee 99 34 3e 38 71 2f be
       0.25524858 -0.16927588 0.17636845 -0.17133033
000120 21 d9 a7 bc 91 c5 01 be 49 68 35 3e 53 3f 7d 3e
       -0.020489277 -0.12673022 0.17715563 0.24731188
000130 d2 92 fd bd a0 38 47 3e 77 fa f1 bd 94 7c 14 3c
       -0.123815194 0.19455194 -0.118153505 0.009062905
000140 ff a6 95 3d b0 b1 09 3e 80 81 1e 3e 50 88 16 3e
       0.073072426 0.13446689 0.15479088 0.14700437
000150 43 85 32 3e 98 b9 3c be b8 06 09 3e 9a b3 d8 3d
       0.17433648 -0.18430173 0.13381469 0.10581131
000160 db 7e 6b 3e cf 3b 51 3c e9 9d 4c 3c d6 46 17 bd
       0.2299761 0.012770607 0.012488821 -0.03693279
000170 9e 6b 97 3d 43 a0 99 3d 17 17 44 be e4 20 b7 3d
       0.07393573 0.075012706 -0.19149433 0.0894182
000180 fe e8 90 be 92 c9 1f 3d 11 bb 46 3c 5b e5 57 3d
       -0.2830276 0.03901059 0.012129561 0.052708965
000190 a7 56 94 3c 6d 4f 81 3e f6 22 2a be 55 c9 f0 bd
       0.018107725 0.2525591 -0.16614899 -0.11757151
0001a0 a0 d3 4e 3e af de d4 bd 85 7d 70 3d 36 52 02 be
       0.20197916 -0.10394036 0.058713455 -0.12726673
0001b0 e6 90 a9 bd 85 dd 5b 3e b5 fe e3 bd f6 aa 0e bd
       -0.0827959 0.21471222 -0.11132566 -0.03483101
0001c0 b5 75 92 bd 6e 48 50 be 4e c9 10 3e fc bc 56 be
       -0.07151357 -0.2034013 0.14139292 -0.2097053
0001d0 52 ba 81 3e 3d a2 03 3e 01 5f 1b 3e e9 0d 6d 3d
       0.25337464 0.12854858 0.1517296 0.057874594
0001e0 d4 c1 67 be c2 13 42 3d 63 44 26 3e 22 a8 b4 3d
       -0.22632533 0.047382124 0.16237025 0.08821131
0001f0 65 68 2b 3e f1 d7 56 3e bb c9 e8 bd fd ca 1b 3e
       0.16739042 0.20980813 -0.11366602 0.15214153
000200 64 90 3d 3e 09 c2 7c bd b4 16 66 3e 0f 91 19 be
       0.18512112 -0.061708484 0.22469598 -0.14996742
000210 35 62 bc 3d e7 39 9a bd 20 43 81 be c8 48 75 bb
       0.09198419 -0.07530575 -0.25246525 -0.0037427414
000220 18 b8 85 be 81 4a 91 3d e5 e1 0c be e5 f1 10 3e
       -0.26117015 0.070942886 -0.13758047 0.14154775
000230 07 f8 06 3e 87 45 35 bd d8 e6 37 3e fa 32 1a 3e
       0.13180552 -0.04425576 0.17959154 0.15058509
000240 16 04 9b bc 0a f8 51 3c e0 64 d8 3d 40 0c 4a be
       -0.018922847 0.012815485 0.105661154 -0.19731236
000250 e4 a4 9e 3e 80 f2 59 be e7 e1 5f be 5c 6b 1a bd
       0.30985177 -0.21283913 -0.21863519 -0.037700042
000260 d4 2b f3 bd dd 92 4a be ca 39 1c 3e a9 18 4b be
       -0.11873594 -0.19782586 0.1525642 -0.19833626
000270 5f 2a 98 bd 9f 9d 52 3e de fc db bd 51 9d 32 3e
       -0.07429957 0.2056794 -0.1074159 0.17442824
000280 f9 4f d6 bc a2 7b 42 3e 2c d4 06 3e a1 8f 29 3e
       -0.02616118 0.18992475 0.13166875 0.16558696
000290 28 d5 a9 38 5f 14 18 3e fc 44 68 3e cf cb 2f be
       8.0982514e-05 0.14851521 0.22682565 -0.1716759
0002a0 ad d0 27 3e eb 52 47 3e 76 11 31 be d8 3a 7a bb
       0.16388197 0.19465224 -0.17291817 -0.0038182046
0002b0 0b 55 06 be 73 9d 51 be 8f 1e 85 3d f2 f6 bf 3d
       -0.13118379 -0.20470218 0.06499969 0.09373273
0002c0 f8 7d 85 3e 34 ac 86 3a f0 f2 a8 3d 45 74 c2 ba
       0.2607267 0.0010274709 0.08249462 -0.0014835676
0002d0 02 93 b3 3c 05 51 1e be a0 ff f8 3d bc 16 81 be
       0.021920685 -0.15460594 0.121581316 -0.25212657
0002e0 88 dc ea bd cd 2f 61 3d 6e e8 66 3e cf 85 6c 3e
       -0.11467844 0.054977227 0.22549602 0.23097919
0002f0 f7 87 56 be a2 51 0b bc 41 06 8d bc fd cf 11 3d
       -0.20950304 -0.0085033495 -0.017214896 0.035598744
000300 8a 77 79 bd 74 17 63 be 25 ae 44 3e 45 40 54 3d
       -0.060905017 -0.22176915 0.19207056 0.051819105
000310 6c 7b e2 bd cf 16 e1 3d 4c 47 43 be 99 5a 4d 3e
       -0.11058697 0.109906785 -0.19070166 0.20054092
000320 99 5b 57 3e 2f 68 70 bc 10 7a 4d 3e 56 43 54 3e
       0.21031035 -0.014673277 0.20066094 0.20728812
000330 1e 0c 5b bc 61 b0 4e be 4d 02 0e be 8f 71 c3 3d
       -0.013369588 -0.2018447 -0.13868065 0.09543144
000340 64 99 8a bd fd a1 17 3e 24 6f 90 bd 07 cc 11 3e
       -0.06767538 0.14807887 -0.070524484 0.14237987
000350 bb 31 c6 3c e5 9c 38 be 25 6e 28 be c9 61 65 be
       0.024193635 -0.180286 -0.16448267 -0.22400583
000360 5a 42 7a be 56 fa f2 3d 7e 02 d3 bd 16 72 34 be
       -0.24439374 0.11864154 -0.1030321 -0.17621645
000370 28 41 d0 3c 4b 62 3f 3e 7b 8b 3e be d1 00 58 be
       0.025421694 0.1868984 -0.18607895 -0.21094061
000380 bd 63 cf bd cc a1 42 3e 09 0a de 3d db 01 41 be
       -0.101264454 0.19007033 0.10841758 -0.18848364
000390 d4 27 8c 3c 36 a1 6d 3e 11 97 9c 3d 1f 42 df 3d
       0.017108835 0.23206028 0.07646001 0.109012835
0003a0 bb 40 4a 3d d6 4d 55 be 55 6d 71 be 5a 43 ac 3d
       0.049378138 -0.20830473 -0.23576863 0.08411284
0003b0 d3 67 ca 3d 91 26 14 3e 90 f6 2b 3e bb bd e6 3d
       0.09883084 0.14467837 0.16793275 0.11266657
0003c0 be 53 15 3e da c0 16 3e 0c 26 f2 3d fc 43 26 3e
       0.14582726 0.14722005 0.11823663 0.16236871
0003d0 b9 43 b2 bd 2f 74 f9 bd b7 e5 f4 bd 2b 55 6e be
       -0.08704323 -0.121803634 -0.11957877 -0.23274677
0003e0 69 36 86 be 35 87 61 3d 97 98 86 3d bc 7b 4a 3e
       -0.26213387 0.055060584 0.06572073 0.19773763
0003f0 b7 53 9a bc a2 c8 7c bd 98 79 31 bd 00 b8 7a 3e
       -0.018838746 -0.061714776 -0.04332885 0.24484253

ode_net.grad_module.2.bias f4 [16]
000000 96 3e 00 3e 93 07 54 bc 53 de 28 3d 85 17 6c be
       0.12523875 -0.012941259 0.04122765 -0.23055847
000010 c2 df 0f be 93 9e 1f be f0 a6 b7 3d d3 4d 3b bc
       -0.140502 -0.15587835 0.08967388 -0.011432129
000020 91 89 16 be 63 78 e8 bd a0 e0 8e bd b5 fc a0 3d
       -0.14700915 -0.11351087 -0.069764376 0.078607
000030 dd 15 58 3e 47 d4 5c be dd 1a 23 be 1c f4 0d 3e
       0.2110209 -0.21565352 -0.15928216 0.13862652

exp_avg f4 [64, 7]
000000 4e f5 82 3a 67 3f 84 35 22 c1 3d b8 c5 4e 26 ba
       0.0009991319 9.853219e-07 -4.524098e-05 -0.0006344135
000010 e5 a8 28 3a 91 7d e2 b9 d2 65 ed b8 bd 9c 9f b9
       0.00064338587 -0.00043199633 -0.00011320006 -0.00030443622
000020 5a 7c b6 39 2e f3 08 3a 99 eb 61 ba de 48 c7 b9
       0.00034806394 0.0005224225 -0.00086181756 -0.00038010528
000030 80 c4 3e 3a b2 bd 1a 3a da 07 1f 3a c4 04 5c 3a
       0.00072772056 0.00059029006 0.00060665386 0.0008393044
000040 67 35 99 b9 a7 40 57 ba 2c 43 18 3a 8f a5 00 3a
       -0.00029222222 -0.0008211233 0.0005808349 0.00049074827
000050 fe 55 68 ba 5b 79 fe 39 60 3d 9a 38 67 f2 e2 38
       -0.00088629115 0.00048537072 7.354724e-05 0.00010821671
000060 e9 90 24 ba 17 8d a0 39 43 7d ff b8 8f 8d f3 39
       -0.0006277697 0.00030622698 -0.00012182679 0.0004645404
000070 aa 15 1d 3a 18 13 5d 3a ce 29 13 b9 70 cb 14 38
       0.0005992303 0.0008433326 -0.00014034586 3.5475416e-05
000080 07 81 97 3a 4a 5e c8 b9 96 66 29 ba fa 80 c6 38
       0.0011558839 -0.00038217223 -0.0006462125 9.4653995e-05
000090 6d b8 a5 b9 ab 35 b7 38 dc 46 06 ba 59 9d cf b8
       -0.0003160866 8.7361164e-05 -0.0005122253 -9.8998375e-05
0000a0 07 6d ec 38 52 c9 18 3a f0 e5 24 b9 eb 84 bf b9
       0.00011273665 0.0005828339 -0.00015725917 -0.0003652939
0000b0 62 e2 0d ba 41 4c a1 b8 69 65 1e b9 45 c6 7e b9
       -0.0005412457 -7.691282e-05 -0.00015105832 -0.00024297189
0000c0 16 ef 07 b9 dd 54 34 ba 09 e0 d9 38 79 4d 10 38
       -0.0001296367 -0.00068791007 0.00010389096 3.4404427e-05
0000d0 65 b3 3c ba 52 85 9b b7 37 c5 a3 39 5b d5 a3 39
       -0.0007198363 -1.8539522e-05 0.0003123672 0.00031248745
0000e0 fd 9e 14 39 a9 32 53 3a 72 ef d7 38 13 eb 6d 39
       0.00014173608 0.000805656 0.00010296599 0.00022689653
0000f0 b6 a1 ad b9 6b f8 ce 39 2b 8a 87 39 f8 06 66 3a
       -0.00033117615 0.00039476468 0.0002585215 0.0008774842
000100 60 29 59 3a 5e f8 03 b8 04 6a c8 b9 e2 db 66 3a
       0.00082840584 -3.1464144e-05 -0.0003822596 0.0008806569
000110 8c a5 8a ba 68 03 a1 ba 25 cc 0e ba a5 39 46 ba
       -0.0010577901 -0.001228434 -0.000544729 -0.000756169
000120 19 43 57 ba cf 25 0c b9 da d0 c0 b9 96 75 c5 b9
       -0.00082115975 -0.00013365525 -0.000367767 -0.00037662376
000130 f1 c3 e1 39 91 32 b0 b8 7e 7f 15 39 ef c9 7c b9
       0.00043061332 -8.401753e-05 0.00014257242 -0.00024107819
000140 ba b5 74 b7 f9 b3 96 39 67 2a 05 39 b6 aa 25 3a
       -1.4585845e-05 0.0002874432 0.00012699665 0.00063196884
000150 0f 79 4f b8 7c 91 ce 39 e8 d6 51 38 c7 c7 68 b9
       -4.946539e-05 0.00039399776 5.002963e-05 -0.00022199667
000160 1c 32 f5 b8 37 d7 14 b8 46 06 a6 37 bf 96 82 ba
       -0.00011691844 -3.5486384e-05 1.9791663e-05 -0.0009963139
000170 98 e8 b1 ba 08 38 83 3a 8d 58 84 ba 3d 5d 85 ba
       -0.0013573347 0.0010011205 -0.0010097191 -0.0010174882
000180 8e d2 39 3b 3e 54 7a 3a dc 94 a0 b8 97 53 8b b8
       0.002835426 0.0009549296 -7.657122e-05 -6.643606e-05
000190 7d 1c c0 b9 fd 0c e7 b9 51 47 d0 39 32 5b 12 ba
       -0.0003664232 -0.0004406943 0.00039725986 -0.0005583047
0001a0 53 bd 44 ba 8c cd 25 39 e4 a3 d7 39 69 30 02 3a
       -0.0007505018 0.00015812198 0.00041130104 0.000496632
0001b0 9e 9a 8c b8 0c 58 92 39 85 71 68 38 73 c9 ca 39
       -6.70452e-05 0.0002791289 5.5418834e-05 0.00038678534
0001c0 8a e7 82 3a 76 66 79 b9 a1 86 b2 b6 b0 b7 67 ba
       0.0009987217 -0.0002378466 -5.3204863e-06 -0.0008839322
0001d0 42 c1 f5 39 5a 73 4b b8 d2 0d 12 38 75 8f ce b9
       0.0004687403 -4.85064e-05 3.4821984e-05 -0.00039398266
0001e0 fa 36 a8 39 75 24 bc 39 bd 2a 84 ba b9 f9 e3 b9
       0.00032084418 0.00035885317 -0.0010083538 -0.00043482872
0001f0 7a 4f 3f 3a 06 5f 15 3a 91 bd 52 3a c5 a0 df 3a
       0.00072979147 0.00056980585 0.0008039112 0.0017061463
000200 06 bd ca 37 42 c5 b1 ba 47 96 45 3a e4 77 0f 3a
       2.4168297e-05 -0.0013562816 0.00075373467 0.0005472882
000210 e5 44 9a ba 3d 08 80 3a 7a 4e 98 39 f0 ed 0e 38
       -0.00117698 0.000976808 0.0002905017 3.4077035e-05
000220 81 41 a8 ba ef 40 8b 3a 5c 7c 34 b9 f5 7e c2 3a
       -0.0012836904 0.001062421 -0.00017212465 0.0014838862
000230 94 4d e8 39 01 85 43 3a b0 3d 81 b9 17 29 1d 3a
       0.00044308288 0.0007458479 -0.00024650758 0.00059951976
000240 4b 95 ad 3a c9 fc 99 39 3a d5 ad ba 24 73 ff b7
       0.0013243345 0.00029370774 -0.0013262399 -3.0451985e-05
000250 e9 63 a3 b9 e1 44 1c 39 7d 7d 5c ba cb de 39 b9
       -0.00031164222 0.00014902979 -0.0008411033 -0.00017725972
000260 93 8c b7 38 cf 72 86 3a a0 12 c9 b9 eb 31 31 ba
       8.752304e-05 0.0010257604 -0.00038351584 -0.00067594525
000270 f0 24 73 ba c5 97 55 b9 17 64 99 b9 0c 4d 6c b9
       -0.00092752185 -0.00020369801 -0.00029257007 -0.00022535416
000280 3d a8 16 b9 86 15 8d ba c3 4e c4 39 81 af a8 b9
       -0.00014367788 -0.0010763861 0.00037442715 -0.00032174218
000290 be 1a 71 b9 d6 33 96 38 42 82 af b8 2d 5d 17 b8
       -0.00022993513 7.1622126e-05 -8.368913e-05 -3.6087982e-05
0002a0 05 ab d6 39 d6 d4 c0 3a 8a 29 12 3a 8b b0 52 3a
       0.0004094468 0.0014711868 0.0005575648 0.0008037171
0002b0 3b 3e 73 36 88 7e 5b 39 3b fa 5f 3a b7 b2 30 3a
       3.6246045e-06 0.00020932604 0.0008544062 0.0006740498
0002c0 22 23 1a 3a 59 89 c7 39 b9 f6 b0 b9 87 cf 29 3a
       0.0005879869 0.0003805857 -0.0003375316 0.00064777624
0002d0 c7 6c db 37 d8 bd 90 ba 3d 3f 3a ba 1d 13 81 ba
       2.6157488e-05 -0.0011042906 -0.000710476 -0.0009847615
0002e0 ee 7a 93 ba 70 7b 64 b9 8f b8 a6 b9 13 bd 09 ba
       -0.0011251846 -0.00021789758 -0.00031799494 -0.00052543095
0002f0 c8 f9 37 3a 9f e3 25 ba fd bd b3 38 91 77 9b b9
       0.00070181163 -0.00063281687 8.570773e-05 -0.00029652988
000300 25 43 9a b8 40 3e 68 38 a1 05 bb 38 e8 fc fb 39
       -7.355799e-05 5.5371085e-05 8.917903e-05 0.0004806288
000310 b4 bb 5c b9 0c 19 18 3a 48 15 c6 b8 45 19 d8 b9
       -0.0002105076 0.0005802072 -9.44534e-05 -0.00041217558
000320 34 5a 17 b9 a5 15 fc b9 f7 a3 83 b9 5c 43 d3 ba
       -0.00014434085 -0.00048081312 -0.0002510843 -0.0016118097
000330 85 fa 19 bb 55 da 80 3a 4c fa 5e ba 62 5e dd ba
       -0.0023495269 0.0009830693 -0.0008505925 -0.001688909
000340 8a 70 97 3b 09 de 1d 3a af 21 89 b9 99 00 1e 39
       0.00462157 0.00060221605 -0.00026155773 0.00015068277
000350 a4 66 07 ba 18 8d ee b9 1c 31 89 b7 9e aa 97 ba
       -0.0005165136 -0.0004550002 -1.6354541e-05 -0.0011571234
000360 b5 64 86 ba bd 7f bf 39 c8 be 16 3a 2d 60 34 3a
       -0.0010253402 0.0003652553 0.00057504745 0.00068807864
000370 3b c5 ad b8 da 6f c0 39 02 ad 7c 39 6f 8d c3 39
       -8.28602e-05 0.0003670443 0.00024097043 0.00037298675
000380 7e e2 23 bb 5f c5 c6 3a c7 10 f6 39 9c 1d 02 3a
       -0.0025006826 0.0015165022 0.00046933276 0.00049635186
000390 0b de 69 3a 1b 8d 49 3a f1 35 92 bb c1 ec 0f 3b
       0.00089213316 0.0007688568 -0.0044619967 0.0021961185
0003a0 ec 1a a9 3a 30 41 cb 3a 36 c4 1e 3b c1 80 c3 3a
       0.00129017 0.0015507098 0.0024225838 0.0014915691
0003b0 6c 91 f7 ba eb 4e 3c 3b 6e 65 dc ba 50 2e a3 ba
       -0.0018887944 0.0028733562 -0.0016814896 -0.0012449715
0003c0 98 57 22 3b 26 bd 5b 3b 10 9a e9 3a 86 ee 6b 3b
       0.0024771448 0.003352949 0.0017822403 0.0036000325
0003d0 31 9c e1 ba 40 f9 2c 3b 2e 7c ff 3a 44 5d a1 b9
       -0.0017212686 0.0026393682 0.0019491964 -0.000307778
0003e0 82 99 27 39 23 47 53 3b 1c bd 52 b9 ba b1 71 ba
       0.00015983547 0.0032238446 -0.0002009761 -0.0009219904
0003f0 3b 91 09 ba 12 e3 1a bb f6 a1 75 3b ca 0d be ba
       -0.0005247776 -0.002363388 0.003748057 -0.0014499959
