ckpt/rnn_ode_2_3_nobias/best.pth (torch_old, 20858 bytes, 30 tensors)

rnn.weight_ih_l0 f4 [16, 7]
000000 28 ba 4d bc 63 19 30 3d 12 8f 2a 3e ce aa 09 3e
       -0.01255659 0.04299296 0.1665614 0.13444063
000010 99 4d ca bd cd b8 ab bd ff 49 15 be 30 19 3d be
       -0.09878082 -0.08384857 -0.14579009 -0.1846664
000020 9b 8e f5 3d d6 06 29 be e5 3c b0 3d 6d 97 0d 3e
       0.119900905 -0.16506514 0.08605365 0.13827296
000030 3f ea 71 be 3c fe 2f 3e cb ac 32 3e a4 da f4 bd
       -0.23624514 0.17186826 0.17448728 -0.11955765
000040 68 8d 1c 3d c2 96 69 3d a8 df 4d 3e c0 d2 7e 3e
       0.038220793 0.05702854 0.2010485 0.24885082
000050 9e 74 41 be 2c d4 63 3e 75 64 a0 bd 6c 90 c4 bd
       -0.18892142 0.22248906 -0.07831661 -0.09597859
000060 26 b0 6b 3d 71 68 91 bd 0e 78 77 bd 69 87 a7 3d
       0.057541035 -0.07099999 -0.060417227 0.08180124
000070 13 77 ca 3d bf 27 31 3e fe e3 4b be 98 f8 91 be
       0.09885993 0.17300318 -0.19911191 -0.28509974
000080 24 54 fc ba 58 13 2e be a6 bd 34 be 90 29 86 bd
       -0.001925115 -0.16999567 -0.1765047 -0.06550896
000090 52 39 83 3d 27 11 dd bd 13 5d 32 3e 32 85 03 3d
       0.06407417 -0.10794287 0.17418317 0.032109447
0000a0 e3 0c f6 bd e4 8b 61 be 50 8c 20 3e 05 e1 1d bd
       -0.12014177 -0.2202602 0.15678525 -0.038544673
0000b0 78 cb 15 3e 71 cf b7 3d 64 34 ba bc 54 a7 27 3e
       0.14628398 0.08975113 -0.02273006 0.16372424
0000c0 29 1b 9f be be b4 0d be db 85 f6 3c 39 2d 67 be
       -0.3107541 -0.13838479 0.030093124 -0.22575845
0000d0 ea 4e 08 be 0c 58 34 3e 40 69 9f 3e ab be 86 3e
       -0.13311353 0.17611712 0.31134987 0.26317343
0000e0 8c d1 31 3e b9 b5 91 bd 8b 38 83 be 6e eb 20 be
       0.17365092 -0.07114739 -0.25629076 -0.1571481
0000f0 5a 15 c1 3c 6a de 23 bd 9e 0c e9 bc 72 96 21 be
       0.023569752 -0.040007032 -0.0284484 -0.15780047
000100 e1 11 ae bc 83 e0 56 be 78 96 38 be ec 4a fe 3d
       -0.02124876 -0.20984082 -0.1802615 0.12416634
000110 ca 88 0b be 08 92 4c be b1 6f ea 3c 7e 59 e7 3d
       -0.136264 -0.19977582 0.028617712 0.11296366
000120 fb f6 6d bd 23 48 ee 3d a4 51 ca 3d 29 c1 64 be
       -0.058096867 0.11634853 0.09878853 -0.2233931
000130 a3 ec 83 3e 26 38 2c be e1 0b d1 3d 2f 30 f1 bd
       0.25766477 -0.16818294 0.10207344 -0.117767684
000140 e9 56 37 3d 18 83 34 bd f6 cd 00 be 32 57 c7 3c
       0.04476062 -0.044070333 -0.12578568 0.02433357
000150 03 e8 3f be 3b 9e e0 bd 22 c0 e3 bb f3 2e 42 3e
       -0.18740849 -0.1096768 -0.0069503943 0.18963222
000160 b9 83 29 be 9a bf bc 3d 3e fe 65 3e 87 ce 19 be
       -0.16554154 0.092162326 0.22460267 -0.1502019
000170 96 2f be 3d a5 39 3e be a2 1a 95 3d 6c 61 ae bd
       0.0928642 -0.18576677 0.072804704 -0.085146755
000180 1d ad 00 be a1 af c2 bd d5 f6 2a be 09 76 cc 3d
       -0.12566037 -0.09506155 -0.16695721 0.09983451
000190 3d 48 5b be 00 ed 15 3d b3 63 60 be a0 3f 75 3e
       -0.21414275 0.036602974 -0.21913032 0.23950052
0001a0 0e 96 0f bd ff 7c 13 3e d2 9c 0c be bf 33 d8 bd
       -0.035055213 0.14403151 -0.13731697 -0.10556745
0001b0 f1 b1 1c 3e 5b 6a 12 be 03 5b 20 be 03 a0 83 3e
       0.15302254 -0.14298384 -0.15659718 0.25708017

rnn.weight_hh_l0 f4 [16, 16]
000000 ba b6 67 3e 53 bb c5 bd 0a 13 2a 3e 41 01 1a be
       0.22628298 -0.0965487 0.16608825 -0.15039541
000010 46 0b e2 3d 0b d0 2e be cd be 56 bd d1 b5 9f be
       0.110373065 -0.1707155 -0.052428056 -0.31193402
000020 9d a0 a1 3d 8d 21 26 3d 90 dd ec bd 61 1a 46 be
       0.07891963 0.04055934 -0.11565697 -0.19346
000030 c5 71 49 be 30 55 0a 3e b7 e0 d9 3c 84 8f d4 3c
       -0.19672306 0.13509059 0.02659641 0.02594734
000040 8d 12 33 3e 85 df 2d be 53 b1 40 be 4c 19 41 3e
       0.17487545 -0.16979797 -0.18817644 0.18857306
000050 16 f2 2d be 3f ba 5c be 46 50 5e be e9 cb 4e be
       -0.1698688 -0.21555422 -0.2171031 -0.20194973
000060 f9 03 10 be f7 ae b9 3d 62 9c 07 be fb 40 d6 ba
       -0.14064015 0.09066575 -0.13243249 -0.001634627
000070 1a 59 91 be d1 e1 6b bd 6c 55 73 be a4 7e 45 3d
       -0.28388292 -0.057588402 -0.23763055 0.048216477
000080 68 26 e1 bd 6e 49 a4 bd 13 bc 83 3e 59 62 26 be
       -0.109936535 -0.08021818 0.25729427 -0.16248454
000090 e3 55 9f 3d b3 a0 7e 3e 0e 0a 92 bb 5e e3 90 3d
       0.077800535 0.2486599 -0.004456765 0.07074617
0000a0 b6 58 20 3e 06 33 7e 3e 19 fc 5b bd ec eb 9c bd
       0.1565884 0.24824151 -0.053707216 -0.07662186
0000b0 6b bc b7 bc 4a d4 23 be b4 05 bd 3d db 82 69 bd
       -0.022428712 -0.1599895 0.092296034 -0.05700956
0000c0 3f 37 04 be e8 37 5f be af be 05 be 8f 8c 56 3e
       -0.129117 -0.2179867 -0.13061021 0.20952056
0000d0 31 6c 22 3c 11 7d 7e 3e 5f 04 57 3e 3f f1 8d be
       0.00991349 0.24852397 0.20997761 -0.2772312
0000e0 a7 da be bb 5d e6 27 3e 3f 64 66 be cc 0f 0c 3a
       -0.0058244052 0.1639647 -0.22499178 0.000534293
0000f0 a9 f9 44 be 07 da d8 3c 78 ef ce bc 9a 70 9a be
       -0.19235863 0.026471151 -0.025260672 -0.30164033
000100 f7 56 59 bd 47 fb d7 3d 51 e2 c7 bd 94 2f 0d 3e
       -0.05306145 0.10545974 -0.09759963 0.13787681
000110 e3 f6 7e be ac 44 dc 3c a4 b6 66 be 85 47 13 3e
       -0.24898867 0.026888214 -0.2253061 0.14382751
000120 ad 06 53 be 9a a8 27 3e 6a 20 37 3c 71 4f 3a 3e
       -0.20608015 0.1637291 0.011177162 0.18194367
000130 de 87 8e 3e e8 c8 43 be 7a 73 8f bd e5 9e 6f 3e
       0.27838033 -0.19119608 -0.07004447 0.23400457
000140 7d 5e 07 be 85 f7 58 be da 60 eb 3c 70 be 8b be
       -0.13219638 -0.21188171 0.028732706 -0.2729373
000150 48 97 6e 3e 8d 60 32 3e 58 3d 69 3d 30 ad 2a be
       0.23299897 0.17419644 0.056943268 -0.16667628
000160 71 7b 24 be 5e 55 d6 3d 9e 82 54 3e 3d d7 06 be
       -0.16062714 0.10465501 0.20752952 -0.13168044
000170 fa 7f 07 3e ff 44 e4 bd 5d a5 39 be 9b 25 54 be
       0.13232413 -0.111459725 -0.18129487 -0.2071747
000180 6d ed d6 3d 41 15 e1 bd 71 c6 4b 3e 2f 36 8e be
       0.10494504 -0.10990382 0.19899918 -0.27775714
000190 4f f5 70 3e fe 11 87 bd f8 f1 9a bc c6 69 f8 3d
       0.23531078 -0.065952286 -0.018914208 0.1212955
0001a0 1a c3 ec bd 31 9f 64 bd 1e 1a 75 be a3 9c 21 be
       -0.1156065 -0.05581588 -0.23935744 -0.15782408
0001b0 a7 3d ea 3d f7 d7 9c bd ba 6d cb bd f4 a5 07 3e
       0.114375405 -0.076583795 -0.09933038 0.132469
0001c0 b2 76 a8 bd 52 55 a6 bd 48 96 0e 3e b3 ed 28 be
       -0.08225764 -0.08121742 0.13924515 -0.16496925
0001d0 c5 94 a0 3c cf d0 bb 3d ed cf f0 bc 21 61 99 3d
       0.019602189 0.091706865 -0.029396022 0.07489229
0001e0 d8 87 11 bd 53 bf f2 3c 03 18 c1 3d ac b4 ad 3d
       -0.03552994 0.029632246 0.09428408 0.08481726
0001f0 7e 52 50 be 67 14 f7 3d 3d 80 8f 3e 88 66 cc 3d
       -0.20343968 0.12064438 0.28027526 0.09980494
000200 b5 e0 5f be f5 f7 de 3d e0 ce d5 bd 9f e2 ee bd
       -0.21863063 0.10887138 -0.10439849 -0.11664318
000210 1b f6 3d 3e 0b 3c a9 bd 6d 24 0e be bb 68 18 be
       0.18550913 -0.082634054 -0.13881083 -0.14883702
000220 a1 f0 1a be 47 15 83 be 61 10 1a 3d 4b e3 b8 3d
       -0.15130855 -0.2560217 0.037613276 0.09027728
000230 97 fa b2 3d b8 14 d9 3c 0d 33 e0 3d 26 d0 72 3e
       0.087392025 0.026499137 0.10947237 0.23712215
000240 2e 77 38 3e 58 e6 cf bc 34 a0 96 3d c3 e1 7c 3d
       0.18014213 -0.025378391 0.07354775 0.06173874
000250 46 a6 3f be 24 e6 6a 3e f5 46 9d b9 0c 01 60 bd
       -0.18715772 0.22939354 -0.0002999824 -0.0546885
000260 60 fc 9a 3e 5e d1 33 be 99 3c ea 3b 11 6b 17 be
       0.30270672 -0.17560336 0.007148337 -0.14786936
000270 d7 a4 8e 3b 1e 23 47 3e f5 ea 2d be 6c af 13 3d
       0.0043531465 0.1944699 -0.1698416 0.036055967
000280 38 95 96 be f9 f5 47 3d d6 d1 69 bd a5 a1 2c bd
       -0.2941072 0.048818562 -0.05708488 -0.042146344
000290 68 72 64 bd 5a f5 bc bd e5 eb 64 bb b9 18 e1 bd
       -0.05577317 -0.092264846 -0.0034930643 -0.109910436
0002a0 73 03 65 be 8c 22 a6 bd bc 45 37 3d 9c 17 90 bd
       -0.22364597 -0.08112058 0.04474424 -0.07035753
0002b0 54 ad 64 be 23 a4 d3 bd 05 2c 47 3e fa 8e f3 3d
       -0.22331744 -0.10334041 0.19450386 0.11892505
0002c0 f7 7a 2a 3d cc 7e 22 3e e6 fc b5 3c 1f 71 11 3d
       0.041621175 0.15868682 0.022215318 0.03550827
0002d0 32 da ed bd d6 29 00 be bc cb 06 be 78 6b c0 bd
       -0.11613883 -0.12515959 -0.13163656 -0.09395498
0002e0 8d ac 5d 3e 9e 40 23 bd 80 d0 53 be fd 6d 0e be
       0.21647854 -0.039856546 -0.20685005 -0.13909145
0002f0 7c ec f0 bd 44 7b 4a be bd cf 39 3d 33 51 b3 3d
       -0.11763856 -0.19773585 0.04536413 0.08755722
000300 df 3f 7c be 08 3f 1b bd 0c 88 e2 3d 6d 13 fd 3a
       -0.2463374 -0.03790191 0.11061105 0.0019308157
000310 fe 32 1c 3d be 74 8a bd bb f4 67 be 44 87 05 3e
       0.038134567 -0.06760548 -0.22651951 0.13039881
000320 fd 22 f9 3d 33 4a 1a 3e 89 22 a5 3e 59 74 f5 bd
       0.121648766 0.15067367 0.3225291 -0.11985082
000330 56 5b ec 3d 43 33 e2 3b c5 a7 03 3e 50 e8 28 3e
       0.115408584 0.0069030835 0.12856968 0.1649487
000340 e9 32 4b 3e d7 c3 5f 3e 74 b2 f7 3c 56 d3 66 3e
       0.1984364 0.2185205 0.03023646 0.22541556
000350 57 c1 8c 3e f8 bc e1 bc 7f af 73 3e 79 a7 9c be
       0.27491257 -0.027555928 0.23797415 -0.30596521
000360 d7 56 40 3e 2c 4e 2e be 8f f2 4e be fe 26 48 3e
       0.18783127 -0.17022008 -0.20209716 0.19546124
000370 f4 ef ba 3d d8 52 34 3d 3f 82 36 3e 8f 4c 7a 3d
       0.09127799 0.04402432 0.17823122 0.06110817
000380 fe 33 ec 3d 8b cf b8 bc a2 1f 4b 3d 95 05 09 bb
       0.11533354 -0.022559902 0.049590714 -0.0020907868
000390 05 37 e6 bd 2d 7b 02 be bc 7b 6c 3e 94 72 e1 bd
       -0.11240963 -0.127423 0.23094076 -0.11008182
0003a0 95 ac ac 3c e2 a0 02 be 9a 27 93 bd dd 4b 26 bd
       0.021078387 -0.12756684 -0.07185288 -0.040599693
0003b0 46 5f 36 bd d7 7a 08 3e 01 d1 90 3e 9d 3c 24 bd
       -0.044524454 0.1332811 0.28284457 -0.040096868
0003c0 6c ba 42 3e 5d b2 5b be 01 9c 86 bd 8e 09 b9 3d
       0.19016427 -0.21454759 -0.06572724 0.090350255
0003d0 c6 8a 83 3e 9f d8 74 be bc 3b 5d be c5 4d b9 3d
       0.25691813 -0.2391076 -0.21604818 0.090480365
0003e0 a7 df 9a 3d c3 1b 21 be d9 43 5b 3e 1b c7 05 bd
       0.075621895 -0.15733247 0.214126 -0.032660585
0003f0 6e a4 3c 3e 7c ac 80 bd 27 74 f2 bd b0 2c ad bd
       0.184221 -0.06282899 -0.118385606 -0.08455789

rnn.bias_ih_l0 f4 [16]
000000 c9 01 86 3c f5 90 69 3d 77 10 71 bd 39 e8 30 3e
       0.016358273 0.057023007 -0.058853593 0.17276086
000010 40 2a 9f 3d 70 c0 1f 3e d8 64 0b 3e 18 bd 2b bd
       0.077717304 0.15600753 0.13612688 -0.04192838
000020 4d 2b 60 bb 4e 18 ad bc 8b 51 ab bd 95 45 6a 3d
       -0.0034205497 -0.021129753 -0.083651625 0.057195265
000030 5a 8f 09 bd 03 0e 03 be 75 ac da bc 66 e5 33 3e
       -0.033583976 -0.12798314 -0.026693562 0.17567977

rnn.bias_hh_l0 f4 [16]
000000 8c 2e 50 be 6b 1c 1d bd 96 14 f1 bd 75 1c da 3c
       -0.20330256 -0.03835718 -0.117715046 0.026624897
000010 a6 be 1b be 56 5d c5 3d 65 99 9b 3d 08 95 f2 3d
       -0.15209445 0.09636943 0.07597617 0.11844832
000020 9a 6e c7 bd e5 2f 92 3d 22 7e c7 3d 08 72 68 3e
       -0.097378924 0.071380414 0.09740855 0.2269975
000030 36 91 74 be 35 33 7c 3c 64 1a 8c bc 5f e3 f6 bd
       -0.23883519 0.015393068 -0.017102428 -0.12055086

fc.0.weight f4 [16, 16]
000000 7e 6f 3d 3e 52 29 4b be 1a ac 92 bd 6a d6 2e bf
       0.18499562 -0.19839981 -0.07161732 -0.6829592
000010 4f 69 b6 bd f9 3f 9d 3c b6 4b 59 3e 7e bb 08 3f
       -0.08906805 0.019195544 0.21220288 0.5341109
000020 95 c3 50 be dc c3 08 be 63 d1 d8 3d 85 4f e6 3d
       -0.20387109 -0.13355964 0.10586812 0.11245636
000030 65 e4 ca be 03 16 32 be 20 3e 7b 3d 98 5f 42 be
       -0.39627376 -0.1739121 0.061338544 -0.18981779
000040 ff 1e a0 3e b3 17 07 3f a8 c3 84 3d 1b ba b9 3d
       0.31273648 0.5277054 0.06482631 0.090687
000050 58 4a 22 be 62 f2 83 be 25 8b ca 3c 0d 62 e4 3c
       -0.15848672 -0.2577086 0.024724552 0.027878786
000060 b3 c3 af bc 70 9f 85 be 59 02 ff 3e 4e 16 f5 3c
       -0.021455621 -0.26098204 0.4980648 0.029917862
000070 fb 83 f6 bd 23 2e 9e 3c 23 73 56 be 53 e5 f8 3e
       -0.12036892 0.01930911 -0.20942359 0.4861246
000080 58 eb 62 3e 2e b3 e1 3d c3 a3 7c 3e a0 86 21 3e
       0.22160089 0.11020504 0.24671845 0.15774012
000090 85 ad f8 be 28 39 e9 3e dc 0d 11 be a6 2a 75 3e
       -0.48569885 0.4555142 -0.14165443 0.2394205
0000a0 f7 00 3f 3e e9 bd 0c be f6 20 a7 be ed b1 2c 3e
       0.18652712 -0.1374432 -0.32642335 0.16864748
0000b0 4a ec ad 3d b1 a8 d2 3e ee 06 c2 bd 50 05 21 3d
       0.08492334 0.41144326 -0.09473978 0.039311707
0000c0 c3 27 de 3e 4c 27 47 be 0c d0 1e 3e 16 6f 53 be
       0.4338971 -0.19448584 0.15509051 -0.20647845
0000d0 46 5e f2 bd 3b 20 ba be 14 e9 d7 3d fb e7 80 3c
       -0.118343875 -0.36352715 0.10542503 0.015735617
0000e0 45 69 d2 3e 67 e8 b8 bd 48 7f fe bd fc 02 b2 be
       0.4109594 -0.09028702 -0.12426621 -0.34767902
0000f0 bf b0 6e 3e 52 b8 a5 bd 26 85 1e 3f b6 b9 1e be
       0.23309611 -0.08091797 0.6192192 -0.1550053
000100 26 cc 9d bd 91 7e db bc fa 6c 10 3e 3c 10 45 be
       -0.07704954 -0.02679375 0.14104071 -0.19244474
000110 8a 3c 68 be fa 33 4f be ce 18 d9 be ea 06 88 bc
       -0.22679344 -0.20234671 -0.42401737 -0.01660486
000120 d6 b7 ef be 47 2a 81 be 6f 15 3d 3e 41 ce 2a 3e
       -0.46819943 -0.25227568 0.18465208 0.16680242
000130 d0 aa 06 3f 5d 03 4a be 2d 60 42 3e 3e f4 27 bd
       0.5260439 -0.19727845 0.18982 -0.041004412
000140 69 41 af be 65 db 07 3f 23 cd f7 3d a2 74 b6 bc
       -0.3422959 0.53069144 0.120996736 -0.022272412
000150 70 bb bd bd 7b 26 09 3e 20 d5 62 3e ba 5d 4c 3e
       -0.092642665 0.13393585 0.22151613 0.19957629
000160 9e ec 2a be 93 68 3f be af 7c a4 be 74 40 d5 be
       -0.16691825 -0.18692236 -0.32126376 -0.41650736
000170 3e 87 ed 3c dc 41 c2 be c0 40 25 3e 86 bc 1d be
       0.028995153 -0.37940872 0.16137981 -0.15403947
000180 5d 4a 12 3d 50 53 cb 3e 5e 9c 03 3e b8 f4 b5 be
       0.03571545 0.39712 0.12852618 -0.35538268
000190 e2 0f 48 3e 9f 31 c8 3d 21 7a 21 be f1 bc 9a bd
       0.19537309 0.097750895 -0.15769245 -0.07555569
0001a0 44 7a 78 3e 43 b9 ab 3e 63 a6 91 be c6 00 a6 3e
       0.2426539 0.3353978 -0.28447255 0.32422465
0001b0 7e 57 0d 3e 88 9a 5b be 7e a9 b5 bc c3 a6 c8 3e
       0.13802907 -0.21445668 -0.022175547 0.3918973
0001c0 cc b5 33 3d 8a ef 23 be fd ad c6 3d 71 44 c6 3c
       0.043874547 -0.16009346 0.097011544 0.024202557
0001d0 9e 24 0f bd 88 cc 5e 3e c4 eb cf 3e 48 29 b6 be
       -0.03494703 0.2175771 0.40609562 -0.3557837
0001e0 3f 22 92 be 35 f7 92 be 95 b5 7e be f7 61 ea 3d
       -0.28541753 -0.2870423 -0.24873956 0.114444666
0001f0 21 ae f6 bd f4 20 e6 3d ac 51 11 3f de 52 b4 3e
       -0.12044931 0.11236754 0.56765246 0.35219473
000200 a2 7e b0 bd 7a 9f d4 bc 0b 7a a5 be e8 f6 76 3e
       -0.08617903 -0.02595495 -0.32319674 0.24117625
000210 a4 f0 f0 3d 86 82 a5 be 93 8c 22 3e b3 34 1d 3f
       0.117646486 -0.32326144 0.15873937 0.6140854
000220 62 e2 cf 3d 6d 85 2c be d6 20 b7 bd 3f f8 a2 3e
       0.10150601 -0.16847773 -0.0894181 0.31830022
000230 70 ac 5c 3e 45 d6 4f be 19 5b 85 3e a2 12 86 3e
       0.21550155 -0.20296581 0.26046064 0.2618609
000240 e9 4c 4c 3e 1a f7 79 3e 32 23 39 bf 05 b7 94 be
       0.19951214 0.24410668 -0.7231933 -0.29045883
000250 71 cb 06 bd a9 f7 7e 3e f9 ba 3d bd df 53 e4 bd
       -0.03290886 0.24899162 -0.04632089 -0.1114881
000260 b5 ae 07 bd c1 9b 0a bd c9 2b 11 3e d0 c4 4e be
       -0.033125598 -0.033839945 0.14176859 -0.20192266
000270 0d c2 97 3e 3a 36 4b 3e 24 e7 df bd 99 09 4e 3e
       0.29640236 0.19844905 -0.109327585 0.20120849
000280 5c 71 05 3f a7 e9 15 3d e3 93 0d be e2 19 ac 3e
       0.521261 0.03659978 -0.13825946 0.33613497
000290 21 11 ab 3d 3e 59 3f be b2 7d 0e 3d b2 0a 94 bd
       0.083528765 -0.18686387 0.03478784 -0.072286025
0002a0 15 af c0 be 0a 18 7c 3e f6 c0 f5 be 9d 2e cf bd
       -0.37633577 0.24618545 -0.4799878 -0.10116313
0002b0 bf e8 3d be d9 5a a8 3b a4 6c 6d be 04 ae 3c be
       -0.18545817 0.005137783 -0.23185974 -0.18425757
0002c0 1e f3 56 3e 5e 25 b8 3e e9 3d aa bc ff d1 52 3e
       0.2099118 0.3596601 -0.020781474 0.2058792
0002d0 19 68 4c 3e 33 84 9f 3e f9 7f 33 3e 5a 01 17 be
       0.19961585 0.31155547 0.17529286 -0.1474661
0002e0 93 74 39 3d d2 7f d2 3d 8c f3 30 3e 35 de d1 3e
       0.04527719 0.10278286 0.17280406 0.40989843
0002f0 b2 ba 94 3b 34 fa b5 bd 9e 94 37 3e ff 59 12 bf
       0.0045388574 -0.08885613 0.17927787 -0.57168573
000300 d5 f8 a4 bc 3a 59 84 3e 30 c6 89 3d 07 b6 2a 3d
       -0.020138184 0.25849324 0.067272544 0.0416775
000310 0e 11 2a 3e 4f d5 ae bc 45 44 cc be dc 71 48 3e
       0.16608068 -0.021341948 -0.39895836 0.19574684
000320 e1 dd 8f be 54 3b da 3e 3f 3a ab 3d 51 ac f8 bd
       -0.28098968 0.4262339 0.08360719 -0.12142242
000330 b9 a8 92 be 05 33 ea 3e 33 65 bf 3e af d9 ec 3c
       -0.2864435 0.4574205 0.37381896 0.028912393
000340 fc ef cb 3d 4d 35 c5 3d af 37 99 3e 23 0b e8 bc
       0.09957883 0.09629307 0.29925296 -0.028325623
000350 d0 cc 47 3f 27 cf cc 3d 79 bc 73 3d 9f 42 96 bc
       0.78046894 0.10000449 0.059505913 -0.018342314
000360 95 5a 18 be 4f 78 3a be 77 49 52 bd 5d 0c fa bb
       -0.14878304 -0.18209957 -0.051339593 -0.0076308683
000370 cc 52 3b 3e fa 1a 01 3f 1a c7 95 be 32 0d db bd
       0.18293303 0.5043179 -0.29253465 -0.10695876
000380 8a 63 a7 be 51 74 89 3e 90 3f cd bd 02 b2 35 be
       -0.3269313 0.26846555 -0.10021889 -0.17743686
000390 79 d4 6c be b3 35 d2 be d0 72 40 3e 9f 90 86 be
       -0.23127927 -0.41056594 0.18793797 -0.26282212
0003a0 c6 b4 e0 3c 3f 8f 98 3c 53 8e 96 be 4b 07 85 3e
       0.02742995 0.018622993 -0.2940546 0.25982127
0003b0 5a a4 39 be 06 a5 ee 3e ac 1c bb bd b3 ca 79 be
       -0.18129101 0.46610278 -0.09136328 -0.2439373
0003c0 4e bf 5c bd 3e 97 8d 3a 95 1c 63 3e da f7 e2 3d
       -0.05389338 0.001080252 0.22178872 0.1108243
0003d0 a6 91 42 be 0b 90 1e 3d 1d 85 2e 3f 5d 70 0e 3e
       -0.19000873 0.03871159 0.68171865 0.1391005
0003e0 d5 a8 40 be 7f b8 22 3f 71 56 d9 3d f6 ca be bd
       -0.18814404 0.6356277 0.106121905 -0.093160555
0003f0 a7 ed 97 3e c0 f0 4a 3e f1 d8 e3 3b cb e5 08 bd
       0.29673502 0.19818401 0.0069533517 -0.033422273

fc.2.weight f4 [2, 16]
000000 88 cc a3 3e 14 cf 8f bc 38 4e 62 be 64 f1 33 3e
       0.31991982 -0.017554797 -0.2210015 0.17572552
000010 57 c9 bd bd 28 88 86 3e d0 4e 87 be ad ab eb 3e
       -0.09266918 0.26275754 -0.26427317 0.46029416
000020 e3 f5 68 3e 3b e8 24 bf dd 33 c1 be 42 b9 3d be
       0.22750048 -0.64416856 -0.3773488 -0.18527701
000030 89 19 f3 bc 6a 9b 3f be 98 99 ba bd 82 3c ff ba
       -0.029675262 -0.1871163 -0.09111327 -0.0019472989
000040 b8 b3 0c 3e 60 99 38 3e 50 09 e1 be 6a 42 35 bc
       0.13740432 0.18027258 -0.43952417 -0.011063198
000050 dc b0 80 3e c9 8f c5 bd cb a5 d7 3e 45 db c7 be
       0.25134933 -0.096465655 0.42118677 -0.39034477
000060 1a 4a 90 3d 6c 83 77 3d 83 cc 90 be f4 09 dc be
       0.07045384 0.060428068 -0.2828103 -0.42976344
000070 51 cb f6 be 51 06 65 bd 5e 07 64 be c0 ec 8d be
       -0.48201993 -0.055914227 -0.22268435 -0.27719688

ode_net.grad_module.0.weight f4 [16, 21]
000000 4f e5 09 be eb 92 89 3d ae 66 dd 3d 76 14 b4 bc
       -0.1346638 0.067174755 0.108106 -0.021982413
000010 ca fe c1 bc 66 c1 14 3c a6 d3 04 be 3c 8b f7 3d
       -0.023681063 0.009079313 -0.12971362 0.12087104
000020 82 77 8a bd c9 5e b7 3d 3a 9f f9 3d a0 af 2a be
       -0.067610756 0.08953626 0.12188573 -0.16668558
000030 c4 29 01 3e 4e 1d a7 bd f5 e0 44 3e d1 65 15 be
       0.12613589 -0.08159886 0.1922644 -0.14589621
000040 af 95 0c 3e b4 f9 ec bc 33 02 7b 3e 28 03 8c bc
       0.13728975 -0.028927661 0.24512558 -0.017091349
000050 7a e5 19 be 42 3d 60 3c 75 5a ba bd 6e 62 a8 3d
       -0.15028945 0.01368648 -0.090992846 0.08221899
000060 4c e3 3e bd 0e 8a ef 3d b3 5b 58 be 3b 9f e3 bd
       -0.046603486 0.11696254 -0.2112873 -0.11114355
000070 3e 27 f5 3c 54 78 4d 3e dc 82 b0 bc d2 64 4e be
       0.029925939 0.20065433 -0.021546774 -0.20155647
000080 74 a6 d1 3d b5 53 5c bd 13 9d 46 be 7d 93 a3 3d
       0.102368265 -0.053790767 -0.19395857 0.079871155
000090 ae 3c ac bd 0d 75 01 bd 51 98 95 bd 5c 34 29 be
       -0.08410011 -0.03160577 -0.07304443 -0.1652388
0000a0 c0 43 43 3d a0 60 54 3e 5c 05 17 be 96 c0 4a 3e
       0.047672033 0.20739985 -0.14748138 0.19800028
0000b0 fc ca 11 bc c7 db 67 be bd 40 95 bd fd 18 20 3e
       -0.008898493 -0.22642432 -0.072877385 0.15634532
0000c0 ed 24 0e 3e e8 67 0d be 79 52 a6 bd 45 c7 15 3e
       0.13881274 -0.13809168 -0.08121199 0.14626797
0000d0 cd ad 6d 3e 8d 90 73 bd b4 e0 34 be 99 be 46 3e
       0.23210831 -0.059464026 -0.17663842 0.19408645
0000e0 a0 fd 5d 3e 23 3c 33 bd 70 44 38 3e e8 e7 07 be
       0.21678782 -0.043758523 0.17994857 -0.13272059
0000f0 f8 3f 32 3e ab e1 2e bd 32 b2 d3 bd 7b 38 b3 bd
       0.17407215 -0.042695682 -0.103367224 -0.08751007
000100 2f ce 52 3e f8 e4 79 be 45 78 35 bd d5 e9 aa bc
       0.20586465 -0.24403751 -0.04430415 -0.020863453
000110 b7 94 20 3e 2c 3c 96 3d e3 c2 72 3e d1 97 13 be
       0.1568173 0.073356956 0.23707156 -0.14413382
000120 93 23 47 3d 27 43 3f be 8d f9 06 be 0b 35 cb bd
       0.04861791 -0.1867796 -0.13181134 -0.099222265
000130 a1 b3 6f bb 8c fa ee bd 7a fc 11 3d ca 5e 1a 3e
       -0.0036575573 -0.11668882 0.03564117 0.15075222
000140 f4 5e 10 3d 63 d1 3c 3e 18 f7 55 3d 0c c0 bd bd
       0.035246804 0.1843925 0.0522376 -0.09265146
000150 18 94 6c be 72 8b a9 3d 7b ad 94 bd b4 58 f7 bd
       -0.23103368 0.0827855 -0.07259651 -0.12077466
000160 08 29 07 bb 38 77 b8 3d 1d 28 ba 3d 66 06 f5 3d
       -0.0020623822 0.09007114 0.09089682 0.11964111
000170 94 39 1b 3e be f6 cb 3d ae 5e 4b 3e 5b a2 1e 3e
       0.15158683 0.09959172 0.19860336 0.15491621
000180 8f 9c 3d 3e c5 86 ca 3d 61 96 35 be 45 59 f1 3c
       0.18516754 0.098889865 -0.17733146 0.029461512
000190 77 79 3a bc a7 d3 0c be 8d 92 fc bc f6 7b 3a 3d
       -0.011381499 -0.13752614 -0.0308316 0.045528375
0001a0 70 eb 30 3e f8 e7 ec 3d 21 18 16 be be e8 48 be
       0.17277312 0.11567682 -0.14657642 -0.19620034
0001b0 9c fc f0 3d 60 ea 80 3d b5 8b 80 3d 1a b5 bc 3d
       0.117669314 0.062947035 0.06276647 0.0921423
0001c0 25 7c b7 3d 41 79 4a be 9c 00 28 be f8 71 db 3d
       0.089592256 -0.19772817 -0.16406482 0.10715097
0001d0 68 74 f3 bd 5e e9 43 3e 74 e3 1b be 5b 12 63 3d
       -0.11887437 0.19131991 -0.15223485 0.055437427
0001e0 a1 8f 51 3d 52 4b 68 bd 4a 85 70 bd 35 19 36 3e
       0.051162366 -0.056712456 -0.058720864 0.17783053
0001f0 74 de 7e bd 10 4d a0 bd 96 4b b7 3d 95 70 36 3e
       -0.062223867 -0.078271985 0.08949964 0.17816384
000200 d9 a0 02 3e 6b 67 0e 3c 7d ab e2 3d 13 b0 9d 3d
       0.12756671 0.008691649 0.11067865 0.07699599
000210 22 3d c0 bc 94 e3 7f be 7f b3 a5 3b ed 9a c1 3d
       -0.02346665 -0.24989158 0.005056798 0.09453378
000220 11 67 26 3e 52 85 40 be b6 ea 5f 3d 53 37 1d be
       0.16250254 -0.18800858 0.054667197 -0.15353136
000230 b5 07 8c bd 29 8e 4f be 18 3f 6b 3d e7 5e 04 3e
       -0.068374075 -0.20269074 0.057433218 0.12926827
000240 16 b4 3a 3e ac 2e 52 3d 53 3c 4f be 7f a7 b4 bc
       0.1823276 0.05131404 -0.20237856 -0.022052525
000250 ed 77 d4 3d ba 6e a7 3c ff 1f 7f bb 5d 0f 2b be
       0.103744365 0.02043854 -0.0038928983 -0.1670508
000260 15 18 10 3e 33 8c ac bd 98 82 83 3d 6e f9 4c be
       0.14071687 -0.084251784 0.06421393 -0.20017025
000270 e0 25 86 bd cd 88 15 3e eb e0 32 be a6 eb 20 3e
       -0.06550193 0.14602967 -0.17468612 0.15714893
000280 1c bf 5c bd 6e 9a 12 be c8 e9 15 3d 2b 64 3f be
       -0.053893194 -0.14316723 0.036599904 -0.18690555
000290 01 77 e5 bd 6d b2 d9 bc ff 06 00 3e 55 f4 d4 3d
       -0.11204339 -0.026574338 0.12502669 0.10398165
0002a0 77 f8 2c be c1 e4 3a be a8 c6 bd bd dd 31 71 be
       -0.16891657 -0.18251325 -0.09266406 -0.23554178
0002b0 7e 94 31 3e 21 27 0a 3e bd 01 1d be ca 00 4a 3d
       0.17341802 0.13491489 -0.15332694 0.04931716
0002c0 64 a2 e9 3d b0 5c 49 be c3 ed 96 bd 8b 61 d2 bd
       0.11407927 -0.19664264 -0.07369568 -0.10272511
0002d0 9d b9 49 be 65 52 60 be 1f c7 49 3e 75 7a 21 be
       -0.19699712 -0.21906431 0.19704865 -0.1576937
0002e0 b2 0e 3a be ab df 95 3d dd 50 94 bc 9d 50 02 3e
       -0.18169668 0.07318052 -0.018104965 0.12726064
0002f0 02 af ba 3d 40 90 39 bd 49 cc 05 be 96 5e 87 3d
       0.09115411 -0.045303583 -0.1306621 0.06609838
000300 10 21 1a 3e 04 b3 69 be 35 84 33 be 9c 19 cc 3d
       0.15051675 -0.22822195 -0.17530902 0.09965822
000310 0e f9 63 3e f3 ab 80 bb 44 55 e4 3d 07 af 69 3c
       0.22262976 -0.003926748 0.111490756 0.014262921
000320 56 bc ea bd 8c 1a 05 3e 49 12 3a 3e 95 bd dc bd
       -0.114617035 0.12998408 0.18171038 -0.107783474
000330 0b 5c 3c be 84 8e 31 3e 2c bc 35 bc 9c d7 16 be
       -0.18394487 0.17339522 -0.011092227 -0.14730686
000340 e5 8a aa 3d 4c 1e 41 be 24 66 c9 bd 00 fa 1b be
       0.08327273 -0.18859214 -0.09833935 -0.15232086
000350 46 d6 eb bd 74 a5 1c be 43 fc d3 3d d6 ae 68 3e
       -0.11515479 -0.1529749 0.103508495 0.22722945
000360 d9 97 d0 3d 43 64 d5 3c 8c 7e dc 3d 51 68 1d be
       0.10185213 0.026048785 0.107663244 -0.15371825
000370 2a 32 d6 bd 77 79 57 3a 90 8b c3 bd 15 0d 1a 3e
       -0.10458787 0.0008219699 -0.09548104 0.15044053
000380 65 54 d4 3d 7f 5d e2 bd 17 bb f5 bd df dd 4a be
       0.103676595 -0.11052989 -0.11998575 -0.198112
000390 cf 09 36 3d 5f 02 40 3e 3d 2a f6 3d 1e 17 17 3d
       0.044442948 0.18750905 0.12019775 0.03688728
0003a0 0b 4c 46 3d 3b 1a f6 bd 4f 0e ec bc 8a e4 a9 3c
       0.048412364 -0.12016722 -0.028815417 0.020738859
0003b0 3d 89 23 3d fa f5 9a 3d 28 2d 4e bd e0 39 2d 3e
       0.039925802 0.075664476 -0.050336033 0.16916609
0003c0 2b b3 3f 3e 48 71 c3 bd a3 77 10 be ad 53 a1 bd
       0.18720691 -0.09543091 -0.14108138 -0.07877288
0003d0 fa ce cd 3d c1 94 14 3e a2 7a 4b be d8 92 77 bd
       0.10049243 0.1450987 -0.19871 -0.060442775
0003e0 7a 1a 1c 3d 11 98 a8 3b f1 bf ad bd 94 d7 a0 bd
       0.038111188 0.005145081 -0.084838755 -0.07853618
0003f0 04 82 4f 3d 04 72 57 bd 21 e5 33 be 9e ec 61 be
       0.050661102 -0.05259897 -0.17567874 -0.22062919

ode_net.grad_module.0.bias f4 [16]
000000 2c 3e 5b 3e f7 df 8e bc 93 f3 e9 bd 9d 68 3d be
       0.21410435 -0.01744078 -0.11423411 -0.18496938
000010 6c ce 08 be a8 46 43 3e 8a cc 45 be 25 e5 74 3d
       -0.13359994 0.19069922 -0.19316307 0.05978884
000020 21 3f 39 3e cb d7 48 be a2 e3 06 3e b4 fe ea bd
       0.18090488 -0.19613568 0.13172773 -0.11474362
000030 56 76 84 bc e0 48 84 be e8 37 00 3e 2e f9 66 bc
       -0.016169708 -0.2583685 0.12521327 -0.014097495

ode_net.grad_module.2.weight f4 [16, 16]
000000 77 76 e3 3d 35 0a 1e bb 01 6f c9 3d 06 b5 13 be
       0.1110658 -0.002411497 0.098356254 -0.14424524
000010 18 4e 03 3d 75 10 fa bb cd 25 4b 3d 96 d5 80 3d
       0.032056898 -0.0076313564 0.049596597 0.06290738
000020 4d 98 84 3e fb 30 fe bd 43 a5 8e 3d 60 59 47 3e
       0.25897446 -0.12411686 0.06965115 0.19467688
000030 84 66 e8 bd 8f 16 c4 bd a8 80 34 be 9b 3c ed bd
       -0.11347678 -0.09574615 -0.17627203 -0.11583825
000040 03 93 67 be 83 d8 0c be 2c ef 2a be bf 69 59 be
       -0.22614674 -0.13754468 -0.166928 -0.21231745
000050 d4 76 59 3e 85 e5 25 be 05 d8 dd bd b6 f9 55 3e
       0.21236736 -0.16200836 -0.10832218 0.20896038
000060 11 83 7f bd bd f1 36 3e b4 64 4f be 26 d8 d5 3d
       -0.062380854 0.17865653 -0.20253259 0.10441618
000070 60 3a ab bd 6c 6f 17 be b0 db ee 3d 07 66 1f 3d
       -0.083607435 -0.14788598 0.11662996 0.03891566
000080 c2 e0 9d bc 09 36 67 3e dd 46 5b 3e b8 6d bf 3c
       -0.019272212 0.22579207 0.21413751 0.023367748
000090 f2 de 49 bc 96 25 53 3e b8 80 87 3c b7 fe 9f bc
       -0.012321221 0.20619807 0.01654087 -0.019530637
0000a0 2a 55 23 3e d9 bd 17 ba b9 32 b5 bc 64 24 f3 bd
       0.15950456 -0.00057884824 -0.022118913 -0.11872175
0000b0 c1 13 6f be c3 41 0e 3d 17 05 92 3d c4 d6 1e bd
       -0.2334738 0.034730684 0.07129877 -0.038779035
0000c0 01 8d f4 bd 9c f1 64 be af 71 ac bd 69 d7 a8 bc
       -0.11940957 -0.22357792 -0.08420121 -0.020610528
0000d0 c2 81 23 3d 84 66 04 3d ca 2b 0d 3d 5c 07 36 bd
       0.03991867 0.03232433 0.03446559 -0.044440612
0000e0 6b 9b 4e be 21 3a a7 3d 22 51 8e 3e 18 1d d8 3d
       -0.20176475 0.08165384 0.27796274 0.10552424
0000f0 c3 80 e2 bd 29 c6 bf 3d 22 4c 13 be e2 e6 04 3d
       -0.110597156 0.09363968 -0.14384511 0.03244675
000100 87 ff 81 3b b2 47 0f 3e 5a 11 21 3d c7 34 4b bd
       0.003967229 0.13992193 0.03932319 -0.04961088
000110 a8 89 35 3e 10 91 eb 3d 0f e1 8d be 72 3b 3e 3e
       0.17728293 0.11502278 -0.2771077 0.18577364
000120 4d 0a a4 3d 21 51 7e 3c 72 54 b7 bc d7 0e 55 bd
       0.08009777 0.015522272 -0.022379134 -0.052016106
000130 59 dd 69 be 7e 17 0f 3e 0e ef ae 3d 15 be ea bd
       -0.22838344 0.13973805 0.0854169 -0.114620365
000140 a0 76 a9 bc 37 8a 39 3d 8f 10 e7 3c 76 f4 23 bd
       -0.020686448 0.045297828 0.028206138 -0.040028058
000150 04 aa 84 be 9e 38 99 3d d7 95 df bc 4a 58 0c 3d
       -0.25910962 0.07481502 -0.027293129 0.034263887
000160 38 8d bf bd 97 a7 19 3e d3 c5 6a be 2f 63 9c bd
       -0.09353107 0.15005337 -0.22927026 -0.07636105
000170 c4 71 0e 3e e7 d1 ec 3d 49 f3 18 be 9a 17 af 3d
       0.13910586 0.11563473 -0.14936556 0.085494235
000180 ae a2 7e bd 49 95 da 3d 18 6a 62 3d 5d d9 ad 3d
       -0.062166862 0.10673005 0.05527696 0.084887244
000190 e7 56 cf bb e3 a1 74 bb c8 ee c9 bc 0d 84 11 bc
       -0.0063274982 -0.0037327937 -0.024649993 -0.008881581
0001a0 da 44 4e 3e 64 e8 31 3e 60 f9 3b 3e f6 98 bb 3d
       0.20143452 0.17373806 0.18356848 0.09160034
0001b0 db 0b 6c be bc 22 2a 3e 2d b4 63 3e 4b 59 06 be
       -0.23051398 0.16614813 0.222367 -0.1312
0001c0 72 d4 aa 3c d7 cb 99 bd de 44 e2 3d 47 61 45 be
       0.020853255 -0.075095825 0.110482916 -0.1927539
0001d0 d9 a9 92 3d 53 66 77 be 57 cb e7 bd 76 64 85 3e
       0.07161302 -0.24160127 -0.11318081 0.26053208
0001e0 76 0d 81 3d 47 12 a6 be eb 8b d3 bd 59 f7 05 bd
       0.063013956 -0.3243582 -0.103294216 -0.032706592
0001f0 c0 a9 7b 3d 42 b5 03 be b0 45 11 be e5 c0 47 3e
       0.061441183 -0.12862113 -0.1418674 0.19507177
000200 75 39 05 3e 48 39 69 3e 0e 26 25 bd be 2b c4 ba
       0.130102 0.22775757 -0.040319495 -0.001496665
000210 5e ac 2c 3e 15 75 d6 3d b2 4a 58 be c0 6e 3b be
       0.16862628 0.104715504 -0.21122244 -0.18303967
000220 54 64 d7 3d e5 fe e4 3c 01 4a ca bc 85 d3 72 be
       0.10517183 0.027953574 -0.024693491 -0.23713501
000230 db 97 63 3e 7a 9b 7c 3e 0f df a3 bd 94 9c 3f 3d
       0.22225897 0.24668685 -0.080015294 0.046780184
000240 92 08 7e be 61 ad 66 be 18 49 37 3e 15 45 a0 bd
       -0.24807957 -0.22527076 0.17898977 -0.07825676
000250 d6 77 b5 3d e5 61 4a bd 40 c0 81 3e ee c3 89 bc
       0.088607475 -0.049409766 0.25341988 -0.01681706
000260 02 fb 8d 3d fe a0 8e bd ac 47 6c 3e cd 97 53 be
       0.069326416 -0.069643006 0.23074216 -0.20663376
000270 e5 44 78 3e 53 60 23 be 2d 63 90 3d 83 dc 14 3d
       0.24245031 -0.15954714 0.07050166 0.03634311
000280 4b 22 39 bc b8 1d 66 bd bf 51 18 3e 88 0b 55 3e
       -0.01129968 -0.056180686 0.14874934 0.2080518
000290 14 09 a8 bd 95 d9 b8 bd 8b 57 20 be 46 15 c3 bd
       -0.082048565 -0.090258755 -0.15658395 -0.09525542
0002a0 8b 25 8f 3e 88 28 57 3c f3 8c 48 3e 7a bc 42 be
       0.2795833 0.013132222 0.19585018 -0.1901721
0002b0 ee 70 52 3e 90 4a d6 3d 1e 47 06 be 53 1c 66 be
       0.20550892 0.104634404 -0.13113067 -0.22471742
0002c0 6c 96 3b 3c 35 81 c5 bd 97 73 3e 3d 3f f6 5d 3e
       0.011449438 -0.09643785 0.046496954 0.21675967
0002d0 c9 37 90 bc 94 2a 4d bd 75 3d d0 bd 03 11 25 be
       -0.017604725 -0.050089434 -0.10167972 -0.1611977
0002e0 f9 08 60 be a4 0e c7 3d 6d 2e 22 3d 6e 6d 03 3e
       -0.21878423 0.09719589 0.039595056 0.12834713
0002f0 82 6d 6a be 38 88 22 be 0e ee 94 bd d2 54 89 3c
       -0.22893336 -0.15872276 -0.07271968 0.016764078
000300 a0 60 c8 bd ff 1c e2 3d a5 bc 82 3e 8d d0 6d be
       -0.09784055 0.11040687 0.2553455 -0.23224087
000310 80 d8 45 bd 99 14 8e be 77 b0 0d 3c 93 ea f7 bd
       -0.048302174 -0.2775009 0.0086480295 -0.12105288
000320 74 fd 4a be 6b a6 1c bd 90 42 f0 bd 52 e8 08 3e
       -0.19823247 -0.038244646 -0.11731446 0.13369873
000330 df d3 f6 bd 5d 04 95 bd 38 29 16 3c 1c 21 da bd
       -0.1205213 -0.07276223 0.009165101 -0.10650846
000340 e4 d5 4e bd ec ba 2b bd 25 50 04 be 77 9d 8e 3d
       -0.05049695 -0.04192631 -0.12921198 0.06963628
000350 87 ee 52 3d 46 73 2d bd 88 0b 88 3d 7a b9 96 bc
       0.05149701 -0.04234626 0.066428244 -0.018398989
000360 34 c8 0d be 3c 11 6f be 8d e3 40 bd 1c 62 5b 3e
       -0.13845903 -0.23346418 -0.04709201 0.21424145
000370 c3 f5 b1 bd 73 ea 86 3e 0d b6 01 be 61 8f 2b 3e
       -0.086894535 0.26350746 -0.12667103 0.16753913
000380 16 9b 10 3e bc 93 c5 3d d1 8a 26 be 29 16 48 be
       0.1412166 0.09647319 -0.16263892 -0.19539703
000390 15 97 23 be 6d 10 b1 3d 5b 2d 0b 3e bb ea ba bd
       -0.15975602 0.08645711 0.1359152 -0.091268025
0003a0 9f c8 e7 3d 09 b6 28 3e 1b cc c7 bd fc 42 fe 3c
       0.11317562 0.16475691 -0.09755727 0.0310378
0003b0 56 0d da 3d f8 f9 1f 3e c4 12 9a bd eb e4 35 bc
       0.10647075 0.156227 -0.075231105 -0.011101942
0003c0 47 02 db bd 2a 14 64 3d ab 5b 56 3e d4 a2 cd bb
       -0.10693794 0.055683292 0.20933406 -0.006275514
0003d0 89 6b d6 3d 15 a4 32 3e 7f 18 2e 3e b5 e2 a1 3d
       0.104697295 0.17445405 0.17001532 0.07904569
0003e0 77 64 e8 3d ee 93 dd 3c 49 70 2d 3d 0c b9 4c 3e
       0.11347287 0.027048077 0.04234341 0.19992465
0003f0 27 d2 21 3e e6 ab 63 3e 03 2d 31 3e c1 30 5e 3e
       0.15802823 0.22233543 0.17302327 0.21698286

ode_net.grad_module.2.bias f4 [16]
000000 b0 65 a1 bd 19 75 35 be 6a 43 40 bc be a9 77 be
       -0.078807235 -0.1772045 -0.011734823 -0.24185845
000010 ea bf 7a 3e 88 88 03 be 6a 2f 96 bd ea f2 46 3e
       0.24487272 -0.12845051 -0.07333262 0.19428602
000020 45 76 72 be bc 79 81 3e 9a 47 0f be 48 a6 d3 bd
       -0.23677929 0.25288188 -0.13992158 -0.1033445
000030 47 00 2a be d7 6c 6b 3e da cb 67 be b4 54 14 bd
       -0.16601668 0.22990738 -0.22636357 -0.03621359

exp_avg f4 [16, 7]
000000 ab 1e 3f bb 40 22 45 bb 55 61 1f bb 67 22 9b ba
       -0.0029162567 -0.003008023 -0.002431949 -0.0011835814
000010 15 65 d4 bb 8f 75 1b bc 14 01 6b 3b f1 38 35 bb
       -0.0064817765 -0.009488477 0.0035858797 -0.0027652348
000020 9c 37 db ba e8 b5 25 bc 44 99 12 bb 6b c1 5f bb
       -0.0016724947 -0.010114171 -0.0022369185 -0.0034142386
000030 00 10 c8 bb 7a 63 09 ba 03 ce 50 3b c6 a0 41 3c
       -0.006105423 -0.00052409584 0.0031861074 0.0118181165
000040 a9 14 a7 3c eb b5 ec 3b 48 45 28 3c 40 77 78 bb
       0.020395594 0.0072238347 0.010270424 -0.0037912875
000050 b5 5f 33 3b d4 74 34 ba 40 dc b4 3a 4d 49 d2 bb
       0.0027370278 -0.0006883864 0.001379855 -0.0064174295
000060 54 64 c6 3b 54 1f 80 bb 7a a3 e1 bb 04 a7 02 3b
       0.0060544405 -0.0039099846 -0.006885943 0.0019935975
000070 fa 29 e5 38 bd bf 0a 39 22 58 b6 ba 02 4a c5 3a
       0.0001092739 0.00013232134 -0.0013911764 0.0015051963
000080 39 3d 20 b9 40 95 43 bb d9 9f 7d ba 31 45 69 3b
       -0.00015281596 -0.0029843599 -0.0009675003 0.003559422
000090 2e ec d2 3b 93 25 f7 ba 91 04 f0 3b 38 83 cc 3a
       0.006436846 -0.0018855802 0.007324763 0.0015603071
0000a0 41 b3 bf bb 35 9e 22 bb 8d ba 74 3a b1 ec ae ba
       -0.005850226 -0.0024813537 0.00093356596 -0.0013345686
0000b0 b5 24 c1 3b b6 f8 63 3b c7 ea 2a bb 1a 86 18 bb
       0.0058942684 0.0034785694 -0.002607988 -0.002327329
0000c0 63 91 c1 3a 95 5c ba 39 7b 3b b2 3a 1c 34 6d 3c
       0.001476806 0.00035545664 0.0013598049 0.014477756
0000d0 32 60 0b 3b 45 18 17 3c c5 0f 2f 3c 55 a8 10 ba
       0.0021267054 0.009222095 0.010684912 -0.00055182475
0000e0 c1 43 82 bb ed 1a cc bb 88 29 29 bb aa bc 1a bc
       -0.003975362 -0.0062287957 -0.0025812108 -0.009444395
0000f0 b6 93 f7 bb 11 ad cc 3a 3a 13 d3 39 28 17 82 ba
       -0.0075554503 0.0015615543 0.0004025938 -0.0009925114
000100 c6 90 3e 3b d0 00 8b bb 92 60 44 3b 0e 08 26 3b
       0.002907799 -0.00424204 0.0029964787 0.002533439
000110 b8 0c 45 bc bf e7 7d bb 0f 44 97 b9 b1 5a 1b b9
       -0.012026958 -0.0038742868 -0.00028851672 -0.00014815737
000120 0f a5 5d ba 04 02 c6 ba 08 55 41 3b b0 d4 be 3b
       -0.00084550766 -0.0015106802 0.0029500145 0.005823694
000130 8f 07 23 bb 81 bd 42 bb c5 97 59 bb 76 5a c8 bb
       -0.0024876331 -0.0029715004 -0.0033202034 -0.0061142994
000140 cc 4b a7 bb 7d 67 3a bb 7c ac b6 39 ea f2 73 ba
       -0.0051054712 -0.0028443031 0.00034842256 -0.00093059114
000150 af e3 92 ba dc 76 b6 ba d6 22 dc 39 43 21 41 bb
       -0.0011206771 -0.0013920921 0.00041987625 -0.0029469288
000160 ea 28 09 bb b0 46 9a 3a 02 c1 82 ba 6d 4c 78 39
       -0.0020928928 0.0011770334 -0.0009975734 0.00023679594
000170 a4 5f 38 bb e3 49 31 bc 6a 74 45 bb fc 15 dd bb
       -0.0028133178 -0.010820839 -0.0030129203 -0.0067470055
000180 b3 bb 3c bc 83 9e 57 3b 48 28 b9 3b f3 6a 4b 3b
       -0.01151936 0.0032900877 0.005650554 0.0031039088
000190 06 1e d1 3c 7a 24 4d ba 57 a2 ce 3b 9f 2f 1f 3c
       0.025527012 -0.0007825565 0.0063059735 0.009715944
0001a0 aa 4f 02 3c 33 96 9d bb 64 5c 54 bc 9f 48 d1 bb
       0.007953564 -0.004809165 -0.012961481 -0.006386831
0001b0 7d 25 3a bc 7d b4 15 bc 54 a0 5b 3c 2d c5 a6 39
       -0.011361477 -0.00913727 0.013404924 0.00031808895

exp_avg_sq f4 [16, 7]
000000 6f 94 8a 3a d5 5c 55 3a 17 c5 4e 3a ef 2d 4e 3a
       0.0010572801 0.0008139138 0.0007887645 0.0007865121
000010 b1 cc 64 3a 97 6b d3 3a 08 8a 5a 3a d2 fd 3d 3a
       0.0008728011 0.0016130087 0.00083366083 0.00072476
000020 65 e0 00 3a 9b 5e 14 3a f5 bd e3 39 8f 0c f5 39
       0.000491625 0.0005659849 0.00043438343 0.00046739398
000030 27 0d b0 39 64 7d 0f 3a 36 ca b4 3a ab 75 00 3b
       0.00033579135 0.0005473702 0.0013793174 0.0019601386
000040 cf 01 e6 3a 02 bf 97 3a 5a c7 a9 3a c9 35 02 3b
       0.0017548146 0.001157731 0.0012953088 0.0019868484
000050 0e c6 b7 3a 7c 2f 36 3a 3c 4c 8c 3a 4c 8f 2b 3a
       0.0014020817 0.0006949825 0.0010703872 0.0006544485
000060 8c c0 20 3a 4b 0f 22 3a 9e a0 f4 39 2f 33 13 3b
       0.00061322073 0.00061820884 0.00046658976 0.0022460928
000070 45 f3 c2 38 d0 d5 ba 38 50 06 a8 38 63 cd e1 38
       9.295953e-05 8.908997e-05 8.01204e-05 0.00010767092
000080 6d 4e 15 39 b2 94 c2 38 75 33 3a 39 96 38 23 3a
       0.00014238963 9.2783375e-05 0.00017757512 0.00062263885
000090 15 05 1b 3a ad ed 0e 3a 9c 66 3a 3a 8d 97 2d 3a
       0.0005913538 0.00054522866 0.0007110627 0.0006622009
0000a0 ff 1f 54 3a e7 89 3c 3a f7 14 16 3a 90 49 31 3a
       0.0008091926 0.000719218 0.000572517 0.0006762976
0000b0 25 95 0f 3a 26 8e 05 3a dd cb 3b 3a 02 b9 15 3a
       0.00054772414 0.0005094729 0.0007163862 0.0005711467
0000c0 1e 57 3d 3a ed 55 01 3b e7 ee a0 3a 0c e1 d5 3a
       0.00072227593 0.0019735054 0.001227823 0.001631768
0000d0 61 63 a9 3a 29 ac b2 3a 11 aa d0 3a 05 db 9b 3a
       0.0012923294 0.001363163 0.0015919824 0.0011890834
0000e0 d3 99 aa 39 07 c5 f4 39 f3 2e 78 39 96 8c c9 39
       0.00032539535 0.00046686103 0.00023668613 0.00038442452
0000f0 28 e6 bb 39 fb 47 6d 3a 37 fc c5 39 4f c6 59 3a
       0.000358389 0.00090515584 0.00037762683 0.00083074433
000100 d3 9e 4b 3a 08 77 11 3a 57 70 49 3a c5 60 39 3a
       0.0007767502 0.0005549048 0.00076842814 0.000707161
000110 c3 90 c1 3a 4f 13 e2 39 8c f5 1d 3a 65 d8 19 3a
       0.0014767874 0.00043120465 0.0006025664 0.0005868732
000120 96 23 1f 3a 66 08 f9 39 a1 d2 40 3a 49 24 1d 3a
       0.00060706714 0.00047499238 0.0007355605 0.00059944816
000130 4f c1 4d 3a bf 8e d1 39 54 67 f2 39 57 8c ae 39
       0.00078489346 0.0003996994 0.00046234822 0.00033292428
000140 01 fc 94 39 7a ff ad 39 34 50 cd 39 27 0a 15 3a
       0.00028416517 0.00033187476 0.00039160403 0.0005685412
000150 dd 4e 26 39 c8 3c 63 39 42 18 64 39 d1 66 49 39
       0.00015860373 0.0002167105 0.00021752811 0.00019207156
000160 a8 68 18 39 7d 54 f9 39 72 45 f5 38 03 de b3 3a
       0.00014534837 0.0004755593 0.000116954456 0.0013722781
000170 5a cb 88 3a 9a 7a b1 3a 61 9a 91 3a 3c ed 88 3a
       0.001043658 0.0013540566 0.001110863 0.0010446678
000180 a0 08 cc 3a 25 10 ff 3a 87 e1 85 3b 5b 01 3a 3b
       0.0015566535 0.0019459767 0.004085723 0.0028382156
000190 9f 2a 3a 3b fb de 24 3b 07 8a 31 3b b2 a1 01 3b
       0.0028406752 0.002515732 0.0027090327 0.0019780216
0001a0 03 03 26 3b ae 52 a6 3a 84 7a 17 3b 53 1f 92 3a
       0.0025331385 0.0012689435 0.0023113796 0.0011148251
0001b0 32 e4 bb 3a 7c bb be 3a f8 76 77 3b e1 05 93 3a
       0.0014334975 0.0014551724 0.003776012 0.0011216962

exp_avg f4 [16, 16]
000000 bb 3f 9a 3a 74 48 32 39 77 ad 09 bb 0d bd 1f bb
       0.0011768261 0.00017002394 -0.0021007934 -0.0024374158
000010 e3 1e 26 3b 79 2d 18 bb 92 e0 10 bb a8 84 d5 39
       0.0025348 -0.0023220463 -0.002210651 0.00040725362
000020 21 e6 3f 3b e5 f3 c7 3a 1f 2d 07 ba 76 7e 2c 3a
       0.0029281455 0.0015255181 -0.0005156565 0.00065801234
000030 31 91 0d 3b ba 8f 0c 3b 18 0e 80 3a 78 86 43 3b
       0.0021601433 0.0021447972 0.0009769825 0.0029834788
000040 6e b3 75 3a b4 d3 02 3a af 62 c5 ba b3 ef f7 ba
       0.00093727454 0.00049906527 -0.0015059317 -0.001891604
000050 d6 17 5d 3b 73 6b 21 ba 6a fd 24 bb 0f 9c de 39
       0.003373613 -0.0006157674 -0.002517546 0.00042459412
000060 37 c3 81 3b 64 91 36 3b 67 dd a4 ba 80 ef 50 3a
       0.003960039 0.0027857656 -0.001257819 0.00079702586
000070 b6 69 44 3b 16 82 9b 3b 0e b7 d5 3a b7 5c 2f 3b
       0.0029970235 0.004745732 0.0016305165 0.0026758143
000080 f5 5d c9 3b 9d 1d 41 3b 3d a7 c0 ba 57 04 19 bb
       0.0061452338 0.0029467114 -0.0014698278 -0.0023348534
000090 99 c9 42 bb 12 d8 d3 39 8d ad 96 b9 41 85 d0 bb
       -0.0029722212 0.0004040604 -0.00028739535 -0.0063635414
0000a0 ab 8a aa bb f1 b3 31 bb 37 1b 84 3b 4b 97 11 bb
       -0.005204519 -0.002711531 0.0040315646 -0.0022215422
0000b0 33 20 85 bb 52 ed 63 bb 66 09 9c bb b2 e8 2b bb
       -0.0040626763 -0.0034778905 -0.0047618626 -0.0026231227
0000c0 61 5f 93 3a 9b da 82 3a a1 4f fa ba f0 97 a1 ba
       0.0011243635 0.0009983362 -0.0019097218 -0.0012328606
0000d0 0e c0 e2 3a ea 51 9a ba 5c b0 21 bb f6 47 f5 39
       0.0017299668 -0.001177368 -0.0024671769 0.00046783657
0000e0 4e 5f f9 3a 08 77 ab 3a 6e e1 42 38 6d f3 fd 39
       0.0019025595 0.0013081739 4.6463152e-05 0.00048437287
0000f0 bb 64 f5 3a ce 42 2d 3b 15 49 ee 3a 8a 6b ff 3a
       0.0018722037 0.0026437524 0.0018179739 0.0019487005
000100 e9 14 21 3a da 62 ff 39 a5 6a cc 39 f5 a3 a4 37
       0.00061447785 0.0004871104 0.00038989368 1.9626672e-05
000110 05 81 a4 39 bb a5 4b 39 fe ab d7 35 d2 ce 9d b9
       0.00031376645 0.00019421328 1.6068805e-06 -0.00030099467
000120 fe 54 e8 38 77 21 39 3a 71 e5 ea 37 6e 48 16 39
       0.00011078453 0.00070621766 2.8001816e-05 0.00014332097
000130 ac 14 2c ba 64 fe 35 3a ea 86 da 39 4e 56 85 b9
       -0.00065643596 0.0006942509 0.0004168072 -0.0002543204
000140 d6 c3 9b 3b 2d 6a 09 3b fb 9b f3 b8 df ae 04 39
       0.00475357 0.0020967827 -0.000116161966 0.00012653646
000150 a0 94 05 b9 5d 93 cc 3a 5b 15 9f ba bf 35 37 bb
       -0.00012739236 0.0015607883 -0.0012137102 -0.002795562
000160 5a 25 a5 b9 43 1c be 3a 0c 05 a3 3a b7 06 1d ba
       -0.00031499082 0.0014504272 0.0012437417 -0.00059900753
000170 61 df ef ba 3c 65 7c 3b 66 09 82 3a d5 77 53 ba
       -0.0018300825 0.0038512489 0.0009921014 -0.00080668676
000180 68 21 4c 3b 34 d1 a8 39 dd 30 44 ba 0d 75 bf 39
       0.0031147841 0.00032199326 -0.0007484088 0.00036517569
000190 82 99 fb ba ef 66 01 ba 6d 2f aa 38 da 51 49 bb
       -0.0019195529 -0.0004936298 8.1150654e-05 -0.0030718953
0001a0 f6 43 d2 ba 12 49 38 ba 37 ec 35 3a 25 b4 2e ba
       -0.0016041982 -0.00070299313 0.0006939801 -0.0006664417
0001b0 a4 97 c7 ba 9f 04 b3 b9 1c a2 3f 37 dc ac d6 b9
       -0.0015227688 -0.00034144984 1.1422231e-05 -0.0004094605
0001c0 7b 0a 86 ba 33 88 79 3a da 84 14 3a 74 31 f4 3a
       -0.0010226512 0.00095188915 0.00056655484 0.0018630461
0001d0 20 6a 90 bb 4d 6b 11 3b ee 57 16 3b 05 d5 39 bb
       -0.0044071823 0.00221892 0.0022940594 -0.002835573
0001e0 f7 6c b3 bb 7b d0 56 bb ea 26 f8 3a 95 f3 4d ba
       -0.005475636 -0.0032778073 0.0018932496 -0.0007856426
0001f0 6e 59 3c bb a4 55 ac bb 95 6e 90 bb b6 a0 69 bb
       -0.0028739828 -0.0052592326 -0.0044077137 -0.003564877
000200 01 c1 17 bb 30 19 40 ba 56 a8 34 ba 74 d6 38 39
       -0.002315581 -0.0007327972 -0.0006891539 0.00017627497
000210 36 64 a1 3a aa 23 8c ba 0f c5 32 b8 31 8b ea 3a
       0.001231319 -0.0010691781 -4.2622032e-05 0.0017894265
000220 8c 25 e5 3a 6f f6 5f 3a 70 7e ce ba a1 98 b1 3a
       0.0017482503 0.00085434964 -0.0015754234 0.0013549515
000230 71 3a 59 3a 3f b6 0b 3a fc b1 65 3a 95 d0 2c 3a
       0.00082866015 0.0005329586 0.00087621785 0.00065923604
000240 91 a7 cd 3b 22 bd 20 3b 37 cb aa ba d2 18 fa ba
       0.006276079 0.0024526794 -0.0013030533 -0.0019080883
000250 f5 61 b0 3a 6e d3 ba 39 74 24 31 bb 55 bb 58 bb
       0.0013456928 0.00035634212 -0.0027029784 -0.0033070643
000260 e6 82 89 3a 1a eb 55 3b da a6 ac b9 9b b6 2d ba
       0.0010491281 0.0032641352 -0.0003293071 -0.00066266366
000270 1b e2 cf 38 27 b0 bc 3b b4 46 a4 3a 1f 28 60 37
       9.9126446e-05 0.0057583037 0.0012533278 1.3360782e-05
000280 9d 47 05 bb 3f bf 57 ba 44 98 73 3a 21 58 97 3a
       -0.0020336874 -0.0008230097 0.00092924037 0.001154665
000290 e2 82 c5 b9 6f 5d 91 3a 12 da 84 3a 78 61 89 3a
       -0.00037672283 0.0011090467 0.0010135791 0.0010481318
0002a0 2c ec e5 b9 96 bc 15 ba 41 94 53 ba c8 09 46 39
       -0.00043854245 -0.00057120004 -0.0008071103 0.00018886395
0002b0 d7 13 b7 38 f9 1f b6 b9 7c 71 9c 39 56 2b 84 ba
       8.7298155e-05 -0.00034737567 0.0002983919 -0.0010083716
0002c0 4e eb a8 b9 ec f6 45 ba df 60 01 ba 51 aa 90 ba
       -0.00032218773 -0.0007551748 -0.00049353944 -0.0011037086
0002d0 86 32 cf 3a 03 21 41 ba 97 1c 1f ba 69 9c 88 3a
       0.0015807904 -0.0007367285 -0.0006069629 0.001042259
0002e0 66 b9 18 3b bd 7a 9a 3a ad 9d c5 ba 4c 8b f8 39
       0.0023303865 0.0011785846 -0.0015076898 0.0004740603
0002f0 35 c2 11 3b dc d7 1b 3b 48 14 dc 3a 5e 23 af 3a
       0.0022241 0.0023779785 0.0016790712 0.0013361981
000300 78 c2 98 ba 76 ce 91 ba 67 98 27 b9 d1 17 44 3a
       -0.0011654636 -0.0011124152 -0.00015983135 0.00074803556
000310 c7 0f 5a b9 81 d6 e9 b9 ba 80 74 3a 1a 56 9d 3a
       -0.00020795978 -0.0004460104 0.0009327043 0.001200381
000320 55 34 e9 b9 b8 96 c6 b9 3c 1b 91 ba 55 41 03 3a
       -0.00044480214 -0.00037877797 -0.0011070739 0.00050069886
000330 24 05 0b ba 80 1f 0c ba 88 fa eb 3a a3 11 80 ba
       -0.0005303195 -0.000534527 0.0018003741 -0.0009770881
000340 f9 7e cd 39 92 bc da 39 c5 54 12 bb 64 ca d5 b9
       0.0003919525 0.00041720696 -0.0022328359 -0.0004077732
000350 d7 2c 56 3b b7 0e 93 ba d1 14 3e bb e1 1c 26 3a
       0.0032680535 -0.0011219595 -0.0029004107 0.0006336701
000360 2b 19 99 3b c3 45 11 3b 41 7a d4 b9 dd b2 e0 3a
       0.0046721897 0.0022166825 -0.00040526877 0.0017143149
000370 0a e5 f8 3a 5c 23 98 3b fe da fc 3a 06 46 77 3b
       0.0018989157 0.004642887 0.0019291339 0.0037730946
000380 c0 bf 6d bb 1e 5b 9e ba eb fb 08 3a 10 9f 53 3b
       -0.0036277622 -0.0012081598 0.0005225527 0.0032290854
000390 a2 65 c5 bb a4 d2 99 39 21 95 91 3b 0b 3b f9 ba
       -0.0060240785 0.00029339374 0.0044428264 -0.0019014789
0003a0 3a ab ee bb 70 71 03 bc 19 49 6c 3b fd 1a 4c ba
       -0.0072835954 -0.008022651 0.0036054312 -0.0007786004
0003b0 fc e0 92 bb 4a 29 49 bc 08 78 df bb d7 86 29 bb
       -0.0044823866 -0.0122779105 -0.0068197288 -0.0025867724
0003c0 6e 40 e6 bb a6 86 73 bb 0c d9 fa 3a be f1 d2 3a
       -0.0070267236 -0.0037159114 0.0019138171 0.0016093773
0003d0 a4 e9 35 ba cb 2f a2 ba e1 0a 19 3b a7 f3 b6 3b
       -0.0006939417 -0.0012373863 0.0023352432 0.005583245
0003e0 35 88 c1 3a d8 48 9d ba 9a 7c 50 bb 03 b7 cb 3a
       0.0014765324 -0.0011999859 -0.003181255 0.0015542213
0003f0 19 ba 28 3b d4 49 e9 ba 58 39 42 3b a7 10 df 39
       0.0025745688 -0.0017798492 0.002963623 0.00042546281
