ckpt/lstm_nodiff_h16/best.pth (torch_old, 30947 bytes, 30 tensors)

rnn.weight_ih_l0 f4 [16, 7]
-0.00039109855 0.02737949 0.06662059 -0.041539997 -0.15892458 0.219241 0.11326747 -0.05213829
-0.026058229 -0.23416713 -0.06378661 -0.11636166 0.09607652 -0.14029165 -0.122206144 0.106320575
-0.22556658 0.041684024 0.007647458 0.29944935 0.07979553 0.1416319 -0.047245007 0.03282186
0.062722936 -0.15997802 0.22979377 -0.37516072 -0.08842096 -0.1399139 -0.11512619 0.028593164
-0.13478073 -0.2637275 0.053690698 0.104093544 -0.32301638 -0.034440786 0.0923732 -0.07735076
0.34559748 -0.27496147 0.18502828 0.016967947 0.17260145 0.115918234 -0.02587593 0.010917327
0.3962657 0.21544865 0.039701648 0.08921302 -0.00024859735 0.17887071 0.31994775 0.37210575
0.03253985 0.03602719 0.091116324 0.057482395 0.19481315 0.063584305 0.03900248 -0.12810561
0.20040637 0.01921749 0.17394674 0.07854844 -0.0821776 -0.015124879 0.14585492 -0.18551649
-0.05684503 0.13236777 0.18797849 0.21806747 -0.19261423 0.02734819 -0.0794642 -0.11027037
0.17829582 -0.016573312 -0.23225611 0.4062581 -0.109464474 -0.25028673 -0.12010982 0.018190892
-0.15543455 -0.020800885 0.29098123 -0.0708202 0.13576832 -0.051074464 -0.19224073 0.00631145
-0.3408208 -0.30821502 -0.105372734 -0.037049565 0.035419643 0.07486553 0.055059902 0.23570865
-0.12147315 0.12722714 -0.11104858 0.11420393 0.23207559 -0.10787841 -0.19445267 -0.21952806
00000000: 5c0c cdb9 f44a e03c 6070 883d d825 2abd
00000010: 20bd 22be b680 603e c6f8 e73d f68e 55bd
00000020: 1178 d5bc 82c9 6fbe 8ea2 82bd 064f eebd
00000030: c4c3 c43d 9da8 0fbe 3747 fabd 9abe d93d
00000040: edfa 66be debc 2a3d 8797 fa3b 6d51 993e
00000050: d76b a33d f407 113e fb83 41bd 3770 063d
00000060: e274 803d 47d1 23be 0f4f 6b3e 1115 c0be
00000070: 0c16 b5bd 9745 0fbe 48c7 ebbd 363c ea3c
00000080: f603 0abe 4a07 87be c7ea 5b3d ff2e d53d
00000090: 6762 a5be c811 0dbd 292e bd3d 136a 9ebd
000000a0: 27f2 b03e c0c7 8cbe 0e78 3d3e 5d00 8b3c
000000b0: 6fbe 303e 8a66 ed3d c2f9 d3bc 97de 323c
000000c0: 56e3 ca3e 929e 5c3e 329e 223d 51b5 b63d
000000d0: 2c56 82b9 e229 373e 31d0 a33e a584 be3e
000000e0: 8148 053d 3f91 133d 329b ba3d a972 6b3d
000000f0: 197d 473e 7d38 823d 11c1 1f3d 1e2e 03be
00000100: 5437 4d3e ff6d 9d3c 181f 323e 01de a03d
00000110: bb4c a8bd 57ce 77bc fe5a 153e 09f8 3dbe
00000120: 56d6 68bd 6b8b 073e 6f7d 403e 144d 5f3e
00000130: aa3c 45be 5009 e03c 20be a2bd 6fd5 e1bd
00000140: 2e93 363e c1c4 87bc 8cd4 6dbe 1001 d03e
00000150: e92e e0bd 9525 80be 23fc f5bd 1105 953c
00000160: 3c2a 1fbe 9e66 aabc 7efb 943e 2e0a 91bd
00000170: da06 0b3e 7533 51bd c1da 44be 48d0 ce3b
00000180: 1080 aebe 5cce 9dbe a9cd d7bd 49c1 17bd
00000190: 3014 113d 1953 993d 7e86 613d 9c5d 713e
000001a0: eac6 f8bd d547 023e 706d e3bd c0e3 e93d
000001b0: 39a5 6d3e 5bef dcbd 9a1e 47be f7cb 60be

rnn.weight_hh_l0 f4 [16, 16]
0.119003616 -0.23194638 0.2075083 0.029636888 0.2234105 -0.31883854 0.18706459 0.30511662
0.12197945 -0.00809306 0.12223765 0.28748003 -0.14143379 -0.04214562 0.01809409 -0.05175325
-0.11184125 0.3627545 0.37308347 -0.006254244 -0.25539798 0.28136435 -0.083594665 0.18033966
-0.1397851 -0.32381567 -0.05019829 -0.2536071 -0.061639734 0.16374956 -0.33951294 0.064239874
0.2965806 -0.10488859 0.234089 -0.27248493 0.21439911 0.066097945 0.08548531 0.0037706422
0.090191655 -0.015727304 5.707436e-05 0.023634044 0.3140729 -0.022568746 -0.13999735 -0.179135
-0.02241796 -0.20864436 -0.20344555 0.24283136 0.2076963 -0.15796624 -0.23634079 0.073581375
0.100211166 0.04425609 -0.05498681 -0.062663324 0.10655602 0.055647876 0.021740554 0.12633097
0.015780095 -0.03327044 0.010036748 -0.091627896 0.3124232 0.09779142 0.15127641 -0.15084311
0.20145394 0.047319688 0.022292469 0.1553542 0.1847854 0.3285205 -0.24714464 0.096780084
-0.022172477 0.31295747 0.10141541 -0.24523668 -0.34038487 0.19511633 0.11869726 -0.039137904
0.04872444 -0.11853175 -0.027630668 0.023168825 0.26449147 -0.009672242 0.26678234 -0.25484997
0.35378405 0.057818066 0.1974921 -0.15720627 0.1565245 -0.17890462 0.047940165 0.22053838
-0.07202565 -0.23886795 -0.11510367 0.13564733 0.22336163 -0.094722964 -0.10688874 -0.36898947
-0.06943734 0.19529004 -0.3477237 0.18752131 -0.074857324 0.036697336 -0.12002554 0.34875196
-0.11753232 0.11405205 0.16757658 0.04647699 0.29732448 -0.18130133 -0.10015603 -0.14016183
0.0608218 -0.050663244 0.2783897 -0.17021716 0.07245766 -0.22238654 0.45350844 0.079021454
-0.07027814 0.025588559 0.023206582 0.23408665 0.32762876 0.017763415 -0.1120312 -0.42578766
-0.17930622 -0.009232846 -0.22274378 -0.18106946 -0.08432695 0.15889487 -0.11641861 -0.26527524
-0.43309808 0.3002799 -0.047014616 0.027459387 0.16756068 0.22842987 0.11147523 0.14020453
0.12456341 0.10479773 -0.07374817 0.43559146 0.014877971 -0.11977893 -0.30705073 -0.17540638
-0.4436185 0.2292224 -0.00036408118 -0.117481254 -0.12154106 0.08128145 0.31245717 0.33549267
-0.1795562 -0.012325783 -0.06391954 0.15635313 0.29595566 -0.22676378 0.31199902 -0.01165668
-0.051559687 0.2274238 -0.05672661 -0.08131273 0.19708084 0.15265498 0.22438097 -0.27867565
-0.2496527 0.043291464 -0.32143041 -0.13297002 -0.006125822 -0.03407951 -0.15788639 0.34205306
0.011382961 -0.044005174 0.039896954 0.25670186 0.023067137 0.12948427 0.15968716 -0.17017773
0.014056501 -0.22709122 -0.13222772 -0.03801517 -0.1540153 -0.1029157 0.19016612 0.05243023
0.1693963 0.13649148 -0.24429508 -0.26361662 -0.3374142 0.04084165 0.0215171 0.038171194
0.03703241 0.13611938 -0.02408237 0.052592132 -0.13889398 -0.047026318 -0.25860062 0.19254214
0.06429225 -0.230819 0.31227744 -0.044574905 -0.3884929 0.11181565 -0.15284286 0.064043134
-0.14658694 0.024377346 -0.032004163 -0.022482274 0.023914516 -0.18736498 -0.1793543 -0.12210356
0.2415316 -0.14061844 -0.0012681689 0.17617704 -0.24756418 0.22416908 -0.16500962 0.34700838
00000000: 2bb8 f33d 5a83 6dbe 0e7d 543e 0fc9 f23c
00000010: b9c5 643e ce3e a3be dc8d 3f3e 3f38 9c3e
00000020: 5dd0 f93d c198 04bc bc57 fa3d 9530 933e
00000030: 05d4 10be e3a0 2cbd 0f3a 943c 37fb 53bd
00000040: 060d e5bd f5ba b93e cc04 bf3e 67f0 ccbb
00000050: 86c3 82be fd0e 903e ae33 abbd f6aa 383e
00000060: d323 0fbe 2bcb a5be b99c 4dbd cad8 81be
00000070: f279 7cbd f7ad 273e a4d4 adbe 3290 833d
00000080: 6ad9 973e d4cf d6bd 07b5 6f3e 2583 8bbe
00000090: 718b 5b3e 5c5e 873d ec12 af3d e11c 773b
000000a0: 67b6 b83d 8cd6 80bc 2163 6f38 2f9c c13c
000000b0: 2ace a03e 17e2 b8bc 775b 0fbe 2a6f 37be
000000c0: dfa5 b7bc dea6 55be 0854 50be c9a8 783e
000000d0: 57ae 543e e7c1 21be 5203 72be d5b1 963d
000000e0: 833b cd3d e045 353d d939 61bd a155 80bd
000000f0: 0b3a da3d 07ef 633d 3f19 b23c e85c 013e
00000100: 4245 813c 9646 08bd 2c71 243c 68a7 bbbd
00000110: eff5 9f3e de46 c83d 34e8 1a3e 9e76 1abe
00000120: f149 4e3e 4ad2 413d b29e b63c 2c15 1f3e
00000130: 6238 3d3e d733 a83e 7c13 7dbe a334 c63d
00000140: 0ea3 b5bc f63b a03e e2b2 cf3d 531f 7bbe
00000150: ed46 aebe 93cc 473e 8d17 f33d 114f 20bd
00000160: 4793 473d c6c0 f2bd b659 e2bc 8ccc bd3c
00000170: 6d6b 873e 5378 1ebc b297 883e b27b 82be
00000180: 2f23 b53e a3d2 6c3d 5e3b 4a3e aefa 20be
00000190: f547 203e c632 37be e85c 443d d0d4 613e
000001a0: 2f82 93bd cd99 74be 79bb ebbd 22e7 0a3e
000001b0: e9b8 643e 1dfe c1bd 7ce8 dabd 30ec bcbe
000001c0: 2a35 8ebd 1dfa 473e d708 b2be 9605 403e
000001d0: cc4e 99bd f24f 163d f3cf f5bd 9e8f b23e
000001e0: c9b4 f0bd 1f94 e93d 3299 2b3e a85e 3e3d
000001f0: ea3a 983e 0ea7 39be 9b1e cdbd 9586 0fbe
00000200: 4820 793d 4384 4fbd 1889 8e3e 684d 2ebe
00000210: af64 943d 4cb9 63be 4232 e83e 00d6 a13d
00000220: fced 8fbd 199f d13c bb1b be3c 69b4 6f3e
00000230: f5be a73e 9584 913c 9d70 e5bd d700 dabe
00000240: 0d9c 37be 5d45 17bc f216 64be 466a 39be
00000250: 9cb3 acbd 56b5 223e e16c eebd 28d2 87be
00000260: 08bf ddbe 49be 993e 6692 40bd 82f2 e03c
00000270: 0795 2b3e 85e9 693e 204d e43d c791 0f3e
00000280: 1a1b ff3d 31a0 d63d 4809 97bd d805 df3e
00000290: bcc2 733c a84e f5bd c135 9dbe bb9d 33be
000002a0: f721 e3be 47b9 6a3e 26e2 beb9 039a f0bd
000002b0: 85ea f8bd e476 a63d 63fa 9f3e b2c5 ab3e
000002c0: 95dd 37be 15f2 49bc 3fe8 82bd 091b 203e
000002d0: 8087 973e c434 68be 56be 9f3e a9fb 3ebc
000002e0: 4030 53bd c9e1 683e 295a 68bd 4a87 a6bd
000002f0: 8fcf 493e 9651 1c3e 20c4 653e 93ae 8ebe
00000300: f5a4 7fbe 6452 313d 8792 a4be 4b29 08be
00000310: 1fbb c8bb f596 0bbd f8ac 21be 9421 af3e
00000320: 997f 3a3c c53e 34bd fd6a 233d 6d6e 833e
00000330: 4bf7 bc3c 8697 043e 0885 233e 1243 2ebe
00000340: 3d4d 663c 9a8a 68be b466 07be cbb5 1bbd
00000350: 30b6 1dbe 77c5 d2bd e8ba 423e 15c1 563d
00000360: 3976 2d3e 6cc4 0b3e 7d28 7abe c2f8 86be
00000370: 8ec1 acbe 9349 273d a144 b03c 6659 1c3d
00000380: 4caf 173d e162 0b3e 6448 c5bc d96a 573d
00000390: 393a 0ebe ab9e 40bd 4d67 84be c429 453e
000003a0: a8ab 833d d15b 6cbe d4e2 9f3e 2d94 36bd
000003b0: 8be8 c6be 9aff e43d d782 1cbe 0c29 833d
000003c0: e31a 16be 00b3 c73c cc16 03bd bf2c b8bc
000003d0: 60e8 c33c 9bdc 3fbe a7a8 37be 6e11 fabd
000003e0: 0f54 773e 48fe 0fbe b038 a6ba c167 343e
000003f0: 7781 7dbe 948c 653e 48f8 28be 15ab b13e

rnn.bias_ih_l0 f4 [16]
-0.09187193 0.060552258 -0.023125013 -0.23137656 0.22321288 -0.17026106 0.06220383 -0.06530569
0.026367292 0.050772652 0.17480676 -0.063120164 -0.09947393 0.12247406 -0.1828653 -0.2609261
00000000: 5a27 bcbd a505 783d ab70 bdbc faed 6cbe
00000010: eb91 643e ea58 2ebe 71c9 7e3d fdbe 85bd
00000020: 3800 d83c fcf6 4f3d 8b00 333e 2545 81bd
00000030: fdb8 cbbd aed3 fa3d 0b41 3bbe 1b98 85be

rnn.bias_hh_l0 f4 [16]
0.27543387 0.34679592 -0.149796 0.102065854 -0.050492197 0.10671498 -0.18352251 0.16751611
-0.34067607 0.08186483 0.038206507 -0.07051192 -0.14981392 -0.1984177 0.034894533 -0.04450506
00000000: ab05 8d3e 3c8f b13e 1f64 19be e707 d13d
00000010: e8d0 4ebd 628d da3d 53ed 3bbe 5889 2b3e
00000020: 186d aebe bfa8 a73d 6d7e 1c3d 8e68 90bd
00000030: d268 19be 022e 4bbe 92ed 0e3d f04a 36bd

fc.0.weight f4 [16, 16]
-0.20328987 -0.29554775 -0.32350376 -0.21638983 0.24896957 -0.39629412 -0.030587003 0.2898602
-0.6602523 0.0096569555 0.12043127 -0.3412421 -0.11407622 -0.3268254 -0.1346401 0.25141832
0.07763077 -0.28972575 0.19836353 0.2238682 -0.21866345 0.055306416 -0.305767 -0.16156876
-0.23942633 0.42418078 0.21340796 0.28009698 0.30304727 -0.17069666 0.24677247 -0.08524177
-0.64615905 -0.21770342 -0.3078972 -0.67773986 0.14932598 0.26830348 0.0068438672 -0.24357836
-0.097155 -0.2250516 0.28467932 -0.014070659 -0.30289185 0.074764915 0.102621935 -0.09843605
0.50449336 -0.33357492 -0.056396164 0.03219241 0.12338389 0.06718077 0.2129706 -0.15148973
0.3845667 0.0030304529 -0.26905397 -0.2454326 0.8122567 -0.053769212 0.38958132 -0.29274228
-0.0067139785 0.3529093 0.17143697 0.1964724 -0.06772448 -0.22952996 0.036789913 -0.33991528
0.18786037 -0.40913823 0.46555838 -0.30624342 -0.048433118 -0.09839955 0.49186063 -0.2641174
-0.40769893 0.14727463 0.25578147 0.33819446 0.32024527 0.066156656 0.025174234 0.40581173
-0.0544295 -0.19310133 0.26612034 -0.26647547 0.11922518 0.35619295 0.2998192 0.2699236
-0.07745685 -0.49946934 0.30210325 -0.17227113 -0.22377719 -0.65706205 -0.065752625 0.0038552247
0.008529431 0.068241544 -0.33339834 0.104655825 0.14852643 0.48764834 -0.17002575 -0.23186725
0.0051635825 -0.15595861 0.3776243 0.40012237 0.00638161 0.15593517 0.37316877 0.017170023
0.4713772 0.42549312 0.11063932 -0.49618053 -0.06887317 -0.19664544 -0.13175458 -0.395708
-0.118119285 0.1936114 0.055679608 -0.48232102 0.6193142 -0.38934985 -0.4415968 -0.09943127
0.21785301 0.180522 0.038744878 -0.025641862 -0.47707912 -0.15268178 0.16112764 0.32106262
0.14445871 -0.14695889 0.17872493 -0.4276994 0.12284029 0.16617365 -0.24778926 -0.3314703
-0.19425297 -0.15463862 0.4062239 -0.30421767 -0.10634156 0.18967825 -0.42572185 0.6113328
-0.054443944 0.49187958 0.09522342 0.35785586 0.30955276 0.100701995 0.1461098 -0.4955843
-0.3796187 0.12457142 -0.2016284 -0.32036924 -0.058908273 0.1114401 0.1235332 -0.32337758
0.016464032 0.0897939 -0.07620548 -0.4145914 0.21708407 -0.23903273 0.14279269 0.13148582
-0.07497511 0.33249447 0.3667544 0.5018658 0.49513808 0.1490201 -0.5882263 -0.22320299
0.014311569 0.23599452 -0.42140797 0.4949001 -0.081318885 0.13372135 -0.68167174 0.14325078
0.20895071 0.08903598 0.23575799 -0.5072252 -0.047054324 0.20214634 0.1032941 -0.4322142
-0.46912464 -0.029055998 -0.49503234 0.28316078 0.1325446 -0.28648004 0.031267382 -0.4778364
0.18901612 0.029158296 0.181853 0.022209082 -0.05507206 -0.06067385 -0.15208507 0.5549269
0.24683215 -0.32966512 0.3180224 0.7929247 0.43853685 0.14542153 -0.09800908 -0.073720194
0.13531533 -0.39705786 -0.088269055 0.21334156 0.12740682 -0.19496134 -0.058063656 -0.5506976
0.49137944 -0.020777348 -0.3503616 0.43785104 0.21684839 0.07561211 0.30057254 -0.039048262
0.024002984 0.07418281 0.3834392 -0.06468279 -0.5276566 0.35818508 0.38381425 -0.061579328
00000000: 382b 50be 0952 97be 49a2 a5be 4c95 5dbe
00000010: e1f1 7e3e 10e7 cabe 9891 fabc 8e68 943e
00000020: 4b06 29bf 3538 1e3c aba4 f63d 49b7 aebe
00000030: cba0 e9bd a955 a7be 18df 09be e7b9 803e
00000040: e2fc 9e3d ef56 94be cf1f 4b3e b53d 653e
00000050: 50e9 5fbe fb88 623d 7e8d 9cbe 4872 25be
00000060: 2d2c 75be 392e d93e 9e87 5a3e df68 8f3e
00000070: 0329 9b3e 1bcb 2ebe ecb1 7c3e 3d93 aebd
00000080: ae6a 25bf a5ed 5ebe b4a4 9dbe 5c80 2dbf
00000090: e9e8 183e 135f 893e 8542 e03b 9b6c 79be
000000a0: 33f9 c6bd ed73 66be 7dc1 913e 9f88 66bc
000000b0: a414 9bbe 591e 993d 732b d23d d798 c9bd
000000c0: 7a26 013f 55ca aabe aaff 66bd 30dc 033d
000000d0: b1b0 fc3d 1296 893d f714 5a3e 2020 1bbe
000000e0: ede5 c43e 909a 463b 71c1 89be af52 7bbe
000000f0: 0ef0 4f3f 1b3d 5cbd 3477 c73e 51e2 95be
00000100: ef00 dcbb 87b0 b43e 2c8d 2f3e 1030 493e
00000110: 22b3 8abd e709 6bbe 05b1 163d 6009 aebe
00000120: 785e 403e 917a d1be ab5d ee3e f0cb 9cbe
00000130: ce61 46bd b485 c9bd 28d5 fb3e 653a 87be
00000140: eabd d0be 29cf 163e caf5 823e d327 ad3e
00000150: 30f7 a33e 247d 873d 323a ce3c 8ec6 cf3e
00000160: 78f1 5ebd 5bbc 45be ed40 883e 796f 88be
00000170: 552c f43d ec5e b63e e781 993e 6d33 8a3e
00000180: b2a1 9ebd 72ba ffbe 47ad 9a3e d867 30be
00000190: d925 65be 3835 28bf 50a9 86bd f0a7 7c3b
000001a0: 07bf 0b3c 39c2 8b3d 30b3 aabe cb55 d63d
000001b0: 5017 183e 0bad f93e 3b1b 2ebe 9c6e 6dbe
000001c0: 4533 a93b 9db3 1fbe f957 c13e d7dc cc3e
000001d0: d31c d13b 78ad 1f3e fa0f bf3e 26a8 8c3c
000001e0: 5a58 f13e 3cda d93e de96 e23d 600b febe
000001f0: 600d 8dbd 6c5d 49be acea 06be 3d9a cabe
00000200: 86e8 f1bd 1142 463e 4d10 643d c8f2 f6be
00000210: 608b 1e3f dd58 c7be fa18 e2be 9fa2 cbbd
00000220: dc14 5f3e c2da 383e f3b2 1e3d e20e d2bc
00000230: b743 f4be 9d58 1cbe a5fe 243e 5262 a43e
00000240: fcec 133e 647c 16be ab03 373e 6afb dabe
00000250: b193 fb3d 6d29 2a3e 78bc 7dbe 7ab6 a9be
00000260: 40ea 46be 9659 1ebe 94fc cf3e 6bc2 9bbe
00000270: 9bc9 d9bd 043b 423e 37f8 d9be 4e80 1c3f
00000280: 9d00 5fbd a4d7 fb3e 7f04 c33d e238 b73e
00000290: b37d 9e3e d93c ce3d cf9d 153e 3abd fdbe
000002a0: 625d c2be 4d1f ff3d ad77 4ebe 7007 a4be
000002b0: cd49 71bd b53a e43d f9fe fc3d bf91 a5be
000002c0: 94df 863c dde5 b73d 9e11 9cbd 5345 d4be
000002d0: 494b 5e3e ffc4 74be 3f38 123e 38a4 063e
000002e0: 8d8c 99bd b73c aa3e 3cc7 bb3e 477a 003f
000002f0: bd82 fd3e ba98 183e 0096 16bf 538f 64be
00000300: 127b 6a3c 8ca8 713e c9c2 d7be 8c63 fd3e
00000310: 848a a6bd 40ee 083e 0a82 2ebf 55b0 123e
00000320: 2df7 553e 7f58 b63d 8b6a 713e 83d9 01bf
00000330: 09bc 40bd 73ff 4e3e db8b d33d 2e4b ddbe
00000340: 1b31 f0be d806 eebc e174 fdbe 73fa 903e
00000350: c6b9 073e 83ad 92be 3a12 003d f9a6 f4be
00000360: 718d 413e 61dd ee3c ac37 3a3e d2ef b53c
00000370: 3e93 61bd 2585 78bd 30bc 1bbe b00f 0e3f
00000380: 91c1 7c3e dec9 a8be d5d3 a23e 1dfd 4a3f
00000390: e787 e03e 62e9 143e fcb8 c8bd 9dfa 96bd
000003a0: 1a90 0a3e 2b4b cbbe 68c6 b4bd 3676 5a3e
000003b0: ef76 023e f2a3 47be 28d4 6dbd 85fa 0cbf
000003c0: 1696 fb3e 4235 aabc 9862 b3be 032e e03e
000003d0: 810d 5e3e 86da 9a3d a5e4 993e 12f1 1fbd
000003e0: e8a1 c43c 28ed 973d 2552 c43e 6978 84bd
000003f0: 8114 07bf 0964 b73e 4d83 c43e 9b3a 7cbd

fc.2.weight f4 [2, 16]
-0.4749473 0.0988286 -0.70141524 0.30863717 0.6349748 0.059395038 -0.08482547 0.5885636
-0.2674092 -0.21677354 0.19835801 -0.2823228 0.20202409 -0.18352714 0.23729669 0.33463025
-0.13509241 0.23434982 -0.44286266 0.27004433 -0.6809108 -0.40349108 0.3213428 0.12500831
-0.44439238 -0.18119666 -0.3974529 0.33036986 -0.37004688 -0.44920117 0.11859498 -0.36246195
00000000: 4b2c f3be a666 ca3d f38f 33bf b105 9e3e
00000010: b58d 223f 3648 733d fab8 adbd 1bac 163f
00000020: dce9 88be e2f9 5dbe 5d1e 4b3e 9d8c 90be
00000030: 67df 4e3e 8aee 3bbe e7fd 723e a854 ab3e
00000040: aa55 0abe 66f9 6f3e e5be e2be 4043 8a3e
00000050: 2c50 2ebf 6296 cebe 0b87 a43e 2e02 003e
00000060: 6687 e3be 9e8b 39be f27e cbbe 3d26 a93e
00000070: c976 bdbe b2fd e5be ede1 f23d 9d94 b9be

hidden_rnn.weight_ih_l0 f4 [64, 5]
-0.009115807 -0.09691297 0.05549873 -0.085664764 -0.10451322 -0.085456386 0.10791176 0.05610373
-0.070109956 -0.29003057 -0.26864225 -0.17213495 -0.21848859 -0.00080850656 0.064712025 -0.22233494
0.06815035 -0.010608632 -0.35052425 0.18703397 -0.037435763 0.19825393 0.13369852 0.053247895
-0.018443594 -0.16166015 0.16848838 0.08294446 0.171767 -0.032771092 -0.23298627 -0.067335136
0.20087232 0.0028643229 -0.26537395 -0.09880887 -0.1248096 0.027805926 0.06155246 -0.04827157
-0.07935283 -0.23251536 0.1331214 0.078361295 0.21256253 0.18198797 0.18176803 -0.12613343
0.15701376 0.20154884 -0.17173287 -0.18310475 -0.2109868 0.34137505 -0.16075297 -0.1677836
-0.28690138 0.07708887 -0.12961754 -0.22635455 -0.11694707 -0.08169657 0.14000484 -0.058241904
0.11432365 0.038912434 0.14152521 -0.07966829 0.00031664263 -0.10750577 -0.06652252 0.15764648
-0.15368818 -0.15201558 -0.31021082 0.09904423 0.074956946 -0.050366335 0.009089102 -0.12435273
-0.38022685 -0.3255935 0.105793685 -0.19907257 0.034938514 -0.31560773 -0.20815949 0.07799723
-0.09843872 0.029566966 -0.31737006 0.21150112 -0.08054147 -0.08397334 -0.15389012 -0.12540904
-0.06722175 -0.14195395 -0.5282355 0.06738971 0.091684796 -0.060986437 -0.0390877 -0.03148541
-0.056692965 0.2349946 0.17780425 0.1403353 -0.029159728 0.25946048 -0.24690919 -0.26433665
0.0086532 -0.06729616 0.079954326 0.1833648 0.116577424 0.06521164 0.26521632 -0.094461344
0.108066 -0.14306563 0.18042867 -0.2951684 0.23838812 -0.07227976 0.13721731 -0.2247606
-0.13178015 0.030536663 -0.07029281 0.16158198 0.28066584 -0.03951852 -0.2181759 0.18910937
-0.20020048 -0.17712002 0.018678108 0.0037338997 -0.067502156 -0.061238226 -0.03633645 -0.038560834
0.0057886275 0.17482892 -0.24554734 0.14769131 0.08621975 -0.07288788 0.08097767 -0.22094281
-0.15862426 -0.39590934 -0.29224247 0.14250986 0.16083135 0.09313458 -0.30699348 0.08551888
-0.037051823 0.0273861 0.04903838 -0.1342385 0.17057973 -0.043356594 -0.23121673 0.1077973
0.032226127 -0.03727151 -0.14867136 0.015070916 -0.10099067 -0.14395946 -0.13537775 -0.1246824
0.014944645 0.0014395955 0.07633067 0.11692974 0.063476376 -0.23276755 -0.051648624 0.013286172
0.045625582 -0.036298137 -0.15453671 0.04012246 0.034614988 -0.12208238 -0.06706983 0.007071607
-0.16606312 0.037207685 -0.07740025 0.11237132 -0.1833645 0.046726655 0.113273695 0.09833759
-0.096112326 0.13111196 0.18980704 -0.17251742 0.11468808 0.1345152 -0.09810666 0.22391099
0.122605115 -0.1019487 -0.021317635 0.06612583 0.0635229 0.020195024 0.1561137 0.07475493
0.11168304 0.054359306 -0.15170296 0.06416543 -0.07742395 0.009290363 0.15432754 0.19764037
-0.09832158 -0.20676751 0.18183991 0.045014735 -0.10294421 0.005004547 0.016377868 0.076700866
0.031574108 -0.06790775 -0.10176776 -0.10156035 -0.18449585 -0.09647711 0.069991976 0.26698926
0.08889047 -0.16458029 0.1202734 -0.019973109 -0.16042124 -0.2990577 -0.30853707 -0.018099662
-0.120330654 -0.24311635 0.034371916 0.090385355 0.14271316 -0.07250082 0.1636208 -0.15485501
00000000: 775a 15bc 4f7a c6bd a352 633d 0271 afbd
00000010: 070b d6bd c203 afbd d700 dd3d 06cd 653d
00000020: cf95 8fbd e37e 94be 7a8b 89be 2544 30be
00000030: 79bb 5fbe f5f1 53ba bd87 843d c5ab 63be
00000040: 6992 8b3d d4cf 2dbc ea77 b3be d585 3f3e
00000050: 3e56 19bd 1403 4b3e 44e8 083e 771a 5a3d
00000060: 0517 97bc 3d8a 25be 3888 2c3e c9de a93d
00000070: b0e3 2f3e fb3a 06bd f493 6ebe 01e7 89bd
00000080: 79b1 4d3e 5db7 3b3b 18df 87be 4e5c cabd
00000090: 2d9c ffbd 41c9 e33c 6f1e 7c3d 69b8 45bd
000000a0: bd83 a2bd 8218 6ebe fa50 083e e37b a03d
000000b0: fea9 593e 0e5b 3a3e 6621 3a3e 1f29 01be
000000c0: 37c8 203e d262 4e3e beda 2fbe d07f 3bbe
000000d0: ec0c 58be b6c8 ae3e 6d9c 24be 77cf 2bbe
000000e0: bde4 92be c5e0 9d3d 76ba 04be 7dc9 67be
000000f0: f281 efbd 8850 a7bd 6e5d 0f3e 108f 6ebd
00000100: 8522 ea3d a562 1f3d fceb 103e 2129 a3bd
00000110: 0e03 a639 fc2b dcbd f53c 88bd 146e 213e
00000120: 6f60 1dbe f9a9 1bbe f4d3 9ebe b4d7 ca3d
00000130: 0783 993d ee4c 4ebd 75ea 143c a5ac febd
00000140: 18ad c2be 31b4 a6be 5caa d83d aed9 4bbe
00000150: b01b 0f3d 5697 a1be c327 55be 03bd 9f3d
00000160: 3d9a c9bd 6c36 f23c 547e a2be c093 583e
00000170: edf2 a4bd 37fa abbd 5f95 1dbe 3a6b 00be
00000180: 8fab 89bd 605c 11be 713a 07bf 9e03 8a3d
00000190: 3dc5 bb3d eacc 79bd 6d1a 20bd d8f6 00bd
000001a0: e236 68bd 6da2 703e 5112 363e 0fb4 0f3e
000001b0: 62e0 eebc 01d8 843e c3d5 7cbe 2257 87be
000001c0: 27c6 0d3c 92d2 89bd 18bf a33d fbc3 3b3e
000001d0: 25c0 ee3d ae8d 853d 6fca 873e f374 c1bd
000001e0: b551 dd3d cc7f 12be 4bc2 383e 5020 97be
000001f0: 041c 743e 6907 94bd b282 0c3e a527 66be
00000200: 60f1 06be 0628 fa3c adf5 8fbd bf75 253e
00000210: 6fb3 8f3e 2cde 21bd 8169 5fbe e3a5 413e
00000220: 5b01 4dbe f35e 35be d502 993c 71b4 743b
00000230: 923e 8abd efd4 7abd 88d5 14bd f7f1 1dbd
00000240: 87ae bd3b 5a06 333e c370 7bbe 643c 173e
00000250: fb93 b03d 3e46 95bd 9fd7 a53d d53e 62be
00000260: 666e 22be a1b4 cabe cea0 95be 1bee 113e
00000270: f9b0 243e 58bd be3d 402e 9dbe 8624 af3d
00000280: a7c3 17bd d058 e03c 78dc 483d d175 09be
00000290: 74ac 2e3e af96 31bd 14c4 6cbe d5c4 dc3d
000002a0: 8bff 033d 03aa 18bd 4e3d 18be 01ec 763c
000002b0: 32d4 cebd 1c6a 13be 77a0 0abe 7c59 ffbd
000002c0: 62da 743c cfb0 bc3a 4153 9c3d dc78 ef3d
000002d0: e7ff 813d 9e5a 6ebe 828d 53bd 3fae 593c
000002e0: e4e1 3a3d 5bad 14bd df3e 1ebe 7357 243d
000002f0: 72c8 0d3d 5406 fabd e85b 89bd f0b8 e73b
00000300: 730c 2abe 1667 183d 0684 9ebd ef22 e63d
00000310: e7c3 3bbe 7364 3f3d 0afc e73d 3865 c93d
00000320: 8ad6 c4bd 3742 063e c75c 423e 68a8 30be
00000330: 96e1 ea3d 5abe 093e 25ec c8bd ec48 653e
00000340: 6418 fb3d 7bca d0bd 52a2 aebc fb6c 873d
00000350: 4b18 823d 0970 a53c 45dc 1f3e 1d19 993d
00000360: 14ba e43d dda7 5e3d 0558 1bbe 2a69 833d
00000370: 7390 9ebd 9b36 183c 0a08 1e3e 3d62 4a3e
00000380: d35c c9bd ddba 53be 3e34 3a3e 5f61 383d
00000390: 6ad4 d2bd 2ffd a33b e12a 863c 5815 9d3d
000003a0: da53 013d 3813 8bbd 9e6b d0bd dffe cfbd
000003b0: 7bec 3cbe cb95 c5bd f457 8f3d d1b2 883e
000003c0: 350c b63d bc87 28be e651 f63d a59e a3bc
000003d0: 7745 24be 171e 99be 92f8 9dbe be45 94bc
000003e0: eb6f f6bd 7ef3 78be 91c9 0c3d f51b b93d
000003f0: 6623 123e 4f7b 94bd 368c 273e 5092 1ebe

hidden_rnn.weight_hh_l0 f4 [64, 16]
0.065235265 0.44818452 -0.19059989 -0.23870535 0.28012526 0.27383336 0.04812322 -0.37532476
0.11922529 0.32724053 -0.04486768 -0.05266732 -0.2643317 0.3071013 -0.122225374 -0.11288835
-0.118776366 0.27484027 -0.23214054 -0.30688888 -0.08124245 0.20118628 0.36134613 0.09866629
-0.3710788 0.17373216 -0.13418832 -0.20043805 -0.2906989 0.04494548 -0.26886737 0.18508509
0.19721216 0.11204222 0.21445411 0.20350373 -0.15880767 -0.27896744 0.08182296 -0.1849946
-0.24812543 0.17120942 0.11000889 0.046720777 0.045903184 0.30742675 0.123013586 0.350735
0.30156776 0.13047865 0.12399856 -0.33991975 -0.117715314 -0.47665223 -0.15174305 -0.1755298
0.015032291 0.1412523 0.082982294 0.22011201 -0.28898117 -0.020583093 -0.23225722 -0.14315735
-0.092911586 0.112729624 -0.33768743 -0.25562054 0.19478938 -0.10847019 0.08746933 -0.37152556
-0.09102139 0.3163401 -0.017972486 -0.10329113 0.08626616 -0.01044332 -0.122826934 0.17745946
0.18571493 0.18852602 -0.084485576 0.14971316 -0.00011743226 -0.026154293 -0.18878064 0.0055412166
0.011560429 0.122657 -0.080134906 -0.122622184 -0.56651276 0.045742553 -0.103875816 -0.036390826
0.23744293 0.18575656 -0.09140422 -0.3372892 0.06125503 0.06680992 0.09461052 -0.08765925
-0.11291397 0.28013974 -0.059995692 0.11873899 -0.27632508 0.03526379 0.16499306 -0.14672048
0.20804816 -0.06832715 -0.21958438 -0.009373839 -0.22958343 -0.4683545 -0.08421136 -0.020445019
0.12622093 -0.111169696 -0.25070244 -0.11869706 -0.3338923 0.22250994 0.17142193 0.00828985
0.23331332 0.22487561 -0.09667812 -0.1014075 -0.06898847 -0.41920567 -0.1304871 0.35398054
0.008206989 -0.2361775 -0.093029626 0.1530653 0.3525411 0.063365 -0.26235372 -0.08896564
-0.04361437 0.11269306 -0.2951056 -0.13545123 0.064686626 -0.010796471 -0.09814647 -0.0050364905
-0.051140808 0.053579465 0.14908202 0.2638844 -0.19798256 -0.16498336 0.13014115 0.13878599
-0.16707288 0.19158629 -0.21159036 -0.27876413 -0.13076371 -0.21312124 0.08426307 0.23290567
0.20314385 0.17220287 0.051991563 0.09174777 -0.22490433 -0.07608986 -0.115368135 0.012438236
0.17416953 0.34101406 -0.24162208 -0.03565504 -0.3238518 0.17574894 0.078005776 0.032370638
0.045497652 0.14608204 -0.060302522 -0.20598128 -0.23412427 0.074001424 0.28522816 -0.12010392
0.30118617 0.27308902 -0.14838439 -0.32867572 -0.14421694 0.02878479 0.29291853 -0.25004855
-0.12627222 0.19527625 -0.0040639318 -0.1221489 -0.10594732 0.037222225 -0.13554113 0.058123633
-0.39415213 -0.13029467 -0.09255517 -0.057858 0.15510869 0.14122705 -0.265916 -0.13821292
-0.002650796 0.19762994 0.13666758 0.00582902 0.06744308 0.009408569 0.01376285 0.2982505
0.032501295 0.3166675 -0.39782667 -0.07721677 -0.20047165 -0.10465445 -0.18013655 -0.3645886
-0.17816018 0.380336 0.0038353675 -0.107156456 0.03825687 -0.09029281 0.033180807 0.16935587
0.036745813 0.34804448 -0.2526347 -0.15667076 -0.19010617 0.08664269 0.114789315 -0.4003157
-0.10641552 0.15585202 0.051444232 0.055743415 -0.21093804 0.15069346 0.10377939 0.3025119
00000000: 119a 853d 7178 e53e 9e2c 43be 2d6f 74be
00000010: 946c 8f3e e333 8c3e db1c 453d 912a c0be
00000020: 642c f43d 128c a73e 2cc7 37bd b0b9 57bd
00000030: 7c56 87be 623c 9d3e 4c51 fabd 0232 e7bd
00000040: 0641 f3bd ddb7 8c3e 40b6 6dbe 8a20 9dbe
00000050: 7162 a6bd c703 4e3e 5c02 b93e 8d11 ca3d
00000060: 0afe bdbe d8e6 313e aa68 09be a23f 4dbe
00000070: 7cd6 94be c018 383d fca8 89be f286 3d3e
00000080: fcf1 493e 6476 e53d dc99 5b3e 4863 503e
00000090: 7a9e 22be d2d4 8ebe cc92 a73d 396f 3dbe
000000a0: 9814 7ebe 8651 2f3e 574c e13d 495e 3f3d
000000b0: fa04 3c3d 0a67 9d3e 8cee fb3d 8a93 b33e
000000c0: 1767 9a3e 329c 053e f5f2 fd3d f609 aebe
000000d0: ba14 f1bd c30b f4be 8862 1bbe 15be 33be
000000e0: 004a 763c 71a4 103e 9ff2 a93d 0b65 613e
000000f0: 57f5 93be e09d a8bc d6d4 6dbe d797 12be
00000100: 6e48 bebd cade e63d 5ee5 acbe b2e0 82be
00000110: de76 473e 9e25 debd 1f23 b33d 9938 bebe
00000120: 6c69 babd 54f7 a13e 093b 93bc 4d8a d3bd
00000130: 50ac b03d 751a 2bbc b08c fbbd efb7 353e
00000140: 0e2c 3e3e f70c 413e c606 adbd 684e 193e
00000150: f745 f6b8 8741 d6bc b64f 41be 1893 b53b
00000160: f467 3d3c 9833 fb3d c51d a4bd 5721 fbbd
00000170: fb06 11bf 8b5c 3b3d d8bc d4bd 8c0e 15bd
00000180: 3d24 733e f836 3e3e 2332 bbbd 2cb1 acbe
00000190: 8ee6 7a3d a4d3 883d 29c3 c13d b186 b3bd
000001a0: 713f e7bd 7a6e 8f3e 0bbe 75bd 6d2d f33d
000001b0: 7b7a 8dbe c470 103d f1f3 283e e53d 16be
000001c0: 940a 553e 1bef 8bbd bada 60be bb94 19bc
000001d0: eb17 6bbe 29cc efbe 0177 acbd 507c a7bc
000001e0: 0f40 013e f0ac e3bd 125c 80be 7217 f3bd
000001f0: eef3 aabe a5d9 633e 3b89 2f3e 27d2 073c
00000200: b0e9 6e3e cb45 663e 2eff c5bd bcae cfbd
00000210: d449 8dbd 20a2 d6be 699e 05be f03c b53e
00000220: 9b76 063c 84d8 71be 5186 bebd 26bd 1c3e
00000230: 4480 b43e 82c5 813d 3a53 86be 9e33 b6bd
00000240: fba4 32bd 9ecb e63d 1518 97be bab3 0abe
00000250: 6c7a 843d aee3 30bc 0401 c9bd 2509 a5bb
00000260: 0679 51bd 2476 5b3d f5a8 183e db1b 873e
00000270: f1bb 4abe 66f1 28be b943 053e ea1d 0e3e
00000280: 2715 2bbe 322f 443e 25ab 58be 2cba 8ebe
00000290: ece6 05be 743c 5abe 1e92 ac3d d37e 6e3e
000002a0: f104 503e f355 303e 1bf5 543d 41e6 bb3d
000002b0: 524d 66be 00d5 9bbd 2146 ecbd bec9 4b3c
000002c0: 7f59 323e 6599 ae3e c76b 77be 050b 12bd
000002d0: e7cf a5be 88f7 333e 7ec1 9f3d 1397 043d
000002e0: bf5b 3a3d 8896 153e c7ff 76bd c2ec 52be
000002f0: 46be 6fbe 0f8e 973d 6d09 923e 0bf9 f5bd
00000300: 1335 9a3e 53d2 8b3e 14f2 17be 2f48 a8be
00000310: 9bad 13be 14ce eb3c 6bf9 953e 5d06 80be
00000320: 814d 01be 7ff6 473e bb2a 85bb 3429 fabd
00000330: e9fa d8bd 5576 183d 4bcb 0abe 0c13 6e3d
00000340: 4fce c9be f76b 05be 918d bdbd 83fc 6cbd
00000350: d0d4 1e3e d39d 103e 2426 88be b087 0dbe
00000360: fab8 2dbb 815f 4a3e 96f2 0b3e 5d01 bf3b
00000370: 991f 8a3d 6626 1a3c 947d 613c 4ab4 983e
00000380: 1420 053d 3e22 a23e f0af cbbe d323 9ebd
00000390: 7148 4dbe 1355 d6bd b775 38be 5bab babe
000003a0: 9f6f 36be 66bb c23e ca5a 7b3b d874 dbbd
000003b0: 3cb3 1c3d 70eb b8bd 99e8 073d a06b 2d3e
000003c0: c782 163d e332 b23e 5659 81be 4d6e 20be
000003d0: 31ab 42be b971 b13d a916 eb3d 2ef6 ccbe
000003e0: 61f0 d9bd ac97 1f3e 30b7 523d 3553 643d
000003f0: 2400 58be 634f 1a3e 4a8a d43d d7e2 9a3e

hidden_rnn.bias_ih_l0 f4 [64]
0.16318248 0.18777339 0.10704572 -0.10890811 0.17938751 0.12363489 0.23004782 0.1276878
-0.047216184 0.1368338 0.31482977 -0.1451902 0.022240795 -0.12035516 -0.073741674 -0.15772319
0.2949285 -0.0143182855 -0.049977038 0.20144808 -0.17847906 0.15316737 0.2445981 0.14893869
0.37809286 0.30910793 0.3103759 0.10144445 0.11771425 0.13513222 0.39594728 -0.10760581
-0.20238604 -0.13665897 -0.22200924 -0.09681773 0.1831254 0.22173016 0.15277177 0.11392923
0.2365462 -0.03864005 -0.27649423 -0.22208652 0.046207037 0.2424432 -0.026048714 0.1948622
0.3385815 -0.16944419 0.34912324 0.09911594 0.13769014 -0.10641795 0.17407192 0.12885135
-0.11147625 0.091238365 -0.07876169 0.14322996 -0.046129223 -0.02484951 0.38371208 0.23726165
00000000: 4f19 273e ab47 403e c93a db3d 370b dfbd
00000010: 5cb1 373e 4a34 fd3d a891 6b3e 97c0 023e
00000020: c265 41bd 291e 0c3e 5e31 a13e bdac 14be
00000030: 5432 b63c c47c f6bd e005 97bd 3082 21be
00000040: de00 973e 3e97 6abc b9b4 4cbd 6848 4e3e
00000050: 37c3 36be e8d7 1c3e ed77 7a3e 6283 183e
00000060: 6395 c13e 6543 9e3e 97e9 9e3e 1cc2 cf3d
00000070: 2b14 f13d 1a60 0a3e 9ab9 ca3e 6f60 dcbd
00000080: 493e 4fbe 54f0 0bbe 6456 63be 6048 c6bd
00000090: 3a85 3b3e 3b0d 633e 3470 1c3e ba53 e93d
000000a0: 2b39 723e 0745 1ebd a790 8dbe a66a 63be
000000b0: 9743 3d3d 0843 783e 1d64 d5bc f589 473e
000000c0: 8e5a ad3e c782 2dbe 48c0 b23e 4cfd ca3d
000000d0: a5fe 0c3e a7f1 d9bd e93f 323e 9cf1 033e
000000e0: a94d e4bd 2edb ba3d cf4d a1bd e0aa 123e
000000f0: fff1 3cbd 3391 cbbc e975 c43e b8f4 723e

hidden_rnn.bias_hh_l0 f4 [64]
-0.11324456 0.12169163 -0.116334885 0.14931451 -0.10836631 0.15440002 0.12297085 0.25260654
0.15043926 -0.19029677 0.050074354 0.21188302 0.15981998 0.28345415 -0.10021745 0.13374124
0.3118305 -0.059158213 0.14385478 0.0747936 0.117304504 0.14537829 0.25792083 0.01774795
0.23048894 -0.12725447 0.18720154 0.075013794 0.4099114 0.26792035 0.11951341 0.010925997
-0.08314149 -0.1877585 0.0029531587 -0.08866786 0.2003626 0.20207281 -0.17869851 0.07498153
0.21543746 0.13449322 -0.05730282 -0.06516558 0.19234519 0.0781742 0.17482814 -0.103493445
0.3329837 0.13599414 0.14908417 0.077619046 0.08483729 -0.08897065 -0.11537429 0.31380874
0.034956522 0.09587469 0.09464285 0.06342799 0.27646774 -0.07694825 -0.04584518 -0.029678456
00000000: c4ec e7bd 7639 f93d fc40 eebd e7e5 183e
00000010: 28ef ddbd 0a1b 1e3e 24d8 fb3d a555 813e
00000020: c00c 1a3e 28dd 42be c41a 4d3d ddf7 583e
00000030: d9a7 233e e720 913e ce3e cdbd 77f3 083e
00000040: 3fa8 9f3e e24f 72bd ab4e 133e 632d 993d
00000050: 583d f03d 0cde 143e 330e 843e 2664 913c
00000060: 4b05 6c3e ff4e 02be c3b1 3f3e d5a0 993d
00000070: e8df d13e db2c 893e 72c3 f43d f402 333c
00000080: 1646 aabd c443 40be c889 413b 7f97 b5bd
00000090: da2b 4d3e 2dec 4e3e befc 36be eb8f 993d
000000a0: a39b 5c3e 97b8 093e 5db6 6abd 8875 85bd
000000b0: 23f6 443e cc19 a03d 2606 333e 5ff4 d3bd
000000c0: d77c aa3e 0c42 0b3e 85a9 183e bcf6 9e3d
000000d0: 2cbf ad3d 3f36 b6bd 5b49 ecbd 8aab a03e
000000e0: 922e 0f3d f359 c43d 1cd4 c13d 89e6 813d
000000f0: 2e8d 8d3e 0b97 9dbd 28c8 3bbd 3c20 f3bc

exp_avg f4 [16, 7]
0.0021170452 0.00093071075 0.003440172 -0.001542125 -4.500449e-05 0.00029690916 -0.0021538015 0.0004874902
0.0003967325 -0.0009836555 -0.0033857538 0.0037640228 -0.001217111 0.00010556701 0.004282703 0.004528304
0.004448653 -0.003819058 0.000904275 0.0009157327 -0.00025774084 -0.0036223305 -0.0040746806 0.0010358172
-0.005876486 -0.0024325368 -0.0033599194 -0.003117144 -0.004064526 -0.0001576187 0.00301927 0.0035358171
-9.669108e-05 0.00023071133 0.0011162753 0.0022933995 0.0019834565 -0.0022023807 -0.0024000164 0.0019149027
-0.00012997592 0.0005444828 0.00086111313 -0.00010063768 0.0020440726 0.0073949886 0.0021923378 0.001096143
-0.00062096317 -0.008481196 -0.014812989 0.0010531669 0.008802029 0.00018133296 0.00094615895 -0.0054383967
0.000117649164 -0.00030192404 0.0023549625 -0.00016206398 -0.001999479 -0.00038856288 -0.0006749757 -0.0012773505
0.0014802299 -0.00080006185 0.0036059672 -0.0007182892 0.0023825483 0.0030179194 5.2878306e-05 0.00023309168
0.00086474384 -0.0067853164 0.0003840217 -0.0029210916 -0.00049660745 -0.0043282057 -0.006652949 -0.00050789595
0.011769961 -0.00062878727 0.008080799 0.0015290359 -0.003972114 -0.009126229 0.0018451867 0.010946282
0.002047726 0.0050637033 0.00090691244 -0.0010147267 0.0041100807 -0.0004182321 0.0009119591 -0.0016402717
-0.00020582303 0.0028319005 0.00041538352 0.0008571214 0.00010553295 -0.0023262813 -0.00027282358 -0.0025107772
-0.0020844305 -0.0008328974 0.0032950547 0.0005217619 -0.008446995 -0.0033662163 -0.0015364706 0.0012106256
00000000: 20be 0a3b f1fa 733a 8274 613b 2121 caba
00000010: 34c3 3cb8 79aa 9b39 cb26 0dbb d495 ff39
00000020: 8900 d039 00ee 80ba 86e3 5dbb d3ad 763b
00000030: 7887 9fba db63 dd38 eb55 8c3b 2b62 943b
00000040: 02c6 913b 2949 7abb de0c 6d3a c80d 703a
00000050: 6421 87b9 9f64 6dbb e684 85bb 42c4 873a
00000060: 8a8f c0bb 326b 1fbb 1832 5cbb 0049 4cbb
00000070: b72f 85bb 7346 25b9 f2de 453b 2bb9 673b
00000080: a1c6 cab8 1aeb 7139 fc4f 923a dc4c 163b
00000090: e1fc 013b d155 10bb 9849 1dbb 79fd fa3a
000000a0: 254a 08b9 9fbb 0e3a 53bc 613a 710d d3b8
000000b0: d9f5 053b a951 f23b 53ad 0f3b 75ac 8f3a
000000c0: 22c8 22ba b7f4 0abc 2eb2 72bc 6b0a 8a3a
000000d0: 6336 103c 3224 3e39 a707 783a 9434 b2bb
000000e0: 6aba f638 8f4b 9eb9 b755 1a3b b8ef 29b9
000000f0: b109 03bb 07b8 cbb9 daf0 30ba c56c a7ba
00000100: 4604 c23a 3ebb 51ba 1752 6c3b 924b 3cba
00000110: 8724 1c3b 49c8 453b a6c9 5d38 126a 7439
00000120: faaf 623a 5c57 debb 8556 c939 c96f 3fbb
00000130: c32e 02ba 9fd3 8dbb fb00 dabb 5224 05ba
00000140: cbd6 403c 33d5 24ba 5465 043c ee69 c83a
00000150: 8228 82bb 2e86 15bc 31da f13a 0958 333c
00000160: 2433 063b 6ced a53b ddbd 6d3a 9400 85ba
00000170: dbad 863b 2a46 dbb9 8a10 6f3a 63fe d6ba
00000180: 33d2 57b9 6897 393b d5c7 d939 72b0 603a
00000190: 9251 dd38 8674 18bb c309 8fb9 da8b 24bb
000001a0: f19a 08bb cc56 5aba d8f1 573b d9c6 083a
000001b0: 4465 0abc bd9b 5cbb 6663 c9ba dbad 9e3a

exp_avg_sq f4 [16, 7]
0.00014246229 0.00021226764 0.00016865108 0.00022638698 0.00017253472 0.0002098623 6.7829256e-05 0.00037271166
0.00027530966 0.0003751185 0.00026547123 0.000333681 0.0003855294 0.00028195672 0.00027934115 0.0003722903
0.0003854627 0.00037749347 0.0002928475 0.00027073055 0.00013179124 0.00030977066 0.0004223772 0.00036082466
0.00027844848 0.00031059564 0.00043602864 9.992123e-05 0.00040925603 0.00025914863 0.00039772998 0.00042767636
0.00036831686 0.00028810202 0.00034072498 0.0001981115 0.00013602628 0.00025660914 0.00018284662 0.00016360193
0.000119608085 0.00012933792 0.00021413919 0.00023485847 0.00019046928 0.0003099683 0.00022786958 0.00029179224
6.375369e-05 0.002594063 0.0032669394 0.0029811638 0.0020708602 0.002709791 0.0017675471 0.001644884
4.0441555e-05 6.5757486e-05 5.2411204e-05 0.00010750486 5.6700974e-05 9.428955e-05 1.6953965e-05 0.00038914147
0.00046190177 0.00041205436 0.00039535723 0.0003799856 0.0003951185 0.00017129707 0.00014672751 0.00023295265
0.00022557096 0.00014543498 0.00015628879 0.00022924056 3.7064146e-05 0.0010093448 0.0013733091 0.0012438494
0.0010338301 0.0010717148 0.0012752232 0.0008087438 0.0018119054 0.002120575 0.0018868918 0.0016316042
0.001969972 0.0016954399 0.0014431728 0.0006927804 0.0005921864 0.00070491905 0.000480993 0.00063803705
0.00048142724 0.0003276004 8.869185e-05 8.6604465e-05 0.00010608891 0.00012869676 9.393365e-05 8.68651e-05
5.4962322e-05 0.0014397225 0.0013418787 0.0013053617 0.0011072254 0.0014427232 0.0012265162 0.0008564441
00000000: ee61 1539 2994 5e39 eed7 3039 4b62 6d39
00000010: 70ea 3439 7b0e 5c39 8e3f 8e38 8368 c339
00000020: 7057 9039 8eab c439 f22e 8b39 e8f1 ae39
00000030: e120 ca39 97d3 9339 8974 9239 f52f c339
00000040: ee17 ca39 51ea c539 5389 9939 d7f0 8d39
00000050: 7131 0a39 b768 a239 8272 dd39 112d bd39
00000060: b9fc 9139 71d7 a239 c69a e439 cd8c d138
00000070: 6a91 d639 57de 8739 6a86 d039 c039 e039
00000080: a71a c139 660c 9739 55a3 b239 27bc 4f39
00000090: 47a2 0e39 7f89 8639 84ba 3f39 8f8c 2b39
000000a0: 1ad6 fa38 e29e 0739 8d8a 6039 5744 7639
000000b0: b5b8 4739 3e83 a239 46f0 6e39 b1fb 9839
000000c0: 80b3 8538 2801 2a3b 261a 563b a15f 433b
000000d0: 45b7 073b c096 313b 0aad e73a 2699 d73a
000000e0: ca9f 2938 48e7 8938 1ad4 5b38 3b74 e138
000000f0: 35d2 6d38 51bd c538 5d38 8e37 af05 cc39
00000100: 682b f239 0009 d839 f347 cf39 ce38 c739
00000110: e827 cf39 359e 3339 deda 1939 c044 7439
00000120: 3e87 6c39 e87f 1839 74e1 2339 4b60 7039
00000130: 5375 1b38 fe4b 843a 9b00 b43a a908 a33a
00000140: 9581 873a c878 8c3a 6425 a73a e101 543a
00000150: 757d ed3a 58f9 0a3b 9551 f73a 8ddb d53a
00000160: a51a 013b 8639 de3a d828 bd3a b59b 353a
00000170: f53c 1b3a 51ca 383a ca2d fc39 f141 273a
00000180: 1268 fc39 c8c1 ab39 1300 ba38 6b9f b538
00000190: 0d7c de38 c6f2 0639 3ffe c438 582b b638
000001a0: 5887 6638 12b5 bc3a fae1 af3a ac18 ab3a
000001b0: 5220 913a c219 bd3a 0ec3 a03a fe82 603a

exp_avg f4 [16, 16]
-0.0005781173 -0.00072924467 -0.0028589566 0.0009822247 -0.0010339575 -0.00070108275 -0.0015195791 0.002034666
-0.001301228 0.0015949187 0.0018155862 -0.00070133735 0.0005007827 0.0012309606 0.0004026017 -0.00024474904
-5.695487e-05 -0.00092929596 -0.0010919299 0.0008749468 -0.0007059456 -0.0009209708 -0.0011235244 0.0011862118
-0.0004898266 0.00054674986 0.0017292068 -7.942813e-05 0.00020375873 0.000614424 0.00036885968 -0.00025532022
5.76007e-05 -0.0019267561 -0.0030964694 0.0010338712 -0.001591448 -0.0026680348 -0.00095477136 0.0022594235
-0.000563234 0.000878214 0.00067775877 -0.0005712003 2.9263676e-05 0.0030550074 -0.000103751314 0.0006008746
-0.001566445 0.00059621007 -0.0020750717 0.0012769959 0.0013233115 0.0005645858 -0.003096683 -0.00067588687
-0.0031838291 0.0015578077 0.001578166 -0.0010974306 0.00075977517 0.00041761817 -0.00051238044 -0.0009547489
9.957377e-05 0.0014271885 -0.00015388758 -0.0016415577 -0.0020583172 0.0020069736 0.00013576334 0.0023361454
-7.01218e-05 0.0013347827 0.0009597376 -0.00063705107 0.00021964227 -0.0022558616 0.0009381318 -0.0019390421
0.0003303198 -0.00083945104 9.034974e-05 0.0005686849 -0.00033926047 -0.0011571682 0.0001634256 -0.0003127254
0.00042411612 -0.0007103198 -0.00021515209 0.00018637619 -0.0003807336 0.0011370773 -2.4673835e-05 0.000689975
-0.0004770765 4.1911928e-05 -0.001208203 -0.00032681672 -0.0017650743 0.0008634287 -0.00016840229 0.0026809252
0.00025174633 0.0014500922 0.0017685713 0.00025730205 0.00054564263 -0.0013332304 0.0010683822 -0.00064683496
-0.0043573948 0.00468202 -0.0023919092 -0.00075524085 0.00025396157 0.0059276833 -0.0036190902 0.0031409364
-0.0033660491 0.004454308 0.003701282 -0.0008385954 0.0040930216 -0.005383084 0.000683806 -0.004868319
-0.00030041698 -0.00036699596 -0.0014116628 0.0003613639 0.00040168985 -0.00053227897 -0.0007013654 0.00022122983
-0.00083690113 0.00063158054 0.00023336684 -7.8001154e-05 0.00026521512 0.0006038887 -0.00057439494 -7.818626e-05
0.0013482304 -0.00020979103 0.0033972957 -0.0011717388 -8.655671e-05 0.0004074477 0.002770345 -0.0015412729
0.0028720351 -0.002370024 -0.0026590736 0.00084270764 -0.0005753572 -0.0010493691 0.0003674296 0.0005885301
-0.0004472248 -0.00052852597 -0.0014759725 0.00026406345 0.00011718623 -0.00064568553 -0.0014839661 -4.865371e-05
-0.0016058834 0.00057955884 0.00077371334 -0.00083744933 -0.0003154146 0.0014632238 -0.00058038696 -0.00034799956
-0.0013630866 0.0060337777 0.003294282 -0.004222887 -0.0021834862 0.007392607 0.0025249205 0.0038770114
0.0023100227 -0.00039828126 -0.0019644548 -0.00047277068 0.0024851798 -0.006325504 0.001216728 -0.0048159054
-0.0023816242 0.0041572754 0.0004282236 -0.0032438382 -0.0030924783 0.007341943 0.0008592074 0.0058026067
0.0010782876 0.0012989542 0.00055905234 -0.0003211607 0.0035860771 -0.0065534348 0.0016158815 -0.0047579124
0.001676557 -0.00052673375 0.0022773945 -0.00039845018 -8.3024344e-05 -0.0005678845 0.0018346622 -0.0015021323
0.0015315248 -0.0014280607 -0.001759592 0.000562812 -0.0011744252 -7.8128585e-05 0.00021541017 0.0012522534
-0.00075488706 -0.00042106592 -0.0011422464 0.0008169632 -0.000341745 -0.00018273944 -0.0015016225 -0.00017535953
-0.0013878547 0.0009311921 0.0013082135 -0.0007448007 -0.00067689957 0.00084064517 6.674504e-05 -0.00043439647
0.0014573296 -0.00044119355 0.0017298321 0.000474164 0.003378563 -0.0034084304 0.0011345033 -0.0053167585
0.0008247619 -0.002172895 -0.0036647324 0.00033703263 -0.0018591629 0.0035993247 -0.0014981177 0.0027260073
00000000: cc8c 17ba c82a 3fba 555d 3bbb febd 803a
00000010: db85 87ba dec8 37ba 9d2c c7ba 0858 053b
00000020: f78d aaba 970c d13a f7f8 ed3a f4d9 37ba
00000030: f546 033a 2f58 a13a 4914 d339 a951 80b9
00000040: d3e2 6eb8 ff9b 73ba 161f 8fba b05c 653a
00000050: 350f 39ba 4e6d 71ba 3943 93ba aa7a 9b3a
00000060: b567 00ba c353 0f3a 8da6 e23a a792 a6b8
00000070: 11a8 5539 4c11 213a 8263 c139 80dc 85b9
00000080: 4898 7138 358b fcba 23ee 4abb f682 873a
00000090: 2298 d0ba 32da 2ebb 9f49 7aba d612 143b
000000a0: fea5 13ba f237 663a 9fab 313a 9abc 15ba
000000b0: 447b f537 8536 483b 1095 d9b8 0384 1d3a
000000c0: 2c51 cdba fb4a 1c3a edfd 07bb df60 a73a
000000d0: f772 ad3a b600 143a b8f1 4abb 002e 31ba
000000e0: caa7 50bb 5a2f cc3a 77da ce3a a9d7 8fba
000000f0: a62b 473a c3f3 da39 4551 06ba 1d48 7aba
00000100: 43d2 d038 8010 bb3a e25c 21b9 8929 d7ba
00000110: d5e4 06bb 6e87 033b b25b 0e39 041a 193b
00000120: 5b0e 93b8 e0f3 ae3a e696 7b3a c6ff 26ba
00000130: c64f 6639 14d7 13bb f6ec 753a 7527 feba
00000140: c62e ad39 9b0e 5cba 267a bd38 cc13 153a
00000150: c5de b1b9 1fac 97ba 3a5d 2b39 4bf5 a3b9
00000160: e75b de39 c134 3aba 739a 61b9 fa6d 4339
00000170: 339d c7b9 fc09 953a a8fa ceb7 70df 343a
00000180: 2020 fab9 97ca 2f38 915c 9eba 9958 abb9
00000190: 115a e7ba b857 623a 2595 30b9 76b2 2f3b
000001a0: d2fc 8339 0511 be3a 68cf e73a 7fe6 8639
000001b0: 7509 0f3a cabf aeba f508 8c3a 5c90 29ba
000001c0: 7ac8 8ebb a16b 993b 94c1 1cbb 5bfb 45ba
000001d0: 2526 8539 033d c23b 422e 6dbb 2bd8 4d3b
000001e0: ef98 5cbb 72f5 913b 3591 723b 2fd5 5bba
000001f0: c11e 863b 9564 b0bb 7241 333a 6b86 9fbb
00000200: 4981 9db9 5d69 c0b9 8b07 b9ba 7175 bd39
00000210: e699 d239 a388 0bba d6db 37ba eef9 6739
00000220: 7c63 5bba a790 253a efb3 7439 8d94 a3b8
00000230: 920c 8b39 494e 1e3a fe92 16ba eef7 a3b8
00000240: 1bb7 b03a 5afb 5bb9 2aa5 5e3b 0895 99ba
00000250: c885 b5b8 b49e d539 ad8e 353b 8904 caba
00000260: c138 3c3b 6852 1bbb da43 2ebb 27e9 5c3a
00000270: 91d3 16ba fc8a 89ba 91a3 c039 9647 1a3a
00000280: 7f79 eab9 c78c 0aba 6b75 c1ba ff71 8a39
00000290: e1c1 f538 3943 29ba a481 c2ba 8611 4cb8
000002a0: 817c d2ba 89ed 173a 06d3 4a3a 4688 5bba
000002b0: 3b5e a5b9 a5c9 bf3a 1c25 18ba b673 b6b9
000002c0: 99a9 b2ba ffb6 c53b e1e4 573b 2560 8abb
000002d0: d218 0fbb af3d f23b 2379 253b 7515 7e3b
000002e0: c063 173b 68d0 d0b9 15be 00bb 35de f7b9
000002f0: 66de 223b 2c46 cfbb 9e7a 9f3a bece 9dbb
00000300: 0615 1cbb c139 883b 3383 e039 9396 54bb
00000310: 2dab 4abb af94 f03b 6f3c 613a cb23 be3b
00000320: 5455 8d3a ac41 aa3a 5e8d 123a 7661 a8b9
00000330: 6404 6b3b 32be d6bb fccb d33a 43e8 9bbb
00000340: ebbf db3a 8114 0aba 5740 153b 14e7 d0b9
00000350: 5b1d aeb8 15de 14ba 0c79 f03a 32e3 c4ba
00000360: 72bd c83a c42d bbba 1ca2 e6ba ad89 133a
00000370: 2cef 99ba f7d8 a3b8 badf 6139 a722 a43a
00000380: 9de3 45ba 83c2 dcb9 6eb7 95ba 7929 563a
00000390: 3d2c b3b9 bf9d 3fb9 17d2 c4ba b7e0 37b9
000003a0: ade8 b5ba 3e1b 743a 5c78 ab3a bb3e 43ba
000003b0: f671 31ba be5e 5c3a 78f9 8b38 b5bf e3b9
000003c0: de03 bf3a ff4f e7b9 89bb e23a 3799 f839
000003d0: e26a 5d3b f95f 5fbb 9db3 943a 3438 aebb
000003e0: d634 583a 2167 0ebb 022c 70bb c1b3 b039
000003f0: 28af f3ba a6e2 6b3b 7d5c c4ba d0a6 323b
