ckpt/lstm_diff_h16/best.pth (torch_old, 30937 bytes, 30 tensors)

rnn.weight_ih_l0 f4 [16, 7]
000000 75 f7 0c be d4 a1 23 bd 58 00 66 3e e4 e4 e6 bd
       -0.13766272 -0.039949253 0.22461069 -0.11274126
000010 f0 7f 05 be 68 b8 93 3e 63 76 86 bd b6 e0 48 bd
       -0.13037086 0.28851628 -0.06565549 -0.049042426
000020 4b d8 3b 3d a7 2c 84 be d0 4e ab 3d 0c 73 03 bd
       0.04586057 -0.25815317 0.08364642 -0.03209214
000030 07 6c 0c 3e 41 53 9b bc 52 04 11 be 69 e5 34 3e
       0.13713084 -0.018960597 -0.14161804 0.17665638
000040 a4 67 e4 bd b3 2c 1b 3e 6f 51 22 3d 86 34 a6 3e
       -0.111525804 0.1515377 0.039628442 0.32461947
000050 70 3d f7 bd df 67 34 3e 7b 9e 09 be 31 54 19 bd
       -0.12072265 0.17617749 -0.13439362 -0.037433807
000060 cb f9 00 3e c0 2e 5b bd 9c 94 75 3e fe 49 8b be
       0.12595288 -0.05351138 0.23982471 -0.2720489
000070 67 13 bd bd 68 a6 f3 bd 70 0e 4e be 5a 04 f9 3d
       -0.09232216 -0.11896974 -0.20122695 0.12159033
000080 61 35 6b bd b8 cc 18 be 40 4c 8d bd 5c e8 a2 3d
       -0.057423953 -0.14921844 -0.06899309 0.07954475
000090 c4 12 34 be 05 7f 82 bd cd 8b 50 3e 2e 78 70 bd
       -0.17585284 -0.06371883 0.2036583 -0.058708362
0000a0 c7 c5 5f 3e a4 55 a1 bd fc 36 50 3e cf ce ec 3d
       0.2185279 -0.07877663 0.20333475 0.11562883
0000b0 16 88 08 3e 29 98 50 3e 59 6e 40 bd 7f d7 2f bd
       0.13333163 0.20370544 -0.046980236 -0.042930122
0000c0 ca 93 86 3e 10 e6 44 3e 5a e9 f8 3d 2d d2 d6 3d
       0.2628463 0.19228387 0.12153883 0.104893066
0000d0 12 35 57 bd 11 49 9e 3d 57 02 24 3e df 6e 9b 3e
       -0.052540846 0.0772878 0.16016518 0.30358025
0000e0 f8 e4 91 3d 1a c2 c5 bc 50 90 11 3e a0 6f d4 bc
       0.071237504 -0.024140406 0.14215207 -0.025932133
0000f0 9d 09 bf 3d 73 95 31 bd f2 df e4 bd 07 13 01 3d
       0.093280055 -0.043355417 -0.11175527 0.031512287
000100 dc 41 32 3e 30 2c 1f bd 9b a4 78 3e 37 26 33 3e
       0.17407936 -0.0388605 0.24281542 0.17495047
000110 f9 3c 4a 3c 86 2d 9a 3d 5f 18 0f 3e c5 64 60 be
       0.012343639 0.07528214 0.1397414 -0.2191344
000120 6f 42 38 be ff b5 82 3e 33 6f 3e 3e b5 9b 53 3e
       -0.17994092 0.25529477 0.18597107 0.20664866
000130 46 ca 08 3e 79 4c 57 3c cc 10 c5 bd a3 e0 07 be
       0.13358411 0.013140791 -0.096223444 -0.13269286
000140 aa 0f 0a 3e ce e1 ba bd 87 a5 64 be 71 d7 87 3e
       0.13482538 -0.091251 -0.22328769 0.26531556
000150 c8 0f 40 be 7d b3 78 be 7b 40 3d bd 35 5b d8 bd
       -0.1875602 -0.2428722 -0.04620407 -0.10564271
000160 bf ce 24 be 3e 98 97 bd 17 d9 96 3e 7d c9 d1 ba
       -0.16094492 -0.07402085 0.294625 -0.0016005483
000170 de 2c 22 3e b2 04 d0 bd 4a cd 05 be 62 d4 99 3d
       0.15837428 -0.101571456 -0.13066593 0.07511212
000180 6c a2 e6 bd 7a 90 9a be dd de d9 bd 61 d9 c6 bd
       -0.11261448 -0.30188352 -0.10638211 -0.097094305
000190 90 2c 32 3c a8 0e dd 3d e5 21 04 3e 43 e5 87 bd
       0.010874882 0.10793811 0.12903555 -0.06635525
0001a0 4f 5f 7c 3d 81 68 f0 3d 60 40 0d be 27 7f e7 3d
       0.06161433 0.117386825 -0.13794088 0.11303549
0001b0 46 eb 2c 3e d1 f3 d5 bd 8a f3 9d bd ae 32 23 be
       0.16886625 -0.10446895 -0.07712467 -0.15937302

rnn.weight_hh_l0 f4 [16, 16]
000000 6d 60 09 3e ce f9 8a be 8e c2 2e 3e 97 d4 45 3d
       0.1341569 -0.2714371 0.17066404 0.048298445
000010 d9 d8 39 3e e8 e7 14 be be 3e 22 3e eb 39 8f 3e
       0.18149127 -0.1454159 0.15844247 0.27973875
000020 44 1b 1e 3e 16 e2 19 3c 43 d2 d8 3d 5e 9e 5b 3e
       0.15440089 0.009392282 0.10586979 0.21447131
000030 18 ff 26 be 47 18 4d 3d 99 29 f9 3d 97 01 36 be
       -0.16308248 0.05007198 0.12166137 -0.17774044
000040 4a 92 94 be 53 8d 8b 3e dc 1e 95 3e b4 cf 81 3d
       -0.2901786 0.2725626 0.29125106 0.06338444
000050 33 8a 5b be d8 1f 8b 3e 03 9b 24 be 29 8b 41 3e
       -0.21439438 0.27172732 -0.16074757 0.18900742
000060 30 b5 2b be 1f ba 58 be de fe 09 3e 9c 13 48 be
       -0.16768336 -0.2116475 0.1347613 -0.1953873
000070 05 a8 ec bc 2f 1c 30 3e 1c 7a 5f bd d4 66 5f 3e
       -0.028888712 0.17198251 -0.054559812 0.2181657
000080 45 af 9a 3e 8f f7 06 be 89 6b 71 3e 7e 20 22 be
       0.30211845 -0.13180374 0.23576178 -0.15832707
000090 49 ce 78 3e 76 3b 38 3e d4 0a 8e 3d c6 4a a9 bd
       0.24297442 0.17991433 0.06935659 -0.08266215
0000a0 61 5f 0d 3e 84 5a 03 3d 40 be 89 bc fd 20 37 3c
       0.13805915 0.032068744 -0.016814351 0.011177299
0000b0 06 1d 03 3e b9 71 14 3e 23 8a a9 bc be 0b ee bd
       0.1280404 0.14496507 -0.020695752 -0.116233334
0000c0 2a 68 51 3d 05 69 4a be ac 77 57 bd 1d e5 9e 3e
       0.05112473 -0.19766624 -0.052604362 0.31034175
0000d0 52 09 60 3e 53 89 57 bb f2 e8 07 bd 70 4d 10 3e
       0.21878555 -0.0032888248 -0.03318114 0.1409204
0000e0 f8 ed 53 3e 9a b9 36 3c e9 6f 37 bd 24 31 f9 bc
       0.20696247 0.011152649 -0.04478446 -0.03041894
0000f0 7c bb 22 3e c8 81 6c bd f3 8f bc 3d 2a 07 37 bc
       0.15891832 -0.057740957 0.09207144 -0.011171142
000100 23 3b e4 3d fa d9 9c bd bb 66 e6 3d a5 68 9c 3d
       0.11144092 -0.07658763 0.11250063 0.07637147
000110 58 5a 7a 3e 40 a8 98 3c bb 1e 0a 3e a7 a3 c1 bd
       0.24448526 0.018634915 0.13488285 -0.09455042
000120 a7 bc 4a 3e b3 1f 90 3d a9 38 b8 3d 50 f9 3f 3e
       0.19798528 0.07037296 0.08995182 0.18747449
000130 c8 7c 19 3e e7 90 a0 3e 40 83 24 be 8e 7e 10 3e
       0.14989007 0.31360552 -0.16065693 0.14110777
000140 55 76 40 be 67 80 91 3e d7 8a 47 3c 85 63 83 be
       -0.1879514 0.28418276 0.012179098 -0.25661865
000150 dc 16 a2 be 25 02 1b 3d 02 1e c0 3d 99 be d8 bd
       -0.31658065 0.037843842 0.093807235 -0.105832286
000160 6d 7e 75 ba cc a3 ab bd e8 96 58 bd 12 7f c0 3d
       -0.0009364847 -0.08380851 -0.05287829 0.09399237
000170 51 19 65 3e 3c 66 2c 3e 15 e8 26 3e 76 8b 81 be
       0.22372939 0.16835874 0.1629947 -0.25301713
000180 e5 7e a4 3e fd d3 bc 3d aa 69 3b 3e 62 36 ef bd
       0.32128063 0.09220121 0.18302026 -0.116802946
000190 56 d2 42 3e 26 bf 47 be 61 17 6d 3b 03 11 4a 3e
       0.1902555 -0.19506511 0.0036177265 0.19733052
0001a0 9f 50 3b be 08 cd cf bd 4b 48 9f bc 25 1e f1 3d
       -0.18292473 -0.101465285 -0.019443652 0.11773328
0001b0 1f 7e c3 3d b1 67 0d bd 11 f2 90 bd 96 c4 6a be
       0.0954554 -0.034522716 -0.070774205 -0.22926554
0001c0 99 8c 22 be 5d 93 3c 3e 82 3d 81 be ae 2d 05 3d
       -0.15873946 0.1841559 -0.2524224 0.032514267
0001d0 08 d2 91 bd ac 23 b2 3d 08 54 2e bd e6 9f 6e 3e
       -0.071201384 0.0869821 -0.042560607 0.23303184
0001e0 36 cf 7f bd ec cc 01 3e a8 d4 f9 3d a8 6b 9d 3d
       -0.06245347 0.12675828 0.12198764 0.076865494
0001f0 8c 02 40 3e 5e 05 04 be ba c7 8a bd 24 31 0d be
       0.18750972 -0.12892672 -0.06776376 -0.13788277
000200 20 e2 10 bd 4f 00 6a bd 50 f5 fd 3d 63 05 ac bd
       -0.0353719 -0.0571292 0.12400305 -0.08399465
000210 d2 db f1 bc 4b ce 1d be a0 57 36 3e aa 98 d7 3d
       -0.029523764 -0.15410726 0.17806864 0.10527165
000220 3f a6 86 be 30 3d 98 3d a7 95 f1 3c ef 5a 3f 3d
       -0.2629871 0.074335456 0.029490305 0.04671758
000230 5f f3 84 3e f2 86 47 3e 5c 7c dd bb 5c 70 ad be
       0.25966927 0.19485071 -0.0067592096 -0.33874786
000240 f8 67 5c bd 40 f0 2f be ef 32 07 be a8 36 43 be
       -0.05381009 -0.17181492 -0.13203023 -0.19063818
000250 a8 21 e1 bb 8c 61 64 3d 32 6a d5 3a d0 aa 23 be
       -0.006870467 0.05575709 0.0016282259 -0.15983129
000260 10 5b 66 be eb 58 9a 3e c0 24 93 3c 42 eb 17 3e
       -0.22495675 0.30145964 0.01796186 0.14835837
000270 05 8b 80 3e c8 63 2c 3e 8a d2 40 3c b8 0b 25 3e
       0.25106063 0.16834939 0.011768946 0.16117752
000280 61 3e 38 3e c4 da ea 37 3f f9 55 3d 41 60 62 3e
       0.17992546 2.7996844e-05 0.052239653 0.2210703
000290 62 41 5c 3e 27 be 0d be eb 34 4a bd 21 59 30 be
       0.21509317 -0.13842069 -0.049366873 -0.172215
0002a0 18 c9 8b be 49 09 59 3e e4 48 09 be 3a 0c f6 3d
       -0.2730186 0.21194948 -0.13406712 0.12014051
0002b0 ca 0d 0c bc 4d ec e8 bd 5d e1 67 3e 49 1f 63 3e
       -0.008548209 -0.11373196 0.22644563 0.22179903
0002c0 d6 d5 d1 bd 70 e9 48 3c 40 a1 b8 3c 75 90 5a 3e
       -0.10245864 0.012262687 0.022537827 0.21344168
0002d0 03 9b 49 3e fe 7c 67 be bd 2c 64 3e 43 7a 06 bd
       0.19688039 -0.22606274 0.22282691 -0.03283144
0002e0 e4 2a 04 be a5 73 1d 3e 96 c3 eb bc 5d cb 30 be
       -0.12906986 0.15376146 -0.028779786 -0.17265077
0002f0 8d 9c 0b 3e 0d d7 a4 3d 73 bc 23 3e 6a 50 0e be
       0.13633938 0.0804883 0.15989856 -0.13897863
000300 d3 ba 4e be 45 04 6f 3d 76 09 81 be bd 6f 8f be
       -0.20188455 0.05835368 -0.2520253 -0.28014937
000310 80 27 b7 bd 5f ab 96 3c 70 01 12 be 66 6f 89 3e
       -0.08943081 0.018392263 -0.14258361 0.26842803
000320 cb 70 9b bc 96 06 f1 bd 44 a8 5d bd 21 04 30 3e
       -0.018974682 -0.11768834 -0.05411555 0.17189075
000330 f8 12 d0 3c 78 2b fb 3b e7 3c 11 3e 14 15 d3 bd
       0.02539967 0.007665094 0.14183389 -0.10306755
000340 aa 34 62 3e 1c e1 59 be 58 b5 19 be e7 96 d4 3d
       0.22090402 -0.21277279 -0.15010583 0.10380345
000350 a9 9a 50 be 1f ab 33 be 93 24 84 3e f8 3c 65 3e
       -0.20371498 -0.17545746 0.25809154 0.22386539
000360 38 1a 20 3e ab e9 b2 3d 90 8b 29 be de 2d 91 be
       0.15635002 0.08735975 -0.16557145 -0.28355306
000370 c0 6d 52 be aa e8 cc 3b 21 6f 32 bd d1 68 05 be
       -0.20549679 0.0062533217 -0.043563012 -0.13028266
000380 24 c4 da bd 38 bd d7 3c c0 b7 1d be 3d 3c 23 be
       -0.10681942 0.026335344 -0.15402126 -0.15940948
000390 1d f3 53 3d e7 e7 d1 bc b9 19 28 be 6b 71 80 3d
       0.051745523 -0.025623275 -0.16416062 0.06271633
0003a0 8c 5f bd 3d e8 6e 49 be fa 5d 89 3d 8f 20 0a 3e
       0.0924674 -0.19671214 0.06707378 0.13488983
0003b0 87 1a 64 be b2 bb 40 3e 71 29 87 be b3 1a a9 3d
       -0.22275744 0.188216 -0.26398805 0.082570456
0003c0 9c 21 00 be 0b 69 da bd 4e a3 c5 bd 0c a0 ca bd
       -0.12512821 -0.106645666 -0.096502885 -0.09893808
0003d0 05 c1 a3 3d 1e c6 8a be 99 2a 30 be 46 99 40 bd
       0.079958 -0.27104276 -0.1720375 -0.047021173
0003e0 8c f7 61 3e 89 b6 f0 bc c8 6e 9a 3d 13 b3 71 3e
       0.22067088 -0.029383915 0.07540661 0.23603468
0003f0 45 82 1d be 76 89 2c 3e d7 9f e7 bd 81 2c 80 3e
       -0.15381725 0.16849312 -0.11309784 0.25033954

rnn.bias_ih_l0 f4 [16]
000000 79 67 2a be a3 c2 05 be 29 f7 b1 bd 25 8c 65 be
       -0.16641034 -0.1306253 -0.0868972 -0.22416742
000010 f2 35 b9 3d d5 fd 2c be ea a9 9e 3d 9f e4 ee bd
       0.090434924 -0.16893704 0.07747252 -0.116647
000020 67 f0 be 3d 1e 65 e8 bc 52 18 0f 3e 8a ab 08 be
       0.09323197 -0.028368529 0.13974121 -0.13346687
000030 18 63 b3 bd 47 2e 16 3e 1c 84 1a be 27 b6 4b be
       -0.08759135 0.14666091 -0.15089458 -0.19893704

rnn.bias_hh_l0 f4 [16]
000000 41 b7 4d 3e 83 5a 1f 3e 79 b1 5a be bb cb df 3d
       0.20089437 0.15561871 -0.21356763 0.109275304
000010 fe aa 3b be c8 43 dd 3d fb 4a 2c be a5 ec ed 3d
       -0.18326947 0.10803944 -0.16825478 0.11617402
000020 28 31 8c be 6e 7d 32 3b 55 dd 4d 3b 4a 3d 10 be
       -0.27381253 0.0027235406 0.0031412442 -0.1408588
000030 f4 3d 0d be a8 69 32 be c2 f0 88 3d 68 3b 8f 3c
       -0.13793164 -0.17423117 0.06686546 0.017484382

fc.0.weight f4 [16, 16]
000000 d3 4a 30 be 2a 23 a6 be 0b f6 9b be f6 ec a5 bd
       -0.17216043 -0.32448703 -0.30461153 -0.08101837
000010 87 a6 a3 3e 11 27 c7 be d1 d8 9d 3c e2 b1 41 3e
       0.31962988 -0.38896993 0.019268425 0.18915513
000020 e7 ce d6 be 66 90 13 3d 58 a5 3a 3e 1b 6d 9f be
       -0.4195473 0.03602638 0.18227136 -0.31137928
000030 c3 07 85 bd 9c d6 be be 91 2a ca 3d 55 af be 3d
       -0.06495621 -0.3727311 0.098714 0.09310786
000040 1a 6f 27 3d 01 bb 5a be e5 14 9f 3d bd 30 3d 3e
       0.04087744 -0.21360399 0.07767657 0.18475623
000050 4e 27 3c be d4 02 8d 3d 06 bc cb be 6a 30 fc bd
       -0.18374369 0.06885305 -0.39791888 -0.12313922
000060 fe 68 a5 be 7a 53 1f 3f 69 41 c2 3e a8 cd 76 3e
       -0.32306665 0.6223675 0.3794053 0.24101889
000070 f5 81 7d 3e a3 44 37 be b5 a4 b3 3e c1 ad 8b 3d
       0.24756606 -0.17897277 0.350866 0.0682025
000080 ca c8 17 bf a4 54 67 be 6c 75 ab be 13 7f fa be
       -0.59290755 -0.22590882 -0.33488023 -0.48925075
000090 d2 e7 36 3e 3b b3 c3 3e 76 12 0d bd 04 36 b5 be
       0.1786187 0.3822268 -0.034441434 -0.35392773
0000a0 7e 99 3a 3d a5 7c 69 be fe 46 55 3e 75 e5 48 bd
       0.045556538 -0.22801454 0.20827863 -0.049046952
0000b0 6e 1a 92 be 7f cd fd 3d 9e 99 79 3e 95 f4 55 be
       -0.2853579 0.12392711 0.24375007 -0.20894082
0000c0 66 d9 e4 3e 53 41 29 be ec 9a f5 bd ca 9c d7 bd
       0.44697112 -0.16528825 -0.1199244 -0.10527952
0000d0 96 b0 95 bd 6c d0 8f 3d f2 02 37 3e c2 55 63 bd
       -0.07309072 0.07022175 0.17872217 -0.055501707
0000e0 41 ca 0f 3e 2e 37 1d 3c 89 32 14 be df 72 68 be
       0.14041997 0.009595675 -0.14472403 -0.2270007
0000f0 4b 43 3e 3f 39 5d b9 bd f4 6e 5f 3e db 02 9d be
       0.7432143 -0.09050984 0.21819669 -0.3066624
000100 64 6f 23 3d 49 17 9d 3e 67 b7 8c 3e 66 0f 34 3e
       0.039901152 0.30681828 0.27483675 0.17583999
000110 11 17 3b be fb a5 a7 be be 0b 40 3d 39 b1 9e be
       -0.18270518 -0.3274382 0.0468862 -0.30994585
000120 19 64 b7 bd 83 6c eb be e6 32 f0 3e cb 91 7c be
       -0.08954639 -0.45981225 0.46913832 -0.2466499
000130 5e ea a7 bd f2 91 1f be 83 1d ab 3e d4 d1 02 be
       -0.08198999 -0.15583017 0.33420953 -0.12775356
000140 3e e0 93 be 8f ff 0b 3e 2d 45 3c 3e 65 c0 86 3e
       -0.2888202 0.13671707 0.18385763 0.2631866
000150 61 d6 85 3e b6 40 45 3e 01 e9 c3 bd 3f db 91 3e
       0.2614012 0.19262967 -0.09565926 0.28487584
000160 0f 49 86 be b9 33 81 be 88 86 18 3d a4 f8 84 be
       -0.26227614 -0.25234774 0.037237674 -0.25970948
000170 c4 cf 68 3e c3 42 0f 3f ab 1c 79 3d 51 4b e4 3e
       0.22735506 0.55961245 0.060818356 0.44588712
000180 f8 09 e3 3b 07 ca 02 bf 0c 1b 97 3e 05 81 80 bc
       0.0069286786 -0.5108952 0.29512823 -0.015686521
000190 ac 6c 25 be b0 d5 19 bf c6 59 77 bc 8d 85 bc 3c
       -0.16154736 -0.60091686 -0.015097087 0.0230129
0001a0 a7 cf ce 3c 9e f6 fd 3b 94 85 17 be 70 04 b4 3d
       0.0252455 0.0077503463 -0.1479705 0.08789909
0001b0 ff 8f 20 3e 1c 28 d9 3e 9e 38 f6 bd 58 a4 c0 be
       0.1567993 0.42413414 -0.120225176 -0.37625384
0001c0 03 ab c7 bc 52 3b 90 bd 75 bc c7 3e cf 32 76 3e
       -0.024373537 -0.070425645 0.3901097 0.2404282
0001d0 95 f2 be bd 74 fc 04 3e 8b e3 c2 3e e5 41 fe 3d
       -0.093236126 0.12986928 0.38064227 0.12414912
0001e0 3e 32 8a 3e cf ed b5 3e 5c 36 52 3e 1c 50 e6 be
       0.26991457 0.35532996 0.20528549 -0.44982994
0001f0 79 75 1e be e7 48 aa be 63 3a 67 be e8 06 74 be
       -0.154745 -0.33258745 -0.22580867 -0.2383076
000200 72 f3 10 bd cb fc 7c 3e 68 e9 0c 3e cf 74 aa be
       -0.035388418 0.24705808 0.13760912 -0.33292243
000210 41 c4 12 3f 12 58 bc be 5c 06 b7 be d4 5e 0b be
       0.5733071 -0.36785942 -0.3574704 -0.13610393
000220 e4 da e1 3e 6d 18 c7 3d a8 6a 30 bd 5f 4e c0 3b
       0.44112313 0.09721456 -0.043070465 0.0058687176
000230 b4 6c d1 be 0c 76 6d be 0b bb a8 3d ff 83 60 3e
       -0.40903246 -0.23189563 0.082388006 0.21925353
000240 52 74 50 3e ce d7 91 be 1d fb 3e 3e e8 f3 8e be
       0.20356873 -0.28484958 0.1865048 -0.2792046
000250 a1 fe 0d 3e bd 48 4f 3e 5f e1 9c be ff 8f c8 be
       0.13866664 0.20242591 -0.30640694 -0.3917236
000260 c5 b5 16 3b b9 be 1a be 26 08 58 3e dd 30 ac be
       0.0022996527 -0.15111817 0.21096858 -0.3363103
000270 b9 ac a4 bc 85 db 50 3e fc 6c cb be 79 47 d6 3e
       -0.020101892 0.2039624 -0.39731586 0.41851404
000280 ea 78 2b bc ec 03 b6 3e 54 ad 35 3e 8c 2c 4c 3e
       -0.01046584 0.35549867 0.177419 0.19938868
000290 69 54 3e 3e 16 f9 c4 3d 62 82 fc 3d a1 6e f4 be
       0.18586887 0.09617822 0.12329556 -0.47740653
0002a0 4c de 29 bf 2f d5 5b 3e 6f a2 aa be 4f 8f 64 be
       -0.66354823 0.21468042 -0.33327052 -0.22320293
0002b0 78 d4 e4 bc e9 c7 71 3e 8e cb f6 bd 39 b5 fd bd
       -0.027933344 0.23611416 -0.12050544 -0.12388081
0002c0 69 04 db 3c cf f2 76 3e a0 d6 fe bd da 5e 53 be
       0.026735501 0.24116062 -0.1244328 -0.20641652
0002d0 c8 a6 8b 3e 79 4e 8d be 93 ec c2 3d b1 fb 3f bd
       0.27275681 -0.27598932 0.09517779 -0.04687089
0002e0 ca fe 61 3e 8d 0f 7e 3e 65 8b cf 3e 8b 17 e1 3e
       0.2206985 0.2481062 0.40536037 0.43963274
0002f0 ab 30 b5 3e e4 ef b1 3d 61 8d 80 be 6d b7 91 be
       0.35388693 0.08688334 -0.25107864 -0.28460255
000300 88 79 21 3e e5 41 8c 3d 5c aa 8e be 9f 48 8a 3e
       0.15769017 0.06848506 -0.2786435 0.2700853
000310 3e 56 2e 3c 96 2a 84 3e 3a d1 30 bf b2 41 e8 3d
       0.010640679 0.2581374 -0.69069254 0.113406554
000320 9a 64 01 3e 9d d9 08 3c 72 ba 43 bd 43 2d dc be
       0.12636033 0.008352664 -0.04778523 -0.43003282
000330 f6 70 b6 3d 4c 37 82 3e b8 92 04 be 3f d0 88 be
       0.08908264 0.25432813 -0.12946594 -0.2672138
000340 40 96 bb be 32 e8 99 bd 6a c7 d5 be af 64 88 3e
       -0.3663807 -0.07514991 -0.41753703 0.26639315
000350 51 cc 04 3e 69 39 4c be f5 94 fa 3c b4 e9 0a bf
       0.12968566 -0.19943775 0.030588606 -0.5426285
000360 68 2a 98 3e 1c 43 db bb f5 10 53 3d 94 4d 33 3d
       0.29719853 -0.0066913497 0.051529843 0.043775156
000370 bd a3 ff 3d 2b 5d 3f bd 58 45 51 be c5 85 df 3e
       0.124824025 -0.04671971 -0.20436609 0.43656746
000380 a8 88 10 3e 45 9f 72 be 7a 4d 3b 3e 22 32 26 3f
       0.1411463 -0.23693569 0.18291274 0.64920247
000390 4b 9b be 3e f2 b5 d5 3e 77 f5 19 be 11 57 15 3e
       0.37227854 0.41740376 -0.15035044 0.14583994
0003a0 a9 ec 2d be 11 7b bb be 1d 41 b9 3c 8f 9c 7f 3d
       -0.1698481 -0.3661733 0.022614056 0.062405165
0003b0 82 fb d9 3d 11 fc 8e be 33 b0 10 be 35 81 02 bf
       0.106436744 -0.27926686 -0.14129715 -0.50978404
0003c0 6c 40 00 3f 79 87 00 be 1f 82 e2 be 7a 29 64 3e
       0.500983 -0.12551679 -0.442399 0.22281447
0003d0 08 3b 2e 3e 03 3c d1 3d 6d e0 2a 3e d3 6d 44 bd
       0.17014706 0.102165245 0.16687174 -0.0479563
0003e0 ea 66 7c be c6 53 b8 3a 1f 68 83 3e 84 7f 26 bd
       -0.24648634 0.0014063052 0.25665376 -0.040648952
0003f0 89 a3 f7 be 5b 43 dd 3e 8c 97 7c 3e ae d9 78 3d
       -0.48366955 0.4321545 0.24667186 0.06075447

fc.2.weight f4 [2, 16]
000000 ee 7b a8 be d1 a2 ad 3b e7 8b 3f bf 45 44 f0 3d
       -0.3290705 0.0052989502 -0.7482285 0.117317714
000010 71 7e 24 3f 10 af 33 3e 78 ed 28 bd 64 ff e2 3e
       0.64255434 0.1754725 -0.041242093 0.44335473
000020 83 46 e9 be 5b 63 0d be a2 4f 95 3e 61 6e 85 be
       -0.4556161 -0.13807432 0.29162318 -0.26060775
000030 be 06 2d 3e 65 46 a2 be cf 49 12 3e 98 13 68 3e
       0.16897103 -0.31694332 0.14285968 0.22663724
000040 b9 23 58 3c 77 2f ae 3e f5 c2 d4 be 32 b9 8f 3e
       0.013192111 0.34020588 -0.4155499 0.2807098
000050 09 b8 10 bf f0 2d c2 be 1b 11 5e 3e b4 e9 5e 3e
       -0.56530815 -0.37925673 0.21686213 0.21768838
000060 e3 98 b7 be 82 b0 a7 be 2c 05 d4 be 6a 0f 93 3e
       -0.3585883 -0.32751852 -0.41410196 0.28722697
000070 e0 88 a0 be 7a a3 d1 be 53 e0 ab 3d 79 93 7e be
       -0.31354427 -0.40945035 0.08392396 -0.24860944

hidden_rnn.weight_ih_l0 f4 [64, 5]
000000 6f c8 0c bc 8d fd 87 bd 4c 25 29 3e cc 7a 43 3d
       -0.008592709 -0.06640158 0.16518134 0.04772453
000010 c1 21 20 be bd 3d 24 3d cf 59 05 3e 67 a0 c5 3d
       -0.15637876 0.04009794 0.1302254 0.09649735
000020 6c fa 78 bc 95 17 71 be 9f 8e 3c be 21 07 44 be
       -0.015196424 -0.23544152 -0.1841378 -0.19143344
000030 b2 32 d4 be 65 2a 55 3e c8 e1 ae 3d 60 36 e9 bd
       -0.41444927 0.20816953 0.08539158 -0.11387324
000040 db 5c 75 bd f9 21 11 3d e7 74 de be b4 91 c6 3e
       -0.059903007 0.03543279 -0.43448564 0.38783038
000050 1f a7 fc bd 09 2e 10 3e b2 3b 00 3e 26 c9 cb 3d
       -0.12336563 0.14080061 0.12522772 0.099504754
000060 2d 52 f3 bd 1c 0d ee bd ac c2 80 3e 0d 22 6b 3e
       -0.11880908 -0.11623594 0.25148523 0.22962208
000070 7d 28 9b 3e b4 75 c6 bd 7e ae a0 bd d3 93 ba bd
       0.30304328 -0.09690419 -0.07845782 -0.091102265
000080 a2 f7 d2 3d eb a4 67 3d 24 43 ad be 16 3a 5f 3d
       0.103011385 0.056553762 -0.33840287 0.054498754
000090 ff 67 5a be 49 b3 11 3e e0 dc 9b 3c e7 de 09 3c
       -0.21328734 0.14228548 0.01902622 0.0084149605
0000a0 9a 99 96 3d ed f3 09 be 44 27 e3 3c cb 59 c2 3e
       0.07353516 -0.13471957 0.027728684 0.37959132
0000b0 3d 1c c8 3d 7f cf 9a 3d 04 4c 38 3e d4 85 79 be
       0.09771011 0.07559108 0.17997748 -0.24367458
0000c0 56 87 9a 3d 2d d5 6d 3e f0 df bc bd a6 1e 1e bd
       0.075453445 0.23225851 -0.092224 -0.038603447
0000d0 5a 4b 3c be a6 5b df 3e 74 96 6a 3d 6f 44 15 be
       -0.1838812 0.4362461 0.05727239 -0.14576887
0000e0 c3 b8 63 be f2 63 cd 3d b7 d1 6c bd 73 9a 8d be
       -0.2223845 0.10028829 -0.057817187 -0.27656898
0000f0 be 5c cc bd 7b fc 16 be 37 e8 81 3e 18 09 09 3d
       -0.09978627 -0.14744751 0.25372478 0.033455938
000100 85 ec aa bb 64 25 5d bd 0a 6c 7d 3e b5 fa 01 3e
       -0.0052161836 -0.053990737 0.24748245 0.12693293
000110 5d 09 27 3e 5e 29 43 be 7f 25 34 be e6 50 34 bd
       0.16312166 -0.19058749 -0.17592429 -0.044022463
000120 33 01 85 be ef 3c 87 bc de 25 79 be 13 bc 14 3e
       -0.25977477 -0.016508548 -0.24330851 0.1452487
000130 d1 3d 39 3d a0 c1 d4 bd 24 fd 06 3e f4 83 a6 bd
       0.04522497 -0.103884935 0.13182503 -0.08130637
000140 9c 93 a6 be 8d 72 9d be e4 b4 3f 3e c6 7a 3e bb
       -0.32534492 -0.30751458 0.18721348 -0.0029064878
000150 61 7c 68 3d 57 db 86 bd 80 2d 67 bd e1 ba fb 3d
       0.056759242 -0.065848045 -0.056439877 0.12291504
000160 bc 2a 08 bc 34 8f 70 3e 61 5a 73 bd 6c 5e 87 3e
       -0.00831097 0.23492128 -0.059412364 0.26439226
000170 ba 04 75 be 23 12 2c 3e 52 91 94 bd 7f c1 b0 3d
       -0.23927584 0.16803794 -0.0725428 0.086306565
000180 eb 3b 35 be 55 76 14 be ce b4 ef be 6f 31 a6 3e
       -0.17698638 -0.14498265 -0.4681763 0.3245959
000190 c4 0a f6 3b fc 11 ce bd 11 35 35 bd 57 ce ca bc
       0.0075086076 -0.10062024 -0.04424006 -0.024756594
0001a0 08 ae 26 be 99 b0 30 3e a1 8b 0a bc 13 46 45 3e
       -0.16277325 0.17254867 -0.008456142 0.19265012
0001b0 37 88 14 bd 65 85 4d 3e bf 8e 1d be fe 3f 95 be
       -0.036262717 0.20070417 -0.15386485 -0.29150385
0001c0 aa 08 26 bd d7 4b 33 3c 44 c4 3b bd 85 08 89 3e
       -0.040535606 0.010943375 -0.04584147 0.26764312
0001d0 42 b3 06 bd e8 5f 9d 3e 51 48 3a 3e 89 9c 9d bd
       -0.032885797 0.30737233 0.18191649 -0.07695872
0001e0 c6 f4 5f 3e 4c b3 0f be fc b2 46 3d 1c a4 14 3e
       0.21870717 -0.1403324 0.048510537 0.14515728
0001f0 c7 9b fa 3d 0f 0e b3 bd b7 2b 87 3e 42 67 a6 be
       0.122367434 -0.08742916 0.2640054 -0.32500654
000200 85 e9 17 be d0 2a a3 3d 05 21 c5 3d f8 94 57 3e
       -0.14835174 0.0796715 0.096254386 0.21052921
000210 ad bb 89 3e 4c 1f e7 3c f7 2b 46 3c 18 d7 5a 3e
       0.26900998 0.028213166 0.012095443 0.21371114
000220 fc e3 09 be 1e 5f 2b be 0f 48 f3 3d c4 c9 8a bd
       -0.13465875 -0.16735503 0.118789785 -0.06776765
000230 9f 46 ed bc 3e 0c 01 be c5 e2 a4 3d b7 a4 b6 3c
       -0.028964339 -0.12602326 0.08051065 0.022295339
000240 c8 cc cb bd 90 03 20 bc 68 64 4c be e3 46 95 3e
       -0.09951168 -0.009766474 -0.19960177 0.29155645
000250 4c b5 32 3e 30 7c 75 be b0 49 01 3e 7a a8 8d be
       0.17451972 -0.23973155 0.12625766 -0.276676
000260 a1 dd b9 bd f1 b4 81 be 65 d4 a6 bd 3b 21 41 3e
       -0.090754755 -0.2533336 -0.0814598 0.18860333
000270 c1 26 45 3e 76 61 e7 3d a3 69 ac bd 4c 55 03 3e
       0.19253065 0.11297886 -0.08418586 0.12825507
000280 ba c5 80 bd 7e ab 5a bc ec dd 9d 3d ba af 62 be
       -0.06287713 -0.013346551 0.07708344 -0.22137347
000290 0d 19 2e 3e 1f 67 d4 bd 07 49 77 be f4 64 0c 3e
       0.17001744 -0.10371231 -0.24148951 0.13710386
0002a0 2a 19 25 3d eb 79 c6 bd 0d df 34 be fc f8 e0 3c
       0.0403072 -0.09691223 -0.17663212 0.027462475
0002b0 47 60 02 be 03 4c 14 be c8 02 b0 bd 61 88 6f bd
       -0.1273204 -0.14482121 -0.085942805 -0.05847967
0002c0 25 32 8a bb f9 2c c7 bd ce fe 1f 3e 36 82 2b 3e
       -0.0042174035 -0.09725375 0.15624544 0.1674889
0002d0 55 3c 41 3c 73 50 77 be 70 c1 de bc ea e2 d8 bc
       0.011794169 -0.24151783 -0.027191848 -0.026475389
0002e0 31 c4 98 3d 26 5f 90 3d 73 a7 09 be a8 36 b9 3c
       0.074592955 0.07049398 -0.13442783 0.02260907
0002f0 f3 37 ae 3e eb 15 61 bd 16 ed 9d bd 77 dd a0 3c
       0.3402706 -0.054952543 -0.07711236 0.019636853
000300 65 3d 1d be 16 a8 06 3c 05 5c 0a be ce 7d 27 3e
       -0.15355451 0.008218786 -0.13511665 0.16356584
000310 12 36 1f be 9b 0a 8b 3d 77 03 be 3d ac 80 37 3e
       -0.1554797 0.06789132 0.092780046 0.17920178
000320 b0 aa a7 be ed 66 43 bd d2 22 d1 3d ab 4f 98 be
       -0.32747412 -0.04770558 0.102117196 -0.29748282
000330 51 17 e0 3d 97 bb 59 3e 0e a8 05 be 7b 29 2d 3e
       0.10941947 0.21262966 -0.13052389 0.16910355
000340 49 35 a8 3d cf dc c9 bc e6 1c a1 3d a0 01 8b 3d
       0.08213288 -0.024641423 0.0786684 0.06787419
000350 e8 7a b9 3d 76 bb 24 3d c4 2d 32 3e 5e cf 18 bd
       0.09056646 0.04021784 0.1740027 -0.037307136
000360 18 94 be 3d 04 cf d6 3c 36 d7 85 be bf 5c 02 3d
       0.093055904 0.02622176 -0.26140755 0.03182673
000370 54 b7 10 be de 04 59 3d 69 45 20 3e 10 0f 88 3e
       -0.14132434 0.052983157 0.15651478 0.26573992
000380 2f 6c db bd 17 7b 66 be d9 ed 41 3e 0f cb 04 3d
       -0.10713994 -0.22507893 0.18938388 0.032420214
000390 73 58 95 3d 4e bf 64 bd a3 77 71 3d e4 6c e4 3d
       0.07292261 -0.055846505 0.058951985 0.11153582
0003a0 e7 1d 8d 3d cb 9d e8 bd 18 67 10 be a1 09 18 be
       0.06890469 -0.113582216 -0.14101827 -0.14847423
0003b0 56 cd e4 bd 95 fd 2a bd 31 c9 27 3e 60 c1 60 3e
       -0.11171977 -0.04174574 0.16385342 0.21948767
0003c0 be c3 e2 3d 05 32 bb bd b3 a0 2c 3e 1e 5f 86 3e
       0.11072491 -0.091404 0.16858177 0.26244444
0003d0 c7 0f 59 be 1e 1a 67 be 99 5e 9c be ce 96 3f bd
       -0.21197425 -0.22568557 -0.30540922 -0.046774678
0003e0 1f b6 eb bd 58 ae 7b bd 4e 42 4d 3e 4d db 01 3e
       -0.11509346 -0.061445564 0.20044824 0.12681313
0003f0 a8 01 60 3d d2 6b 3d 3e 87 9a 22 3e 2f b8 03 bd
       0.05468908 0.18498161 0.1587926 -0.032158073

hidden_rnn.weight_hh_l0 f4 [64, 16]
000000 8b dd 9b 3e 8a 5c 42 3e 10 e6 5b be f0 44 cc bd
       0.3044246 0.18980613 -0.2147448 -0.09974086
000010 fa 63 1b 3e 31 0b 62 3e 6e dd 3d be 8a 4d 9b be
       0.15174857 0.22074582 -0.185415 -0.30332595
000020 9a 74 2e 3e c4 96 13 3e 70 e4 2e be 7f 4e 29 3d
       0.17036667 0.14412981 -0.1707933 0.041334625
000030 16 27 7f bd df 1d 90 3e 30 bc 69 3d 32 a4 31 be
       -0.062293135 0.2814779 0.057064235 -0.17347792
000040 81 89 15 bd fd 32 32 3e 83 13 9d be 06 64 a9 3d
       -0.036508087 0.17402263 -0.3067895 0.08271031
000050 30 a4 5c 3d 24 ef 83 3e be 22 06 3e 6f 77 02 3e
       0.05386752 0.25768387 0.1309919 0.12740873
000060 02 70 2b be b1 a9 fd bc 97 6c 65 be 82 12 59 be
       -0.16741946 -0.030964704 -0.22404705 -0.21198466
000070 13 b9 db bd 2d ba 9f bc 46 e1 80 bd 27 cf 37 3e
       -0.107286595 -0.019497955 -0.062929675 0.17950116
000080 2e 6a 61 3e 50 3c 81 3d 43 ec 57 3e 0c 47 a8 3e
       0.2201316 0.06310332 0.2108622 0.32866704
000090 bd a2 98 bd 10 54 1f be 7a 9e 47 3d 41 e3 7e 3d
       -0.07452915 -0.15559411 0.04873512 0.062228445
0000a0 d8 c0 9a 3d b0 a7 a2 bd 9b d8 fa 3c db c2 9d 3d
       0.07556313 -0.0794214 0.030620864 0.07703181
0000b0 6e 12 e5 3d 97 06 d3 3d cf b5 2a 3e a9 99 b8 3d
       0.11185156 0.10303991 0.16670917 0.09013683
0000c0 45 cf 28 3e dd 95 fd 3d f2 28 eb 3d 64 92 53 be
       0.16485317 0.123821 0.11482419 -0.20661312
0000d0 7e b6 2d bd b8 6d 95 bd 17 78 49 be 23 4a 1b be
       -0.042410366 -0.07296318 -0.19674717 -0.15165
0000e0 6f 05 e6 bc f7 24 76 3e 25 cf 86 3e 87 3b 97 bd
       -0.028078763 0.24037538 0.26329914 -0.07384401
0000f0 08 ad a7 be 45 55 f2 3d 22 f3 6d bb 03 a6 77 3e
       -0.327492 0.1183267 -0.0036308249 0.24184422
000100 25 7a 14 3d fb d6 0c 3e 38 55 50 be c2 05 44 be
       0.0362493 0.13753884 -0.20345008 -0.19142821
000110 70 69 a6 3d 6b 9e 06 be b8 4b fa 3d 4b a8 5c be
       0.08125579 -0.13146369 0.122214735 -0.21548574
000120 32 40 24 3d 62 86 e2 3d da 63 13 be a8 39 ea bd
       0.040100284 0.11060788 -0.14393559 -0.11436778
000130 b8 42 1b 3e 66 0e 9c bd 6d dd 03 3d 49 12 3f 3d
       0.1516217 -0.07619934 0.03219359 0.046648297
000140 df b5 9f 3e 1d 98 5e 3d 09 5e b9 bd fd 08 37 3e
       0.31193444 0.054344285 -0.09051139 0.17874523
000150 e5 55 d9 3d b8 ce 65 bd 0c 43 af be 1a c4 1a be
       0.10612086 -0.056105345 -0.3423084 -0.1511387
000160 b4 04 25 3e 2d 5b b9 bd c5 21 e1 be 9e ba 21 3d
       0.16115075 -0.090505935 -0.43971077 0.039484613
000170 6c 78 98 bd 18 57 33 be 83 d8 0b be 15 17 19 3d
       -0.07444844 -0.17513692 -0.13656811 0.03737553
000180 ce 10 3a 3e a1 87 a4 3e 5b 0e 8e 3b c3 7e 00 be
       0.18170473 0.32134727 0.0043352074 -0.12548356
000190 82 06 9a bd 20 52 22 3d e5 c6 bb 3d 65 0f 8e 3d
       -0.075207725 0.0396291 0.091687955 0.0693653
0001a0 76 d0 a1 be fe 8c 41 3e 4e aa b4 bc 18 cd 45 3e
       -0.31604356 0.1890144 -0.022053864 0.19316518
0001b0 37 c5 63 be 18 4b c5 bd f1 19 e5 3d fb bc 8e be
       -0.222432 -0.096334636 0.111865886 -0.27878556
0001c0 88 78 78 3e 1b 67 08 be 09 14 3c be 4a de 2e bc
       0.24264729 -0.13320582 -0.18367018 -0.010673115
0001d0 a8 dd c2 bd 50 d7 02 be d4 a9 7a bd 62 74 ce 3d
       -0.09514934 -0.12777448 -0.061197117 0.10080792
0001e0 4f d0 1c 3e 73 42 6d be c4 52 29 be e9 16 a0 bc
       0.15313838 -0.2316988 -0.16535479 -0.019542174
0001f0 9e 87 d7 bd af 38 77 3e 8a bc 1a 3e 33 8a 45 be
       -0.10523914 0.24142717 0.15110984 -0.19291
000200 22 2c 51 bd 8e 34 48 3e 91 90 b3 be 90 46 0a be
       -0.05106748 0.19551298 -0.35071233 -0.1350348
000210 17 1f b0 bd 22 2b 31 be f3 82 e4 bd 74 c3 da 3e
       -0.0859968 -0.1730161 -0.11157789 0.42727244
000220 d2 47 88 be 9e a2 42 be 34 1d a1 3d 84 86 80 bd
       -0.26617295 -0.19007346 0.07866898 -0.06275657
000230 e8 82 53 3e b4 e6 e4 3d 6a d2 9d bd 9a e0 5a be
       0.20655406 0.11176816 -0.07706149 -0.21374741
000240 38 bc c6 bc 09 9a 3f 3e e8 00 09 be 48 5f 85 be
       -0.024259672 0.18711103 -0.13379252 -0.26049256
000250 80 23 21 3d 81 36 35 3e 9c 62 60 3d 47 28 1a 3e
       0.039340496 0.17696573 0.05478154 0.15054427
000260 59 db ca 3c d3 10 dc bd 03 e0 82 3e 86 f9 86 3e
       0.024762796 -0.107453965 0.25561532 0.26362246
000270 3a 5b 2e be 30 b6 98 be 4c f5 57 3e ba a4 f3 bd
       -0.17026988 -0.29826498 0.21089667 -0.118966535
000280 db 5b a3 be 04 e4 a6 3d aa 72 4d be 43 01 95 be
       -0.31906018 0.08148959 -0.20063272 -0.29102525
000290 ce 39 11 be ce ec 2f be 24 92 41 3d ed c9 c7 3e
       -0.14182207 -0.17180178 0.04725851 0.39021245
0002a0 32 b7 57 3e bb e8 a9 3e 2d e4 10 3e bc 6c 8e 3e
       0.21065977 0.33185372 0.14149542 0.27817333
0002b0 39 68 02 be 87 60 0f be 31 f4 92 bd 9f da 7c bd
       -0.1273507 -0.14001666 -0.07175482 -0.06173193
0002c0 ee cb b0 3d 21 21 57 3e 3d 94 e0 bd 6e 42 c7 bd
       0.086326465 0.21008731 -0.10965774 -0.09729467
0002d0 6a 8f 5e be 68 b3 0f 3e 53 2a 74 3e 10 5a 3d 3e
       -0.21734396 0.14033282 0.2384427 0.18491387
0002e0 22 4f 04 3e 8b 2b 84 3b cb 7f 85 be 5c a7 80 bd
       0.12920812 0.004033511 -0.2607406 -0.06281921
0002f0 34 d0 39 bd 82 b9 7c bd 9c 04 d9 3c 15 de 89 bd
       -0.045364574 -0.06170035 0.026491456 -0.06731812
000300 d2 cf c9 3d 60 cc 35 3e be 18 60 be f2 a4 65 be
       0.09854092 0.17753744 -0.21884438 -0.22426203
000310 31 5e 96 bd c9 b0 f2 3c ff b1 00 3e 4d 18 8d be
       -0.07342184 0.029625313 0.125679 -0.27557603
000320 f2 5f 0e be 86 f0 60 3d b8 2c 05 bd 60 76 92 bd
       -0.13903788 0.05491688 -0.03251335 -0.071514845
000330 43 4a 70 bd a8 c3 03 3e c5 9e 76 be dc e0 be 3c
       -0.05866457 0.12867606 -0.24084003 0.02330058
000340 35 dc 9a be 40 10 98 bd 28 92 1f 3e c0 12 d5 3d
       -0.3024613 -0.074249744 0.15583098 0.10403967
000350 00 b2 7a bd a2 0b ce 3d b4 82 a3 bd 3c 17 82 bd
       -0.06120491 0.100608125 -0.07983914 -0.06352088
000360 33 a8 23 3d 3c b2 54 3d c7 95 44 3d 22 d4 58 3d
       0.03995533 0.05192779 0.0479944 0.05293668
000370 d4 80 1a 3e 0d 47 13 bd 5a b4 f2 3d 2e 30 43 3e
       0.15088207 -0.03595643 0.118508056 0.19061348
000380 77 05 c6 3d f6 0d 47 3e a4 24 37 be af c4 b5 3c
       0.09669011 0.1943892 -0.17885071 0.022188513
000390 c9 8b 13 be 31 d0 a8 bd 19 94 48 be 9a e9 5f 3b
       -0.14408793 -0.08242834 -0.19587745 0.0034166337
0003a0 b1 07 9b 3c 42 43 11 be 78 ea 03 bd b7 ae 28 be
       0.018924566 -0.14185813 -0.03220603 -0.16472898
0003b0 9e e7 11 3d 09 2a 8f be 91 8a b5 3d ec 6d 01 3e
       0.035621278 -0.27961758 0.0886432 0.12639588
0003c0 58 52 37 3e d5 53 40 3e a8 d5 26 3d c1 5b d2 bd
       0.17902505 0.1878198 0.040731102 -0.10271407
0003d0 31 70 6a be 85 a5 26 3d d5 1d b7 3d fa a5 8a bd
       -0.2289436 0.040685195 0.08941237 -0.06769939
0003e0 58 81 27 3d 80 3a 97 be ff 4c af 3d c9 0e 44 3e
       0.040894836 -0.2953682 0.08559608 0.19146265
0003f0 29 77 a5 3d 58 0c 23 be fb 51 7b 3c 15 f1 2d 3e
       0.080793686 -0.15922678 0.01533937 0.16986497

hidden_rnn.bias_ih_l0 f4 [64]
000000 9b c1 de 3d 59 87 31 3e dc 5d 16 3d 98 57 26 be
       0.10876771 0.17336787 0.036710605 -0.16244352
000010 3f 8c 0b 3e 72 88 1a 3e 43 d0 11 3e 1e ea 14 3d
       0.13627718 0.15091112 0.14239602 0.036356084
000020 1c 4a 2f bd 53 2a fa 3d c0 ab 3f 3e 3b 16 5b be
       -0.042795286 0.12215104 0.18717861 -0.21395199
000030 d3 4d 92 bd 5f bc 4c be 54 68 e6 bd 64 41 7d be
       -0.0714375 -0.19993733 -0.11250368 -0.24731976
000040 32 0e 16 3e c4 46 43 be fa 7b 37 be 2c cd 59 3d
       0.14653853 -0.19069964 -0.17918387 0.053174183
000050 76 e2 7c be c3 1d 76 3d 95 43 10 3e dd a5 2c bb
       -0.24695763 0.060086977 0.1408828 -0.002634398
000060 8b 4d 96 3e ae 9a 9b 3e 9c a5 d9 3d ea 1c 2e bd
       0.29356036 0.3039145 0.106272906 -0.042508043
000070 2a e3 80 bd 7e c5 ad 3c 14 18 28 3e ce 1d 64 be
       -0.06293328 0.021212336 0.16415435 -0.22276995
000080 73 d7 2a be 15 78 19 be f5 67 6b be c2 55 cc bd
       -0.1668375 -0.14987214 -0.22988875 -0.099772945
000090 6f c6 28 3e 84 8d b9 3e 36 8d 5b 3e 1a 2a 17 3e
       0.16481946 0.3624078 0.21440586 0.14762154
0000a0 54 d6 db 3d 0b 4b 3a 3c dc 7d 7a be 9a 33 83 be
       0.10734239 0.011370431 -0.24462074 -0.25625306
0000b0 b0 84 38 3d 56 9a 82 3e 0f ef 5a bd 17 3a 2d 3e
       0.045048416 0.25508374 -0.05345064 0.16916691
0000c0 ea 80 56 3e 57 16 48 be 57 c4 62 3e 52 a7 57 3c
       0.20947614 -0.19539772 0.2214521 0.013162451
0000d0 33 1c 56 3d 25 f5 fe bd 0e eb 2c 3e 67 5b e1 bb
       0.052272987 -0.12449101 0.16886541 -0.006877351
0000e0 dc 4c 02 be 82 25 59 3d e2 c1 3d be d5 12 24 3d
       -0.12724632 0.053014286 -0.18530992 0.040057022
0000f0 87 ed 56 be 67 f6 20 bc de 85 35 3e 0c f0 2b 3e
       -0.20989047 -0.009824372 0.17726848 0.1679079

hidden_rnn.bias_hh_l0 f4 [64]
000000 fd ae 2b be 95 b8 db 3d 3d 26 3f be b9 27 c4 3d
       -0.16765971 0.107285656 -0.1866693 0.09577889
000010 af 1c 1b be 4e 09 3a 3e 41 aa 10 3d ae 25 25 3e
       -0.1514766 0.18167612 0.035318617 0.16127655
000020 87 93 1e 3e 0c e6 51 be c4 df 9e bd 5f 8e 12 3e
       0.15485965 -0.20497912 -0.07757524 0.14312123
000030 5e 75 87 3d ab c3 50 3e b4 50 0e be 86 d1 34 3d
       0.06614183 0.20387141 -0.13897973 0.04414513
000040 f2 5c 27 3e 6a 31 71 be 45 ff 6f 3c c0 7c 96 bd
       0.1634405 -0.23554006 0.014648263 -0.07348013
000050 d4 fc 47 3d 4b 36 56 3d f7 e7 1d 3e 6b 09 09 be
       0.0488251 0.05229787 0.15420519 -0.13382499
000060 4c 75 15 3e 94 a0 07 be ab 75 8a bc bd 2f 8d bd
       0.14595526 -0.1324485 -0.016901812 -0.06893871
000070 40 c4 6a 3e 33 b2 1d 3e dc f1 e5 bd f0 7a d5 bd
       0.22926426 0.15400009 -0.11227772 -0.10423839
000080 9c f1 42 bd 7e cb 4d be 67 6d a1 bb 01 a5 bb bd
       -0.047593698 -0.20097157 -0.004926372 -0.09162331
000090 0f 6d 3a 3e fd 7c af 3e 59 bf ef bd 27 90 de 3d
       0.18205665 0.34275046 -0.117064185 0.10867339
0000a0 4b 9b b0 3d 9d ee 3c 3e fe 4e d0 bc f1 6e cb bd
       0.0862337 0.18450399 -0.025428291 -0.0993327
0000b0 9f c6 43 3e fb fc b9 3d f3 f6 16 3e fa 49 04 be
       0.19118737 0.09081455 0.14742641 -0.12918845
0000c0 80 c5 50 3e b9 5d e1 3d 50 6b af 3c 4b 8d 08 bc
       0.2038784 0.11004204 0.021413475 -0.008334468
0000d0 ba 28 18 ba a4 39 db bd 73 f3 f6 bd a3 5a 36 3e
       -0.00058044086 -0.107043535 -0.12058153 0.17808013
0000e0 3f 2d 9d 3c e5 22 6c 3d c4 0b 43 bc c0 cb 22 bd
       0.019186614 0.057650466 -0.011904661 -0.039745092
0000f0 4f d3 e6 3d 94 a3 7d bd f8 2b 81 be b6 d1 ca bd
       0.11270773 -0.06192358 -0.25228858 -0.099032804

exp_avg f4 [16, 7]
000000 9a 00 91 3b 02 28 d1 3a 09 8d be 39 5e aa c2 ba
       0.0044251205 0.0015957358 0.00036344703 -0.0014851799
000010 b1 f5 a1 bb 3e 06 ab bb fb e7 12 3b 6a b1 06 3c
       -0.004942619 -0.00521925 0.0022416103 0.00822101
000020 ca d5 f7 3b 1e 81 cc 3b f8 52 1e bc a0 2c 81 3c
       0.0075633274 0.006240978 -0.009663336 0.01576835
000030 de 29 de ba ec d2 3e bc 11 9c 22 3c 8f fc a1 3a
       -0.0016949733 -0.011646967 0.009924904 0.0012358594
000040 39 75 3d 3b 88 f0 b3 bb cf dc cc 3b b3 fd 4e bb
       0.0028908981 -0.00549132 0.0062519084 -0.0031584322
000050 4b 35 28 bb 68 66 94 3b f5 08 1a 3c 1c 0c 14 3c
       -0.002566653 0.0045288093 0.00940155 0.00903609
000060 65 9d 01 ba a1 1f de ba 5b f3 42 bb 52 31 9b ba
       -0.0004944413 -0.0016946682 -0.0029747102 -0.001184026
000070 68 ae 62 bc d5 d3 74 bc 3a 0e c7 bb bf 13 73 3c
       -0.013835527 -0.014943083 -0.006074694 0.014836251
000080 bf 5d b7 bc 43 11 3b 3c 99 95 3f 3c b2 87 42 3c
       -0.022383569 0.01141769 0.011693382 0.011873173
000090 5c 33 82 3b 49 e5 bf 3b 77 df 48 bc 1a b5 95 3c
       0.0039734077 0.0058561903 -0.012260309 0.018274833
0000a0 51 f1 5d bb 46 b0 2b bc 1f e0 51 bc be e3 51 bc
       -0.003386576 -0.010479039 -0.012809782 -0.012810646
0000b0 88 96 a6 ba 81 3c 84 bb 3d d0 78 bc 92 11 25 3c
       -0.0012709657 -0.004035533 -0.015186367 0.01007499
0000c0 76 91 0a 3c 8d 11 c4 bb b0 be 1a 3b ee 37 8c 3b
       0.008457532 -0.0059835375 0.0023612194 0.0042791283
0000d0 e4 8b 00 bc 15 5d 4e ba a5 26 3e bb 1c 51 7e 3a
       -0.0078458525 -0.00078721467 -0.0029014733 0.00097014173
0000e0 dc 08 b6 b9 c8 c1 88 3a 8c 9d 25 3a bb e9 a3 3b
       -0.00034720346 0.0010433728 0.0006317727 0.005002228
0000f0 93 ca 2b bb e2 78 0b 3c 22 93 a8 3b f4 bb c8 bc
       -0.0026213273 0.008512707 0.0051444927 -0.024503686
000100 68 99 5b bc 4d 52 02 bc ec 7f 65 3c 43 54 d3 bc
       -0.013403274 -0.007954192 0.01400755 -0.025797015
000110 71 8b 1f 3c 5a a3 5b 3c e6 55 88 b8 d5 05 03 bb
       0.009737835 0.013405645 -6.500985e-05 -0.001999249
000120 6d fd 06 bb b9 a4 10 ba 59 f9 d4 ba 79 7f 1b 3a
       -0.002059783 -0.00055177097 -0.0016248628 0.00059317757
000130 de fc 6c bb 25 02 70 bc b2 21 4f bc e0 02 12 bc
       -0.0036161463 -0.014648949 -0.012642311 -0.008911818
000140 80 7d 61 3c 82 a3 4a bc a9 07 3b 3c d6 42 b5 3b
       0.013762832 -0.012368085 0.011415401 0.005531649
000150 9b 30 f5 bb f4 29 6d bb 9d 40 a8 b8 4a 43 6a 3b
       -0.007482601 -0.0036188336 -8.0228994e-05 0.0035745674
000160 80 57 93 bb 51 81 8f 3a c1 b3 03 ba 0b 93 9b bb
       -0.004496515 0.0010948573 -0.0005024039 -0.0047477535
000170 a2 f2 93 3b 93 2d 7a 3b dd fa ca 3a b7 8d 03 bc
       0.004515008 0.0038174137 0.001548614 -0.008029393
000180 4b 4e d5 3b f3 98 38 3c a9 54 54 3c 8c c2 ff 3b
       0.0065095774 0.011266935 0.012959638 0.007805174
000190 02 38 c2 3a b2 cb a3 bb 8b 7b 48 3c 43 12 19 bc
       0.0014817717 -0.0049986476 0.012236486 -0.009342733
0001a0 09 a4 09 bc 47 4c 19 3a 48 f1 94 3b 9d 8f 0c bb
       -0.008400925 0.0005847853 0.0045453645 -0.0021447905
0001b0 74 63 8e 3c ba 2e 18 bb 6e 88 13 ba d8 44 d5 3b
       0.017381407 -0.002322121 -0.00056279346 0.006508451

exp_avg_sq f4 [16, 7]
000000 a1 8c 84 3a 11 66 b9 3a c2 70 46 3a a0 1c 97 3a
       0.0010112711 0.0014144798 0.0007569903 0.0011528917
000010 b0 5a ad 3a b7 e4 b6 3a 13 b3 68 3a c4 ff 2e 3b
       0.001322588 0.001395366 0.0008876782 0.002670274
000020 fe a6 03 3b 6c c5 e7 3a f6 57 d1 3a 1d 89 44 3b
       0.0020088549 0.0017682738 0.0015971649 0.0029988952
000030 13 bc e9 3a 99 cd 20 3b 25 94 b9 3a 80 f3 b8 3a
       0.001783254 0.0024536608 0.001415853 0.0014110655
000040 27 e1 cb 3a bb 4e a6 3a d7 98 b2 3a 5d 05 99 3a
       0.0015554772 0.0012688258 0.0013625872 0.0011674572
000050 13 17 88 3a ba ae 7d 3a 16 ee 8a 3a 7c 64 9b 3a
       0.0010382853 0.00096772204 0.001059952 0.0011855508
000060 0e 36 46 3a bf 01 50 3a 68 f7 91 3a 3c 09 5b 3a
       0.00075611554 0.00079348305 0.0011136355 0.0008355563
000070 50 5c 82 3b 57 af 31 3b e8 ad 1b 3b 5b d2 48 3b
       0.0039782897 0.0027112567 0.002375478 0.003064296
000080 4b c4 91 3b fd c1 8f 3b 4d 4f 3d 3b b6 88 70 3b
       0.004448449 0.004387139 0.0028886378 0.003670258
000090 d9 0b 10 3b d4 6c 35 3b d3 61 0b 3b 5c 6a 6e 3b
       0.0021979718 0.0027683275 0.0021268025 0.0036379313
0000a0 f6 33 01 3b dc 46 53 3b ba d7 ee 3a a5 fe 98 3b
       0.001971481 0.003223828 0.001822225 0.004669028
0000b0 8d 0a 9a 3a 81 6c 4c 3b 59 5e 26 3b 18 b8 50 3c
       0.0011752412 0.0031192603 0.0025385825 0.012739204
0000c0 54 04 16 3a f4 f0 ce 3a 91 89 35 3b c2 19 f1 3a
       0.0005722691 0.0015788362 0.0027700404 0.0018394517
0000d0 af 71 18 3b 74 da eb 3a ed 9a c5 3b 9a f3 5b 3a
       0.002326112 0.0017994181 0.0060304315 0.00083904865
0000e0 88 08 62 3a 6c e4 54 3a bf cb 61 3a ce 57 6a 3a
       0.0008622487 0.0008121196 0.00086134294 0.00089394755
0000f0 e6 50 60 3a f5 0e b4 3a 2b a5 1f 3a 9d e6 6b 3b
       0.00085569767 0.0013737368 0.00060899806 0.003599561
000100 43 2d 64 3b d9 89 59 3b 74 51 2d 3b 79 a7 80 3b
       0.0034817017 0.0033193736 0.0026446255 0.0039262143
000110 54 45 9f 3b 07 21 2d 3b 4d fb e5 39 a1 55 a6 3a
       0.0048605595 0.002641739 0.00043865517 0.0012690314
000120 30 42 ca 39 13 cc 58 3a da 74 26 3a 04 fd 5d 3b
       0.00038577756 0.00082701555 0.00063498097 0.0033872733
000130 9c 40 ba 39 7c e1 db 3a ba 8a e1 3a 6a ad d6 3a
       0.00035524822 0.0016775574 0.0017207481 0.0016378586
000140 7a 97 c6 3a c3 1f e0 3a 91 fa 20 3b 34 46 5e 3a
       0.0015151345 0.001709931 0.0024563412 0.0008479089
000150 8b 39 41 3a 81 88 5b 3a aa 2d 7b 3a 28 7b 41 3a
       0.00073709403 0.00083745277 0.00095816946 0.00073807174
000160 49 48 40 3a 42 e2 9b 3a e3 c9 76 3a 8d 73 e8 3a
       0.000733499 0.0011892992 0.0009414239 0.0017734632
000170 40 9f dc 3a c8 47 c2 3a b3 8b d4 3a e2 18 f1 3a
       0.0016832128 0.0014822418 0.001621595 0.0018394256
000180 9b 5d 1c 3b 6b bb f9 3a 14 ba 93 3a 5c fa 0d 3b
       0.0023859504 0.0019053047 0.0011270666 0.0021664118
000190 fa 8c 59 3a 55 c1 ca 3a ad 90 ad 3a 8c 39 8d 3b
       0.00082989 0.0015468994 0.0013241969 0.0043098386
0001a0 fb 00 42 3a 69 62 32 3b 43 ad 0d 3b e4 8b 2b 3b
       0.0007400659 0.0027219302 0.0021618165 0.002617591
0001b0 11 62 01 3b 7e c6 12 3b ae 46 e8 3a ff 7d 36 3b
       0.001974229 0.0022396143 0.001772126 0.0027846096

exp_avg f4 [16, 16]
000000 01 b2 3a b9 cc 2e 1c bb f2 bc e1 b9 be 3c 05 3a
       -0.00017804654 -0.0023831604 -0.0004305612 0.00050825987
000010 6d c6 16 3b e5 85 1d bb d2 1a 14 3b 35 5f ac 39
       0.0023006455 -0.0024036106 0.0022598994 0.0003287733
000020 03 5a 3b 3a a8 c6 d3 39 00 b0 13 ba 69 ee 4e 3b
       0.00071468967 0.00040393067 -0.0005633831 0.003157521
000030 f6 b8 8c 3a f9 c9 cb 37 43 d5 1e ba 11 82 f5 3a
       0.0010736275 2.4293537e-05 -0.0006059 0.0018730779
000040 63 ab 09 bb 2d d8 7a 39 24 36 5f 3a db e5 f8 39
       -0.0021006695 0.0002392239 0.00085148425 0.00047473502
000050 b9 9b 62 bb 4c 83 16 bb bd 37 86 bb b0 d8 01 bb
       -0.0034577681 -0.0022966443 -0.004096 -0.0019812994
000060 8a 5d 36 3b b8 cf 6f 3a 03 00 3f bb 4e 85 a4 bb
       0.002782675 0.0009148079 -0.0029144294 -0.005020774
000070 b8 6a d8 bb 42 c6 03 3c 28 b9 ed 3a 28 21 35 3b
       -0.0066045187 0.008042874 0.0018136846 0.002763817
000080 22 9a 7a 3a 18 9d 9f bb 50 56 09 3b 39 7a 78 3b
       0.0009559711 -0.004871022 0.0020955987 0.0037914647
000090 83 80 62 3b 21 5a af bb 0b 62 9d 3a de ce 11 bb
       0.0034561462 -0.0053513204 0.0012007368 -0.0022248547
0000a0 d9 05 51 3b 16 b5 16 39 7a 5e d6 39 9e 6b 47 3b
       0.0031894355 0.00014372575 0.0004088765 0.0030429135
0000b0 b1 14 16 bb 57 75 45 3b b4 26 87 3a 39 44 b1 3b
       -0.0022900517 0.0030129754 0.0010311217 0.005409744
0000c0 d2 8f af 3a e8 c7 8d bb 1a fe ee 3a d0 ce 82 ba
       0.0013394302 -0.004326809 0.0018233687 -0.0009979848
0000d0 87 ca b1 b9 2a 7e 73 bb 65 26 e2 3a a4 5b d5 ba
       -0.00033910965 -0.0037154057 0.0017253874 -0.0016277921
0000e0 66 3a 0d 3b 2b eb 9f 3a a1 18 8b bb d5 12 eb b8
       0.00215497 0.0012200823 -0.0042448794 -0.00011209181
0000f0 e6 45 1d bb 8f 5a 82 3b 9f 29 f2 b9 b3 e4 50 3b
       -0.0023997962 0.0039780806 -0.00046188847 0.0031874597
000100 25 6d b0 3b 9e 1e 43 3b 6a 4a 92 3a 37 79 e3 3a
       0.005384105 0.0029772888 0.0011161093 0.001735485
000110 80 9e f7 3a e2 37 f2 3b cb 5b 8e 3b b2 33 ca 3a
       0.0018891841 0.0073919157 0.0043444387 0.0015426783
000120 ca 36 a1 bb 3e 9a 8b bb fb 77 b2 3b 5f f2 2e 3b
       -0.0049198614 -0.0042603305 0.0054464317 0.0026694757
000130 6d 26 da 3b 80 95 3e bc 81 53 2b bb b7 0d b5 bb
       0.0066574127 -0.011632323 -0.0026142302 -0.0055253166
000140 65 cb 39 bb 5c 01 93 ba b6 0e 82 ba d4 8a bc 3a
       -0.0028349992 -0.0011215615 -0.0009922597 0.0014384636
000150 a2 03 1c bb 60 14 71 bb d0 88 91 bb f5 a8 ba ba
       -0.0023805876 -0.0036785826 -0.004441358 -0.0014241027
000160 ec d2 63 3b 03 40 23 3a 64 61 31 bb db 93 6a bb
       0.003476317 0.0006227495 -0.0027066106 -0.0035793695
000170 7f 18 a8 bb 27 61 03 3c b0 67 0d 3b c5 43 86 3b
       -0.0051298733 0.008018768 0.0021576695 0.004097434
000180 f0 e4 9b 3b d1 c9 a6 3a 3b 7e 76 ba eb b4 b4 ba
       0.004757516 0.0012724941 -0.0009402965 -0.0013786828
000190 27 29 e8 ba e0 16 79 3b 5b cb 55 39 d5 49 93 3a
       -0.001771246 0.003800802 0.00020389019 0.0011237214
0001a0 45 c1 1a bb 8d 3a df bb f0 57 97 ba 4f 14 9f ba
       -0.0023613733 -0.0068123997 -0.0011546593 -0.001213679
0001b0 4e 6c ee 3b b8 66 a5 bb d1 65 32 bb 3f 8b ea bb
       0.0072760945 -0.0050476454 -0.0027221332 -0.0071577127
0001c0 7e 4a c3 ba e7 04 63 b9 b1 93 76 bb c1 6a 9d bb
       -0.001489952 -0.00021650233 -0.0037624652 -0.004803986
0001d0 ea 8a 78 bb 72 58 93 b9 6c b1 17 bb be 0a 05 3a
       -0.0037924596 -0.00028103922 -0.0023146523 0.0005075148
0001e0 f8 87 f3 38 c5 bc e3 b9 3a d1 90 bb 87 5e 56 bb
       0.00011612469 -0.00043437458 -0.004419473 -0.0032710151
0001f0 df 52 0e 3b cc 28 13 3b 06 96 fa 37 aa ff 69 bb
       0.0021716875 0.0022454737 2.9872182e-05 -0.0035705366
000200 76 5e 6a 3b 2a b6 0f ba ca 7d 0b 3b 00 ae c6 3a
       0.003576187 -0.00054821617 0.0021284693 0.0015158057
000210 21 d8 74 39 43 63 54 3a bd 65 5d 3b 6a 32 f8 3a
       0.00023350168 0.00081019494 0.0033782565 0.0018935923
000220 2b 5d 41 b8 f0 da 14 ba a2 a1 6a 3a c4 54 90 3a
       -4.6101555e-05 -0.0005678376 0.0008950477 0.001101159
000230 1f 36 92 3a ca 0b 09 bb e0 68 aa ba fc 8a d1 b9
       0.0011155045 -0.0020911568 -0.0013001226 -0.00039967138
000240 01 c2 a4 3b a8 c1 68 3b 66 56 e2 3a c1 4a 1a bb
       0.00502801 0.0035515819 0.001726818 -0.0023543092
000250 08 69 2c 3b ff fd e4 3b b7 bd 6b 3b 6d 09 db 39
       0.002630772 0.0069882865 0.0035971233 0.00041777958
000260 31 80 aa bb 6e e0 8b bb 3e 2a 5f 3b 86 48 48 3b
       -0.00520327 -0.0042686975 0.0034052278 0.0030560805
000270 e2 5a 1b 3c fc 43 4b bc 5f 1f 35 bb 13 80 0f bc
       0.009482117 -0.012406345 -0.0027637107 -0.008758563
000280 b7 69 40 b9 19 c8 ab 3a 44 fc d1 3a 37 39 f4 3a
       -0.00018349929 0.0013105898 0.0016020616 0.0018632774
000290 1b c4 75 3a d0 85 56 3a 5b 95 8c ba d5 9e 0f bb
       0.00093752303 0.0008183392 -0.0010725664 -0.002191474
0002a0 6c f3 e2 b9 55 06 d7 ba 15 bc 63 39 51 55 a7 b8
       -0.00043287443 -0.0016405085 0.00021718473 -7.979072e-05
0002b0 f3 9c ae b9 d4 5a 0b ba 14 22 54 b9 fa d0 0e 3a
       -0.00033304802 -0.00053159636 -0.0002023059 0.000544801
0002c0 56 91 6e 3a c1 3c f2 3b 6e 8a 18 bb 5a 12 09 b9
       0.0009100636 0.0073924963 -0.002327587 -0.00013072175
0002d0 1b a4 af ba 51 bc 10 3c 03 aa 49 39 70 30 44 3b
       -0.0013400348 0.008833961 0.00019232188 0.0029936098
0002e0 cf 9a b7 bb c6 1d 4e bb 6e 30 ac 3b 2c 92 a4 ba
       -0.0056031714 -0.0031450852 0.0052547967 -0.001255577
0002f0 ee 0e a3 3b 00 8e 17 bc 25 ff c5 ba d6 44 07 bc
       0.004976145 -0.009250164 -0.0015105946 -0.008256158
000300 9e 3c 57 ba 96 4b 10 3b 59 17 1f bb a5 a3 db ba
       -0.0008210632 0.002201771 -0.002427539 -0.0016757144
000310 b8 82 97 ba a5 bb 07 3b e6 7b a9 ba fe a3 fd 38
       -0.0011559343 0.002071121 -0.0012930601 0.00012094526
000320 38 c9 f0 ba f5 fc fd b9 27 2c 73 3a 49 85 b1 ba
       -0.0018370515 -0.00048444388 0.00092762936 -0.001354375
000330 bc 66 3c 3a 03 fa 05 bb 43 d1 ab 38 6b 56 46 bb
       0.00071869395 -0.0020443208 8.1928934e-05 -0.0030263911
000340 84 a9 be 3b a6 a4 0f bb 47 7f 63 3b c0 72 18 bb
       0.0058185477 -0.0021918206 0.0034713314 -0.0023261756
000350 a3 e3 ab ba 30 a7 4b 3a 2f aa ab 3b 3a 9a 0e 3b
       -0.0013114106 0.00077687483 0.0052387933 0.0021759407
000360 a6 ae aa 38 33 ea ba ba 5c 7a 2d bb 12 1c d4 39
       8.1387625e-05 -0.0014260471 -0.0026470637 0.00040456705
000370 a1 db 1d 3b 15 b9 ad ba d9 d0 39 bb d6 81 60 bb
       0.0024087208 -0.0013254011 -0.0028353243 -0.0034257076
000380 90 54 93 bb 6a 62 1b ba 92 e2 cf b9 a4 d3 96 3a
       -0.0044961646 -0.00059274456 -0.00039650925 0.0011507166
000390 29 10 0b 3a c9 aa 68 bb e7 16 c1 ba 24 fc 30 ba
       0.0005304837 -0.0035502187 -0.0014731557 -0.0006751439
0003a0 e1 cd 29 3b 14 40 59 3b 02 9d 02 ba 69 c8 11 37
       0.0025910067 0.0033149766 -0.00049825024 8.689335e-06
0003b0 ae 2a ba bb 98 2b c1 3b f7 37 0d 3b cd a7 9b 3b
       -0.0056813573 0.0058950894 0.002154825 0.004750228
0003c0 0a 5b 06 3b 96 97 b5 ba 78 d4 5a 3b 77 d5 10 3a
       0.002050104 -0.001385438 0.0033390801 0.0005524973
0003d0 86 b3 44 3b 6a 6a 7f b9 e5 ce a5 3b 22 ed 90 3a
       0.003001423 -0.00024358337 0.005060064 0.0011056999
0003e0 74 f3 83 ba 63 4e 84 3b e2 39 8c 3b 5e bf 87 3b
       -0.0010067062 0.0040376647 0.004279361 0.004142686
0003f0 6c 9d c0 ba 5f 15 80 bb d6 d9 e2 b9 2c ad f5 3a
       -0.0014695353 -0.0039087976 -0.0004326838 0.0018743626
