ckpt/rnn_ode_3_4_h32_gauss/best.pth (torch_old, 61272 bytes, 30 tensors)

rnn.weight_ih_l0 f4 [32, 7]
00000000: 84ed a0bd f55c 59bd d931 ae3d 3af1 4abd
00000010: d0d8 a9bd 50b6 2d3e bd04 35be 76b9 7dbd
00000020: 040d 6b3c f83f 5fbe a9c9 e73c ebd6 efbd
00000030: 486f 023b 7c44 58bd c2b7 cebd dcf8 883d
00000040: 3d01 01be c988 b83d f4cc 96bc 40c9 733e
00000050: 2ec3 05bd 51c5 da3d aa04 72bd 5012 d33d
00000060: e509 e13d 79a9 1cbe 8a9a f63d 5f24 25bd
00000070: 8ae5 83bd 9d4f 42bd 2e2a bcbd 4133 6f3d
00000080: 7f08 2bbd e7c4 b6bd f69b 523e aaf7 c63d
00000090: 24f2 44be 1ff3 37be 9aaa da3d 1168 cebc
000000a0: 0ffe 453e c090 94bd f0c8 273d c46f c03a
000000b0: 4dc2 293d d62b 683d da89 73bc d2e6 6fbd
000000c0: 11e7 39bd ba49 e33d 7b88 263d 46e5 5d3d
000000d0: c11d 423d d93c d03d bbbc 443e 3ea9 3e3e
000000e0: 93c9 813d 7e75 e8bb bc06 493d 1f8d 7b3c
000000f0: a30d 9d3d f7cb 743b d2a1 b73b b13e be3d
00000100: cb37 463e fab4 4dbd 2d47 30bd f78a 053e
00000110: 0a47 84bd 125f 283e d34a 44bd 55df 88bd
00000120: e9d7 f8bd b5f4 333e e74d c23c 108d 8c39
00000130: 9122 fc3d 5d59 c73c fde4 5abd 96f1 cdbd
00000140: c248 e53d d2c1 eabc e843 0ebe 53a5 803d
00000150: 1e5d 76bd 268e 14be 97fa 30bd 2cdc 33bc
00000160: 289c 26be d1d8 bebd 2656 813e 5335 873d
00000170: 45dd cc3d dfcc c6bd 9b17 0ebe 7a09 f63d
00000180: 531d c6bd 6d8a 2fbe d505 c73c dcfc bebb
00000190: c0f3 b5bd 6134 943c f938 353c df06 c1bd
000001a0: 84ac 523e dd4f 0f3e 9551 2fbe 9e34 913d
000001b0: cd7f db3d d025 d7bd f432 67bd 24c4 a8bd
000001c0: 7ce3 3bbc 5264 25be e128 fa3d 1cb1 b13d
000001d0: b405 d33d 890c 36be b73d 49bd df36 0c3e
000001e0: 0cd3 bcbc 4d2a 573d 5303 d3bc 1736 f73d
000001f0: 84cf 4dbd 59ca c73d 80e6 fa3d a134 863d
00000200: b07b 06be bee0 043e 46f0 e23d b40c 85bc
00000210: ae92 aabd 9895 393e 4157 e7bd b60d bb3d
00000220: 1834 30bd a5d4 9ebd 1908 a53d 4453 8ebe
00000230: 51e7 273d 9b64 e53d 4afd 6bbd 59f7 0a3e
00000240: ceb0 c93d 3d54 44be e663 d9bc bb06 15bd
00000250: 9e65 0c3e 2b07 0a3e 25a8 a1bd 4f55 dbbd
00000260: 2f61 a33d 1e75 043e af75 bcbd 2757 b6bd
00000270: 6024 3c3d 1927 f53d 175b d13c 9b80 3d3d
00000280: 134b 05be 69b5 e0bd e377 ddbd a611 d53d
00000290: 1419 b73d 8750 90bc 3885 5bbd d92f 303e
000002a0: f143 303e 6f46 98bd f584 dabd 4e32 86bd
000002b0: 2b9a 433d 7c18 55bd 715a 043e 4686 0c3d
000002c0: 6919 ca3d bd63 eb3c eee5 6b3d 83e3 693d
000002d0: ef75 1c3e 8f4e 99bd adac 123e e4dc c43c
000002e0: 02d7 0a3e 6b63 1039 25db 893d f8e9 063e
000002f0: fc75 8c3e cd80 263e 6da3 19be 23d0 c63b
00000300: 0a23 eabd cb8d 013e 4118 32bd 7c05 49be
00000310: 5ecf c9bd 1794 823d ba0c 293d de0d 84bd
00000320: 8892 60bc 97b3 213d cdf0 cbbd 1205 7a3c
00000330: 11aa 9c3d abd0 103e 077a 2a3e a11a b5bd
00000340: 7635 3a3e a042 863d 29c7 083e 4339 88bd
00000350: 26ef bc3d c876 b7bd 7d2b 96bd 8248 00b9
00000360: 313b 68be 99a7 c5bd e82c a5bd 6dd2 003e
00000370: 9bcd 303d fa0b bf3c 45b6 853d 3ca9 34be
-0.078578025 -0.053067166 0.085056014 -0.049546458 -0.08293307 0.16964078 -0.17677589 -0.061944447
0.014346365 -0.21801746 0.028294401 -0.11710914 0.0019902755 -0.052799687 -0.10093643 0.06688091
-0.12598129 0.09010465 -0.018408276 0.2380724 -0.03265684 0.10682166 -0.05908648 0.10306227
0.10988215 -0.15299024 0.12041195 -0.04031789 -0.064402655 -0.047439206 -0.09187733 0.05839849
-0.04175615 -0.08924275 0.20567307 0.09715207 -0.19232994 -0.17963837 0.10677071 -0.025196107
0.19335197 -0.07254171 0.040963113 0.0014681746 0.041445065 0.05668243 -0.014864409 -0.058569737
-0.045386378 0.110980466 0.0406575 0.05417373 0.047391657 0.10167856 0.1921262 0.18619248
0.06337275 -0.0070940843 0.049078688 0.01535347 0.076686166 0.0037353018 0.0056040073 0.09289301
0.19357221 -0.05022142 -0.04303663 0.13041292 -0.06458862 0.16442516 -0.04792292 -0.06683222
-0.121505566 0.17573817 0.023718787 0.0002680798 0.123112805 0.024334604 -0.053441036 -0.100558445
0.11195518 -0.028656874 -0.13893092 0.06281533 -0.060147397 -0.1450735 -0.04320773 -0.010977786
-0.16270506 -0.09318698 0.2526104 0.06601968 0.10003141 -0.09707045 -0.13876192 0.12013526
-0.09673562 -0.17142649 0.024294773 -0.005828483 -0.08884382 0.018091382 0.011060947 -0.09425139
0.20573622 0.13995309 -0.17120965 0.07090114 0.107177354 -0.10505259 -0.056445077 -0.08240536
-0.011467811 -0.1615155 0.12214828 0.08676359 0.10303822 -0.1777822 -0.04913112 0.13692807
-0.023049854 0.052530576 -0.025758421 0.12070864 -0.05024673 0.09755392 0.12250996 0.06553007
-0.1313312 0.12976357 0.11080985 -0.016241409 -0.08328758 0.18123472 -0.11295939 0.091334745
-0.04301843 -0.077554025 0.08058185 -0.27797902 0.040992085 0.112008296 -0.057614602 0.13570918
0.09848176 -0.1917276 -0.026536893 -0.03638337 0.13710639 0.13479297 -0.07893399 -0.10709631
0.07977521 0.12935302 -0.09202134 -0.08903342 0.045933127 0.11970348 0.02555613 0.046265226
-0.1301692 -0.10972101 -0.10813882 0.10403757 0.0894033 -0.017616523 -0.053593844 0.17205752
0.17213418 -0.07435309 -0.10669891 -0.065525636 0.047754448 -0.052025303 0.12925126 0.03430774
0.09868128 0.028734082 0.057592325 0.057101738 0.15279363 -0.07485687 0.14323683 0.02403111
0.13558581 0.00013769946 0.067312516 0.1317519 0.27433765 0.16260071 -0.15003748 0.0060672923
-0.114324644 0.12651746 -0.04348016 -0.19630998 -0.09854005 0.06375902 0.041271903 -0.064479575
-0.013706811 0.03947791 -0.099580385 0.015259998 0.07649625 0.141421 0.16648112 -0.0884297
0.18184456 0.065556765 0.13357224 -0.06651547 0.092253014 -0.089582026 -0.073325135 -0.00012234043
-0.2267883 -0.09651107 -0.08065206 0.12580271 0.04316483 0.02332114 0.06528906 -0.17642683

rnn.weight_hh_l0 f4 [32, 32]
00000000: c3e7 d7bd b22c 183e 8302 25be 6227 a33d
00000010: d05e 59bd 6116 233e a6a3 16be 5986 013e
00000020: 9731 41bd cf04 403d 238a 0d3d 99b2 de3c
00000030: e569 2a3e 4a57 13be 5c31 19bd 6807 d8bc
00000040: 2c9a e1bd 7c76 8fbd 70bc 85bc 5005 66bd
00000050: c5d5 17bd 3b71 1cbe 9768 353e 229d 4f3c
00000060: 928e 1ebe 03a3 fe3d e9ad 9c3d 0341 fe3d
00000070: 14ce 073e dcfb d13d ba22 d33c 2502 1abe
00000080: f73b 6bbd b205 9cbd e578 fdbb f6f9 d3bd
00000090: 0a81 d1bc 2fdf d73d ffac 48bd 2db4 26be
000000a0: 4523 e0bd 78aa 2d3e bc4b 93bd 7ec5 983d
000000b0: 4769 da3d 5f19 4f3e 9ac1 363a bc09 763d
000000c0: d28e e33d ac31 65bc 4f6b 493d 12fd 2d3e
000000d0: 4b59 f83d 37e6 6abd 2677 afbd 7e36 42be
000000e0: 3011 17be f833 023e a490 b7bd f0b4 ff3d
000000f0: 0773 583d 7684 18be 4b00 163e 1382 e63d
00000100: 576a 00be 45fc f83c d756 9f3d db54 273e
00000110: 7705 143e 3f23 d9bd d9c3 c33d a52c cbbc
00000120: e699 8dbd c01c b43d fa33 23bd 7837 b5bd
00000130: a2a2 0e3e cce4 f93c e8b1 173e 4113 68be
00000140: 6647 20be 7c8f 403d e3d2 1abe 2d45 17be
00000150: ea06 0ebd 4074 863d a41c 04be f7be 573e
00000160: c389 9d3a 5d55 afbd 6619 bfbd 536e 163e
00000170: 8471 03be 3c3c e93d a478 d33d 3626 99bc
00000180: f879 233d 61d6 67be e778 ea39 807d 803d
00000190: 8d20 e1bd dfbe 56be 0a74 0d3e 186f 553e
000001a0: aff0 1a3e 77bb e23d 4a34 bfbc cbbe 01be
000001b0: 5f3b 95bd 78ce 03be 70b5 d73d 1613 dfbd
000001c0: 79db c0bd 3a0e 06bc 0f29 aabd 2f61 88be
000001d0: a94e a53d 4165 713b e464 45be 89db 123e
000001e0: 2695 c23c 440e 06be 6f3d df3d 3e67 003d
000001f0: f1fa 51be 2bb5 883e 2c98 27be 85a7 713e
00000200: bd12 0ebd ab8d 4d3c bdb1 e9bd d9d2 7dbd
00000210: cf13 a83d f2a3 3abe 7399 2ebd 0823 123d
00000220: 0b6e ed3d 62b8 e7bd d6dc cd3d 6a72 223e
00000230: 73e5 6abd c08d d03d c438 e3bd 4cb4 c53d
00000240: e9a7 eabd 82ee 61bd 1b0c a0bd a74f 15be
00000250: 1a29 bd3d 7626 29be 5bdc f63c 9111 d9bd
00000260: abad 0d3e 97d5 52bd c6c3 ea3d e3a1 56be
00000270: ba1a a2bd 31c6 e03d 694f f8bd c301 0ebe
00000280: 7d31 0c3e ec64 0a3e a8eb 6fbd d147 c73d
00000290: 5d5c e5bd 3baf 093e 3e08 28be 064b 533c
000002a0: 474d 02be d208 2ebc 3914 c23d 660d 23be
000002b0: 5517 0dbe 2489 4ebe b214 c73c f935 b03c
000002c0: fbd2 a7bd 9276 073e 95e2 c2bd 8de5 febd
000002d0: 70bc b73d 7cc8 fdbd 2aec f9bd bad8 25be
000002e0: a7ae 37bd d8fe c4bd 597a 803d fe91 41bd
000002f0: 0806 bdbd 43e5 14be 914e e6bd ae80 1bbe
00000300: 89a9 9f3c 3c83 9cbd edd9 a53b 6e8a 323e
00000310: 8177 1fbe 6658 aa3d 2a08 32bb f9d9 26bd
00000320: 69da b73d fde9 fb3c e475 fc3d a296 d2bd
00000330: 08be 25bd 30ac deba 0592 dfbd 3c02 873c
00000340: 54b3 c3bd a42f 3dbe 47b2 16be a3f1 fcbd
00000350: d8e7 b43d 3747 0c3d c398 ce3d 27f6 6d3d
00000360: be4e 1ebe 549c a63c 7063 5d3d f597 b8bc
00000370: 5bd1 7b3d 525f 1cbe 304c 1f3d 770c a23c
00000380: 666d f8bd 6f44 d2bc 7735 063e 7cb9 68bd
00000390: 0365 063e cbd2 a7bd 9d86 a03d 7128 19be
000003a0: da07 ce3d fd1b 35be 1aba 353e 17cd aa3c
000003b0: f011 163e 4622 053e 3507 41be f5b7 e9bd
000003c0: f0a2 0c3e 7b96 1bbe 8fb9 1fbe d0a0 ca3c
000003d0: 6976 f2bd dd47 123e 934a 803e b4ae b73d
000003e0: bb34 05be c559 90bd f44b 523d 1c19 0b3e
000003f0: 3ba7 9ebd a2ad 7a3d 0605 6dbd ebaf 07be
-0.10542252 0.148608 -0.1611424 0.07966496 -0.053068936 0.15926506 -0.14710864 0.12648906
-0.047166433 0.046879586 0.034555566 0.027184771 0.16641958 -0.14388767 -0.03740059 -0.02637072
-0.11015734 -0.07005021 -0.016325206 -0.05615741 -0.0370691 -0.15277569 0.17715679 0.012671741
-0.15484074 0.12433436 0.07650358 0.12414744 0.13262206 0.102531165 0.025773395 -0.1503988
-0.057430234 -0.07618274 -0.007735359 -0.10350411 -0.025574226 0.10540616 -0.048993107 -0.16279669
-0.10944227 0.1695956 -0.071921796 0.07459544 0.10664611 0.20224522 0.0006971598 0.060067877
0.11111225 -0.0139888935 0.049174603 0.1699107 0.12126406 -0.057348456 -0.08567648 -0.189661
-0.1475265 0.12715137 -0.08963135 0.12485683 0.052844074 -0.1489428 0.1464855 0.112552784
-0.12540565 0.030393729 0.07780235 0.16340964 0.1445521 -0.10602426 0.09558839 -0.024801562
-0.069141194 0.08794546 -0.03984449 -0.088484704 0.13929227 0.030504607 0.1481396 -0.22663595
-0.15652236 0.047011837 -0.1511951 -0.14772482 -0.034674563 0.06565142 -0.1290155 0.21068941
0.0012019206 -0.08561204 -0.09331016 0.14690523 -0.12836272 0.11388442 0.10325745 -0.018694978
0.03991124 -0.22640373 0.00044722037 0.06273937 -0.10992537 -0.20971249 0.13813797 0.2084316
0.15130876 0.11070912 -0.023340363 -0.12670438 -0.07286715 -0.1287173 0.10532653 -0.10892312
-0.09416861 -0.008182103 -0.083086126 -0.26636645 0.08071644 0.0036834034 -0.19276768 0.14341559
0.02375276 -0.1309138 0.109003894 0.03134846 -0.20505883 0.2670072 -0.16366643 0.2359906
-0.03468584 0.012545983 -0.11410854 -0.061968658 0.08206903 -0.18226603 -0.04262681 0.03567794
0.11593255 -0.11314465 0.10051887 0.15863958 -0.057347726 0.10183287 -0.110948116 0.096535295
-0.114578076 -0.0551591 -0.07814809 -0.14581166 0.09236355 -0.16518578 0.03013437 -0.10599054
0.1383578 -0.051473226 0.11463122 -0.20960192 -0.07915254 0.10975302 -0.12124521 -0.1386786
0.13690753 0.13515061 -0.05857435 0.09730495 -0.111992575 0.13445751 -0.16409394 0.012896305
-0.12724791 -0.01062222 0.094765134 -0.1592308 -0.13778432 -0.20169502 0.02430186 0.021510111
-0.08194538 0.13228825 -0.09515873 -0.12446127 0.089714885 -0.12391755 -0.12203248 -0.16195956
-0.044844296 -0.0961892 0.06273336 -0.04725837 -0.09229666 -0.14540581 -0.11245454 -0.15185806
0.01949002 -0.076422185 0.005061379 0.17435619 -0.15572931 0.08317642 -0.002716551 -0.04073522
0.08977205 0.030751223 0.12327173 -0.10282637 -0.04046443 -0.0016988572 -0.10916523 0.016480558
-0.095556885 -0.18475205 -0.14716445 -0.12350776 0.08833283 0.034247603 0.10087731 0.058096077
-0.15459725 0.020338215 0.05404991 -0.022533396 0.061478954 -0.15270737 0.038891017 0.019781334
-0.12130241 -0.025667397 0.13106333 -0.056817517 0.1312447 -0.081945024 0.078381754 -0.14956833
0.10060091 -0.17686458 0.17746773 0.020849748 0.1465528 0.13001356 -0.18850406 -0.1141204
0.1373403 -0.15194122 -0.15598129 0.024734885 -0.11838991 0.14285226 0.25056896 0.08968869
-0.13008396 -0.07048372 0.051341966 0.13583797 -0.077467404 0.061200745 -0.05786612 -0.13250701

rnn.bias_ih_l0 f4 [32]
00000000: f1af 063d 2d93 c8bd 2eaa d33d cb95 4f3d
00000010: 201c 58bc 2d2a 943c 8eca 1d3d 866b ffbd
00000020: 07f7 a83d d154 4cbc 3d79 c43d d2e8 bf3d
00000030: 6e4a 0bbe f0cf 113d 57da e5bc 4224 1f3e
00000040: 8882 d4bd f96a 113e 3469 48bc 6fdb 103e
00000050: 7d8c 313d 7825 03be 40fc 8bbc f4c4 e1bd
00000060: 8616 953d d459 653d 5ce3 f83d 49a8 05be
00000070: cfc6 7eba 358f 7aba dd23 333e beb8 383b
0.032882635 -0.097936966 0.103351936 0.050679963 -0.013190299 0.018086517 0.03852325 -0.1247168
0.08250242 -0.012471394 0.09593437 0.09370579 -0.13602611 0.035598695 -0.028058214 0.15541175
-0.10376459 0.14200963 -0.012232114 0.14146207 0.04334687 -0.12807262 -0.017088056 -0.11023894
0.07279687 0.05599387 0.1215274 -0.13052477 -0.0009718956 -0.00095580827 0.1749415 0.0028186287

rnn.bias_hh_l0 f4 [32]
00000000: db00 19be 06d7 d43d 0163 3abd d1e6 31be
00000010: 3eab 153d 83f6 41bd a502 18bd 0220 95bd
00000020: 8fce 11be 55f1 ad3d d799 3e3e 9cdf 06be
00000030: 69ec 063e dfc9 44bd 9855 04be 7dec 90bd
00000040: 9714 383e 6532 4e3e 41b9 0fbe c686 dcbd
00000050: 1eb4 2f3e 4f1c 253e 48cb a9bd e0f9 48be
00000060: 6042 233e a442 773e ddd2 49bc bcfe ce3d
00000070: 561f 7abd 4bb7 0f3e d298 933c 8eb7 e7bd
-0.14941733 0.10392575 -0.045504574 -0.17373206 0.036540262 -0.047354233 -0.037111897 -0.07281496
-0.14238952 0.08493296 0.18613373 -0.13171238 0.13176121 -0.04804408 -0.12923276 -0.070763566
0.17976604 0.20136411 -0.14035513 -0.107678935 0.17158553 0.1612408 -0.08290726 -0.1962657
0.15943289 0.24146515 -0.01231834 0.101071805 -0.06106504 0.14034764 0.018017206 -0.11314307

fc.0.weight f4 [32, 32]
00000000: ff41 8ebe 80c3 ae3d 0d7c 48be d39a 9ebe
00000010: ced6 593e 52f3 b23d 7ec4 033e 7c98 c1bd
00000020: 6d33 dabc 211b cd3c 204f 943d ec67 0e3e
00000030: 0ca0 0d3d 6436 f5bd b515 723e 388a 33bd
00000040: 2141 8b3e e445 b9bd ea5b 2ebe f9e6 62bd
00000050: fbf3 243e ea77 e6bd ed30 19be 10d2 09be
00000060: c069 26be 7c7c fe3e c70f 653e 25e0 4f3e
00000070: 1211 c8be 2b2e 1fbd 5ddd 173e e3a4 473e
00000080: 2f3c 10be 20fc 30be df52 38be a191 21be
00000090: 63e5 ecbc 7b47 593d bb66 0b3e b360 5ebe
000000a0: 5885 e73e 8344 16be d1d7 0ebc f4db b7bc
000000b0: ed88 64bd a45e 173e e6da 2d3d 51df 473e
000000c0: 5bcf 23be 4392 3dbd 1ccf d13e 819e e9bd
000000d0: 911e d5bd dbff 883e 594d 253d 9ab9 533c
000000e0: 48d4 30be a4ba 91bd b0a5 6f3e 94a6 01be
000000f0: 6b29 4ebe 62a5 febd d13e 12be c932 d4bd
00000100: 983b 133d 8da2 39bc 80bd 043e 738f 9b3e
00000110: a02d 6abd 3d4f 3b3d 5b56 fcbc 540c 403e
00000120: 78a4 3c3e 8f9b 123d eb74 4b3e 5fbf 14be
00000130: 3484 08bf ff71 a13d c84c 70bd 8394 33be
00000140: 96c2 f43d 3800 d63d de26 1d3e 2387 d3bd
00000150: 49cc a6bd 9b51 803d c148 efbd d4fc 8ebc
00000160: 5f98 a3bd 9d2d c33e c7b2 6fbe b474 a93d
00000170: f2c8 2ebe 9d68 be3e c7ce 1cbd c2b0 7bbe
00000180: 6d5b b03e c521 6f3d 94bd 87be a300 29be
00000190: b0e1 d53e b776 0abe d8ea cbbe 3a5c 543e
000001a0: ebf2 ffbc 6d1f 823d f48c fc3d 03b9 21be
000001b0: 3c8a 773b 31cc 16be 53e4 af3c 7f1c 41be
000001c0: d066 623e bd02 313d 7e3f f63d dbb5 40be
000001d0: 21fc 1a3e 8d04 ebbc 300e 323d 2527 69be
000001e0: ab76 803d 3f09 27be 1ae5 09be 0b93 8abe
000001f0: 0d4b 86be deb5 12bc 2849 66bd 05ae b1be
00000200: a9f0 7cbd 3722 cd3c 4ec5 40be 5d6a f33e
00000210: 467f 883d 60b7 febd 6351 afbd 0491 04be
00000220: 7989 2ebe 660d f43c 7522 e3bd 1bbc 6c3e
00000230: 7958 023e fd43 bdbc 5a36 9a3c 2d8f 10be
00000240: b0f8 69be 090c ab3c 65af c8bc c14a 24be
00000250: 9a9c 38be ce75 12be 36a9 72be 4b08 dfbc
00000260: ef45 47be cc1c 00be 7002 a7bd 89af 053e
00000270: 508a 27be 9482 a2be e10d d1be f94d 88bd
00000280: 641f 53be a9e5 a0bd 31f3 95bd 817a 903d
00000290: 203c 353d 3ae1 a93e cfb9 9fbe c416 46bd
000002a0: 3a92 193e 309c 98bd 317b 493e a0df d7bd
000002b0: 8704 d83e 701a 16bf f018 bbbd 645e b8bb
000002c0: c455 b43d 12d3 063c 34bc 1e3e 4b68 af3e
000002d0: 7f86 da3c c350 d7bd 464f cbbb 91a5 803e
000002e0: 048d 803d dd2c 113e 9a7d b33d 8e60 523e
000002f0: bbaf fc3d 8605 773e d472 17be fda5 46be
00000300: ebcb 273d 6a98 003f 6d30 823e 0a2a 833d
00000310: a732 a7bd 6db9 2fbe 6a0e 263e 7de5 063e
00000320: 8147 313e 2b72 ad3d 8652 893e bdbf 093c
00000330: e4a0 cd3e 21f2 9bbd 6d37 bb3d 4253 34be
00000340: 7750 e33d 869c f0bd 38d6 143e ab47 0fbe
00000350: f701 9f3e e03f 293e 607b 3fbe 2d80 8d3e
00000360: 1a2a 58bd 0dc2 bdbc 7758 3e3d c506 a9bc
00000370: 35f2 18be 4ee5 1abe 78f2 8ebd 6be7 44bc
00000380: c73b a73e 444e d1bd 5a7a 4bbe f272 163e
00000390: e7e7 2bbd 2354 be3e 2af0 0e3e 13e1 69be
000003a0: 7cda 4a3e 70a4 cf3d e947 29be b336 303e
000003b0: fb76 a5bd 2e5c 0abe 1766 ea3e ad93 1bbe
000003c0: 84ec 0b3e 758a 663e 5a45 df3c a244 c63d
000003d0: a860 9d3d 6ce9 513e 4fb1 abbe b753 553d
000003e0: 2603 0a3d 2c72 e4bc 8d44 17bc 6886 2dbe
000003f0: 0dc3 203e f79a 54be 720d 90bd bb3c 133e
-0.27784726 0.085333824 -0.19578572 -0.30977497 0.21273348 0.08737816 0.12867925 -0.09452912
-0.02663585 0.02503735 0.072416544 0.1390683 0.03457646 -0.11973265 0.23641093 -0.043832988
0.27198127 -0.09046534 -0.1702725 -0.055396054 0.16108696 -0.112533405 -0.1496007 -0.13459039
-0.16251278 0.4970435 0.223693 0.20300348 -0.39075524 -0.03886239 0.14830537 0.19496493
-0.14085458 -0.17283678 -0.18000363 -0.1577821 -0.028917974 0.053046685 0.13613407 -0.21716575
0.4521892 -0.14674573 -0.008718447 -0.022443749 -0.055794645 0.14782196 0.042445086 0.19518782
-0.15997069 -0.046282064 0.40978324 -0.11407185 -0.10406221 0.26757702 0.040356968 0.012922669
-0.17268479 -0.07115677 0.23403049 -0.12661201 -0.20132987 -0.12433888 -0.14281775 -0.10361249
0.035945505 -0.011330259 0.12962914 0.3038288 -0.057172418 0.045729864 -0.030802896 0.18754703
0.18422115 0.035792883 0.1986882 -0.14526127 -0.53326726 0.07883071 -0.058666974 -0.17537121
0.11951177 0.104492605 0.15346858 -0.1032851 -0.08144433 0.06265565 -0.116837986 -0.017454542
-0.07988047 0.38120738 -0.23408042 0.082742125 -0.17068842 0.3718919 -0.038283136 -0.24579147
0.34444752 0.058381815 -0.26511824 -0.16504149 0.41773748 -0.13521849 -0.3982761 0.20738307
-0.031243762 0.0635365 0.12331572 -0.15793233 0.0037771603 -0.1472633 0.021471178 -0.18858527
0.22109532 0.043215502 0.12023829 -0.18819372 0.15135242 -0.028688693 0.04347056 -0.22768839
0.06272634 -0.16312121 -0.13466302 -0.2706531 -0.26229134 -0.008954493 -0.05622211 -0.3470308
-0.06175295 0.025040729 -0.18825266 0.47542086 0.066649005 -0.1243732 -0.08560445 -0.12945944
-0.17044629 0.029791545 -0.110905565 0.23118632 0.12729062 -0.023103708 0.018824745 -0.14117117
-0.22848773 0.020879762 -0.024497697 -0.16044141 -0.18028489 -0.14302751 -0.23697361 -0.027225634
-0.19460271 -0.12510985 -0.08154762 0.13055243 -0.16361356 -0.31740248 -0.408309 -0.06655497
-0.20617443 -0.07856304 -0.07321776 0.07054616 0.044246793 0.33179647 -0.31196448 -0.048361555
0.14997187 -0.074516654 0.196759 -0.105407 0.42190954 -0.5863409 -0.09135616 -0.0056264866
0.08805421 0.008229034 0.15501481 0.34259257 0.02667546 -0.10513451 -0.0062045185 0.25126317
0.062768966 0.1417727 0.08764191 0.20544645 0.123382054 0.24123201 -0.14789897 -0.19399257
0.040965956 0.50232565 0.2542757 0.06404503 -0.08163958 -0.17160578 0.16216436 0.1317348
0.17312433 0.084690414 0.26820773 0.00840753 0.40161812 -0.07614542 0.09141431 -0.17609885
0.11099332 -0.117486045 0.14534843 -0.13992183 0.31056187 0.16528273 -0.18699408 0.27636853
-0.052774526 -0.02316382 0.046471085 -0.02063311 -0.14936145 -0.15126535 -0.06979841 -0.012018065
0.32662794 -0.10220006 -0.19870892 0.14692286 -0.041969206 0.37173566 0.13958803 -0.22839765
0.19809908 0.10138786 -0.16531338 0.17208366 -0.08079334 -0.13511726 0.45781013 -0.15193053
0.13664442 0.22513755 0.02725475 0.096810594 0.07684451 0.204992 -0.33533713 0.05208179
0.03369441 -0.027886473 -0.009232652 -0.16945803 0.15699406 -0.2076224 -0.070338145 0.14378636

fc.2.weight f4 [2, 32]
00000000: 4399 91be ce1a 6f3e a1bc 903e c927 27be
00000010: 6e95 a0be 038e 893d 1e37 7bbe 4ecd cabd
00000020: af7e a0bd 701a b4bd 4769 d1bd b39b d8bb
00000030: fa29 18be ea8d 613e 7395 643e 1eef 8c3e
00000040: 1900 51be 7628 5bbe 7d23 b6be d19d 613e
00000050: 8a71 db3e da71 6abe 063a 843e 2c22 9c3d
00000060: cbff 5b3d f7ea cabc b5d8 16bd b840 52be
00000070: de37 aebe 47de f5bd b784 3c3e bca7 33bd
00000080: bb3d 5cbe 89e8 e63e 6afa d3bc 9f8b 8e3d
00000090: b740 043f c808 783e 8a7c 903e 04bd 1a3e
000000a0: b4f0 9f3e d42c 6f3e c0bb 14be 559d ebbd
000000b0: 9097 68be e26d 233e 1d03 1c3e dd80 0b3e
000000c0: d402 12be e240 44be 8be8 213e b018 dcbd
000000d0: 5c2d 6c3c 3e77 07be eff8 733e 6c4a dfbd
000000e0: 10ba 49be 9334 963e d774 8cbe fe40 cc3b
000000f0: 6f7f 123e eae0 8a3e ae84 803d f105 b8bb
-0.28437242 0.23350069 0.28268912 -0.1632377 -0.31364006 0.0671654 -0.24532744 -0.0990244
-0.07836663 -0.08794105 -0.10225158 -0.0066103577 -0.14859763 0.22026792 0.22322635 0.27526182
-0.20410194 -0.21402153 -0.3557395 0.22032858 0.4286006 -0.22894993 0.25825518 0.07623705
0.05371074 -0.024770243 -0.03682776 -0.205325 -0.34026998 -0.12005287 0.18410002 -0.043861136
-0.21507923 0.45099285 -0.025876243 0.06960224 0.51661247 0.242221 0.28220016 0.15111166
0.3123833 0.23356944 -0.14524746 -0.11504618 -0.22714067 0.15959886 0.15235563 0.13623376
-0.14258891 -0.19165376 0.15811364 -0.10746896 0.014415111 -0.13229081 0.2382543 -0.10902867
-0.19699883 0.29336986 -0.27432892 0.0062333336 0.14306425 0.2712472 0.06275307 -0.0056159426

ode_net.grad_module.0.weight f4 [32, 37]
00000000: afc4 33bd be7e 82bd a616 83bd 7240 3abe
00000010: 574b 20be 04cb f83d fdd9 a0bd eb26 203e
00000020: e9e1 dbbd c4ed 413d ed37 263e dddb c7bc
00000030: c7b0 a2bd 4faa af3d e75a 393e 7c11 233c
00000040: d42f 063c 80c8 1fbe ebd0 c73d 4a21 973d
00000050: 2dd9 c8bd 8357 f1bb 78f3 983d ac0d ecbd
00000060: d52f 6ebc c7ea b0bd 9022 2cbe 271e 523d
00000070: b52a e23d 4dd8 4b3b 33ed a3bc 32d1 26be
00000080: 93e9 4abe fcb5 cfbb ee57 f63d 2c0d 043e
00000090: afba 0abb 0045 49be a446 db3d 885e 013e
000000a0: 842f 0bbe cce5 183d 8c9b 82bc 1379 da3d
000000b0: 824c febb 8c4a 46bc 4699 063e 6550 b8bd
000000c0: 6d3c 043d b845 a33c 2a0b 12be 68d0 3a3d
000000d0: 9067 96bd c1ed 0d3e 4512 42bd 19d4 88bd
000000e0: 6d49 e7bd 1373 a43a 114c 553e ecd3 263e
000000f0: 240a 13be 247c ca3c b384 013e ad01 983b
00000100: e10c a9bd 4cee 8a3d a625 6e3d fa3e 353c
00000110: 6cca 6abc 5863 6f3e 1d66 a4bd 69d9 193e
00000120: 6d48 fb3d 2866 883d 0e4a 43bd b8b6 0a3e
00000130: 3648 1e3e 4166 20bb bc31 2b3e c5ed d9bd
00000140: 2df8 fa3b ae23 ecbd 661b aa3d 46f8 c2bd
00000150: 035a a33d 1025 16be dccc a03d 5bb5 99bc
00000160: 719b e13c 7b29 343e 40da 8a3d e2bc 2abe
00000170: 3c35 e4bc eb83 29be d729 1bbe 17be 99bc
00000180: d218 e13b a35d 2f3b 7d87 0ebe 46e1 27be
00000190: 083a f6bc ddc0 e1bd 7199 f93d 9e58 5e3d
000001a0: dc12 ffbd 8844 29be 11ec 953d 1fed 2f3e
000001b0: 5657 be3d 5c0c 9cbe f6af 03bd cbbf 9d3c
000001c0: fe67 213c 1ad6 463d 96d0 4cbd c962 5f3d
000001d0: c186 e73c d1bc 1abd d31a 743d bd22 28bc
000001e0: f71b 1bbd 68f9 313e 1bfe a8bd 7ffc 0f3e
000001f0: d0be 41be b65e c4bd 128a bc3c 62bc 09be
00000200: c42f 95bc 0498 403e 4672 7dbe dcaa 16be
00000210: 7598 b3bd f8c3 71bd 2b07 a0bd f04a 11be
00000220: eba7 ec3c ea1a 2fbd b37e a5bd c1dc 97bd
00000230: 6a2f b3bc 329c 29bd 2405 2cbd 7fcf 39be
00000240: a5b9 2d3e 660a ce3c 8c26 b53e 5e4c c1be
00000250: eff7 0d3e a14a dc3d 53b9 673d 9723 773d
00000260: 38f1 4f3b e5d4 bfbc 7657 273e 2fe9 1abe
00000270: 7510 f13d 38eb 983c 614d 263d a499 4cbc
00000280: 779e 2abe 6fe3 44bd 4bb2 12be 1e25 bdbd
00000290: 42c9 ec3b 7779 bf3d bc7b 8cbc 176b 9f3b
000002a0: ae56 843d feb8 c03d 8687 483d 68bf 1f3d
000002b0: 6b89 11be 10b9 0bbe 609a 0fbe 30d1 663d
000002c0: e406 d43d 0087 c0bb 8260 b6bd 2593 9abc
000002d0: 4f10 4e3e b9ab 733b 6cf4 3dbe 176e 8c3b
000002e0: 4b6a babd d237 2d3d dc9d 9fbd 8757 fa3d
000002f0: 304f 3dbe 9a17 133e 88c5 f7bd a621 a6bd
00000300: e113 cd3d 9a7f 30bd 4098 4dbd f962 75bc
00000310: 12e1 a33c f151 ce3c 7d93 43bc 4c7d 523e
00000320: 267c f1bd 058b a1bc 12c0 0b3e 2096 7abd
00000330: 9dfc a43d 63a7 cebd af40 ac3b 64df babd
00000340: a512 24bd dd34 be3d fb11 75bd c825 5abd
00000350: 1a4e cb3c c27a 103e e766 c1bd 7885 cbbb
00000360: e5eb 1c3d 5046 ea3d fd5c ebbd f7eb 32be
00000370: 0d36 12be 240c 87be 04ee 01be eb86 983d
00000380: 8fbe bcbd f26a 323d 506f 343d eec9 16be
00000390: 35f6 0bbe c85b 213e e142 123e 840d 9abd
000003a0: f0bf c8bd 5180 0cbd 07b6 2abd 91b4 25be
000003b0: af80 b63d 4ff7 afbc 6bb3 0f3e 3f8f 463d
000003c0: 6917 693d 0667 ec3d 8dc1 cb3d 9875 c9bd
000003d0: 8ca8 7f3d 366b 42bd aecd e93d b0c4 bbbd
000003e0: fd4d 16bd a5b3 1ebe cc62 fb3d fa48 0ebd
000003f0: 5963 31be fe61 00be 685b 223e 05cc 09be
-0.043888744 -0.063718304 -0.06400804 -0.18188646 -0.1565374 0.12148097 -0.07854078 0.15639846
-0.10736448 0.04734589 0.16232271 -0.024396831 -0.07943874 0.08577406 0.18101083 0.009952899
0.008190114 -0.15603828 0.09756645 0.07379396 -0.09807048 -0.0073651685 0.07468313 -0.11526045
-0.014537771 -0.0863853 -0.1681006 0.051298287 0.11043302 0.0031104267 -0.020010566 -0.16290739
-0.19815664 -0.006338833 0.1202849 0.1289565 -0.00211684 -0.19655228 0.10706833 0.12633717
-0.13592345 0.037328526 -0.015943311 0.10667624 -0.0077605853 -0.012102734 0.13144407 -0.08999709
0.03228419 0.019930705 -0.14262071 0.045608908 -0.07343972 0.13860227 -0.047380704 -0.066810794
-0.11293302 0.0012546502 0.20829798 0.1629178 -0.14359337 0.024717398 0.12648277 0.0046388716
-0.082544096 0.06783733 0.058141373 0.011062378 -0.014330488 0.2337774 -0.08027289 0.15024342
0.122696735 0.0666011 -0.047678046 0.13546264 0.15457234 -0.002447501 0.16718191 -0.10641054
0.0076589794 -0.11530243 0.08306007 -0.09520011 0.07976153 -0.14662576 0.07851574 -0.018763235
0.02753994 0.17593949 0.06779909 -0.16673616 -0.027857415 -0.16554229 -0.1515268 -0.0187674
0.006869414 0.0026758693 -0.13918872 -0.16394529 -0.030056968 -0.11023114 0.1218747 0.05428373
-0.12454769 -0.16530049 0.07320417 0.17180298 0.09294002 -0.3047818 -0.03215023 0.019256493
0.009851454 0.048544027 -0.05000361 0.05453757 0.028262498 -0.037777726 0.059595894 -0.0102621885
-0.037868466 0.17380297 -0.08251592 0.14061163 -0.18920445 -0.09588377 0.023015056 -0.13450769
-0.018211253 0.1880799 -0.24750623 -0.14713615 -0.08769313 -0.05902478 -0.07813867 -0.14188743
0.028888663 -0.042750277 -0.080808066 -0.07415152 -0.021873195 -0.041408725 -0.04199709 -0.1814556
0.16965349 0.025151443 0.3538097 -0.37753576 0.1386411 0.10756422 0.056573223 0.060336675
0.003172947 -0.023416946 0.16341957 -0.15128015 0.11770717 0.018666849 0.040601138 -0.012487803
-0.16662012 -0.04806846 -0.14325826 -0.09235595 0.0072261402 0.093493395 -0.017148845 0.004865061
0.06461845 0.094102845 0.04895737 0.0390009 -0.14212577 -0.13644814 -0.14023733 0.05635184
0.10352877 -0.0058754683 -0.08905126 -0.018868992 0.20123409 0.0037181212 -0.18550271 0.0042855847
-0.09102305 0.042289563 -0.07793781 0.12223726 -0.18487239 0.14364472 -0.12098223 -0.08111887
0.10013557 -0.04309044 -0.050194025 -0.01497721 0.020004783 0.025185557 -0.011937019 0.2055561
-0.117912576 -0.01971961 0.13647488 -0.061178327 0.08055995 -0.1009052 0.0052567343 -0.0912464
-0.040056843 0.092874266 -0.0598316 -0.053258687 0.024817515 0.14109328 -0.09443455 -0.006210979
0.038310904 0.11439192 -0.114923455 -0.17472826 -0.14278431 -0.2637645 -0.12688452 0.074476086
-0.09216034 0.043559022 0.04405147 -0.14725468 -0.1366814 0.15757668 0.14283325 -0.07522109
-0.09802234 -0.03430206 -0.0416775 -0.16182162 0.08911263 -0.02148023 0.14033286 0.048476454
0.05690709 0.11543088 0.09949026 -0.09836882 0.0624166 -0.047465526 0.114161834 -0.091683745
-0.03669547 -0.15498216 0.122747034 -0.034737565 -0.17323054 -0.12537381 0.15855181 -0.13456734

ode_net.grad_module.0.bias f4 [32]
00000000: c9b4 a73d 1278 d73d f692 233e 6152 04be
00000010: 8841 81bd 2df4 b33d ee2d 433d 8b11 093e
00000020: 4a43 29be cd55 253e 0d86 08bd 0253 b83d
00000030: 9b72 db3d c7c5 d83d 7cc0 e13d 47bf 2ebe
00000040: 0fbd 933d 0678 8cbb 8aae 74bd ac6a a53d
00000050: 3b8a ae3d 863b efbb 73c9 0bbd cb1e 763d
00000060: 5965 a7bb bb75 233e fc3b b13d 00b5 1abe
00000070: dd72 db3c 1282 093e 9ead e83d 487f 433e
0.08188779 0.105209485 0.1597403 -0.1292205 -0.06311327 0.08786807 0.047651224 0.13385598
-0.16529575 0.16146012 -0.033330966 0.090002075 0.10715219 0.10584598 0.110230416 -0.17065154
0.072137944 -0.004286769 -0.059736766 0.08076987 0.08522459 -0.007300797 -0.034127664 0.06008796
-0.005108517 0.1596288 0.08654019 -0.15108109 0.02678817 0.13428524 0.1136124 0.19091523

ode_net.grad_module.2.weight f4 [32, 32]
00000000: 4ec9 163c 7fa5 33bd c0b5 cf3d 3abc 4dbe
00000010: a499 04be 52fa 423d 5d86 c73b 928d c0bd
00000020: f8c4 1c3e b7a9 0f3c cb3d 123e 4fd0 0abe
00000030: 5e99 253e c746 91bb a829 653e 3bdc 023e
00000040: a751 953d 13b1 2f3e 3501 143e 3b51 01bd
00000050: 8deb 063e 9a50 4d3d db88 35bd 9a10 ac3d
00000060: 848f 9fbc 815c 1fbe 3d23 fb3d 786e 69be
00000070: 8368 693c 789d 083d cbbd 873d 9c34 1b3e
00000080: 12b8 053e 6d55 25bd 557b 18bd 3ea4 853d
00000090: 09b4 2dbe 3b53 30be d430 f8bd f6b2 eb3d
000000a0: accf 1fbe 71eb 02be 4779 debd 3e77 aa3d
000000b0: c4ae f03d 9a25 c2bd 7353 0abd 6836 c33d
000000c0: 8efb 0fbd 76d7 a13d efff ce3d 6a8d 12be
000000d0: 3c2d 15bd cb2e 2c3e 6fac e2bd dff2 1d3e
000000e0: 1210 bd3d 40ef 0abd b71a 8cbc b664 203e
000000f0: 7b13 c4bd 65f3 07be b093 843d fade 91bd
00000100: 42ab dc3d f8a1 47bc 0454 38be 4529 173e
00000110: c03d 773d 4103 5ebe 0022 d5bd 7d71 eb3d
00000120: ee48 743d 80ef e53d b4b6 0ebe 4d62 05be
00000130: 1d18 f8bd 3cbb f93c 3b3e 1d3e 848e c9bd
00000140: 78e2 903b 4982 26bd f473 6d3e 6597 c1bd
00000150: 77e2 133d 7e23 57bd 60dc a1bd b18b 3cbe
00000160: 0dc3 e13c 7491 2a3e c6d2 dfbd f8b9 123e
00000170: 79c0 9a3d 3424 d43d 5371 193e c36b 87bd
00000180: 9216 693e 02a5 4ebe 93ba 9bbb 646d 77bd
00000190: c936 a3bd e848 013e 394e 87bd 51fe 0e3e
000001a0: 86de 32be 5891 2b3e c4b8 93bc 5987 ff3d
000001b0: 655c 1abe fb4e 6fbd 53f7 afbd 255d 8c3c
000001c0: d720 74bd 7b98 f5bd 4790 0fbe ae86 f3bc
000001d0: 8ff8 adbd 6cc2 13be 3c2c 6cbd 4930 ce3d
000001e0: 8dae 71bc 8c8d 5a3d efe1 803d 33cb 003e
000001f0: da36 1e3e 8691 cbbd ca05 10be 08e7 053e
00000200: c74b 60bc eda5 2abe c6b6 613d bacf bc3d
00000210: 7783 1c3e f626 4c3d 7e22 9fbc ce29 21be
00000220: c350 2cbe c363 8c3d 9026 56bd a13c 57bd
00000230: ebe3 c03d 0408 b23c 3894 e5bd d283 4a3e
00000240: 2b53 cf3b 53ea 983d 1446 903c 7bd6 293e
00000250: 7586 07be c097 703d 2c5e 39be 181c 6f3d
00000260: b476 d1bd 890c 833b 5596 ae3d 7c82 69bd
00000270: c14a b93d f7fa 6f3c 2cda c33a 34cd c8bc
00000280: 7628 2bbe 5a49 373e 375c ff3d 731d 373d
00000290: e984 43be 95af 853a b06e 0c3e 8cdf b83c
000002a0: ae0a 99bd d826 213d 1ef9 ebbd 9638 c23d
000002b0: 09db db3d 581e 7d3c 5a47 2f3e 3cf0 ba3c
000002c0: e8af 323d d33c a13c aa0c 2fbc 268c 4cbe
000002d0: 9f64 04bd f68b 053e 9bc1 243e 319b 09be
000002e0: 6004 8ebd 1008 e2bc 6f02 6c3d ab88 42bd
000002f0: e91f 6abd a2f3 9fbc 17d8 8c3d c7d3 39be
00000300: c9b2 a2bd f026 0ebe 3ad5 013d 323d 4f3e
00000310: ac3a 06be cf3e ae3d 17bc ca3d 39e8 943e
00000320: 58b4 35be 90b5 f73c 3858 c93c 4893 44be
00000330: ce36 ebbc 1724 363e 07d7 78be 8d06 413d
00000340: a521 73bd 4266 1dbd a59d ef3c 1689 8ebd
00000350: 7a1f 173b c71c ea3d 88c6 33be 473e e5bc
00000360: 8a2f ba3d 099f c93d 6e2a 9b3d 5cc5 763e
00000370: 1f33 2f3e 9a40 613d f549 133e d475 5a3c
00000380: 8bfc 3bbe 2976 473c f26e 303e adf4 3fbe
00000390: abfa 1f3e cddc 243d 0fb9 1bbd e729 b5bd
000003a0: 7a05 14be bc27 833d ee6d ef3c 7bf6 e8bd
000003b0: de25 14be 5292 e83d fe67 8ebd c368 01bd
000003c0: ebf8 043d 6921 efbd a30f 6cbd a03a 46bd
000003d0: 5bd4 21bd fbc2 4bbe c362 c4bd 3054 c63c
000003e0: 3b88 f4bd 2c3b bcbd 153a 0abe cff5 c3bd
000003f0: 295b 4abe bc3f debd a32b c13d 8002 20bc
0.009203268 -0.043859 0.10142088 -0.20091334 -0.12949234 0.047602005 0.0060890154 -0.094020024
0.15309513 0.0087684905 0.14281385 -0.13556026 0.16171786 -0.004433486 0.22379172 0.12779324
0.072909646 0.17157392 0.14453585 -0.031571608 0.13175793 0.050125696 -0.04431997 0.08401604
-0.019477613 -0.15562631 0.122625805 -0.22796047 0.014246109 0.0333533 0.06627997 0.15156788
0.13058499 -0.04036467 -0.037226994 0.06525467 -0.16963209 -0.1721925 -0.12118688 0.115087435
-0.15606564 -0.12785126 -0.108629756 0.08323525 0.11752084 -0.09479828 -0.03377099 0.095318615
-0.03515201 0.07902424 0.10107409 -0.14311758 -0.036420092 0.16814725 -0.11068045 0.15424679
0.09231581 -0.033919573 -0.017102582 0.15663418 -0.09574028 -0.13276441 0.06473482 -0.071226075
0.10774852 -0.012184612 -0.180008 0.14761837 0.060361624 -0.21680929 -0.104068756 0.114962555
0.059639864 0.112273216 -0.13936883 -0.1302578 -0.12113974 0.030484788 0.1535577 -0.09841636
0.0044215284 -0.040651593 0.23188764 -0.09452704 0.036104646 -0.052524082 -0.07903361 -0.18412663
0.027558828 0.16657048 -0.10928874 0.14328754 0.075562425 0.10358468 0.14984636 -0.06612351
0.22762516 -0.20180133 -0.004752466 -0.060407057 -0.07969434 0.12625468 -0.06606717 0.13964202
-0.17467698 0.16754663 -0.018032439 0.124769874 -0.15074308 -0.05842493 -0.08592095 0.017134259
-0.05960163 -0.11991974 -0.14019881 -0.029727306 -0.084946744 -0.14429635 -0.057659373 0.100678034
-0.014751089 0.053357646 0.062930934 0.12577514 0.15450612 -0.09939866 -0.14064708 0.13076413
-0.013689942 -0.16664858 0.055105947 0.09219308 0.15284525 0.049841844 -0.019425627 -0.15738603
-0.16827683 0.068549655 -0.05228287 -0.052548055 0.09418472 0.021732338 -0.11209911 0.19776848
0.006327053 0.07466569 0.01761154 0.16585724 -0.13234885 0.05873847 -0.1810233 0.0583764
-0.10227719 0.003999297 0.08524767 -0.057009205 0.09047461 0.014647237 0.001494234 -0.024511911
-0.16714653 0.17899075 0.124687605 0.04470582 -0.1909367 0.0010199422 0.13714099 0.022567533
-0.0747274 0.039343685 -0.11522125 0.09483449 0.10735137 0.015449129 0.17117062 0.02281963
0.04362479 0.019682324 -0.010684172 -0.19975337 -0.032322522 0.13041672 0.1608948 -0.13438107
-0.06934428 -0.027591735 0.05761951 -0.047493618 -0.05715934 -0.019525353 0.06877153 -0.18147193
-0.07944257 -0.13882041 0.03169749 0.20238188 -0.13108319 0.085080735 0.098991565 0.29083422
-0.17744577 0.030237943 0.024578199 -0.19196808 -0.028712656 0.17787205 -0.24300776 0.047125388
-0.059358258 -0.0384276 0.029249975 -0.06959741 0.0023059533 0.1143127 -0.17556202 -0.027983798
0.090910986 0.09844787 0.07576452 0.24098724 0.17109345 0.05499325 0.14383681 0.0133337565
-0.18358056 0.012174168 0.17229822 -0.1874568 0.15622966 0.040249635 -0.038018283 -0.08845883
-0.14455214 0.06404063 0.029227223 -0.113751374 -0.1446757 0.113560334 -0.06953429 -0.03159405
0.03246395 -0.11676294 -0.0576321 -0.048395753 -0.03950916 -0.19898598 -0.0958915 0.024210066
-0.119400464 -0.09190974 -0.13498719 -0.09568369 -0.19761337 -0.10852 0.09432151 -0.009766221

ode_net.grad_module.2.bias f4 [32]
00000000: a0a2 1bbe f773 f03d ef45 7d3d 587b 31bd
00000010: e86b c93d afd6 493e a5a9 c13d f9f8 39be
00000020: 6d82 0b3d 6ac1 19be e1ae 443c e858 71bb
00000030: 921a 153e 90b6 21be 66bf 1ebe 7869 88bd
00000040: c0e5 153e 2da7 c8bc e5f3 1ebe d289 86bd
00000050: 2b91 fa3c b306 21bd 7dd1 cd3c e147 673c
00000060: dc14 09be 2a71 193e 701b 9abd a2c3 d2bd
00000070: 8c05 4a3d 4e96 fa3d 7b9a 24bb 7c52 193d
-0.15198755 0.117408685 0.061834272 -0.04333052 0.098350346 0.19710802 0.09456185 -0.18161382
0.03405993 -0.15015188 0.012004585 -0.0036826674 0.14560917 -0.15792298 -0.155027 -0.066607416
0.14638424 -0.024493778 -0.15522726 -0.06569256 0.0305868 -0.03931303 0.025124306 0.014116258
-0.13386863 0.14984575 -0.075247645 -0.1029122 0.049321696 0.122356996 -0.0025116492 0.03743218

exp_avg f4 [32, 7]
00000000: 2cc5 a2c1 2299 40c2 b50a 65c2 204e 5d42
00000010: a400 43c1 d82b e7c1 7004 8641 b6ea 7441
00000020: 6f91 2441 2dcc ddc1 3dc6 4fc2 4b87 6942
00000030: 2408 72c1 e65f 8e42 dec3 b540 64ee e041
00000040: 95cb 7741 aa01 0b43 4936 7ac2 2d81 2bc2
00000050: bedf 98c2 aedf 5dc1 6a0a bac0 455b 1ec1
00000060: 9c20 d942 b469 2ec2 fff4 afc1 0d9b b5c2
00000070: 6aa6 2cc2 f755 60c2 48f7 1943 3e44 6bc3
00000080: 9441 33c2 f2e9 0f43 0c7d 1142 165b 1742
00000090: e56d 1b41 f534 afc1 9c31 bcc1 15bb 3842
000000a0: 242b 20c2 b5b8 cc42 35c4 5ec1 df88 b8c0
000000b0: 64aa b6c1 2ed3 4c41 ca25 22c1 a3f0 06c2
000000c0: a7df a241 df80 7a41 56f6 4342 ef1d ea42
000000d0: 4f3f 2bc2 efa9 1cc2 5324 0a42 b262 ccc1
000000e0: 1969 a740 66ea 0740 4fbd fc40 b789 bd42
000000f0: 5857 c4c1 f12e 29c2 4538 74c2 f7c4 e940
00000100: b673 de40 ac46 4141 d7de bfc1 b4e4 b941
00000110: a3b4 4f41 2740 dd41 08ed 5ec1 2b68 23c1
00000120: e3c8 9b41 e7d6 5bc2 e829 b4c1 4b19 fe41
00000130: e168 ad41 8208 abc2 1548 8bc1 b4c0 a4c1
00000140: d57c c7c1 517e 8942 4fe7 1b42 6da9 18c2
00000150: 1495 68be 2829 90c1 128d f542 bab2 1bc3
00000160: e841 82c1 7074 b042 38f9 7441 8e14 fcc1
00000170: 26df 0642 3dc8 8242 d997 1741 864d fd41
00000180: 654d 8541 a6d0 a1c2 d45e 9841 92f6 c041
00000190: 8d5b 8f42 5933 0f42 c8fe a7c0 df64 a241
000001a0: 7678 92c2 aa61 34c2 7948 cac1 bcb6 2141
000001b0: 0b55 b5c2 1bdb 9e42 bcae 8842 8f52 4140
000001c0: 4a3d 7041 9034 b541 3acd e2c1 82ea de41
000001d0: e889 6842 3159 3641 4066 eec1 cd61 b7c1
000001e0: bcfa 0fc2 788d bd40 f0a0 0fc3 283a cb41
000001f0: 20e8 6f41 4095 bb42 8fe4 8ac2 b002 d1c1
00000200: 2b6a 5bc2 c57d d8c1 38b2 5142 7c21 dfc0
00000210: 51a4 6b40 5fe9 0441 c875 6c41 b86a dac2
00000220: 15cc d842 fa72 ba41 85cd fdc2 3a6d 21c0
00000230: 1b03 ddc1 bea5 4640 7ac5 67c2 9576 9bc2
00000240: e89a 9642 f397 9dc1 47aa 8742 31df 98c0
00000250: b187 d541 2e26 4642 affa 94c1 c773 81c1
00000260: ecde 5341 bd7b 38c2 9ed0 3441 8792 2bbf
00000270: 3b77 42c0 9e01 843f 8d36 b6c1 3667 39c1
00000280: caab 0f42 6e70 0a40 2d0b 1842 62fe c942
00000290: ec61 b542 6386 47c2 0914 4141 3c10 fcc2
000002a0: 4dc3 3f41 cf7c 3d41 9334 8e42 bde0 a1c2
000002b0: aa12 7141 2744 0242 99a8 9241 e4ab 5941
000002c0: 3997 a2c0 039e 8cc2 aaed 64bd c4e5 0941
000002d0: 3d12 f1c1 340f 3e42 1f3b f841 a023 2b42
000002e0: f5f8 fe42 13b6 3ac1 712b 83c2 6313 9b42
000002f0: 5f22 38c2 e6f9 8841 343c b441 af8b c3c1
00000300: 8d4c ae42 885e c040 4b5e a2c2 670d 57c1
00000310: 0e54 4ec2 2b52 80c2 7e08 6cc2 6d26 4fc2
00000320: f35e 3e42 1b40 ac41 f919 e840 4fb3 2a42
00000330: 6f50 fac0 77b7 fd41 3b15 7b42 ff62 0bc2
00000340: 2c5e 1042 2927 a5c2 f646 3bc1 72d3 2fc1
00000350: d7fd 8dc2 22ed ab42 3079 3142 7a93 86c2
00000360: a037 00c2 30a9 e0bf 1a29 b340 bfe9 26c2
00000370: cd33 6d43 ab9c adc2 eb1d 78c1 50d7 44c3
-20.346275 -48.149544 -57.260456 55.326294 -12.187656 -28.896408 16.752167 15.307302
10.285506 -27.724695 -51.943592 58.382122 -15.126987 71.1873 5.6801596 28.116402
15.487203 139.0065 -62.553013 -42.87615 -76.437 -13.867109 -5.8137712 -9.897283
108.56369 -43.603226 -21.994627 -90.80283 -43.162514 -56.08395 153.96594 -235.26657
-44.81404 143.91385 36.372116 37.83895 9.71433 -21.900858 -23.524223 46.182697
-40.04213 102.360756 -13.922902 -5.766708 -22.833199 12.801558 -10.134226 -33.734997
20.359205 15.656463 48.990562 117.058464 -42.811825 -39.16595 34.535473 -25.548191
5.2315793 2.1236815 7.898109 94.768974 -24.542648 -42.29584 -61.05495 7.3052936
6.951625 12.079754 -23.983809 23.236671 12.981601 27.656324 -13.932869 -10.212932
19.47309 -54.959866 -22.520462 31.76235 21.67621 -85.51662 -17.410196 -20.594093
-24.935953 68.74671 38.975887 -38.165455 -0.22713119 -18.020096 122.77553 -155.69815
-16.28218 88.22742 15.310844 -31.510036 33.71792 65.39109 9.474572 31.662853
16.66279 -80.90752 19.046303 24.120396 71.67881 35.800144 -5.249851 20.299253
-73.235275 -45.095375 -25.285387 10.107113 -90.6661 79.42794 68.34128 3.020664
15.014963 22.650665 -28.350208 27.864506 58.134674 11.396775 -29.799927 -22.922754
-35.994858 5.923519 -143.62866 25.403397 14.994171 93.791504 -69.4464 -26.126312
-54.85368 -27.06141 52.42404 -6.9728374 3.681904 8.306975 14.778755 -109.208435
108.3986 23.30614 -126.901405 -2.5222917 -27.626516 3.103866 -57.94285 -77.731606
75.30255 -19.699194 67.83257 -4.777245 26.691256 49.537285 -18.622404 -16.181532
13.241924 -46.12084 11.300932 -0.6702046 -3.0385273 1.0312994 -22.776636 -11.587698
35.917763 2.1631122 38.010914 100.99684 90.69125 -49.881237 12.067391 -126.03171
11.985181 11.842971 71.102684 -80.93894 15.067057 32.566555 18.332323 13.6044655
-5.08096 -70.30862 -0.055890717 8.618595 -30.133905 47.514847 31.028868 42.78479
127.486244 -11.669452 -65.58485 77.537865 -46.033566 17.12202 22.529396 -24.443205
87.14951 6.0115395 -81.184166 -13.440772 -51.582085 -64.160484 -59.008293 -51.787525
47.592724 21.531301 7.2531705 42.675106 -7.8223186 31.714582 62.770733 -34.846676
36.091965 -82.576485 -11.704824 -10.989122 -70.99578 85.96315 44.368347 -67.28804
-32.05432 -1.7551632 5.5987673 -41.728268 237.20235 -86.80599 -15.507304 -196.84106

exp_avg_sq f4 [32, 7]
00000000: 0222 6747 dacd 3447 fbcb 9547 e8cc 4d47
00000010: 4715 2147 f242 2c47 255c e646 87a3 e346
00000020: 4f40 c046 951a 8746 376c 0747 916a f146
00000030: ac34 1247 076b a746 fd8f 6b47 5a9e 4647
00000040: 7da4 5647 235f 8047 83e6 8247 9d04 1e47
00000050: b48d 9047 69cc 1847 92a4 e546 fde3 8d46
00000060: 7df1 3d47 961b 2d47 9a10 0c47 33ae 1047
00000070: acac c348 9f4d ad48 b7b3 bb48 c6c6 b548
00000080: 5f2e bc48 ac9e 7448 537c 9648 97b8 a247
00000090: 5085 8c47 2b35 3a47 4a7a 8347 51c7 b447
000000a0: c054 6347 b0e0 ef47 9672 4547 2757 1847
000000b0: 9aa7 4047 45dc 1e47 7959 0e47 46e4 f346
000000c0: 5a42 a546 48fb d147 b66a c947 7a74 f647
000000d0: 2f73 cd47 50d5 ba47 a985 7347 266c 4f47
000000e0: 29e9 1747 ab5e 1447 1f87 1547 193a 1447
000000f0: 61ed 0747 5e40 0d47 33e0 d646 753a a146
00000100: ed37 be46 edbd fb46 087b bd46 dcbe 9946
00000110: e528 e046 5bb1 aa46 207c a246 502d 9946
00000120: 02ee 8546 d619 a146 bfce bc46 1490 c146
00000130: 9eda 1647 b234 4648 c883 4148 85c3 5748
00000140: 1cd5 1548 247a 4248 043d 2c48 e790 8848
00000150: e1c8 8248 b3ac 7948 c5d4 a448 bfbf 8148
00000160: cc12 7048 88b0 1348 9934 3348 340b aa47
00000170: 7f58 c547 fe2d eb47 0b3a 7f47 88ff 9e47
00000180: 50d9 c247 9e5d 0d48 f4ac 1e47 8c77 0447
00000190: d19d 3047 ee4e 5847 7e40 0a47 f2b2 8b47
000001a0: cd81 8a46 4fa8 e347 b223 b447 e84c d947
000001b0: 828c c547 8c92 d947 9d20 9f47 05b2 e147
000001c0: eeae 7a47 03db 6047 8623 7b47 4677 7747
000001d0: bd5c 7647 04ff 3647 58d8 7f47 e3f2 ad47
000001e0: 8714 db47 0a27 0048 c9ce a247 2ed7 bd47
000001f0: 35b9 9047 3a08 eb47 012e 0e48 07ce b647
00000200: f8f0 1948 14a0 bc47 6e6a df47 6010 a847
00000210: 05f3 1b48 9bbd 0648 2769 f847 9c0c 1848
00000220: 4c6e e547 6161 f747 7de2 ce47 3d2c ce47
00000230: c3d0 8c47 b590 7247 487c 7a47 2511 8547
00000240: dad8 8c47 2bbf 5047 4347 fe47 2f40 4847
00000250: 9fd3 3f47 1df4 9a47 cc22 5047 a451 2147
00000260: 6076 3c47 4e6e d246 a9a9 1a47 66a1 cf46
00000270: 9022 0947 0d8a 1e47 8bc2 0f47 68be 1c47
00000280: 83a9 0b47 9575 9d47 ce82 8a47 e3ca 9c47
00000290: 9ac9 9b47 b757 9647 2c97 ab47 be7d 7647
000002a0: 0bb0 a347 31f4 9447 3d95 c847 5ed5 9047
000002b0: 53a1 8f47 39f8 5d47 ee63 c347 0076 4547
000002c0: 7c63 3a47 34bc 1f47 3e89 5d47 dbfe 4747
000002d0: daeb 8647 8ffc ea46 d185 7048 3df8 2e48
000002e0: c093 8d48 b302 3c48 6682 3348 a175 2a48
000002f0: bf0b c947 5de6 1d47 05bf 6447 ae06 4c47
00000300: e268 1747 842a 1a47 e281 5947 2f21 3847
00000310: d308 3148 4334 f747 877f 1d48 b2f7 0e48
00000320: c8a9 0748 91a7 c547 5738 0748 b744 c447
00000330: 6852 9d47 71a2 8b47 0677 9747 aec7 b347
00000340: 88e5 5a47 957d ac47 f1d6 2048 8035 4548
00000350: 1d3b 6a48 4788 0748 3a15 1948 c859 1348
00000360: 28bd ed47 1bb9 4b48 6a6f 1e48 14c5 cd47
00000370: 4236 4f48 6286 7648 8b89 0048 aab2 8b48
59170.008 46285.85 76695.96 52684.906 41237.277 44098.945 29486.072 29137.764
24608.154 17293.291 34668.215 30901.283 37428.67 21429.514 60303.99 50846.35
54948.49 65726.27 67021.02 40452.613 74011.41 39116.41 29394.285 18161.994
48625.49 44315.586 35856.6 37038.2 400741.38 354924.97 384413.72 372278.2
385394.97 250490.69 308194.6 83313.18 71946.625 47669.168 67316.58 92558.63
58196.75 122817.375 50546.586 38999.152 49319.6 40668.27 36441.473 31218.137
21153.176 107510.56 103125.42 126184.95 105190.37 95658.625 62341.66 53100.15
38889.16 37982.668 38279.12 37946.098 34797.38 36160.367 27504.1 20637.229
24347.963 32222.963 24253.516 19679.43 28692.447 21848.678 20798.062 19606.656
17143.004 20620.918 24167.373 24776.04 38618.617 202962.78 198159.12 220942.08
153428.44 199144.56 176372.06 279687.22 267847.03 255666.8 337574.16 265725.97
245835.19 151234.12 183506.39 87062.41 101040.99 120411.984 65338.043 81407.06
99762.625 144758.47 40620.953 33911.547 45213.816 55374.93 35392.492 71525.89
17728.9 116560.62 92231.39 111257.81 101145.016 111397.09 81473.23 115556.04
64174.93 57563.01 64291.523 63351.273 63068.74 46847.016 65496.344 89061.77
112169.055 131228.16 83357.57 97198.36 74098.414 120336.45 145592.02 93596.055
157635.88 96576.16 114388.86 86048.75 159692.08 137974.42 127186.305 155698.44
117468.59 126658.76 105924.98 105560.48 72097.52 62096.707 64124.28 68130.29
72113.7 53439.168 130190.52 51264.184 49107.62 79336.23 53282.797 41297.64
48246.375 26935.152 39593.66 26576.7 35106.562 40586.05 36802.543 40126.406
35753.51 80619.164 70917.61 80277.77 79763.2 76975.43 87854.34 63101.742
83808.086 76264.38 102698.48 74154.734 73538.65 56824.223 100039.86 50550.0
47715.484 40892.203 56713.242 51198.855 69079.7 30078.28 246295.27 179168.95
289950.0 192522.8 183817.6 174550.52 102935.49 40422.363 58559.02 52230.68
38760.883 39466.516 55681.883 47137.184 181283.3 126568.52 161278.11 146398.78
138919.12 101199.13 138465.36 100489.43 80548.81 71492.88 77550.05 92047.36
56037.53 88315.164 164699.77 201942.0 239852.45 138785.11 156756.9 150887.12
121722.31 208612.42 162237.66 105354.16 212185.03 252441.53 131622.17 286101.3
