ckpt/rnn_RK3_h32_dis10/best.pth (torch_old, 61180 bytes, 30 tensors)

rnn.weight_ih_l0 f4 [32, 7]
-0.076425515 0.0063922177 0.11284388 -0.06479434 -0.09193457 0.15345283 -0.18145992 -0.054365482
0.021466859 -0.21418756 0.04800465 -0.11895779 -0.021894732 -0.03777835 -0.11481304 0.048420206
-0.09270658 0.112172954 0.006492843 0.22322962 -0.11750738 0.08804715 -0.066123426 0.09406341
0.056024157 -0.13409433 0.10964055 -0.05696781 -0.053087447 -0.05821722 -0.0887396 0.04062249
-0.042364392 -0.09765106 0.1594683 0.053068917 -0.15376848 -0.12192541 0.12759952 -0.015654743
0.20256303 -0.1307662 0.080934584 0.038011223 0.07993398 0.20385307 -0.0065667904 -0.09777283
-0.029047158 0.12100056 0.028643666 0.04621157 0.008832221 0.07747278 0.17794769 0.18242964
0.06091516 -0.018734207 0.12923248 0.004713693 0.11570493 0.04003135 0.010307801 0.13607088
0.21727678 -0.09101629 0.10423298 0.11555151 -0.07419751 0.114846885 0.04814519 -0.13432571
-0.068603896 0.1665849 0.053695627 0.02475481 0.09794152 0.02979528 -0.04056156 -0.105824314
0.12505297 -0.016684886 -0.1660271 0.12632246 -0.069658324 -0.14950265 -0.06706496 -0.016148228
-0.16821727 -0.09960745 0.22463533 0.023660414 0.1075645 -0.06950446 -0.17804973 0.10783612
-0.08018669 -0.22274101 -0.017095448 0.02561539 -0.04238886 0.007405585 0.082236156 -0.04821187
0.13930795 0.13016708 -0.1463994 0.09411879 0.10118506 -0.10816478 -0.07925252 -0.08239136
0.024176799 -0.12733507 0.122024804 0.09044507 0.12531097 -0.18908484 0.02917106 0.15499833
-0.0018561673 -0.0029523375 -0.028375419 0.13657749 -0.06776825 0.08194841 0.115619764 0.063481405
-0.14349999 0.13172589 0.12555279 -0.03475314 -0.10152914 0.17105822 -0.1526419 0.06935816
-0.10375179 -0.08320656 0.06268552 -0.23483893 0.07978244 0.09233648 -0.062123153 0.1460787
0.12318742 -0.18906055 -0.00092963694 -0.049773637 0.14698349 0.12348221 0.014674868 -0.09429805
0.084128104 0.09823987 -0.088547066 -0.055592727 0.056524232 0.12491855 0.0010654762 0.03411519
-0.1048733 -0.15839668 -0.0909959 0.13162865 0.070649005 -0.023778884 -0.058118515 0.10580404
0.15162046 -0.052561406 -0.119431175 -0.0008081583 0.0771433 -0.045223907 0.110070676 0.022608874
0.07317806 0.01623979 0.079145886 0.09021531 0.10750493 -0.016391525 0.14969413 0.0039493972
0.13561222 0.010270867 0.05894212 0.18203737 0.23799776 0.15153557 -0.18816558 -0.019209499
-0.108428515 0.10730668 -0.012636135 -0.17834961 -0.16823731 0.053137988 0.005197846 -0.12980568
-0.01459749 -0.045230385 -0.076665334 0.032503024 0.08415529 0.09950964 0.16287288 -0.04947168
0.19178379 0.06396979 0.15187564 -0.034479324 0.10862205 -0.030107575 -0.05066 0.002634783
-0.1926212 -0.113026835 -0.1000953 0.14145777 0.031392176 0.07115297 0.088925526 -0.16375719
00000000: fb84 9cbd cf75 d13b b11a e73d e5b2 84bd
00000010: 3148 bcbd bd22 1d3e a1d0 39be 57ae 5ebd
00000020: 44db af3c fc53 5bbe 86a0 443d 24a0 f3bd
00000030: 955c b3bc 79bd 1abd 1923 ebbd 4454 463d
00000040: f3dc bdbd efba e53d eac1 d43b 4e96 643e
00000050: b6a7 f0bd 1052 b43d b86b 87bd 51a4 c03d
00000060: 9679 653d 0650 09be 3a8b e03d 1457 69bd
00000070: 3972 59bd 2e75 6ebd 1bbd b5bd c563 263d
00000080: 4986 2dbd 47fd c7bd a84b 233e cb5e 593d
00000090: 7c75 1dbe 08b4 f9bd 73a9 023e 603e 80bc
000000a0: af6c 4f3e 93e7 05be 08c1 a53d a8b1 1b3d
000000b0: 6db4 a33d dcbe 503e 3b2e d7bb 1f3d c8bd
000000c0: 4ef4 edbc 24cf f73d 1fa6 ea3c 5848 3d3d
000000d0: 05b5 103c 0daa 9e3d eb37 363e d6ce 3a3e
000000e0: 2d82 793d 7b78 99bc 8555 043e 5375 9a3b
000000f0: b5f6 ec3d eaf7 233d 0de2 283c 2a56 0b3e
00000100: ce7d 5e3e c066 babd 1a78 d53d 45a6 ec3d
00000110: ddf4 97bd d834 eb3d e433 453d ae8c 09be
00000120: 3380 8cbd 3b95 2a3e f2ef 5b3d 99ca ca3c
00000130: 9095 c83d 3b15 f43c e123 26bd 6bba d8bd
00000140: e30d 003e beae 88bc 0203 2abe ad5a 013e
00000150: 06a9 8ebd 3917 19be 5b59 89bd 4a49 84bc
00000160: 2641 2cbe fefe cbbd ce06 663e 7cd3 c13c
00000170: c74a dc3d 5b58 8ebd ab52 36be 2fd9 dc3d
00000180: eb38 a4bd 3816 64be c10b 8cbc 5ed7 d13c
00000190: f19f 2dbd 8daa f23b 6e6b a83d cf79 45bd
000001a0: bea6 0e3e 854a 053e b9e9 15be 5ac1 c03d
000001b0: 1d3a cf3d 7f85 ddbd 254f a2bd cdbc a8bd
000001c0: 6c0e c63c 2064 02be 24e8 f93d 443b b93d
000001d0: 8551 003e 759f 41be 26f8 ee3c e2b7 1e3e
000001e0: a44a f3ba 017c 41bb 9173 e8bc f8da 0b3e
000001f0: 15ca 8abd 91d4 a73d 0eca ec3d 8a02 823d
00000200: a9f1 12be 27e3 063e e990 003e 4f59 0ebd
00000210: 82ee cfbd e329 2f3e 294e 1cbe a70b 8e3d
00000220: d27b d4bd 3368 aabd 4461 803d 9e79 70be
00000230: fa64 a33d e91a bd3d d974 7ebd a895 153e
00000240: b049 fc3d 1799 41be e1b2 73ba 71df 4bbd
00000250: d782 163e 3ee4 fc3d dc6e 703c 561f c1bd
00000260: 5b4b ac3d fc31 c93d 2a58 b5bd 33b5 63bd
00000270: f485 673d 4cd5 ff3d 73a7 8b3a 5fbc 0b3d
00000280: d0c7 d6bd bd32 22be 0f5c babd a9c9 063e
00000290: 6db0 903d efcb c2bc ae0d 6ebd caaf d83d
000002a0: 6542 1b3e a14a 57bd 5598 f4bd 96da 53ba
000002b0: 4efd 9d3d b43c 39bd bc6c e13d 3f36 b93c
000002c0: 61de 953d 4f09 853c 3d17 a23d cec2 b83d
000002d0: 8b2b dc3d 8547 86bc 6b49 193e f269 813b
000002e0: eedd 0a3e 2347 283c 4b6d 713d 0168 3a3e
000002f0: afb5 733e 242c 1b3e 7aae 40be 3d5d 9dbc
00000300: c50f debd 9bc3 db3d cb07 4fbc 48a1 36be
00000310: 6746 2cbe 38a7 593d b152 aa3b c8eb 04be
00000320: 502a 6fbc 7f43 39bd b702 9dbd e421 053d
00000330: 9c59 ac3d b6cb cb3d 26c8 263e d1a2 4abd
00000340: f862 443e 9802 833d 4a85 1b3e 313a 0dbd
00000350: 3d75 de3d 29a4 f6bc dc80 4fbd 53ac 2c3b
00000360: 7e3e 45be 9d7a e7bd c4fe ccbd 4eda 103e
00000370: 1595 003d a6b8 913d 961e b63d f7af 27be

rnn.weight_hh_l0 f4 [32, 32]
-0.09916687 0.13759339 -0.16838537 0.1142393 -0.084420264 0.13137023 -0.118549496 0.11675259
-0.038015466 0.08483245 0.0010707922 0.04754875 0.12063496 -0.099791914 -0.018484129 -0.01293596
-0.09002864 -0.0571547 0.04863752 -0.07014669 -0.01526624 -0.15842059 0.14264914 0.0034947703
-0.19889605 0.119599134 0.048127547 0.08953817 0.17815812 0.10566557 0.039339002 -0.1383279
-0.025770884 -0.066733636 -0.049972195 -0.15060636 -0.038603928 0.123881735 -0.027077505 -0.19241375
-0.11241312 0.1838804 -0.0846936 0.06506046 0.10734441 0.242893 -0.04420202 0.04666407
0.10737139 -0.011323119 0.06415651 0.15102956 0.15580142 -0.105310105 -0.06127937 -0.20196928
-0.15619496 0.15134639 -0.12882379 0.13718356 0.08059108 -0.1628705 0.120437495 0.10874396
-0.04868287 0.04786246 0.03669598 0.15693651 0.1590547 -0.074697025 0.11517281 -0.042818908
-0.08618184 0.055849038 -0.03407627 -0.12240505 0.12489955 0.073712826 0.09404466 -0.19224158
-0.14094043 0.014204796 -0.19693266 -0.110341236 -0.044883493 0.02790241 -0.0890229 0.17490059
-0.007097852 -0.05299318 -0.13145007 0.15357517 -0.07163016 0.107165135 0.12969133 -0.025153494
0.03963749 -0.2364653 -0.11495829 -0.020040661 -0.09701352 -0.23137671 0.09096947 0.18877353
0.14974728 0.10452934 -0.03180119 -0.10689687 -0.09330774 -0.06968677 0.1023439 -0.112486854
-0.036999192 -0.013043014 -0.11378445 -0.25019 0.057327386 -0.030422205 -0.2644852 0.108535305
0.06315046 -0.11526021 0.08217549 0.03746756 -0.16084853 0.20463881 -0.15494324 0.18752477
-0.06477073 0.013933368 -0.09016486 -0.077546194 0.06601945 -0.21118331 -0.07078376 0.07010545
0.1354755 -0.13154727 0.1210593 0.16355547 -0.07615926 0.13629194 -0.118152164 0.07126346
-0.0934015 -0.06790423 -0.077118695 -0.103329204 0.090754546 -0.16744892 0.015808431 -0.106488645
0.12945363 -0.042143192 0.13721475 -0.16490147 -0.08628313 0.12737198 -0.088267036 -0.11039419
0.18055376 0.13015892 -0.07217579 0.14048539 -0.15891533 0.10326773 -0.16170064 -0.012495967
-0.13960774 0.02611001 0.030591747 -0.1537139 -0.16028424 -0.1799396 0.04218167 0.03508351
-0.06438501 0.13376363 -0.09916522 -0.15428294 0.080299735 -0.10028568 -0.1258125 -0.17320089
-0.11780075 -0.113493994 0.047588803 -0.0796364 -0.028725712 -0.1411292 -0.1158105 -0.14347641
0.062042743 -0.0640942 -0.0619024 0.1856493 -0.14636241 0.08522061 0.15465066 -0.07777325
0.07223569 0.07647849 0.12491867 -0.04465977 -0.10939528 -0.0309516 -0.16860107 0.11340905
-0.09654019 -0.17604469 -0.097566575 -0.097367376 0.111310944 0.007200105 0.19575234 0.060326673
-0.20282 0.05141442 0.03095091 -0.08355221 0.06651793 -0.14261912 0.064574495 -0.014982727
-0.15014452 -0.010928425 0.1594659 -0.059855256 0.16256846 -0.106155835 0.045303974 -0.13176237
0.092611514 -0.20543724 0.17746419 0.020480303 0.15068258 0.17762676 -0.19557355 -0.12581392
0.14870472 -0.17034315 -0.16437022 0.04395192 -0.120328754 0.13201664 0.21767338 0.08723637
-0.11574857 -0.08254907 0.0652559 0.14594373 -0.082626976 0.07767199 -0.06729221 -0.13134293
00000000: 0018 cbbd 48e5 0c3e 376d 2cbe 4bf6 e93d
00000010: 88e4 acbd eb85 063e 14ca f2bd fb1b ef3d
00000020: 1bb6 1bbd a3bc ad3d d359 8c3a 7ac2 423d
00000030: 760f f73d b45f ccbd 076c 97bc 59f1 53bc
00000040: f060 b8bd 0c1b 6abd 2338 473d 11a9 8fbd
00000050: 401f 7abc 0239 22be 9e12 123e 8408 653b
00000060: 68ab 4bbe 64f0 f43d 6421 453d ca5f b73d
00000070: 156f 363e 3167 d83d ef21 213d d4a5 0dbe
00000080: 761d d3bc a5ab 88bd a5af 4cbd 8e38 1abe
00000090: 271f 1ebd b5b5 fd3d a5d1 ddbc 1c08 45be
000000a0: da38 e6bd 254b 3c3e d773 adbd 6b3e 853d
000000b0: 63d7 db3d f1b8 783e 2d0d 35bd d322 3f3d
000000c0: 88e5 db3d 9a84 39bc 7d64 833d 7ea7 1a3e
000000d0: 688a 1f3e d3ac d7bd 1400 7bbd 09d1 4ebe
000000e0: 92f1 1fbe 8cfa 1a3e 62ea 03be d979 0c3e
000000f0: f00c a53d 86c7 26be efa7 f63d 27b5 de3d
00000100: b067 47bd 6d0b 443d 864e 163d f7b3 203e
00000110: 3cdf 223e c1fa 98bd b9df eb3d e162 2fbd
00000120: 1b80 b0bd f6c1 643d 8f93 0bbd 80af fabd
00000130: 56cb ff3d c0f6 963d 7d9a c03d fada 44be
00000140: b052 10be 3cbb 683c b7a8 49be 96fa e1bd
00000150: c1d7 37bd 9893 e43c a351 b6bd 2419 333e
00000160: 1995 e8bb 600f 59bd d99a 06be cf42 1d3e
00000170: d5b2 92bd 6579 db3d cecd 043e b30e cebc
00000180: ec5a 223d f623 72be 406f ebbd 502c a4bc
00000190: 06af c6bd 04ee 6cbe 344e ba3d d94d 413e
000001a0: 5a57 193e 7b13 d63d f741 02bd bfec dabd
000001b0: 2118 bfbd f0b7 8ebd ae99 d13d 825f e6bd
000001c0: 778c 17bd 5eb2 55bc d207 e9bd e718 80be
000001d0: 1fd0 6a3d fd37 f9bc 9b6a 87be c247 de3d
000001e0: 0755 813d 8c0d ecbd a04b a83d 9677 193d
000001f0: 7ab5 24be d68c 513e 71a9 1ebe 7e06 403e
00000200: 84a6 84bd c848 643c 5ba8 b8bd 8ad0 9ebd
00000210: 3535 873d 7040 58be 13f7 90bd 7293 8f3d
00000220: 17ba 0a3e 54b4 06be f0ed f73d 167b 273e
00000230: 63f9 9bbd 1d90 0b3e c3f9 f1bd 94f2 913d
00000240: 4949 bfbd 5f11 8bbd 68f0 9dbd 439e d3bd
00000250: 85dd b93d bb77 2bbe af80 813c b816 dabd
00000260: 7e8f 043e 579e 2cbd 0682 0c3e eedb 28be
00000270: 36b5 b0bd cd6d 023e 59c5 b4bd 5916 e2bd
00000280: 16e3 383e 6148 053e e7d0 93bd 67db 0f3e
00000290: b3ba 22be 087e d33d da94 25be e2bb 4cbc
000002a0: 55f5 0ebe a9e4 d53c 8b9b fa3c 2d67 1dbe
000002b0: 8d21 24be 1642 38be b0c6 2c3d bab3 0f3d
000002c0: 4adc 83bd 55f9 083e 2317 cbbd 59fc 1dbe
000002d0: 3074 a43d 9462 cdbd fed4 00be 935b 31be
000002e0: 8541 f1bd 8a6f e8bd 7aec 423d 6918 a3bd
000002f0: 2f52 ebbc 2c84 10be 0e2e edbd 7beb 12be
00000300: 8820 7e3d d243 83bd 5f8d 7dbd da1a 3e3e
00000310: 07e0 15be 2588 ae3d be5c 1e3e 9547 9fbd
00000320: 4ef0 933d c1a0 9c3d 5cd5 ff3d 2aed 36bd
00000330: a20a e0bd 368e fdbc c2a5 2cbe 0143 e83d
00000340: ddb6 c5bd 0f45 34be fcd0 c7bd 8c68 c7bd
00000350: fef6 e33d dcee eb3b 4d73 483e 1a19 773d
00000360: 0cb0 4fbe ed97 523d c38c fd3c 6c1d abbd
00000370: 8d3a 883d bf0a 12be a23f 843d 1d7a 75bc
00000380: 7cbf 19be 230d 33bc 074b 233e c92a 75bd
00000390: 5978 263e 3b68 d9bd a990 393d b7ec 06be
000003a0: 1bab bd3d 245e 52be 2cb9 353e 4fc6 a73c
000003b0: 894c 1a3e cae3 353e 6f44 48be 5dd5 00be
000003c0: 0d46 183e 6f6e 2ebe ab50 28be ee06 343d
000003d0: ec6e f6bd 5f2f 073e c5e5 5e3e fba8 b23d
000003e0: 960d edbd 7d0f a9bd e3a4 853d 4672 153e
000003f0: 5538 a9bd 7e12 9f3d 80d0 89bd c37e 06be

rnn.bias_ih_l0 f4 [32]
0.024252193 -0.12020474 0.1061216 0.06393257 0.0045163073 -0.0022471312 0.015860654 -0.12051406
0.035875235 -0.025136286 0.14501105 0.09266539 -0.15866347 0.07374376 -0.028260281 0.16655551
-0.09547672 0.124902904 -0.01618425 0.12754789 0.013919562 -0.15991046 -0.0024328728 -0.082317196
0.08505202 0.005364932 0.112643525 -0.16136135 -0.060223427 0.02320065 0.16904788 0.024628341
00000000: 89ac c63c e72d f6bd 4856 d93d 14ef 823d
00000010: 88fd 933b 9b44 13bb 34ee 813c 13d0 f6bd
00000020: e9f1 123d 9dea cdbc c77d 143e 5ac7 bd3d
00000030: ad78 22be f806 973d 1b82 e7bc 878d 2a3e
00000040: 4c89 c3bd 18cd ff3d d594 84bc ea9b 023e
00000050: e00e 643c 91bf 23be d570 1fbb eb95 a8bd
00000060: c12f ae3d 50cc af3b a6b1 e63d e93b 25be
00000070: d7ac 76bd 4a0f be3c e31a 2d3e 60c1 c93c

rnn.bias_hh_l0 f4 [32]
-0.1580482 0.081658326 -0.04273529 -0.1604805 0.054246966 -0.06768803 -0.059774563 -0.06861232
-0.18901621 0.07226799 0.23521052 -0.13275276 0.10912329 -0.009899458 -0.12943417 -0.059620023
0.18805453 0.18425705 -0.14430717 -0.12159372 0.14215864 0.12940297 -0.068252094 -0.16834362
0.17168817 0.1908356 -0.021202326 0.07023419 -0.120317034 0.16450503 0.012123734 -0.091333315
00000000: 63d7 21be 7b3c a73d 330b 2fbd 0055 24be
00000010: 1132 5e3d 06a0 8abd 2cd6 74bd 9e84 8cbd
00000020: 778d 41be 3d01 943d 07db 703e 57f0 07be
00000030: 087c df3d 5631 22bc 648a 04be 2034 74bd
00000040: 5e91 403e e1ad 3c3e 42c5 13be 2106 f9bd
00000050: 0992 113e 3682 043e c1c7 8bbd 4562 2cbe
00000060: 06cf 2f3e 686a 433e 80b0 adbc f1d6 8f3d
00000070: c768 f6bd 0274 283e a0a2 463c f60c bbbd

fc.0.weight f4 [32, 32]
-0.2390169 0.098534346 -0.16021878 -0.3425555 0.21052721 0.066365905 0.10610717 -0.077115946
-0.019877635 0.037311424 0.054295793 0.11551214 -0.026438517 -0.087960474 0.2573762 -0.042087033
0.19719887 -0.14812064 -0.16256203 -0.05360298 0.20856573 -0.14485593 -0.17209654 -0.10533915
-0.16026309 0.48133925 0.20760784 0.2338342 -0.35154882 -0.06100264 0.19016835 0.17609313
-0.13498801 -0.18061884 -0.22029321 -0.17429897 -0.007037506 0.04151955 0.13365184 -0.20780532
0.44300112 -0.14430276 -0.0114430785 0.0061783562 -0.03390523 0.13263097 0.041559853 0.20661476
-0.15712668 -0.04939034 0.41635045 -0.104940884 -0.11450064 0.24032584 0.04360107 0.012802755
-0.19574694 -0.07672871 0.2355049 -0.13557638 -0.20050815 -0.15122232 -0.15087129 -0.12170589
-0.053975165 0.0056122886 0.13040605 0.31666368 -0.040066134 0.060977682 -0.05143013 0.13462453
0.15333924 0.011219665 0.19051017 -0.16436307 -0.46892747 0.087644614 -0.076739185 -0.19590025
0.079708196 0.15601225 0.12914053 -0.14795212 -0.08704348 0.11548068 -0.116858944 -0.048607506
-0.15248448 0.37991852 -0.2412799 0.047020365 -0.16941664 0.3575189 -0.09427519 -0.17551552
0.40535316 0.018601282 -0.29251248 -0.14233476 0.41854933 -0.1069162 -0.25994945 0.26818168
0.06290767 0.06455849 0.032005854 0.00020060522 0.040766355 -0.16686186 0.05098968 -0.09288984
0.19560343 0.07487655 0.11678465 -0.1431206 0.045789085 -0.050422527 0.12927286 -0.2869711
0.04581908 -0.18417023 -0.06677438 -0.28515047 -0.2462756 -0.008562568 -0.10770878 -0.31455278
-0.06728563 0.042866744 -0.18571194 0.43328413 0.06356856 -0.091875896 -0.11780949 -0.15193276
-0.21514519 0.010529874 -0.034028493 0.21366668 0.14687341 -0.06427539 0.006520133 -0.15835366
-0.24264047 0.017935349 -0.03346343 -0.13214147 -0.19451188 -0.14120007 -0.24197102 -0.05841381
-0.20966575 -0.10610454 -0.08408753 0.11663649 -0.10838579 -0.3186424 -0.3923089 -0.119267665
-0.12380219 -0.08125347 -0.093671195 0.092960246 0.005226061 0.3455826 -0.33033305 -0.029829765
0.17005648 -0.093804084 0.16034965 -0.06658446 0.3081124 -0.4585714 -0.07001006 0.0025852073
0.024911974 0.01803293 0.1773205 0.3140173 0.036521666 -0.1871319 -0.05807102 0.16893397
-0.019622553 0.14798103 0.0999675 0.21222962 0.18873617 0.24657822 -0.20828067 -0.17046024
0.06983847 0.45105428 0.24265336 0.06598755 0.008605784 -0.16399507 0.16140826 0.18571089
0.18564416 0.04772002 0.22772326 0.06736073 0.40668085 -0.0625555 0.07194338 -0.20857657
0.11011638 -0.08732147 0.17079405 -0.105863236 0.30521613 0.12774393 -0.1747119 0.31973273
-0.060289316 -0.061836105 0.050039202 -0.046798714 -0.15740383 -0.105528325 -0.050941866 -0.02646333
0.35763392 -0.10906491 -0.21254465 0.08913188 -0.095558286 0.33705986 0.12209955 -0.22124882
0.15711856 0.10296727 -0.14658439 0.18552595 -0.09052351 -0.16892235 0.41785637 -0.13585277
0.23574054 0.1701364 0.042171057 0.14062688 0.099421725 0.16900313 -0.2973268 0.059603587
0.062236693 -0.035560936 -0.030989906 -0.15846565 0.12339051 -0.20144112 -0.022842381 0.17334194
00000000: d9c0 74be 60cc c93d 6410 24be 6f63 afbe
00000010: 7294 573e d9ea 873d b74e d93d f7ee 9dbd
00000020: 6cd6 a2bc ddd3 183d 4465 5e3d a191 ec3d
00000030: 9795 d8bc 9f24 b4bd d0c6 833e 7463 2cbd
00000040: 80ee 493e f0ac 17be a976 26be cc8e 5bbd
00000050: 4192 553e 1d55 14be 133a 30be 0dbc d7bd
00000060: 021c 24be 1972 f63e 2697 543e 3c72 6f3e
00000070: 35fe b3be e7dd 79bd 7ebb 423e c251 343e
00000080: 4c3a 0abe 25f4 38be 8b94 61be 6e7b 32be
00000090: e19a e6bb 6710 2a3d 07dc 083e ebca 54be
000000a0: 0bd1 e23e 1ac4 13be c07b 3bbc cf73 ca3b
000000b0: 36e0 0abd 6ad0 073e aa3a 2a3d d292 533e
000000c0: d1e5 20be 864d 4abd e32b d53e 3feb d6bd
000000d0: 507f eabd fa17 763e 0997 323d a6c2 513c
000000e0: e371 48be f123 9dbd 3228 713e 89d4 0abe
000000f0: 0252 4dbe 06da 1abe 017e 1abe f040 f9bd
00000100: 1015 5dbd 4ae7 b73b 2a89 053e be21 a23e
00000110: 631c 24bd bcc3 793d 66a8 52bd 03db 093e
00000120: f604 1d3e b0d2 373c 1915 433e cb4e 28be
00000130: 4317 f0be 057f b33d 6f29 9dbd 139a 48be
00000140: 0d3e a33d adc1 1f3e 6a3d 043e c380 17be
00000150: da43 b2bd 2281 ec3d be53 efbd aa18 47bd
00000160: e424 1cbe ae84 c23e 1412 77be 6d98 403d
00000170: 8e7b 2dbe b80c b73e 5a13 c1bd 57ba 33be
00000180: 738a cf3e b761 983c 32c4 95be 34c0 11be
00000190: 194c d63e e1f6 dabd 1818 85be 1c4f 893e
000001a0: bdd5 803d 3e37 843d 9218 033d 8e59 5239
000001b0: 9ffa 263d d6dd 2abe 8eda 503d 073d bebd
000001c0: 444c 483e e058 993d ca2c ef3d 358e 12be
000001d0: 568d 3b3d da87 4ebd 1b60 043e e0ed 92be
000001e0: caac 3b3d 1f97 3cbe 02c1 88bd 3eff 91be
000001f0: ac2f 7cbe 034a 0cbc 6c96 dcbd 100d a1be
00000200: 0ccd 89bd 0a95 2f3d 452b 3ebe 6bd7 dd3e
00000210: 3c30 823d 6e29 bcbd 1a46 f1bd 4394 1bbe
00000220: 054f 5cbe 7e85 2c3c 7661 0bbd 70cb 5a3e
00000230: fc65 163e d1a2 83bd d7a6 d53b 7627 22be
00000240: be76 78be 27ed 923c f310 09bd 1850 07be
00000250: 1f2e 47be c096 10be 40c7 77be 5243 6fbd
00000260: 9eb2 56be 564d d9bd 1536 acbd 1ddf ee3d
00000270: 5ef9 ddbd 1925 a3be b6dc c8be 9b42 f4bd
00000280: 018c fdbd 3868 a6bd afd6 bfbd f161 be3d
00000290: 613f ab3b 34f0 b03e 6a21 a9be 8d5d f4bc
000002a0: 4923 2e3e 5b1c c0bd b332 243e 6f5d 88bd
000002b0: e9c0 9d3e dfc9 eabe 6f61 8fbd 956c 293b
000002c0: 3214 cc3c ccb9 933c 8193 353e e0c6 a03e
000002d0: be97 153d 819f 3fbe e1db 6dbd 07fd 2c3e
000002e0: 7abf a0bc 5788 173e c3bb cc3d b952 593e
000002f0: 0e44 413e 007f 7c3e 8747 55be 218d 2ebe
00000300: 7907 8f3d 96f0 e63e 1f7a 783e 7b24 873d
00000310: 46ff 0c3c 53ee 27be 3548 253e ff2a 3e3e
00000320: 8119 3e3e 1176 433d 4930 693e 6cf4 893d
00000330: 7938 d03e 191d 80bd 0d57 933d 1995 55be
00000340: b284 e13d 99d5 b2bd a3e4 2e3e d3ce d8bd
00000350: 4a45 9c3e 4ecf 023e ade7 32be 02b4 a33e
00000360: eef1 76bd db47 7dbd e8f5 4c3d 02b0 3fbd
00000370: 782e 21be 3c1f d8bd 6ba8 50bd a0c9 d8bc
00000380: cb1b b73e 6c5d dfbd 4ea5 59be c68a b63d
00000390: 10b4 c3bd 1c93 ac3e 540f fa3d 0d8f 62be
000003a0: b0e3 203e 81e0 d23d 381a 16be 84fa 3d3e
000003b0: 6464 b9bd fbf9 2cbe 45f1 d53e fd1c 0bbe
000003c0: f865 713e 3d38 2e3e 8fbb 2c3d 7e00 103e
000003d0: 9e9d cb3d 280f 2d3e 383b 98be e422 743d
000003e0: e7eb 7e3d 58a8 11bd 8bde fdbc d244 22be
000003f0: 2ab4 fc3d 9546 4ebe f21f bbbc 8d80 313e

fc.2.weight f4 [2, 32]
-0.27372167 0.23813227 0.22413616 -0.13791351 -0.36817512 0.079513445 -0.21836597 -0.095640786
-0.04684291 -0.014518014 -0.16385752 0.0591787 -0.1683973 0.27007487 0.2562431 0.28420594
-0.16797692 -0.20133528 -0.30026028 0.19098888 0.3951286 -0.18978775 0.2450252 0.052973114
0.098472886 0.05331274 0.033443913 -0.18515842 -0.33029237 -0.12699296 0.1048481 -0.095382325
-0.14635757 0.5068855 -0.025404878 0.12929313 0.43882495 0.20710506 0.27725166 0.14975087
0.33670783 0.1869867 -0.06612166 -0.023991972 -0.24213257 0.048178934 0.15984562 0.077071354
-0.12081812 -0.20711178 0.10176479 -0.17089698 0.046279196 -0.100468986 0.2032869 -0.076856576
-0.19288088 0.26865983 -0.27662364 0.024709824 0.1794733 0.20508088 0.11188939 -0.15681006
00000000: 3f25 8cbe f2d8 733e f383 653e 3339 0dbe
00000010: 7381 bcbe f2d7 a23d 549b 5fbe 51df c3bd
00000020: 5ade 3fbd f7dc 6dbc 44ca 27be 5d65 723d
00000030: 5870 2cbe 4147 8a3e 4c32 833e 7183 913e
00000040: 2402 2cbe d62a 4ebe b7bb 99be 9792 433e
00000050: 4c4e ca3e b857 42be e3e7 7a3e 56fa 583d
00000060: 27ac c93d 765e 5a3d 7cfc 083d 2b9a 3dbe
00000070: 151c a9be 710a 02be 9aba d63d cf57 c3bd
00000080: c2de 15be 40c3 013f e41d d0bc 6b65 043e
00000090: aaad e03e 5913 543e eef3 8d3e 4b58 193e
000000a0: f864 ac3e 7179 3f3e cb6a 87bd d08a c4bc
000000b0: 9af1 77be 4657 453d 92ae 233e 96d7 9d3d
000000c0: 7e6f f7bd 1c15 54be 0f6a d03d 9eff 2ebe
000000d0: 418f 3d3d afc2 cdbd 712a 503e fb66 9dbd
000000e0: 9182 45be c88d 893e 9da1 8dbe 426c ca3c
000000f0: d9c7 373e b900 523e 4426 e53d d192 20be

grad_module.0.weight f4 [32, 37]
-0.08188265 -0.086447634 -0.10893513 -0.17608091 -0.14187731 0.13291126 -0.044810407 0.15061426
-0.11390766 0.051275022 0.14137152 -0.053681124 -0.051374726 0.07798348 0.12071372 -0.015207251
0.06428992 -0.11451672 0.069409244 0.09844333 -0.08893033 -0.017712448 0.028063424 -0.10118148
-0.02696436 -0.06044072 -0.19410545 0.048864704 0.11598714 0.008782102 -0.041242804 -0.15305588
-0.1318814 0.038987167 0.1295489 0.11237975 0.048459385 -0.19058132 0.051186495 0.1513166
-0.11014571 0.02558141 -0.030965757 0.14056064 0.015066134 -0.0044613006 0.14851227 -0.11138648
-0.0030296724 0.0053194077 -0.15869492 0.06769473 -0.06620738 0.088711925 -0.061302215 -0.0335341
-0.08656459 0.031270523 0.16346678 0.173588 -0.18493064 0.03903104 0.12774493 0.02418318
-0.08760186 0.04006587 0.09456034 -0.016295882 -0.038067244 0.16219255 -0.09949971 0.10848319
0.081877254 -0.00683388 -0.08161075 0.15295078 0.13412488 -0.015814688 0.12322151 -0.12342267
0.011012731 -0.1163417 0.08751354 -0.06706027 0.07318038 -0.09600854 0.10247817 -0.02874644
0.03959904 0.19924252 0.12272415 -0.16320597 0.0112450365 -0.14242563 -0.16295712 0.024517559
-0.03557393 0.03838006 -0.13485366 -0.1955824 -0.0010066875 -0.10710746 0.10787216 0.013791794
-0.15336375 -0.10956838 0.0115491375 0.14546704 0.10469981 -0.17323983 0.027221996 0.05931386
0.006279672 0.022615356 -0.05270752 0.01842659 0.0084625445 -0.019213272 0.059956037 -0.011122313
-0.06447097 0.13957185 -0.13678592 0.11747245 -0.18184805 -0.114772886 0.052544694 -0.100112826
-0.030127207 0.16816671 -0.10932857 -0.14541985 -0.11964499 0.024471648 -0.08555108 -0.07044729
0.046034828 -0.08415933 -0.06850871 -0.15058404 -0.0398398 0.020527197 -0.008011708 -0.13687779
0.1495302 0.0862357 0.22448893 -0.17538913 0.13153718 0.08010884 0.06883238 0.09458098
-0.048286557 -0.025643729 0.14514263 -0.13525286 0.13274984 0.042235278 0.030474689 -0.027785132
-0.17505148 -0.032829933 -0.12197814 -0.05843039 -0.0036390524 0.09781606 0.012107508 -0.015544309
0.05353203 0.09264096 0.03020675 0.058895502 -0.13547803 -0.16221683 -0.13616633 0.082987495
0.117245086 0.032598536 -0.090857364 -0.002463829 0.172149 -0.056151345 -0.15673184 0.023463046
-0.04184317 0.057479486 -0.07292926 0.093767874 -0.1811628 0.14803435 -0.1451364 -0.09342631
0.08595343 -0.038343553 -0.04137432 -0.04434537 0.07798097 0.023552606 0.020913184 0.18836652
-0.10020573 -0.016399639 0.15178953 -0.05485847 0.14272511 -0.10830444 0.024840863 -0.03979805
-0.06091428 0.049563024 -0.04549192 -0.055263862 0.013686422 0.13568087 -0.1109818 0.0029835205
0.06462013 0.0846092 -0.08666507 -0.16114381 -0.049484834 -0.15481879 -0.1152832 0.10437958
-0.09890509 0.007440723 0.009035404 -0.13506682 -0.16118382 0.16771062 0.10222756 -0.104925215
-0.08339223 -0.11249534 -0.042929284 -0.15569656 0.11079505 0.0029105074 0.14019269 0.011201157
0.056287628 0.12748015 0.1241388 -0.13568577 0.110385075 -0.031026786 0.10168044 -0.07996832
-0.05758958 -0.12103484 0.07385025 -0.06700766 -0.11694702 -0.11629441 0.17450461 -0.14054689
00000000: 17b2 a7bd 750b b1bd 6219 dfbd 8e4e 34be
00000010: 4948 11be e419 083e 1e8b 37bd a03a 1a3e
00000020: 6b48 e9bd c205 523d b2c3 103e bde0 5bbd
00000030: 4e6e 52bd ceb5 9f3d c138 f73d d527 79bc
00000040: 6faa 833d be87 eabd 6f26 8e3d a89c c93d
00000050: 1b21 b6bd b219 91bc 44e5 e53c 3c38 cfbd
00000060: 5de4 dcbc b090 77bd 94c3 46be 5b26 483d
00000070: aa8a ed3d cee2 0f3c 37ee 28bd aeba 1cbe
00000080: eb0b 07be 02b1 1f3d 78a8 043e 5b27 e63d
00000090: 597d 463d c027 43be eea8 513d bdf2 1a3e
000000a0: 1394 e1bd 1b90 d13c e6ab fdbc 21ef 0f3e
000000b0: f2d7 763c 1a30 92bb 9a13 183e 981e e4bd
000000c0: 788d 46bb 6d4e ae3b ec80 22be 89a3 8a3d
000000d0: bc97 87bd 99ae b53d 0818 7bbd 0d5b 09bd
000000e0: c748 b1bd 8515 003d d663 273e 0dc1 313e
000000f0: 755e 3dbe 03df 1f3d 91cf 023e ce1b c63c
00000100: 9b68 b3bd 1c1c 243d daa8 c13d f17e 85bc
00000110: 66ec 1bbd ce15 263e 81c6 cbbd 6f2c de3d
00000120: 43af a73d beee dfbb 8923 a7bd 219f 1c3e
00000130: 0858 093e ce8d 81bc 8f5b fc3d 06c5 fcbd
00000140: be6e 343c 8f44 eebd 4d3a b33d e556 89bd
00000150: 98df 953d 20a0 c4bd 13e0 d13d a77d ebbc
00000160: 9a32 223d 3b06 4c3e cd56 fb3d 771f 27be
00000170: 1a3d 383c 06d8 11be 3bde 26be 0cd9 c83c
00000180: f8b5 11bd 6934 1d3d 1417 0abe c146 48be
00000190: d4f2 83ba 285b dbbd 14ec dc3d faf6 613c
000001a0: 630b 1dbe 6365 e0bd 9838 3d3c 50f5 143e
000001b0: db6c d63d c865 31be aa00 df3c 17f3 723d
000001c0: b5c5 cd3b d743 b93c d7e3 57bd 5cf3 963c
000001d0: 7ca6 0a3c 2765 9dbc 7694 753d 5d3a 36bc
000001e0: 5b09 84bd eceb 0e3e 9c11 0cbe 6595 f03d
000001f0: 6036 3abe 0c0e ebbd 1b39 573d f407 cdbd
00000200: 55cd f6bc e533 2c3e a8e7 dfbd f1e8 14be
00000210: 6f08 f5bd c478 c83c 6835 afbd ab46 90bd
00000220: 048f 3c3d ba5b acbd 4b4e 8cbd b432 1abe
00000230: 0f2f 23bd a728 a83c 8a43 03bc b129 0cbe
00000240: 721e 193e 589c b03d 6de0 653e 3599 33be
00000250: afb1 063e 1a10 a43d fef7 8c3d acb3 c13d
00000260: 20c8 45bd cc12 d2bc 45a0 143e ba7f 0abe
00000270: 93ef 073e e6fe 2c3d 0ea6 f93c a59d e3bc
00000280: b240 33be ae78 06bd adcf f9bd b454 6fbd
00000290: 2b7d 6ebb c953 c83d 925e 463c 8fad 7ebc
000002a0: 6744 5b3d 8bba bd3d 2574 f73c 693c 713d
000002b0: c1ba 0abe 2b1c 26be 306f 0bbe 59f5 a93d
000002c0: 311e f03d 0b86 053d 6d13 babd 3178 21bb
000002d0: d447 303e f4fe 65bd 507e 20be 9335 c03c
000002e0: be63 2bbd 9c6f 6b3d f05b 95bd 5f09 c03d
000002f0: be82 39be 5196 173e a39e 14be 4b56 bfbd
00000300: 5a08 b03d 210e 1dbd 1e78 29bd 7ea3 35bd
00000310: 7db4 9f3d 65f1 c03c 2052 ab3c 27e3 403e
00000320: a938 cdbd 8958 86bc b76e 1b3e 46b3 60bd
00000330: 8826 123e b8ce ddbd 117f cb3c 4803 23bd
00000340: 4181 79bd 9902 4b3d bc55 3abd 5c5c 62bd
00000350: 043d 603c edef 0a3e 6d4a e3bd 2b87 433b
00000360: 8f57 843d 9747 ad3d 757d b1bd e202 25be
00000370: 9cb0 4abd d188 1ebe 9919 ecbd f6c4 d53d
00000380: c08e cabd 4fd1 f33b 3b09 143c f54e 0abe
00000390: 5f0d 25be 55bc 2b3e af5c d13d 08e3 d6bd
000003a0: 8cc9 aabd f563 e6bd 9ed6 2fbd eb6e 1fbe
000003b0: 84e8 e23d 36be 3e3b ac8e 0f3e 0f85 373c
000003c0: db8d 663d 288a 023e 7c3c fe3d 36f1 0abe
000003d0: 9211 e23d e32b febc d63d d03d 6ec6 a3bd
000003e0: 0de3 6bbd 1de1 f7bd cd3e 973d 503b 89bd
000003f0: eb81 efbd c32b eebd 56b1 323e 86eb 0fbe

grad_module.0.bias f4 [32]
0.14091185 0.055244874 0.14128317 -0.13880086 -0.098753504 0.09199478 0.05547215 0.1535847
-0.13857393 0.13366485 -0.034154058 0.1184835 0.10911129 0.06521144 0.11014772 -0.1439467
0.08973769 0.0019351824 -0.069700964 0.08307684 0.075418964 -0.022020346 0.0025551447 0.09414266
-0.0053857313 0.1828854 0.09824682 -0.15564434 0.01427344 0.09922191 0.11158556 0.1893622
00000000: 324b 103e 7348 623d 89ac 103e d021 0ebe
00000010: 473f cabd c267 bc3d c436 633d 4f45 1d3e
00000020: 53e6 0dbe 70df 083e 20e5 0bbd 7aa7 f23d
00000030: bd75 df3d 938d 853d 2195 e13d c466 13be
00000040: 65c8 b73d f2a5 fd3a 61bf 8ebd 3124 aa3d
00000050: 4275 9a3d 0364 b4bc 3774 273b decd c03d
00000060: ca7a b0bb 4f46 3b3e a135 c93d 3b61 1fbe
00000070: 26db 693c db34 cb3d f886 e43d 2ae8 413e

grad_module.2.weight f4 [32, 32]
0.03169651 -0.013669074 0.12952043 -0.18491383 -0.13257182 0.09481029 0.09440029 -0.07783022
0.085567 0.017121164 0.14574735 -0.15381284 0.13311769 0.005625627 0.16574304 0.13402472
0.027931858 0.13725293 0.09490612 -0.05315778 0.12124119 0.087493844 -0.049416214 0.08581087
-0.0061724 -0.13278915 0.10626997 -0.18811622 0.032787528 0.030236304 0.035698075 0.11215115
0.11488685 -0.03344945 -0.051159322 0.026353115 -0.13287845 -0.15581043 -0.11333704 0.08207271
-0.1653423 -0.1286169 -0.13710417 0.08826486 0.12408498 -0.0807944 -0.015978146 0.09375532
-0.048411224 0.12497613 0.08535036 -0.1332756 -0.023581933 0.13356121 -0.11577091 0.12397496
0.07289872 -0.050520353 0.0013777134 0.13059936 -0.07825292 -0.11592528 0.060555607 -0.04337006
0.07294157 -0.025398487 -0.12273135 0.10220103 0.06777586 -0.17668536 -0.07917748 0.04628629
-0.021230567 0.17032659 -0.11360178 -0.10361765 -0.080313705 0.023856228 0.17749245 -0.07219367
-0.03864379 0.024795424 0.18484098 -0.0496557 0.002000454 -0.10395589 -0.10803997 -0.15773496
0.03499788 0.15302972 -0.089651525 0.09001345 0.15699647 0.08469529 0.12660412 -0.015415223
0.22725818 -0.17238371 0.009359513 -0.0073339194 -0.073676534 0.10425513 -0.12575632 0.15445496
-0.061307482 0.13245688 -0.052064974 0.16680294 -0.15879504 -0.116597965 -0.030412355 0.014456068
0.037821945 -0.12024328 -0.12223592 -0.07301815 -0.02479251 -0.12976563 -0.026251055 0.118978865
-0.005178982 0.042535428 0.06647441 0.14655703 0.07709481 -0.06858803 -0.115573995 0.13339269
-0.0036504136 -0.13744299 0.0031805888 0.050573222 0.12569708 0.011204072 -0.027082708 -0.17172842
-0.16021073 0.068300225 -0.10396553 -0.07489786 0.051246833 0.0025550707 -0.06736737 0.10506411
-0.0037524174 0.07478943 0.004329034 0.14052236 -0.12481687 0.041511096 -0.19471346 0.019636603
-0.08528177 -0.006817919 0.092541985 -0.107418574 0.11948354 -0.015183382 0.056513533 -0.03540313
-0.14221823 0.1714134 0.15034366 0.05179024 -0.16664407 0.00013675293 0.121801116 0.024849733
-0.07653999 -0.004609515 -0.08167184 0.103984736 0.13517863 -0.021320168 0.19092749 0.05325418
0.095347464 0.043896675 0.041528832 -0.16197348 -0.03239968 0.1342684 0.1761413 -0.09620225
-0.05621811 -0.037511725 0.068453066 -0.04335072 -0.023140188 -0.022977483 0.09710383 -0.16735674
-0.068681896 -0.15344907 0.11394682 0.17501964 -0.14453477 -0.018023493 0.031305127 0.14102325
-0.14690237 0.069184944 -0.015626905 -0.14540605 -0.037782922 0.12685865 -0.14746636 -0.009305732
-0.04051996 0.016680062 -0.0061969194 -0.09040945 0.035071563 -0.012036706 -0.19807076 -0.033337373
0.09822835 0.07448543 0.08555988 0.16759092 0.09389369 0.0328777 0.1509874 0.026525525
-0.19728282 0.014253972 0.124833226 -0.18989895 0.1451051 0.06319071 -0.03908122 -0.066459924
-0.14644814 0.07206218 0.026200108 -0.118085004 -0.120246224 0.09142118 -0.0870855 -0.031304277
0.09753288 -0.12021836 -0.07064418 -0.049799964 -0.054200057 -0.15574211 -0.098508336 0.01930909
-0.06433841 -0.07966049 -0.15541874 -0.049021777 -0.1489693 -0.14032698 0.0927365 -0.0011703481
00000000: 33d4 013d 40f4 5fbc 01a1 043e 0d5a 3dbe
00000010: e8c0 07be e62b c23d f054 c13d 7365 9fbd
00000020: c03d af3d af41 8c3c cb3e 153e 1d81 1dbe
00000030: 0150 083e 2e57 b83b 8bb8 293e c73d 093e
00000040: 5ad1 e43c 088c 0c3e 245e c23d f9bb 59bd
00000050: 4d4d f83d f92f b33d a868 4abd 9cbd af3d
00000060: d841 cabb e1f9 07be 12a4 d93d 8aa1 40be
00000070: 374c 063d 20b2 f73c 2538 123d 81af e53d
00000080: cc49 eb3d 4a02 09bd 708c 51bd 7de2 d73c
00000090: 4a11 08be c58c 1fbe 401d e8bd bd15 a83d
000000a0: 7e4f 29be 26b4 03be 0965 0cbe 35c4 b43d
000000b0: 4420 fe3d 8977 a5bd 9ae4 82bc ca02 c03d
000000c0: d94a 46bd 7cf3 ff3d 2bcc ae3d 6679 08be
000000d0: e62e c1bc 45c4 083e 4d19 edbd 95e6 fd3d
000000e0: ed4b 953d 6eee 4ebd 6494 b43a d7bb 053e
000000f0: 1143 a0bd 3c6a edbd 2809 783d cea4 31bd
00000100: 6462 953d 7d10 d0bc 935a fbbd c64e d13d
00000110: 12ce 8a3d 02ed 34be cd27 a2bd b196 3d3d
00000120: baeb adbc 186a 2e3e 0da8 e8bd 7e35 d4bd
00000130: 837b a4bd 236e c33c 95c0 353e 46da 93bd
00000140: f348 1ebd c61f cb3c f446 3d3e c663 4bbd
00000150: 0d1a 033b d3e6 d4bd 0f44 ddbd 4685 21be
00000160: f059 0f3d d3b3 1c3e 389b b7bd f958 b83d
00000170: afc3 203e b974 ad3d 83a4 013e 2290 7cbc
00000180: 5eb6 683e 5b85 30be a558 193c 6051 f0bb
00000190: b9e3 96bd b783 d53d 44c6 00be 7129 1e3e
000001a0: 8e1d 7bbd c7a2 073e 1542 55bd 64ce 2a3e
000001b0: 2b9b 22be eaca eebd 5523 f9bc 25d9 6c3c
000001c0: 2feb 1a3d 1c42 f6bd d356 fabd 8a8a 95bd
000001d0: a919 cbbc 48e1 04be 740c d7bc 31ab f33d
000001e0: 73b4 a9bb a139 2e3d bc23 883d 0c13 163e
000001f0: e2e3 9d3d e277 8cbd 0fb2 ecbd 1898 083e
00000200: c73b 6fbb dbbd 0cbe 6d71 503b de25 4f3d
00000210: bcb6 003e 4991 373c 8edc ddbc 93d9 2fbe
00000220: 480e 24be fde0 8b3d e1eb d4bd 0d64 99bd
00000230: 33e8 513d f972 273b e7f7 89bd da2b d73d
00000240: 1eeb 75bb 332b 993d 92da 8d3b 18e5 0f3e
00000250: fd9f ffbd 8a07 2a3d f762 47be f1dc a03c
00000260: 35a8 aebd da68 dfbb a786 bd3d 45fe dbbd
00000270: c9b3 f43d b8c3 78bc bc7a 673d df02 11bd
00000280: a8a1 11be ff86 2f3e b0f3 193e 0122 543d
00000290: bea4 2abe 5665 0f39 dd72 f93d ab91 cb3c
000002a0: 00c1 9cbd 6a0b 97bb 9143 a7bd f3f5 d43d
000002b0: 446c 0a3e a2a7 aebc 7f82 433e 0e21 5a3d
000002c0: 8845 c33d 00cd 333d 231a 2a3d 60dc 25be
000002d0: 87b5 04bd a87d 093e 635e 343e af05 c5bd
000002e0: f644 66bd e5a5 19bd 1f31 8c3d 8690 31bd
000002f0: 7e90 bdbc 463b bcbc 5fde c63d 915f 2bbe
00000300: 18a9 8cbd c121 1dbe f35c e93d 5938 333e
00000310: ec00 14be 01a6 93bc ce39 003d 6668 103e
00000320: 936d 16be d6b0 8d3d ff03 80bc 53e5 14be
00000330: 44c2 1abd 3ce7 013e 6c01 17be 1277 18bc
00000340: 42f8 25bd a0a4 883c 870f cbbb 9728 b9bd
00000350: 33a7 0f3d 9b35 45bc 10d3 4abe c58c 08bd
00000360: f22b c93d d18b 983d 053a af3d f49c 2b3e
00000370: 564b c03d c4aa 063d 719c 1a3e 0f4c d93c
00000380: 8204 4abe 7e89 693c 90a8 ff3d df74 42be
00000390: 6e96 143e 226a 813d a113 20bd 241c 88bd
000003a0: 80f6 15be 5695 933d 9ca1 d63c 8dd6 f1bd
000003b0: a743 f6bd 073b bb3d e259 b2bd ea38 00bd
000003c0: 52bf c73d 0b35 f6bd e5ad 90bd 0cfb 4bbd
000003d0: e100 5ebd dc7a 1fbe bdbe c9bd 192e 9e3c
000003e0: dbc3 83bd 0a25 a3bd 1726 1fbe 0fcb 48bd
000003f0: 688b 18be e0b1 0fbe a2ec bd3d 5e66 99ba

grad_module.2.bias f4 [32]
-0.1266261 0.12436076 0.036927707 0.023925928 0.08774452 0.19058415 0.086478174 -0.17588656
0.009167015 -0.14113192 0.030697692 -0.033507105 0.13573223 -0.13162637 -0.14833565 -0.04638683
0.11568242 -0.001190236 -0.16139252 -0.07134243 0.029794093 -0.07270686 -0.021134015 0.010131005
-0.1876406 0.121672206 -0.080560565 -0.11429655 0.06942232 0.104894094 -0.015673125 0.03845998
00000000: 46aa 01be dbb0 fe3d 8241 173d 4f00 c43c
00000010: 66b3 b33d 7e28 433e 781b b13d 9b1b 34be
00000020: 3f31 163c e384 10be ba79 fb3c bf3e 09bd
00000030: 64fd 0a3e 10c9 06be 4de5 17be 1e00 3ebd
00000040: e8ea ec3d b101 9cba 1544 25be fb1b 92bd
00000050: be12 f43c 56e7 94bd 3e21 adbc 84fc 253c
00000060: dc24 40be 472f f93d f0fc a4bd 4f14 eabd
00000070: 4a2d 8e3d b7d2 d63d ed64 80bc 3688 1d3d

exp_avg f4 [32, 7]
-0.0025554185 0.0019771785 0.00020706408 -0.0027531497 -0.006022042 0.0008419628 -0.0012615873 0.0025097968
-0.0017380855 -0.0040574404 0.006831775 -0.0043149036 0.014236599 -0.0012584247 -0.01954382 0.004925292
0.007893974 -0.0064985123 -0.014845043 0.0010031157 -0.0020856874 -0.00068179844 0.0016080328 0.0023917858
-0.00808432 -0.0008291166 -0.0066198735 0.0023538307 -0.007471533 0.008529994 0.0020675594 0.00029951317
0.010503523 -0.014985348 0.00023969647 -0.01103711 -0.0013198546 -0.0009419437 0.0027860033 -0.01921447
0.013255559 -0.00871209 0.015808236 -0.005993949 -0.00875205 0.0027603337 0.012680983 0.003741258
0.0054126843 -0.011037019 0.0050736316 0.0030984234 -0.0029996228 -0.0011215159 -0.0025163633 -0.00405326
-0.0004140932 0.0052155955 0.0050938805 -0.003991408 0.0054097557 -0.0038019689 0.0039378963 0.0006392842
-0.0060709417 -0.0069904365 0.011724952 -0.001175521 0.009738242 -0.006860941 0.00036778772 -0.000413151
0.0025979327 0.00014582225 -0.0021494408 -0.0046112137 0.003056635 0.029540371 0.005703619 -0.013320117
-0.00911089 0.03647308 -0.021433216 0.010584739 -0.0046090623 0.0010084119 -0.0037273904 0.005664894
0.0024551074 0.0062826285 -0.00035436612 0.009358895 0.015690392 -0.004417359 -0.005536116 0.018628085
-0.016815597 0.00023051356 -0.012481571 0.004005557 0.0029306214 0.0015594721 -0.009941226 -0.0054798084
-0.005125204 0.030157939 0.0029849368 -0.015148208 -0.0075709405 0.033385605 -0.018060459 0.010725235
0.0121612195 -0.0018107384 -0.0019869632 -0.0033947118 0.008986349 -0.008238592 0.0034303772 0.003846117
-0.011168262 -0.005898227 0.010613819 0.0012677698 0.015305739 -0.0055722757 0.025144609 -0.0032193463
-0.014610947 0.0020774899 0.021859424 0.00025246796 0.0055970363 -0.0062053427 -0.0007085858 0.0039627594
0.0012632797 -0.009187716 0.0045423754 -0.002783613 0.01470067 -0.0042546242 -0.010719322 0.0056748562
0.011893987 0.007752625 -0.0037491883 -0.0024742566 -0.0033713528 -0.003589333 0.0028314064 0.0029769826
0.0025234548 0.003999536 -0.0010531996 0.003091448 0.0011959622 0.00030626435 -0.0005509524 0.005889833
-0.00089288305 -0.0038145732 0.011607121 0.0007422417 -0.009554184 0.004358919 -0.013580381 0.0008289352
-0.007476233 -0.0016899548 0.0043216874 -0.0018766953 -0.003316717 -0.0035315668 -0.000913571 -0.008269668
-0.004612144 -0.0020528606 0.008777195 -0.012142729 0.010233666 -0.005480099 -0.016337747 0.002392545
0.0015015774 -2.9227718e-05 -0.005723131 -0.000971721 -0.0012592181 -0.0053536086 0.0016253943 0.0052862247
-0.00037415067 -0.007807892 0.008576879 -0.000873289 0.016930284 -0.0011995593 -0.0058069667 -0.0014141711
0.01479749 -0.0075415275 0.0030736164 -0.014516746 0.0063017057 0.008336789 -0.011307682 -0.0051386585
-0.016067477 0.00044860505 0.00881108 0.0021372996 -0.0038208852 -0.005673062 0.0075098467 -0.008788421
0.007272813 -0.009056087 0.0047901 0.010873236 -0.013352498 -0.0099051185 -0.015700577 0.007813493
00000000: cf78 27bb 8d93 013b 571f 5939 306e 34bb
00000010: 8d54 c5bb 2bb7 5c3a d85b a5ba 677b 243b
00000020: 79d0 e3ba 47f4 84bb 15dd df3b 0964 8dbb
00000030: a040 693c baf1 a4ba 5c1a a0bc 5864 a13b
00000040: ba55 013c 79f1 d4bb a038 73bc fa7a 833a
00000050: 07b0 08bb b8ba 32ba a1c4 d23a 82bf 1c3b
00000060: 1974 04bc 1359 59ba 86eb d8bb ba42 1a3b
00000070: c3d3 f4bb 63c1 0b3c e47f 073b fa07 9d39
00000080: f816 2c3c 1b85 75bc 0857 7b39 ffd4 34bc
00000090: f9fe acba c6ec 76ba 6195 363b aa67 9dbc
000000a0: d82d 593c 27bd 0ebc 4680 813c e368 c4bb
000000b0: c264 0fbc b7e6 343b e6c3 4f3c e52f 753b
000000c0: e35c b13b 9dd4 34bc b540 a63b eb0e 4b3b
000000d0: 5295 44bb d4ff 92ba 92e9 24bb 36d1 84bb
000000e0: a61a d9b9 96e7 aa3b 91ea a63b 5bca 82bb
000000f0: 5244 b13b 742a 79bb 7809 813b a395 273a
00000100: c0ee c6bb 0810 e5bb 031a 403c f113 9aba
00000110: 268d 1f3c bfd1 e0bb a2d3 c039 309c d8b9
00000120: 1442 2a3b dde7 1839 a2dd 0cbb aa19 97bb
00000130: d351 483b a6fe f13c 6de5 ba3b 9f3c 5abc
00000140: d845 15bc cc64 153d b694 afbc 9d6b 2d3c
00000150: 9e07 97bb b02c 843a 3c47 74bb 93a0 b93b
00000160: dee5 203b 82de cd3b 37ca b9b9 0d56 193c
00000170: 2389 803c 7ebf 90bb 4f68 b5bb ed99 983c
00000180: ddc0 89bc 03b6 7139 817f 4cbc 0c41 833b
00000190: ab0f 403b 3367 cc3a 86e0 22bc f78f b3bb
000001a0: 54f1 a7bb c80d f73c ee9e 433b 3030 78bc
000001b0: a715 f8bb 58bf 083d 87f3 93bc e5b8 2f3c
000001c0: da3f 473c 4c56 edba b637 02bb d079 5ebb
000001d0: 7b3b 133c 29fb 06bc 2ed0 603b 230f 7c3b
000001e0: 16fb 36bc ea45 c1bb 95e5 2d3c 4c2b a63a
000001f0: ecc4 7a3c a397 b6bb 11fc cd3c abfb 52bb
00000200: c162 6fbc 7f26 083b 8912 b33c ad5d 8439
00000210: 5867 b73b 3056 cbbb 63c0 39ba 09da 813b
00000220: a294 a53a 1388 16bc 35d8 943b 476d 36bb
00000230: 14db 703c 606a 8bbb 18a0 2fbc 25f4 b93b
00000240: ffde 423c bb09 fe3b f1b4 75bb 2327 22bb
00000250: eaf1 5cbb 043b 6bbb 1e8f 393b 7b19 433b
00000260: 8c60 253b 8a0e 833b 840b 8aba e499 4a3b
00000270: d5c1 9c3a 1b92 a039 ca6d 10ba 80ff c03b
00000280: 5e10 6aba ebfd 79bb cb2b 3e3c ff92 423a
00000290: 2789 1cbc 43d5 8e3b 3f80 5ebc e64c 593a
000002a0: 30fb f4bb 7981 ddba f19c 8d3b 72fb f5ba
000002b0: 475d 59bb dc71 67bb b67c 6fba 807d 07bc
000002c0: 7821 97bb 4989 06bb 39ce 0f3c 4cf2 46bc
000002d0: 1bab 273c 6792 b3bb bdd6 85bc 3fcc 1c3b
000002e0: 94d0 c43a 0c2e f5b7 1a89 bbbb 18bb 7eba
000002f0: 590c a5ba 536d afbb 2f0b d53a 1138 ad3b
00000300: a729 c4b9 58d9 ffbb 0a86 0c3c 6fed 64ba
00000310: 61b1 8a3c 883a 9dba 5e48 bebb b55b b9ba
00000320: 2c71 723c eb1e f7bb ba6e 493b a5d7 6dbc
00000330: 8a7e ce3b 0797 083c db43 39bc 3162 a8bb
00000340: f19f 83bc c032 eb39 595c 103c f011 0c3b
00000350: d167 7abb 18e5 b9bb 2915 f63b 4ffd 0fbc
00000360: c750 ee3b fb5f 14bc 45f6 9c3b a825 323c
00000370: 70c4 5abc 1449 22bc 7f9e 80bc 2a04 003c

exp_avg_sq f4 [32, 7]
0.0003846448 0.0007955276 0.000423384 0.000540881 0.00046737876 0.0012178195 0.00028908032 0.00045259544
0.00050579617 0.00026408612 0.00054290576 0.0004955519 0.0013965438 0.00024663802 0.0008724854 0.0010382643
0.0010461551 0.00077671756 0.0007470397 0.00080184714 0.00058983313 0.0002719197 0.00028797658 0.00015660985
0.0003560364 0.00031872938 0.00068745663 0.0001265563 0.0018004362 0.002130615 0.0021212574 0.0015655176
0.0015166524 0.0026022086 0.0015285241 0.0013905462 0.0015787326 0.00087334757 0.001416708 0.0015452226
0.0024044833 0.0012139966 0.00048344902 0.00031114148 0.0004899666 0.0002956099 0.0004114417 0.0004036416
0.0003677459 0.00063984795 0.0009812075 0.00082300074 0.0006482453 0.0006165126 0.0012312289 0.0005914886
0.0002500882 0.0002938735 0.00027819493 0.00023030187 0.00030123757 0.00025335382 0.00030748826 0.0004181934
0.00042499922 0.00041148267 0.00044584015 0.00049092947 0.0006637824 0.00037386105 0.00012813685 0.00027330365
9.825586e-05 0.00021845546 0.00016230435 0.00050036854 9.529386e-05 0.0046564722 0.0028700072 0.0031338495
0.0037828055 0.004373844 0.0060500824 0.0023968676 0.00083912077 0.0012091186 0.0010362841 0.0010049584
0.0007888754 0.0014912365 0.000586213 0.0012843999 0.0011935902 0.0013800652 0.0011216325 0.0011360641
0.0021078459 0.00046532633 0.0003979256 0.00039190715 0.00031448583 0.00043552404 0.0003957867 0.00058654044
0.00020342215 0.0029000435 0.0016190086 0.0018758785 0.0022352464 0.002752296 0.003288261 0.0014220146
0.00066395884 0.0007381103 0.0005097742 0.00065929734 0.00063760806 0.0014702628 0.0004959316 0.00060892885
0.00092676654 0.00048651712 0.0008898602 0.0008037545 0.0022030682 0.0005061129 0.0016502751 0.0014749424
0.001501288 0.0013034978 0.0015343013 0.0018114226 0.0012698796 0.00049332145 0.00032877122 0.00048637067
0.00041565852 0.0003881809 0.0007598726 0.00025561271 0.0006882386 0.0011356253 0.0010483381 0.00061521813
0.0007563387 0.0010060474 0.0010274855 0.00020884885 0.00025287355 0.00024969826 0.00025517118 0.00023791658
0.0004531369 0.00014459279 7.590369e-05 0.00016105865 9.340038e-05 0.0001360257 9.6492426e-05 0.0003856987
4.082194e-05 0.000709174 0.00093994 0.000795181 0.0008685228 0.0008102653 0.0014655537 0.00060757075
0.00015855557 0.00022386444 0.00015490656 0.0001645148 0.00017110785 0.00029446447 0.00023451712 0.00058785063
0.0005956209 0.00035501085 0.00061336986 0.00066011946 0.0014301455 0.00046352652 0.0011462431 0.0014461323
0.0013980541 0.0011805198 0.0010678505 0.0018606461 0.0007418371 0.00042463382 0.00033941484 0.00035691267
0.0003626609 0.00040044327 0.0007343871 0.00022219039 0.00089300744 0.00078330905 0.00085822784 0.00069985236
0.00081555627 0.0009720772 0.00060786254 0.0009965632 0.0012357918 0.0010855655 0.0009942331 0.000984247
0.0014618759 0.0013550533 0.00077207905 0.0005305374 0.0006068721 0.0007483944 0.0007060435 0.0013023481
0.00043571487 0.00070802675 0.00076857826 0.000685727 0.0009813792 0.0008334634 0.0017076498 0.0008327636
00000000: 27aa c939 f48a 503a a3f9 dd39 e9c9 0d3a
00000010: 840a f539 3e9f 9f3a b48f 9739 554a ed39
00000020: 6897 043a 0a75 8a39 ca51 0e3a ede7 013a
00000030: 3c0c b73a 324f 8139 81b7 643a 5e16 883a
00000040: 241f 893a a29c 4b3a fcd4 433a 0d33 523a
00000050: 089f 1a3a 7290 8e39 90fb 9639 a337 2439
00000060: 66aa ba39 221b a739 6f36 343a 33b4 0439
00000070: 9dfc eb3a caa1 0b3b cb04 0b3b 0e32 cd3a
00000080: 69ca c63a d189 2a3b c258 c83a fd42 b63a
00000090: 7aed ce3a 5df1 643a d5b0 b93a 1189 ca3a
000000a0: 8994 1d3b f71e 9f3a 6e77 fd39 b420 a339
000000b0: 1a71 003a 17fc 9a39 c5b6 d739 dc9f d339
000000c0: 05ce c039 78bb 273a dc9b 803a a5be 573a
000000d0: 01ef 293a 769d 213a 3061 a13a 210e 1b3a
000000e0: 451e 8339 0913 9a39 b1da 9139 307d 7139
000000f0: 6cef 9d39 93d4 8439 6036 a139 f840 db39
00000100: 6ed2 de39 45bc d739 a7bf e939 b8b1 003a
00000110: af01 2e3a c802 c439 795c 0639 324a 8f39
00000120: b70e ce38 3111 6539 3e30 2a39 2a2b 033a
00000130: 80d8 c738 5295 983b bb16 3c3b 4561 4d3b
00000140: f2e8 773b 7652 8f3b c53f c63b c414 1d3b
00000150: 71f8 5b3a 4a7b 9e3a edd3 873a cfb8 833a
00000160: 88cc 4e3a 9875 c33a 17ac 193a 4f59 a83a
00000170: 3e72 9c3a 4ee3 b43a be03 933a fce7 943a
00000180: c923 0a3b 0bf7 f339 aca0 d039 e378 cd39
00000190: 93e1 a439 0c57 e439 9781 cf39 10c2 193a
000001a0: b84d 5539 a80e 3e3b ea34 d43a 0ae0 f53a
000001b0: 367d 123b dd5f 343b dd7f 573b e462 ba3a
000001c0: 860d 2e3a be7d 413a 5ea2 053a b2d4 2c3a
000001d0: 2725 273a d5b5 c03a 6801 023a 86a0 1f3a
000001e0: 40f2 723a 3913 ff39 8245 693a 0db3 523a
000001f0: 5a61 103b a9ac 043a 0b4e d83a db52 c13a
00000200: dec6 c43a 21da aa3a 9c1a c93a 426d ed3a
00000210: 1772 a63a 3e52 013a ed5e ac39 91ff fe39
00000220: beec d939 c284 cb39 3032 473a c203 8639
00000230: e96a 343a 43d9 943a 6468 893a 9746 213a
00000240: 0845 463a 59dd 833a b1ac 863a 70fe 5a39
00000250: 1d94 8439 efe9 8239 7fc8 8539 3f79 7939
00000260: 0193 ed39 d59d 1739 7c2e 9f38 dae1 2839
00000270: f2df c338 1fa2 0e39 fa5b ca38 9a37 ca39
00000280: 3938 2b38 dde7 393a 4e66 763a b273 503a
00000290: 94ad 633a fc67 543a d217 c03a 6245 1f3a
000002a0: f041 2639 27bd 6a39 6a6e 2239 9b81 2c39
000002b0: 6a6b 3339 5a62 9a39 b6e8 7539 fd19 1a3a
000002c0: 7123 1c3a c020 ba39 8eca 203a de0b 2d3a
000002d0: b873 bb3a 7a05 f339 893d 963a 268c bd3a
000002e0: e93e b73a acbb 9a3a 1ef7 8b3a ece0 f33a
000002f0: d877 423a 63a1 de39 7df3 b139 0220 bb39
00000300: 8623 be39 96f2 d139 e283 403a c7fb 6839
00000310: b718 6a3a fb56 4d3a b2fa 603a 4c76 373a
00000320: 0ecb 553a ffd2 7e3a f758 1f3a 1d9f 823a
00000330: 4bfa a13a 8949 8e3a ed50 823a d901 813a
00000340: 6a9c bf3a 0b9c b13a 5965 4a3a c313 0b3a
00000350: 7f16 1f3a e62f 443a c715 393a 8db3 aa3a
00000360: a970 e439 df9a 393a 6a7a 493a 5cc2 333a
00000370: 9fa1 803a c87c 5a3a 38d3 df3a d24d 5a3a
