ckpt/rnn_ode_affine_2_3_h16/best.pth (torch_old, 42773 bytes, 50 tensors)

rnn.weight_ih_l0 f4 [16, 7]
00000000: 8ae4 9bbd 6f86 6d3c eebe 133e 9efa bfbc
00000010: e150 4dbe 17bb 8e3e a9a4 5cbd 9f27 aabd
00000020: 108d bf3c cb68 64be 87ae a53d 7b97 7fbd
00000030: 0f81 223e ffda 46bd 77e3 a4bd 9aac 293e
00000040: c43e 13be 41ac 0b3e 3523 abbc 9e16 b93e
00000050: ac97 1cbe fe8a 073e 0b9d 04be 808c 303d
00000060: 6348 093d 17a0 09be 80ee 8d3e f0c8 5dbe
00000070: 8d73 d0bd 4ec8 b5bd 6dee 01be c8aa 5d3d
00000080: 8fc4 53bd 8dc1 46bd e629 633d bfa6 453d
00000090: cb1f 36be 11ea f2bd 5771 883e 900e 2a3c
000000a0: ff9d d33d 285b 88be f6de 1f3e 2b7a 923d
000000b0: cc91 063e e83d 2e3e 0363 34bd 5dc1 dabd
000000c0: 1fa0 703e fd01 023e a726 843d 393c f43d
000000d0: d3fa d5bb 43e5 183e a03e 833e a500 943e
000000e0: f657 e23d 56f0 793d 1e03 523e ad66 1b3d
000000f0: 1a58 223e 8397 13bd d2d6 74be 5126 d33c
00000100: 5912 373e e18a ffbd 177f 5c3e 1fd1 0d3e
00000110: e847 d0bd 4a54 1c3d a105 f43d 68b3 67be
00000120: 22c7 e1bd 4d81 4e3e 118d 133e e339 803e
00000130: 9d90 143e 21c9 6dbc a8a4 acbd 4cb4 22be
00000140: 9316 163e 549b b2bd 80cd 71be f347 a23e
00000150: 07dd 27be cb2c 3bbe 6114 88bd a017 9e3c
00000160: 4ea6 3fbe bcfe 05be d857 a03e f5a6 c03c
00000170: 98cd 283d 7652 e9bc 7bc4 4bbe 83e9 013d
00000180: 116f 7ebd d1c9 7fbe 5d05 bfbd 4479 f4bc
00000190: 87a8 3cbc bef8 cf3d 07c0 223d bfa3 b5bd
000001a0: 24a6 163e 28ee 243e 7d4c 27be 3f23 f43d
000001b0: a6b3 393e 35ce ffbd df30 0abe 33cb 5ebe
-0.0761195 0.0144973835 0.14428303 -0.023434933 -0.20050384 0.27877113 -0.05386797 -0.083083384
0.023382694 -0.223056 0.08089929 -0.062400322 0.15869544 -0.048548695 -0.08051198 0.16569749
-0.14379412 0.13639928 -0.020890811 0.36150068 -0.15292233 0.13236615 -0.12950532 0.04310274
0.0335163 -0.13439976 0.27721024 -0.21658683 -0.101782896 -0.08876096 -0.12688608 0.054117948
-0.051701125 -0.04852443 0.05545988 0.048254725 -0.17785566 -0.11861051 0.2664897 0.0103794485
0.1033287 -0.26632047 0.15612397 0.07152208 0.13141555 0.17015803 -0.044039737 -0.10681412
0.23498581 0.12696071 0.06452685 0.11925549 -0.0065301447 0.14931206 0.25633717 0.28906742
0.110519335 0.061020218 0.20509002 0.037939716 0.1585392 -0.036033165 -0.23910072 0.025775107
0.17878093 -0.12477661 0.21532856 0.13849305 -0.10169965 0.03816632 0.11915136 -0.22627032
-0.1102431 0.20166512 0.14409281 0.25044164 0.1450829 -0.014513285 -0.08429843 -0.1588909
0.14657049 -0.08721033 -0.23613548 0.31695518 -0.16392909 -0.18278806 -0.06644512 0.019298375
-0.18715784 -0.13085455 0.3131702 0.023517111 0.041211694 -0.028481703 -0.1989917 0.031716835
-0.06211764 -0.2497933 -0.09327195 -0.02984298 -0.011514789 0.10154866 0.039733913 -0.08869123
0.14711815 0.16106474 -0.16337772 0.11920785 0.18134937 -0.12490503 -0.13495205 -0.21757202

rnn.weight_hh_l0 f4 [16, 16]
00000000: a855 de3b b10c 4bbe ee9e 783e 1d5c f23c
00000010: 2f4a 8a3e 76a7 42be aac7 ca3d 7b3b 8f3e
00000020: d35a 323d 215f c23c d5e3 f33d 1be4 773e
00000030: 8023 0dbe 7b3f 6dbd b498 f93d 6ee1 0cbd
00000040: fd84 85be e16b 823e d990 853e def2 d73d
00000050: fa46 80be ca86 813e 19fb 17be 2d8a 613e
00000060: b2f7 2dbe 1fb3 65be b6a9 013e b3df 7cbe
00000070: 46c3 a7bc db20 3d3e 6a6e d1bd 7d1e 1a3e
00000080: 576f 693e e733 f4bd 7e22 2b3e c4bc 1dbe
00000090: f2b8 5d3e 6fef 123e dd26 86bd 9f30 92bd
000000a0: d6f0 8a3d 3a37 bf3c 88f5 a7bc adce a6bd
000000b0: 2f79 003e 56f5 003e 1a53 57bd a528 503c
000000c0: c5ec 4e37 8434 15be c462 47bd e3b3 573e
000000d0: 128c 143e e5c6 f3bd aa8b 68bd ef79 763e
000000e0: 9fc8 3c3e 8c11 04be 5d3f 92bd b8c4 cebd
000000f0: c22c 453e 6d82 c7bd bb57 8bba 71de fabd
00000100: 84a0 013e def3 923c c326 103e 29cb ba3b
00000110: b7be ef3d d11b c93d 4290 623e 5bf5 e93c
00000120: baa0 683e 5fcd 143d 2bf3 c63d 00c7 1b3e
00000130: 83c2 3d3e 93ed 8c3e 27f3 83be 17eb 86bc
00000140: 3f05 57be b965 503e ef3c 2e3c 8daf 3abe
00000150: 88b1 8ebe ed6b 923d 12c9 dbbc 79b4 85be
00000160: e93b 6c3a fa22 cbbc 33b2 c9bd 12f0 883d
00000170: 1e23 273e 7cd7 423e 3249 643e 9c92 78bd
00000180: 2a61 773e 51e8 9d3d 2a88 f73d 7d46 20be
00000190: 2643 6b3e 9e36 40be efbc ebbd 95cb 283e
000001a0: 32d5 39be 3343 aebd 2bd5 f8bd f20c 133e
000001b0: e8b3 233e 0175 b739 79ab 25bd f19f 83be
000001c0: 8cba 19be 3503 473e f0fb 8abe 108a f23d
000001d0: b411 dbbd 35a9 d23d 9e9c 26be f7eb 7c3e
000001e0: d0bd 0bbe 3d85 023d 98c0 ae3d 543a 053d
000001f0: 9e4a 613e 3696 4cbe fd92 51bc 94d0 0bbe
00000200: b215 e4bd 4491 d53b bada a63d 1047 c5bd
00000210: f62d 43bd a47e 2ebe 584b 103e fc24 98bb
00000220: 291e 88be 214c 0b3e 349a 013d 6417 cd3c
00000230: ac88 273e eac3 643e 99bc 32bd 55b0 6ebe
00000240: dfc3 5dbd bd59 1bbe a3c1 f0bd 594a 5abe
00000250: 306d 2a3d 93e2 003e 9c0a 753c aebf 73be
00000260: 0f64 52be b12d 973e 700e 5abd 3fa2 4c3e
00000270: 874e 823e 6ee8 5d3e 622b d13b 3df5 ea3d
00000280: 7dc2 5e3e 4a6e 62bd bf0a a33d e5a5 3a3e
00000290: 5972 163e e298 fcbd 8df5 29bd 5a1a 40be
000002a0: 496b 66be 81f9 473e 6c13 56be b023 9b3d
000002b0: 19e9 4b3d 187e e8bd 4fcb 383e 02bd 703e
000002c0: 3fe4 12be b4bc f43c eb20 7fbd 2dd1 163e
000002d0: 7f4a 623e 2af7 3abe 3399 683e 7304 7ebd
000002e0: 6fdb 03be da96 443e 913a cabd 1765 b8bd
000002f0: 79c9 3e3e 396b df3d f269 563e c031 73be
00000300: 85f7 59be 6a15 af3d 72b4 a9be 7178 55be
00000310: 6140 8bbd 5c88 0dbd f8d0 0abe d8ff a23e
00000320: 766f ebbc 1c66 e4bd ed4e bfbd 7754 4c3e
00000330: 40e4 14bd 5298 b23d e264 5b3e 3691 24be
00000340: 6ee0 353e 7d0b 51be 488a f4bd 07af c23d
00000350: e70e 68be e3a4 3bbe 38b5 553e 6f15 6e3e
00000360: 9bcc 453e 9ef3 dc3d 90aa 6fbd fe55 98be
00000370: 6662 42be dc14 83bd f988 19bd ce73 adba
00000380: 5a18 11be 0edf 6fbd 08dc 61be d473 60be
00000390: 07d7 c83d 940a 16be 43d4 2bbe 4430 203d
000003a0: eb18 803d f69a e7bd 5ede a53d a744 313e
000003b0: aaf7 5fbe 53ca 303e d5dc 47be 9501 4c3e
000003c0: 2ad5 0cbe 9449 58bc 2a81 c1bd 5a59 00be
000003d0: 29ad be3c c8d6 0abe 6553 0abe ae4a 8fbd
000003e0: 375d 923e 0d29 54bd 070e 263d c2e7 6d3e
000003f0: f27e 19be 67cb 563e 6e75 fdbd 2558 693e
0.0067851134 -0.1982906 0.24279377 0.029584939 0.27009723 -0.19009194 0.09901364 0.27975067
0.043543648 0.023727002 0.1190869 0.24208109 -0.13783073 -0.057921868 0.12187329 -0.034394674
-0.26078025 0.2547293 0.26087072 0.1054437 -0.2505415 0.25298148 -0.1484188 0.22025366
-0.1698902 -0.2243161 0.12662396 -0.2469471 -0.020478856 0.18469565 -0.10226138 0.15050693
0.22796379 -0.11923962 0.16712376 -0.1540404 0.21652582 0.14349149 -0.06550381 -0.0713818
0.06784217 0.023341764 -0.02050282 -0.08144889 0.12546228 0.12593588 -0.052569486 0.012705003
1.2333684e-05 -0.14570814 -0.048678175 0.21064715 0.14506558 -0.119031705 -0.05677382 0.24069951
0.18435906 -0.12897319 -0.07140992 -0.10096115 0.19255355 -0.097416736 -0.0010631004 -0.122494586
0.12658888 0.01793855 0.14077286 0.005700488 0.11706298 0.09819759 0.22125342 0.028559377
0.22717562 0.03632867 0.09714349 0.15212631 0.18531232 0.27525005 -0.25771448 -0.016469521
-0.20998095 0.20351304 0.010634645 -0.1823103 -0.2786982 0.071494915 -0.026829276 -0.26114252
0.0009011613 -0.024796952 -0.09848442 0.06686415 0.1632199 0.19027513 0.22293547 -0.060686693
0.24158159 0.077103265 0.12086518 -0.15651889 0.22974834 -0.18770835 -0.115106456 0.1648391
-0.18147734 -0.08508911 -0.121500336 0.14360407 0.15986598 0.00034991655 -0.040446732 -0.25707963
-0.15012568 0.19434817 -0.27145338 0.118427396 -0.10696736 0.1028618 -0.16270682 0.24699388
-0.13646626 0.031865347 0.08532828 0.03252633 0.2200112 -0.19979176 -0.012791392 -0.13653785
-0.111369506 0.006517561 0.081471875 -0.09632695 -0.047651254 -0.17040497 0.14091241 -0.0046430808
-0.2658551 0.1360326 0.0316412 0.025035568 0.1636073 0.2234036 -0.043636892 -0.23309453
-0.054141875 -0.15170951 -0.11755683 -0.21317424 0.041608036 0.12586431 0.014956143 -0.23803589
-0.20545982 0.29527047 -0.053236425 0.19983767 0.25450537 0.21670696 0.0063833455 0.11472557
0.21753879 -0.05528096 0.07961034 0.18227346 0.14692058 -0.123338476 -0.04149394 -0.18760052
-0.22501864 0.19528772 -0.20905846 0.07575166 0.049782846 -0.113521755 0.18046306 0.23509601
-0.14344881 0.029875137 -0.062287252 0.14728232 0.2209873 -0.18258348 0.22714691 -0.06201596
-0.12876676 0.1919817 -0.09874452 -0.09003656 0.18631543 0.10909123 0.20938852 -0.23749447
-0.21285827 0.08549006 -0.3314548 -0.20846726 -0.06799389 -0.03455387 -0.13556278 0.31835818
-0.028739672 -0.11152288 -0.09341226 0.19954096 -0.03635049 0.08720459 0.21425202 -0.16071019
0.17761394 -0.20414539 -0.119404376 0.0950604 -0.22661935 -0.18324618 0.2086991 0.23250364
0.19316332 0.10788654 -0.05851227 -0.29753107 -0.18982849 -0.06400463 -0.037484143 -0.0013233365
-0.14169446 -0.05856233 -0.22056592 -0.21919185 0.09806638 -0.14652473 -0.1678019 0.03910853
0.06254753 -0.11308853 0.08099054 0.17311345 -0.2187182 0.1726468 -0.19517834 0.19922478
-0.1375319 -0.013201136 -0.09448464 -0.12534085 0.023275929 -0.13558495 -0.13508375 -0.06996666
0.28586742 -0.05179696 0.04054072 0.2323294 -0.14989832 0.2097603 -0.123759136 0.2278753

rnn.bias_ih_l0 f4 [16]
00000000: 3be8 60be ed9b bcbd fff8 8abd 894b c8bd
00000010: d82a cd3d 0d41 3cbe 0cb3 753d 24fb 0ebe
00000020: 867c 0f3e fc89 36bd ab3b f43d f92f debd
00000030: 77cd 8abc c8a9 f03d 8710 07be ccec 35be
-0.21963589 -0.09209428 -0.067857735 -0.09780032 0.100179374 -0.1838419 0.059985206 -0.1396299
0.14012346 -0.044565186 0.11925443 -0.10848994 -0.016943676 0.11751133 -0.13189898 -0.17766112

rnn.bias_hh_l0 f4 [16]
00000000: 7f36 173e f9ce 463e 7c32 47be 334c 713e
00000010: c1b0 31be 7ebd be3d 1233 3ebe 04db be3d
00000020: c25d 68be 74be 5cbc 3a18 8ebc 4753 edbd
00000030: f1cb 89bd e842 50be 55d8 af3d b4c2 1e3d
0.14766882 0.19414891 -0.19452852 0.23564224 -0.17352583 0.093134865 -0.1857417 0.09319118
-0.22692016 -0.013473142 -0.017345537 -0.115881495 -0.06728352 -0.20338023 0.08586184 0.038759902

fc.0.weight f4 [16, 16]
00000000: 034e f3bd f2b7 8ebe 5fe3 aabe cd92 e8bd
00000010: e742 863e f97b 84be 1418 06bd cebc 023e
00000020: 45fc 06bf da98 713c 39eb a53d 7d66 afbe
00000030: 09a1 f93c 43fc babe af55 f43b 6820 ab3d
00000040: b88f adbc e4c0 81be f6a0 6f3d 9e68 573d
00000050: 2899 88bd e092 19bc 6817 85be 3d52 81ba
00000060: 0b15 82be d3e4 e43e 9439 d63e 5330 8a3e
00000070: 0074 453e c0d4 c7bd 8073 ea3e bed2 ef3d
00000080: adf3 ddbe 4113 a8be c08a 60be dccc dabe
00000090: 1219 0b3e 758d 9a3e e323 803d 77a2 96be
000000a0: 41a9 183d 4de1 f2bd 3514 2b3e 0b06 10bd
000000b0: 9228 23be f7e8 7d3d 4680 0e3e 4b79 60be
000000c0: ff82 bd3e 7657 11be 3587 46bd 8ffb 28be
000000d0: 259b 153e cc69 a8bd d3a5 a43e 9d8d 0a3e
000000e0: b9c0 623e dfc3 83bd de89 11bd 8778 37be
000000f0: ffde 0c3f 28a1 db3c 84e6 c73e 684a a8bb
00000100: 8e66 f13c 66e4 633e fade 423e 908e 803d
00000110: 78e6 38be debb 90be 927f ec3c b26c 66be
00000120: f8d9 703d 2834 e0be 8766 ce3e 26e6 5ebe
00000130: 9694 2ebd 421c 06be 5876 953e e13c b2bd
00000140: d6aa b8be d1f8 133e f5ff 4e3e a97f 463e
00000150: 8db0 663e 918a fb3d c53b 7a3d 3be2 693e
00000160: 29ac 89bd 0bdf 04be d7f3 003e 60c0 21be
00000170: 3be0 fc3c 8a77 ed3e d0d1 073e 8f45 cc3e
00000180: e699 abbd aa6d d0be 783d 2c3e 1f34 64be
00000190: 896a 49be fd23 33bf 2a88 97bd 8d9a 36be
000001a0: c528 9ebd 60ca 943c ddd6 a8bd 353a e73d
000001b0: 3f7e babd 62ce bd3e a91e 06bc f899 a8be
000001c0: f7d7 d7bd feef 97bd bbd2 b93e 4ad8 2a3e
000001d0: 4537 8b3d 7528 0d3e 3be0 a43e 4e3c 1c3e
000001e0: 5597 9a3e dcaf 993e eab1 673e 94e3 e3be
000001f0: 752f 66be 3200 38be 5613 16be 1199 48be
00000200: 565e 5dbd 6de6 843e 1689 a6bc 3ca9 9cbe
00000210: d4e8 023f e584 8abe 7fba dabe 68c1 3fbe
00000220: 1ab6 903e 68ae 373e a41e 23be 338b 52bd
00000230: d72a 81be 9b6e 18be 41fe 093e 3c61 733e
00000240: c1ab 483e dba6 7dbd d9f2 b53e 525b adbe
00000250: af49 dbbd 0ebf 3a3e a039 e6bd 5a13 abbe
00000260: 55d0 a2be 2c69 063d b361 133e 643b 3fbe
00000270: 0ced eb3b 39f0 2f3e 1429 eebe 8542 bd3e
00000280: ad26 53bd b8fa bc3e b7c5 173e 9822 f83d
00000290: a118 573e 82b7 5d39 aaea 8f3d 2bcf e5be
000002a0: 2aaf d9be b328 743e 920f 99be d938 4dbe
000002b0: 5ad7 e4bc 27ca 2e3e 7609 bd3c 6117 72be
000002c0: 6488 62bd 1040 893e 3d26 29be 497b febd
000002d0: 8a8f 933e cdef 1bbe f3fc 1b3e 3d21 b33d
000002e0: f7fd dcbd 29cd 3f3e 86cc d43e a133 b63e
000002f0: f379 823e 9559 603e 0447 8fbe 652b 8dbe
00000300: a499 0fbd 7ffd 153e 48a5 49be 774f b33e
00000310: 6738 a4bd 6d26 243e c717 e6be 0e58 553e
00000320: de01 363e 3d09 ea3d 8a62 4b3e 9c9d 88be
00000330: 26a8 713d da73 293e ce43 3dbe 5c33 6bbe
00000340: 67d5 c4be 731c 5ebd 8af2 b3be e63d 563e
00000350: 051e 133d b4c8 1cbe 05df 083d 9aea f1be
00000360: 53a3 b33e 3c7c f0bb 3582 9ebd 2e45 ca3d
00000370: 9a8a 2c3e 07cb d1bb edde 54be bc46 b33e
00000380: f25c 1a3e b69f ddbd 2d49 bc3e d0e6 183f
00000390: cb42 053f 2fdb 2c3e ce59 07bd 75c1 df3c
000003a0: ce2b 913d 6b54 00bf c797 fd3d ef8f 073e
000003b0: fd35 cfbd ed1b 88bd 2af5 44be 7b10 a1be
000003c0: 8462 083f 25a1 f4bd 3d97 85be c4b8 963e
000003d0: 73a2 393e a24b 583b 01d7 7d3e 42b4 61bc
000003e0: 3aca 81bd 27fc ba3d a21e 783e 182a bfbd
000003f0: 7612 eebe 6fc8 bf3e 69aa b03d 5a2c 1e3d
-0.11880114 -0.27874714 -0.33376595 -0.11356125 0.26222917 -0.25875834 -0.032737806 0.12767336
-0.5272868 0.014745915 0.08101506 -0.3425788 0.030472295 -0.36520585 0.0074565033 0.083557904
-0.021186695 -0.25342476 0.058503114 0.052590005 -0.06669837 -0.009373397 -0.2599442 -0.0009866428
-0.2540668 0.4470583 0.41840804 0.26989993 0.19282532 -0.09757376 0.45791245 0.11710118
-0.43349972 -0.3282719 -0.21927929 -0.4273442 0.13583782 0.30186048 0.06256845 -0.29420826
0.037270788 -0.11859379 0.16706927 -0.035162013 -0.15933445 0.06198975 0.1391612 -0.2192127
0.37014005 -0.1419352 -0.048468787 -0.16502212 0.14609964 -0.08223304 0.32157764 0.13530584
0.2214383 -0.06433844 -0.03553187 -0.17917071 0.55027765 0.026810244 0.39043057 -0.005135823
0.029467847 0.22255096 0.19030371 0.06277192 -0.18056667 -0.2826833 0.028869424 -0.22502401
0.05880162 -0.43789792 0.40312597 -0.21767482 -0.04262217 -0.13096717 0.29191852 -0.08703018
-0.36067837 0.14450385 0.20214827 0.19384636 0.22528286 0.12282289 0.061092157 0.22840206
-0.0672229 -0.12975709 0.12593018 -0.15796041 0.03086864 0.46380264 0.13263631 0.3989682
-0.08378963 -0.40708667 0.16820323 -0.22285508 -0.19669546 -0.6997679 -0.07399018 -0.17832394
-0.0772262 0.018162906 -0.08244107 0.11290399 -0.09106111 0.3707152 -0.008186021 -0.3292997
-0.10539239 -0.07418822 0.36293587 0.1668407 0.06797651 0.13784964 0.32202324 0.1525738
0.30193582 0.30016983 0.22626463 -0.44509566 -0.22479041 -0.17968825 -0.14655814 -0.1958964
-0.054045044 0.2595705 -0.02032904 -0.30597866 0.5113652 -0.27054515 -0.4272041 -0.18726122
0.28263932 0.17937624 -0.15929657 -0.051402282 -0.25227997 -0.14885943 0.13475896 0.2376756
0.19596769 -0.061926704 0.3553684 -0.33858734 -0.107074134 0.18236944 -0.1124146 -0.33413202
-0.3179957 0.032815143 0.14392738 -0.18675 0.007199889 0.17181481 -0.46515715 0.36964813
-0.051550556 0.36910033 0.14821516 0.12115973 0.21005489 0.00021144564 0.070271805 -0.4488462
-0.42516452 0.2384365 -0.29894692 -0.20041217 -0.027934719 0.17069302 0.0230758 -0.23641731
-0.055305853 0.26806688 -0.16518493 -0.124258585 0.2882045 -0.15228195 0.15233211 0.08746574
-0.107906274 0.18730606 0.4156229 0.35586265 0.25483665 0.21909173 -0.27983868 -0.2757217
-0.035058632 0.14647482 -0.19691956 0.35021564 -0.080185704 0.16030283 -0.44940016 0.20834371
0.1777415 0.11427543 0.19861808 -0.26682746 0.05899825 0.165481 -0.18482897 -0.22968811
-0.38444063 -0.05422635 -0.3514598 0.2092205 0.0359173 -0.15310937 0.033415813 -0.472493
0.35085544 -0.0073390286 -0.07739679 0.09876476 0.16849747 -0.0064023766 -0.20788164 0.35014904
0.15074518 -0.10821478 0.3677458 0.5972719 0.52055043 0.16880487 -0.03304463 0.027313927
0.07088433 -0.5012881 0.12382465 0.132385 -0.10117719 -0.066459514 -0.19234148 -0.31457886
0.5327532 -0.119447984 -0.26091948 0.2943784 0.18128376 0.0033004065 0.24789049 -0.013775887
-0.063374 0.091301255 0.24230435 -0.093342006 -0.4649846 0.37457606 0.08626253 0.038616516

fc.2.weight f4 [2, 16]
00000000: 8e4a adbe 7033 f4bd 1f52 0fbf f621 873d
00000010: 39da 033f 80f8 da3d 8835 e33c 52f3 d73e
00000020: 96fe 68be 01b3 f0bb e165 4e3e f9be bbbc
00000030: c42c df3d b675 8ebe d0a5 3a3e 4ec3 aa3e
00000040: 39d4 55bc 125d 813e b83e 9abe 3eda 673e
00000050: 22e3 aabe bd5b 85be 4a2f a53e e7e4 2b3e
00000060: f1b1 b7be b1f9 8dbe eaa2 cfbe 874b bc3e
00000070: bc26 8fbe 35c1 b3be 3a58 803d 48b0 41bd
-0.33845943 -0.119238734 -0.5598468 0.065982744 0.51504856 0.10691929 0.027735487 0.42177826
-0.22753367 -0.0073455577 0.20156051 -0.022918211 0.1089721 -0.2782418 0.18227315 0.3335213
-0.013051086 0.2526632 -0.30125976 0.22641847 -0.33376414 -0.26046553 0.3226264 0.16786538
-0.35877946 -0.27729562 -0.4055398 0.36776373 -0.2795924 -0.35108343 0.06266828 -0.047287256

f.0.weight f4 [16, 16]
00000000: 87d3 d23d 6d6b 84bd b977 983d 58b1 f4bd
00000010: da57 1ebc b2c8 e63c 6fe8 3a3e 2693 e83d
00000020: 891d 4d3d 05f0 96be 82b6 62be 9597 36be
00000030: 03ff 63be d64f 773d a747 c13d e3a4 02be
00000040: 01ab c43d 3fcc 16bd 131a 47be 409e 303e
00000050: 497a febc 8aeb 133e 382a 373e 9289 8a3c
00000060: a252 75bd 9833 3cbe 90d1 6d3e 1769 513e
00000070: f771 013e df62 a5bd 2b5e 8dbe 4483 c0bd
00000080: b34a 613e 9e17 283e a386 28be 69fe fb3c
00000090: 10f3 98bd 3a2e 0e3e eb4f 87bd c5a2 2e3b
000000a0: eac7 a4bc b5a5 94be f466 e33d 678e 4a3e
000000b0: 688b 953d 28f9 cf3d a9a5 2e3d e91c 17be
000000c0: 1df4 d03b 6c4b 3a3e 9a10 00be d8be bc3c
000000d0: 4b04 16be 1e97 9c3e bcc3 03be f0fa 60be
000000e0: 388d 6abd 1b95 883d 1246 1c3d f3a0 6bbe
000000f0: 4794 26bd 9525 a3bd ba16 833d 12ad e9bd
00000100: 7406 ce3d f44b 74bd 7993 483e 15ad 20be
00000110: f730 a03d 7e0e f3bd a52d 07bd 3e38 0e3e
00000120: 1be5 02be 1cbf bfbc d490 4bbe 79ec d43d
00000130: a56c 4a3e 9861 27bc 8714 393e ffea 34be
00000140: 882d 87be 5660 50be cea9 1c3e fe4a 28be
00000150: c1ae e23d 511b c4bd c41c afbd 4b2a 9f3c
00000160: b62a 053e cf8b 573e 2078 0bbe 3f00 2c3e
00000170: a7e7 9bbd afda c93b 1db5 e4bd 9464 303e
00000180: 9347 a7bd 16c4 30be 1a07 3abe 5fa3 663e
00000190: ad4c 553d dc6c 11be 64ca 77bd 9c82 adbd
000001a0: 6f6b dabd e653 293e cf9d 9abd 9c88 073e
000001b0: 6608 b1bd 4643 743e bb8d 48be 2a4d 3ebe
000001c0: 56de c83d b19a a0bc 4555 063e 8e13 1d3e
000001d0: 2621 69bc d3dd 5c3d 63e4 fe3d e35f cfbd
000001e0: c16d 563e 44e3 0ebc d571 103e 9ccf c1bd
000001f0: f65e 143e d27b 79be 129d 34bc ef5e c3bd
00000200: 5581 69be 5e2b 84bc 5ab1 393d 523e 793e
00000210: c165 673e 4594 94bd cc92 d1bd 26b1 3c3e
00000220: 8e2c f4bd 4f66 38be c432 3e3e 2343 8c3c
00000230: 87f1 4e3d a31e 7cbd ed41 9bbd 7097 13be
00000240: 9a67 933c 6abd cb3d 4f0a 5cbe 1384 cb3d
00000250: dadf 053e 8ad7 f0bd 6649 3c3e 5d0a 0ebe
00000260: 0d8a 223d 53af b0be 9599 eabc 1bdc b23d
00000270: 6738 5b3e a6f6 f33d cb91 0ebe 93b8 1f3d
00000280: 1f85 21bd f215 8b3d 2086 b03d bc79 16be
00000290: abc9 eb3d ca94 1bbe 71d6 70be 0efc 6a3e
000002a0: db3b 80bb 9dba 40be 8a3f 14be 1cb6 103d
000002b0: 05c1 56be 2bbc 1abe 0907 17be 4516 2fbe
000002c0: b768 cb3c 7fbc 80bd 71b5 0dbd 1c24 603e
000002d0: 3a2d 0f3e 89fd 52be 013f 5d3c 4935 d23d
000002e0: b622 033d bf99 8a3d 0325 28be 5e6e 00bd
000002f0: 403d 203e df84 10be a786 d4bc 9737 d7bb
00000300: dc37 2ebe d13d c1bc e81f 4bbe 850a d93d
00000310: 695c 78be 21db 803d 123b ee3d 9170 963c
00000320: 554a 1dbe 7395 023e 6dd7 1e3e 6d5c 94be
00000330: 11bb 153e 8551 723e 8290 a8bc 2c6c 5d3e
00000340: 5874 6e3d 086a f0bd dc81 20bd 0d88 0abd
00000350: f60f 6b3e dfdf 7abd 0e17 4b3e 1e9c 053e
00000360: cb18 dd3b 3075 ab3d 6420 a9be 24eb 5a3d
00000370: 9149 94bd 7e01 70bc 17f4 de3c 37c8 413e
00000380: c93d 2dbc 7986 8dbe 834d 123e 4f6c a13d
00000390: d0c4 cbbd 63b9 8ebd 0f51 8abd 257e 8b3d
000003a0: 97c5 cb3d 8c0a 10bc 0380 e7bd a904 42be
000003b0: 2e0a 90be 4c67 a6bd 260c 1e3e 06e9 823e
000003c0: ad97 253e bb35 9bbd 6b06 8e3e 1d04 223e
000003d0: 74b0 cfbd 4af5 c8bd 11c4 7ebe c3d1 68bd
000003e0: 4bc7 403d 7e69 2abe f171 1b3e 1fe3 ce3c
000003f0: 7ff6 2d3e 0c16 353c cafe 1d3e 9106 abbb
0.10294252 -0.06465802 0.0744471 -0.11947888 -0.0096645 0.02817187 0.18252729 0.11356191
0.050076995 -0.29479995 -0.22139934 -0.17831261 -0.22265248 0.06037887 0.09437495 -0.12758212
0.09602929 -0.036815878 -0.1944354 0.17247868 -0.03106417 0.1444532 0.17887199 0.016911302
-0.059893258 -0.18379056 0.23224473 0.20450245 0.1264113 -0.08075499 -0.27610907 -0.09400037
0.22001152 0.16415259 -0.1645761 0.03076096 -0.074682355 0.13884822 -0.0660704 0.0026647311
-0.020114858 -0.29032674 0.11103621 0.19780885 0.0730198 0.10154945 0.042638455 -0.14757122
0.006376757 0.18192834 -0.12506333 0.02304022 -0.14650075 0.30584043 -0.12867635 -0.21970725
-0.057263583 0.066690646 0.03815276 -0.23010616 -0.040668752 -0.079661526 0.06400819 -0.11409964
0.100598246 -0.059642747 0.19587506 -0.15691026 0.07821839 -0.118679985 -0.033002514 0.13888642
-0.1278271 -0.023406558 -0.19879466 0.10396666 0.19768007 -0.010216139 0.18074237 -0.17667769
-0.26401925 -0.20349249 0.1529915 -0.16434857 0.11068488 -0.09575523 -0.085504085 0.019429347
0.13004574 0.21049426 -0.13620043 0.16796969 -0.076125436 0.0061601023 -0.11167357 0.17225868
-0.081679486 -0.17262301 -0.18166772 0.22523259 0.052075077 -0.14201683 -0.06049575 -0.084721774
-0.106650226 0.16535911 -0.07549631 0.13235706 -0.0864418 0.23853788 -0.19585316 -0.18584123
0.09808032 -0.019605013 0.13118465 0.15339491 -0.014229095 0.053922486 0.12445905 -0.10125711
0.20940305 -0.008721177 0.14105923 -0.094634265 0.1448935 -0.2436364 -0.011023777 -0.095395915
-0.22803243 -0.01613396 0.04533515 0.2434018 0.2259741 -0.07254843 -0.102330774 0.18426952
-0.11922561 -0.18007778 0.18574053 0.017121857 0.050523307 -0.061552655 -0.07580934 -0.14413238
0.017993737 0.09948237 -0.21488307 0.099373005 0.13073674 -0.11759861 0.18387374 -0.13871141
0.039682437 -0.34508762 -0.028637687 0.08733388 0.21408235 0.11912279 -0.13922803 0.038994383
-0.039433595 0.06791295 0.08619332 -0.14694875 0.115130745 -0.15193477 -0.23519303 0.22947714
-0.0039133853 -0.18821187 -0.14477363 0.035329923 -0.20972069 -0.15110843 -0.14748777 -0.17098339
0.024830205 -0.06285953 -0.034596864 0.21888775 0.13982096 -0.20604528 0.013503791 0.102640696
0.032015525 0.06767606 -0.16420369 -0.031355254 0.15648365 -0.14113186 -0.025943113 -0.006567906
-0.17013496 -0.023589047 -0.1983639 0.105977096 -0.24254002 0.062917955 0.116323605 0.018364223
-0.15360387 0.12752323 0.15511866 -0.28976765 0.14622141 0.2366391 -0.02057672 0.21623296
0.058216423 -0.11738974 -0.039186344 -0.033821154 0.22955307 -0.061248656 0.19833013 0.13047835
0.0067473403 0.08371961 -0.33032525 0.053446904 -0.07240594 -0.014648793 0.027216 0.18924032
-0.010573813 -0.27641657 0.14287381 0.07881986 -0.099496484 -0.069689535 -0.06753742 0.068111695
0.09949797 -0.008791577 -0.11303713 -0.1894709 -0.28132766 -0.08125171 0.15434322 0.25568408
0.16171141 -0.07578608 0.27739272 0.15821882 -0.10141078 -0.0981241 -0.24879481 -0.05684067
0.04706506 -0.16641805 0.15180184 0.025254784 0.16988562 0.01105262 0.15429226 -0.0052192886

f.0.bias f4 [16]
00000000: 7b0a 8b3e f99f 1abe 9482 37be 5bd8 9b3d
00000010: ed3b 953d a3da e33d 774b 50be 8615 da3d
00000020: f152 6ebd 3144 623e 63f5 0f3e 78f9 c83d
00000030: f8a4 0c3e 35fc 0c3e 72a4 3d3d b36b 6f3e
0.27156433 -0.15100087 -0.17920905 0.07609626 0.072868206 0.11125686 -0.20341288 0.106486365
-0.058184568 0.22096325 0.14058451 0.098132074 0.13734806 0.13768084 0.046299405 0.23380928

f.2.weight f4 [16, 16]
00000000: 5899 883d 1910 28be e9f8 a93d 6cf5 e63d
00000010: 129c 673d 6a7d 0a3d cd15 843c f5be 15be
00000020: 4deb 473e 9b74 cfbd d283 313e faff 183e
00000030: 62c1 10be 7260 273e 2cdd 53bd 6a29 233e
00000040: 38ee bfbd 30ce fa3d 5f62 09bd 2309 883e
00000050: 1347 d9bc 7b00 43be 189c ca3c c221 3dbd
00000060: b879 ad3d 38c9 c4bd e97f 223e fe11 54be
00000070: 2683 e6bd 69f8 7cbd eacb 993e 12d7 a13b
00000080: 7027 2cbe 2981 103e b018 20bd 0de7 80be
00000090: abfb 023e 9219 18be 31ed c5bd 05ff debd
000000a0: 3392 66be 111f e53d 919b 4c3e 33cc f4bd
000000b0: 0511 763e e180 6f3d d202 61be ad5f d6bd
000000c0: de30 9d3e 4ff0 943e 28c2 51be cb33 e6bd
000000d0: 8a10 303e e17d 623e 2492 b1bd 2fd9 09be
000000e0: 44d4 643e c174 7d3e 928a dcba ae42 d13d
000000f0: c09b 76be 1999 473e 86c6 713d 74c0 36be
00000100: eff4 ebbd fad6 f73d efeb a2be 9dd5 0dbd
00000110: 986d 82bd 26b1 7b3e 5efb 2d3e 8439 5b3e
00000120: 3b11 58be 9534 d33c f888 92be 9082 22be
00000130: 8d18 e3bd a899 10bd d53d 97bd f61c c03d
00000140: e541 4f3e becb 88bd 8154 4f3e 9c35 0e3e
00000150: d699 babd 9b2c 7cbe 708d 303d dac4 83bd
00000160: c851 e5bd 91ff 043c 51ba 013e afc5 0e3e
00000170: 93f3 453e 99ea 413e fbd6 253e bbc2 4f3e
00000180: fd89 653e 175d 8b3e 92da 013e 3146 68be
00000190: 725a c33c 0263 8cbd 215a 3abe db52 903d
000001a0: 6e50 913c 67b8 5e3e e296 0d3e 7d8c 19be
000001b0: ff02 97be 34dc 2b3e c9d1 8a3d 478f b43d
000001c0: f97f 963d b3ac e83d fc77 4fbe fa63 09be
000001d0: 0331 4c3e dcda 35be 96de 103e 9671 21be
000001e0: 15f2 8b3d cca9 bc3d 5a15 d3bd 9894 a8bd
000001f0: 19f8 553e 1d8e aabd 2150 e4bd 2d3e 5e3d
00000200: 053c 833e f088 8a3d d56b ceb8 ea26 2b3e
00000210: d7ec a03d a6fb 77bd f425 94be 3d65 1abd
00000220: 54aa 1d3e 1cf3 6c3e b21a 2abe 51d8 973d
00000230: 0df3 e0bd a9c9 a0bd ba55 71be 7c43 d53d
00000240: e956 df3d 5dda 5a3e f55b 0a3d cbda 5dbe
00000250: 69e1 dcbc f8d5 0a3e 1f45 cc3d eba1 8fbd
00000260: 4a78 a8bd c610 583e df30 43bc 5cdb 583d
00000270: 9b3b 96be 0bb1 26bd 5f15 e43d d529 7bbe
00000280: 47e4 473e c177 86bd 54ab 4ebe a74a 25bd
00000290: 7ea7 b7bd 44f7 1bbe 3c94 94bd 2606 5f3d
000002a0: 89d7 813d 3e0f d6bd 11b6 72be f5ff 543b
000002b0: f5ee 6ebe ccbb a53e f7b5 833e ce03 4cbe
000002c0: 6111 bcbb 34f0 003e 2abc 5bbe 8ae1 8abc
000002d0: b3a6 a2bd f004 88be 984c 53be a0be 083e
000002e0: 8433 1fbe ee3f 85be 6d1e 943d 4d73 c3bb
000002f0: 93c6 1b3e 9ec9 073e 57ba c5bc 394c 2dbe
00000300: ceba 353d 7e4c 2d3e d2e4 30be 46c8 45be
00000310: 2545 353e b58b 3c3e e428 a3bc 69e8 d73d
00000320: cf6c d03d a4ce 11be f8fa 573e 04e9 753e
00000330: 0099 c8bd b75d 08be aaf4 323e ef00 053d
00000340: 64c5 40be 1f13 e73d 1a4b 89be c099 06be
00000350: 76f2 1fbe e872 fdbd cd7f 61be 828e d63d
00000360: 7eb3 483e 7d9d b33d 6f41 7c3d 2f48 0c3e
00000370: 698e 68be fa1d d8bc 341b 22bc 1b74 42be
00000380: 18f5 0c3e 9b7b b83d 4caa 45be 64a5 b5bd
00000390: 229b 5cbe 16b7 5c3e d855 543e 656f 143e
000003a0: 0396 ddbc 9d94 883c e6d1 06be f3a2 b33c
000003b0: 75b4 823d d1e5 633d 8613 0c3e f2b0 91bd
000003c0: 5e42 523e a20d 0e3e f97d 2ebe 8290 40be
000003d0: 5745 42bd 412f 1d3e b25d 153e 5712 89be
000003e0: 7735 4e3c ec2e 813d 4cd2 ba3d b90d 01be
000003f0: d5e3 f3bd 683a de3c 4a6c 5abd 8d24 d3bd
0.06669873 -0.16412391 0.08299429 0.11277279 0.056545325 0.03381101 0.016123677 -0.14623626
0.19523354 -0.101296626 0.17335442 0.14941397 -0.1413627 0.16345385 -0.051724598 0.15933767
-0.093716085 0.122463584 -0.03354108 0.2656947 -0.026523149 -0.19043152 0.024732634 -0.046174772
0.08470482 -0.09608692 0.15869106 -0.20709988 -0.11255483 -0.06176034 0.30038387 0.0049389685
-0.16811919 0.1411177 -0.039086044 -0.25176278 0.12791316 -0.14853504 -0.09664381 -0.10888485
-0.22516708 0.11187566 0.19981219 -0.119530104 0.2402993 0.058472518 -0.21973732 -0.104674675
0.30701345 0.2908959 -0.20484221 -0.112403475 0.17193809 0.22118331 -0.08670452 -0.13461755
0.22346598 0.2475157 -0.0016825965 0.10217796 -0.24082851 0.19491996 0.059027217 -0.17846853
-0.11521327 0.121015504 -0.31820628 -0.034627546 -0.063685596 0.24579296 0.1699042 0.21408659
-0.21100323 0.025781909 -0.28620124 -0.15870118 -0.11088667 -0.035302788 -0.073848404 0.09380524
0.2023998 -0.06679486 0.2024708 0.13887638 -0.09111373 -0.2462639 0.043103635 -0.06434031
-0.11197239 0.008117572 0.1266873 0.13942598 0.19331197 0.18937148 0.1619529 0.20289128
0.2241592 0.2721946 0.12681034 -0.22683026 0.023846839 -0.06854822 -0.18198444 0.070470534
0.017738547 0.21750031 0.13827088 -0.14994998 -0.29494473 0.1678322 0.067782946 0.088163905
0.073486276 0.11361065 -0.20260614 -0.13417044 0.19940571 -0.1775927 0.1414741 -0.15765986
0.06833283 0.09212074 -0.10306807 -0.08231467 0.20895423 -0.08327887 -0.11148096 0.054258514
0.2563173 0.067644 -9.842931e-05 0.16714063 0.078576736 -0.060542725 -0.28935206 -0.037694205
0.15397006 0.23139614 -0.16611746 0.07414306 -0.10983858 -0.078509636 -0.23567858 0.10413262
0.10905249 0.21372361 0.033779103 -0.21665494 -0.026962953 0.13558185 0.09974121 -0.07013305
-0.08226068 0.21100149 -0.011913507 0.052943572 -0.2934235 -0.040696185 0.11136889 -0.24527676
0.19520675 -0.0656581 -0.20182544 -0.040354397 -0.089674935 -0.15231043 -0.07254836 0.054449223
0.06339938 -0.10452126 -0.23702265 0.0032501195 -0.23333342 0.3236984 0.25724766 -0.19923326
-0.0057393764 0.1259163 -0.21458498 -0.016953249 -0.079419516 -0.26566267 -0.20634687 0.13353968
-0.15546995 -0.26025337 0.07232366 -0.0059646727 0.15212469 0.13260505 -0.024136705 -0.16923608
0.044367604 0.1692371 -0.17274788 -0.1931468 0.17702158 0.18412669 -0.01991696 0.105423756
0.101770036 -0.14238983 0.2109183 0.2401467 -0.097948074 -0.13317 0.17476144 0.032471593
-0.18825299 0.11282944 -0.2681511 -0.13144588 -0.15619835 -0.12375432 -0.22021408 0.104764
0.19599721 0.08770273 0.06158584 0.13699411 -0.22710575 -0.026381481 -0.009894181 -0.18989603
0.13765371 0.09007951 -0.19303244 -0.088694364 -0.21543553 0.21554217 0.20735872 0.14495619
-0.02704907 0.016672427 -0.13166007 0.021928286 0.06382076 0.055639092 0.13679323 -0.07113828
0.2053313 0.13872388 -0.17040242 -0.18805125 -0.04742941 0.15350057 0.14586523 -0.26771805
0.012585989 0.06307778 0.09122142 -0.12602891 -0.1190869 0.02712746 -0.05332593 -0.10309706

f.2.bias f4 [16]
00000000: 5921 85be f5fa d3bd 1440 e83d 77dc f53d
00000010: 0e49 223d 05fa 703e 42ce 2cbe ec40 19bd
00000020: 359e 143d e789 71bd c628 a63c 840b 89bb
00000030: dc1b 773e 5a06 c8bd 4cb4 673d e64c 6c3d
-0.26002005 -0.10350601 0.11340347 0.12004941 0.03962045 0.23532875 -0.16875556 -0.03741543
0.03628369 -0.058969405 0.020283114 -0.004182281 0.24131721 -0.097668365 0.05656843 0.057690524

g.0.weight f4 [16, 16]
00000000: 2749 823d 0c4c 3a3e a511 33be a21e c8bc
00000010: f9ad 0bbe 7820 b8bd 3c41 cfbc 410b ab3d
00000020: d9d8 bebc fa3f 173d b61b c1bc 04a2 4abe
00000030: 4d77 37bc 783d 55bd 7048 673e fa09 893d
00000040: d832 e03d 4044 f43d 1beb 433c d481 65be
00000050: ada6 58be 6d9d a33d 61af c63d 5eee 1b3c
00000060: aa1d 033e db4a 1ebe 25a8 adbd 6288 383e
00000070: edea 263e c275 e2bc c3ec f83d 755d d43d
00000080: 16c1 4d3e e0c9 3fbd beff 15be 7050 863e
00000090: 9982 eb3d 4182 16be 0d8b 3e3e 1f18 e8bc
000000a0: 6acf d7bc 4f1e 7d3e 1b20 01bd 00ba 0dbe
000000b0: 1ea0 b3bd 7b42 8fbe 25d1 30bd 7637 173d
000000c0: 5242 873d 551b 763d 4f7d f2bd 8d1d 04be
000000d0: 6eb8 353e 0faa 383d eb0b 7f3d 804e 8a3d
000000e0: d42c b0bd 660d 2d3e 0f45 3bbe 77f6 f93d
000000f0: 49c0 2d3e 0c7c 48be 811b d63d ef9a 49bd
00000100: f407 d3bd b994 9b3e 79e4 8dbb 1190 ffbd
00000110: 4e44 3abe 665f ccbd 2a2d 923e 014f 4abe
00000120: a5ef b23d 754b 233e e6b2 40be 4353 263e
00000130: 496c e8bd 0f0a 17bd 828c 61be 3e29 163e
00000140: b940 a63d 94c5 933d d911 03bd c99c d4bb
00000150: 12a4 09be f251 943d 7c9d e8bc 0014 113d
00000160: e3bd aa3d 2832 643e 01af 00be a73f 1e3d
00000170: 465e 613e 8613 9bbd 54c2 1dbe 0dd2 0bbe
00000180: 0ee2 ccbd bfcf 63be 360b 0abe 1ad1 21be
00000190: 7f4c 46be 6164 1b3e 8711 08be 4e1e 92bd
000001a0: 42df 0a3e 2525 2fbd cba1 193e abd7 56be
000001b0: 906f 043e 276c a7bd bec9 cbbd cd2e cf3d
000001c0: 40fe dcbc e604 6d3c 48c3 2a3e 431e 4f3e
000001d0: 7c7e 023d 36ef babb 9046 403e 5981 973d
000001e0: 09b6 03bc 4cc9 3e3e 986e 873d 44fd 963b
000001f0: 3c5f ebbd a43a 36be f717 0e3d 3621 053e
00000200: bd4b 36bd 6615 0fbb 3cda 51be 9753 11be
00000210: 12ae 73bc 106f 223d 66b2 e93c c45c 7a3d
00000220: e142 dcbd 4ec7 14be 814b bd3d 5a11 7c3e
00000230: 64a7 223d c759 d9bd bcd1 aa3d ed58 45be
00000240: 7469 803c 5fc8 3c3c 5abe 3e3c ee2e 1ebc
00000250: 92ca 32bd b6b3 123e 1053 87bc 5c1f 98be
00000260: a854 c93d ab5f 993d f3e4 f2bd 03a2 8ebd
00000270: 60a4 71bd 3095 3cbe 0b8a 0f3e 6ca1 f63d
00000280: 2189 8cbd 632b 0d3c 3189 d23d 130f af3d
00000290: 2761 8cbd c02f 93be c26b bb3d 206f 9dbd
000002a0: 41a7 ad3c 7642 233c d6c3 163e cfdb 26be
000002b0: 20ae debd 8c47 113e 3ed3 373d 461e 0fbe
000002c0: 7b9d de3d b108 aabd 5fe8 763e dcbc b83d
000002d0: ae59 c23d 9809 68bc a8bb b63c 4fbb 45bd
000002e0: 218f babb 4b6f 533e 4e83 eb3d c3c0 713e
000002f0: 0199 ae3d 2639 6fbe 6d53 693e 7d2e 613e
00000300: 44a6 1dbe a882 253d b325 56bd 87bd d63d
00000310: 9853 23be 8aee c23b fcdc 40be 3dff d7bd
00000320: 9481 123e c686 d53d cd1e 9abe 1509 acbd
00000330: 05d9 95bc f3bd cf3c 8e95 c4bd cd5f 81be
00000340: 0478 053e 48c1 083e 2342 583e d13b 5cbd
00000350: 0f54 e73c e96c 783e 4a51 973d 3f1d 66be
00000360: 1d7a 33be bfec 813d d5bf 7c3c 3df0 21ba
00000370: db2f 8fbe 1090 673e 948c 3c3e d036 8ebd
00000380: 7ea0 123d ac95 82be b00e 60be 916c 123e
00000390: 59df e7bb 6e74 003d 8df3 77bd 443d 583e
000003a0: 91f5 7ebd c375 193d 8418 14be 2c93 703e
000003b0: 5120 34be 294d 663e b28c 17be 37dd e53c
000003c0: 86f1 a93d aa27 85bd 038b 6cbd afb4 363e
000003d0: 45d1 6b3e cfc6 0dbe 40e0 d3bd 8a16 08be
000003e0: b082 02be 89de 1e3e 93e8 a83d 82f9 873e
000003f0: c0bd cdbd dcd4 453e d364 123e 9cc3 25be
0.06361609 0.18193072 -0.174872 -0.02442867 -0.13640584 -0.08990568 -0.02529966 0.08351756
-0.02329676 0.036926247 -0.023572784 -0.19788367 -0.011197877 -0.052060574 0.22586226 0.06691356
0.10947198 0.1192708 0.011957909 -0.22412807 -0.21157332 0.07989011 0.097014196 0.00951728
0.12804285 -0.15458243 -0.08479337 0.18020776 0.16300555 -0.027644042 0.12154534 0.10369388
0.20093188 -0.046823382 -0.14648339 0.26233244 0.11499519 -0.14698125 0.18607731 -0.028331814
-0.02634402 0.24718593 -0.03152476 -0.13840485 -0.08770774 -0.27980408 -0.043168206 0.036918126
0.066044465 0.06008466 -0.11840307 -0.12901898 0.17746136 0.045084056 0.062267225 0.06753254
-0.086023 0.16899642 -0.18288063 0.122052126 0.16967882 -0.1957857 0.10454465 -0.04922002
-0.10304251 0.30386904 -0.0043302146 -0.1247865 -0.18190119 -0.09979133 0.28550082 -0.197567
0.08737115 0.15946753 -0.18818244 0.162427 -0.11348779 -0.036874827 -0.22026256 0.1466417
0.081178136 0.072154194 -0.031999443 -0.006488417 -0.13441494 0.07242192 -0.028395407 0.035419464
0.08336999 0.22284758 -0.12566759 0.038634922 0.22008619 -0.07572083 -0.15406162 -0.13654347
-0.10004054 -0.22247218 -0.13480839 -0.15802422 -0.19365118 0.1517501 -0.13287936 -0.071346864
0.13561729 -0.042760033 0.15003125 -0.20980708 0.12933183 -0.08174925 -0.09950589 0.101163484
-0.026976705 0.0144665 0.16676056 0.20226388 0.031858906 -0.0057047857 0.18776917 0.07397718
-0.008039006 0.18631476 0.06612891 0.0046078283 -0.11492774 -0.17795807 0.034690823 0.1300095
-0.044505823 -0.0021832823 -0.20493406 -0.14192043 -0.014873045 0.0396567 0.02852745 0.061123624
-0.10754944 -0.14529154 0.09242917 0.24615994 0.039710417 -0.10612827 0.08340785 -0.19272204
0.015675284 0.011522382 0.011642063 -0.009654744 -0.043650217 0.14326367 -0.0165191 -0.29711425
0.098306 0.0748895 -0.11860075 -0.06964495 -0.05899465 -0.18416286 0.14017503 0.120425075
-0.06862093 0.008616301 0.102800734 0.08547797 -0.06854468 -0.28747368 0.091514125 -0.07687211
0.021197917 0.009964576 0.14723143 -0.16294788 -0.108730555 0.14187449 0.04487919 -0.13976392
0.10869881 -0.08302439 0.2411208 0.09020397 0.09489761 -0.014162444 0.022306278 -0.048274335
-0.005693332 0.20647924 0.11499654 0.23608689 0.08525277 -0.23361644 0.2278573 0.2199039
-0.15395457 0.040407807 -0.052282047 0.10485368 -0.15949857 0.005948846 -0.18834299 -0.1054673
0.14307243 0.104260966 -0.30101624 -0.0840017 -0.01829196 0.02535913 -0.09598838 -0.25268403
0.13034064 0.13354981 0.21118979 -0.053767983 0.028238324 0.24260296 0.073885515 -0.22472094
-0.17527051 0.06343984 0.015426596 -0.0006177461 -0.27966198 0.22613549 0.18413001 -0.069440484
0.03579759 -0.25504816 -0.21880603 0.14299227 -0.0070761857 0.031361036 -0.060535002 0.21117121
-0.06224591 0.037465822 -0.14462477 0.23493642 -0.17590453 0.22490372 -0.14799765 0.028059585
0.0829802 -0.06501706 -0.05774976 0.17842363 0.23029049 -0.1384537 -0.10345507 -0.13289848
-0.12745166 0.15514578 0.08247485 0.26557547 -0.100459576 0.1931948 0.14296274 -0.161879

g.0.bias f4 [16]
00000000: ed78 62be c52c 693d 727b 1fbe aab2 d13d
00000010: c230 573e 6253 40bd dded c13b 5ec8 a4bd
00000020: 624b 80be 3872 6bbe c2a5 073e db72 bc3d
00000030: 4aff 423e a294 42be 1251 2abe 4fe7 dfbd
-0.22116442 0.05692746 -0.15574434 0.102391556 0.21014693 -0.04695452 0.005918248 -0.080460295
-0.25057513 -0.2299279 0.13246825 0.092015944 0.19042698 -0.19002011 -0.16632488 -0.109327905

g.2.weight f4 [80, 16]
00000000: 3f39 20bc cbac 32bd 6083 a53d d4e1 2b3e
00000010: 64be f9bd e62b 0dbe 1b14 59be 5586 22bd
00000020: e36d 08be db6f 18be fa2d c3bb 2362 d7bd
00000030: 3451 1e3e 8a23 08be cd58 fbbd dc0a 4d3d
00000040: 8644 0dbe dfe3 ec3b ca26 a7bc afc9 25be
00000050: b775 a23d 7f03 ea3d c144 0d3d b91b 78bb
00000060: cf02 2fbd dd25 89bd 02e4 2dbe a540 b9bd
00000070: e4aa 903e 832b 10be ef5e 353e 6ebe 34be
00000080: 37cf 113e fe2a 823e 0a14 7e3d d49b 02be
00000090: 62e5 95be 9b7a 29be 5064 b23d c65c e93d
000000a0: 7492 a4bd e6a8 8e3d 0919 233e d1a7 22be
000000b0: 60bf ec3c 2750 2c3d bc35 253e 7e6b d9bd
000000c0: eaf9 3dbc 0dd9 34be 4200 bf3d ceca 863e
000000d0: dd2b 953c 72ec a23a 4d80 b73d 4138 103e
000000e0: cb0b 163e bec4 ef3d 2df0 583d 1650 f43d
000000f0: ddde 353e daf4 023e fff5 6b3e eb51 7c3e
00000100: 99f2 923e 109d 86bd 6534 d0bd e8ba 68bb
00000110: 321b 12be 936f 6f3e 213e e0bd dc9c 06bd
00000120: 309e f83d 5da9 e0bd 1f77 9e3e ddd8 29be
00000130: d4d8 cabd defa 80bd daab 513e eb7f 48be
00000140: c2d3 543c f797 333e ad4e b23d 36b5 153e
00000150: 9764 bdbd 21dc 123e 94e0 093e 7549 a2bd
00000160: 7d8e 183d 778a 583e 4f99 c3bd c06e ae3d
00000170: 6bf1 e03d 9bbf 5e3e ac65 c83d c1be d3bc
00000180: e9d6 a3bd f1db e73d c172 1bbe 7204 ee3d
00000190: bf11 4bbe 97e5 953d 6e3b d53d eee6 67be
000001a0: 1ba9 593e 9dfb 203e 5964 a03d bcc2 b4bc
000001b0: 5b00 29be 4fb4 66be 15c6 d9bd b568 23bd
000001c0: 6e97 713d b8f7 0d3d 84d0 72bc 2d94 04be
000001d0: a9fd 2abe 103a 003e 2b5d b73d 046f 313e
000001e0: df88 26be 4614 413e 99e4 373e cacf 97bb
000001f0: 516c 84be 1fba 43be 058c efbd 006d 573e
00000200: 4011 a2bd f1b8 e2bd 8833 3b3e 4291 f53b
00000210: 7d8b 83bd a12d 513e d849 763e ac20 dcbd
00000220: 5010 733e 6fc8 2e3e 88b5 dbbd 4ff1 493d
00000230: efe9 eebd 0775 6a3a 8ad2 0a3e 7c74 05be
00000240: bb0c dbbd b848 a53d 4093 7b3e c2e1 403d
00000250: 467b cd3d d059 83bd f840 343e 10fa d2bd
00000260: 861d 56be 81d2 3dbe 5bed 51bd 50f1 52be
00000270: 383d b5bd a57b 52be 5ebc 88bd 8186 65bd
00000280: 4f5b e9bd 9c99 ff3b c302 d2bd b2b9 2d3e
00000290: 7f33 8cbd 76d9 8cbe b7a1 4ebd d318 54be
000002a0: 2a08 debb 389c 883c 1f94 0fbd 2e09 14be
000002b0: a188 d3ba e972 693e 3919 313c efeb 253e
000002c0: 3e2a b7bd 79fa 8cbc 0848 56be adab f83c
000002d0: 3ac8 023e db6c abbd 3c7e 0d3e 6d1b 1c3e
000002e0: f618 3cbe 0e3f 303e 8ac6 ae3d 24dd 66be
000002f0: 9c60 6e3d 3bb4 1bbe 11cf 3e3d 335c 61be
00000300: cde4 1f3e 4ea7 633d 5715 42be 7289 b5bc
00000310: 71d1 d43c e42a c2bc c007 0f3d 58bb 88bd
00000320: e03e 563e 08bd f93d a2e0 1dbe 2796 ec3d
00000330: fd83 163e 3970 d6bc fe49 15be 20f4 283e
00000340: ac90 fc3d 469a b93b 1c2c 40be b65b d63d
00000350: f6f0 523e 95ce 023c f570 973d b2ad 2c3e
00000360: 6ef1 a73d 83c8 553e e266 4abe fd52 763e
00000370: 3088 173d 3b8b 5dbe 70ef abbc c8f1 4dbc
00000380: e240 013d ab6f 37be 3cf1 ae3c 886e d53d
00000390: ae19 ed3d bb33 483d 9283 753e 0421 7f3e
000003a0: 14b3 43be 67d1 00be c30f f23d 2455 28be
000003b0: 916a 0abd b55e a83d 36a5 f63d 45a7 1b3e
000003c0: 13ff 1ebe 6920 a83d 45b0 543d 4667 d3bd
000003d0: e8d5 413d 4102 83bd 1a8c 0ebe 00e6 ccbd
000003e0: bb3a 083e b07c 13be 877e 9d3d 91cc 83be
000003f0: 2020 13be f736 08be 1599 f2bd 5665 ae3d
-0.0097792735 -0.04362182 0.080816984 0.16785365 -0.12194517 -0.13786277 -0.21199076 -0.03967889
-0.13323168 -0.1488642 -0.0059564086 -0.10516765 0.15460664 -0.13294807 -0.12272797 0.050059184
-0.13795671 0.007229313 -0.020404238 -0.16190217 0.079326086 0.11426448 0.034489397 -0.003785832
-0.042727288 -0.06696675 -0.1698151 -0.09045533 0.2825538 -0.14079098 0.17711996 -0.17650768
0.14239202 0.25423425 0.06203083 -0.12754756 -0.29276568 -0.16550677 0.08710539 0.11394648
-0.08035746 0.069658086 0.15927519 -0.1588433 0.028899848 0.042068627 0.1613378 -0.10616206
-0.011595229 -0.17660923 0.09326221 0.26326603 0.018209392 0.0012430085 0.08960018 0.14083959
0.14652936 0.117074475 0.052963424 0.11929338 0.17760797 0.12788716 0.23043059 0.24640624
0.28700712 -0.06572926 -0.101662435 -0.0035511795 -0.14268187 0.23382406 -0.1094935 -0.032864437
0.12139547 -0.109698035 0.30950257 -0.16586633 -0.09904638 -0.06297849 0.20475712 -0.19580047
0.01298994 0.17538439 0.087064125 0.14619908 -0.092477016 0.14341785 0.13464576 -0.07924167
0.037245262 0.2114657 -0.09550726 0.08517218 0.10983547 0.21752779 0.09785017 -0.025847794
-0.07999975 0.11321247 -0.15180494 0.116219416 -0.19830988 0.073191814 0.10411726 -0.22646686
0.21255915 0.15720983 0.0783164 -0.022065513 -0.16504042 -0.2252972 -0.10633484 -0.03989478
0.058982305 0.03466007 -0.014820222 -0.1294715 -0.16698326 0.12522149 0.08953317 0.17327505
-0.1626315 0.1885539 0.17958297 -0.0046329247 -0.2586389 -0.19113968 -0.116966285 0.21037674
-0.079134464 -0.11070431 0.18281376 0.0074941227 -0.0642309 0.20427562 0.24051607 -0.10748419
0.23736691 0.17068647 -0.10727984 0.049302395 -0.11665713 0.000894383 0.13556877 -0.13032717
-0.106957875 0.080705106 0.2456789 0.0470903 0.10033278 -0.06413615 0.17602909 -0.10301602
-0.209097 -0.18537332 -0.05125175 -0.20599866 -0.08849567 -0.20554979 -0.06676553 -0.056036476
-0.11394369 0.007800294 -0.10254433 0.16965368 -0.068457596 -0.2750966 -0.050447192 -0.20712595
-0.0067758756 0.016676053 -0.03505337 -0.14456627 -0.0016138741 0.22797741 0.010809236 0.16203283
-0.08943604 -0.017209278 -0.20925915 0.030355299 0.12771693 -0.08370372 0.13817686 0.15244837
-0.18368897 0.17211553 0.08533962 -0.22545296 0.058197603 -0.15205471 0.046584193 -0.22007827
0.15614624 0.055579476 -0.18953453 -0.022160266 0.025978776 -0.023702092 0.0349195 -0.06676358
0.20922422 0.12194258 -0.15417722 0.11552077 0.14698787 -0.026176559 -0.14579007 0.16499376
0.123322815 0.005664143 -0.18766826 0.10466711 0.20599732 0.007983823 0.07394592 0.16863135
0.08200346 0.2087727 -0.19765809 0.24055095 0.036995113 -0.21635143 -0.020988196 -0.012569852
0.031556018 -0.17913692 0.021355264 0.10421473 0.11577164 0.04887746 0.23975971 0.24914938
-0.19111282 -0.1257988 0.118194126 -0.16438729 -0.033793036 0.08221189 0.1204323 0.15200527
-0.1552699 0.08209307 0.051925916 -0.10322432 0.047323138 -0.06396914 -0.13920632 -0.100048065
0.13303654 -0.14403033 0.07690149 -0.2574201 -0.14367723 -0.13302217 -0.11845604 0.08515422

g.2.bias f4 [80]
00000000: 86aa 5abc ac53 a53c 036f 643e 905a 163e
00000010: 4e55 aebd 7f93 1b3d 82d5 32be 7127 2bbe
00000020: 9a6c 29be 5d06 ca3d 9722 e7bc c687 1cbe
00000030: 7263 78bd ebba 88bd c8f5 693d ebe1 603e
00000040: df5f 18be c2bd 30be b1d1 323e 4195 853d
00000050: d9a9 583e a8f1 afbd de19 923d 85ef 2e3e
00000060: cac8 cdbc 0a92 1e3d 32aa d13d 89b2 3abe
00000070: 2f00 b2bd 35b9 50be 3fc4 10be 22c2 ea3d
00000080: 4ede 923e b3bd 23bc d885 1d3e 29ea cc3d
00000090: 0d38 123e 9e5c 89bd de13 42be 334f 32bd
000000a0: c232 cabd 3aa8 0e3e b815 043e 1bc6 58be
000000b0: 822b 8ebb 0036 62bd 9be2 84bd 6eea 3cbe
000000c0: 7b42 293e 363d 86bd 077d b23c ddce bcbd
000000d0: c991 983e 92b8 e1bd 54ab 8c3d db10 473e
000000e0: 07ef 223e 31fe ee3c da26 bdbd c71f 6e3e
000000f0: 0e94 113e d0d5 f1bd 164e 1cbe a500 fbbd
00000100: f155 21bd 196f 343d d7c2 81be 0a2c 80bc
00000110: c2d7 c63d a24d 76bd a659 6abc e8d8 0ebe
00000120: 82b4 ecbc 9c5d b6bc 9015 8f3d 7194 43be
00000130: 70e9 593e d5b7 73bc 46c9 9f3d 67ad 17be
-0.01334632 0.0201815 0.22307973 0.14682984 -0.08512364 0.03798246 -0.1746426 -0.16714264
-0.16545334 0.09864495 -0.028214736 -0.15286168 -0.060641713 -0.06676277 0.05711916 0.21961181
-0.14880322 -0.17259887 0.17462803 0.065226085 0.21158542 -0.08591014 0.0713384 0.17083557
-0.025120158 0.038713492 0.1023754 -0.18232168 -0.08691441 -0.20383151 -0.14137362 0.11462809
0.2868523 -0.009993958 0.15383089 0.100056 0.14279194 -0.067071185 -0.18952891 -0.04353256
-0.098729625 0.13931361 0.1289891 -0.21169321 -0.0043386826 -0.05522728 -0.06488534 -0.18448803
0.16529267 -0.06554644 0.021788133 -0.092191435 0.29798725 -0.11021532 0.06868616 0.19440024
0.15911494 0.029173942 -0.09235926 0.2325431 0.14216635 -0.118083596 -0.15264162 -0.12255982
-0.0393886 0.044051263 -0.25343964 -0.015646 0.09709121 -0.06013263 -0.0143036 -0.1394993
-0.028894667 -0.022261433 0.069865346 -0.19099595 0.21280456 -0.014875372 0.07802062 -0.14812241
