ckpt/rnn_ode_affine_3_4_cubic_transform_full/best.pth (torch_old, 56597 bytes, 58 tensors)

rnn.weight_ih_l0 f4 [48, 7]
00000000: 225f eebd c2a2 9fbd 11b6 c53d e878 783d
00000010: b94a 97be c3ec 673e 4af3 7fbe 1551 88bc
00000020: 5c70 743d 20e2 51be b4ea f03c 0a24 ffbd
00000030: 951c ba3c 6318 5abc f1d0 8bbd 2bb5 123e
00000040: 2c45 32be d619 7d3e 88ad e5bc ed0a 833e
00000050: 8b7f d7bd 5c35 4a3e 7776 1cbe b23b c13d
00000060: 7095 c23d ce11 80be 4613 0d3e c6c5 3bbe
00000070: 492c 84bd 118f 26be 93b1 e8bd 5951 c13d
00000080: b7ed 8bbd 097d 693c d404 173d f12a cc3d
00000090: a519 6bbe 85d4 0cbe 070e 313e 0ce1 d6bd
000000a0: adaf 313e 70a2 3bbe a1cd 363e 5cca b73d
000000b0: ad8f cf3d 6821 683e a3fb 633d fcaa 0cbe
000000c0: 7601 3e3e c6f0 cc3d e5ba 173c 49dc 7d3d
000000d0: 665a 9bbb b88a 233d 83f0 d33d 2088 973e
000000e0: 704e fa3d e3ab 93bc 8b81 813e 9237 bf3d
000000f0: 02a4 313e 663d ebbd 57a0 27be b4c7 c6bb
00000100: ec33 443e 351a ebbd e739 643e 1ff5 423e
00000110: 14ab 37bc fc85 69bd 7253 d43d f829 97be
00000120: 48b4 1dbe fc83 833e 96c0 233e b504 6b3e
00000130: 7208 8b3e e08d b0bd a9bc 1abe 3982 51be
00000140: 6311 b13d 3822 0bbe fce1 03be 087b 6c3e
00000150: 81a2 39be b3ab 52be eea3 83bd 5789 7dbc
00000160: 36f7 80be bd7b 15be 7824 403e f34d 323d
00000170: df1a 0a3e fb68 47bd 1893 abbe 19dc 1b3e
00000180: 4db7 83be d45c 83be 8de0 89bd 2b25 01bd
00000190: cdc3 b0bd de80 633d 42fb ce3d 30cc d6bd
000001a0: 9988 ef3c 06e2 d63d 733f 71be 09f4 333e
000001b0: 90c7 cc3d e405 22be 0c0f eebd ccb5 4bbe
000001c0: b989 92bc cef9 42be f71a 1c3e cbdb b43d
000001d0: cdf3 693e 3332 ffbd 03b7 7a3d ab83 483e
000001e0: 86cd 753d 7159 653c dfc8 8f3d d64d 633e
000001f0: 18b8 1dbe 6ed7 aaba 279d 163e dc61 973d
00000200: 5d43 70be 7e45 533e 8e78 7a3e d85e 6c3d
00000210: 321b 88be 0311 6a3e 6be6 20be 4282 5d3e
00000220: e05d 86be 3d4d 4cbe b94c e53d e36f 3fbe
00000230: 7f65 b23d 20de 2f3e 4f3e 77bd 99d5 fb3d
00000240: 0b91 523e 4bf7 20be a19a 103e d2da 45be
00000250: 77be 503e 6a9f 403e ed52 45ba 7da2 1ebe
00000260: 4a34 a73d b31b 5a3d e614 673c 89d8 553b
00000270: 4009 f03d 16e1 6f3d 4ad7 003d 8a23 103d
00000280: e97b 13bd aebe 1bbe 6b76 b4bd dfb0 1f3e
00000290: 054c 233e 103a 06bc f02e da3c c791 343e
000002a0: c7fa 803e 6a85 68bb 2657 aabd f80f 01be
000002b0: 765b 813e d9aa c1bd f573 a73d 0ced a83d
000002c0: 7d39 1a3e dce3 523c 62ef 983d 663b 3e3d
000002d0: c235 463e 4103 bf3d 2f54 4e3e 3eac af3d
000002e0: 1765 693e 560b 82bd fc69 fb3d c4cf 7d3e
000002f0: 26bb 673e 6d43 6c3e 2539 74be cf85 5bbd
00000300: 7778 34be ac46 2b3e f070 9a3b d334 80be
00000310: 701a 40be 3b20 bc3d 7628 b43b 5131 0abe
00000320: ae34 f73c 8196 18bd 00e1 5bbd 3567 413e
00000330: 6253 5d3e 51f6 1b3e d80e 6e3e f64a f0bd
00000340: c23d 6e3e 85ac 583d 38d2 433e d0c3 f4bd
00000350: bdaa 5f3e 707a 03be 07e2 19be 4ddd ba3d
00000360: 54e6 14be 35f0 45bd bfde 14be d344 243e
00000370: d882 043e 0f17 da3c 3abd 32bd 930a 4bbe
00000380: 1ee0 2abe 9b2d 443e 461b 47be 923f 283e
00000390: 9d9b 86bd 68e8 743e 2f59 4dbe ff45 1a3e
000003a0: 964d eabd ec6f 0d3e 5c93 bb3c 6cf1 db3c
000003b0: 0e7d 983e 83a0 dcbd 4ce9 15bd e897 ecbc
000003c0: e6ef ccbd a630 66bd 74ad 923c 97b7 a0bd
000003d0: c8a9 98bb 7e2d 64be c5c6 343e 0e0a ee3c
000003e0: bb7a 4cbe 0ee2 9d3d 0f49 343e 57df 333e
000003f0: b824 5c3e b9d8 043e c28e df3c 6347 40be
-0.11639239 -0.077947155 0.09653867 0.06066218 -0.29549196 0.22648911 -0.24995151 -0.016640225
0.059677467 -0.20496416 0.02940879 -0.12458046 0.022718707 -0.013311478 -0.06826962 0.14326923
-0.174092 0.24716887 -0.028036848 0.25594273 -0.10522374 0.19746917 -0.15279566 0.09435214
0.09501159 -0.25013584 0.13776883 -0.18337163 -0.06453759 -0.16265513 -0.113619946 0.09439344
-0.0683245 0.014251002 0.03686984 0.09969128 -0.22959001 -0.13752945 0.17290507 -0.10492143
0.17352171 -0.18323684 0.17851879 0.08974144 0.10134826 0.22668993 0.0556599 -0.137371
0.18555245 0.100068614 0.009260868 0.06197766 -0.004741001 0.039927214 0.10348608 0.29596043
0.12221992 -0.018026298 0.25294146 0.09336771 0.1734772 -0.1148632 -0.16369759 -0.006066287
0.19160432 -0.11479608 0.22287713 0.19038819 -0.011210222 -0.057012543 0.103674784 -0.29524207
-0.15400803 0.25686634 0.15991434 0.22951014 0.2715488 -0.086208105 -0.1511103 -0.20459832
0.086458944 -0.13587272 -0.12879175 0.23093808 -0.18128397 -0.2057331 -0.064277515 -0.015474639
-0.25188607 -0.14597984 0.18763912 0.04353137 0.13486813 -0.0486841 -0.3351066 0.1522068
-0.25725785 -0.2565676 -0.06732283 -0.031529587 -0.08631096 0.05554282 0.101065174 -0.104881644
0.02923994 0.10492329 -0.2355936 0.17573561 0.09999001 -0.1582256 -0.11623964 -0.19893569
-0.017887937 -0.19040605 0.15244661 0.08830985 0.22846909 -0.124607466 0.06120969 0.19581477
0.060010456 0.013998375 0.07020735 0.22197661 -0.15402257 -0.0013034174 0.14708386 0.07391712
-0.23463197 0.20631978 0.2446005 0.057707638 -0.26583248 0.22858052 -0.15712897 0.2163172
-0.26243496 -0.19951339 0.11196274 -0.18695025 0.08710765 0.17174578 -0.060362156 0.122966
0.20563142 -0.15719335 0.14121486 -0.19321755 0.20385157 0.18810812 -0.00075273105 -0.15491672
0.0816427 0.053249072 0.014104104 0.0032630286 0.11720514 0.058564268 0.031455316 0.035190143
-0.03600684 -0.15209457 -0.08811649 0.15594815 0.15946968 -0.008192554 0.02663371 0.17633735
0.25191328 -0.0035479912 -0.083174035 -0.12603748 0.25265092 -0.09456415 0.08176414 0.08248338
0.15060993 0.012871709 0.07467534 0.046443366 0.19356444 0.093267925 0.20149301 0.085777745
0.22792469 -0.063498184 0.12276074 0.24786288 0.22629985 0.23072596 -0.23849924 -0.053594407
-0.17624079 0.16726178 0.00471317 -0.25040302 -0.18760085 0.09185835 0.0054979874 -0.13495375
0.030176487 -0.037252907 -0.053681374 0.18887027 0.2161384 0.15230681 0.2324785 -0.11733048
0.23265746 0.052898902 0.19123161 -0.11951411 0.21842475 -0.12839675 -0.15027629 0.09124241
-0.14540988 -0.048324782 -0.14538096 0.1604188 0.12940538 0.026622323 -0.04363749 -0.19828252
-0.16687056 0.19158022 -0.19443998 0.164305 -0.0657265 0.23916781 -0.20053552 0.15065764
-0.114405796 0.13812226 0.022897415 0.026848517 0.2978291 -0.10772803 -0.036599442 -0.028881028
-0.100066945 -0.05619874 0.017904975 -0.07847517 -0.0046589114 -0.22282979 0.1765395 0.029057529
-0.19968693 0.07709132 0.17605995 0.17565666 0.21498382 0.12973298 0.027289752 -0.18777232

rnn.weight_hh_l0 f4 [48, 16]
00000000: 8e56 d5bd 7522 413d 818f 27be 446f 92be
00000010: afd2 263d cfc9 15be bbd1 82be e3bf b43d
00000020: 80fb 093d b309 bfbd 475d 67b9 d6eb c33d
00000030: 17ff 57be 1916 783e e779 67be 6f7d 343e
00000040: 0a62 36bd de71 b03c 7daa b3bd 5db6 18be
00000050: b227 703d e32f 93be 16b3 43be 33a9 eb3d
00000060: 596c 453e 282c 0ebe 5ada 3e3e 257c 993e
00000070: f922 d6bd 8e5c 623e 6b4b 89be 25af 633e
00000080: 26d4 22be 5536 80bd 42c8 9dbc 5d0a 07be
00000090: a732 b83d cc04 6fbe 1f19 873d d617 81be
000000a0: 3c0b 133e 7049 283b 7ea9 353e 4b93 50be
000000b0: 3564 13be 3ff8 eb3d 34e7 edbd 6b83 10be
000000c0: 481b 4c3e 9b3f 233e 5d21 15be 9e9e 3c3e
000000d0: febd 11be 58fd 8a3d 4651 4fbe 8b0f 633d
000000e0: 5526 22be aea3 a3bd 31cb 91bd f3d8 4abe
000000f0: 2377 6abe 73fb 4bbe 423e b93d 0d1c ac3d
00000100: 80b3 e33c c930 6f3e d8fe 89be 83bc 99be
00000110: 531d 193e 24fe 91be 45e7 88be fa14 63bd
00000120: 5fb0 19be a47c 87be 3f22 a6bd 466d 40be
00000130: 2667 d3bc 67ff 0dbe 8efe 4abe 27bd 5cbe
00000140: 6d4a a03d 24c8 d6bd 9508 bdbd 10e7 543e
00000150: c26d 02be 8157 6a3d 3b3b 5d3e ef4c 1a3d
00000160: 3bcc 233d dd10 e83d 9f26 4f3e 4193 42bd
00000170: aabf f2bd c000 d0bc 9f76 6abe 7109 d43d
00000180: 1d8f febd 16ae 40be 134d 24be 21e3 1abe
00000190: 262c 573e d4f9 483d d072 773e 6322 b63d
000001a0: da10 54be 2b71 703d f137 123e f578 39be
000001b0: e96e e73c 5377 66be 9a4a ed3d 52e4 63bd
000001c0: d2c9 adbe 608d 5bbe d7a8 873e 4ac3 e4bd
000001d0: 9745 5c3e adf7 0fbe 33d2 933b 9300 88bd
000001e0: 7545 a43e 4be8 b6be 46ae af3d 8742 133d
000001f0: 8f61 e63d 7949 203e 7fb6 7dbe 5c6c d7bd
00000200: 4287 6e3e aaa1 17be bf1a 5bbe 2da5 583c
00000210: 23d1 85be f51e 703e e309 613e e384 f03d
00000220: ce71 25be 4616 3bbe fc74 fd3d 39ff 413e
00000230: d690 b2bd 2851 313e 3378 0fbe 2bcf 48be
00000240: 8452 18be 8b53 c13d 4de4 edbc 000c 053e
00000250: 41eb 1dbe a018 283e 0028 7abd 5672 f13c
00000260: 2f81 4b3d b3af 46be 62c9 04be e5b9 5fbe
00000270: d291 e7bd cea1 eb3d 5c8f 7ebd 2eef e0bd
00000280: 0fbb 293e 17c7 b3bd 3b04 48bd df64 693d
00000290: 02e1 04be 2cef ab3d 8db8 fc3d 64af 14bc
000002a0: a3c2 123d ad61 6cbd b78d 703b 82e4 b23d
000002b0: 16ea 123d 54cd 95be 0d69 3c3e d71c 4e3e
000002c0: a44a 193e cea0 18be 7de4 c33d 9cf4 423c
000002d0: 84a1 f6bd 5829 1c3e ed0e fbbd de9b 0bbe
000002e0: bf31 4ebe c509 85be be52 96be 5018 13bd
000002f0: 3fe8 1f3d 0091 1e3c b18c e13d 125e 493e
00000300: 78b0 d23d 0d94 603e a4c0 d5bd 00ff 013e
00000310: 2e25 4a3c fb5d 6abe 6cc9 4c3e e63d dc3c
00000320: edc4 85bb 30b0 543e 9125 26be a5f8 d9bd
00000330: 5707 37be 82e3 b73c a069 4a3e 9825 cebd
00000340: 0f22 12be 32cb a7be 6f9f a73d ea1f eebd
00000350: 2b36 9dbc beb8 093c 069c 3abe 8238 ea3d
00000360: 20a9 7ebd 0c73 7bbe 4381 17be 500e bb3d
00000370: 3e77 47be 86a4 1bbe 6f5e 5cbe 2a9b 583e
00000380: 157d 083e 46e0 863d ff40 093e 08f9 3d3d
00000390: e994 873c db15 1ebe f559 03be 2c06 24be
000003a0: 3a99 0abe 95cb 2f3e a823 07be b60e 25be
000003b0: d7ed e0bd 40d9 85bd 9516 51be 62fe a83d
000003c0: e7a1 963d 22e0 85be fef4 90bd 7b03 da3d
000003d0: bfe9 7fbd 7539 833c ed9a 44be 089d 03be
000003e0: baa5 2b3e d2cf 133d 7fd9 0b3e 6297 a23e
000003f0: ad79 e3bd bd91 853e 2daf e9bd 4417 9f3e
-0.104168996 0.047152 -0.16363336 -0.28600514 0.040728267 -0.14627765 -0.25550637 0.08825662
0.033687115 -0.09328022 -0.00022064625 0.095664665 -0.21093403 0.2422718 -0.22605096 0.17625974
-0.04452709 0.021538671 -0.087727524 -0.14913316 0.058631606 -0.28747472 -0.19111285 0.115068816
0.19279613 -0.13884032 0.18637982 0.29977527 -0.10455889 0.2210562 -0.26815352 0.22234781
-0.1590124 -0.06260363 -0.01926053 -0.13187547 0.08994036 -0.23341674 0.06596588 -0.25213498
0.14359754 0.0025678538 0.17740437 -0.20368688 -0.14393695 0.115219586 -0.11616364 -0.14112632
0.19932282 0.15942232 -0.14563508 0.18419883 -0.14232633 0.06786603 -0.20245847 0.055434745
-0.15834935 -0.07990204 -0.07118834 -0.19809322 -0.2289701 -0.19920139 0.09045078 0.08403788
0.027795553 0.23358454 -0.26952243 -0.30026636 0.14952593 -0.28514206 -0.26738945 -0.055439927
-0.15008686 -0.2646228 -0.08112001 -0.18791685 -0.025806021 -0.1386696 -0.19823667 -0.21556531
0.078266956 -0.104873925 -0.092301525 0.20791268 -0.12737182 0.057212356 0.21604626 0.037671026
0.03998969 0.113313414 0.20229577 -0.047503714 -0.11852963 -0.025390983 -0.22896813 0.10353363
-0.124296404 -0.18816409 -0.16045026 -0.15125705 0.21012935 0.04906638 0.24164891 0.088932775
-0.20709553 0.058701675 0.14279152 -0.18112548 0.028251128 -0.22506456 0.11586495 -0.055637665
-0.3394304 -0.21440649 0.26496002 -0.11170061 0.21510921 -0.14059325 0.0045111417 -0.066407345
0.32084242 -0.357241 0.08578162 0.035952117 0.112490766 0.15653028 -0.24776648 -0.10518715
0.23293784 -0.14807764 -0.21396922 0.013222975 -0.2613612 0.23449309 0.21976428 0.11744096
-0.16156694 -0.18270215 0.123758286 0.18945016 -0.087190315 0.17316115 -0.14010696 -0.19610278
-0.14875227 0.09439763 -0.029039526 0.12992859 -0.15421773 0.16415644 -0.061073303 0.029473465
0.049683746 -0.19402961 -0.12967446 -0.21848257 -0.1130711 0.11505471 -0.062148437 -0.1098312
0.16575263 -0.08778208 -0.04883216 0.056980964 -0.12976459 0.08395228 0.12339888 -0.0090750195
0.03583015 -0.05771034 0.0036705562 0.08734991 0.035867773 -0.29258215 0.18399449 0.20128189
0.1496988 -0.14905092 0.09565065 0.01189914 -0.120425254 0.15250146 -0.12258706 -0.13633677
-0.20136164 -0.25984016 -0.29360002 -0.035911858 0.039039847 0.009678125 0.11013163 0.19664791
0.10287565 0.21931477 -0.10437134 0.12694931 0.012337966 -0.22887413 0.19998711 0.026884984
-0.0040823133 0.20770335 -0.16225268 -0.10643128 -0.17873894 0.022447351 0.19766855 -0.10065764
-0.14270805 -0.32772213 0.081847064 -0.11627181 -0.019190868 0.008405862 -0.1822358 0.11436559
-0.06217301 -0.24555606 -0.14795403 0.09133589 -0.19479081 -0.1519948 -0.21520399 0.2115294
0.13328965 0.065857455 0.134037 0.046380073 0.016550498 -0.15438025 -0.12827285 -0.1601798
-0.13535014 0.17167504 -0.13197196 -0.16118893 -0.10982864 -0.06535578 -0.2041877 0.08251645
0.07355099 -0.26147562 -0.070779786 0.10645195 -0.062478777 0.016018609 -0.19199724 -0.12852871
0.16762438 0.036086865 0.13657187 0.3175612 -0.11107192 0.26087752 -0.11410365 0.31072438

rnn.bias_ih_l0 f4 [48]
00000000: 777f 38be 7beb f83c 9384 0dbc 14c7 a63e
00000010: 0d7f b13e e64a c0bd 5396 08be da23 a13e
00000020: 751e 05be 68c0 09be aa72 833e 5c0b f43c
00000030: a898 9e3c 1a87 aa3d 0ff5 14bd f20e 04be
00000040: ba62 38bd 967b ac3d 6f96 3cbe b544 0e3e
00000050: 25da 213d a7fd 24be 4d88 3e3e 0e6f febd
00000060: c270 913c 749f 83be 85ee f7bd 979d 063e
00000070: be3b 873e f512 213e bdd9 c3bd cfd8 d83c
00000080: c80e a9bd e832 823c ef0a 1c3d 194d 2fbe
00000090: f8b6 053e 2c61 0bbe 6cf1 54be f8f2 453e
000000a0: fe50 4a3d 8a42 2ebe 0433 2bbe 45dc 0a3b
000000b0: c6cc 2dbe 3784 21be 6537 efbd 7562 ebbd
-0.18017374 0.030385723 -0.008637565 0.3257376 0.34667245 -0.09389286 -0.13338594 0.31472665
-0.129999 -0.13452303 0.2567342 0.029790573 0.019359902 0.0832655 -0.03636652 -0.12896326
-0.045016028 0.0842201 -0.18416761 0.13893397 0.03951468 -0.16112386 0.18606682 -0.12423526
0.017753962 -0.2570759 -0.12106041 0.13146053 0.26412767 0.15729888 -0.09563015 0.02647057
-0.082547724 0.015893415 0.038096365 -0.17119254 0.13058078 -0.13611287 -0.2079522 0.19330966
0.049393646 -0.1701757 -0.1671868 0.002118842 -0.16972646 -0.15773092 -0.116804875 -0.114933886

rnn.bias_hh_l0 f4 [48]
00000000: b746 de3d 7fe9 b8bd 49db 06bd 3dd3 913e
00000010: 8242 233e 04c1 33be 037d 2cbd bb9f 3b3e
00000020: 2ead 813d a27e 183e 2eb5 e6bd 9a65 c0bd
00000030: a6e0 f33d 7f7b 36bd ee54 cabd 03e5 98bd
00000040: 682c 3dbe f5ed 1bbd 0522 97bd b92a 203e
00000050: 2484 69be bdc5 b63d c58f 933d b6bf 8c3d
00000060: 0170 27be 6c58 fa3d cc3b f23d cce8 29be
00000070: c7e5 213e 775e 4a3e f725 07be 9c17 1b3e
00000080: 5a66 d03d 8cde 65bd efd1 22bd b840 923b
00000090: 876f 5d3e e136 19bd 3bb2 353e b4ef bc3d
000000a0: 3b4f c23d 27b7 e03c edaf 8abe 07b9 333d
000000b0: 36c2 90bd fa52 073d 56f4 903d 75d5 643e
0.108533315 -0.09028911 -0.03292397 0.28481475 0.1594334 -0.17554098 -0.042111408 0.18322651
0.063318595 0.14892057 -0.11265026 -0.09394379 0.11908083 -0.04455137 -0.0987948 -0.074655555
-0.18473971 -0.03806873 -0.073795356 0.15641297 -0.22804314 0.08924434 0.07205156 0.068725035
-0.1635132 0.122238964 0.118278116 -0.16592711 0.1581031 0.19762598 -0.13198076 0.15145725
0.10175772 -0.05612044 -0.03975099 0.0044632815 0.21624576 -0.037405852 0.17743771 0.09225407
0.09487768 0.027431084 -0.27087346 0.043877628 -0.07068293 0.033038117 0.070778534 0.22347052

fc.0.weight f4 [16, 16]
00000000: 1020 d9be 2586 9dbe 9840 d6bd 27ba 9abd
00000010: 633e fe3d 95ab adbe 177f 2ebd 3d31 be3e
00000020: f3a1 3d3e 3d2b 15bf 1b5e b13d 03bd aabd
00000030: 9f64 563e d3cd 8b3d 50c8 aabd e68a ecbd
00000040: 96e8 aabd a251 6bbe bfb7 04be 5500 d7be
00000050: 94ea 8b3e 3ab1 09be 8294 033e d39f 11bd
00000060: 5fe5 d1bc bbb7 653e 5b74 c8be 9bfd e93d
00000070: c4ae a8be 719f 983c 31e0 303c 3867 14bf
00000080: 1981 5dbe 85bb ccbe 2e94 ecbd 6939 063e
00000090: b46b 453d 460b 39bd 3abe 833e f808 e2be
000000a0: 9547 40be d25b 483e d001 c03e 93d3 ee3d
000000b0: 646c 9fbe 3ddc 35be f373 e6bd e27d 9d3e
000000c0: ae40 003e 77f8 ad3e b20e 38be eae5 8f3e
000000d0: 9ae0 00bd 4a44 19bf 188a 5abd 81db 4abc
000000e0: ad9c c3be abe5 0abe 76bf 353d f067 a43d
000000f0: 9f67 aeba 22fa e1be bd86 473d 28b2 8fbd
00000100: 4f23 d7be 4c7a 4e3e 1775 62bd 6807 b33d
00000110: 8636 6cbd e564 333d 59ed 63be b97b 8cbe
00000120: 4fc2 833e d461 6f3d 1c3f c93d 5cea 1c3f
00000130: a861 873d e0ce 93bd d42a cb3e b150 02be
00000140: 900d 043a 75ef 9b3e 3031 de3d 3ca3 c83d
00000150: b740 323f c793 4f3e 75e3 44be 7b6f 62be
00000160: d167 583d 2764 a7be e1d3 c43c 6353 c03d
00000170: 51cb adbe ac10 9f3d 974e 57be f57c d83d
00000180: e9e6 f3bd ca50 133f 5ecf 383e 0f27 9cbd
00000190: c3e7 b7bd 1ecb 79bd a872 393f 7e0a 89be
000001a0: 4818 553e 9e73 a9bd 8b2f f83c e9c2 873c
000001b0: 2f2a fb3d 3ca5 933d d9ff 5ebe e93c 2cbe
000001c0: e406 a8be a6b9 903e 6dc8 1cbd 0fe7 d0be
000001d0: 99e6 b23d c4da 803d 5196 293d d1e0 c33e
000001e0: b065 c2be 4efd d93d 2cca b73e dad3 563e
000001f0: fd80 41bd 5aca 993e 3467 d43d 665a 5e3e
00000200: c731 a43d fc7b 39bd 20b8 8f3d 859a 883d
00000210: 3996 063d eae5 acbe 74cb 503e b539 42be
00000220: d7b5 113d 3891 2dbe 5edd 9ebe fe07 833c
00000230: 3056 a7bd 6caa ed3e 80ac 063f 9794 993e
00000240: ff97 81be 94dd 3a3e c7ea 1fbf b32b 9ebe
00000250: 78d2 43be 31b1 9fbd 21ff 29be f5e7 53be
00000260: 359b 15bd b45e 58bd 181c 71be 0b27 2abe
00000270: e08d 573d f86e b13d c2c3 7ebe 3985 c63e
00000280: 8edd a5bd 2b2b 293e 1f16 23bd 2713 533e
00000290: aaed 4fbe 827e bebe e185 a4bd b2af 853e
000002a0: c72a 8c3e 1f5e a83e 722f e93d 577e 85bd
000002b0: 5e79 d5be 679e c53e c0d3 c6be 2310 903d
000002c0: 738c 693e e495 12be 6487 6ebe 8cf0 573d
000002d0: a1dd eebe e0dc 593e 3e72 5ebd 7b8b 19bd
000002e0: 611f 6bbe 5308 e1be e7c7 293e 1dcc 823e
000002f0: 225b 58be 04fd bb3e 46f4 4dbe 4d8b 9bbe
00000300: a7b9 30be f401 4fbe b1fc c23d 64ac 683e
00000310: 40ce 613d 0c67 243d 4582 103c dc2a 693d
00000320: 08b9 4cbe d0f8 8d3d 5f43 c8be 8ad9 c23e
00000330: cc39 bc3e 50ce 303e 0b07 01bf edb2 1a3e
00000340: 7609 01bf 6026 ab3d d690 173e 65e4 9e3e
00000350: e85d 9dbd 54c3 a23e cca2 1d3e 5fe2 993e
00000360: 748e 96be 012a bdbd f049 fcbe beb0 1abe
00000370: 977e 8cbe d1d3 12be f8db f03d 8dfb 81bc
00000380: 49ae 973e 353b 38bd 622a 2d3e e276 02bf
00000390: bd3c 81be 0390 3ebd f077 a6bb c77a 633e
000003a0: e634 d33d 43de 23be 2516 5dbd d720 b03e
000003b0: c0ba 86be 2343 c3be a06a 08be 64fe bf3e
000003c0: eade 493e 3780 72bd 09e4 08bf 4015 323e
000003d0: a755 893e 7dc2 183e 8282 be3e 2e96 e23e
000003e0: 957b 743e b5d0 3abc 499c b8bd c9f4 853e
000003f0: d040 b53c 8749 0fbe 945e e13d a931 9f3d
-0.42407274 -0.30766407 -0.10461539 -0.07555037 0.12414243 -0.3391997 -0.04260167 0.3714694
0.1851881 -0.582691 0.08660527 -0.083368324 0.20936821 0.06826367 -0.08338988 -0.1154993
-0.083451435 -0.22980359 -0.12960719 -0.4199244 0.27327406 -0.13446513 0.1284962 -0.03555281
-0.025622068 0.22433369 -0.39151272 0.114253245 -0.32945836 0.018630715 0.010795639 -0.5797
-0.21631278 -0.39986816 -0.115517005 0.13107838 0.048198417 -0.045176767 0.2573107 -0.44147468
-0.18777306 0.19566277 0.37501383 0.11661448 -0.31137383 -0.17759795 -0.11252584 0.30760103
0.12524673 0.33978626 -0.17974356 0.28105098 -0.031464197 -0.59869826 -0.053354353 -0.012381435
-0.38205472 -0.13564174 0.044372045 0.08027637 -0.0013306028 -0.4413615 0.04871248 -0.070164025
-0.42019126 0.2016384 -0.055287447 0.08741647 -0.057669185 0.043797392 -0.2225851 -0.27438143
0.25734183 0.058442906 0.0982649 0.61295104 0.06610423 -0.07217193 0.39681113 -0.12726094
0.00050374214 0.3045613 0.108492255 0.097967595 0.69629997 0.20271216 -0.19227393 -0.22112839
0.052833382 -0.32693598 0.024026813 0.09390905 -0.3394418 0.07766852 -0.21026073 0.10570709
-0.11909277 0.5754515 0.18047854 -0.07624637 -0.08979752 -0.060984723 0.72440577 -0.26765817
0.20810044 -0.08274005 0.030296108 0.016572433 0.12263905 0.0720925 -0.21777286 -0.1682011
-0.32817757 0.2826664 -0.03827708 -0.40801284 0.08735389 0.06291726 0.04140312 0.3825746
-0.37968206 0.10644017 0.35896432 0.20979252 -0.047242153 0.30037194 0.10371247 0.21714172
0.08017307 -0.045284256 0.07017541 0.06670097 0.032858107 -0.3376916 0.20390111 -0.18967326
0.035573807 -0.16949928 -0.31028265 0.015995022 -0.08170736 0.46419084 0.52606964 0.29996178
-0.25311276 0.18248588 -0.62467617 -0.30892715 -0.19123256 -0.077974685 -0.1660123 -0.20693953
-0.03652497 -0.05282469 -0.23545873 -0.16616456 0.052625537 0.08663744 -0.24879363 0.38773516
-0.08098899 0.16520374 -0.03981602 0.20612775 -0.20305505 -0.37205893 -0.08033348 0.26110607
0.27376387 0.3288431 0.113860026 -0.06518238 -0.41694158 0.38597414 -0.38833427 0.07034328
0.22807483 -0.14314991 -0.23293835 0.052719638 -0.46653464 0.21275663 -0.05430817 -0.037486535
-0.22961189 -0.43951663 0.16580163 0.2554635 -0.21128514 0.36716473 -0.20112714 -0.30379716
-0.17258321 -0.20215589 0.09520853 0.22722012 0.055128336 0.040137336 0.008820121 0.05692564
-0.19992459 0.06932223 -0.391139 0.38056594 0.36762846 0.17266202 -0.5040137 0.15107317
-0.5040506 0.08356929 0.14801344 0.31033626 -0.07683927 0.3178965 0.15394133 0.3005552
-0.29405558 -0.09236527 -0.4927516 -0.15106484 -0.2744033 -0.14338614 0.11760706 -0.01586702
0.29625157 -0.04497834 0.16910699 -0.5096265 -0.25241652 -0.04652406 -0.0050802156 0.22214805
0.10312824 -0.16002755 -0.053976197 0.34400055 -0.26314354 -0.3813716 -0.13321924 0.37498772
0.19713941 -0.059204306 -0.53472954 0.17390919 0.2682316 0.14917941 0.37208945 0.44255203
0.23875268 -0.011402299 -0.09014184 0.2616332 0.022125632 -0.13992892 0.110043675 0.07773144

fc.2.weight f4 [2, 16]
00000000: 0805 c9be 1cbb a2ba 9a36 cb3d 70ff e73e
00000010: c302 393e 4002 9c3e dbd9 513e 8597 0cbf
00000020: 37f9 e73d 932c cabd 1e2e b53c be5b 5cbe
00000030: f985 dd3d b32a 9fbc eb7c e03d 744e b9be
00000040: 3a4b f1bd 6a59 bc3e 7f6a 96be a2ff c03e
00000050: 2570 8fbc 10de 0c3e 5cc8 193d 24df 913e
00000060: 7ddc 803e ded6 08be 0aa2 8dbe abb0 1ebe
00000070: 69f3 df3e 50df 4a3d 23f8 86be 0c75 d03e
-0.3926165 -0.0012415382 0.09922524 0.4531207 0.1806746 0.30470467 0.20493262 -0.549187
0.11326831 -0.09871783 0.022116717 -0.21519372 0.10816569 -0.01942954 0.10961326 -0.36192667
-0.117819265 0.36786968 -0.29378125 0.37695032 -0.01750953 0.13756585 0.037544593 0.28490555
0.2516822 -0.13363215 -0.27662688 -0.15497081 0.43740395 0.049529374 -0.26361188 0.407143

f.0.weight f4 [16, 16]
00000000: 510a 70be 81e2 823d 4550 19be a49e 923d
00000010: f7eb 5b3e 8db2 82bd cb9b e83b de1b 25bd
00000020: 32d4 53be c45d 83be aadc 283e 40ec 263d
00000030: 9d39 4c3e 2d9d 6dbe 6fe8 2ebe d297 fcbd
00000040: b15c a6bd b8b8 f9bd 29b6 b03d 396b 733e
00000050: 7a82 52be e1a7 83bd 8c24 7ebe 58f8 92bd
00000060: 63b1 b7bd fe77 4ebe ba6e 18be b52c a6bd
00000070: c263 e43d ba20 c2bd 7903 f7bd 144e bf3d
00000080: c004 76be 7b38 f6bc eb99 edbc 0b85 35be
00000090: 239a cf3d 2183 ac3d d366 1abd 68b9 a73d
000000a0: fe70 fcbb 01da 05be 1935 81be b92a aabd
000000b0: a2df 2b3e 78ce e7bd 44f8 873e 2e90 16be
000000c0: 1a51 ef3d 1ea8 413e 9363 e33d 1352 36be
000000d0: 97e4 8bbe ad23 01be e34a d73d f5a8 033e
000000e0: 7d52 b2bd 813e 423e 3f71 133e bc71 17be
000000f0: 92c7 463d 20d6 bd3d f26e 363e 6448 edbd
00000100: 243b d0bd 868f 31be 7da7 9f3d af90 5c3e
00000110: 2613 313d 72c5 f13d e2e4 3b3e dbc3 323e
00000120: 5558 0c3e e626 a03d 5e28 003d 289c 1e3d
00000130: 47d6 2b3e 346c c53d 5f25 693e a7b1 673e
00000140: cf1e 8e3e b5c6 dcbd 1c9b 37be 0954 203c
00000150: c579 69be 05b3 423e 2c1e f3bd e0d1 ddbc
00000160: cd5d 273e bd25 5cbe 5fef 843e cfb9 3bbe
00000170: 3e12 ccbd 598d 24be 01bb 483e 9b5b 56be
00000180: bc01 3fbd 12ff 633e 9bf8 8f3d 699c 4b3e
00000190: 702e 75bd 33af 233e 851e 563d 45f4 98bd
000001a0: 186c a33d 425c 623e 2664 53be e447 633e
000001b0: 1975 013d b503 933e 5c27 343d 3a8a a53c
000001c0: 7e59 f9bc 6275 7f3c 0afd 3dbe f428 8c3d
000001d0: 7043 42be 8bdf a03d 809a 173d 5fe9 14be
000001e0: b531 013e 8f1a 023e 094e 253e 7481 28bd
000001f0: d0c3 43be 2657 41be 8049 2dbe 777f d1bc
00000200: f940 343e edfd 953d 5c3a 0abd 224d 21be
00000210: df3d 19be 119a 363e b83d b03d ba17 8f3e
00000220: 9c0f 5bbe 58d9 6b3e bf2b 523e 1b2f 883c
00000230: c23d 5bbe 2e02 1abe 6b72 e7bd 6a2d 353e
00000240: 9b20 cabd ce7c bcbb c8db 4c3e 9b30 ecbc
00000250: b5a3 d1bd f357 383e 50c9 413e dabd 2ebd
00000260: 30df 8e3e 6080 093e 60bf 1cbd 0594 9d3d
00000270: a3be 60be 9264 8a3d 161c 3e3e 10d6 14be
00000280: 5ac9 d8bd 2fae 113d 1dcc 503e b5c2 b63d
00000290: c0ff 0b3e 6f7b b5bd f8c3 803e f75f 08be
000002a0: d16a 03be 34d3 6bbe 94fe 29bb 506f 80be
000002b0: ce2e 07be 5ea4 4ebe 84bc b93c 0d08 53bd
000002c0: 46dc e8bd 9c8e ec3c 5cdd 50be ab2b 723e
000002d0: a78b b6bd ff48 5abe d5e5 53bd 9eff 57be
000002e0: 6b1a 8c3d ffcc 6fbd af58 59bd 266e 00be
000002f0: 059b b1bc 749b 463e 6306 13bc 19bb c43d
00000300: 315a f3bd 3c7e 1b3d fc0f 90be 3d7e 6f3c
00000310: 71b2 0e3e 985f 9fbd 062c 3e3e 57f6 023e
00000320: 64b1 62be c652 2b3e 6b92 423d 325c 64be
00000330: deb5 ba3c 5b54 29be 5093 053e 03d1 85be
00000340: ae28 4b3e 4bba 3f3d 3556 3ebe 921a c3bd
00000350: a8d4 643d d151 aebc e407 e63d 30e8 85bd
00000360: ce88 523e ad17 433e 4c64 53be 62af c03d
00000370: 6ce9 0f3e 3f86 c9bd 494a 8abc 2110 123e
00000380: 98e7 ca3d 0a72 b03d b175 35be 25ca b83c
00000390: 38aa 6f3e 1f7b b13d 9def 323e d6c6 233e
000003a0: 0245 c13d 1373 6e3e ea40 60be ef37 883e
000003b0: 2897 4b3c 8e70 2cbe f73b 943d e5a2 2ebd
000003c0: 612b 8c3c 6325 66be 94d6 28bd 23ec 1d3e
000003d0: a2d8 923d 9ee9 2ebd 3ef0 553e b09b 813e
000003e0: aac0 25be 4bf4 37be 25d0 fd3d 78ab bdbd
000003f0: 6045 a9ba 70ee b03d 8331 123e 22f5 583e
-0.23441435 0.063908584 -0.14972027 0.071591645 0.21476732 -0.06381712 0.00709865 -0.04030978
-0.20686415 -0.25657475 0.16490427 0.04075265 0.19943853 -0.23204489 -0.17080854 -0.12333645
-0.08123148 -0.121934354 0.08628494 0.23771371 -0.20557585 -0.06428505 -0.24818629 -0.07176274
-0.08969381 -0.20162961 -0.14885989 -0.08113996 0.1115184 -0.09478898 -0.12061209 0.09341064
-0.2402525 -0.030056229 -0.029004058 -0.17726533 0.10136821 0.08423448 -0.037695717 0.0818966
-0.0077038994 -0.13071443 -0.25235823 -0.0830893 0.16784528 -0.11318678 0.265566 -0.14703438
0.11685391 0.18911788 0.11102977 -0.17804746 -0.27322838 -0.12611265 0.105123304 0.1285742
-0.0870714 0.18969156 0.14398669 -0.1478948 0.04853017 0.09269357 0.1781576 -0.11586073
-0.1016753 -0.17339906 0.07795618 0.21539567 0.043231152 0.11805238 0.1834903 0.17457525
0.13705571 0.07819919 0.031288497 0.03872314 0.16780959 0.09639779 0.22768162 0.22626363
0.2775788 -0.10780088 -0.17930263 0.009785661 -0.22800358 0.19013603 -0.11870989 -0.027077615
0.16344376 -0.21498771 0.25963876 -0.18332599 -0.09964417 -0.16069545 0.19602586 -0.20933382
-0.046632513 0.2226527 0.070298396 0.19883884 -0.05985874 0.15984802 0.0522752 -0.07468466
0.079796016 0.22105506 -0.20643672 0.22195393 0.031605814 0.28713766 0.04398285 0.020207513
-0.030438181 0.015591951 -0.18553558 0.06843749 -0.18971038 0.078551374 0.037012577 -0.14542149
0.12616618 0.12705444 0.1614305 -0.04113908 -0.19117665 -0.188809 -0.1692257 -0.025573475
0.1760291 0.07323823 -0.033747062 -0.1575208 -0.14965008 0.17832209 0.08605522 0.2794779
-0.21392673 0.23032129 0.205245 0.016624024 -0.21410277 -0.15039894 -0.1130112 0.17693105
-0.098695 -0.0057521826 0.20005715 -0.02883177 -0.10236303 0.180023 0.18924451 -0.042661525
0.27904654 0.13427877 -0.038268447 0.07694248 -0.21947722 0.067574635 0.18565401 -0.14534783
-0.1058528 0.035566505 0.20390363 0.08923856 0.1367178 -0.08861434 0.25149512 -0.13317858
-0.12833716 -0.23029786 -0.0025939094 -0.25084925 -0.13201448 -0.20179889 0.022672899 -0.05152135
-0.11370139 0.028876595 -0.20396942 0.2364947 -0.08913355 -0.21316908 -0.051732857 -0.21093604
0.06840976 -0.05854511 -0.05306309 -0.12542018 -0.021680364 0.19395238 -0.008973691 0.096059985
-0.11882437 0.037962183 -0.28137195 0.0146175 0.13935257 -0.07781905 0.18571481 0.12789284
-0.22137982 0.16730794 0.047502916 -0.22300795 0.0227918 -0.16536085 0.13044477 -0.26136026
0.19839737 0.046808522 -0.18587573 -0.09526552 0.055866867 -0.021279247 0.11231974 -0.06538427
0.2056 0.19052 -0.20643729 0.094084516 0.14053887 -0.098400585 -0.016881125 0.14263965
0.09907454 0.08615501 -0.17720677 0.022557328 0.23404777 0.086660616 0.17474218 0.15993819
0.0943699 0.23286085 -0.21899763 0.26605174 0.012426175 -0.16839811 0.07238 -0.042635817
0.017110528 -0.224752 -0.041220263 0.1542211 0.07170226 -0.042703263 0.20892426 0.25314093
-0.16186777 -0.17964284 0.12393216 -0.09261221 -0.0012914352 0.08639228 0.142767 0.21187261

f.0.bias f4 [16]
00000000: 17b0 39be 463f b03d f33b 503d 1045 a8bd
00000010: 7aca b63d 72ed f3bc 1f49 97bd b9cb bebd
00000020: ea94 1c3e 365c 7bbd 4153 173d 37d4 80be
00000030: faf4 03be 384a 19be 1e71 1fbe 242a 013e
-0.18133579 0.086058185 0.050838422 -0.082162976 0.08925338 -0.029776309 -0.073869936 -0.09316201
0.15291181 -0.061367236 0.03694463 -0.25161907 -0.1288642 -0.14969718 -0.15570495 0.12613732

f.2.weight f4 [16, 16]
00000000: 04d1 a33d e74c 6ebe 3d0d c3bc 85c5 4d3e
00000010: 07a6 663d 4f42 b53c c170 0ebe dc94 c03d
00000020: 27de 1b3d c1d2 503e 96c6 6b3b 2640 4b3e
00000030: 4762 543e be9b 09bd a886 0d3d 37bf 3c3e
00000040: 2afb 753d ad43 283e d951 953d d923 f6bd
00000050: e39e 133e 175b a1bd 4ec2 24bc e15c 4cbe
00000060: aa7a 3ebe 2582 30bd ae15 5c3e 6b54 a4bd
00000070: c534 9f3d 0c9a 1b3e 8e1e 263e dce8 f83b
00000080: d73e e1bd e040 713d 5a17 52be 5b2e 653e
00000090: d54a 5cbe 5731 4bbe cf53 eabd 1985 17be
000000a0: d3ad b5bc 21a5 a93d f075 463e c152 c1bd
000000b0: d753 13bd 9dac b33d c116 5d3e 1eed 58bd
000000c0: b852 53be 90c8 9d3d 5999 97bd ddff 1ebc
000000d0: 4d25 dabd d3cc d13d 50c5 8abe e740 71bd
000000e0: d1e1 02be 47bb 78be 1a08 05bd faa9 983c
000000f0: 58ef 29be ba3e e33d 72f7 22be 26f6 923e
00000100: 768b 433e e9cc 1c3e 1a7e 673e 4785 b03d
00000110: 6654 ac3d c3c1 ffbd ec7b b33d 7d77 9bbd
00000120: 7433 323c c3c8 493e 3eca 253d 049e 523e
00000130: 22d9 703e 4268 a7bd de38 6f3e 52ba 02be
00000140: 7c51 70be 6f8e 7b3e 4d87 57be d2c5 1d3e
00000150: 9d5b 433e fc7e 193e f605 f83b da47 6e3e
00000160: 75ff 393e 54c9 41be 219b 59bd 967f 7fbe
00000170: 3369 203c ce23 68bd ace0 18bd b1a3 0abe
00000180: 8142 b63d f51a 9bbd 8d59 c13d 1a55 993d
00000190: 0c70 6fbe 2b8d 083d 6ebe 0dbe f491 2fbe
000001a0: 4751 02be 5fa8 453d 1c95 e4bd cfcd dcbd
000001b0: 1fa0 063e 3348 75be 37c3 8bbd 749f 4cbe
000001c0: 7139 463e d691 06bd 426a 4f3e 9bae 46be
000001d0: 79f3 833e a3e8 56bc a45a b93b 971e 143e
000001e0: 329e 41be 139f e53c 2588 243d 975a 01be
000001f0: 6614 46bc 41c8 94bd b9d0 78bc ba01 1d3d
00000200: b6f4 343e 8f59 2ebe 2447 223e 2d1b abbd
00000210: 6eab 1bbe a76a 1a3d 84d8 eabd ba5e f1bd
00000220: e218 88bd 5526 043c 03cb e93b 24e7 8dbd
00000230: dd3b 60bd d2d1 6d3e 0151 493e 68c9 3c3e
00000240: 2c37 89be 873e aa3c 9942 813e 1ef8 a1bd
00000250: 0e9a 113d f2e3 09be bb34 713d 32f7 01be
00000260: db5f 9bbd 2305 fcbd 6d0c 52be c78a 97bd
00000270: 8123 553e dc8e 4f3e 55cb 5abd db6c e9bd
00000280: a220 30be d498 8e3e 399e a7bd 36f8 6bbe
00000290: e5b1 6abe b076 bd3d 6106 7e3e 8698 83ba
000002a0: e8b1 88bd 3698 2a3e 1ead 86be 69dd 843e
000002b0: 811d 093e d60b 6abe b557 92be c0ed 4a3e
000002c0: 9eda 78be f144 613c 455a 6e3e c79c 033e
000002d0: 9601 e1bc 9130 d7bd db28 6a3e dc3c 4dbe
000002e0: 1ad7 763d a90e 313e 2d6d aabd fdb0 d23b
000002f0: f250 803d 528d 543d d6f1 cdbd 3422 31be
00000300: f5c1 bb3c 71dc 233e ad30 973e 6665 b43d
00000310: 3868 9fbd 6d15 403d 049d 74be 2481 2abe
00000320: f149 88be b62b 7e3e 249b 7d3e 3678 cb3d
00000330: d71f c1bd 9f01 5b3e 5d69 a3bc 36f1 133e
00000340: 3f43 10be b3bf e93d d2ab 24bd d9b3 dd3d
00000350: 17a6 dfbd f849 57be f3d3 633e 1103 1fbe
00000360: 0b0a 28be 5e7c 333e fb97 5d3e ae57 f13d
00000370: a93f 2bbe 4be4 8dbe 0d15 203e ce15 f5bd
00000380: a62a 113e dab7 57be 14c3 193d 0222 65bd
00000390: 7117 963e 4508 563d 894d 4d3d 7bcc 833d
000003a0: 52c4 0bbe 5d04 02bd 40e9 d33d 68b8 b13c
000003b0: 9935 00be 8092 a23d cb86 013e 0c6e 6e3d
000003c0: 092c 863e 8db6 cc3d 0c25 b13d 763d 6b3e
000003d0: 203c d23d ab37 5ebe 5a01 67be 8299 6dba
000003e0: b40b 09be f8be 5abe 0774 b4bd 9d21 703e
000003f0: 256d 34be ed30 14be dbac 36be 46b0 57be
0.07998851 -0.23271523 -0.023810023 0.20094879 0.05631068 0.022126345 -0.139102 0.09403393
0.038053658 0.20392896 0.003597652 0.1984869 0.20740615 -0.033595793 0.034552246 0.18432318
0.06005398 0.16432066 0.07291002 -0.12018556 0.14416079 -0.07878702 -0.0100560915 -0.19957305
-0.1860148 -0.043092865 0.21492645 -0.08023914 0.07773737 0.15195483 0.16222593 0.0075961184
-0.10998314 0.05889976 -0.2051672 0.22380964 -0.21512921 -0.1984304 -0.114417665 -0.14796866
-0.022177612 0.08283449 0.19380927 -0.09439612 -0.035968628 0.08773158 0.21590711 -0.052960508
-0.20637023 0.0770427 -0.074022956 -0.009704557 -0.10651646 0.10244145 -0.27103662 -0.058899786
-0.12781455 -0.2429019 -0.03247843 0.018635739 -0.16595209 0.110959485 -0.15914705 0.2870342
0.19096169 0.15312542 0.22606698 0.08619171 0.08414535 -0.12488129 0.087638706 -0.0759115
0.010876525 0.19705491 0.040476076 0.2056809 0.2352033 -0.081741825 0.23361537 -0.12766388
-0.23468584 0.24566053 -0.21047707 0.15407494 0.19077916 0.14989847 0.00756907 0.23269597
0.18163855 -0.18924457 -0.053126458 -0.24951014 0.009790706 -0.05667477 -0.03732364 -0.13539006
0.08899403 -0.07573501 0.094409086 0.07486935 -0.23382586 0.033337753 -0.13842174 -0.1714552
-0.12726317 0.048256274 -0.11161253 -0.107814424 0.13147019 -0.23953323 -0.06824344 -0.19982702
0.1935785 -0.032853924 0.20255378 -0.19402544 0.25771692 -0.013116988 0.005656557 0.14464794
-0.18908003 0.028029954 0.0401689 -0.12632214 -0.012089824 -0.07264758 -0.015186482 0.038331725
0.17671475 -0.17026351 0.1584745 -0.08354793 -0.15202114 0.037699368 -0.11467078 -0.11785646
-0.06645371 0.00806578 0.0071347966 -0.06928852 -0.05474459 0.23224571 0.19659807 0.18436205
-0.26799905 0.020781768 0.25246122 -0.07908653 0.03554731 -0.1346586 0.05888818 -0.12691954
-0.07586642 -0.12305667 -0.20512553 -0.073995166 0.20814325 0.2026934 -0.05341657 -0.11397716
-0.17199948 0.27850974 -0.081844755 -0.23043904 -0.22919424 0.092511535 0.24807121 -0.0010039962
-0.06674558 0.16659626 -0.26303953 0.25950173 0.13390161 -0.22856078 -0.2858254 0.19817257
-0.24302146 0.013749347 0.23276623 0.12852775 -0.027466577 -0.1050731 0.22867148 -0.20042747
0.06026373 0.17290749 -0.08321605 0.00642979 0.06265439 0.051892586 -0.10055892 -0.17298204
0.022919634 0.1600206 0.29529324 0.08808403 -0.0778355 0.046895433 -0.23888022 -0.16650826
-0.26618913 0.24821362 0.24766213 0.09935038 -0.09429901 0.21387337 -0.019947702 0.14447483
-0.14088152 0.11413517 -0.040202923 0.10825319 -0.10920351 -0.2102431 0.22248821 -0.15528513
-0.16410081 0.17527911 0.21640007 0.11784302 -0.16723503 -0.27713236 0.1563303 -0.119670495
0.14176425 -0.21066228 0.037539557 -0.055940636 0.2931476 0.05225398 0.05012277 0.06435486
-0.13649109 -0.031742442 0.10347223 0.021694377 -0.12520446 0.07938099 0.12649076 0.058210418
0.2620547 0.09995756 0.08649644 0.22972664 0.10265374 -0.21700923 -0.2255911 -0.0009063707
-0.1338337 -0.21361911 -0.08811193 0.23450322 -0.1761976 -0.14471789 -0.17839377 -0.21063337

f.2.bias f4 [16]
00000000: 0619 253d 60fc 723d c886 b63d a03c 6abc
00000010: 5cbd 87be 97f9 18bd 8108 d7bc 6bf8 52be
00000020: 43fb a13d b541 03bd b09a f4bd f32a e33d
00000030: 10ac c8bd 4b2a bcbc ff1d 503e c403 f53d
0.040307067 0.059322715 0.08912426 -0.014296681 -0.26511657 -0.037347402 -0.026249172 -0.20602576
0.079092525 -0.032045085 -0.11943567 0.11092176 -0.09798443 -0.022969386 0.20323943 0.11963609

g.0.weight f4 [16, 16]
00000000: 48c1 3c3d 1063 193e 151b 993d 8689 9dbd
00000010: 51a8 073e 3837 793d 97ab 3f3e 4148 d03c
00000020: cc67 13be f820 d73d ab82 823e 8ed5 63be
00000030: 1314 c8bd 7e10 77be 7a2a d1bd beda 64be
00000040: 4c1a c03d 0799 41be 5a4c 35be f2fc af3d
00000050: 390d 31be 170a e9bd ab99 163e 2406 a8bd
00000060: fb9f 053e b415 863e 3689 d23d a9cf 98bb
00000070: 42ce b1bd bfb8 8f3c 33cd 233e cba1 57be
00000080: 82e7 4ebe c518 afbd 20cd 71be b194 11be
00000090: 7c04 403e ff72 7f3e 3af4 2d3e 2931 d83d
000000a0: b0fe 563e aa70 6e3c 9dfe 58be e7fe 88be
000000b0: a000 503d f0d1 4d3e 14f7 fcbc 4d54 4d3e
000000c0: 9bc5 2e3e 696e 86be 6db0 7d3e 87e0 20bd
000000d0: c875 b73d cf7e 54be 836f 133e 062a 54bd
000000e0: ed20 6fbe 26e6 a63d df49 4cbe da11 823d
000000f0: 9f74 61be 6320 a6bd be8b 443e 80b3 263e
00000100: 847f 8ebe 97a5 5a3d ee84 40be 2027 4e3e
00000110: f41b cebd a691 903d 3448 d73c 4ae1 0a3e
00000120: 3c32 313c 4a68 23be 17f3 1bbc e92a 0a3e
00000130: 7329 823d 1a8c 443e be48 03be 597b 983d
00000140: ee28 093e 45e1 70be a911 8b3c 8ff5 9dbd
00000150: 5943 443d 5b8d e7bd 720c 133e 6c6b 32be
00000160: 93b6 dcbb e291 6fbe d0d2 b4bb ad59 5dbd
00000170: 4d09 513e ca22 1f3e f856 17be 2bfd 01be
00000180: 4f58 98bd 9768 1bbe c6b9 cf3c 909c aabd
00000190: ad09 883e fbe6 303e 6950 00be ca54 8d3c
000001a0: fef8 103e 9f97 743e 974b e43b 491f c2bd
000001b0: 264d 3f3e 8ef8 463d 3823 3a3e 30ae 6fbd
000001c0: 81f8 733e 3305 b73d 7946 043d 1490 6fbd
000001d0: b8b5 973c e2d6 6bbe b79e 53be ed9b 4a3e
000001e0: 157c a9bd 7609 6c3d d8da a03c 9003 00bd
000001f0: b111 173e 9f9e bcbd 33b8 55be 9688 8dbd
00000200: cc47 15bd 6690 6bbe 8878 263d e211 70be
00000210: 25e9 f43d 7112 f2bd 0de0 b93d 1218 0b3e
00000220: b451 55be af7b 9bbc 8d49 3abe d7e6 513e
00000230: 98d1 c0bc 09a6 5a3e 1ebf 26be 7365 263e
00000240: 99a0 40bd d658 5ebe 1b76 873d 9951 523e
00000250: fe95 7f3e 2e61 40bd 31b0 9abd 4812 12bd
00000260: fd90 bebd 337d 003e 2733 08be 2eb2 383e
00000270: c41b 183e b3af fcbd 877c e53d 21d6 6d3e
00000280: 91f3 363b 07af 603e f646 1ebe 0496 223d
00000290: 3599 34be 606c 1a3e f798 b63c 5af0 983d
000002a0: 11c9 74be a131 48be 6447 2cbe f656 05be
000002b0: f43e 043e 225a 81be 5e7b 973d 2c1c 273d
000002c0: 0ae3 6e3e ed2f e5bd 1c1a dc3d 7c26 293e
000002d0: a403 433e 1aef 59be b77a 30be 6a95 253d
000002e0: 829f 903e e338 53be 31c2 88bd 05bc cb3d
000002f0: f762 5fbe 2646 7f3e 62ea a0bd 0400 e43d
00000300: 141e 87bd 86d7 673a f6a3 85bd 79b3 7e3d
00000310: 29d7 e63b 00a2 02bd aa25 173e 8f44 963d
00000320: f3d6 6e3e 5aae 3fbe 8c59 de3d 3ae5 9bbd
00000330: ebc3 203e 2428 5f3d 9918 333e 32d3 d13c
00000340: 4f01 3abe e5fc 92be 13d1 06bc 659c 7c3e
00000350: 4350 2fbe d889 1cbe 4e80 8abe fbe3 cabd
00000360: 267f 053e d076 483e 8c0c 603c 904f 2fbe
00000370: 37f6 823e 7a41 54bc 79b5 ee3d 6f3f 233e
00000380: 2feb 6b3e f4fc 9f3d 62cf 5cbe 4796 443c
00000390: 9821 3c3d e5bf 93be 0ae4 0dbe a53d 143e
000003a0: 45a9 aebc 9ff4 52be 9c9c 753e 63a5 293e
000003b0: 3e8a ef3c 77cc c2bc acec d53d 9e70 06bd
000003c0: 758f b6bb 1bea 883d 9e2e 15be 926a eebd
000003d0: 8149 42be 9acf 283e 4dac 2a3d 2d67 4dbe
000003e0: 1001 f2bc 437c da3d b66d 2dbd 7789 883e
000003f0: 1cb9 e2bd 9c79 633e d1a7 4dbd 650e d33d
0.046082765 0.14979196 0.074758686 -0.07692246 0.13247801 0.060843676 0.187178 0.025425078
-0.14395064 0.10504335 0.25490317 -0.22249433 -0.09769454 -0.24127385 -0.1021318 -0.22349069
0.09380016 -0.18906032 -0.17704907 0.08593167 -0.172902 -0.113788776 0.14707057 -0.08204296
0.13049309 0.26188433 0.10280077 -0.004663427 -0.08681919 0.017544148 0.15996246 -0.21057813
-0.202055 -0.08549646 -0.23613405 -0.14216878 0.1875171 0.24946211 0.16987696 0.105562516
0.20995593 0.014553228 -0.21190877 -0.26756975 0.050781846 0.20099616 -0.030879535 0.2005169
0.17067568 -0.2625611 0.24774332 -0.039276626 0.08958012 -0.20751499 0.14398007 -0.05179789
-0.23352404 0.08149366 -0.19950055 0.06351061 -0.22017144 -0.08111646 0.19193932 0.16279411
-0.27831662 0.053380575 -0.18800709 0.20132113 -0.100639254 0.0705903 0.026279546 0.13562503
0.010815199 -0.15957752 -0.009518406 0.13492931 0.06355562 0.1919407 -0.12820718 0.07445402
0.1339452 -0.23523434 0.016976194 -0.07712852 0.04791579 -0.11306258 0.14360216 -0.1742379
-0.0067356317 -0.23395494 -0.005518295 -0.0540406 0.20413704 0.15540615 -0.1477927 -0.12694232
-0.074387185 -0.15176617 0.025357138 -0.08330643 0.26569882 0.17275612 -0.12530674 0.017252345
0.14157483 0.23885964 0.006967019 -0.094786234 0.18681774 0.048576884 0.18177497 -0.058515728
0.23825265 0.089365385 0.03229377 -0.058487013 0.018519267 -0.2303119 -0.20666014 0.19786043
-0.0827562 0.05762621 0.019635603 -0.031253397 0.14752842 -0.09209942 -0.20871048 -0.06910817
-0.036445424 -0.23004302 0.04064229 -0.23444322 0.11958531 -0.11819924 0.090759374 0.13583401
-0.20831949 -0.018979875 -0.1819212 0.20498215 -0.023537442 0.213524 -0.16283843 0.16249637
-0.047028158 -0.21713576 0.06614324 0.2053894 0.24959561 -0.046967678 -0.07553137 -0.035661966
-0.09304998 0.1254776 -0.13300763 0.1803672 0.14854342 -0.123381995 0.11205392 0.23226215
0.0027916173 0.21941768 -0.15456757 0.039693847 -0.17636569 0.15080404 0.022289736 0.074677184
-0.23904826 -0.19550182 -0.16824108 -0.13021454 0.1291464 -0.25264078 0.07396577 0.04079835
0.23328796 -0.11190782 0.107471675 0.16518587 0.19044358 -0.21282616 -0.17234312 0.040425695
0.28246695 -0.2062717 -0.06677664 0.09947971 -0.21815096 0.24929103 -0.07857205 0.111328155
-0.06597534 0.0008844066 -0.06525414 0.062182877 0.007044692 -0.031892776 0.14760461 0.07337295
0.23324184 -0.18718854 0.108569235 -0.07612081 0.15699737 0.05448164 0.17489852 0.025613401
-0.18164562 -0.28708568 -0.008228558 0.24669035 -0.17120461 -0.15286958 -0.27051014 -0.09906765
0.13036785 0.19576573 0.013674866 -0.17120194 0.25578472 -0.012955064 0.11655707 0.15942167
0.23038934 0.07811919 -0.21563485 0.01199872 0.045930475 -0.2885734 -0.13856521 0.1447664
-0.021320948 -0.20601128 0.23985523 0.16566996 0.029240724 -0.023779137 0.10445532 -0.032822244
-0.0055713006 0.06685277 -0.14568564 -0.116414204 -0.18973352 0.16485444 0.041668225 -0.2005889
-0.029541522 0.10668232 -0.042340957 0.26667377 -0.11070463 0.22214359 -0.05020887 0.1030548

g.0.bias f4 [16]
00000000: 38ab e0bd 7ba0 113e ecf1 ddbd 36b6 323e
00000010: 3169 56be 374f 4a3e ea85 20be 3be3 b8bd
00000020: 87a1 463e 60d7 62be bfba 36be 73ae 21be
00000030: 4ca6 c43c 3b51 d93c ace0 cf3d f486 0a3e
-0.109701574 0.14221375 -0.108371586 0.1745232 -0.20938565 0.1975678 -0.15676084 -0.09027716
0.19397555 -0.22152472 -0.17844675 -0.15789203 0.024005078 0.026527992 0.10150275 0.13528043

g.2.weight f4 [80, 16]
00000000: ab1c db3d d539 783e 2360 4b3e 8888 cd3b
00000010: e742 833d 0ea2 3ebe ed11 5d3d 993a d73d
00000020: c2fe 4ebe 3be3 4bbe 8c04 36be fb10 2d3e
00000030: abf0 8abd 38f0 053e 325c 23be 2991 2e3e
00000040: 3d4e 05be a2f7 183e ecc8 37be f73d f53d
00000050: 6741 cabd d8f9 4fbe ac41 62bc 74b5 5abe
00000060: bc0e 8abe 539a a93c ae47 f23d 53f9 5abe
00000070: bbef 243e d64f c13d 1edd 863d 4e63 edbd
00000080: d824 873e 49f9 52be 291e 87bb 3fc8 53be
00000090: 8fb0 98bd 6b98 773e 0347 6f3d b548 133e
000000a0: 663f 83be 8ed5 893d 7932 8e3c 602e 6cbe
000000b0: 7f09 bb3d a20b 453e 7802 50be 2453 103d
000000c0: 7690 f63d e0a0 963d 8738 643d 4fa7 363e
000000d0: 9a2a 89bd 2ed8 d03d 5283 4f3e a0a2 8fbd
000000e0: b5fb 67be 4706 22be 4524 8abd 4e00 4e3e
000000f0: fced 3f3e e433 503e 4700 143e 6044 203d
00000100: 85de 34be 4428 6e3e 3623 8bbd 9ac3 3b3e
00000110: 37dc 1d3e c0ab 883c 8638 33be 3272 00be
00000120: 4994 2bbe 0d0b 0fbe 252b 9d3d 9806 3f3e
00000130: b066 5d3e c557 f8bd 3b7f 00be 8d67 4bbe
00000140: d20e e73c 487b 16bd f2ca 2e3e 072a cbbc
00000150: 3688 31bd 1b95 91bd 4a81 913c b0cc 75be
00000160: 7044 65be e238 0d3e c488 483e c91c 6bb9
00000170: d0bb a03c 307b 8a3d 234e 46be 0a16 f5bd
00000180: dc7a 4a3e b8ee a73b 6665 2fbe 0849 5539
00000190: b65c 7f3e a7ab cbbd ad75 223e cf65 e1bd
000001a0: cfcc 943d 1629 803c a6df 86be 65e7 57be
000001b0: ed20 00be 7992 06be 283b f9bd 2024 c3bd
000001c0: c277 a5bd 0810 8a3e 3883 cfbd cace edbd
000001d0: 8fca 89be 1b2d 3bbe 846c 57be b2eb 30be
000001e0: 5a82 38be 5ae4 b03d 1bc0 263e 9d9d 68be
000001f0: 20e8 08bc 10d3 c43d 2fe8 6abe 14fb 6c3c
00000200: 066b 68bd fe27 9fbd ac71 683e 6609 07be
00000210: a680 843e 2eb8 823e d1d5 243e 97e4 4dbd
00000220: b7c0 06bc 60e4 733d 826f 0cbe 6e04 5d3e
00000230: 0210 813e fc96 bc3d fb2b 71be 4933 febd
00000240: d6fe 103d 44fc 253e ceba 8d3d 4914 33bd
00000250: cd0e 45be a67a fe3d 5db8 6e3e f8e4 b23d
00000260: e9de e9bd 9ce1 40be db1d 8e3c 1efa 78be
00000270: f615 e3bd c468 dbbc 1748 de3d 0755 8d3d
00000280: bee2 e83d 84ec 893d 5ae9 62be 2f72 54be
00000290: 2308 4ebe abb2 203e 5d3d 51be 7fbc 483e
000002a0: 7e90 64bc 92bd 99bd f9f1 c53d af5b eabd
000002b0: 59e7 68be 985d 213d 0fc8 883e e755 213e
000002c0: 3c8d 18bc 4d6b 7abe 3709 3fbe 4d73 fb3d
000002d0: 17f3 273e cf1a 69be 9f58 48be 2fc4 793e
000002e0: 210f e13d 64e7 213d 828e 213d e66d 913e
000002f0: 2cfb 123d fb4c 723e ad87 53be aa3c 36bd
00000300: e0fa 83be 43e0 08be c9ae 523e d85d aabd
00000310: 2d3a 7abe c9bd 373e 82d2 1f3e 7806 4fbe
00000320: 65a1 943d a404 3e3e f723 fc3d 8dbe 56be
00000330: 846c 893c f966 26bc ffbc b43d 1434 d6bd
00000340: 4762 233d 88a4 03be 0bf0 343e 59c5 8bbe
00000350: 3a50 4ebc 5b4a 433e dc0d a53a d1b4 3ebe
00000360: 7d91 593d 88cb 2d39 29c8 753e 6538 2ebe
00000370: 93d6 d2bc c08f 83be 2b63 01bd adab 0e3e
00000380: 1fa9 35be f7ed 6cbd 4f01 473e 9861 a63d
00000390: 3c09 c43c 299a ba3d 40ee 4bbe 3caa 05be
000003a0: a1bb 3dbc 7800 913b bc27 6ebd 5de6 593e
000003b0: 062f 1f3e f2ec 32be 0607 373c 93a6 80be
000003c0: 3fb0 00be c391 243e 2377 6d3b b83e cabd
000003d0: ff7f 20be 5950 1c3e 9640 dbbd 5fd1 60bc
000003e0: 76fc 1ebe 141c 7d3e dea8 fcbd f26f 473c
000003f0: 499b 2c3e 7aa0 c23d bb46 b9b9 7f16 87bc
0.10698827 0.24240811 0.19860892 0.0062723793 0.06409245 -0.18616506 0.053972173 0.105092235
-0.2021437 -0.199109 -0.17775172 0.16901009 -0.06784185 0.13079917 -0.15953138 0.17047562
-0.13018127 0.14938214 -0.1794774 0.119747095 -0.09875756 -0.20310152 -0.013809603 -0.21358281
-0.26964366 0.02070347 0.11830078 -0.21384172 0.16107075 0.094390556 0.065851435 -0.115912065
0.26395297 -0.20602907 -0.0041234684 -0.20681857 -0.07455551 0.24179237 0.05841733 0.14383204
-0.25634307 0.067301854 0.017358052 -0.23064566 0.091326706 0.19242719 -0.20313442 0.03523554
0.120392725 0.07354903 0.05571797 0.1783726 -0.06697579 0.10197483 0.20264938 -0.0701344
-0.22654612 -0.15822707 -0.06745199 0.20117304 0.18743128 0.20332295 0.14453231 0.039127707
-0.1766301 0.23257548 -0.06793825 0.18336335 0.15416037 0.01668346 -0.1750203 -0.12543562
-0.16755785 -0.1396906 0.07674245 0.18654859 0.21621203 -0.12126116 -0.12548535 -0.1986372
0.028205309 -0.036738664 0.17069605 -0.024800314 -0.04334279 -0.07108518 0.017761845 -0.24003863
-0.22389388 0.1379123 0.19583422 -0.0002242207 0.019620806 0.067617774 -0.19365744 -0.11967094
0.1977343 0.005124893 -0.17128524 0.00020340469 0.2493771 -0.099448495 0.15865202 -0.110057466
0.07265627 0.015644591 -0.26342505 -0.21084364 -0.1251256 -0.13141812 -0.12169486 -0.09528375
-0.080794826 0.26965356 -0.1013245 -0.116117075 -0.26912352 -0.18278925 -0.21037489 -0.1727741
-0.18018475 0.086373046 0.1628422 -0.22716375 -0.008356124 0.096105695 -0.22940134 0.014464159
-0.05674269 -0.077713 0.22699612 -0.13187179 0.258794 0.25531143 0.1609719 -0.05026683
-0.008224658 0.059543967 -0.13714412 0.21583721 0.25207525 0.092084855 -0.23551933 -0.124121256
0.03539928 0.16209513 0.06920396 -0.043720517 -0.19243927 0.12425737 0.23312517 0.087350786
-0.1141947 -0.18836063 0.01734822 -0.24314162 -0.11088173 -0.026783355 0.10853594 0.06900983
0.11371373 0.06734565 -0.22159329 -0.20746683 -0.20120291 0.15693156 -0.20433564 0.19603156
-0.013950465 -0.07506861 0.09665293 -0.114432685 -0.22744502 0.0393959 0.26715133 0.15755425
-0.009311017 -0.24454994 -0.18655859 0.12277851 0.16401325 -0.22764133 -0.19565056 0.24391244
0.10989214 0.039527312 0.039442547 0.28404158 0.035884067 0.23662178 -0.20657225 -0.044491448
-0.2577734 -0.13366799 0.20574488 -0.083186805 -0.24436255 0.17943491 0.15607646 -0.20217311
0.07257346 0.18556458 0.12311547 -0.20971127 0.016775377 -0.0101563865 0.08825111 -0.10459152
0.039888646 -0.12855732 0.17669694 -0.27299002 -0.01259237 0.19071333 0.0012592631 -0.18623663
0.053117264 0.00016574387 0.24002136 -0.170137 -0.025737083 -0.2569561 -0.031588715 0.13932677
-0.17740296 -0.05784413 0.19434093 0.08124083 0.023930185 0.09111435 -0.19915104 -0.1305322
-0.011580379 0.0044251047 -0.058143362 0.21279283 0.15545282 -0.174732 0.011171108 -0.25127086
-0.12567233 0.16071229 0.003623434 -0.09875244 -0.15673827 0.15265025 -0.10705678 -0.013721793
-0.15525994 0.24717742 -0.12336896 0.012172686 0.16856112 0.09503265 -0.00035338648 -0.01649022

g.2.bias f4 [80]
00000000: 1b16 c43d debf f53d 910e 0d3e 0f7c 7ebd
00000010: 49be adbd 2d16 5b3e 363a c73d 0415 b53d
00000020: 925d 13be 3d00 e93d 6224 fbbd edc9 63be
00000030: 1393 753d a1eb 6dbd fa84 48be 24be 933c
00000040: 33e7 c93d 3ba7 2fbb c785 d6bd 09fd cebc
00000050: c8dd 4abe 770f 08be db2b 00be aa2e 223d
00000060: 3c9a 06be 5cf2 733e 47df 993d 5fc1 c93d
00000070: 1906 583e c6a3 633e a6e2 67be c7a1 35be
00000080: 2fde 3d3e 02ef f9bd b3de 12be 71af fdbd
00000090: 3a6e 4f3e e8b9 bbbc 67ef 25be df00 a6bd
000000a0: bfc3 423e 9dfa 4abd b3d4 5ebd f241 63bc
000000b0: e320 503e 6bb3 1cbe 8b46 2a3e c511 39be
000000c0: 77a3 04be 4ca5 6ebd 7149 80be 51a8 84bd
000000d0: bb30 373d 0549 5bbe 817d cc3d 6566 32be
000000e0: 0a60 3a3e 055a 103d 53ec 6bbe 3452 523d
000000f0: f43a 44bc 5c1a c9bd 6b16 e33b 6431 603d
00000100: 502c e3bb f9fd b3bb b0d7 62be 98b8 853d
00000110: ea14 07be 7487 72bd cbff 6d3e ea9b 5f3e
00000120: 231b 903d 9f08 96bd 0055 713d dc2f aebd
00000130: 64df 52be e69d 36be 350d cebd 7fe0 a3bd
0.09574529 0.119994864 0.13775088 -0.06213003 -0.0848356 0.21395178 0.097279 0.08841899
-0.14391163 0.113769986 -0.12262799 -0.22244997 0.059954714 -0.05808604 -0.19581977 0.018035002
0.09858551 -0.0026802558 -0.10474735 -0.025267141 -0.19811165 -0.1328715 -0.1251673 0.039595284
-0.13144773 0.23822922 0.0751329 0.09851336 0.21096076 0.22230443 -0.22645053 -0.17737494
0.18541788 -0.1220379 -0.14342766 -0.123869784 0.20256892 -0.022915795 -0.16204606 -0.08105635
0.19019984 -0.04955541 -0.054402065 -0.013870703 0.20325045 -0.15302818 0.16628473 -0.18073185
-0.12952982 -0.058263108 -0.2505603 -0.06477416 0.044724207 -0.21414573 0.099848755 -0.17421873
0.18200698 0.0352421 -0.2303937 0.051347926 -0.011976946 -0.09819481 0.0069301627 0.054734603
-0.0069327727 -0.0054929224 -0.22152591 0.06529349 -0.13191572 -0.05921121 0.23242109 0.2183682
0.07036426 -0.07325863 0.058918953 -0.08505222 -0.2059303 -0.17833671 -0.10061113 -0.080018036
