ckpt/rnn_diff_h16/best.pth (torch_old, 17700 bytes, 30 tensors)

rnn.weight_ih_l0 f4 [16, 7]
0	0xbd5faca9	-0.05460802
1	0xbd1a44bc	-0.037663206
2	0x3e13c917	0.14432178
3	0xbd3ac60c	-0.04559903
4	0xbe2f7530	-0.17134547
5	0x3e71a3b8	0.2359761
6	0x3c1e3e1e	0.009658365
7	0xbd64fa54	-0.055902794
8	0xbca1ea63	-0.019765085
9	0xbe4c2295	-0.19935067
10	0x3dcadf2a	0.099058464
11	0xbdba28bb	-0.090898
12	0x3e510956	0.20413718
13	0xbcad71e2	-0.021172468
14	0xbdfd6f6b	-0.12374767
15	0x3e1f32a0	0.15546656
16	0xbe333095	-0.17499001
17	0xbb959e24	-0.004565971
18	0x3b27df8e	0.0025615427
19	0x3e8b0716	0.27153844
20	0xbd4921dc	-0.049104556
21	0x3e61a276	0.2203463
22	0xbdc7ee24	-0.097622186
23	0x3b4fa9ae	0.003168683
24	0x3d9b1ff9	0.07574458
25	0xbe1f190f	-0.15536903
26	0x3e78f6d3	0.24312906
27	0xbe9e855e	-0.30961126
28	0xbddf8f1a	-0.10915966
29	0xbde57c97	-0.11205404
30	0xbe17b498	-0.14814985
31	0x3d8b8356	0.0681216
32	0xbbb5ffd9	-0.005554181
33	0xbd698169	-0.05700818
34	0xbd77c61f	-0.060491677
35	0x3d845e2a	0.06463273
36	0xbe81d555	-0.25358072
37	0xbde35757	-0.11100643
38	0x3e49d67e	0.19710729
39	0xbd58eb2f	-0.052958664
40	0x3e3fcee5	0.18731268
41	0xbc046846	-0.008081501
42	0x3e09d6e0	0.13460875
43	0x3cfa51fd	0.030556673
44	0x3e3f5112	0.1868327
45	0x3dc931b8	0.09823936
46	0xbce16064	-0.027511783
47	0xbd7b42bb	-0.061342936
48	0x3e6d722b	0.23188083
49	0x3e4dc9b8	0.20096481
50	0x3d8bf8b1	0.068345435
51	0x3d95642e	0.072944984
52	0xbd1341b7	-0.035951342
53	0x3e2aed7d	0.16692157
54	0x3e779dd6	0.24181303
55	0x3e722cd8	0.23649919
56	0x3d920fd6	0.07131927
57	0xbcff8b34	-0.031194307
58	0x3e529e59	0.20568217
59	0xbd824a62	-0.06361844
60	0x3e43d60d	0.19124623
61	0xbca64bfa	-0.0202999
62	0xbe3a09c1	-0.18167783
63	0x3c3907b2	0.011293339
64	0x3e52a8bb	0.20572178
65	0xbdc5aef1	-0.09652508
66	0x3e540f8c	0.20709056
67	0x3dd255ed	0.10270295
68	0xbd191014	-0.03736885
69	0x3e28847e	0.16456792
70	0x3e52331e	0.20527312
71	0xbe0f9cc1	-0.1402464
72	0xbe1c58a7	-0.15268193
73	0x3e9dbd8d	0.30808678
74	0x3e724fb7	0.23663221
75	0x3e3baffd	0.18328853
76	0x3da0c764	0.07850531
77	0x3ca59df1	0.020216914
78	0xbd9138b1	-0.07090891
79	0xbe2d8400	-0.16944885
80	0x3dd211de	0.10257314
81	0xbd972743	-0.073805355
82	0xbe92c5ea	-0.2866662
83	0x3e9e9b39	0.309778
84	0xbdec609c	-0.11541864
85	0xbe3818be	-0.17978188
86	0xbde0eed5	-0.109830536
87	0xbdc0c5cc	-0.09412727
88	0xbe2da8c2	-0.16958907
89	0xbdb88497	-0.090096645
90	0x3e8c926a	0.27455455
91	0x3d92ad80	0.07161999
92	0x3e00338e	0.12519667
93	0xbdce6cc0	-0.10079336
94	0xbe24418c	-0.16040629
95	0x3de874dc	0.11350414
96	0xbddba2cb	-0.1072441
97	0xbeaed49e	-0.3414659
98	0xbd5185e0	-0.051153064
99	0xbbe9b71c	-0.007132424
100	0xbe113ba3	-0.14182906
101	0x3db3bebc	0.08776614
102	0x3dc7b451	0.097511895
103	0xbd471677	-0.04860541
104	0xbce519a8	-0.027966335
105	0x3dc7fcaa	0.09764989
106	0xbe2ba9cb	-0.1676399
107	0x3d84593f	0.06462335
108	0x3dfe8be3	0.12429025
109	0xbe382489	-0.17982687
110	0xbe0af440	-0.13569736
111	0xbe55f6d4	-0.20894939

rnn.weight_hh_l0 f4 [16, 16]
0	0x3de039e2	0.1094854
1	0xbe6a8629	-0.2290274
2	0x3e3d6970	0.18497252
3	0x3de2852a	0.11060555
4	0x3e85fe79	0.2617071
5	0xbe1587c3	-0.1460257
6	0x3e1cbfd5	0.15307553
7	0x3ee51a84	0.44746792
8	0x3d4a5def	0.04940599
9	0x3bcff2e2	0.0063460926
10	0x3e3b5aab	0.18296306
11	0x3e52fc5e	0.20604083
12	0xbe2bc516	-0.16774401
13	0xbdaaf9be	-0.08348416
14	0x3cd7996a	0.02631827
15	0xbe0f2e49	-0.139825
16	0xbe764902	-0.24051288
17	0x3ea6242a	0.32449466
18	0x3e86c16a	0.26319438
19	0x3db5de2a	0.08880265
20	0xbe8c05a2	-0.27348047
21	0x3e9f5935	0.31122747
22	0xbe09cfbd	-0.13458152
23	0x3e7192e4	0.2359119
24	0xbe263641	-0.16231634
25	0xbe8a1015	-0.26965395
26	0x3d4f30c5	0.05058362
27	0xbe83ae3a	-0.25718862
28	0x3aaaafaa	0.0013022323
29	0x3e4651db	0.19367163
30	0xbdf8527e	-0.12125109
31	0x3db959c9	0.09050328
32	0x3e889b71	0.26681092
33	0xbe134b1b	-0.14384119
34	0x3e0dd590	0.13850999
35	0xbe63ae32	-0.22234419
36	0x3e9d1d2d	0.30686322
37	0x3dc9af2a	0.09847863
38	0x3d1aaba1	0.037761334
39	0xbcf2235d	-0.029557878
40	0x3db779bc	0.08958766
41	0xbba46551	-0.0050169607
42	0xbce189a2	-0.027531449
43	0xbc05bd51	-0.008162812
44	0x3e2e012c	0.16992635
45	0x3dbda9f0	0.09260929
46	0xbdca6bdb	-0.09883853
47	0xbe28ae33	-0.16472702
48	0xbd08de17	-0.033414926
49	0xbe5c2e1f	-0.21501969
50	0xbd5888bb	-0.05286477
51	0x3e624949	0.22098269
52	0x3e535594	0.20638114
53	0xbc652e81	-0.013988138
54	0xbcc42542	-0.023943547
55	0x3df5a488	0.119942725
56	0x3e8b520a	0.27211028
57	0xbd79d74a	-0.06099633
58	0xbddbcf03	-0.10732844
59	0xbc8de549	-0.017321246
60	0x3e2f98a4	0.17148072
61	0xbcd5e63a	-0.026110757
62	0x3d9c19ab	0.07622083
63	0xbb2d7d2c	-0.0026472313
64	0x3e18ce00	0.14922333
65	0xbd2825cb	-0.041051667
66	0x3e2436ed	0.16036578
67	0x3dc1f123	0.09469821
68	0x3e5b6630	0.214257
69	0x3db70798	0.08936995
70	0x3e24f3c2	0.16108611
71	0xbd5ce98e	-0.053933673
72	0x3e6ef723	0.23336463
73	0x3b4593b2	0.0030147848
74	0x3e6f2546	0.23354062
75	0x3e394f4f	0.1809666
76	0x3defbab2	0.11705531
77	0x3ea76de4	0.32701027
78	0xbdec11fb	-0.11526867
79	0x3d9779e9	0.073962994
80	0xbe3558c4	-0.17709643
81	0x3e814b01	0.25252536
82	0xbcc640ee	-0.024200883
83	0xbe92c3b4	-0.28664935
84	0xbe854c3d	-0.26034728
85	0x3d2b4d1a	0.041821577
86	0x3db28757	0.0871722
87	0xbd5bb52c	-0.053639576
88	0xbd32a35a	-0.043612815
89	0xbd6517e9	-0.055931006
90	0xbd1a08aa	-0.03760592
91	0x3d94cd67	0.0726574
92	0x3e8cff8d	0.2753872
93	0x3d667fc0	0.056274176
94	0x3de0d686	0.10978417
95	0xbe866198	-0.26246333
96	0x3eb16c00	0.3465271
97	0x3e18dd92	0.14928272
98	0x3e409239	0.1880578
99	0xbdca9773	-0.09892168
100	0x3e6eb752	0.23312119
101	0xbe3a3be7	-0.18186913
102	0xbd25296a	-0.0403227
103	0x3e0532f8	0.13007724
104	0xbe394020	-0.18090868
105	0xbe4669e3	-0.1937633
106	0xbd726845	-0.05918147
107	0x3d9ce529	0.07660896
108	0x3dac4dbb	0.084132634
109	0xbd2551b3	-0.040361118
110	0xbda850fc	-0.082185715
111	0xbe8b62cf	-0.27223822
112	0xbe32eda2	-0.17473462
113	0x3e7cbcef	0.24681447
114	0xbe83658c	-0.25663412
115	0x3e30b6c9	0.17257227
116	0xbd5fc019	-0.054626558
117	0x3e20c017	0.15698276
118	0xbe1082a3	-0.14112334
119	0x3e7a2d16	0.24431261
120	0xbdc7dfa7	-0.09759455
121	0x3d5990d2	0.053116627
122	0x3de7be89	0.113156386
123	0x3d010bee	0.031505518
124	0x3e4d0453	0.20021181
125	0xbe186340	-0.14881611
126	0xbc2ee7ef	-0.010675414
127	0xbd6454ac	-0.055744812
128	0xbc846214	-0.016160049
129	0xbd74add7	-0.0597361
130	0x3e35b98c	0.17746562
131	0xbcb1efe2	-0.02172083
132	0x3dcd9173	0.10037508
133	0xbe12d78d	-0.14340039
134	0x3e7ffb15	0.24998124
135	0x3cc6c48c	0.024263643
136	0xbe5f450c	-0.21803683
137	0x3d461e1b	0.048368555
138	0x3dc2e271	0.095158465
139	0x3ddea246	0.10870795
140	0x3e295e3c	0.16539854
141	0x3e473e4d	0.1945736
142	0x3c0b76cd	0.008512211
143	0xbe9e85c3	-0.30961427
144	0xbcc77d0c	-0.02435162
145	0xbda3a077	-0.079895906
146	0xbe044aa6	-0.12919101
147	0xbe6acf13	-0.22930555
148	0xbd49f2ac	-0.049303696
149	0x3da9fe9a	0.083005145
150	0x3bdf6d58	0.0068184547
151	0xbd90484b	-0.07045039
152	0xbe9795f0	-0.2960658
153	0x3e9a07db	0.30084118
154	0xbd1788a7	-0.036995556
155	0x3e03603e	0.12829682
156	0x3e90ed4a	0.28306037
157	0x3e170547	0.14748107
158	0xbdaeac30	-0.08528936
159	0x3d012561	0.031529788
160	0x3e10cce1	0.14140655
161	0xbdd5f6e4	-0.10447481
162	0x3d7043f1	0.058658544
163	0x3e3bab5b	0.18327086
164	0x3e381555	0.17976888
165	0xbe293d52	-0.16527298
166	0xbd8e804d	-0.06958065
167	0xbe4ac7cd	-0.1980278
168	0xbe48972e	-0.1958892
169	0x3e89f3de	0.26943868
170	0xbe3bde17	-0.1834644
171	0x3e082893	0.13296728
172	0xbcbdd7e6	-0.023174237
173	0xbb99029c	-0.0046695005
174	0x3e9ed37f	0.31020734
175	0x3e90ee55	0.28306833
176	0xbdfa772b	-0.12229761
177	0x3d1d1f03	0.038359653
178	0x3bf205ca	0.007385944
179	0x3e1c9021	0.15289356
180	0x3e5ecaff	0.21757124
181	0xbe703c18	-0.23460424
182	0x3e5182b1	0.20460011
183	0xbcf8c3e8	-0.030366853
184	0xbe143e0f	-0.14476798
185	0x3e35d36c	0.17756432
186	0xbda502ba	-0.08057161
187	0xbe00397a	-0.12521926
188	0x3e449d39	0.192006
189	0x3df18e1a	0.11794682
190	0x3e58cb1c	0.2117123
191	0xbe184275	-0.14869101
192	0xbe378d4a	-0.17924991
193	0x3dd946cd	0.10609207
194	0xbe522a95	-0.20524056
195	0xbe89123b	-0.2677172
196	0x3ca36a9a	0.019948293
197	0xbd26323d	-0.040575255
198	0xbdcceaab	-0.10005697
199	0x3e9a8618	0.3018043
200	0x3d2361a3	0.039888036
201	0xbe0e5c63	-0.1390243
202	0xbdd4a899	-0.1038372
203	0x3e4adac7	0.1981002
204	0xbd968f1c	-0.07351515
205	0x3e1dfc09	0.15428175
206	0x3dd8bd31	0.105829604
207	0xbe208baf	-0.15678285
208	0x3e088f62	0.13335946
209	0xbe5c6c0f	-0.21525596
210	0xbda38bc9	-0.07985646
211	0x3db7c26f	0.08972632
212	0xbe7c42fd	-0.24634929
213	0xbdf8a601	-0.12141038
214	0x3e49c0bc	0.19702429
215	0x3e443ac3	0.19163041
216	0x3e501f13	0.20324354
217	0x3e38be8a	0.18041435
218	0xbda6f679	-0.0815248
219	0xbe826204	-0.25465405
220	0xbe9523ba	-0.2912882
221	0x3cde659a	0.027148057
222	0x3d9260ef	0.07147395
223	0xbd35f387	-0.0444217
224	0xbe210260	-0.15723562
225	0x3c6c8c5f	0.014437764
226	0xbdd6c39b	-0.104865275
227	0xbe219e45	-0.15783031
228	0x3dd1d5bb	0.10245844
229	0xbd3bbb20	-0.045832753
230	0xbe6de99a	-0.23233643
231	0x3dd20b4a	0.102560595
232	0x3d7599a7	0.059960987
233	0xbdc1dc2a	-0.09465821
234	0x3cefc238	0.029267415
235	0x3e02ebc7	0.12785254
236	0xbe892b4c	-0.26790845
237	0x3e81024d	0.25197068
238	0xbe7f4f28	-0.2493254
239	0x3e0d250e	0.13783666
240	0xbddce9ff	-0.10786819
241	0x3d397990	0.045281947
242	0xbd21a492	-0.039463587
243	0xbdc43d49	-0.09582002
244	0x3d596205	0.053071994
245	0xbe1570d9	-0.14593829
246	0xbe46b186	-0.19403657
247	0xbd0e429d	-0.034731496
248	0x3e4ef79e	0.20211646
249	0xbd953d6f	-0.07287108
250	0x3e1c765c	0.15279526
251	0x3e5ea8fa	0.21744147
252	0xbe017690	-0.12642884
253	0x3e1d6668	0.15371096
254	0xbd9126e1	-0.07087494
255	0x3e7afa63	0.24509577

rnn.bias_ih_l0 f4 [16]
0	0xbdecccb0	-0.115624785
1	0xbdc58e75	-0.09646312
2	0xbc8d7023	-0.017265385
3	0xbe522919	-0.2052349
4	0x3cc9a66b	0.024615487
5	0xbe0e9ca1	-0.13926937
6	0x3d938a4c	0.072041124
7	0xbe2cfa18	-0.16892278
8	0x3d0c8fed	0.034316946
9	0x3dac8d61	0.084254034
10	0x3de2e424	0.110786706
11	0xbddf99dc	-0.10918018
12	0xbdf8aef9	-0.121427484
13	0x3e027319	0.12739219
14	0xbe306429	-0.17225708
15	0xbe2d337e	-0.16914174

rnn.bias_hh_l0 f4 [16]
0	0x3e80dc2a	0.25167972
1	0x3e425608	0.18978131
2	0xbe136415	-0.14393647
3	0x3e0348eb	0.12820785
4	0xbe7f112c	-0.24908894
5	0x3e0d0324	0.1377073
6	0xbe31daab	-0.17368571
7	0x3d82dd75	0.06389896
8	0xbeaa5b25	-0.33272663
9	0x3dec3a9a	0.11534615
10	0xbcd37732	-0.025813673
11	0xbdeebd5d	-0.11657212
12	0xbe2fe3af	-0.17176698
13	0xbe4624c2	-0.1934996
14	0x3d3a614c	0.045502946
15	0x3d41a7fe	0.04727935

fc.0.weight f4 [16, 16]
0	0xbd9f57b5	-0.07780401
1	0xbe94e008	-0.29077172
2	0xbe848c3a	-0.25888234
3	0x3db8c1a3	0.09021308
4	0x3e0150b5	0.12628444
5	0xbedcc06a	-0.4311555
6	0xbd312c86	-0.04325535
7	0x3e84ac22	0.25912577
8	0xbf1a6505	-0.60310394
9	0x3dad5895	0.08464161
10	0x3da8cd1f	0.08242249
11	0xbe998918	-0.29987407
12	0xbcfb062f	-0.030642597
13	0xbed0d1e3	-0.4078513
14	0xbdbff7be	-0.09373425
15	0x3cdeaf9c	0.027183346
16	0xbd0986d1	-0.033575837
17	0xbe86b218	-0.2630775
18	0x3e21d2f7	0.15803133
19	0x3d0b7f1f	0.03405678
20	0xbd53987b	-0.05165909
21	0x3e0a5d29	0.135121
22	0xbe894377	-0.26809284
23	0xbe160596	-0.14650568
24	0xbe818803	-0.2529908
25	0x3eff8333	0.49904785
26	0x3eccdf72	0.40014225
27	0x3d89abe7	0.06722241
28	0x3e22fe4d	0.1591732
29	0xbe5c8721	-0.21535923
30	0x3ec26256	0.3796565
31	0xbbccfd1e	-0.00625576
32	0xbf05351f	-0.5203418
33	0xbe8eabcb	-0.27865443
34	0xbe7f4ce8	-0.24931681
35	0xbec47435	-0.3836991
36	0x3da25a72	0.07927407
37	0x3e65e5dc	0.22450966
38	0x3d197c1c	0.037471876
39	0xbe9cd05c	-0.30627716
40	0xbd4c1a33	-0.049829673
41	0xbe05838f	-0.13038467
42	0x3e51ad51	0.20476271
43	0x3d11e6b2	0.0356204
44	0xbe4aa58f	-0.19789718
45	0x3df05d76	0.11736576
46	0x3de46bad	0.1115335
47	0xbe96d8a0	-0.29462147
48	0x3f036c35	0.51336986
49	0xbe12200d	-0.14270039
50	0xbd9169ca	-0.07100256
51	0xbd85c0c0	-0.06530905
52	0x3e6c9ee4	0.23107487
53	0x3e4f4410	0.20240808
54	0x3e419c38	0.18907249
55	0x3e4901f6	0.19629654
56	0x3ea8315f	0.32850167
57	0xbe2ce9de	-0.16886088
58	0xbdabe04c	-0.083923906
59	0xbe9d3013	-0.3070074
60	0x3f1733d0	0.59063435
61	0xbcf841b7	-0.030304773
62	0x3e7f8a06	0.24954996
63	0xbe288f84	-0.16460997
64	0x3d807f9d	0.0627434
65	0x3ec13891	0.3773847
66	0x3e70c9f1	0.23514535
67	0x3ddb9833	0.10722389
68	0xbe815a6e	-0.25264305
69	0xbe568b52	-0.20951584
70	0x3d1d951f	0.03847229
71	0xbe3bdd6e	-0.18346187
72	0x3d9c75f5	0.07639686
73	0xbed7c74c	-0.4214424
74	0x3ed2a690	0.41142702
75	0xbe785afc	-0.24253458
76	0xbd53c801	-0.05170441
77	0xbe1f4633	-0.15554123
78	0x3e807041	0.25085643
79	0xbe59888f	-0.21243499
80	0xbe9c6e27	-0.3055279
81	0x3dc65e48	0.096859515
82	0x3e846226	0.2585613
83	0x3dc5d5e5	0.09659938
84	0x3ea2835e	0.3174085
85	0x3e405c27	0.18785153
86	0xbcbd9266	-0.023141097
87	0x3e7b2a81	0.24527933
88	0x3d812e58	0.063076675
89	0xbe083182	-0.13300136
90	0x3dc30879	0.095231004
91	0xbe83ee95	-0.2576796
92	0x3e80d0bd	0.25159255
93	0x3ecf2baf	0.40463015
94	0x3e0cfca2	0.13768247
95	0x3ee54b61	0.44784072
96	0xbdf36d16	-0.11886041
97	0xbf08c008	-0.53418016
98	0x3e9746cd	0.29546204
99	0xbd8aa854	-0.06770387
100	0xbd844544	-0.06458524
101	0xbf195456	-0.5989431
102	0xbd1336c2	-0.035940893
103	0xbc8bd42b	-0.017068943
104	0x3ca4fac5	0.020139107
105	0x3e057916	0.13034472
106	0xbd999e82	-0.07500936
107	0x3c756510	0.014977708
108	0x3d46b922	0.0485164
109	0x3ed8ea73	0.4236637
110	0xbdeaefd3	-0.11471524
111	0xbe8cbd6f	-0.27488276
112	0xbde14424	-0.10999325
113	0xbdbf7cd1	-0.09349979
114	0x3e845680	0.25847244
115	0x3e5691d9	0.20954074
116	0x3d80ef85	0.06295685
117	0x3e175f0d	0.14782353
118	0x3ec32caa	0.38120013
119	0x3dd29116	0.10281579
120	0x3eb2fce1	0.34958556
121	0x3ebe80ae	0.3720755
122	0x3e0e49af	0.13895296
123	0xbf1f4439	-0.62213475
124	0xbe52aa52	-0.20572785
125	0xbdc5ee34	-0.09664574
126	0xbe295000	-0.16534424
127	0xbe19697b	-0.14981644
128	0xbd092a80	-0.033487797
129	0x3e68a5ad	0.2271945
130	0x3d2b4813	0.041816782
131	0xbe7e01a5	-0.24805315
132	0x3f0208c6	0.5079464
133	0xbeb470e9	-0.35242394
134	0xbee6dfb0	-0.45092535
135	0xbe2016f3	-0.15633754
136	0x3e8ca1f3	0.27467307
137	0x3e07d46d	0.13264628
138	0xbe04b090	-0.12957978
139	0x3dc7b0fb	0.09750553
140	0xbea12604	-0.31474316
141	0xbdd0b830	-0.10191381
142	0x3e4a59d2	0.19760826
143	0x3ea25268	0.31703496
144	0x3e2163d2	0.15760735
145	0xbd29e0d9	-0.041474197
146	0x3e6462d5	0.22303326
147	0x3c0c5b7a	0.008566732
148	0xbd07268b	-0.03299574
149	0xbd5363c7	-0.051608827
150	0xbeda9b93	-0.4269682
151	0xbeb31beb	-0.34982237
152	0xbe1c6cde	-0.15275905
153	0xbeaa6e0d	-0.33287087
154	0x3eb9bdaf	0.3627753
155	0xbe8beb20	-0.27327824
156	0xbdd26416	-0.10272996
157	0x3ecc18c3	0.39862642
158	0xbec89a6b	-0.39180312
159	0x3eab4e80	0.33458328
160	0xbdb9d0df	-0.09073042
161	0x3ee9107c	0.4552039
162	0x3dab3e0b	0.08361443
163	0x3dde0eec	0.1084269
164	0x3e7000b6	0.23437771
165	0x3dbd60b4	0.0924696
166	0x3d80f769	0.0629719
167	0xbf113aea	-0.5673052
168	0xbed95331	-0.42446283
169	0x3dbff55c	0.093729705
170	0xbe8594a6	-0.26089972
171	0xbea1e480	-0.31619644
172	0x3b832f03	0.004003407
173	0x3e4a9157	0.19782005
174	0xbc2d6b40	-0.010584652
175	0xbe845f42	-0.25853926
176	0x3da55c45	0.0807424
177	0x3e0dfa84	0.13865095
178	0xbdc6bf73	-0.09704485
179	0xbe2955b6	-0.16536602
180	0x3eaaa562	0.33329302
181	0xbed15500	-0.40885162
182	0x3e3d56cf	0.18490146
183	0x3c6baf79	0.014385098
184	0x3c00442a	0.007828752
185	0x3e9aa538	0.30204177
186	0x3ecbeaea	0.39827663
187	0x3ee94ea9	0.45567825
188	0x3ed43e4a	0.41453773
189	0x3d836388	0.064154685
190	0xbec2c593	-0.38041362
191	0xbe38a9fe	-0.18033597
192	0x3ca377f9	0.019954668
193	0x3e2284bb	0.15870945
194	0xbec8e1e9	-0.39234856
195	0x3de1a0e1	0.11017013
196	0xbe1de757	-0.1542028
197	0x3e8710d2	0.2638002
198	0xbf27afe7	-0.6550278
199	0x3d20dbcb	0.03927211
200	0x3e83d3cc	0.25747526
201	0xbc312a99	-0.010813379
202	0x3db33752	0.08750786
203	0xbecce664	-0.40019524
204	0x3d4c8aaa	0.049936928
205	0x3e3d62d8	0.18494737
206	0xbdf7ab31	-0.12093199
207	0xbea6224e	-0.32448047
208	0xbebfe8ac	-0.37482202
209	0xbe06bada	-0.13157216
210	0xbea6784e	-0.3251366
211	0x3edcde19	0.43138197
212	0x3d21e307	0.03952315
213	0xbeba6fdc	-0.36413467
214	0x3c1cbf83	0.009567144
215	0xbf0d9303	-0.5530245
216	0x3e7f7196	0.24945673
217	0xbe01cf40	-0.12676716
218	0x3e3f9bb4	0.1871174
219	0x3e4670b8	0.19378936
220	0x3e24f89d	0.16110463
221	0xbd8abd82	-0.06774427
222	0xbe096d56	-0.13420615
223	0x3ea1e909	0.31623104
224	0x3e8be555	0.27323404
225	0xbea6080e	-0.3242802
226	0x3eb0f502	0.34561926
227	0x3f0471e7	0.517363
228	0x3f0aa3e9	0.5415636
229	0x3e93b873	0.2885166
230	0xbdcb5622	-0.09928538
231	0xbc2256a7	-0.009908355
232	0x3e03bd17	0.12865101
233	0xbede8fc0	-0.43469048
234	0xbe0e2ccf	-0.1388428
235	0x3d060f5c	0.03272949
236	0xbd1fd05f	-0.039017078
237	0xbeb03c25	-0.34420887
238	0xbea249df	-0.31696984
239	0xbec5aead	-0.3860983
240	0x3f03a969	0.51430374
241	0xbd61408d	-0.0549932
242	0xbebc0d0d	-0.36728707
243	0x3e2ab314	0.16669875
244	0x3e120a8e	0.14261839
245	0xbceae4fa	-0.028673638
246	0x3e59f3dd	0.21284433
247	0xbd3a83f3	-0.045535993
248	0xbc89a002	-0.01679993
249	0x3d3035ad	0.04301994
250	0x3e8fa63e	0.2805652
251	0x3bcaaed1	0.0061853905
252	0xbefe7e44	-0.49705708
253	0x3ee41ecc	0.44554746
254	0x3e2ae433	0.16688614
255	0x3e293069	0.16522373

fc.2.weight f4 [2, 16]
0	0xbedc668e	-0.43046993
1	0x3c3b0b9b	0.011416341
2	0xbf0e51c8	-0.5559354
3	0x3e6cac9f	0.23112725
4	0x3f1200ab	0.5703227
5	0x3ceabcaa	0.028654415
6	0xbdec8862	-0.115494505
7	0x3efbc880	0.49176407
8	0xbeadcf94	-0.33947432
9	0x3d4c1d7a	0.0498328
10	0x3e7a9f40	0.24474812
11	0xbe97d3d9	-0.29653814
12	0x3dfa75d0	0.12229502
13	0xbead49cb	-0.33845362
14	0x3e79e8d7	0.24405228
15	0x3e365877	0.17807184
16	0x3c8b2b6e	0.016988482
17	0x3e5f3ffa	0.21801749
18	0xbe9e80c7	-0.30957624
19	0x3e58a860	0.2115798
20	0xbf07c63d	-0.5303686
21	0xbee0c438	-0.43899703
22	0x3e15d0e7	0.14630471
23	0x3e92ffcc	0.28710783
24	0xbe828771	-0.2549396
25	0xbe9662f9	-0.29372385
26	0xbe9e7975	-0.3095204
27	0x3eaf5439	0.34243944
28	0xbed6bf64	-0.41942894
29	0xbeedb9b7	-0.46430752
30	0x3db28d9c	0.08718416
31	0xbe2d53de	-0.16926524

hidden_rnn.weight_ih_l0 f4 [16, 5]
0	0x3e504a55	0.20340855
1	0x3cd46ecf	0.025931744
2	0x3d8d0a8d	0.06886778
3	0xbd435a22	-0.04769338
4	0xbd44fc72	-0.048092313
5	0xbc04c00d	-0.008102429
6	0x3da0e0be	0.07855366
7	0x3dbf845f	0.0935142
8	0x3daf94ef	0.08573329
9	0xbe442dac	-0.19158047
10	0xbe4b0951	-0.19827773
11	0xbe192a5d	-0.14957567
12	0xbe77f31e	-0.24213836
13	0xbc7f589b	-0.01558509
14	0x3c7ddce1	0.015494556
15	0xbd953a66	-0.07286529
16	0x3dc9f83f	0.09861802
17	0xbd4f4e68	-0.050611883
18	0xbe2d9afc	-0.16953653
19	0x3e508616	0.2036365
20	0x3cbd6af4	0.023122288
21	0x3e0e225c	0.13880295
22	0x3e333c82	0.1750355
23	0xbd351ff8	-0.04421994
24	0x3d6177e2	0.05504597
25	0xbe10ca53	-0.1413968
26	0x3e3a50c8	0.18194878
27	0x3e38d417	0.18049656
28	0x3ea276c1	0.31731227
29	0xbd91efa1	-0.07125784
30	0xbde48c8f	-0.11159622
31	0x3e134ce1	0.14384796
32	0x3e0c7ec4	0.13720232
33	0x3deea098	0.116517246
34	0xbe86376d	-0.26214162
35	0xbc855e46	-0.016280305
36	0xbc820a35	-0.015874008
37	0x3da1c9c7	0.07899814
38	0x3ccda79b	0.025104335
39	0xbd11f457	-0.03563341
40	0xbd787b8a	-0.06066469
41	0xbe01bffd	-0.12670894
42	0x3d3f1a27	0.0466558
43	0x3e2d2b2a	0.16910997
44	0x3ce44e76	0.027869444
45	0x3d764bbc	0.06013082
46	0x3dc31eb9	0.09527344
47	0xbe0d52ad	-0.1380107
48	0xbdd89e32	-0.10577048
49	0x3e5f6db4	0.21819192
50	0xbe2ca478	-0.16859615
51	0xbddd4ab4	-0.10805264
52	0xbe18a207	-0.14905559
53	0x3e0e5f5f	0.13903569
54	0xbdd2fa1a	-0.10301609
55	0xbe279865	-0.16366728
56	0xbe078fcb	-0.13238446
57	0x3e1b142f	0.15144418
58	0xbd088582	-0.033330448
59	0xbdf15a7a	-0.11784835
60	0x3d33db09	0.04391006
61	0xbd32e76b	-0.04367773
62	0x3d01c1a4	0.03167881
63	0x3c467fe2	0.012115451
64	0x3d9cd700	0.076581955
65	0xbd4fa1c7	-0.050691392
66	0x3db2d210	0.087314725
67	0xbdc09cc3	-0.094049
68	0x3e00e5d0	0.12587667
69	0xbd3c205a	-0.04592929
70	0xbe256226	-0.16150722
71	0x3d85301a	0.06503315
72	0xbe149042	-0.14508155
73	0x3c9641bf	0.018341897
74	0xbe44d5c4	-0.1922217
75	0xbbaf94d6	-0.005358319
76	0x3e030f31	0.12798764
77	0x3c57e9be	0.013178287
78	0xbb65866f	-0.0035022756
79	0xbdf200e2	-0.11816575

hidden_rnn.weight_hh_l0 f4 [16, 16]
0	0xbe1746d2	-0.1477311
1	0xbe2c1746	-0.16805753
2	0x3e0c628d	0.13709469
3	0xbe2b1487	-0.1670705
4	0x3e60dd5f	0.21959446
5	0xbcc5f492	-0.024164472
6	0x3b8e8cdc	0.004350288
7	0x3dff8b3c	0.12477729
8	0x3dc5a546	0.09650664
9	0x3e1e179f	0.15438698
10	0xbe359667	-0.17733155
11	0x3e188747	0.14895354
12	0xbd82ec44	-0.0639272
13	0xbd040414	-0.03223045
14	0xbe28121f	-0.16413163
15	0x3dd5de70	0.10442817
16	0xbd1d825d	-0.038454402
17	0xbe2cba03	-0.16867833
18	0xbea44501	-0.32083896
19	0x3e612f01	0.21990587
20	0x3bcf61c3	0.006328793
21	0xbd33f6d3	-0.04393656
22	0xbd04c647	-0.032415655
23	0xbd66c057	-0.056335773
24	0xbd67cbfe	-0.056591026
25	0x3e0fc32d	0.14039297
26	0xbe383619	-0.17989387
27	0x3d903072	0.0704049
28	0xbe7350fd	-0.23761363
29	0x3e345b20	0.17612886
30	0xbe85b581	-0.2611504
31	0xbd866539	-0.065622754
32	0x3d0d28b7	0.034462657
33	0xbd46bf3d	-0.048522223
34	0x3e4fcdd1	0.20293356
35	0x3d609635	0.05483075
36	0x3d85748e	0.06516372
37	0x3e5ac2a6	0.21363315
38	0x3de8c1cd	0.113650896
39	0xbc08f3e4	-0.008358929
40	0x3e346307	0.17615901
41	0xbd7f34c8	-0.062306195
42	0x3dffb0f1	0.12484921
43	0xbd897987	-0.067126326
44	0x3e4306db	0.19045584
45	0xbe937392	-0.2879911
46	0x3ce3f9cf	0.027829079
47	0xbe35c24e	-0.17749903
48	0xbe447a28	-0.19187224
49	0x3d714590	0.05890423
50	0xbd116d0b	-0.035504382
51	0x3e190be7	0.14945947
52	0x3e33bfbe	0.17553613
53	0xbca12c7f	-0.019674538
54	0xbdede8e9	-0.1161669
55	0x3e8e9801	0.27850345
56	0xbdbe8684	-0.093030006
57	0xbdcafe7f	-0.099118225
58	0x3df54cf4	0.11977568
59	0xbd241c6b	-0.040066164
60	0xbda37553	-0.07981362
61	0x3b927089	0.0044689816
62	0xbd2f4a53	-0.04279549
63	0xbcbbf288	-0.022942796
64	0x3d53c99c	0.05170594
65	0xbcdd003b	-0.026977649
66	0xbe4dcb7e	-0.20097157
67	0x3cc50563	0.02405042
68	0x3db7066c	0.08936772
69	0xbe6ca644	-0.231103
70	0x3e0d51dd	0.1380076
71	0xbe6a412d	-0.22876425
72	0x3dd9d1e2	0.10635735
73	0xbe40a29a	-0.18812028
74	0xbb963201	-0.0045835976
75	0x3e2ce350	0.16883588
76	0x3e7158e2	0.23569062
77	0x3e2459a0	0.16049814
78	0xbd63acc1	-0.055584673
79	0x3dcdb0f8	0.1004352
80	0xbd876eca	-0.06612928
81	0x3c47195f	0.012152045
82	0x3d610339	0.054934714
83	0xbe772177	-0.2413386
84	0x3e14140b	0.14460771
85	0xbde4af0c	-0.111662
86	0xbe19e627	-0.15029202
87	0x3e0f23fb	0.13978569
88	0x3cf69d77	0.030104382
89	0xbe4af856	-0.19821295
90	0xbe465722	-0.19369176
91	0x3c946222	0.0181132
92	0xbdfc016d	-0.123049594
93	0xbe517a58	-0.20456827
94	0xbe0b24d6	-0.1358827
95	0xbde4d970	-0.111742854
96	0x3e0c2a41	0.13687994
97	0xbdc18c6f	-0.09450614
98	0x3bdedc2d	0.0068011493
99	0x3e089a61	0.13340141
100	0x3dd872ac	0.10568747
101	0xbe6bc6e9	-0.23025097
102	0x3c25e081	0.010124327
103	0x3d65a5b9	0.05606625
104	0x3d9bd18d	0.07608328
105	0x3df9eb88	0.12203127
106	0xbe4896d6	-0.1958879
107	0xbe2cb589	-0.16866125
108	0x3e1b7047	0.15179549
109	0xbe180fd3	-0.14849786
110	0xbddbe7bb	-0.107375585
111	0xbd55e085	-0.05221607
112	0xbe1bfcea	-0.15233198
113	0x3d92dc23	0.07170894
114	0xbe27112f	-0.16315149
115	0x3cf82ff6	0.030296307
116	0xbdd6b484	-0.104836494
117	0x3da4fbf3	0.08055868
118	0x3e146523	0.14491706
119	0x3e090c4a	0.13383594
120	0xbe500e60	-0.20317984
121	0x3de333e7	0.11093884
122	0x3dfdd611	0.123943456
123	0xbe6798df	-0.2261691
124	0x3db9395e	0.09044145
125	0x3e89cfa3	0.26916227
126	0xbda0fae1	-0.07860351
127	0x3e38028d	0.17969723
128	0x3c0e9790	0.0087031275
129	0xbdfcc833	-0.123428725
130	0xbd1a8ee9	-0.037733946
131	0xbdceadaa	-0.100917175
132	0x3e9288d6	0.28620023
133	0xbd20040a	-0.039066352
134	0x3e00de22	0.12584737
135	0xbc795525	-0.015218054
136	0x3e03e4ed	0.12880297
137	0xbcbfee8f	-0.023429183
138	0xbe45c192	-0.19312122
139	0x3dbf3f57	0.09338253
140	0xbb77b39e	-0.003779627
141	0x3d151994	0.036401346
142	0x3e6be41c	0.23036236
143	0x3e867cc6	0.2626707
144	0xbd66bad2	-0.05633051
145	0xbe473831	-0.19455029
146	0x3dd4ef26	0.103971764
147	0xbb47354c	-0.0030396758
148	0xbd61edfb	-0.055158596
149	0xbdd659ac	-0.10466322
150	0xbb3b406f	-0.002857234
151	0x3e18bce5	0.14915808
152	0x3bcc2aa8	0.006230671
153	0xbd6d9da6	-0.058011673
154	0xbde78a74	-0.11305705
155	0xbe34e65d	-0.17666002
156	0xbe1d5115	-0.15362962
157	0xbe21ed3e	-0.15813157
158	0x3e269415	0.16267426
159	0x3e58ff4d	0.2119114
160	0x3e3439dc	0.17600197
161	0xbde02fa3	-0.10946586
162	0x3e4b9d9e	0.19884345
163	0x3ddbdce8	0.10735494
164	0xbe5291fe	-0.20563504
165	0xbe945592	-0.28971535
166	0xbe54b383	-0.20771603
167	0xbdd731cd	-0.105075456
168	0x3da763c5	0.081733264
169	0xbe2e57f9	-0.17025746
170	0x3d6e1768	0.05812779
171	0x3d9458e5	0.07243518
172	0x3df83eca	0.12121351
173	0x3d6b8231	0.057497207
174	0x3e54433e	0.20728776
175	0x3d48439c	0.048892602
176	0x3e8f0878	0.2793615
177	0xbe4c4ebe	-0.19951913
178	0xbe3a4061	-0.18188621
179	0x3d8ce4b2	0.06879558
180	0x3d9eab7c	0.07747552
181	0x3d92c1c0	0.07165861
182	0xbe0a7f09	-0.13525023
183	0x3dfe9ca3	0.1243222
184	0xbda78867	-0.081803136
185	0x3eb39eaa	0.3508199
186	0x3e27c8e3	0.16385226
187	0x3dd70083	0.104981445
188	0x3e15907c	0.14605898
189	0x3db2b07c	0.08725068
190	0xbc3af2e8	-0.011410452
191	0x3e20fded	0.15721865
192	0x3d8b97e8	0.06816083
193	0xbe5d623d	-0.21619506
194	0x3e8972d7	0.26845428
195	0x3c417330	0.011807248
196	0x3daf5ffa	0.08563228
197	0x3dc40e5f	0.095730536
198	0x3cdfeadd	0.027333671
199	0xbdbd7dae	-0.09252487
200	0x3dfa9d00	0.122369766
201	0xbc93be6e	-0.01803514
202	0x3e4470ba	0.19183627
203	0x3e6b2323	0.22962622
204	0xbe14229a	-0.14466324
205	0x3dc095df	0.09403586
206	0xbd145207	-0.03621104
207	0x3e0f53c3	0.13996796
208	0xbe32fe71	-0.17479874
209	0x3dfd5ce7	0.12371235
210	0xbd7a47ce	-0.061103635
211	0x3e87bafd	0.26509848
212	0x3b1cf485	0.0023949456
213	0xbe16004f	-0.14648555
214	0x3c159ba3	0.009131345
215	0xbe09798f	-0.13425277
216	0x3e524b9a	0.20536652
217	0xbcb15f90	-0.021652013
218	0x3d78b16c	0.060716078
219	0xbe81888a	-0.25299484
220	0xbe1a56be	-0.15072152
221	0x3d0f3400	0.0349617
222	0x3e24dc58	0.1609968
223	0x3d84b4d0	0.064798
224	0xbea7e39f	-0.3279085
225	0x3e055853	0.13021974
226	0xbde1dd3a	-0.11028524
227	0xbe35e5e9	-0.17763485
228	0x3c8fc134	0.017548181
229	0xbd852a11	-0.06502164
230	0xbe03bd08	-0.12865078
231	0xbdd22615	-0.1026117
232	0xbe6b7fa5	-0.22997911
233	0x3dcf6875	0.101273455
234	0x3e4a1dda	0.1973795
235	0xbe0f081c	-0.13967937
236	0x3e20a58b	0.1568815
237	0x3da618f5	0.08110229
238	0xbe26d276	-0.16291222
239	0xbdb1fa64	-0.08690336
240	0x3e70094b	0.23441045
241	0x3e85257c	0.2600516
242	0xbe70a2be	-0.23499581
243	0xbdb633dd	-0.08896611
244	0x3ea524ee	0.32254738
245	0x3e3adbf1	0.18247963
246	0xbd6a1e69	-0.057157908
247	0xbe6465a6	-0.22304401
248	0x3e8460d9	0.2585514
249	0x3e48626e	0.19568798
250	0xbda0663d	-0.078320004
251	0x3e186ba9	0.14884819
252	0xbe33f460	-0.1757369
253	0x3e54c3cd	0.20777817
254	0xbcfaf016	-0.03063206
255	0xbe59c8aa	-0.21267954

hidden_rnn.bias_ih_l0 f4 [16]
0	0xbdbbeb8f	-0.091757886
1	0x3e4bd4d5	0.19905408
2	0xbe7e0cae	-0.24809524
3	0xbcd6b7f9	-0.026210772
4	0xbe02a008	-0.1275636
5	0x3e8ccaaf	0.27498385
6	0x3de900c6	0.11377101
7	0x3e939209	0.28822353
8	0xbe4f3ce1	-0.20238067
9	0x3da7e45e	0.081978545
10	0xbe83c812	-0.2573858
11	0xbe203efc	-0.15649027
12	0xbe3e050b	-0.18556611
13	0xbc0354cf	-0.008015825
14	0xbe1bef16	-0.15227923
15	0x3d7424b2	0.059605308

hidden_rnn.bias_hh_l0 f4 [16]
0	0x3e3b38d8	0.18283403
1	0xba05c720	-0.00051032193
2	0x3e3fb3c4	0.18720919
3	0x3e01a45c	0.12660354
4	0xbe52ed45	-0.20598324
5	0xbe2f037d	-0.17091174
6	0x3c7e038c	0.015503775
7	0x3c2a26ab	0.010385196
8	0xbe6f17b9	-0.23348893
9	0xbd4692d9	-0.04847989
10	0x3da5bd59	0.08092756
11	0x3e182ae7	0.14860116
12	0x3dbc6888	0.09199625
13	0x3e243bbf	0.16038416
14	0x3df430a1	0.11923338
15	0x3e406a2e	0.18790504

exp_avg f4 [16, 7]
0	0xbc15c542	-0.009141268
1	0xbc0314d7	-0.008000574
2	0xb9d03846	-0.00039714779
3	0xb8740d1b	-5.818634e-05
4	0xbc2d40a6	-0.010574495
5	0x3b1e999f	0.0024200452
6	0x3c2c5e62	0.0105205495
7	0x3cc31a83	0.023816353
8	0x3cb289d0	0.02179423
9	0xba61eb7a	-0.00086181576
10	0x39552105	0.00020325564
11	0x3c8679ce	0.016415503
12	0xbb0764e0	-0.0020659491
13	0xbc933356	-0.017968815
14	0x3be14688	0.006874863
15	0xb9bd1d59	-0.00036070755
16	0xbc67d422	-0.0141496975
17	0xbba68cd8	-0.005082708
18	0xbc08908a	-0.008335242
19	0x3c08db62	0.008353086
20	0xbc4442bc	-0.011978801
21	0x3c0001a7	0.007812894
22	0x3c122d75	0.008921971
23	0xbcabf117	-0.020988984
24	0x3c5667df	0.013086288
25	0x3ada8358	0.0016671224
26	0xbce02755	-0.027362505
27	0xbbeeb25b	-0.007284445
28	0xbccbdda6	-0.024885964
29	0xbce1a613	-0.02754501
30	0xbb82c95b	-0.0039912886
31	0x3c2decad	0.01061551
32	0xbc8c0891	-0.017093929
33	0xba30884b	-0.00067341764
34	0x3c923410	0.017847091
35	0x3cc44a7b	0.023961296
36	0x3c571182	0.013126733
37	0xbc1d4e78	-0.009601228
38	0xbbd28a82	-0.006425203
39	0x3c5e8bf3	0.013583171
40	0x3c3291b7	0.010898999
41	0xbcac1407	-0.021005644
42	0x3ba0d98d	0.0049087466
43	0xbb8c6508	-0.004284505
44	0x399869b0	0.00029070443
45	0x3b6a95d6	0.0035794876
46	0xb7e437b3	-2.7205655e-05
47	0x3ca698e4	0.020336576
48	0xbab85c6d	-0.0014065631
49	0x3cc580e8	0.024109319
50	0x3c90ce62	0.017676536
51	0x3b364f62	0.0027818312
52	0x3a23ca06	0.00062480604
53	0x3c3f7dd1	0.011687712
54	0xbc0205e3	-0.007935974
55	0xbc1b4008	-0.009475715
56	0xbb8bff7c	-0.0042723995
57	0xbb7a8685	-0.0038227153
58	0xbb845e9c	-0.0040395986
59	0x3c18fed0	0.009338096
60	0xba25749b	-0.0006311626
61	0x3b563e2a	0.0032690861
62	0x3ae87428	0.0017734813
63	0xbc0a096a	-0.008425096
64	0xbb783049	-0.0037870577
65	0x3c4ba92d	0.012430471
66	0x3bba6646	0.0056884615
67	0xbafccb3c	-0.0019286643
68	0x3bbf04f4	0.005829448
69	0x3cccd3cb	0.025003335
70	0xbc4de20a	-0.012566099
71	0xbc222d25	-0.009898459
72	0xbc24426d	-0.010025603
73	0x3b8c497f	0.0042812224
74	0xbc20b0d1	-0.009807781
75	0xbc55cd5c	-0.01304945
76	0x3c39433a	0.011307532
77	0xbcc2055f	-0.023684202
78	0xbc47cf46	-0.012195414
79	0x3c2653fb	0.010151858
80	0x3b14231f	0.0022603942
81	0xbc800f81	-0.015632393
82	0xbba4293d	-0.005009799
83	0x3cb0e53f	0.021593688
84	0x3c5adcbe	0.013358293
85	0x3bff2e28	0.0077874847
86	0xbb9762a8	-0.004619915
87	0xbb62fe23	-0.003463634
88	0x3a4db1f0	0.0007846644
89	0x3bffe925	0.0078097754
90	0xbbb7e21c	-0.005611671
91	0xbc3d5250	-0.011555269
92	0xbbd32202	-0.006443263
93	0x3abb1dbe	0.0014275832
94	0x3b7a1622	0.0038160165
95	0xba1bf01c	-0.000594856
96	0xbc2ff089	-0.0107385
97	0x3c4f17ca	0.012639949
98	0xbc4d6eb5	-0.012538602
99	0xbbb9defa	-0.005672333
100	0xbb9f1e0a	-0.004855876
101	0x3b127538	0.00223477
102	0xbbe25beb	-0.00690793
103	0xbbebe72c	-0.0071991887
104	0x3c29647a	0.010338897
105	0xbcd595da	-0.026072431
106	0xbcb99585	-0.022654304
107	0x3bc55318	0.0060218684
108	0x3c564e4e	0.013080193
109	0xbc65aa9c	-0.014017727
110	0xbbda6cbe	-0.006665795
111	0x3cc07fd2	0.02349845

exp_avg_sq f4 [16, 7]
0	0x3aaf866f	0.0013391505
1	0x3acb5dfb	0.0015515679
2	0x3aebee88	0.0018000165
3	0x3aa10f9b	0.0012287976
4	0x3a93b8aa	0.0011270244
5	0x3ae41ce2	0.0017403627
6	0x3a22091e	0.0006181168
7	0x3b5baef8	0.0033521038
8	0x3b52c9b0	0.0032163672
9	0x3b8035da	0.0039126696
10	0x3b28c3d0	0.002575148
11	0x3b43458f	0.0029796099
12	0x3b88ccdf	0.004174813
13	0x3b0da53d	0.0021613382
14	0x3ad5033f	0.0016251578
15	0x3b29067b	0.0025791216
16	0x3add6f4b	0.001689413
17	0x3b091df8	0.0020922404
18	0x3ad7417a	0.0016422712
19	0x3b6dfa73	0.003631261
20	0x3a9cccc3	0.0011962879
21	0x3b43d4f8	0.0029881578
22	0x3bd415c7	0.0064723226
23	0x3b5b0342	0.003341869
24	0x3b9a73de	0.0047135195
25	0x3b6a3c30	0.003574144
26	0x3c3ab1b2	0.011394905
27	0x3b18c54a	0.0023310953
28	0x3b930dfa	0.00448775
29	0x3bdf590d	0.0068160356
30	0x3c052e03	0.008128646
31	0x3b66f026	0.0035238354
32	0x3b58cff0	0.0033082925
33	0x3c3d1495	0.011540552
34	0x3b3ff52a	0.0029290416
35	0x3b4eb968	0.0031543616
36	0x3b8090bb	0.003923503
37	0x3b311dd3	0.0027025833
38	0x3b60c51b	0.0034297172
39	0x3b442eb0	0.0029935054
40	0x3c259c52	0.01010807
41	0x3b30bb44	0.0026967088
42	0x3a520e2c	0.0008012976
43	0x3a760085	0.00093842327
44	0x3a72a607	0.00092563074
45	0x3a629bdb	0.000864444
46	0x3a367c80	0.0006961301
47	0x3b016af7	0.0019747594
48	0x39a8bd76	0.00032184616
49	0x3b3bdc5e	0.0028665285
50	0x3b72da70	0.0037056468
51	0x3b5589a7	0.0032583268
52	0x3b4c6ba6	0.0031192093
53	0x3b41c91a	0.0029569329
54	0x3b9cd1f7	0.004785772
55	0x3b25afd6	0.0025281808
56	0x3a831866	0.0010001778
57	0x3a920fd5	0.0011143634
58	0x3a74cbf6	0.0009338254
59	0x3a90eb45	0.0011056444
60	0x3a7b8b35	0.00095956336
61	0x3b3dae0d	0.0028942854
62	0x3a7d21ab	0.0009656201
63	0x3b44a0d3	0.0030003085
64	0x3b9ca939	0.004780915
65	0x3b685179	0.0035448952
66	0x3b51de3f	0.0032023338
67	0x3b4181ce	0.0029526833
68	0x3bdd1a0d	0.0067474903
69	0x3b2207c4	0.0024723867
70	0x3a353ec6	0.0006913956
71	0x3a8df069	0.0010829094
72	0x3ab3fa36	0.0013731185
73	0x3a0f02b3	0.00054554193
74	0x3a2b7d7e	0.0006541832
75	0x3acf63ea	0.0015822623
76	0x3a4f9f14	0.0007920128
77	0x3b56ef85	0.0032796573
78	0x3b759a22	0.0037475904
79	0x3b9c85c9	0.0047766906
80	0x3b2ce2c4	0.002638028
81	0x3b30d91d	0.0026984878
82	0x3b97ef5e	0.004636689
83	0x3ae456fc	0.0017420943
84	0x3a9d51cb	0.0012002526
85	0x3ac2e120	0.0014868118
86	0x3aab63d3	0.0013076015
87	0x3ab1c234	0.0013561905
88	0x3a9a8a4e	0.0011790486
89	0x3b0c8874	0.0021443637
90	0x3a4faf9c	0.0007922591
91	0x3acf1fc4	0.0015802314
92	0x3b2db6e2	0.0026506712
93	0x3b0bcc2c	0.0021331413
94	0x3afece03	0.0019440058
95	0x3ad7f2ca	0.0016475555
96	0x3bbaf51b	0.0057054884
97	0x3ab9e4fb	0.0014182621
98	0x3a1db64a	0.0006016238
99	0x3a5381e9	0.00080683694
100	0x3a8ec9c2	0.0010893869
101	0x3a05cb3f	0.00051038334
102	0x3a0c93d5	0.0005362605
103	0x3a651719	0.00087390986
104	0x39fd4fcd	0.00048315377
105	0x3b6235a8	0.0034516845
106	0x3bb1940d	0.0054192604
107	0x3b9be08d	0.004756993
108	0x3b4f4e5f	0.0031632406
109	0x3b4c26a5	0.0031150964
110	0x3bec5777	0.007212575
111	0x3b0096bc	0.0019621095

exp_avg f4 [16, 16]
0	0x3a866952	0.0010254777
1	0xba5dab50	-0.00084560085
2	0x3a91a4a3	0.0011111688
3	0xbb6b74eb	-0.0035927843
4	0x3929c8ca	0.00016191896
5	0x3b1b923a	0.002373828
6	0x3b2ae0c8	0.0026073921
7	0xbae8e5fb	-0.0017768735
8	0xba927834	-0.0011174739
9	0x3b14c4ab	0.002270023
10	0xbb68536e	-0.0035450119
11	0x3b34ce8a	0.0027588927
12	0x3ba0c358	0.0049060993
13	0xbbd57d11	-0.006515153
14	0xbb60057a	-0.0034182952
15	0xbb267102	-0.0025396948
16	0xbb817721	-0.003950969
17	0xba54b09a	-0.0008113474
18	0xbaab8f10	-0.0013088901
19	0x3bdf7b4d	0.0068201185
20	0xb92ebf6c	-0.00016665243
21	0xbbddb534	-0.006765986
22	0xbbc54004	-0.006019594
23	0x3b8051e4	0.003916012
24	0x3b7b95bc	0.003838881
25	0xbb19722b	-0.0023413997
26	0x3be5c87f	0.0070124264
27	0xbb983da5	-0.0046460205
28	0xbc092522	-0.00837067
29	0x3c6303aa	0.013855854
30	0x3c063db5	0.008193423
31	0x3bb4453d	0.005501418
32	0xbba8146f	-0.005129389
33	0x3bb02d8f	0.0053765248
34	0xbafa6477	-0.0019103427
35	0x3b2ac7f3	0.002605912
36	0xbb4bde8e	-0.0031107995
37	0x3b51ceb8	0.0032014083
38	0xbbeaaf30	-0.0071619973
39	0xb8d94010	-0.00010359299
40	0xbbabe128	-0.0052453466
41	0x3a44344c	0.00074845995
42	0x3b1b0c74	0.0023658546
43	0xbb1a6cad	-0.002356331
44	0xb985b8cd	-0.00025505424
45	0x3b067ae2	0.0020520021
46	0x3b84bc63	0.0040507778
47	0x3b6209d4	0.0034490721
48	0xbc41f517	-0.011838219
49	0xbb312818	-0.0027031954
50	0xbbdfbec7	-0.0068281624
51	0xbb8f3453	-0.004370251
52	0x39e9a1c2	0.00044561742
53	0x3aa969c5	0.0012925199
54	0xbc35c103	-0.011093381
55	0xbb8ca2ef	-0.004291884
56	0xbbae4be4	-0.0053191055
57	0x3c54b960	0.01298365
58	0x3c14ed94	0.009089846
59	0x3bef709d	0.0073071257
60	0x3ad41639	0.0016180939
61	0x3ac566ca	0.0015060541
62	0x3c10acf5	0.008830299
63	0x3bebe760	0.007199213
64	0x3b7e497e	0.003880113
65	0xbb06c5f1	-0.002056476
66	0x3b02c2fe	0.001995265
67	0xbb7c61d6	-0.0038510463
68	0x3bddd27c	0.0067694765
69	0x3ba81e27	0.0051305476
70	0x3b9fcb3c	0.0048765223
71	0xbbbec925	-0.005822318
72	0xbaf7ac96	-0.0018896039
73	0x3a63974f	0.00086819095
74	0xbb2138ae	-0.0024600434
75	0x3c09b0cc	0.008403968
76	0x3c216745	0.0098512815
77	0xbc8a16ec	-0.016856633
78	0xbbae7130	-0.0053235516
79	0xba5f9973	-0.00085296406
80	0xbba51fcd	-0.0050391913
81	0x3b83173e	0.0040005734
82	0xbb1bb09f	-0.0023756397
83	0x3bbe92b8	0.00581583
84	0x39de70a9	0.00042427078
85	0xbba698f2	-0.0050841505
86	0xbbd71d5b	-0.0065647787
87	0x3b82bba2	0.0039896527
88	0x3b2f51b2	0.0026751575
89	0xbb4f3086	-0.0031614616
90	0x3b9da474	0.004810864
91	0xbb90136a	-0.0043968456
92	0xbbbaeb01	-0.005704284
93	0x3c6424dc	0.013924804
94	0x3c07a21e	0.008278398
95	0x3bd3eb66	0.0064672707
96	0x3b174a7d	0.002308517
97	0xbb59ea64	-0.003325128
98	0x3b03c0ad	0.0020103857
99	0x3bdb4fb3	0.0066928505
100	0x3c038bdf	0.008028953
101	0xbb61bf65	-0.0034446355
102	0x3b1bf857	0.0023799145
103	0xba6ee318	-0.0009112819
104	0x3b8f7ea3	0.00437911
105	0xbb9cb3c9	-0.0047821742
106	0x3b808633	0.003922248
107	0x3b33733e	0.0027381922
108	0x3a1b694f	0.0005928473
109	0xba76e222	-0.00094178517
110	0x3ae664e2	0.0017577673
111	0x3bb274eb	0.0054460666
112	0xbb8ea5cf	-0.004353262
113	0xbbf1277b	-0.0073594428
114	0xbb4017e3	-0.0029311113
115	0x3bb4207e	0.0054970374
116	0x3bcdf441	0.006285221
117	0xbc33be59	-0.010970675
118	0xbb0639da	-0.002048126
119	0xb9fac267	-0.00047828557
120	0x3c03d4da	0.008046353
121	0xba841f84	-0.0010080193
122	0x3ba7ce34	0.005121017
123	0x3b519e1a	0.0031985105
124	0xbb218bf2	-0.0024650064
125	0x3c3b8a7f	0.011446594
126	0x3c00f9bc	0.007872041
127	0x3c2487e0	0.010042161
128	0xba1927a5	-0.00058423943
129	0xbb2e1070	-0.002656009
130	0x386c9963	5.6409637e-05
131	0xb951ea5d	-0.000200191
132	0x3b97f7c5	0.0046376907
133	0xba3e5e48	-0.0007261974
134	0xb85ae090	-5.218439e-05
135	0xbb6389b4	-0.0034719529
136	0x39bd7026	0.00036132446
137	0x3a97adf0	0.0011572223
138	0x3b342323	0.0027486763
139	0x3b915426	0.00443508
140	0x3b0acca5	0.0021179107
141	0xbb76e017	-0.003767019
142	0x3a9fc078	0.0012188097
143	0x3b21a1e7	0.0024663152
144	0x3c11acf5	0.008891334
145	0xbbe37222	-0.006941096
146	0x3bb73286	0.0055907397
147	0xbb4bb7b1	-0.003108483
148	0x3b7f3bb7	0.0038945505
149	0xb9ac398c	-0.00032849272
150	0x3c41682a	0.01180462
151	0x3a43a287	0.0007462878
152	0x3b83e0e8	0.0040246136
153	0x380eecea	3.407608e-05
154	0xbb1837ee	-0.0023226696
155	0x3bcafa73	0.0061944067
156	0x3b939eb9	0.004505005
157	0xbc10b1e3	-0.008831474
158	0xbbfcf2e4	-0.0077193845
159	0xbbd2d48f	-0.0064340304
160	0xbb21d99f	-0.0024696363
161	0x3a3e359f	0.0007255915
162	0xbaba9188	-0.0014234046
163	0xbbf3ec89	-0.0074439687
164	0xbb3c8c9f	-0.002877034
165	0x3be95fe7	0.007122028
166	0xbace11b9	-0.0015721834
167	0xbb11cad9	-0.002224615
168	0xbbdb26df	-0.0066879834
169	0x3c0169f9	0.007898801
170	0xba48be51	-0.0007657754
171	0x3ba5a2a7	0.00505479
172	0x3bc1b60b	0.005911594
173	0xbc1c4bf6	-0.009539595
174	0xbb0ffbc5	-0.0021970135
175	0xbb485afd	-0.0030571811
176	0x3c035233	0.008015203
177	0x3af413d7	0.0018621635
178	0x3b9a2a39	0.0047047404
179	0xbbd6b6c6	-0.00655255
180	0xbab04019	-0.0013446837
181	0x3bc5857c	0.0060278755
182	0x3c182ed3	0.0092885075
183	0xba247dd7	-0.0006274855
184	0xbadd4f89	-0.0016884665
185	0x3a6de025	0.00090742327
186	0xbc0afe74	-0.008483518
187	0x3aa8bd47	0.0012873792
188	0x3bad2d27	0.0052849236
189	0xbc498096	-0.012298724
190	0xbc2c6c00	-0.010523796
191	0xbc233289	-0.009960779
192	0xba8f4724	-0.0010931236
193	0x3a7d4042	0.0009660759
194	0x380b30f5	3.3185777e-05
195	0x3b6e1bb2	0.0036332426
196	0x3a9de753	0.0012047089
197	0xbb351bfe	-0.0027635093
198	0xba8a6a18	-0.0010560183
199	0x3b0a5c59	0.0021112172
200	0x3af33659	0.0018555626
201	0xbaf1353a	-0.0018402704
202	0x3ac337bc	0.001489393
203	0xb9f9352c	-0.00047532597
204	0xba8ba17f	-0.0010652988
205	0x3bbaf600	0.005705595
206	0x3b52cb19	0.0032164513
207	0x3b314136	0.0027046925
208	0x3acff4b3	0.0015865773
209	0xbb064308	-0.002048673
210	0x39c920b4	0.00038362073
211	0xbbaa96e9	-0.005205978
212	0xb9fd15e0	-0.0004827222
213	0x3b39ac87	0.0028331594
214	0x3b054f66	0.0020341515
215	0xb95d3e11	-0.00021099324
216	0xba937d99	-0.0011252641
217	0x3b8a0a77	0.0042126733
218	0xba38d187	-0.0007050265
219	0x3b35ad31	0.0027721638
220	0x3b3d064c	0.0028842865
221	0xbbde3c92	-0.006782123
222	0xbb50ac6e	-0.0031841057
223	0xbb972edd	-0.004613741
224	0xbaa75edd	-0.001276936
225	0x3ad54b99	0.001627314
226	0xba43bcf5	-0.00074668165
227	0xbc085026	-0.00831989
228	0xbb949268	-0.0045340545
229	0x3bc4a43d	0.006001024
230	0xb9a341db	-0.0003113885
231	0xba8de1bf	-0.0010824724
232	0xbbaf0c8c	-0.005342072
233	0x3be8785a	0.007094425
234	0xbb3cba4b	-0.0028797563
235	0x3b0d060c	0.0021518497
236	0x3b793ca2	0.0038030525
237	0xbbdd3e9a	-0.0067518475
238	0xbb5493be	-0.0032436694
239	0xbbb0697f	-0.00538367
240	0x3bced579	0.006312069
241	0xbb5b5b4e	-0.003347117
242	0x3b0374e1	0.002005868
243	0xbbced38d	-0.00631184
244	0x3b58c8c9	0.0033078662
245	0x3bba31dd	0.0056822137
246	0x3c03caf1	0.0080439905
247	0xbb81c7f3	-0.0039606034
248	0xbb1660c2	-0.0022945856
249	0x3affac48	0.00195063
250	0xbb478e8d	-0.0030449957
251	0x3c05a811	0.008157746
252	0x3c02515e	0.00795397
253	0xbc8b0c95	-0.016973773
254	0xbc04c38c	-0.008103263
255	0xbb966b93	-0.0045904606

exp_avg_sq f4 [16, 16]
0	0x397d2b02	0.00024143982
1	0x39b178b3	0.0003385
2	0x39958cb7	0.00028524335
3	0x39e571a8	0.00043762964
4	0x39c5e445	0.00037744842
5	0x39a7d464	0.00032010966
6	0x396dc2a0	0.00022674585
7	0x39632f28	0.00021665974
8	0x39981eaf	0.0002901456
9	0x3a262c49	0.00063389965
10	0x39a39a24	0.00031204626
11	0x3965e97e	0.00021926124
12	0x397702b2	0.0002355676
13	0x39b22e6a	0.00033985387
14	0x392ba2f0	0.0001636853
15	0x39908d91	0.00027571296
16	0x3a7a13ff	0.0009539723
17	0x39ec0d08	0.00045023137
18	0x3a918155	0.0011101166
19	0x3a8d9fbf	0.0010805054
20	0x3a970e50	0.0011524651
21	0x3a0d4adc	0.0005389878
22	0x3a7c6823	0.00096285547
23	0x3a081434	0.0005190999
24	0x3a3bbc7e	0.00071615714
25	0x3abecd4d	0.0014557034
26	0x3a4d20bd	0.0007825008
27	0x3a183aff	0.0005807131
28	0x3a31ceb2	0.0006782814
29	0x3a80650c	0.0009795739
30	0x39d46b45	0.00040515713
31	0x3a1268a6	0.0005585052
32	0x39e7377f	0.000441011
33	0x3a4f407d	0.0007906033
34	0x397656d8	0.0002349274
35	0x39d11479	0.0003987884
36	0x3a362f7c	0.0006949825
37	0x3a1a349e	0.00058824744
38	0x39c8a39c	0.0003826887
39	0x39a73bea	0.00031897362
40	0x39bb66bb	0.0003574396
41	0x3a24effe	0.0006291865
42	0x3a2c4f5d	0.00065731053
43	0x3a01475c	0.0004931593
44	0x3950e6aa	0.00019922355
45	0x39de624e	0.00042416382
46	0x39ee2266	0.00045420526
47	0x3a1e56bd	0.00060401467
48	0x3a95b65d	0.0011422146
49	0x3b0a46be	0.0021099295
50	0x3a1dca3b	0.00060192094
51	0x39d7c433	0.00041154175
52	0x3ab78b5d	0.0014003325
53	0x3ac11845	0.0014731964
54	0x3a7ba7d8	0.0009599901
55	0x3a2a8cda	0.0006505974
56	0x3a67eb17	0.0008846982
57	0x3a90ae3c	0.0011038254
58	0x3aba5d57	0.0014218491
59	0x3ab4747f	0.0013767629
60	0x398d212b	0.00026918328
61	0x3a4a18b1	0.0007709368
62	0x3a92b892	0.0011193922
63	0x3ab61e30	0.0013894495
64	0x3ab86d0b	0.0014070583
65	0x3a9a3129	0.0011763918
66	0x3abe851b	0.0014535518
67	0x3ac5a35d	0.0015078593
68	0x3a4c33e8	0.0007789717
69	0x3a5c7c0a	0.0008410817
70	0x3aafb01e	0.0013403927
71	0x3a77fc68	0.00094599137
72	0x3a96478e	0.0011465417
73	0x3b09c334	0.002102089
74	0x3a5e4047	0.0008478206
75	0x3a7c86dd	0.00096331333
76	0x3a97938f	0.0011564362
77	0x3ab2198b	0.0013587935
78	0x39fdb7b3	0.00048392787
79	0x3a33d2a4	0.0006859696
80	0x3a9b8283	0.0011864457
81	0x3a84c428	0.001012926
82	0x3abf1a4d	0.0014579982
83	0x3a992695	0.0011684472
84	0x3a96bb7d	0.0011499968
85	0x39996974	0.00029261003
86	0x3a8576c3	0.0010182488
87	0x3a70fb31	0.0009192704
88	0x3a12980c	0.0005592115
89	0x3aa95ab1	0.0012920705
90	0x3a6d1d63	0.00090452115
91	0x3a3732aa	0.00069884455
92	0x3a5abdc9	0.000834432
93	0x3a723641	0.0009239652
94	0x39ada5eb	0.0003312075
95	0x3a1db26e	0.0006015663
96	0x393f75ae	0.00018259019
97	0x39873eda	0.00025796035
98	0x3954bc50	0.00020288047
99	0x399d6237	0.0003001855
100	0x397c5604	0.00024064636
101	0x39340118	0.00017166545
102	0x390cbf8e	0.000134228
103	0x393d614d	0.00018060692
104	0x392dffd0	0.00016593863
105	0x39b425ca	0.0003436043
106	0x396db221	0.0002266844
107	0x391d575d	0.00015005232
108	0x391e20c6	0.00015080263
109	0x39268995	0.00015882247
110	0x389ecc14	7.5720396e-05
111	0x393be658	0.0001791952
112	0x3a3e0027	0.00072479475
113	0x3aa77a44	0.0012777527
114	0x3a25fbd8	0.0006331778
115	0x3a6fe8c0	0.0009151809
116	0x3ab4754a	0.0013767865
117	0x3a82f79f	0.000999201
118	0x3a444d35	0.00074883114
119	0x39c0c26d	0.00036765952
120	0x3a3f8b31	0.0007306813
121	0x3a904f0d	0.0011009887
122	0x3a90322a	0.0011001278
123	0x3a67263a	0.0008817647
124	0x39c68eff	0.00037872043
125	0x3a4a3fc9	0.0007715193
126	0x3a34f80c	0.0006903417
127	0x3a8f8f96	0.0010952826
128	0x39b35ed4	0.00034212193
129	0x39dcef5b	0.00042140004
130	0x39b941a7	0.00035334865
131	0x39934f44	0.00028097082
132	0x39bf2d22	0.00036463985
133	0x39517ab6	0.00019977507
134	0x39a2469e	0.00030951662
135	0x39705f1b	0.00022923613
136	0x3939558e	0.00017674846
137	0x39c00611	0.00036625614
138	0x39a8ae76	0.0003217344
139	0x399092b9	0.00027575137
140	0x394383d5	0.0001864576
141	0x3986c25f	0.0002570329
142	0x394060fe	0.0001834668
143	0x398e367d	0.00027124948
144	0x3a851a79	0.0010154984
145	0x3aa310b8	0.0012440896
146	0x3a9781d2	0.0011559075
147	0x3a83d8fe	0.0010059176
148	0x3aa30b42	0.0012439268
149	0x3a43ba0b	0.0007466382
150	0x3a894ba8	0.0010474818
151	0x3a2b156c	0.00065263244
152	0x3a5c16ce	0.0008395732
153	0x3a659d53	0.00087591
154	0x3a6b1cdd	0.00089688395
155	0x3a30c56a	0.0006743284
156	0x3a46cc73	0.0007583566
157	0x3a6eb632	0.0009106129
158	0x39aad893	0.00032586287
159	0x3a2083e4	0.0006123169
160	0x3983e2eb	0.00025155334
161	0x398e5aef	0.000271521
162	0x3979cbaa	0.00023822361
163	0x39861b4b	0.00025578807
164	0x3948b2e2	0.00019140125
165	0x39520f9d	0.00020032977
166	0x398aaceb	0.00026450245
167	0x3931d672	0.00016959923
168	0x395e75a2	0.00021215391
169	0x39a7d207	0.00032009205
170	0x38f4de23	0.00011676203
171	0x3941e735	0.00018492046
172	0x39421746	0.00018509952
173	0x39858a08	0.00025470578
174	0x387d780b	6.04317e-05
175	0x39014697	0.00012328695
176	0x3a5d9f74	0.00084542413
177	0x3a7f79ed	0.00097456464
178	0x3a74642d	0.00093227887
179	0x3a8efefb	0.001090973
180	0x3a86c374	0.0010281638
181	0x3a4efe91	0.000789621
182	0x3a66062b	0.0008774723
183	0x3a12b5bb	0.0005596538
184	0x3a590487	0.00082785677
185	0x3ab82506	0.001404912
186	0x3a4384f9	0.0007458474
187	0x39eaf47d	0.00044814116
188	0x3a12fb5a	0.00056069123
189	0x3a65e7fa	0.0008770224
190	0x39bb38aa	0.00035709637
191	0x3a157a9c	0.0005702169
192	0x39934ad6	0.00028093782
193	0x3a0462a8	0.00050501013
194	0x39885bfb	0.00026008472
195	0x39dc3305	0.00041999682
196	0x3a0248ee	0.0004969974
197	0x39cd7f15	0.0003919533
198	0x3989cc34	0.0002628282
199	0x394f9378	0.00019795995
200	0x39a206d6	0.0003090414
201	0x3a070783	0.00051509606
202	0x39cce3dc	0.0003907968
203	0x398692f9	0.00025667975
204	0x39114586	0.00013854177
205	0x39964470	0.0002866122
206	0x396b3e87	0.0002243464
207	0x39c9583d	0.0003840345
208	0x3a229cf6	0.00062031986
209	0x3a52722e	0.00080278784
210	0x3a2c145c	0.0006564313
211	0x3a21db21	0.00061743153
212	0x3a10fa7a	0.0005530488
213	0x39ab72bb	0.00032701142
214	0x3a0e5dd0	0.0005430849
215	0x3a051d53	0.0005077917
216	0x39d706d4	0.00041013083
217	0x3a25dc00	0.0006327033
218	0x3a04b477	0.0005062292
219	0x39cbeb0b	0.00038894298
220	0x39df7e6b	0.00042628063
221	0x39c6c6d1	0.00037913633
222	0x392b7667	0.00016351939
223	0x39b636bb	0.00034754522
224	0x392ed875	0.0001667457
225	0x397b8d69	0.00023989905
226	0x392b2891	0.00016322943
227	0x395dcc58	0.00021152326
228	0x394712cf	0.00018985126
229	0x394b1d03	0.00019370396
230	0x3942b56b	0.00018568865
231	0x3902c38f	0.00012470617
232	0x393b8d9e	0.00017886466
233	0x3985c992	0.00025517918
234	0x390f1738	0.00013646192
235	0x38e63d23	0.00010978642
236	0x38ee9889	0.00011377136
237	0x392fcdce	0.00016765969
238	0x384f395d	4.940607e-05
239	0x39060100	0.00012779608
240	0x3a85c998	0.0010207174
241	0x3ab1af40	0.0013556257
242	0x3a90d188	0.0011048773
243	0x3a8a6081	0.0010557325
244	0x3a94b424	0.001134519
245	0x3a5258eb	0.0008024114
246	0x3a887ed2	0.0010413772
247	0x3a496870	0.0007683104
248	0x3a70c35c	0.0009184384
249	0x3a9b78cc	0.0011861562
250	0x3a57ee1d	0.0008237081
251	0x3a48fea0	0.00076673366
252	0x3a695d45	0.0008902143
253	0x3a8a19dc	0.0010536271
254	0x398acb9e	0.00026473118
255	0x39bef6df	0.00036423557

exp_avg f4 [16]
0	0x39b62b0d	0.0003474582
1	0xbb54c973	-0.0032468706
2	0x3bd64f1a	0.0065401914
3	0x3ba13b0a	0.004920368
4	0xbbbe493c	-0.00580707
5	0xbb152312	-0.00227565
6	0xbc623534	-0.01380663
7	0xbc79cc48	-0.015246458
8	0xbba61fa2	-0.005069689
9	0xbbf9021b	-0.007599128
10	0x3c18e901	0.009332896
11	0x3b087c55	0.002082606
12	0xbb84a9bd	-0.0040485547
13	0x3b1e2000	0.002412796
14	0x3c28496f	0.010271414
15	0xba757616	-0.00093636045

exp_avg_sq f4 [16]
0	0x3aa8c026	0.0012874648
1	0x3b61817d	0.0034409456
2	0x3ae35452	0.0017343855
3	0x3b635b76	0.0034691966
4	0x3b8584c2	0.004074664
5	0x3b5a3791	0.003329728
6	0x3a42c249	0.00074294634
7	0x3b5da62f	0.0033820977
8	0x3a842c74	0.0010084049
9	0x3b6850cc	0.003544855
10	0x3a469c80	0.0007576421
11	0x3b62e268	0.0034619812
12	0x3aae9904	0.0013320749
13	0x3ae74f70	0.0017647576
14	0x3a2dff73	0.0006637491
15	0x3b6c1d61	0.0036028253

exp_avg f4 [16]
0	0x39b62b0d	0.0003474582
1	0xbb54c973	-0.0032468706
2	0x3bd64f1a	0.0065401914
3	0x3ba13b0a	0.004920368
4	0xbbbe493c	-0.00580707
5	0xbb152312	-0.00227565
6	0xbc623534	-0.01380663
7	0xbc79cc48	-0.015246458
8	0xbba61fa2	-0.005069689
9	0xbbf9021b	-0.007599128
10	0x3c18e901	0.009332896
11	0x3b087c55	0.002082606
12	0xbb84a9bd	-0.0040485547
13	0x3b1e2000	0.002412796
14	0x3c28496f	0.010271414
15	0xba757616	-0.00093636045

exp_avg_sq f4 [16]
0	0x3aa8c026	0.0012874648
1	0x3b61817d	0.0034409456
2	0x3ae35452	0.0017343855
3	0x3b635b76	0.0034691966
4	0x3b8584c2	0.004074664
5	0x3b5a3791	0.003329728
6	0x3a42c249	0.00074294634
7	0x3b5da62f	0.0033820977
8	0x3a842c74	0.0010084049
9	0x3b6850cc	0.003544855
10	0x3a469c80	0.0007576421
11	0x3b62e268	0.0034619812
12	0x3aae9904	0.0013320749
13	0x3ae74f70	0.0017647576
14	0x3a2dff73	0.0006637491
15	0x3b6c1d61	0.0036028253
